data/example_dynamics_data/models/kitchen/LSTM_q_no.pth (torch, 187027 bytes, 10 tensors)

weight f4 [64, 70]
0	0xbea9354c	-0.33048475
1	0x3eabf575	0.33585706
2	0x3d9a3a92	0.07530703
3	0x3ca0eeba	0.019645084
4	0xbe3d5612	-0.18489864
5	0xbe9155d9	-0.2838581
6	0xbdc788e9	-0.097429104
7	0xbe2a94b6	-0.16658291
8	0xbe92a52a	-0.28641635
9	0xbe84a1c2	-0.2590466
10	0xbdef417c	-0.11682412
11	0xbd88c607	-0.06678396
12	0xbe56a418	-0.20961034
13	0xbd6c6348	-0.05771187
14	0xbc0f4dfa	-0.008746618
15	0xbd55ab9b	-0.05216561
16	0xbe54db46	-0.20786771
17	0xbe18c84b	-0.14920156
18	0xbe1c4a6a	-0.15262762
19	0x3e8e041d	0.27737513
20	0x3dd10132	0.10205306
21	0x3f153ddd	0.5829752
22	0xbd5e4656	-0.054266296
23	0x3cba9dc2	0.022780303
24	0x3d82090c	0.06349382
25	0xbd490983	-0.049081337
26	0x3c78ba47	0.015181131
27	0x3f6a5a19	0.9154373
28	0xbe3d7656	-0.18502173
29	0xbe10ae6c	-0.14129037
30	0x3caf8277	0.021424515
31	0xbbd91875	-0.00662523
32	0xbded7588	-0.11594683
33	0x3dbc43c2	0.09192611
34	0x3db7912f	0.089632384
35	0xbd526c26	-0.05137267
36	0x3d6de443	0.058079015
37	0x3d50fd64	0.051022902
38	0x3c7688e9	0.01504729
39	0x3dc715b1	0.09720934
40	0xbda944a6	-0.08265047
41	0xbdc38bbb	-0.09548136
42	0x3dd931c1	0.10605193
43	0x3d465ae2	0.048426516
44	0xbd50dde2	-0.050992854
45	0x3d61484e	0.055000596
46	0x3dd489ec	0.10377869
47	0x3de6523c	0.11246154
48	0xbdc9ea86	-0.09859185
49	0xbd1bed01	-0.03806782
50	0x3dd83a10	0.105579495
51	0x3dee7fd4	0.11645475
52	0xbdd90d15	-0.10598198
53	0xbdae3692	-0.08506502
54	0x3b08815f	0.0020829064
55	0x3d7b8196	0.06140288
56	0xb89b33a3	-7.400594e-05
57	0x3ccab432	0.024744127
58	0xbd22e6db	-0.039770942
59	0xbd710ba1	-0.05884898
60	0xbcff6e75	-0.0311806
61	0x3d60e589	0.0549064
62	0x3dfd0121	0.12353731
63	0x3e5119d6	0.20420012
64	0xbc8603ab	-0.01635917
65	0xbd6b151e	-0.057393186
66	0x3c948c09	0.01813318
67	0xbcef0fa9	-0.029182272
68	0x3d940f28	0.07229453
69	0x3d105571	0.035237733
70	0xbdc6ddfb	-0.09710308
71	0xbdee5a9c	-0.11638376
72	0x3dd25ffe	0.10272215
73	0x3d0f1b9a	0.034938432
74	0xbc307d49	-0.010772058
75	0x3deebdca	0.11657293
76	0x3cbb9d10	0.022902042
77	0x3df60c97	0.1201412
78	0xbd65ad86	-0.056073688
79	0x3efa07b6	0.48834008
80	0xbeca5ee7	-0.3952553
81	0x3ea23416	0.31680363
82	0x3e471074	0.1943987
83	0x3e2963ec	0.16542023
84	0xbeef0308	-0.46682
85	0x3e372733	0.17886047
86	0x3d2dca3e	0.0424292
87	0xbf4f094b	-0.80873555
88	0xbf510659	-0.8165031
89	0x3e78843e	0.24269196
90	0x3da58595	0.080821194
91	0x3e647910	0.22311807
92	0xbe2d4c85	-0.16923721
93	0xbe14dcc9	-0.14537348
94	0xbe76b749	-0.24093355
95	0xbd4a3c84	-0.04937412
96	0x3d688555	0.05676778
97	0x3eb23185	0.34803405
98	0xbe07a90f	-0.13248084
99	0xbd6ea28c	-0.058260486
100	0x3dd2ef86	0.10299592
101	0x3ddd79b7	0.10814231
102	0xbcb8626b	-0.022507867
103	0xbd0667de	-0.0328139
104	0x3d8925d1	0.06696666
105	0x3dab6c5d	0.08370278
106	0xbb8a6fb9	-0.004224744
107	0xbc28f92d	-0.010313314
108	0x3d90e67b	0.07075211
109	0x3d3efd0a	0.046628036
110	0x3ddc03dd	0.10742924
111	0x3d98b09a	0.07455559
112	0xbc46db00	-0.012137175
113	0xbd388418	-0.04504785
114	0x3dafaf6e	0.085783824
115	0x3dc742e1	0.09729553
116	0xbd8899f8	-0.06669992
117	0xbe1486ee	-0.14504597
118	0xbd8853b7	-0.06656592
119	0xbd874387	-0.06604677
120	0x3d95b56b	0.07309993
121	0x3d1f9fb7	0.038970675
122	0xbe0d0a16	-0.13773379
123	0x3d0831ed	0.033250738
124	0xbccc8c7b	-0.02496933
125	0x3e109522	0.1411939
126	0xbd9dc104	-0.077028304
127	0xbd8e0f2f	-0.0693649
128	0xb9279231	-0.00015980822
129	0x3d9f7795	0.0778648
130	0x3bb3107f	0.005464613
131	0x3d1056a3	0.035238873
132	0x3ba92788	0.005162183
133	0xbe8e3ecf	-0.27782294
134	0xbc0a8a2e	-0.008455796
135	0xbdaa17f4	-0.0830535
136	0xbd724dbe	-0.059156172
137	0xbdc1f9f6	-0.094715044
138	0xbc9ac44f	-0.018892435
139	0xbd211afe	-0.039332382
140	0x3da055c3	0.07828858
141	0x3dc67449	0.096901484
142	0x3e0bbac5	0.13645466
143	0xbdbcd98d	-0.09221182
144	0xbcfbfdc5	-0.030760655
145	0xbca66d95	-0.020315925
146	0x3e07aa60	0.13248587
147	0x3df4cd02	0.11953165
148	0x3dc7b95b	0.097521506
149	0x3e5cef7e	0.21575734
150	0xbe04cdc0	-0.12969112
151	0xbe26c196	-0.16284785
152	0xbcd767b0	-0.02629456
153	0x3c83240f	0.016008405
154	0x3f1054a6	0.56379163
155	0xbe06441c	-0.13111919
156	0xbe3fdcfa	-0.1873664
157	0x3d6a579b	0.057212453
158	0x3d7f0e28	0.06226936
159	0x3ee76ca4	0.45200074
160	0x3dd4a049	0.103821345
161	0x3e59970d	0.21249028
162	0x3d9840d6	0.074342415
163	0x3cd7689e	0.026295003
164	0xbe4b7948	-0.19870484
165	0x3dc600b0	0.096681
166	0x3d0162ea	0.031588472
167	0x3d89edcd	0.0673481
168	0x3d275f6b	0.040862482
169	0xbef50164	-0.47852623
170	0xbdeca499	-0.11554832
171	0xbba41187	-0.0050069722
172	0x3cba33cf	0.022729782
173	0x3cb1a8fd	0.021687025
174	0xbdd56983	-0.104205154
175	0x3c37716e	0.011196477
176	0xbd6eb975	-0.058282334
177	0xbceb1f0e	-0.028701331
178	0x3de33af5	0.110952295
179	0xbd7b064a	-0.061285295
180	0xbdacd516	-0.084390804
181	0xbd90d8f9	-0.07072634
182	0xbda05f9e	-0.078307375
183	0x3d96f1ec	0.07370362
184	0x3d9f1d16	0.077692196
185	0x3dcd827a	0.10034652
186	0x3d83bc57	0.06432407
187	0x3cfc7dc9	0.030821698
188	0xbce78253	-0.028260386
189	0xbbcdfcc5	-0.006286236
190	0xbded3b84	-0.11583617
191	0xbc57752c	-0.013150495
192	0xbdabd419	-0.08390064
193	0x3cc74fd1	0.024330052
194	0xbb1e2d11	-0.0024135748
195	0xbbee09f2	-0.007264369
196	0x3e004f31	0.12530209
197	0x3dda4880	0.106583595
198	0x3de52c02	0.111900344
199	0x3d98c0d2	0.074586526
200	0x3ccde116	0.025131743
201	0xbcb22b25	-0.021749089
202	0x3db144b2	0.08655681
203	0x3db4093e	0.08790825
204	0x3c89b589	0.016810196
205	0x3d74e9ae	0.059793167
206	0xbd08eca2	-0.033428796
207	0x3d299f82	0.041411884
208	0x3cb5b41c	0.02218061
209	0x3d894ae2	0.06703736
210	0xbeb4dd52	-0.35325104
211	0x3d870bc2	0.065940395
212	0x3d4940de	0.049134128
213	0xbc8f323c	-0.017480008
214	0xbdc93d35	-0.098261274
215	0x3d2579cb	0.040399354
216	0xbe430f71	-0.19048859
217	0x3d8100ac	0.06298956
218	0xbd960530	-0.07325208
219	0xbe2ee593	-0.17079763
220	0x3d999efc	0.07501027
221	0xbdc4dfcf	-0.096130006
222	0xbcd091c5	-0.025460133
223	0x3eadd788	0.339535
224	0x3dd13ccc	0.10216674
225	0xbe842f86	-0.25817508
226	0xbeaf5ea5	-0.34251896
227	0xbe9f2b7a	-0.31087857
228	0xbebd3ce3	-0.36960515
229	0x3f041671	0.5159674
230	0xbd6c077d	-0.05762433
231	0x3d6cfcca	0.057858266
232	0xbea8c636	-0.32963723
233	0x3c07d8c0	0.008291423
234	0xbe7d19a0	-0.24716806
235	0x3dfa4f3f	0.12222146
236	0xbd540e04	-0.05177118
237	0x3e1b7cc2	0.1518431
238	0xbd840029	-0.06445343
239	0x3e28313c	0.16425031
240	0x3dda0432	0.106453314
241	0xbd1ac311	-0.037783686
242	0x3db3e3ef	0.08783709
243	0x3ddfbae6	0.1092432
244	0xbdb9c780	-0.09071255
245	0x3beb51ad	0.0071813674
246	0xbdf4692e	-0.11934124
247	0xbda894c1	-0.082314976
248	0x3d37ecb0	0.044903457
249	0xbd086418	-0.03329858
250	0xbdf42b00	-0.11922264
251	0xbd706f58	-0.058699936
252	0xbc76eb0b	-0.015070687
253	0xbd427d6e	-0.0474829
254	0xbd97c29d	-0.074101664
255	0xbbf48857	-0.007462542

bias f4 [64]
0	0x3db5daa5	0.08879594
1	0x3daa4561	0.08314014
2	0xbd7ac516	-0.061223112
3	0x3d73b9c1	0.05950332
4	0xbe0e2a96	-0.13883433
5	0xbcb0d3ec	-0.021585427
6	0x3cc07896	0.023495
7	0x3d5c5e2e	0.053800754
8	0x3daadf2f	0.0834335
9	0xbd19b410	-0.037525237
10	0x3d769ca9	0.060207997
11	0x3dd26232	0.102726355
12	0x3d4a5ef6	0.049406968
13	0xbd92097a	-0.07130714
14	0xbdb05abc	-0.08611056
15	0x3dc0fbd2	0.09423031
16	0x3df28860	0.11842418
17	0x3d396cfa	0.045269944
18	0x3d375194	0.044755533
19	0xbd89c78b	-0.06727513
20	0x3e1b5176	0.15167794
21	0x3d9f9543	0.07792141
22	0xbdcb7fa6	-0.099364564
23	0xbd65a6b6	-0.05606719
24	0x3e177152	0.14789322
25	0x3df0da84	0.117604285
26	0xbd3ca349	-0.04605416
27	0x3d0a7f15	0.0338126
28	0x3b267e7e	0.0025404985
29	0x3dcd9a67	0.100392155
30	0x3e2a0908	0.16605008
31	0x3d352ee5	0.044234175
32	0x3ccd673c	0.02507364
33	0xbdaabeb0	-0.08337152
34	0xbb9a08f5	-0.004700775
35	0xbde6022b	-0.11230882
36	0xbd2a0627	-0.041509774
37	0x3e10ad43	0.14128594
38	0xbdb4aba6	-0.08821802
39	0xbdb4f04c	-0.088348955
40	0xbbd49218	-0.0064871423
41	0xbc33f726	-0.010984218
42	0x3d9dab0b	0.076986395
43	0xbcf94081	-0.030426266
44	0x3da152c8	0.078771174
45	0xbd01c147	-0.031678464
46	0x3a9fdadd	0.0012195964
47	0xbd9b5143	-0.07583859
48	0x3e0bfbd5	0.13670285
49	0x3dd36032	0.10321082
50	0x3da52af7	0.080648355
51	0x3db930e1	0.09042526
52	0xbd497d57	-0.0491918
53	0x3d93b7a5	0.07212762
54	0xbcd66dfc	-0.026175492
55	0xbdc1a19c	-0.09454653
56	0xbe0b5817	-0.13607822
57	0xbd11bee0	-0.035582423
58	0x3c0dbe48	0.008651324
59	0xbda318f2	-0.07963742
60	0xbb95773b	-0.0045613325
61	0x3d823670	0.063580394
62	0x3d227bf4	0.039668992
63	0xbe05edc9	-0.13078989

weight f4 [64, 64]
0	0x3ed16be6	0.40902632
1	0xbd20f18f	-0.03929287
2	0x3e2ff33d	0.17182632
3	0xbd04226f	-0.0322594
4	0x3e36a776	0.17837319
5	0x3e54e05d	0.20788713
6	0x391f1696	0.00015171836
7	0x3d82b0df	0.06381392
8	0xbdf6983e	-0.12040757
9	0x3e227c80	0.15867805
10	0xbd0dc506	-0.034611724
11	0x3e3c3b1a	0.1838192
12	0xbcc06f1a	-0.023490477
13	0x3d975385	0.07388977
14	0x3d849f9f	0.06475758
15	0x3cc978c8	0.024593726
16	0x3d9e72dd	0.07736752
17	0xbc931be4	-0.017957635
18	0x3d74786f	0.059685167
19	0x3e4753f7	0.19465624
20	0xbcf815a9	-0.030283766
21	0xbd9c49a4	-0.07631233
22	0xbddaf5db	-0.106914245
23	0x3e4f4ac0	0.20243359
24	0x3e639b1d	0.2222714
25	0x3e77f5d9	0.24214877
26	0xbd416122	-0.047211774
27	0x3e4a318f	0.19745468
28	0xbd3b98a7	-0.045799877
29	0x3e0b5ae0	0.13608885
30	0xbe767780	-0.24069023
31	0x3e12de50	0.14342618
32	0x3b1e81a3	0.0024186156
33	0xbcfb8a2f	-0.03070554
34	0xbe5b9426	-0.21443233
35	0xbe25ca82	-0.16190532
36	0xbe2a157e	-0.16609761
37	0x3dd1c582	0.1024275
38	0xbde453f8	-0.11148828
39	0xbd5006cd	-0.050787736
40	0x3c9fc18e	0.019501474
41	0xbd918d0d	-0.071069814
42	0xbe32fe1a	-0.17479745
43	0xbe1c37e8	-0.15255702
44	0x3d00b672	0.031423993
45	0x3d98692b	0.07441934
46	0xbe092706	-0.13393793
47	0xbe0c7d3f	-0.13719653
48	0x3e2f2168	0.17102587
49	0x3d30f5b2	0.043203063
50	0x3d0a0218	0.033693403
51	0xbe3bf5a9	-0.1835543
52	0x3d208a23	0.039194237
53	0x3e02439c	0.12721103
54	0xbe5f30eb	-0.21796004
55	0x3cc3ff60	0.023925483
56	0xbdd59d47	-0.10430389
57	0x3e81705b	0.25281033
58	0x3e648c56	0.22319159
59	0x3e3e34d5	0.18574841
60	0xbe1f0b24	-0.15531594
61	0x3d82516e	0.06363188
62	0x3e296a08	0.16544354
63	0xbdc2c32f	-0.095098846
64	0xbc5ed8eb	-0.013601522
65	0xbe0ef82a	-0.13961855
66	0xbdff378b	-0.12461766
67	0xbd1015d8	-0.03517708
68	0x3d8dda22	0.06926371
69	0xbe099fb0	-0.13439822
70	0xbd8c0dd1	-0.06838573
71	0xbdec7e7e	-0.11547564
72	0xbe2bae9c	-0.16765827
73	0xbdb1d1de	-0.08682607
74	0xbd2914e5	-0.041279692
75	0x3cbb40c4	0.022858031
76	0x3b663131	0.0035124535
77	0xbe315017	-0.17315708
78	0xbdd38214	-0.10327545
79	0xbe4793cf	-0.19489978
80	0x3e273ab1	0.16330983
81	0x3d8c083c	0.06837508
82	0xbd09dc30	-0.033657253
83	0x3b4cc491	0.0031245092
84	0x3dee2cb7	0.116296224
85	0x3d1f961c	0.038961515
86	0xbe4586e0	-0.19289732
87	0x3db6f83d	0.089340664
88	0x3e1dd667	0.15413819
89	0xbe7b0d82	-0.24516872
90	0x3dd7703f	0.10519456
91	0x3ecf47b8	0.40484405
92	0xbcc0e22b	-0.023545345
93	0xbd89da2a	-0.067310646
94	0xbe5182ce	-0.20460054
95	0x3e2a0245	0.16602428
96	0xbe160268	-0.14649355
97	0x3d8eec49	0.069786616
98	0xbd07ad46	-0.03312423
99	0x3d619490	0.05507332
100	0xbd835bcd	-0.06413994
101	0x3dd5c3be	0.104377255
102	0x3d63b437	0.05559179
103	0x3d0f51e8	0.03499022
104	0xbe012ecd	-0.1261551
105	0x3daf9dcb	0.085750185
106	0xbe1213c8	-0.14265358
107	0xbe96e4a3	-0.2947131
108	0xbb45e903	-0.00301987
109	0x3ce59896	0.02802686
110	0xbc4fdd6e	-0.01268707
111	0x3d854318	0.06506938
112	0x3e0b39f1	0.13596322
113	0xbd5c9e3f	-0.053861853
114	0x3e15ec6d	0.1464097
115	0xbd2b832c	-0.041873142
116	0xbe3a4615	-0.18190797
117	0xbdb8a67a	-0.09016128
118	0x3d44b194	0.048020914
119	0xbcb5037b	-0.022096386
120	0xbde18548	-0.110117495
121	0xbd297741	-0.041373495
122	0x3da212fd	0.07913778
123	0xbc5a2691	-0.013314859
124	0x3e439f3d	0.19103713
125	0xbd973581	-0.07383252
126	0x3e3d6403	0.18495183
127	0x3d9e6397	0.07733839
128	0x3db12724	0.086500436
129	0x3e7749e8	0.24149287
130	0x3d7846de	0.06061446
131	0x3e07128a	0.13190666
132	0xbc8da0a7	-0.01728852
133	0xba55f2d4	-0.00081614894
134	0x3e12d0c7	0.14337455
135	0x3e364594	0.1779998
136	0xbd8396c3	-0.0642524
137	0xbde0b2cc	-0.10971603
138	0x3d86ef55	0.06588618
139	0xbcc364d4	-0.02385179
140	0xbd910428	-0.07080871
141	0x3dd444ff	0.103647225
142	0x3e1d2561	0.1534629
143	0x3d76af75	0.060225923
144	0x3db71764	0.08940008
145	0xbc887959	-0.016659426
146	0xbe02d8b7	-0.12777983
147	0x3e0aca3d	0.1355371
148	0xbd57d30f	-0.052691516
149	0xbd4e7c7d	-0.05041169
150	0xbd65007e	-0.055908673
151	0x3d877cee	0.06615625
152	0x3e59adbe	0.21257684
153	0x3dd8c5ff	0.1058464
154	0xbe07b4ec	-0.1325261
155	0xbe6d0d30	-0.23149562
156	0xbe8e34aa	-0.27774554
157	0x3e00f4a8	0.12593329
158	0xbe9bec53	-0.3045374
159	0x3dcdd478	0.10050291
160	0x3c99594d	0.01871934
161	0xbe00b7db	-0.12570135
162	0x3e0aa2e5	0.13538702
163	0x3d043faa	0.032287277
164	0x3e93cd50	0.28867579
165	0x3e49e86f	0.19717573
166	0xbdd033b7	-0.10166114
167	0x3ded8c76	0.115990564
168	0x3dd470d6	0.10373084
169	0x3e3f10c3	0.18658738
170	0x3e0a8f53	0.13531236
171	0x3e375b6e	0.17905971
172	0xbd77e37a	-0.060519673
173	0xbd709f36	-0.058745585
174	0x3d9515bb	0.072795354
175	0xbe047865	-0.12936552
176	0x3dfe868b	0.12428006
177	0xbd91c8a5	-0.07118348
178	0x3e38275e	0.17983767
179	0xbc6b13df	-0.014347999
180	0x3e59cce6	0.21269569
181	0xbd79d193	-0.06099088
182	0xbce385ae	-0.027773704
183	0xba916496	-0.0011092599
184	0xbe054eab	-0.1301829
185	0xbd82ca69	-0.06386263
186	0xbdadd0da	-0.08487101
187	0xbcbeaf67	-0.023276998
188	0x3dea1efd	0.11431692
189	0xbb8cd31c	-0.004297627
190	0x3e023197	0.1271423
191	0x3e8c47c9	0.27398518
192	0x3d126466	0.03574028
193	0xbe2b1235	-0.16706164
194	0xbdd99200	-0.106235504
195	0x3defc400	0.11707306
196	0xbda6fae5	-0.08153323
197	0xbdedc47d	-0.11609743
198	0x3d4244ba	0.047428824
199	0x3d42f4c0	0.047596693
200	0x3d95269c	0.07282755
201	0xbb0447ba	-0.0020184354
202	0x3ddd60dc	0.1080949
203	0x3d92dab2	0.07170619
204	0x3dbb3545	0.0914102
205	0xbd8e6393	-0.06952586
206	0x3ce6a23d	0.028153533
207	0xbcf7e55a	-0.03026073
208	0xbd6bb5f8	-0.057546586
209	0xbc4d7848	-0.012540884
210	0x3d0cc525	0.0343677
211	0x3c96cc44	0.018407948
212	0x3dd22226	0.102604195
213	0x3d1559e7	0.03646269
214	0x3df597be	0.11991833
215	0xbc375d32	-0.011191653
216	0x3da94c81	0.08266545
217	0xbd85543b	-0.06510206
218	0x3c48fe15	0.012267609
219	0x3d99e638	0.07514614
220	0x3e8039e9	0.25044182
221	0x3e121b11	0.14268138
222	0xbdae6020	-0.08514428
223	0x3c4a43cd	0.0123452665
224	0x3ded2c97	0.115807705
225	0xbc59abdb	-0.013285602
226	0x3dfc37de	0.12315343
227	0xbdcd0145	-0.10010008
228	0xbbdffbbb	-0.0068354285
229	0x3e0f0568	0.13966906
230	0x3e200479	0.15626706
231	0xbe00b6de	-0.12569758
232	0x3d87ec03	0.066368125
233	0x3d7e95f8	0.06215474
234	0xbd5d59e0	-0.05404079
235	0x3da56262	0.08075406
236	0xbda2408e	-0.07922469
237	0x3de6d213	0.11270537
238	0x3cc47034	0.023979284
239	0x3e11ef32	0.14251402
240	0xbc1da015	-0.009620686
241	0x3d859788	0.06523043
242	0x3dc226eb	0.09480079
243	0xbe9d7c75	-0.30759016
244	0x3dc510fa	0.09622379
245	0x3d52a6dc	0.05142866
246	0xbe8fcd2e	-0.28086227
247	0x3d338ce4	0.043835536
248	0x3e297220	0.16547441
249	0xbdd1ab95	-0.10237805
250	0xbcb922f3	-0.022599673
251	0x3dddbe03	0.108272575
252	0x3c072d0b	0.008250485
253	0xbe0b9ba3	-0.1363359
254	0x3e02e438	0.12782371
255	0xbdbaceee	-0.091215

bias f4 [64]
0	0x3e392e77	0.18084131
1	0xbe03cf7e	-0.1287212
2	0xbda5b0ea	-0.08090384
3	0x3cea1e58	0.028578922
4	0xbd6eaf7b	-0.05827282
5	0x3d868789	0.0656882
6	0x3d699ab6	0.05703231
7	0xbcfc21ee	-0.030777898
8	0x3d18a11f	0.037263032
9	0x3d71793d	0.058953512
10	0xbc85ff56	-0.016357105
11	0x3ca07cc4	0.019590743
12	0x3dcf0d48	0.10109955
13	0xbd77151c	-0.060322866
14	0x3c891c0a	0.016737003
15	0x3cedde5e	0.029036697
16	0x3e1470c3	0.1449614
17	0x3db5cd48	0.08877045
18	0xbda8aa63	-0.08235624
19	0xbd9b5e28	-0.07586318
20	0xbcbdf88b	-0.023189804
21	0x3da45bd2	0.08025326
22	0x3da306d9	0.079602905
23	0x3a97ef61	0.0011591726
24	0xbdb6e474	-0.08930293
25	0xbe0a0d6a	-0.1348168
26	0xbdab921d	-0.08377478
27	0x3cc79bfc	0.024366371
28	0xbb8af02a	-0.0042400556
29	0xbc2899a8	-0.010290541
30	0x3cd217ba	0.02564608
31	0xbd3f1e83	-0.046659958
32	0xbd3da60c	-0.046300933
33	0xbd338527	-0.043828156
34	0xbd8ecc18	-0.069725215
35	0x3c9b5077	0.018959267
36	0x3db5b73a	0.08872838
37	0x3de0e4fd	0.10981176
38	0xbd8beccd	-0.068322755
39	0xbcc33967	-0.023831083
40	0x3c2199c2	0.009863319
41	0xbdfd4b4d	-0.12367878
42	0x3db16b88	0.08663088
43	0x3e01838c	0.12647837
44	0xbd9ec1fd	-0.07751844
45	0xbdabb271	-0.08383644
46	0xbd8ab5fa	-0.067729905
47	0x3d94311a	0.07235928
48	0x3bfbfa37	0.00768974
49	0xbdd116ae	-0.10209404
50	0xbd6a3390	-0.05717808
51	0x3d6d3b39	0.057917807
52	0xbd7c77ea	-0.061637796
53	0xbdeb243a	-0.11481519
54	0x3d86bd22	0.06579043
55	0xbdc424d9	-0.09577341
56	0x3ddd8d0d	0.10817919
57	0x3df6d7e4	0.120528966
58	0x3df1d624	0.11808422
59	0xbcd03d6d	-0.025419915
60	0x3d61c977	0.055123772
61	0xbd96b327	-0.07358389
62	0xbe294ecf	-0.1653397
63	0x3e0c5de8	0.13707697

weight_ih_l0 f4 [256, 64]
0	0x3eca2168	0.39478612
1	0x3cfc8cf4	0.03082893
2	0xbdc85306	-0.097814605
3	0x3e10a63c	0.14125913
4	0x3e0ae995	0.13565667
5	0xbda7365a	-0.081646636
6	0x3d178836	0.036995135
7	0x3e8b7706	0.27239245
8	0xbd24e906	-0.04026129
9	0x3ec87aca	0.3915618
10	0x3ceb7e14	0.028746642
11	0xbe12e17b	-0.14343826
12	0xbcb1f02c	-0.021720968
13	0x3c01f19a	0.007931137
14	0xbe0ac0cb	-0.13550107
15	0x3b8dd4cb	0.0043283454
16	0x3df482a3	0.119389795
17	0xbcb12c4b	-0.021627566
18	0x3e13a197	0.1441711
19	0x3c9cfec2	0.019164447
20	0x3e66f1a4	0.22553116
21	0x3cafe90a	0.021473426
22	0x3e16188a	0.14657798
23	0xbe8441f1	-0.2583156
24	0x3de90a23	0.113788866
25	0x3dafa5f7	0.08576577
26	0xbddfae7e	-0.109219536
27	0x3d1360f9	0.035981152
28	0xbe9d7cb0	-0.30759192
29	0xbdf17b2a	-0.1179107
30	0x3c1fc7a8	0.009752192
31	0xbe077f5e	-0.1323218
32	0x3dbb435c	0.09143707
33	0x3c05df1f	0.008170872
34	0xbd377771	-0.044791643
35	0x3e435fc6	0.19079503
36	0xbd4c22d9	-0.04983792
37	0xbdc8bf4b	-0.09802111
38	0x3d8c79c7	0.06859165
39	0xbe59efce	-0.21282884
40	0xbe158c9b	-0.14604418
41	0xbd9425e2	-0.07233788
42	0xbd19ff32	-0.03759689
43	0xbe7985ed	-0.24367495
44	0x3d4eb628	0.050466686
45	0x3dbb01e1	0.09131218
46	0x3e9b7339	0.30361345
47	0x3e84fd1a	0.2597435
48	0xbf08ad5d	-0.5338953
49	0xbd8bf47d	-0.06833742
50	0x3df152e0	0.11783385
51	0xbccee059	-0.025253462
52	0x3dcedc02	0.10100557
53	0xbeb39598	-0.35075068
54	0xbe555317	-0.20832478
55	0xbbb7f958	-0.005614441
56	0xbd60bf87	-0.054870155
57	0xbe6962be	-0.22791573
58	0xbacc9dc6	-0.0015610985
59	0x3da2c665	0.07947997
60	0x3e21e8a8	0.15811408
61	0x3dc1cc2e	0.09462772
62	0xbd03b04f	-0.032150563
63	0x3dc3ce71	0.0956086
64	0xbe28b9f2	-0.16477183
65	0xbdac7acb	-0.084218584
66	0xbd6f5a51	-0.05843574
67	0x3ded0817	0.11573809
68	0x3d51007f	0.051025864
69	0x3da4683a	0.08027692
70	0xbe3f56f3	-0.18685512
71	0x3e54d01b	0.20782511
72	0xbb8390d3	-0.004015067
73	0x3d99d7a0	0.0751183
74	0x3cab0f57	0.020881338
75	0xbd9664ed	-0.07343469
76	0xbc235ad1	-0.009970383
77	0x3da1ca6d	0.07899938
78	0x3e239fba	0.159789
79	0xbd88ac13	-0.066734456
80	0x3d5eb884	0.054375187
81	0xbe360419	-0.17775
82	0xbd4d36da	-0.05010114
83	0x3d9ff015	0.07809464
84	0x3d90af6a	0.070647076
85	0x3d443708	0.047904044
86	0x3c4373a9	0.011929431
87	0x3c8d58ce	0.01725426
88	0x3dc52c94	0.09627643
89	0x3d3e1369	0.04640523
90	0x3dd15406	0.10221104
91	0xbda5187f	-0.08061313
92	0xbdbde55c	-0.092722625
93	0x3e069ab1	0.13144948
94	0x3db603e4	0.08887461
95	0x3dc3c440	0.09558916
96	0xbe33cafa	-0.17557898
97	0x3df95527	0.12174445
98	0xbd840803	-0.064468406
99	0x3dcc84ba	0.09986253
100	0x3ddcaf10	0.10775578
101	0xbd7948b5	-0.060860354
102	0xbdb133f7	-0.0865249
103	0xbdff912a	-0.1247886
104	0xbeb708ad	-0.35748807
105	0x3dc1a63c	0.09455535
106	0x3e2fa19a	0.1715149
107	0xbe294de7	-0.16533624
108	0xbc67442e	-0.014115376
109	0x3d33a082	0.043854244
110	0x3e899be4	0.26876748
111	0x3d7533f3	0.059863996
112	0xbe995de9	-0.2995446
113	0xbd7413e6	-0.05958929
114	0x3dda2899	0.10652275
115	0xbdde479c	-0.10853502
116	0xbe316ce8	-0.173267
117	0x3f1482f1	0.580123
118	0x3d90fc51	0.070793755
119	0x3da7d786	0.08195405
120	0xbe00d669	-0.12581791
121	0x3cc9962d	0.024607742
122	0xbd8b0326	-0.0678771
123	0x3cfcf146	0.030876767
124	0x3d2ee629	0.042699967
125	0xbe1b02cb	-0.15137784
126	0x3e46e45a	0.19423047
127	0x3ef17e17	0.4716651
128	0x3db3af66	0.08773689
129	0xbe5e41c0	-0.21704769
130	0x3e317758	0.17330682
131	0xbda36dc0	-0.079799175
132	0x3e019d50	0.12657666
133	0x3df10778	0.11769003
134	0x38c90859	9.585982e-05
135	0xbe7dde92	-0.24791935
136	0xbdc5235a	-0.096258834
137	0xbe0304ad	-0.12794752
138	0xbd218d4c	-0.03944139
139	0x3dbfc1dd	0.09363148
140	0x3da6f709	0.08152587
141	0x3bcd7799	0.0062703607
142	0xbcdcaa2e	-0.026936617
143	0xbdd83db3	-0.10558643
144	0x3c82123c	0.015877835
145	0xbe1526f0	-0.14565635
146	0x3d329b2c	0.043605015
147	0xbd7b7cd4	-0.061398342
148	0xbed33b31	-0.41256097
149	0xbcd07e14	-0.025450744
150	0x3c1ac19f	0.009445577
151	0x3ddf45b6	0.10901968
152	0xbde1c17f	-0.110232346
153	0xbd85ff6a	-0.06542857
154	0x3db981ad	0.09057937
155	0x3e3b3f3e	0.18285844
156	0x3a505ec8	0.0007948694
157	0x3e0f6da0	0.14006662
158	0x3dd45fa4	0.103698045
159	0x3defedde	0.117152914
160	0xbbdfecda	-0.006833655
161	0xbd93b94b	-0.07213076
162	0x3dd4d55f	0.1039226
163	0x3e243700	0.16036606
164	0x3db7cd99	0.089747615
165	0xbd06c568	-0.032903105
166	0xbdc4c042	-0.09606983
167	0x3e1bff99	0.15234222
168	0xbe138c33	-0.1440895
169	0xbd0f4611	-0.03497893
170	0xbe1d6a06	-0.15372476
171	0x3b848d1d	0.0040451423
172	0xbcbf4dd7	-0.023352547
173	0x3e2bb0a5	0.16766603
174	0xbdad5f81	-0.084654815
175	0x3d8a6814	0.067581326
176	0x3d9f3447	0.07773643
177	0xbe375e74	-0.17907125
178	0xbe197b3e	-0.1498842
179	0xbd6b4090	-0.05743462
180	0x3a64a1c0	0.00087216124
181	0x3de26483	0.11054327
182	0x3dcc73b1	0.09983004
183	0x3d15912b	0.036515396
184	0xbdca9520	-0.098917246
185	0xbd9207d6	-0.07130401
186	0xbcaf79ea	-0.021420438
187	0xbd7b88cc	-0.061409757
188	0x3df5f64f	0.1200987
189	0xbd03cf2e	-0.032180004
190	0xbc9ddea4	-0.019271202
191	0xbdaf0789	-0.08546359
192	0x3c9a58b3	0.018841123
193	0x395cfa29	0.00021074027
194	0x3e368234	0.17823106
195	0x3c77e0b0	0.015129253
196	0x3c9c4713	0.01907686
197	0xbd472347	-0.048617627
198	0x3d581910	0.052758276
199	0x3e7de8dd	0.24795862
200	0xbd7151b0	-0.058915794
201	0xbe67c3c7	-0.22633277
202	0x3e9bb0c7	0.30408308
203	0x3dd2d744	0.10294965
204	0x3e076956	0.13223776
205	0xbcff5e43	-0.031172877
206	0xbd548819	-0.051887605
207	0xbcb1bab1	-0.021695467
208	0x3e3c42d0	0.18384862
209	0x3e035789	0.12826361
210	0xbe0fb9d4	-0.14035732
211	0xbe0ca38a	-0.1373426
212	0xbe134ac5	-0.14383991
213	0x3d2c795b	0.04210792
214	0x3d734446	0.059391282
215	0x3dc8b020	0.09799218
216	0x3d4d644d	0.050144482
217	0xbd607c5f	-0.05480611
218	0x3d1700b1	0.036865894
219	0x3e064816	0.13113436
220	0x3d2d1a7f	0.042261597
221	0x3d5ee718	0.054419607
222	0x3c711096	0.014713427
223	0x3d205777	0.039145913
224	0xbe2bf6f8	-0.1679343
225	0xbd12fcb8	-0.035885543
226	0x3c384641	0.011247219
227	0xbcec1190	-0.028816968
228	0xbd028d59	-0.03187308
229	0x3c29828c	0.010346066
230	0xbc037a7b	-0.008024807
231	0x3de59b07	0.1121121
232	0x3e6c7e1e	0.23094985
233	0x3dcc5b15	0.0997831
234	0x3cadfde5	0.02123923
235	0xbd3d4f4a	-0.046218194
236	0x3c9fe510	0.019518405
237	0x3dfacde4	0.12246302
238	0x3ec2d60e	0.38053936
239	0xbd78352c	-0.060597584
240	0x3ec30f90	0.3809781
241	0xbc043424	-0.008069072
242	0xbd9daf71	-0.076994784
243	0x3c3059ce	0.010763599
244	0xbd76af17	-0.060225572
245	0x3db2203a	0.08697553
246	0x3eb263ff	0.34841916
247	0x3e01608f	0.1263449
248	0x3e83ef3a	0.25768453
249	0x3d7f3476	0.06230589
250	0x3e20a60e	0.15688345
251	0xbd467f59	-0.048461292
252	0x3dd14523	0.10218265
253	0xbe15d9bd	-0.14633842
254	0x3c206ab5	0.009791066
255	0x3ebc0963	0.36725911

weight_hh_l0 f4 [256, 64]
0	0x3e27e93f	0.1639757
1	0x3c8e9a44	0.017407544
2	0xbcb05d4c	-0.021528862
3	0xbdcdfad2	-0.10057606
4	0x3caa97d7	0.020824356
5	0x3d932b3c	0.07185981
6	0x3e941c14	0.28927672
7	0xbe88a445	-0.26687828
8	0xbe681d0c	-0.2266733
9	0x3e393d15	0.18089707
10	0xbe015bc6	-0.12632665
11	0x3cfe1453	0.03101555
12	0xbdc5b747	-0.09654098
13	0xbe87df7a	-0.26537687
14	0xbcb8994a	-0.022534031
15	0xbd4e36d4	-0.050345257
16	0xbe91db7f	-0.28487775
17	0xbe16642b	-0.14686649
18	0xbdd7defb	-0.10540577
19	0x3d61c8bb	0.055123072
20	0xbdabe6f1	-0.08393658
21	0xbcedc477	-0.029024346
22	0xbe2b35e9	-0.16719784
23	0x3d7d7c5c	0.061886176
24	0xbe453986	-0.19260225
25	0xbd988671	-0.07447518
26	0xbdcb55fb	-0.09928509
27	0x3dd3c335	0.10339967
28	0x3d36460a	0.04450039
29	0xbe8060e2	-0.25073916
30	0xbe203720	-0.15646029
31	0x3e692c43	0.22770791
32	0x3dd43191	0.103610165
33	0x3e332d9d	0.17497869
34	0xbd88fa7b	-0.066884
35	0x3e4cff23	0.20019202
36	0xbe0fe3a0	-0.14051676
37	0xbe909dfd	-0.28245535
38	0xbdd778ac	-0.10521063
39	0x3cd86f31	0.026420208
40	0x3c37e977	0.011225096
41	0xbd98e4ca	-0.07465513
42	0xbd803da4	-0.06261757
43	0x3e2a94cd	0.16658325
44	0xbe05681d	-0.13027997
45	0xbe1162eb	-0.1419789
46	0x3e862d76	0.2620656
47	0xbe6aaf5f	-0.22918461
48	0xbedc00af	-0.42969272
49	0x3dbf2c48	0.09334618
50	0x3db32c9e	0.087487444
51	0xbf8089db	-1.004207
52	0xbd4ac652	-0.04950554
53	0xbe09898c	-0.13431376
54	0x3df5a0a3	0.1199353
55	0x3f035c6b	0.51312894
56	0xbd7b6689	-0.061377082
57	0xbdf89587	-0.12137895
58	0x3d9c9c93	0.07647052
59	0x3e8ee3e7	0.2790825
60	0xbe9cb334	-0.3060547
61	0x3e0b256b	0.13588493
62	0x3d1b101e	0.037857167
63	0x3e942ffe	0.28942865
64	0xbda0fee0	-0.078611135
65	0xbc2a5bda	-0.010397876
66	0xbdb689da	-0.08913012
67	0xbd36bc4d	-0.04461317
68	0x3a7c8bb1	0.0009633853
69	0xbd2e2b66	-0.042521857
70	0x3d3f7e27	0.046751168
71	0xbdece145	-0.11566404
72	0xbde62ae7	-0.11238652
73	0x3e3e830f	0.18604682
74	0xbdce3af4	-0.10069838
75	0xbdb7c498	-0.08973044
76	0xbd664854	-0.05622132
77	0xbca3e67e	-0.020007368
78	0xbd583785	-0.052787323
79	0xbdfb6e54	-0.12276903
80	0xbda08c96	-0.07839315
81	0xbea7bd1d	-0.3276147
82	0xbdade18c	-0.08490285
83	0xbd0ecccd	-0.034863282
84	0xba9d0f7a	-0.0011982762
85	0x3dbd1546	0.09232573
86	0x3ea28edc	0.31749618
87	0x3c05a6e8	0.008157469
88	0x3e2ff9e7	0.17185174
89	0xbd212c2c	-0.039348766
90	0xbd06d9a2	-0.032922395
91	0x3d9488b8	0.072526395
92	0xbd8e4ea9	-0.06948597
93	0xbe007dad	-0.12547942
94	0xbdf7f09d	-0.1210644
95	0x3dd9d447	0.10636192
96	0xbc1e2b4c	-0.0096538775
97	0xbdf3edd4	-0.119105965
98	0x3e34f4ae	0.17671463
99	0x3e200270	0.1562593
100	0x3dcc0274	0.099614054
101	0xbdf30620	-0.118664026
102	0xbda1c42f	-0.07898747
103	0x3d66808e	0.056274943
104	0x3cacca31	0.021092506
105	0xbc8a9559	-0.016916918
106	0x3d9ddd4b	0.07708224
107	0xbe011c60	-0.1260848
108	0xbe020ad8	-0.12699449
109	0x3b24589a	0.0025077225
110	0xbd83a2b2	-0.06427516
111	0x3befc88b	0.0073176078
112	0xbe2fc280	-0.1716404
113	0xbe4f1af1	-0.20225121
114	0x3d865853	0.06559815
115	0x3e160800	0.1465149
116	0xbd18fa1e	-0.037347905
117	0xbd90d94a	-0.070726946
118	0x3df46bd2	0.119346276
119	0x3e78006a	0.24218908
120	0xbdac7a5c	-0.08421776
121	0xbd936d2f	-0.071985595
122	0x3d16d890	0.036827624
123	0x3dbcddbb	0.09221979
124	0x3cdd546d	0.027017796
125	0x3de3b7d4	0.11119047
126	0xbe03720a	-0.12836471
127	0x3da97220	0.08273721
128	0xbde21feb	-0.11041244
129	0x3d716553	0.05893452
130	0x3dc226cd	0.09480057
131	0xbcf3c230	-0.029755682
132	0xbbbc332e	-0.005743406
133	0x3e269784	0.16268736
134	0x3cc03f32	0.023467634
135	0xbe5df12d	-0.21674033
136	0x3c307dbc	0.010772165
137	0xbd65e697	-0.05612811
138	0x3c5e6e36	0.013576081
139	0x3e1a0d07	0.15044032
140	0xbc7346a8	-0.014848389
141	0x3c8f8763	0.017520612
142	0xbda98baa	-0.08278592
143	0x3da6d5f4	0.08146277
144	0x3b1ae24c	0.0023633419
145	0x3e2f64ec	0.17128342
146	0x3d620195	0.05517729
147	0x3ca6e79e	0.020374116
148	0xbda28d60	-0.079371214
149	0x3a8a3bf1	0.0010546428
150	0xbe19c185	-0.15015228
151	0x3d482c62	0.04887045
152	0xbdbac5e4	-0.09119776
153	0x3d1a4d38	0.037671298
154	0x3d93c46d	0.072151996
155	0x3e06ddac	0.13170499
156	0x3e285685	0.16439255
157	0xbd33ee3f	-0.04392838
158	0x3dab0ca9	0.08352024
159	0xbcf21e80	-0.02955556
160	0x3d26d405	0.04072954
161	0x3d4ffa96	0.050776087
162	0xbdb1bb29	-0.08678276
163	0xbd9fbf46	-0.078001544
164	0xbd60e389	-0.054904494
165	0x3daa08ab	0.083024345
166	0x3dcd85a7	0.10035258
167	0x3dd1dab3	0.10246792
168	0x3cef1f53	0.029189741
169	0x3d97630a	0.07391937
170	0x3d9034b4	0.07041302
171	0xbdf9fa18	-0.12205905
172	0x3d79b15b	0.060960155
173	0xbcc48740	-0.023990273
174	0x3d265e23	0.04061712
175	0xbd2e0058	-0.042480797
176	0x3d94e9a6	0.072711274
177	0x3e981005	0.29699722
178	0xbd71e39e	-0.059054963
179	0xbd2bf13c	-0.041978106
180	0xbdc2a0a1	-0.09503294
181	0x3d171262	0.036882766
182	0x3da27606	0.079326674
183	0x3ed1005a	0.4082058
184	0xbc4dcfdd	-0.0125617655
185	0x3c752677	0.014962784
186	0xbd879747	-0.06620651
187	0x3d16cb21	0.036814813
188	0xbc26d40a	-0.01018239
189	0xbdc1d39c	-0.094641894
190	0xbdc92ec4	-0.09823373
191	0xbdd6dc13	-0.104911946
192	0x3dcaa886	0.098954245
193	0xbcaca401	-0.021074297
194	0xbdc66469	-0.096871205
195	0xbdde4af0	-0.10854137
196	0xbd998690	-0.07496369
197	0x3daf354e	0.08555089
198	0xbe26587b	-0.1624469
199	0x3e1dd925	0.15414865
200	0xbba97f51	-0.005172648
201	0x3d2c7de6	0.042112254
202	0xbc82609d	-0.01591521
203	0xbd9a209b	-0.0752575
204	0x3e0a1d2b	0.13487689
205	0x3dd6aeea	0.10482581
206	0x3d9f73e2	0.07785775
207	0xbbd55d50	-0.006511368
208	0xbcc8dcc4	-0.024519332
209	0x3e0e8f38	0.13921821
210	0x3df41a77	0.1191911
211	0xba9a9e04	-0.001179636
212	0xbde869be	-0.11348294
213	0xbd9283e8	-0.07154065
214	0xbdd623ab	-0.10456022
215	0x3db5e1bc	0.08880946
216	0x3d82b2a7	0.063817315
217	0x3d741c9b	0.059597593
218	0xbe108ec5	-0.14116962
219	0x3b47d4bf	0.0030491797
220	0x3d5c907f	0.05384874
221	0xbcb7948f	-0.022409705
222	0xbd0648b6	-0.032784186
223	0x3db7727b	0.08957382
224	0x3da6a7e0	0.08137488
225	0xbd92849c	-0.071541995
226	0x3de37733	0.1110672
227	0x3dc88ead	0.09792838
228	0xbda9991d	-0.08281157
229	0xbdcea1e8	-0.10089475
230	0x3e156a38	0.145913
231	0xbdbe1901	-0.09282113
232	0x3d7cdc93	0.061733793
233	0x3d382e2e	0.044965915
234	0x3da4ca1a	0.0804636
235	0xbdb66ee7	-0.08907872
236	0x3e0246f8	0.12722385
237	0xbdb1acd2	-0.08675541
238	0xbc26ea8e	-0.010187758
239	0x3e0a0c0f	0.13481162
240	0x3e2650c3	0.16241746
241	0x3da91012	0.08255018
242	0xbdba295f	-0.09089922
243	0x3d0db03a	0.03459189
244	0xbd11fb1f	-0.03563988
245	0x3e086889	0.13321127
246	0x3c915228	0.01773937
247	0xbcb43200	-0.021996498
248	0x3d94a7da	0.07258578
249	0xbda1a148	-0.0789209
250	0x3e070977	0.13187204
251	0x3e1c1fa7	0.1524645
252	0x3de30ffc	0.11087033
253	0x3cadce16	0.021216433
254	0xbd88d755	-0.06681696
255	0xbb996937	-0.004681732

bias_ih_l0 f4 [256]
0	0x3d7482f4	0.0596952
1	0x3db244cd	0.08704529
2	0xbdab9f49	-0.083799906
3	0x3d07eae7	0.033183005
4	0x3e37bf0f	0.17943977
5	0xbd8b15b4	-0.06791249
6	0x3a4298fb	0.00074233086
7	0xbd4f2edf	-0.05058181
8	0x3e044de9	0.12920345
9	0xbde88692	-0.11353792
10	0x3d8ac33b	0.067755185
11	0x3dca5fae	0.09881531
12	0xbb61fd83	-0.003448338
13	0x3cff9379	0.03119825
14	0x3c8673c4	0.016412623
15	0x3dc0d060	0.094147444
16	0xbd7f45a7	-0.062322285
17	0x3cb025bd	0.02150237
18	0xbd3a881f	-0.04553997
19	0x3e0a808b	0.13525598
20	0x3ddc8f3c	0.10769507
21	0x3e0cac85	0.13737686
22	0x3cf67ae8	0.030087903
23	0x3ad1cb13	0.0016005955
24	0xbd442c3b	-0.047893744
25	0x3da917fd	0.082565285
26	0xbdb9793e	-0.09056328
27	0x3df61b8a	0.120169714
28	0x3dc6d51a	0.09708615
29	0xbdf80d09	-0.12111861
30	0xbd634c86	-0.0554929
31	0xbbbc4dd0	-0.0057465807
32	0x3e0f4902	0.13992694
33	0xbdd34212	-0.10315336
34	0xbd1b3a58	-0.037897438
35	0x3cca4e61	0.024695577
36	0x3d33f5f5	0.043935735
37	0xbd824472	-0.06360711
38	0x3e23b75a	0.15987912
39	0x3d9e0c8e	0.07717238
40	0x3ddf3244	0.10898259
41	0xbb89af2c	-0.0042017903
42	0x3c3bc52b	0.011460583
43	0x3dfb99b0	0.12285173
44	0x3d904a84	0.07045463
45	0x3d9003e1	0.0703199
46	0xbb5b64ac	-0.0033476753
47	0x3df47e20	0.11938119
48	0xbd888d9b	-0.06667634
49	0xbd96e5fb	-0.07368084
50	0x3c0720b4	0.008247543
51	0xb9c48ab7	-0.00037487384
52	0x3e107701	0.14107896
53	0xbdabf033	-0.08395424
54	0x3c6d9251	0.014500217
55	0x3ccc1293	0.0249112
56	0x3d588f3c	0.052870974
57	0xbc0166a6	-0.007898008
58	0x3db0c36e	0.08631025
59	0x3dc6889a	0.096940234
60	0x3ca5d20e	0.020241763
61	0x3e170a18	0.14749944
62	0x3e082fc8	0.13299477
63	0x3dc9e01d	0.09857199
64	0xbcf19a1f	-0.029492436
65	0x3e160ff8	0.14654529
66	0x3e270514	0.16310531
67	0x3dc7e8d4	0.09761205
68	0xbd4f35e0	-0.05058849
69	0x3d6f7e75	0.05847021
70	0x3e120428	0.14259398
71	0x3c9539d8	0.018216059
72	0x3d80765c	0.06272575
73	0xbd60cd1b	-0.054883104
74	0x3d18e889	0.037331138
75	0x3d99caa0	0.07509351
76	0x3d773a8c	0.06035857
77	0x3c5c9a5b	0.013464536
78	0xbce44f3c	-0.027869813
79	0xbd7ec2a7	-0.062197354
80	0xbda0e05a	-0.07855292
81	0x3dcc44a8	0.09974033
82	0x3e041bd7	0.12901245
83	0x3c8df6ba	0.017329562
84	0xbcbbb605	-0.022913942
85	0xbcc69fcc	-0.024246119
86	0x3db74dcc	0.089503855
87	0x3d3eaafb	0.04654978
88	0x3cb08e81	0.021552326
89	0x3e15407f	0.14575385
90	0x3d9ebcba	0.077508405
91	0xbd93337c	-0.07187554
92	0x3cbb98d3	0.02290002
93	0xbca3e212	-0.02000526
94	0xbd89901e	-0.06716941
95	0x3d17ff90	0.037108958
96	0x3de74700	0.11292839
97	0x3c3095f8	0.010777943
98	0xbe079854	-0.13241702
99	0x3e11c89c	0.14236683
100	0x3d56b02d	0.052414108
101	0xbe0b2caa	-0.13591257
102	0x3bcf7046	0.0063305227
103	0xbd862105	-0.06549267
104	0x3d9dff23	0.07714679
105	0x3be5f566	0.007017779
106	0x3cfc516c	0.030800544
107	0xbdf14a80	-0.11781788
108	0x3aa6c5cc	0.0012723743
109	0xbdc28f51	-0.09499992
110	0x3e1f9566	0.15584335
111	0x3dd91488	0.10599619
112	0x3aba5842	0.0014216977
113	0x3dcf8898	0.10133475
114	0x3cbf427c	0.023347132
115	0x3df5f59f	0.12009739
116	0x3e185e7a	0.1487979
117	0xbc067041	-0.008205474
118	0x3da5b0e7	0.08090382
119	0xbccfa6b2	-0.025348041
120	0x3dd4de80	0.10394001
121	0x3d274a3c	0.04084228
122	0x3df3a402	0.118965164
123	0x3da006f0	0.07813823
124	0xbdab4436	-0.083626196
125	0xbd167279	-0.036730263
126	0xbce4c025	-0.027923653
127	0xbd9c59dc	-0.07634327
128	0xbe1646fe	-0.14675519
129	0x3daa16dc	0.08305141
130	0xbc5e443e	-0.013566075
131	0xbd00c1eb	-0.031434935
132	0x3dd687fe	0.10475157
133	0xbca378fa	-0.019955147
134	0xbd8b302a	-0.06796296
135	0x3c81d357	0.015847845
136	0xbdad7e1a	-0.084713176
137	0x3c6f5823	0.014608416
138	0xbd274687	-0.040838744
139	0x3dad12c8	0.08450848
140	0x3d9717e6	0.07377605
141	0x3dd65b5c	0.10466644
142	0xbdffc678	-0.12489027
143	0xbd4fd758	-0.050742477
144	0x3de32fd7	0.11093109
145	0xbd9d319f	-0.0767548
146	0x3ca2bb21	0.01986462
147	0xbc80044d	-0.01562705
148	0xbe030a10	-0.12796807
149	0xbda3b5cd	-0.0799366
150	0xbd843435	-0.0645527
151	0xbd9c3e2e	-0.07629047
152	0x3d68c948	0.05683258
153	0x3dd36f4a	0.10323961
154	0xbda950cf	-0.08267366
155	0xbdfa3558	-0.12217206
156	0x3d0cd72c	0.03438489
157	0x3d98fea9	0.074704476
158	0x3e04d547	0.12971984
159	0xbde4fbb5	-0.11180822
160	0xbdf15672	-0.11784066
161	0xbd25ad60	-0.040448546
162	0x3d9ad819	0.075607486
163	0xbdc55d92	-0.09636988
164	0xbe146f11	-0.14495493
165	0x3c6aa343	0.014321151
166	0x3d9d29ee	0.07674013
167	0xbc7a351c	-0.015271451
168	0x3d584d6a	0.052808203
169	0xbd7f40db	-0.06231771
170	0xbd8bbc3f	-0.068230145
171	0x3dbc1e40	0.09185457
172	0x3ddcc75b	0.107802115
173	0xbdf3200d	-0.118713476
174	0xbd8674f0	-0.06565273
175	0xbbc5b3be	-0.00603339
176	0x3d81290d	0.06306658
177	0xbd0f9b75	-0.035060365
178	0x3dbcb2bb	0.09213778
179	0xbdbe7f36	-0.09301607
180	0x3d985b4e	0.0743929
181	0x3d61708c	0.055038974
182	0xbc4fa198	-0.012672804
183	0xbc67ead6	-0.01415511
184	0x3e1230be	0.14276406
185	0x3db329e2	0.08748223
186	0x3e007816	0.12545809
187	0x3d41271d	0.047156442
188	0x3db5dd43	0.08880093
189	0x3c9ef28b	0.019402763
190	0x3e14d62d	0.14534827
191	0xbe06a9d1	-0.13150717
192	0x3e080989	0.13284887
193	0xbdb12846	-0.0865026
194	0x3d7a5133	0.061112594
195	0x3d94c2a9	0.07263691
196	0x3d1e1e36	0.03860303
197	0x3dc18916	0.09449975
198	0xbdb3d3f7	-0.087806635
199	0x3e0c1f81	0.13683893
200	0x3d23e576	0.040013753
201	0x3d41fb39	0.047358725
202	0x3d3515e8	0.044210345
203	0x3dbc0f3e	0.09182595
204	0xbd81213b	-0.06305166
205	0x3daebd07	0.08532148
206	0xbd9e03fb	-0.07715603
207	0x3d36c178	0.0446181
208	0x3dd0c2c9	0.10193402
209	0x3e1b4125	0.1516157
210	0x3cf84982	0.030308489
211	0xbbf7d2a0	-0.0075629503
212	0x3cb5fed5	0.02221624
213	0x3d6d2dc2	0.057904966
214	0x3c45263a	0.01203304
215	0x3e0aad8b	0.13542764
216	0xbdc696f9	-0.096967645
217	0xbd1df1a9	-0.038560543
218	0x3e104110	0.1408732
219	0x3d8293b0	0.063758254
220	0x3dadfa5f	0.0849502
221	0xbdf87b4e	-0.121328935
222	0xbd692774	-0.05692239
223	0x3d351274	0.04420705
224	0xbdd5d62c	-0.10441241
225	0x3d877d1d	0.0661566
226	0xbde537ef	-0.11192309
227	0xbdb768f7	-0.08955567
228	0xbc4718c8	-0.012151904
229	0x3d8823a0	0.0664742
230	0xbd285d25	-0.041104455
231	0x3ba55f71	0.005046778
232	0x3dbc4ec0	0.09194708
233	0xbc40b67e	-0.0117622595
234	0x3d91f9a1	0.07127691
235	0x3c4fc66c	0.012681585
236	0x3d05bf30	0.032653034
237	0x3e0936bb	0.13399784
238	0xbb4f57f8	-0.0031638127
239	0x3b904104	0.0044022817
240	0x3d16aaa1	0.03678382
241	0x3bcd3103	0.006261946
242	0x3d594f73	0.053054284
243	0xbd27d3e6	-0.040973566
244	0x3e1bfbc7	0.15232764
245	0x3da05c6b	0.07830127
246	0x3de9ab7d	0.11409662
247	0x3d832c14	0.064048916
248	0xbc996995	-0.018727103
249	0xbdcc6d8e	-0.099818334
250	0x3d2b3522	0.04179872
251	0xbd852cb7	-0.06502669
252	0x3d0bc4b2	0.03412313
253	0x3d4c5fba	0.04989598
254	0x3d766c71	0.06016201
255	0x3d5e62da	0.05429349

bias_hh_l0 f4 [256]
0	0x3d135e51	0.03597862
1	0xbd2b01df	-0.04174983
2	0x3e11f401	0.14253236
3	0x3e1f2423	0.15541129
4	0xbc8beba5	-0.017080138
5	0xbb6acfc3	-0.0035829402
6	0x3dd0777f	0.10179042
7	0x3d7eae81	0.06217814
8	0xbd68a855	-0.05680116
9	0xbc41578e	-0.01180066
10	0x3e0169a7	0.1263796
11	0x3e014b67	0.1262642
12	0xbd9788b1	-0.07399119
13	0xbddd2c2b	-0.1079944
14	0xbd843a30	-0.06456411
15	0xbe010ff0	-0.12603736
16	0x3de0d7f8	0.10978693
17	0x3be30209	0.006927733
18	0xbd735e0c	-0.059415862
19	0x3dcf4e45	0.101223506
20	0xbdaa5ed0	-0.08318865
21	0xbc6bf29f	-0.014401107
22	0x3da1b773	0.07896318
23	0xbcc7da7e	-0.024396177
24	0xbd5a1e06	-0.05325129
25	0x3ca1c31b	0.019746354
26	0x3c3f62b3	0.011681247
27	0x3ddcf18c	0.10788259
28	0x3e027fe6	0.12744102
29	0xbe2d60c2	-0.16931441
30	0x3d029ce6	0.03188791
31	0x3dfd4e29	0.123684235
32	0x3d9b2ff2	0.07577504
33	0x3dd2735a	0.10275908
34	0x3dc55ef5	0.09637252
35	0x3d411c6b	0.047146242
36	0xbd3ba439	-0.04581091
37	0xbd278645	-0.040899534
38	0x3e1b9f45	0.15197475
39	0x3da3d94e	0.08000432
40	0x3e1a7782	0.15084651
41	0x3d71d8d6	0.05904468
42	0x3c47d6ba	0.012197191
43	0x3c98c640	0.01864922
44	0xbd5548ef	-0.052071508
45	0xbc5cddac	-0.013480585
46	0x3e123405	0.14277656
47	0x3dc48162	0.0959499
48	0x3deac245	0.11462835
49	0xbd5f64b2	-0.05453939
50	0x3de3ad86	0.11117081
51	0x3d1c8de8	0.03822127
52	0x3dd5157e	0.1040449
53	0x3ddaa22f	0.10675465
54	0x3e1536f6	0.14571747
55	0x3cc5c4af	0.024141638
56	0xbdcb2929	-0.0991996
57	0x3dc6bccd	0.0970398
58	0x3e1e32c4	0.15449053
59	0xbd8d448a	-0.068978384
60	0x3e0ea063	0.1392837
61	0x3d94ea93	0.07271304
62	0xbb472d85	-0.0030392122
63	0x3dd1777d	0.10227869
64	0x3e074c3c	0.13212675
65	0xbdacc8de	-0.0843675
66	0x3e0a0414	0.13478118
67	0xbda54e6a	-0.08071597
68	0xbd99d378	-0.075110376
69	0x3bc7b135	0.006094123
70	0x3ded09d6	0.11574142
71	0x3dd62ec1	0.10458136
72	0x3d7672dc	0.060168132
73	0xbde1a500	-0.110177994
74	0xbd979dc7	-0.074031405
75	0x3a591ad9	0.00082818937
76	0xbcb298db	-0.021801403
77	0xbc8994b4	-0.01679454
78	0x3e15b1ad	0.14618559
79	0x3b25b286	0.002528341
80	0x3e02884f	0.1274731
81	0xbd6d7b30	-0.05797881
82	0x3e0597f7	0.13046251
83	0x3d2ef1d6	0.0427111
84	0x3dfe7db8	0.12426323
85	0xbdb3392b	-0.08751138
86	0x3d102e91	0.03520066
87	0x3d90e406	0.07074742
88	0x3d740c24	0.05958189
89	0xbd7a8fe2	-0.061172374
90	0xbd4af1a5	-0.049546856
91	0x3d98bbdf	0.074577086
92	0x3d92b7ae	0.0716394
93	0x3d0b12fd	0.033953656
94	0x3e0cc62c	0.13747472
95	0x3d8ff9d7	0.07030075
96	0x3ca9cecf	0.020728497
97	0x3e077901	0.13229753
98	0xbe1728c5	-0.14761646
99	0x3de5ef9d	0.11227343
100	0x3cfbaaa9	0.030721026
101	0x3cbfba38	0.023404226
102	0xbd279c72	-0.040920682
103	0x3d9e6138	0.07733387
104	0x3d13f6bf	0.036123987
105	0x3db38e9e	0.087674364
106	0x38d7c414	0.00010288521
107	0x3c044a21	0.008074314
108	0xbdb7eb74	-0.08980456
109	0xbdbd66a1	-0.092480905
110	0xbd58f8bd	-0.05297159
111	0x3c37040c	0.011170398
112	0x3d9249aa	0.071429566
113	0x3df51be8	0.11968213
114	0x3d7b3310	0.061327994
115	0xbba88ea2	-0.0051439563
116	0x3d97c2f0	0.07410228
117	0xbdb326f5	-0.08747665
118	0x3d21bfa5	0.039489407
119	0x3dda1ebd	0.10650394
120	0x3d8ef236	0.06979792
121	0x3d4e938f	0.05043369
122	0x3d85e238	0.065372884
123	0x3ddd5420	0.10807061
124	0x3d5da2aa	0.054110207
125	0x3e00e6e5	0.1258808
126	0x3da8bf7d	0.082396485
127	0x3db0bf7b	0.08630272
128	0xbdeadbc4	-0.11467698
129	0x3da762de	0.08173154
130	0xbdd8eecd	-0.10592423
131	0xbd67f65e	-0.05663144
132	0x3e0b01eb	0.1357495
133	0x3d848a8e	0.0647174
134	0x3d3056b0	0.04305142
135	0x3e0f29f6	0.1398085
136	0xbda1fb67	-0.07909279
137	0xbe04f945	-0.12985714
138	0xbdacf03f	-0.08444261
139	0xbd54f32f	-0.05198973
140	0xbd9f580e	-0.07780467
141	0xbe054b7f	-0.1301708
142	0xbd875045	-0.06607107
143	0xbd8b2cfb	-0.06795689
144	0x3d2cd396	0.04219397
145	0x3dac34bd	0.084084965
146	0x3da87f3e	0.082273945
147	0x3daa1561	0.08304859
148	0xbe1cd493	-0.15315466
149	0xbd3f2de6	-0.04667463
150	0x3d959f83	0.07305815
151	0xbe1bac84	-0.15202528
152	0xbda5b400	-0.08090973
153	0x3e136395	0.14393456
154	0x3dabe96e	0.083941326
155	0xbd7faeb7	-0.06242248
156	0x3da93a6d	0.08263097
157	0xbd3af9f8	-0.045648545
158	0x3de88ec7	0.113553576
159	0xbde8d6df	-0.113691084
160	0x3a8f96ef	0.0010955016
161	0xbd292c31	-0.04130191
162	0x3e0c39f2	0.1369398
163	0xbdea2a2c	-0.11433825
164	0xbd916830	-0.0709995
165	0x3e20b4ec	0.15694016
166	0xbb82f21b	-0.0039961464
167	0x3e061567	0.13094102
168	0x3d7942dd	0.06085478
169	0x3d0a397c	0.033746228
170	0x3cdc5063	0.0268938
171	0x3d17a24a	0.037020005
172	0x3d76e39f	0.06027567
173	0x3d217f0e	0.03942781
174	0xbd82c510	-0.06385243
175	0x3d355d5b	0.044278484
176	0xbe1747ea	-0.14773527
177	0xbe20a7fd	-0.15689082
178	0xbd62ce39	-0.05537245
179	0xbddac2ac	-0.10681662
180	0x3dc9e087	0.09857278
181	0xbdeb74f5	-0.11496917
182	0x3daabee5	0.083371915
183	0x3cb771fb	0.022393217
184	0x3df63b08	0.12022978
185	0x3d9c8d58	0.07644147
186	0x3d4f7e23	0.050657403
187	0x3c5b8757	0.013398967
188	0x3dc51046	0.096222445
189	0xbd77a95d	-0.06046425
190	0x3bffab28	0.007802386
191	0x3bdbca86	0.0067074923
192	0x3d884832	0.06654395
193	0x3da5dfac	0.08099303
194	0xbc9daa6f	-0.019246308
195	0x3de10b37	0.10988467
196	0x3d7da6c3	0.061926614
197	0xbd81efca	-0.06344564
198	0x3cea7c26	0.028623652
199	0xbc8426bf	-0.016131757
200	0x3d506a4b	0.05088262
201	0xbd9d2127	-0.07672339
202	0x3d9b74df	0.07590651
203	0x3dfd521f	0.12369179
204	0x3d01b3ef	0.03166574
205	0xbd72a64c	-0.059240624
206	0x3e2350af	0.15948747
207	0xbd3742dd	-0.0447415
208	0x3d8343c5	0.064094104
209	0x3da0f071	0.078583606
210	0x3de79231	0.11307181
211	0xbd583486	-0.052784465
212	0xbd6490d3	-0.055802178
213	0x3dd720e6	0.10504322
214	0xbcdc5109	-0.02689411
215	0xbd2962e2	-0.041354068
216	0xbde118ef	-0.10991084
217	0xbd79b4de	-0.060963504
218	0x3c98c049	0.018646376
219	0x3dabd815	0.08390824
220	0x3dd78079	0.10522551
221	0x3d9c8097	0.07641714
222	0xbe0671c1	-0.13129331
223	0x3da92bb9	0.082602926
224	0x3b826076	0.003978784
225	0xbd3a0962	-0.045419104
226	0x3d9ba422	0.07599665
227	0xbda31ab9	-0.07964081
228	0x3d588520	0.052861333
229	0x3cc43990	0.02395323
230	0x3da02f54	0.07821527
231	0x3d80a748	0.06281906
232	0xbdd035f0	-0.10166538
233	0x3cd4187e	0.025890585
234	0x3cde8832	0.027164552
235	0xbdb12f6e	-0.086516246
236	0x3df74353	0.12073388
237	0x3e114608	0.14186871
238	0x3e1e5d1e	0.15465209
239	0x3df02063	0.11724927
240	0x3e15fe81	0.14647867
241	0x3e0de29d	0.13855977
242	0x3d7e8724	0.0621406
243	0x3db9450a	0.09046371
244	0x3d20a9e6	0.039224528
245	0xbcf79bd6	-0.030225676
246	0xbcaa0a65	-0.02075691
247	0x3d9db01d	0.076996066
248	0x3d926988	0.07149035
249	0xbd3d7111	-0.046250407
250	0x3d2a2a5b	0.0415443
251	0x3bd372ea	0.006452908
252	0xbd1443f8	-0.036197633
253	0xbda2c9f5	-0.079486765
254	0x3df51461	0.119667776
255	0xbd9a6b1b	-0.0753996
