data/example_dynamics_data/models/kitchen/LSTM_qhat_only.pth (torch, 187027 bytes, 10 tensors)

weight f4 [64, 70]
0	0x3e0f46c9	0.13991846
1	0x3ee43180	0.44569016
2	0xbca81a33	-0.020520305
3	0xbd8ffd79	-0.07030768
4	0x3e0ccc6c	0.13749856
5	0xbe81240b	-0.2522281
6	0xbe133fd2	-0.14379814
7	0x3ccf6484	0.025316484
8	0xbc71df84	-0.014762763
9	0xbfbc95ca	-1.4733212
10	0xbeb8a4a1	-0.36063102
11	0xbf37a16a	-0.71730673
12	0xbf3e6101	-0.74366766
13	0x3e31714a	0.17328373
14	0x3e8bd782	0.27312857
15	0xbfa4f60a	-1.2887585
16	0xbf16184c	-0.58630824
17	0xbf80a8fa	-1.0051568
18	0xbf559270	-0.8342657
19	0x3ec2afc2	0.38024718
20	0xbe390456	-0.1806806
21	0xbf4707b6	-0.7774614
22	0xbe1fe427	-0.15614377
23	0xbea14d33	-0.3150421
24	0x3e12d5b3	0.14339332
25	0xbc9effae	-0.019409027
26	0xbd51eb28	-0.051249653
27	0xbe9a0f2d	-0.30089703
28	0x3e4f85f4	0.20265943
29	0xbda642dd	-0.08118222
30	0x3caf8277	0.021424515
31	0xbbd91875	-0.00662523
32	0xbded7588	-0.11594683
33	0x3dbc43c2	0.09192611
34	0x3db7912f	0.089632384
35	0xbd526c26	-0.05137267
36	0x3d6de443	0.058079015
37	0x3d50fd64	0.051022902
38	0x3c7688e9	0.01504729
39	0x3dc715b1	0.09720934
40	0xbda944a6	-0.08265047
41	0xbe0a247d	-0.13490482
42	0x3d86b284	0.06577018
43	0x3d465ae2	0.048426516
44	0xbd50dde2	-0.050992854
45	0x3d61484e	0.055000596
46	0x3dd489ec	0.10377869
47	0x3d9593df	0.07303595
48	0xbe0d7f49	-0.13818087
49	0xbd1bed01	-0.03806782
50	0x3dd83a10	0.105579495
51	0x3dee7fd4	0.11645475
52	0xbe14e595	-0.14540704
53	0xbdff026e	-0.12451635
54	0x3d2a02d7	0.041506615
55	0x3dce7b3e	0.100821
56	0x3d212a5a	0.03934703
57	0x3ccab432	0.024744127
58	0xbd22e6db	-0.039770942
59	0xbdc98a08	-0.098407805
60	0xbcf41e75	-0.02979968
61	0xbb994c96	-0.004678319
62	0xbc51a4cd	-0.012795639
63	0xbcd9657a	-0.026537646
64	0xba89bb5b	-0.0010508107
65	0x3c4ece09	0.012622365
66	0xbbe757be	-0.00706002
67	0x3caa0e87	0.02075888
68	0xbc89ebd4	-0.016836084
69	0x3d56f219	0.052476976
70	0xbe21766a	-0.15767828
71	0x3e35ccf3	0.17753963
72	0xbe391945	-0.18076046
73	0x3e14517e	0.14484212
74	0xbe0ad0f2	-0.13556269
75	0x3e4a1038	0.1973275
76	0x3e1b0e85	0.15142258
77	0x3e2c1c2c	0.16807622
78	0xbce0d525	-0.027445385
79	0x3f22f689	0.6365743
80	0x3e696fdc	0.22796577
81	0x3f42db03	0.76115435
82	0xbee93275	-0.45546308
83	0x3eef6bc6	0.46761912
84	0x3efbed09	0.4920428
85	0xbeb15296	-0.3463332
86	0x3f36428a	0.7119528
87	0x3f453de7	0.7704758
88	0x3f2a9b5c	0.6664331
89	0xbe4c8960	-0.1997428
90	0x3b89e3c6	0.004208061
91	0xbe6c4a53	-0.23075227
92	0xbbe3d723	-0.0069531365
93	0xbea5df42	-0.32396895
94	0x3e0a6e1a	0.13518563
95	0x3d9215aa	0.07133038
96	0x3dc586ad	0.09644828
97	0xbe5887ea	-0.21145597
98	0xbd04193a	-0.03225062
99	0x3e23bcaa	0.15989938
100	0x3dd2ef86	0.10299592
101	0x3ddd79b7	0.10814231
102	0xbcb8626b	-0.022507867
103	0xbd0667de	-0.0328139
104	0x3d8925d1	0.06696666
105	0x3dab6c5d	0.08370278
106	0xbb8a6fb9	-0.004224744
107	0xbc28f92d	-0.010313314
108	0x3d90e67b	0.07075211
109	0x3d3efd0a	0.046628036
110	0x3ddc03dd	0.10742924
111	0xbd3d883c	-0.0462725
112	0xbe081fa5	-0.13293321
113	0xbd388418	-0.04504785
114	0x3dafaf6e	0.085783824
115	0x3dc742e1	0.09729553
116	0xbd8899f8	-0.06669992
117	0xbe8820d1	-0.26587537
118	0xbe3fe312	-0.18738964
119	0xbd874387	-0.06604677
120	0x3d95b56b	0.07309993
121	0x3d1f9fb7	0.038970675
122	0xbe84625c	-0.25856292
123	0xbdb35b64	-0.08757666
124	0x3dc45181	0.09585858
125	0x3e86280f	0.26202437
126	0x3d3367a1	0.0438
127	0xbd8e0f2f	-0.0693649
128	0xb9279231	-0.00015980822
129	0xbd2ff582	-0.042958744
130	0xbc982791	-0.018573554
131	0x3cd3f48c	0.025873445
132	0x3cdedd9b	0.02720528
133	0x3b521729	0.0032057262
134	0xbcadd2eb	-0.021218738
135	0x3b3fe8fd	0.002928316
136	0x3ca1c6a0	0.019748032
137	0xbc972aa6	-0.018452954
138	0xbc19bc44	-0.009383265
139	0x3c65a1a7	0.014015592
140	0x3e156918	0.14590871
141	0x3e40fca9	0.18846382
142	0xbd7a1d96	-0.06106337
143	0xbe70a5ce	-0.2350075
144	0x3d172dde	0.036908977
145	0x3db5e815	0.08882157
146	0x3ec3a59c	0.38212287
147	0x3de4f5bd	0.11179683
148	0xb9f8f63d	-0.00047485708
149	0x3fa05973	1.2527298
150	0xbf438b50	-0.7638445
151	0x3fad121d	1.3521153
152	0xbfb4ad01	-1.4115297
153	0x3f07160e	0.5276803
154	0x3f007188	0.50173235
155	0x3d57c802	0.052680977
156	0x3e8496a9	0.25896195
157	0x3e45c2c7	0.19312583
158	0x3ebba0c1	0.36646083
159	0x3f533a3a	0.8251072
160	0xbe12f4be	-0.14351174
161	0x3e56867d	0.2094974
162	0xbd19fca9	-0.03759447
163	0x3e84373e	0.25823396
164	0xbd3ce951	-0.046120945
165	0x3e3c8867	0.18411408
166	0x3e71a7d6	0.2359918
167	0xbb68660f	-0.0035461222
168	0x3dfd1fab	0.12359556
169	0xbe3d1071	-0.18463303
170	0xbdeca499	-0.11554832
171	0xbba41187	-0.0050069722
172	0x3cba33cf	0.022729782
173	0x3cb1a8fd	0.021687025
174	0xbdd56983	-0.104205154
175	0x3c37716e	0.011196477
176	0xbd6eb975	-0.058282334
177	0xbceb1f0e	-0.028701331
178	0x3de33af5	0.110952295
179	0xbd7b064a	-0.061285295
180	0xbdacd516	-0.084390804
181	0xbe265cbb	-0.16246311
182	0xbe2e1120	-0.1699872
183	0x3d96f1ec	0.07370362
184	0x3d9f1d16	0.077692196
185	0x3dcd827a	0.10034652
186	0x3d83bc57	0.06432407
187	0xbd7980d5	-0.06091388
188	0xbdf5bac9	-0.11998517
189	0xbbcdfcc5	-0.006286236
190	0xbded3b84	-0.11583617
191	0xbc57752c	-0.013150495
192	0xbe33da43	-0.17563729
193	0xbd8a0b22	-0.06740405
194	0x3db6ee5d	0.08932183
195	0x3dacff6b	0.084471546
196	0x3e5e3f44	0.21703821
197	0x3dda4880	0.106583595
198	0x3de52c02	0.111900344
199	0xbc8c69f8	-0.017140374
200	0xbbee3a18	-0.007270109
201	0xbb89b1bb	-0.0042020953
202	0x3c698cd8	0.014254771
203	0x3dd105ed	0.102062084
204	0x3c86c003	0.01644898
205	0x3d30c238	0.04315397
206	0x3ae917e7	0.0017783613
207	0xbc2aaf84	-0.010417823
208	0xbbe38ae5	-0.0069440478
209	0x3bd3a652	0.006459036
210	0xbe8c670a	-0.27422363
211	0x3e341870	0.17587447
212	0x3e19eed1	0.15032507
213	0xbe1d4773	-0.15359287
214	0xbde6b2a6	-0.11264543
215	0x3def9749	0.11698777
216	0xbd1fe496	-0.039036356
217	0xbe14adf7	-0.14519487
218	0xbd570c11	-0.05250174
219	0x3f2c3419	0.67266995
220	0xbe69544b	-0.22786061
221	0xc00176b1	-2.0228693
222	0x3ece3265	0.40272823
223	0xbf8fa955	-1.1223551
224	0xbf74c7ba	-0.9561726
225	0xbf6f4b9e	-0.9347476
226	0x3f4d47a1	0.8018742
227	0xbfb72184	-1.4307103
228	0xbfc8ef15	-1.5697962
229	0xbe6de531	-0.23231961
230	0x3da8a8c8	0.082353175
231	0x3e70b253	0.23505525
232	0xbdf4c5c3	-0.119517826
233	0xbcdc4f5c	-0.02689331
234	0xbcb0c16f	-0.021576611
235	0x3dc1035e	0.0942447
236	0xbe8c78f6	-0.27436036
237	0xbc8375ec	-0.01604744
238	0xbe07344e	-0.13203546
239	0x3e98a8b9	0.29816225
240	0x3dda0432	0.106453314
241	0xbd1ac311	-0.037783686
242	0x3db3e3ef	0.08783709
243	0x3ddfbae6	0.1092432
244	0xbdb9c780	-0.09071255
245	0x3beb51ad	0.0071813674
246	0xbdf4692e	-0.11934124
247	0xbda894c1	-0.082314976
248	0x3d37ecb0	0.044903457
249	0xbd086418	-0.03329858
250	0xbdf42b00	-0.11922264
251	0xbd022413	-0.031772684
252	0x3c41d7d1	0.01183124
253	0xbd427d6e	-0.0474829
254	0xbd97c29d	-0.074101664
255	0xbbf48857	-0.007462542

bias f4 [64]
0	0x3e034dd6	0.12822661
1	0x3e50d8d5	0.20395215
2	0x3cfa0a01	0.030522348
3	0x3d05764a	0.032583512
4	0x3bed90b4	0.007249916
5	0x3ca7aa94	0.02046708
6	0x3dd2b465	0.10288314
7	0x3d1512b3	0.036394786
8	0x3df6251f	0.12018799
9	0xbcaa0a0b	-0.020756742
10	0xbd537f19	-0.05163488
11	0x3db25903	0.08708384
12	0x3db9944a	0.09061487
13	0xbe111ba4	-0.141707
14	0xbd423227	-0.04741111
15	0x3e3dcee6	0.18535957
16	0x3dcf905c	0.10134956
17	0x3d2c606a	0.042084135
18	0x3dbcd04d	0.09219418
19	0xbd40236a	-0.046908773
20	0x3db5e368	0.08881265
21	0x3e1d65c8	0.15370858
22	0xbe1be403	-0.15223698
23	0xbd0824e0	-0.03323829
24	0x3e05377a	0.13009444
25	0x3e250940	0.1611681
26	0xbd457f9f	-0.048217412
27	0x3d87c5a9	0.066294976
28	0xbda7a64a	-0.08186014
29	0x3e76553a	0.24055949
30	0x3e80ac17	0.25131294
31	0x3cfba590	0.030718595
32	0x3d65396b	0.05596296
33	0xbd305ff8	-0.043060273
34	0x3c86d542	0.016459111
35	0xbc6a4c64	-0.0143004395
36	0x3ddc9d28	0.10772163
37	0x3dbfea02	0.09370805
38	0x3d3d9dda	0.046293117
39	0x3c78b36d	0.015179497
40	0xbe2603fc	-0.16212457
41	0x3da1c196	0.07898252
42	0x3e025f81	0.12731744
43	0xbdd1b06b	-0.10238727
44	0x3dd7ee3c	0.105434865
45	0xbdfbc021	-0.12292505
46	0x3c357513	0.011075276
47	0xbdbe7f07	-0.09301572
48	0x3e7518f7	0.23935305
49	0x3e28b931	0.16476895
50	0x3e3c1a85	0.18369491
51	0x3d569ee0	0.05239761
52	0x3e2c6fef	0.16839574
53	0xbcf168af	-0.029468862
54	0xbcd1e3d3	-0.02562133
55	0x3d37da5f	0.04488599
56	0xbd5f0602	-0.05444909
57	0xbdbc1e0c	-0.091854185
58	0xbd1eeb78	-0.03879878
59	0xbd85d4ee	-0.06534754
60	0xbdf533b3	-0.119727515
61	0x3e4325d6	0.19057402
62	0x3df8af5a	0.12142821
63	0xbcc29202	-0.023751263

weight f4 [64, 64]
0	0x3e23fcce	0.16014406
1	0x3cc49f66	0.024001788
2	0x3e66d6c3	0.22542863
3	0xbc4389ee	-0.0119347405
4	0xbe206288	-0.15662587
5	0x3d40f888	0.047112018
6	0x3b2dc7db	0.0026516828
7	0x3ce70750	0.028201729
8	0xbda99de0	-0.082820654
9	0x3dee8cc1	0.116479404
10	0x3d7cf225	0.061754365
11	0x3e02b1dc	0.1276316
12	0xbda7410a	-0.08166702
13	0xb9ca5e4a	-0.00038598693
14	0x3c70c0a4	0.014694367
15	0x3d5814dd	0.05275427
16	0xbd6ccee8	-0.05781451
17	0x3d6fba3d	0.05852722
18	0x3c40ca14	0.011766929
19	0x3dce7d58	0.10082501
20	0xbd533880	-0.051567554
21	0xbe0694e3	-0.13142733
22	0x3db7cbfd	0.089744546
23	0xbd797705	-0.06090452
24	0x3d42cb5d	0.047557224
25	0x3db37e74	0.087643534
26	0xbd8234f3	-0.063577555
27	0x3d685be9	0.056728277
28	0xbc101853	-0.008794862
29	0x3d583a4e	0.05278998
30	0xbda78b25	-0.081808366
31	0x3d413e29	0.04717842
32	0xbd853400	-0.06504059
33	0xbd0791ac	-0.033097908
34	0x3dbef3c6	0.0932384
35	0x3b89526f	0.004190735
36	0xbe3c935d	-0.1841559
37	0xbd826c72	-0.063683406
38	0xbdf5698d	-0.11983023
39	0xbd51a3fa	-0.05118177
40	0xbb56e5dc	-0.0032790815
41	0xbd47c771	-0.048774187
42	0xbe0fcbe3	-0.1404262
43	0xbd115ed4	-0.035490826
44	0xbb12d0ee	-0.0022402364
45	0xbd9914fa	-0.07474704
46	0xbda55d87	-0.080744796
47	0x3d398007	0.045288112
48	0x3e4818fb	0.1954078
49	0xbc5f986f	-0.013647183
50	0x3dbfd1d0	0.093661904
51	0xbd1d49cd	-0.03840046
52	0xbd9e237f	-0.07721614
53	0xbc8f1d01	-0.017469885
54	0xbddf3424	-0.10898617
55	0x3e02adfe	0.12761685
56	0x3dca4567	0.09876519
57	0x3db5d7a3	0.0887902
58	0x3e17e716	0.14834246
59	0x3e1ecb99	0.15507354
60	0x3b758aa3	0.0037466667
61	0x3c876981	0.0165298
62	0x3dbfc257	0.09363239
63	0x3e0e756a	0.13911977
64	0x3dab1091	0.08352769
65	0xbd82f179	-0.063937135
66	0x3d41a1c3	0.04727341
67	0xbe064fc0	-0.1311636
68	0xbd741923	-0.059594285
69	0xbcf9fe31	-0.030516716
70	0x3c7d804e	0.015472485
71	0xbdee626b	-0.116398655
72	0xbe1a4129	-0.15063919
73	0xbc834e59	-0.01602857
74	0xbd9a76b5	-0.07542173
75	0x3d864505	0.06556133
76	0xbd88d0ed	-0.066804744
77	0xbd7412de	-0.059588306
78	0xbc8d683b	-0.017261615
79	0xbe11a22f	-0.14222024
80	0x3d1c4b04	0.038157478
81	0x3e1b4628	0.15163481
82	0x3dd020f5	0.10162536
83	0xbd3d7f36	-0.046263896
84	0x3daefc2a	0.0854419
85	0xbcdede9a	-0.027205754
86	0x3e6fdbde	0.23423716
87	0x3cb767dc	0.022388391
88	0x3df321cc	0.118716806
89	0xbdfd4c5f	-0.12368082
90	0x3dab844f	0.08374845
91	0x3df9e142	0.12201168
92	0x3d8900a6	0.06689577
93	0xbcecec7b	-0.028921356
94	0x3cf13e65	0.029448697
95	0x3dc136a0	0.09434247
96	0x3cde1afe	0.02711248
97	0xbc282f80	-0.010265231
98	0x3d501c36	0.050808154
99	0x3d216b88	0.03940919
100	0xbdfeb00f	-0.12435924
101	0x3eca7c3b	0.39547905
102	0x3e270cfd	0.16313548
103	0xbd3f11f5	-0.046647985
104	0xbccdb9fd	-0.0251131
105	0x3d824240	0.063602924
106	0xbdf8fe0f	-0.12157833
107	0x3d0f4f83	0.034987938
108	0x3d767207	0.06016734
109	0x3dabc7fa	0.08387752
110	0xba8f8e8a	-0.0010952514
111	0x3d6c5051	0.057693783
112	0x3d96037b	0.073248826
113	0xbd87aeb2	-0.06625117
114	0x3e276de1	0.16350509
115	0x3d2729e9	0.040811453
116	0xbe02dda5	-0.12779863
117	0xbd63ae81	-0.05558634
118	0x3d329e17	0.043607797
119	0xbd3394ea	-0.043843187
120	0x3e04dc72	0.12974718
121	0x3c3393d3	0.010960537
122	0x3dfc674d	0.123243906
123	0xbca66df1	-0.020316096
124	0x3e06f0a2	0.13177732
125	0x3d43aa6e	0.047769956
126	0x3e0ae590	0.13564134
127	0xbe4da023	-0.20080619
128	0x3c771798	0.015081309
129	0x3e00c8d4	0.1257661
130	0x3d8917a2	0.06693961
131	0xbcd031d7	-0.02541439
132	0x3dc144e9	0.09436972
133	0x3d8d8f17	0.06912058
134	0x3de2fc57	0.11083286
135	0x3dd9b6f8	0.10630602
136	0xbdbc2231	-0.09186209
137	0xbe20392c	-0.1564681
138	0x3d4d9845	0.050194044
139	0xbdee4d78	-0.1163587
140	0xbd3eff10	-0.046629965
141	0x3e1958f5	0.1497534
142	0x3df4d414	0.11954513
143	0x3d7bc465	0.061466593
144	0x3d8fe2b7	0.07025664
145	0xbd932219	-0.07184238
146	0xbc64d970	-0.013967857
147	0xbcdf8a44	-0.02728761
148	0xbdac3b36	-0.08409731
149	0x3b2a9965	0.0026031372
150	0xbc75b8a3	-0.014997634
151	0x3d04dfb1	0.03243989
152	0x3db752c8	0.08951336
153	0x3e06a3c0	0.13148403
154	0xbe17e276	-0.14832482
155	0xbe1d8a8e	-0.15384886
156	0xbe5bc19e	-0.21460578
157	0x3da6f8cc	0.08152923
158	0xbce35949	-0.027752535
159	0x3de2cb1f	0.110738985
160	0xbd1cc805	-0.03827669
161	0xbd962794	-0.07331768
162	0xbd9e560b	-0.07731255
163	0x3d97db89	0.0741492
164	0x3e31933e	0.17341325
165	0x3d7abdff	0.06121635
166	0xbd28bab0	-0.041193664
167	0xbdd07c26	-0.101799294
168	0xbdd90390	-0.105963826
169	0x3e320330	0.17384028
170	0x3d8a319d	0.06747744
171	0x3c8fa8ba	0.01753651
172	0xbdfba07e	-0.12286471
173	0xbd2d6175	-0.04232927
174	0x3d6537e8	0.05596152
175	0xbc3ad36b	-0.011402945
176	0xbd96278e	-0.07331763
177	0xbd1d8b9c	-0.03846322
178	0x3e07ff1b	0.13280909
179	0x3d3c8505	0.046025295
180	0x3e3b89f7	0.18314348
181	0x3e96b37b	0.29433808
182	0xbd9c10a1	-0.07620359
183	0xbe2cb2be	-0.1686506
184	0x3e169fa5	0.14709337
185	0xbc639e94	-0.013892788
186	0xbe2f3bd2	-0.17112663
187	0xbde79309	-0.113073416
188	0x3d9fdfdf	0.07806372
189	0x3ca22134	0.019791223
190	0x3d796cbf	0.060894724
191	0xbe17d5d4	-0.14827663
192	0x3ec43360	0.38320446
193	0xbba8a935	-0.005147124
194	0xbc0756b4	-0.008260418
195	0x3bbf4bbe	0.0058378866
196	0x3e1d3e84	0.15355879
197	0xbdbf8943	-0.093523525
198	0x3d13ee08	0.036115676
199	0x3cfd3f32	0.030913923
200	0x3d699f3c	0.057036623
201	0xbd81fe09	-0.063472815
202	0x3d8d057b	0.06885811
203	0x3e0f9e3a	0.14025202
204	0x3c22e54c	0.009942364
205	0xbea60949	-0.3242896
206	0xbe2b7d99	-0.1674713
207	0x3db17444	0.08664754
208	0xbd7afbe4	-0.061275378
209	0xbdc3d257	-0.095616035
210	0x3dc2db4f	0.09514486
211	0x3e48e7be	0.19619653
212	0x3e273b27	0.16331159
213	0xbd3c431e	-0.045962445
214	0xbd7d1898	-0.061791033
215	0xbe369e5a	-0.17833844
216	0x3e05bc3b	0.13060085
217	0x3c62a7d2	0.013833957
218	0xbd850323	-0.06494739
219	0x3dd484b2	0.10376872
220	0x3bf2ce71	0.0074098636
221	0x3e2122ff	0.15736006
222	0x3ea45be0	0.32101345
223	0x3cec7253	0.028863108
224	0xbd8b05ca	-0.067882136
225	0x3cc11e14	0.023573913
226	0xbd57681b	-0.052589517
227	0xbe5143ee	-0.2043607
228	0xbd1e6a3b	-0.038675528
229	0x3e696db4	0.22795755
230	0x3da93e3a	0.08263822
231	0xbe45cfa3	-0.19317488
232	0xbcd5f155	-0.026116053
233	0xbe507e07	-0.20360576
234	0xbe928525	-0.28617206
235	0x3e45dd4e	0.19322702
236	0xbd440b0d	-0.0478621
237	0xbc57bda1	-0.01316777
238	0xbe5d36b8	-0.21602905
239	0x3d319a75	0.043360192
240	0xbe2c9707	-0.16854487
241	0x3cbdac4d	0.023153448
242	0xbd0810d7	-0.033219185
243	0xbda28487	-0.07935434
244	0x3df6155d	0.120157935
245	0x3a802dd1	0.0009779279
246	0xbe12aed0	-0.14324498
247	0x3eeafd1e	0.45896238
248	0xbd965158	-0.07339734
249	0xbd3ea240	-0.046541452
250	0xbe4adcf7	-0.19810854
251	0x3e022c8f	0.1271231
252	0xbea658dd	-0.32489672
253	0x3cbd03bb	0.023073068
254	0x3e3e27fc	0.1856994
255	0xbe91cedf	-0.28478143

bias f4 [64]
0	0x3d8ec8f9	0.06971926
1	0xbe19d1f7	-0.15021501
2	0xbd3ce7b0	-0.046119392
3	0x3ec33731	0.38128045
4	0xbb12a49c	-0.0022375947
5	0x3d510b2c	0.051036045
6	0x3d816db0	0.06319749
7	0xbdf020de	-0.11725019
8	0x3decae77	0.11556714
9	0xbd1a6811	-0.0376969
10	0x3cd26131	0.02568111
11	0xbd1db258	-0.03850016
12	0x3e138aca	0.14408413
13	0x3d04f6b4	0.032461837
14	0xbb018967	-0.0019765736
15	0x3d92c31a	0.07166119
16	0x3e0aac95	0.13542397
17	0x3dd20134	0.10254136
18	0x3c1b9a73	0.009497273
19	0xbb8e1458	-0.0043359213
20	0x3d75b96c	0.059991285
21	0x3dd43164	0.10360983
22	0x3e367063	0.1781631
23	0x3ce55b62	0.027997676
24	0x3d249d9c	0.04018937
25	0xbe1bd770	-0.15218902
26	0xbdeefe01	-0.11669541
27	0xbdb4e980	-0.08833599
28	0xbd3ee948	-0.046609193
29	0x3e07233f	0.13197039
30	0xbccf5252	-0.025307808
31	0xbd3c9680	-0.046041965
32	0x3d986cee	0.07442652
33	0x3d341187	0.043962028
34	0xbde4459b	-0.11146089
35	0xbcb1955a	-0.021677662
36	0x3dc4a284	0.0960131
37	0x3e033ca8	0.12816107
38	0xbbfd8186	-0.0077363877
39	0xbd9679fd	-0.07347486
40	0x3da11718	0.07865733
41	0xbd92a626	-0.071605965
42	0x3e28f2a8	0.16498816
43	0x3cf22e84	0.029563196
44	0xbe17583d	-0.14779754
45	0xbda17dec	-0.07885346
46	0x3bfabe55	0.007652084
47	0x3d3d191e	0.04616653
48	0x3d97523d	0.073887326
49	0xbd5e6beb	-0.054302137
50	0xbc2ff947	-0.010740585
51	0x3d8207e2	0.0634916
52	0x3d420bc6	0.04737451
53	0xbda4829b	-0.080327235
54	0xb956940f	-0.00020463786
55	0xbd9d1156	-0.07669322
56	0x3d01eeb1	0.031721774
57	0x3db9a984	0.09065536
58	0x3de68b0e	0.11256991
59	0xbd1bcffa	-0.03804014
60	0xbd2888a6	-0.041145943
61	0x3dcbde82	0.09954549
62	0xbe5c2319	-0.21497764
63	0x3cad774a	0.021175046

weight_ih_l0 f4 [256, 64]
0	0xbde84fa6	-0.11343317
1	0x3db356c5	0.08756784
2	0x3c9228ff	0.017841814
3	0xbdabedfa	-0.08395
4	0xbeb8f24b	-0.36122355
5	0xbd6ac2dd	-0.057314742
6	0xbcf371ba	-0.029717315
7	0xbca567aa	-0.020191032
8	0x3d27eb12	0.040995665
9	0xbdd93383	-0.10605528
10	0x3da71400	0.081581116
11	0xbe8bbe02	-0.27293402
12	0x3e10a395	0.14124902
13	0x3df2c5d6	0.118541405
14	0xbdedff9c	-0.11621019
15	0x3d4f347b	0.05058716
16	0xbe04f186	-0.12982759
17	0xbdf75f01	-0.120786674
18	0x3ec7d7c9	0.39031819
19	0x3e45a924	0.19302803
20	0x3df18455	0.117928185
21	0x3df42f7b	0.11923119
22	0x3e80fc8f	0.25192687
23	0xbd8c849a	-0.06861229
24	0x3c074bb3	0.008257794
25	0x3d4946bc	0.049139723
26	0xbe9bb925	-0.30414692
27	0xbcfd2992	-0.030903611
28	0xbd182bb6	-0.03715106
29	0xbe32d3ac	-0.17463559
30	0x3e928fa6	0.2862522
31	0xbe0e69b4	-0.1390751
32	0x3ddac31f	0.10681748
33	0xbda5265a	-0.080639556
34	0x3d7f42b0	0.062319458
35	0x3d80982b	0.06279024
36	0xbe3a53cc	-0.18196028
37	0xbd908c43	-0.07058003
38	0x3dd952e1	0.10611511
39	0xbdc38384	-0.09546569
40	0xbe5a142b	-0.21296756
41	0x3f35d481	0.7102738
42	0x3ea23dd9	0.3168781
43	0xbca98939	-0.020695316
44	0x3cfcbbc3	0.03085125
45	0x3de06e2e	0.10958515
46	0xbd89297f	-0.06697368
47	0x3d452718	0.048132986
48	0x3e7c1714	0.24618179
49	0x3f07004c	0.5273483
50	0x3ed98b9c	0.42489326
51	0xbd7a5f52	-0.06112606
52	0x3e7aaaf9	0.24479283
53	0xbc742827	-0.014902151
54	0x3d2097f4	0.039207414
55	0x3de09dc0	0.109675884
56	0x3f14a5d8	0.5806556
57	0xbe6673eb	-0.22505157
58	0xbe303e27	-0.17211209
59	0x3c871c60	0.016493022
60	0x3e07d3b4	0.13264352
61	0x3e580f85	0.2109967
62	0xbc7db5cf	-0.015485241
63	0xbcc34c88	-0.023840204
64	0xbd527d4b	-0.05138902
65	0x3c613c84	0.013747338
66	0xbdc92e90	-0.09823334
67	0x3f021751	0.5081683
68	0xbe1b0e03	-0.15142064
69	0x3e28ea72	0.16495684
70	0xbddbc4d5	-0.10730902
71	0xbd1539de	-0.03643214
72	0xbd8a81e5	-0.06763057
73	0xbc968efd	-0.018378729
74	0xbcd3cf89	-0.025855796
75	0x3df879f3	0.12132635
76	0xbc5f5c37	-0.013632826
77	0x3da391c9	0.07986791
78	0x3c17412f	0.00923185
79	0x3e3a0d58	0.18169153
80	0xbe283e4c	-0.16430014
81	0xbd9d5bdf	-0.07683539
82	0xbc10de62	-0.008842083
83	0xbd4b838a	-0.049685992
84	0x3de58fe0	0.112090826
85	0xbdda96ee	-0.10673319
86	0xbe421c79	-0.18956174
87	0x3e5bef22	0.2147794
88	0xbeb7fc98	-0.359349
89	0x3e9a053f	0.30082127
90	0x3e7ec622	0.24880269
91	0xbdd7c38f	-0.10535347
92	0xbcbef94f	-0.023312239
93	0x3dee94e3	0.11649492
94	0x3c8b956f	0.017039029
95	0x3cf5dcf0	0.030012578
96	0x3ca1dce2	0.019758645
97	0x3ec5fdeb	0.38670287
98	0xbd49a46c	-0.04922907
99	0x3e268602	0.16262057
100	0xbd7d9d99	-0.061917875
101	0xbd3aeb3c	-0.045634493
102	0x3e81e96c	0.253734
103	0x3e03d048	0.12872422
104	0x3e83112b	0.25599036
105	0x3e64a069	0.22326817
106	0xbdce0b4c	-0.100607485
107	0x3cb32a03	0.021870619
108	0x3eadd7d7	0.33953735
109	0xbb18ebe4	-0.002333396
110	0xbf144bab	-0.5792796
111	0x3d668a09	0.056283984
112	0xbde46755	-0.111525215
113	0xbe7bc2e3	-0.24586062
114	0xbd617cc9	-0.055050645
115	0xbc38c17e	-0.011276601
116	0x3decd0b1	0.11563242
117	0x3e93e949	0.2888892
118	0x3e469e3a	0.19396296
119	0xbd2e2f53	-0.0425256
120	0x3f1cf8f3	0.61317366
121	0x3ea606eb	0.32427153
122	0xbc623b94	-0.01380815
123	0x3decb854	0.11558595
124	0xbd64a6db	-0.05582319
125	0xbe3c95a1	-0.18416454
126	0xbd9e2372	-0.077216044
127	0x3e83170d	0.25603524
128	0x3d318555	0.043340046
129	0xbd16c9f1	-0.03681368
130	0x3db5f55c	0.08884689
131	0x40016883	2.022004
132	0xbde2e9d4	-0.110797554
133	0x3cef9245	0.029244551
134	0xbde3cfe2	-0.11123635
135	0xbe6aff6d	-0.22949
136	0xbe0d0cab	-0.13774364
137	0x3e48e366	0.19617996
138	0xbe683c8b	-0.22679345
139	0x3e09e764	0.13467175
140	0xbbfa33f9	-0.00763559
141	0x3e327878	0.17428768
142	0xbbad4229	-0.005287428
143	0x3e0efca8	0.13963568
144	0xbd43bb6a	-0.047786154
145	0x3bf37404	0.0074296016
146	0xbe951351	-0.291163
147	0xbd06316b	-0.032761972
148	0x3dcb73c3	0.09934189
149	0xbe8dab57	-0.27669784
150	0xbe21ca37	-0.15799795
151	0x3dc22e9d	0.09481547
152	0x3eaa70e5	0.33289257
153	0xbe6d9ccf	-0.23204349
154	0x3d5bf564	0.05370082
155	0x3db87996	0.09007566
156	0xbd673f14	-0.05645664
157	0x3e8b3104	0.27185833
158	0xbd3168eb	-0.04331295
159	0x3c9a2bbb	0.01881968
160	0xbb49dd6b	-0.0030802141
161	0xbd158532	-0.036503978
162	0x3ddaa49c	0.10675928
163	0x3e1d1d31	0.15343167
164	0xbe1aa473	-0.15101795
165	0x3d9ded1b	0.0771124
166	0xbd8375d0	-0.06418955
167	0x3bded7bd	0.0068006204
168	0xbe8c66b3	-0.27422103
169	0x3f0c3a36	0.5477632
170	0xbddebc94	-0.10875812
171	0x3d550c4a	0.052013673
172	0xbd84fc80	-0.06493473
173	0x3e09d760	0.13461065
174	0xbea4f885	-0.32220855
175	0xbdfdd098	-0.12393302
176	0x3dd6798f	0.10472404
177	0x3e643343	0.2228518
178	0xbe92ffa3	-0.2871066
179	0xbd92355d	-0.071390845
180	0xbc9b6e08	-0.018973365
181	0x3ea136ac	0.31487024
182	0xbd39e737	-0.04538652
183	0xbd950a4d	-0.07277355
184	0x3e16d661	0.14730217
185	0x3e957134	0.2918793
186	0xbd93a3cf	-0.072089784
187	0xbdab1506	-0.08353619
188	0x3e05414d	0.13013192
189	0x3c7cdb62	0.015433164
190	0x3e59d1f1	0.21271493
191	0x3d30e3f5	0.043186147
192	0xbe60b2e2	-0.21943238
193	0x3e2349c1	0.15946104
194	0x3ee7b7f2	0.45257527
195	0x3e08a731	0.13345028
196	0x3c9e2558	0.019304916
197	0x3cd24d30	0.025671571
198	0xbd6d2600	-0.057897568
199	0x3e740d98	0.2383331
200	0xbd6378cd	-0.055535126
201	0x3cbc2931	0.02296886
202	0x3e2f6609	0.17128767
203	0x3e3641b7	0.17798506
204	0xbcd1b675	-0.025599698
205	0x3ea68b5b	0.32528195
206	0xbe8ef3aa	-0.27920276
207	0x3ee9d890	0.45673037
208	0x3d9ff6d5	0.07810751
209	0x3dcc5938	0.099779546
210	0xbd158442	-0.036503084
211	0xbd7a2856	-0.061073624
212	0x3e8c1cd5	0.27365747
213	0xbe5bd8d6	-0.21469435
214	0x3eb869ba	0.36018163
215	0xbd95b4a9	-0.07309849
216	0x3df7c7ae	0.12098633
217	0xbeeb868a	-0.46001083
218	0xbde6774b	-0.11253222
219	0xbe6f098d	-0.23343487
220	0x3d8ad174	0.06778231
221	0xbe1c4edb	-0.15264456
222	0x3e336ef8	0.175228
223	0xbd577ef2	-0.0526113
224	0xbe86402d	-0.26220837
225	0xbd8cdc30	-0.06877935
226	0x3c73507b	0.014850731
227	0xbe678800	-0.22610474
228	0xbe0bc1e7	-0.13648187
229	0x3d1ceee5	0.038313765
230	0xbe326f47	-0.17425261
231	0xbe04b0c8	-0.12958062
232	0xbd244717	-0.04010686
233	0x3ee458bd	0.44598952
234	0x3ea3170d	0.31853524
235	0xbe0445e0	-0.1291728
236	0xbd69f724	-0.057120457
237	0x3e3f46e9	0.18679394
238	0x3e081339	0.13288583
239	0xbe5b8096	-0.2143577
240	0x3e15cdd4	0.14629298
241	0x3ec807fe	0.39068598
242	0xbdb0989a	-0.086228564
243	0x3c58e03e	0.013237057
244	0x3e07ef71	0.13274933
245	0xbdcfb3e9	-0.10141737
246	0x3d415166	0.04719677
247	0x3d1811a8	0.037126213
248	0xbdaf1fd7	-0.08550995
249	0x3da13491	0.07871354
250	0x3d73f2cb	0.059557717
251	0x3e3497a4	0.17635971
252	0x3e8b7976	0.27241105
253	0x3e17c74e	0.14822122
254	0xbe5360b4	-0.20642358
255	0x3d87cff9	0.066314645

weight_hh_l0 f4 [256, 64]
0	0xbe14eb41	-0.14542867
1	0x3d826dd3	0.063686036
2	0xbd0b5d2f	-0.034024414
3	0xbf596877	-0.84925026
4	0x3d2f2483	0.04275943
5	0x3d312bf7	0.04325482
6	0x3e3a1b36	0.18174443
7	0xbdc08282	-0.093998924
8	0x3df04317	0.11731546
9	0x3d54b30a	0.051928557
10	0xbdb9e26b	-0.09076389
11	0xbf1d5359	-0.61455303
12	0x3dcd11ef	0.10013186
13	0xbd4d4327	-0.05011287
14	0xbd69f7eb	-0.0571212
15	0xbed1bc45	-0.4096395
16	0xbea04321	-0.31301215
17	0x3e7ec1b9	0.24878587
18	0xbf3808e3	-0.7188856
19	0x3f4a9770	0.79137325
20	0x3ef7ce05	0.48399368
21	0xbd302f76	-0.043014012
22	0xbde2fa1b	-0.1108286
23	0x3e4ef7d9	0.20211734
24	0x3ea9a398	0.33132625
25	0xbe592305	-0.21204765
26	0xbf1ba8c0	-0.6080437
27	0x3e65ed97	0.22453915
28	0xbd3813ca	-0.044940747
29	0xbdfd44ce	-0.12366639
30	0xbd952e18	-0.07284182
31	0x3dbdf451	0.09275115
32	0xbe66d325	-0.22541483
33	0x3da962f1	0.08270825
34	0x3e1261c0	0.14295101
35	0x3d659b44	0.056056276
36	0xbe990fe7	-0.29894945
37	0x3e845c45	0.25851646
38	0xbb17f132	-0.0023184535
39	0xbe0462f1	-0.12928368
40	0xbbb4b32a	-0.005514522
41	0x3d82c910	0.06386006
42	0xbdc4a4c6	-0.096017405
43	0xbd98fe23	-0.07470348
44	0x3ef10f1d	0.47081843
45	0x3da0f101	0.07858468
46	0xbe38b0f4	-0.18036252
47	0x3e319f3b	0.17345898
48	0xbd83e753	-0.06440606
49	0xbcafdfe3	-0.021469062
50	0x3b3dd10a	0.0028963708
51	0xbda03b9f	-0.07823872
52	0xbdab106b	-0.08352741
53	0x3d128d8f	0.035779532
54	0x3d8790dc	0.066194266
55	0xbe20063c	-0.15627378
56	0xbe58582d	-0.21127386
57	0x3d0a559c	0.03377305
58	0xbdbfcbbb	-0.093650304
59	0xbbf48ea8	-0.007463295
60	0xbf549c2a	-0.8305079
61	0x3eb932f4	0.36171687
62	0xbf2f9faa	-0.68603003
63	0x3d44f3a0	0.0480839
64	0xbd5be5fd	-0.05368613
65	0xbd399cde	-0.045315616
66	0xbd07b0f2	-0.033127733
67	0x3d9310e7	0.07180958
68	0x3e466962	0.19376138
69	0xbe04219c	-0.12903446
70	0x3e216030	0.15759349
71	0xbd906238	-0.07049984
72	0xbf46ec20	-0.7770405
73	0xbd84f918	-0.06492823
74	0xbca61a06	-0.02027608
75	0xbf14cc01	-0.58123785
76	0x3e09b32f	0.1344726
77	0x3db5f1fc	0.088840455
78	0xbe2e341a	-0.17012063
79	0xbd4a8621	-0.04944432
80	0xbab39361	-0.0013700539
81	0xbd077a20	-0.03307545
82	0x3c3886aa	0.011262575
83	0xbeb93e12	-0.36180168
84	0xbe0cc515	-0.13747056
85	0x3e276677	0.16347681
86	0xbeaabf07	-0.33348867
87	0xbe510bc3	-0.20414643
88	0x3ed3425c	0.41261566
89	0xbd0c1c14	-0.034206465
90	0xbd4983a5	-0.04919781
91	0x3da3f11f	0.080049746
92	0xbe22fe40	-0.15917301
93	0x3dc76d2a	0.09737618
94	0xbd5b65af	-0.05356377
95	0x3d7f9210	0.062395155
96	0xbea35301	-0.31899264
97	0x3e131851	0.14364745
98	0x3d807679	0.06272597
99	0x3dc4f1b3	0.09616413
100	0xbeaeb078	-0.3411901
101	0x3e908d43	0.28232774
102	0x3e212ada	0.15739003
103	0x3e42fa24	0.19040734
104	0x3b9e4160	0.0048295707
105	0xbe6ecab1	-0.23319508
106	0xbdaf03b9	-0.08545632
107	0x3d3a3514	0.045460775
108	0xbe5fe79f	-0.218657
109	0xbd3b0c43	-0.04566599
110	0xbe0f593b	-0.13998882
111	0x3e41af7f	0.18914603
112	0xbd0732ac	-0.03300731
113	0xbd169564	-0.036763564
114	0x3daf0868	0.08546525
115	0xbd26337c	-0.040576443
116	0xbbc31c4d	-0.0059543015
117	0x3e45aca6	0.19304141
118	0x3d7ca2d6	0.06167873
119	0x3dde688e	0.10859786
120	0xbedc2bdc	-0.43002212
121	0xbe40b197	-0.18817745
122	0xbc0c1ab6	-0.00855129
123	0x3cfe2890	0.031025201
124	0x3e4e1f81	0.20129205
125	0x3ef0816e	0.46973747
126	0xbe200135	-0.1562546
127	0xbd827758	-0.06370419
128	0xbdab3d60	-0.08361316
129	0x3d0204dd	0.03174292
130	0x3d96a6ad	0.0735601
131	0x3d19ba14	0.037530974
132	0xbd1b2845	-0.0378802
133	0x3e2a6250	0.16639066
134	0xbcdc72a5	-0.026910136
135	0x3ccdd552	0.025126133
136	0x3c6ee935	0.014581968
137	0xbe2dab5b	-0.16959898
138	0xbdb0eab6	-0.086385176
139	0xbdb64c1b	-0.08901235
140	0xbe562b48	-0.20914948
141	0xbe868955	-0.2627665
142	0xbd32cfc2	-0.043655165
143	0x3e4167c7	0.18887244
144	0x3d149e63	0.03628386
145	0x3ee56ed3	0.44811115
146	0x3e15cf13	0.14629774
147	0x3cfa3b67	0.030545903
148	0xbec04f82	-0.3756066
149	0x3e01e9fb	0.12686913
150	0xbdefa4e7	-0.117013745
151	0xbe10115e	-0.14069125
152	0xbd82e3b0	-0.06391084
153	0xbd2a8f2e	-0.041640453
154	0x3ed1ab47	0.40950987
155	0x3e158c1d	0.1460423
156	0x3c0d0ee6	0.008609509
157	0x3d557e85	0.05212261
158	0x3da6f8b4	0.08152905
159	0x3dabf99e	0.0839722
160	0x3e3e343c	0.18574613
161	0x3e613c91	0.2199576
162	0xbc651f41	-0.013984502
163	0xba4059b1	-0.0007337584
164	0xbe1dbede	-0.15404841
165	0x3d55dfa8	0.05221525
166	0x3edf84cd	0.43656006
167	0xbc45ef95	-0.012081047
168	0xbdc23fb5	-0.094848074
169	0xbf12a122	-0.5727712
170	0xbccee1b2	-0.025254104
171	0x3ea10879	0.31451777
172	0x3cb4f906	0.0220914
173	0x3dc0ef5c	0.09420654
174	0xbcd28e83	-0.02570272
175	0xbde4695a	-0.11152907
176	0xbe2c996c	-0.16855401
177	0x3f03df88	0.51512957
178	0xbe3e19f8	-0.18564594
179	0xbe0febaf	-0.1405475
180	0xbee41fab	-0.4455541
181	0xbd093fb4	-0.033508018
182	0x3eb70435	0.35745397
183	0x3e35b15d	0.1774344
184	0xbddd4e27	-0.10805922
185	0x3ed46218	0.4148109
186	0xbe3a7073	-0.18206958
187	0x3ce4c79d	0.027927214
188	0x3bca9887	0.0061827335
189	0xbdece460	-0.115669966
190	0xbe159277	-0.14606653
191	0xbc9ffabc	-0.01952874
192	0x3e517dae	0.20458099
193	0xbe0c08d7	-0.13675247
194	0x3c752722	0.014962943
195	0x3ef77306	0.48329943
196	0xbdfb1e33	-0.122616194
197	0x3db204c8	0.08692318
198	0x3d4e62af	0.05038708
199	0x3e1f9e6e	0.1558778
200	0x3f80bf44	1.005837
201	0x3d5e8236	0.054323398
202	0x3c71e068	0.014762975
203	0xbee2e7be	-0.4431743
204	0x3e23b80e	0.1598818
205	0x3cddbb79	0.027066933
206	0x3db24fed	0.08706651
207	0x3cbcb231	0.023034187
208	0xbdbbedb7	-0.091762
209	0x3edf2126	0.43579978
210	0x3e1a60ae	0.15075943
211	0x3edb69af	0.42854068
212	0x3ddebecd	0.10876236
213	0xbe212738	-0.15737617
214	0xbe70629b	-0.23475115
215	0xbd331e90	-0.04373032
216	0xbd9cc027	-0.07653838
217	0xbdaeca1b	-0.08534642
218	0xbe6978a7	-0.22799931
219	0x3e59841a	0.21241799
220	0x3de51ceb	0.11187156
221	0x3c8c8075	0.017151097
222	0xbc8f10da	-0.01746409
223	0x3d432851	0.04764587
224	0x3e46d359	0.1941656
225	0x3eb67181	0.35633472
226	0x3db593e3	0.08866098
227	0x3ea03acb	0.31294855
228	0xbdc3eb4d	-0.095663644
229	0xbf4f4dfa	-0.8097836
230	0x3e1de618	0.15419805
231	0xbc505347	-0.012715167
232	0x3e569f16	0.20959124
233	0xbe76a415	-0.2408603
234	0xbca71240	-0.020394444
235	0xbdc4150d	-0.095743276
236	0x3ded6188	0.11590868
237	0x3eb4fed4	0.35350668
238	0xbe59665f	-0.21230458
239	0xbdd9929e	-0.10623668
240	0x3c5245d4	0.012834031
241	0xbd23a360	-0.03995073
242	0xbdb22425	-0.086983
243	0xbd004f03	-0.03132535
244	0xbd416833	-0.047218513
245	0x3e336ccf	0.17521976
246	0x3e27342b	0.16328494
247	0x3e228412	0.15870693
248	0x3e1c1264	0.1524139
249	0x3cf25866	0.029583167
250	0xbd8dcaad	-0.06923423
251	0x3e192832	0.1495674
252	0x3de13b1e	0.10997604
253	0xbe17dc47	-0.14830123
254	0xbdd686da	-0.1047494
255	0x3daa0a8e	0.083027944

bias_ih_l0 f4 [256]
0	0xbd45a4ed	-0.04825299
1	0x3e558fd7	0.20855652
2	0xbcf12fd5	-0.029441753
3	0xbd69b1e0	-0.0570544
4	0xbcae0243	-0.021241313
5	0x3cb25013	0.021766698
6	0x3cc527d7	0.024066849
7	0xbce136b0	-0.027491897
8	0x3dea1d75	0.114314
9	0xbe772392	-0.24134663
10	0xbd40514c	-0.04695253
11	0x3d70e578	0.05881259
12	0xbe0272c1	-0.12739088
13	0x3d39fd36	0.045407496
14	0x3cf2fbb0	0.02966103
15	0x3e6f636e	0.23377773
16	0xbdd913e9	-0.10599501
17	0xbe5649ae	-0.20926544
18	0xbd9e036f	-0.07715499
19	0x3d9cd9ce	0.076587304
20	0x3db32fad	0.08749328
21	0x3e1e9334	0.15485841
22	0x3d9c949b	0.07645532
23	0xbd82a272	-0.0637864
24	0xbd1e4da3	-0.03864826
25	0x3d4edc29	0.05050293
26	0xbdea149f	-0.114297144
27	0x3e07e014	0.13269073
28	0x3da8902e	0.08230625
29	0xbc726e54	-0.014796812
30	0xbc4a3a1c	-0.012342956
31	0x3d4c5161	0.049882296
32	0x3e093b68	0.13401568
33	0xbb50367a	-0.0031770752
34	0x3d4b1263	0.04957808
35	0xbd1c2108	-0.03811744
36	0x3cd80352	0.02636877
37	0xbca588fd	-0.020206923
38	0x3e333ef9	0.17504491
39	0x3db4a967	0.088213734
40	0x3e6d9783	0.23202328
41	0xbd8a7ddb	-0.06762286
42	0x3df45754	0.11930719
43	0x3da1c471	0.07898796
44	0x3df35336	0.118811056
45	0x3db4dadd	0.08830807
46	0xbdbd892e	-0.092546806
47	0x3db75e74	0.089535624
48	0xbd3cddfd	-0.046110142
49	0xbd41eba7	-0.047343876
50	0xbc66f3e6	-0.014096236
51	0x3d76a3f3	0.060214948
52	0x3dff5142	0.124666706
53	0xbcb97203	-0.022637373
54	0xbc39bbaf	-0.011336251
55	0x3d0a65c7	0.03378847
56	0x3de697fe	0.11259459
57	0x3a6d0a82	0.00090423983
58	0x3cf56f1c	0.029960208
59	0x3c712a54	0.0147195645
60	0xbd055063	-0.032547366
61	0x3d4dbb6d	0.05022757
62	0x3e16eb18	0.14738119
63	0x3dab4257	0.08362263
64	0xbd8c6e48	-0.06856972
65	0x3d9a3344	0.075293094
66	0x3dfbddfd	0.122982
67	0x3df68453	0.120369576
68	0xbdb2e048	-0.087341845
69	0x3d56c889	0.05243734
70	0x3e84d5ee	0.25944465
71	0x3d9252f0	0.07144725
72	0xbc6ce9bb	-0.014460023
73	0xbda9fbc2	-0.08299972
74	0x3e2d49a3	0.16922621
75	0x3c6e59e8	0.0145478025
76	0xbc79a8b9	-0.0152379805
77	0xbbe3d991	-0.006953426
78	0xbc9eacdb	-0.019369533
79	0xbd8bf8d5	-0.0683457
80	0xbdb70cd4	-0.08937994
81	0xbd60590d	-0.054772425
82	0x3da39282	0.079869285
83	0xbcc8ce59	-0.024512457
84	0x3dea2427	0.11432677
85	0xbd0ee429	-0.03488556
86	0x3e3f589b	0.18686144
87	0xbd528938	-0.051400393
88	0xbd47688e	-0.048683695
89	0x3db8ca9b	0.09023019
90	0xbb90221e	-0.0043985983
91	0xbdd0a759	-0.10188169
92	0xbdaaee37	-0.08346217
93	0x3d929266	0.071568295
94	0xbd720efe	-0.05909633
95	0x3c5a0c84	0.013308648
96	0x3e0c2c2f	0.1368873
97	0x3d63f9a4	0.055657998
98	0xbe3be942	-0.183507
99	0x3d976752	0.07392754
100	0xbc36adf7	-0.011149875
101	0xbe701e52	-0.23449066
102	0xbbec537f	-0.007212102
103	0xbdb45a2d	-0.08806262
104	0x3b9ed6d5	0.0048473873
105	0xbe31f6d5	-0.17379315
106	0x3d857cc3	0.06517937
107	0xbe13f092	-0.14447239
108	0x3db2822e	0.08716236
109	0xbd9969b3	-0.07490864
110	0x3e2fc8aa	0.17166391
111	0x3e2784cb	0.1635925
112	0x3d83321d	0.06406043
113	0x3e05f943	0.13083367
114	0xbb0287d0	-0.0019917376
115	0x3dca6d2f	0.09884106
116	0x3c6b50c3	0.014362517
117	0x3cbabdc0	0.022795558
118	0x3d809298	0.062779605
119	0xbc887b7f	-0.01666045
120	0x3e0f2df9	0.13982381
121	0x3db7e86d	0.089798786
122	0x3de088b7	0.10963576
123	0x3d94d2cf	0.07266771
124	0xbdd0688f	-0.10176193
125	0xbd07a2d5	-0.033114273
126	0xbc943fc2	-0.018096808
127	0xbd7cce68	-0.06172028
128	0xbdb17388	-0.08664614
129	0xbd1b522a	-0.037920155
130	0xbbc4241f	-0.0059857513
131	0xbe094a6c	-0.13407296
132	0x3d76a85b	0.06021915
133	0xbce6dacc	-0.028180502
134	0xbdd10b8f	-0.10207283
135	0xbdf41cd4	-0.11919561
136	0xbbdddae4	-0.0067704786
137	0x3dbbe840	0.091751575
138	0xbd04ee61	-0.0324539
139	0x3d9c013a	0.076174214
140	0xbde4517e	-0.11148356
141	0x3da5380c	0.08067331
142	0xbdf68dfd	-0.12038801
143	0x3d7b002d	0.061279465
144	0x3dc1ad8e	0.09456931
145	0xbe88fbde	-0.2675466
146	0x3e206f09	0.15667357
147	0xbdfc7a48	-0.12328011
148	0xbd6620da	-0.056183673
149	0xbd8be6bf	-0.06831121
150	0xbd2b4a02	-0.041818626
151	0xbda6b2fc	-0.08139607
152	0x3e315ef9	0.17321385
153	0x3e3fe29f	0.18738793
154	0x3d0216da	0.031760074
155	0xbdf6e5b6	-0.12055533
156	0x3e117d35	0.14207919
157	0x3dd810b8	0.10550064
158	0x3e136e6c	0.14397591
159	0xbdde753c	-0.108622044
160	0xbdba8d91	-0.09109033
161	0xbda9be3d	-0.08288238
162	0xbdd1fb7d	-0.10253046
163	0xbdaffbcb	-0.085929476
164	0xbd63a847	-0.055580404
165	0x3e3de934	0.18545991
166	0x3d026edc	0.031844005
167	0xbc885724	-0.016643114
168	0x3dbb4799	0.091445155
169	0xbc442962	-0.011972757
170	0x3c37f741	0.0112283835
171	0x3d3f0302	0.046633728
172	0x3dbbdff7	0.09173577
173	0xbdf4986a	-0.11943133
174	0x3c75f66a	0.015012363
175	0xbcc80a09	-0.024418848
176	0x3db1c69b	0.08680459
177	0xbc0d8aa3	-0.008639011
178	0x3df926a1	0.12165571
179	0xbde52334	-0.11188355
180	0x3e33a3ac	0.17542905
181	0x3d43a22f	0.047762092
182	0x3c02d7a9	0.007985988
183	0xbcb29486	-0.021799337
184	0x3d5cceda	0.053908207
185	0x3d8dcff9	0.06924433
186	0x3e0cf933	0.13766937
187	0x3d81bca7	0.06334811
188	0x3dba80ca	0.09106596
189	0xbd1b499c	-0.037911996
190	0x3ddf6ada	0.10909052
191	0xbe1bd8fe	-0.15219495
192	0x3d8b4d5e	0.06801866
193	0xbcbce791	-0.023059638
194	0x3d190803	0.037361156
195	0x3d1e5fd4	0.038665608
196	0xbc97fc97	-0.018553061
197	0x3e101a24	0.14072472
198	0xbe0ffa48	-0.14060318
199	0x3c573e6c	0.013137441
200	0xbc7a9431	-0.015294121
201	0x3d827e7f	0.063717835
202	0x3d607547	0.054799344
203	0x3d56535d	0.052325595
204	0xbc11ac4d	-0.008891177
205	0x3dec55a2	0.11539771
206	0x3c57ad2d	0.013163847
207	0xbb41a449	-0.0029547384
208	0x3d9e0985	0.077166595
209	0x3d55b0ec	0.05217068
210	0x3d6b7d79	0.057492707
211	0x3de09c89	0.10967357
212	0xbc90fb55	-0.01769797
213	0x3dafab1f	0.08577561
214	0xbc7f740e	-0.015591634
215	0x3dc3698b	0.09541615
216	0xbcd621e5	-0.026139209
217	0xbd2f4dfe	-0.04279899
218	0x3dd51e3a	0.10406156
219	0x3d224b84	0.0396228
220	0x3dd77188	0.10519701
221	0xbd1f7937	-0.03893396
222	0xbcd97fc8	-0.026550189
223	0x3cf285f3	0.029604888
224	0xbda35cc9	-0.07976682
225	0x3e105b50	0.14097333
226	0xbdd64351	-0.10462058
227	0xbe0ca41a	-0.13734475
228	0xbd2750e8	-0.040848643
229	0x3dfab0e8	0.122407734
230	0xbe1823f5	-0.14857467
231	0x3d6eada9	0.058271084
232	0x3e2fc06a	0.17163244
233	0x3dc9ce98	0.09853858
234	0x3ccc346e	0.024927344
235	0x3cde444c	0.027132176
236	0xbd6fcd25	-0.05854525
237	0x3de06293	0.109563015
238	0xbcd194c5	-0.025583634
239	0xbcfb3c53	-0.030668413
240	0x3b963fa4	0.0045852233
241	0xbdcafffb	-0.09912106
242	0x3d842ea0	0.064542055
243	0x3b3e92e3	0.002907925
244	0x3dca8afa	0.09889789
245	0x3d26604f	0.04061919
246	0x3de14060	0.10998607
247	0x3d2c91e1	0.04213131
248	0x387c32ab	6.012867e-05
249	0xbd54cafc	-0.051951393
250	0x3d293b13	0.041316103
251	0xbe0fa21e	-0.14026687
252	0x3d67c3c0	0.056583166
253	0x3d65d2eb	0.05610935
254	0xbd822c86	-0.063561484
255	0xbd3e5bd7	-0.046474304

bias_hh_l0 f4 [256]
0	0xbd936485	-0.07196907
1	0x3da359dd	0.079761244
2	0x3e499dea	0.19689146
3	0x3d857a54	0.06517473
4	0xbe5efcd0	-0.21776128
5	0x3db05356	0.08609645
6	0x3e001de4	0.12511402
7	0x3daea0a5	0.08526734
8	0xbd92d277	-0.07169049
9	0xbe0ef589	-0.13960852
10	0x3c3f3b9b	0.011671926
11	0x3db0aa20	0.08626199
12	0xbe4aaf73	-0.19793491
13	0xbdc0126d	-0.093785144
14	0xbd5230c9	-0.051316056
15	0x3c5eb649	0.013593265
16	0x3d8766b6	0.066113874
17	0xbe653654	-0.22384006
18	0xbdba6e6b	-0.09103092
19	0x3d2e4e56	0.042555176
20	0xbdd3be68	-0.103390515
21	0x3b49dec4	0.0030802945
22	0x3e00568d	0.12533017
23	0xbdb7e037	-0.089783125
24	0xbd343f7f	-0.044005867
25	0xbc49c99e	-0.012316136
26	0xbc457aa8	-0.012053169
27	0x3df695f1	0.12040318
28	0x3de6baf8	0.1126613
29	0xbd810261	-0.06299282
30	0x3d99ad82	0.07503797
31	0x3e379e24	0.1793142
32	0x3d8f151f	0.069864504
33	0x3e4f996e	0.20273373
34	0x3e3c42aa	0.18384805
35	0xbc8057a9	-0.0156668
36	0xbd81cbea	-0.06337722
37	0x3b23e18c	0.0025006263
38	0x3e2b26d0	0.16714025
39	0x3dba7629	0.091045685
40	0x3e8c3ae0	0.27388668
41	0xbb8f6a93	-0.0043767183
42	0x3df5d987	0.12004381
43	0xbcce8d8f	-0.025213985
44	0xbb736870	-0.0037141107
45	0x3b93b790	0.0045079663
46	0x3d5b72dc	0.053576335
47	0x3d8761bf	0.066104405
48	0x3e0a7052	0.1351941
49	0xbce708ab	-0.028202375
50	0x3db5eadc	0.088826865
51	0x3dca5d8d	0.09881125
52	0x3db378bc	0.08763263
53	0x3e2c1add	0.16807123
54	0x3df584a7	0.11988192
55	0x3d073ed3	0.0330189
56	0xbd21b15f	-0.039475795
57	0x3dd8c3dd	0.10584233
58	0x3dc8fd61	0.09813953
59	0xbe1ad3d9	-0.15119876
60	0x3db12416	0.08649461
61	0xbcc930a0	-0.024559319
62	0x3c39eada	0.011347497
63	0x3db2d9b7	0.08732932
64	0x3dbe909f	0.09304928
65	0xbe1f5af6	-0.15562043
66	0x3dc1dbb8	0.09465736
67	0xbd6d65f0	-0.057958543
68	0xbde518e7	-0.1118639
69	0x38804e2b	6.1180755e-05
70	0x3e6e2c74	0.23259145
71	0x3e2199a7	0.1578127
72	0xbc8b68a3	-0.017017668
73	0xbe0d9d24	-0.13829476
74	0x3d6d0151	0.057862584
75	0xbd749a00	-0.05971718
76	0xbdc778ba	-0.09739824
77	0xbd186c29	-0.037212525
78	0x3e1e660a	0.15468612
79	0xbb6d43af	-0.0036203673
80	0x3deee434	0.1166462
81	0xbe599767	-0.21249162
82	0x3da68a69	0.081318684
83	0x3a63c5c0	0.000868883
84	0x3e85e3d5	0.26150385
85	0xbdc90310	-0.09815037
86	0x3e07bd88	0.13255894
87	0xbcded8ba	-0.027202953
88	0xbc2e8f1b	-0.010654236
89	0xbdeefe85	-0.116696395
90	0xbe069bf5	-0.1314543
91	0x3d36904a	0.0445712
92	0xbd0e3a08	-0.03472331
93	0x3e008a0f	0.12552665
94	0x3e150a60	0.14554739
95	0x3d3e76e4	0.0465001
96	0x3d370a07	0.044687297
97	0x3e356e1c	0.17717785
98	0xbe4b79c3	-0.19870667
99	0x3d338bf1	0.04383463
100	0xbd06865b	-0.032842975
101	0xbd99f4e8	-0.07517415
102	0xbd5f14dd	-0.054463256
103	0x3d605083	0.054764282
104	0xbd142ca7	-0.036175396
105	0xbdbebe37	-0.09313624
106	0x3d0d3d05	0.03448202
107	0xbc983363	-0.01857919
108	0xbb804521	-0.003914491
109	0xbd944103	-0.072389625
110	0xbd182c4c	-0.03715162
111	0x3d8cd5eb	0.06876739
112	0x3e0948fb	0.13406746
113	0x3e18c2d4	0.14918071
114	0x3d1368d9	0.035988662
115	0xbcd84563	-0.026400274
116	0xbd772038	-0.06033346
117	0xbd67527d	-0.05647515
118	0x3caf04a0	0.02136451
119	0x3debe994	0.11519161
120	0x3dd86f24	0.105680734
121	0x3dcb8d17	0.0993902
122	0x3d658e80	0.0560441
123	0x3dd21fbb	0.10259958
124	0x3d1359ff	0.0359745
125	0x3e049ae7	0.12949716
126	0x3dbcdf9a	0.09222336
127	0x3dceb246	0.10092597
128	0xbd5f82eb	-0.054568212
129	0xbd20ba2c	-0.039240047
130	0xbdc96895	-0.098344006
131	0xbe231790	-0.15926957
132	0x3dbad074	0.091217905
133	0x3d676381	0.05649138
134	0x3c127f04	0.008941416
135	0x3b9c2475	0.004765088
136	0xba96c000	-0.0011501312
137	0xbd57ea0c	-0.05271344
138	0xbd9bc459	-0.0760581
139	0xbd77165a	-0.06032405
140	0xbe86b066	-0.26306456
141	0xbe1dddb1	-0.154166
142	0xbd7c2fd6	-0.061569057
143	0x3d347d44	0.044064775
144	0x3cd39de4	0.025832124
145	0xbdda890e	-0.10670672
146	0x3e60573b	0.21908276
147	0xbcc9906b	-0.024604997
148	0xbda6a56f	-0.08137023
149	0xbd0f8eed	-0.035048414
150	0x3dc42e8c	0.095791906
151	0xbe20e70a	-0.15713134
152	0x3d114aa6	0.03547158
153	0x3e698e96	0.22808298
154	0x3e4b2306	0.19837579
155	0xbd790fae	-0.06080597
156	0x3e42e47e	0.19032475
157	0xbc735734	-0.014852334
158	0x3e02e083	0.12780957
159	0xbde25066	-0.11050491
160	0x3ce41df5	0.027846316
161	0xbdab7d8f	-0.08373558
162	0xbd28be39	-0.041197035
163	0xbdd4c866	-0.103897855
164	0x3c968530	0.018374056
165	0x3ea7f9f0	0.32807875
166	0xbd484351	-0.048892323
167	0x3e04adac	0.12956876
168	0x3dcbc246	0.09949164
169	0x3dac380b	0.08409127
170	0x3dd9cf69	0.106352635
171	0xbc065e84	-0.008201245
172	0x3d3514d0	0.0442093
173	0x3d1e8dda	0.0387095
174	0x3c89baab	0.016812643
175	0x3cd41d3c	0.025892846
176	0xbdfdf26a	-0.123997524
177	0xbe0599b8	-0.1304692
178	0xbcd3cdcb	-0.025854966
179	0xbe00b377	-0.1256846
180	0x3e4c6626	0.19960842
181	0xbdfa5bdf	-0.12224554
182	0x3dd50db1	0.10403002
183	0x3c71a683	0.014749172
184	0x3d008204	0.031373993
185	0x3d6e66ae	0.05820339
186	0x3d80c092	0.0628673
187	0x3cf268f5	0.029591063
188	0x3dc9b3c3	0.0984874
189	0xbdf13654	-0.117779404
190	0xbce91abd	-0.028455133
191	0xbc650d96	-0.01398029
192	0x3ae09924	0.0017135483
193	0x3e13e6d6	0.14443526
194	0xbd301e63	-0.04299773
195	0x3d9b788e	0.07591353
196	0x3b9c51a5	0.004770475
197	0xbc8d115d	-0.017220194
198	0xbcc6055e	-0.024172481
199	0xbe0f3033	-0.1398323
200	0xbb91027c	-0.004425345
201	0xbd773ff0	-0.06036371
202	0x3db1248f	0.08649551
203	0x3dac6c76	0.08419125
204	0x3dafc5a9	0.085826226
205	0xbceeeb74	-0.029165007
206	0x3e7fcd53	0.24980669
207	0xbdbd0f17	-0.09231394
208	0x3d2114ad	0.03932636
209	0xbcaae9ad	-0.020863378
210	0x3e0f9f60	0.1402564
211	0x3d83ff8a	0.064452246
212	0xbdc406fe	-0.09571646
213	0x3e081a5c	0.13291305
214	0xbd5f4ede	-0.054518573
215	0xbda6a2fb	-0.08136555
216	0xbd2014f6	-0.03908249
217	0xbd8588c3	-0.06520226
218	0xbc94cf72	-0.018165324
219	0x3d74d436	0.059772693
220	0x3e007bbf	0.12547205
221	0x3e229fb9	0.15881242
222	0xbdceafc2	-0.10092117
223	0x3d8b440b	0.068000875
224	0x3cea7d38	0.028624162
225	0x3cf0d2ac	0.029397331
226	0x3daa98d2	0.083299294
227	0xbe027cd4	-0.1274293
228	0x3cc5f496	0.02416448
229	0x3da39bb1	0.0798868
230	0xbcefa6c2	-0.029254321
231	0x3deda85b	0.11604377
232	0xbcb40df9	-0.021979319
233	0x3e0b75f3	0.13619213
234	0xbc9d29e1	-0.019185008
235	0xbd939745	-0.07206587
236	0x3cf1f2fe	0.029534813
237	0x3df08141	0.11743403
238	0x3e0767d1	0.13223197
239	0x3da84d93	0.08217921
240	0x3dea0bda	0.11428042
241	0x3d07e482	0.033176906
242	0x3d96ca56	0.07362811
243	0x3e099217	0.13434635
244	0xbc68b9dc	-0.014204469
245	0xbd8b1349	-0.06790788
246	0xbccbb66a	-0.024867255
247	0x3d6199ba	0.055078246
248	0x3db8e381	0.09027768
249	0x3ad3eb79	0.0016168199
250	0x3d283054	0.041061714
251	0xbd8ce0e9	-0.06878836
252	0xbc61147c	-0.013737794
253	0xbd960ff2	-0.0732726
254	0xbb84eb5e	-0.0040563783
255	0xbe34653c	-0.17616743
