data/example_dynamics_data/models/kitchen/LSTM_q_true.pth (torch, 187027 bytes, 10 tensors)

weight f4 [64, 70]
00000000: f750 3b3e 21df ef3e d331 11be a516 4d3e
00000010: ae7a 413e 41d8 30bd ab2d 37be 92fb e5bd
00000020: cec4 123e eff1 9cbf 6cfc 49bd 956e 323f
00000030: 69a3 e63e f340 f73d 77a5 713e 2f10 443e
00000040: 9068 c9be 86bc 3f3e 84a1 9f3e fd0b 053e
00000050: 1459 55be fbd7 f83d 194e 7abd 9d62 0fbe
00000060: 8abf 0d3e f56e b5bc a73d 44bd d88a 40be
00000070: a8e1 afbb 4226 dcbb 7782 af3c 7518 d9bb
00000080: 8875 edbd c243 bc3d 2f91 b73d 266c 52bd
00000090: 43e4 6d3d 64fd 503d e988 763c b115 c73d
000000a0: a644 a9bd 95ff 0fbe edf5 753d e25a 463d
000000b0: e2dd 50bd 4e48 613d ec89 d43d 13dd 893d
000000c0: 735a 13be 01ed 1bbd 103a d83d d47f ee3d
000000d0: c1c0 1abe 705c 05be 6570 413d a631 da3d
000000e0: 1398 383d 32b4 ca3c dbe6 22bd 2841 d5bd
000000f0: f213 90bc 9d1b 283c 792b 33bd 40af bebc
00000100: 008a 76bc dbbe 4f3d 8cdf 07bd 0e0a 2d3b
00000110: 049e 4abc 72bc d5ba 2592 1dbe ba78 f33b
00000120: 315a 193e 7011 26bd cfc1 e73b 2edd 7a3e
00000130: 7852 253d f958 eabd 3008 cdbd 86e6 b13e
00000140: abf6 abbe cd89 57be 72bd 96be f271 3b3f
00000150: df2e 453f a405 f53e 2d6a 9d3e 9ffb f939
00000160: 5199 71bd f231 913d c7d6 9fbe 2487 e63d
00000170: ebfb 0cbf b985 2b3f feea f53e 334b ecbd
00000180: efe9 0cbe 4498 0abd 3a17 0e3f 0b52 1abf
00000190: 86ef d23d b779 dd3d 6b62 b8bc de67 06bd
000001a0: d125 893d 5d6c ab3d b96f 8abb 2df9 28bc
000001b0: 7be6 903d 0afd 3e3d dd03 dc3d abde 1b3e
000001c0: 7102 863d 1884 38bd 6eaf af3d e142 c73d
000001d0: f899 88bd 1202 8abd 377b 353c 8743 87bd
000001e0: 6bb5 953d b79f 1f3d a010 76bd 5d23 e33d
000001f0: fe2e d2bd fc1d 823d a066 1ebe 2f0f 8ebd
00000200: 3192 27b9 433e 1f3e 1e10 8abb 8e82 543c
00000210: a648 a63c ca2a 313c 2b59 a2bb 8817 003d
00000220: 6ca0 e0bb 63d8 8e3c 5c60 78bb 5348 64bb
00000230: bae3 043d 77ba 833e 2c5b 493e e383 3fbd
00000240: 229c d73b a155 7c3e 947c af3d a689 b8bc
00000250: 04ed 4b3e 14be 373d a394 503e de16 f9bc
00000260: 3077 e53d 1a68 983e 8a2f 9c3e 2403 03bf
00000270: dd3e 0bbf c4d7 c7bd 5332 b3bd d98b ab3d
00000280: 4fa1 43be 59b3 5f3e 87b7 283f 81f4 e43d
00000290: 9b15 15be e3f9 f23d efd7 2538 cb94 2abc
000002a0: 9e6e e33e 25c4 3f3d 99a4 ecbd 8711 a4bb
000002b0: cf33 ba3c fda8 b13c 8369 d5bd 6e71 373c
000002c0: 75b9 6ebd 0e1f ebbc f53a e33d 4a06 7bbd
000002d0: 16d5 acbd 8c47 b0bd b9c8 bfbd ecf1 963d
000002e0: 161d 9f3d 7a82 cd3d 57bc 833d 6a8a 7d3c
000002f0: 349b 32bd c5fc cdbb 843b edbd 2c75 57bc
00000300: a942 cbbd 5a2f 133c b3e5 533c 9d6c 043c
00000310: 2406 103e 8048 da3d 022c e53d e6a6 723d
00000320: b1c9 153b 3fb5 9f3b ee68 bf3c 9da3 893d
00000330: 193b b8bb e200 bb3c 9b4d 0abc c93d bd3b
00000340: 86c9 2fba f59a 733a 3aa0 6abe 8eed 933e
00000350: 95f5 c73d 3875 2a3e cd3d 83bd 7a7b 8cbd
00000360: 851c 85bc 4547 463d ff76 f9bd a95e b13f
00000370: 3ef8 72bf 6909 42be 1b38 d9bd 9f40 eabe
00000380: f38b a4be fe1a 4dbd 6a63 90bd 5012 18be
00000390: 1234 8fbe fc4c 7c3f 8143 633d 67b7 ca3e
000003a0: 1ed6 ebbd 05de 203f e026 873d 09f3 ff3d
000003b0: 0a03 07be d9b8 4cbd 9366 973e 6e9c 8b3e
000003c0: 3204 da3d 11c3 1abd efe3 b33d e6ba df3d
000003d0: 80c7 b9bd ad51 eb3b 2e69 f4bd c194 a8bd
000003e0: b0ec 373d 1864 08bd 002b f4bd 201c 6abd
000003f0: 718d 5dbc 6e7d 42bd 9dc2 97bd 5788 f4bb
0.18292604 0.4684992 -0.14179163 0.2002817 0.18894455 -0.043174986 -0.17888515 -0.11229624
0.14332888 -1.2261332 -0.049312994 0.69699985 0.45046547 0.12072935 0.23598276 0.19146799
-0.39337587 0.1872426 0.31177914 0.12992854 -0.20834762 0.1215057 -0.061109636 -0.14002462
0.13842598 -0.022147635 -0.04791036 -0.18802965 -0.0053674765 -0.006718428 0.021424515 -0.00662523
-0.11594683 0.09192611 0.089632384 -0.05137267 0.058079015 0.051022902 0.01504729 0.09720934
-0.08265047 -0.1406234 0.060048986 0.048426516 -0.050992854 0.055000596 0.10377869 0.0673162
-0.14389972 -0.03806782 0.105579495 0.11645475 -0.15112592 -0.13023543 0.04722633 0.10654001
0.045066904 0.024744127 -0.039770942 -0.10412818 -0.017587636 0.01026049 -0.04374263 -0.023276925
-0.01504755 0.050719123 -0.033172175 0.0026403698 -0.012366775 -0.0016306771 -0.15387781 0.007430163
0.14975812 -0.040543973 0.0070726643 0.24498436 0.04036185 -0.114427514 -0.10011327 0.34746188
-0.3358663 -0.2104866 -0.2944141 0.7322074 0.77024645 0.47855866 0.30745068 0.00047680453
-0.058984105 0.070896044 -0.3121855 0.11256245 -0.55071896 0.6700092 0.48030847 -0.115377806
-0.13761114 -0.033836618 0.5550419 -0.6028144 0.10299592 0.10814231 -0.022507867 -0.0328139
0.06696666 0.08370278 -0.004224744 -0.010313314 0.07075211 0.046628036 0.10742924 0.1522166
0.065434344 -0.04504785 0.085783824 0.09729553 -0.06669992 -0.06738676 0.01107674 -0.06604677
0.07309993 0.038970675 -0.06007445 0.110907294 -0.10262869 0.06353375 -0.15468836 -0.0693649
-0.00015980822 0.15551095 -0.004213347 0.01297058 0.020298313 0.010813424 -0.0049544773 0.03127244
-0.0068550613 0.017437166 -0.0037899232 -0.0034833148 0.03244374 0.257282 0.19663686 -0.046756636
0.006579892 0.2464204 0.08568683 -0.022526573 0.19914633 0.044859007 0.203692 -0.030406412
0.11204374 0.29766923 0.3050502 -0.5117667 -0.54392797 -0.09757951 -0.08749833 0.08376283
-0.19104503 0.2184576 0.6590504 0.11179448 -0.14559023 0.11864068 3.954017e-05 -0.010411452
0.44420332 0.046817917 -0.11554832 -0.0050069722 0.022729782 0.021687025 -0.104205154 0.011196477
-0.058282334 -0.028701331 0.110952295 -0.061285295 -0.084390804 -0.086073965 -0.09364457 0.07370362
0.077692196 0.10034652 0.06432407 0.015474895 -0.043605044 -0.006286236 -0.11583617 -0.013150495
-0.09924824 0.008983457 0.0129331825 0.008082536 0.14064842 0.106583595 0.111900344 0.059241198
0.0022855813 0.004873901 0.023365464 0.0672066 -0.0056222794 0.02282757 -0.008441354 0.0057751876
-0.00067057495 0.0009292805 -0.22912684 0.28892177 0.09763638 0.16646278 -0.06408272 -0.06859489
-0.01624895 0.04840781 -0.121809 1.3857013 -0.9491004 -0.18948902 -0.106064044 -0.45752427
-0.32138023 -0.05007457 -0.07050212 -0.14850736 -0.27969414 0.9855497 0.0554843 0.3959305
-0.11515449 0.62838775 0.06599212 0.12497527 -0.13184753 -0.049980972 0.29570445 0.27267784
0.106453314 -0.037783686 0.08783709 0.1092432 -0.09071255 0.0071813674 -0.11934124 -0.082314976
0.044903457 -0.03329858 -0.11922264 -0.05715573 -0.013522492 -0.0474829 -0.074101664 -0.007462542

bias f4 [64]
00000000: 632a 093e 8797 b33b bae4 3bbd 4366 6d3d
00000010: 4f02 d83c dbbb edbc 3803 923d 7e7b 243e
00000020: dc6f b73d 70a6 1bbd 5cfc 8e3d 38da 093e
00000030: beb1 ac3d 5a81 d1bd 8592 aebd 78f1 e93d
00000040: d36c ee3d e407 883d e409 a83d 4540 02bd
00000050: a138 213e a8ac 313d 34e5 7e3d a83f 943b
00000060: 6714 2d3e b331 683e d78a 943c 1830 c23d
00000070: 115d 32be 9e3b 063e ecc9 283e 48c4 a33d
00000080: 29fa 333d 0ede b83c fb29 9b3d b809 413d
00000090: 800c ad3c b826 313e 688d 0dbd 7422 7fbc
000000a0: 30dc 93bd 011e ccbc 75ce be3d 0666 4bbc
000000b0: ba16 db3d 3314 12bd 78cf 24bd 4c71 64bc
000000c0: 4961 163e 7ae6 013e ed8b bb3d 2e6b e33d
000000d0: 020a bf3d a4f6 243d 3bbe 073c b2cb 36bd
000000e0: bd10 06bd f504 53bd 5586 67bc 2635 04be
000000f0: 8b76 e2bc 14ce 593e 850a ca3d a2f1 783b
0.13395076 0.00548071 -0.045872428 0.057958852 0.026368288 -0.02902024 0.0712952 0.16062734
0.08956882 -0.038000524 0.069817275 0.1346215 0.08432339 -0.1022975 -0.0852404 0.1142301
0.1164185 0.0664213 0.082050115 -0.031799573 0.15744258 0.04337755 0.062230304 0.00452419
0.16902314 0.22675209 0.01813261 0.094818294 -0.17418315 0.1310868 0.16483277 0.07996422
0.043939743 0.022566821 0.075763665 0.04712841 0.021124125 0.17299926 -0.034558684 -0.015572179
-0.07219732 -0.02491665 0.09316722 -0.012414461 0.10697694 -0.035663795 -0.04023692 -0.013943028
0.14685549 0.12685576 0.09157548 0.11104427 0.09328081 0.040274277 0.008285101 -0.044627853
-0.032730807 -0.0515184 -0.014131148 -0.129109 -0.027644416 0.21270019 0.09865288 0.0037985821

weight f4 [64, 64]
00000000: 48a3 6a3c 83af 01be 4af6 b4bd 830b 4fbc
00000010: 1220 f0bd 0a29 f43c 0b16 943d 9193 273c
00000020: f0ce fabd 898c ca3d 2f59 843c 4a14 5d3d
00000030: 6743 22be 3d9d 4c3e 9ce5 d8bd 5e2b 13be
00000040: afbb d53d ca0b ab3d 873d 31bd 396b ab3d
00000050: 7ddd 3bbe 60be 753d 368b bdbd f87f 673e
00000060: b049 0e3e b0ae eb3d 0fd0 dfbd 4b48 a93b
00000070: b8fd b1bb 9cb4 653e 111a 86be de45 b2bd
00000080: 8d0b 853d 9bab 57be 3ce5 edbc 5364 283e
00000090: e786 04be 0abf a1bc e5e5 bb3b f82e 4fbd
000000a0: a297 493e cd23 ea3d 0fbc 13be 2826 46be
000000b0: 43f0 cabd 6eaa f7bc 6810 093e a9a5 01be
000000c0: 8e83 2d3e 9e54 d0bc cf6c 1cbd c546 e93d
000000d0: eb21 92bd 0c0b 0ebe 9c50 00bd 9178 343d
000000e0: 763e 6a3c f775 5f3e a667 c43d a2c7 3e3d
000000f0: e576 d7bd a1f0 2b3e fe14 7a3e db72 e8bd
00000100: c2e2 213e c08a ddbc eda0 ccbd c39c b8bd
00000110: cb78 1ebd da73 9abc 8cf3 573d f52d 0fbe
00000120: a879 f0bd ef8d 2d3d b97b 65bd 4529 0c3d
00000130: 243d 0b3c d76a 98bd 03e1 873c 4d17 17be
00000140: d088 3d3d c45a 2b3e 46ea be3d e828 ae3b
00000150: 6dcb 483e 2714 82bd f23c e6bd 8ace bbbc
00000160: e8f0 1a3e 64d2 0bbe d829 1a3e 391a c83d
00000170: 71ca 063e 4ee1 a73c b41a 383d c203 503e
00000180: ff1f e5bd 1b31 c03d ff34 f8bd 5057 b33c
00000190: 53d9 ce3c e003 0a3e 63f5 703e 6536 33bd
000001a0: 923f f73d 21b4 2f3e 9463 06be 088e 1bbd
000001b0: 6745 453e 2fd6 b83d 1fe8 933c 976a ed3d
000001c0: 2dea 53bd d56c 05bd 249f eb3d a544 263e
000001d0: 6a16 7cbd fdfd 8bbd 7613 0b3d 7bd2 063c
000001e0: 79fe 2a3e 9caa 973c 5f25 f03d f046 533d
000001f0: e77c febd bd58 443d 39dd bf3d 4edf 2fbe
00000200: bdaa 293c da5c 123e c6e4 b93d f072 9bbd
00000210: 105a 0c3e 8a99 2a3e 7e38 28bd 0551 a33c
00000220: 4061 aebd d5a9 99bd 8395 2f3d edb3 3d3d
00000230: a435 26be 5030 3cbd 4c64 bc3d da0c 783d
00000240: f2f2 873d 2d1a 1abe be30 20bd 8cd6 8b3d
00000250: 9eaa 6a3d b077 27bc bfd9 eabc 5701 ea3d
00000260: a6a1 363c edc2 d73d 8299 42be d313 06be
00000270: b0f9 b5bd 50c9 233e dc07 ecbd 7d07 7d3e
00000280: 615f e0bc 9610 83bd 0ef0 ae3d 4227 2e3e
00000290: a14e 003e 2850 473e bcaf e8bd b3ca c2bd
000002a0: 7bba 7d3d 0783 413e f392 7abb 6881 48bd
000002b0: f41e 4bbd 67b5 093d 430d 4d3d 996b 0dbd
000002c0: 7a79 35bd 9dbe e9bd 95ed cabd 0643 373e
000002d0: 1f95 743e e9d3 5dbc 6c42 b9bc 5e19 72be
000002e0: d181 283e 6b0c 44bc 171c 67bd 791f 31bd
000002f0: 6007 30bc d630 4abb bb53 183d 05c7 86bd
00000300: a8a2 8fbe 73d4 41bc f11c 74be 3e19 563d
00000310: beaf 15be bbb4 ccbd 85a3 8dbd d4c1 b43d
00000320: 4b8f d53d 0de2 50bd 5adf caba 89df 92bd
00000330: b675 f53c db8c 5fbe c278 b5bd bc33 a33d
00000340: d604 8dbe 861c 67be ae7d 873d 00ae 5cbd
00000350: 8ed5 003e 7d8b 2a3e 352c 883e 8280 d6bc
00000360: d8f7 1a3c 118a 01be 379b ffbd 2254 5a3d
00000370: 39a5 e83d a2f1 4e3e 634c b43d b945 3bbe
00000380: 4c4d 6c3e 3b5e 19be 9642 1bbe e133 78be
00000390: 5e4a 073d ccd6 563e 0cc2 873e 52ea f9bd
000003a0: c066 1a3e 062a 133c ce74 cf3c 588b 9d3d
000003b0: 87db bbbd f9c7 6c3d c3d0 e73d 88c0 11be
000003c0: 22eb 79bd a13e 753d 63b0 603e ea8b d7bd
000003d0: bc35 5f3c 1ecb 253e 2aee 0ebe 8994 313e
000003e0: 925f eabd e03e 3dbc 27b6 e83c a690 513e
000003f0: c81a 3a3c 3c1b 10be 94ef 8b3d b7fc 5bbb
0.014321156 -0.12664609 -0.088360384 -0.012637022 -0.11724867 0.029804725 0.07230767 0.010228054
-0.122465014 0.09890086 0.016155807 0.053974427 -0.15846024 0.19981857 -0.105906695 -0.14372012
0.104361884 0.08351858 -0.043271568 0.083700605 -0.1834621 0.05999601 -0.09255068 0.2260741
0.13895297 0.11507928 -0.10928356 0.0051660887 -0.005431857 0.22432178 -0.26191762 -0.08704732
0.06496344 -0.21061556 -0.029039972 0.1644452 -0.12942086 -0.019744415 0.0057341927 -0.050581902
0.1968675 0.1143261 -0.14427207 -0.19350493 -0.099091075 -0.030232634 0.13385165 -0.1266085
0.16944715 -0.025430974 -0.038189705 0.11390451 -0.071353756 -0.13871402 -0.031326875 0.044060294
0.014297118 0.21822344 0.09590082 0.046577103 -0.10520724 0.16791011 0.2442207 -0.11350032
0.15809157 -0.0270437 -0.09991632 -0.09014275 -0.038689416 -0.01885407 0.0527225 -0.13982375
-0.11741954 0.042371687 -0.056026194 0.034219045 0.008498464 -0.07442253 0.016586786 -0.14754982
0.046273053 0.16733843 0.09322028 0.005314935 0.19608851 -0.063515 -0.11242093 -0.022925634
0.15130961 -0.13654476 0.15055025 0.097706266 0.13163163 0.020493176 0.04494734 0.20313933
-0.111877434 0.09384366 -0.12119483 0.02189222 0.025250113 0.1347804 0.23531108 -0.043753047
0.12072672 0.17158557 -0.13123924 -0.03797725 0.19264756 0.09025227 0.01805502 0.11592596
-0.051737 -0.032574493 0.11504963 0.16237123 -0.061544813 -0.06835554 0.033954106 0.008228893
0.16698636 0.01851397 0.11725878 0.051581323 -0.12426167 0.04793619 0.09368367 -0.17175028
0.010355649 0.14293233 0.09076838 -0.07590282 0.13706231 0.16660133 -0.0410695 0.019936094
-0.08514643 -0.07503096 0.042867195 0.04631417 -0.162314 -0.045944512 0.091988176 0.06055913
0.06638135 -0.15049048 -0.039108984 0.06828031 0.05729162 -0.010221407 -0.028668283 0.11426037
0.011146938 0.10535226 -0.19003871 -0.130935 -0.08885515 0.15994763 -0.115249366 0.24709888
-0.02738923 -0.06399648 0.085418805 0.17007163 0.12529995 0.19464171 -0.11361644 -0.09511318
0.06194542 0.18897639 -0.0038234561 -0.048951536 -0.049590066 0.033620264 0.050061475 -0.03452644
-0.044305302 -0.1141331 -0.099085964 0.17896661 0.2388501 -0.013539293 -0.02261468 -0.2364249
0.16455771 -0.011965851 -0.056423273 -0.043242905 -0.010743946 -0.0030851862 0.037189227 -0.06580929
-0.28053784 -0.011830437 -0.23839165 0.052270167 -0.14617822 -0.09995409 -0.069159545 0.08826032
0.104277216 -0.05099683 -0.0015477941 -0.07171542 0.029963356 -0.21831076 -0.08860923 0.07968852
-0.27542752 -0.22569475 0.066157684 -0.053876877 0.12581465 0.16654773 0.26596227 -0.026184324
0.009458505 -0.12650324 -0.12480777 0.05330289 0.11359639 0.20209363 0.08803632 -0.18288316
0.23076361 -0.14977352 -0.1516212 -0.2423854 0.033029906 0.20980376 0.26515234 -0.12202896
0.15078259 0.008982187 0.025324252 0.07692593 -0.09172731 0.057807896 0.11319115 -0.14233601
-0.061015256 0.05987418 0.21942286 -0.10524733 0.013623651 0.16190764 -0.1395804 0.17341818
-0.1144401 -0.011550635 0.02840717 0.20465335 0.011358924 -0.14072889 0.06832805 -0.0033567378

bias f4 [64]
00000000: 6f25 37bd 1191 b3bd d510 c4bd e73c 0f3e
00000010: 5e73 483c d45d 493d 7024 d93d 55f0 98bd
00000020: 3eae cb3d 1b2b 1ebd abbb 85bd 8bbb 853c
00000030: e840 0c3e 5023 c4bd 9cc6 1eba 0323 96bd
00000040: 5acf 203e 2eab f93d fe5f 803d 23b1 5dbb
00000050: 6397 2b3c b79e aa3d 422a a93d 9e9c ea3b
00000060: 3876 173c d121 6ebd e853 b1bd 7723 a9ba
00000070: 7b01 d1bd b2ed f63c 2550 a03d 5517 4fbd
00000080: bc49 36bd 1f17 96bc b748 44bd ba25 d83b
00000090: 5d8d fd3d 885f d8bb 1640 4abd 5796 b1bd
000000a0: 213f 7dbb 4a29 12be 7d8a 023e ebea a93d
000000b0: ceac 14be 20aa abbd c711 b1bd a14a 323d
000000c0: 60c7 0e3e d1b7 6abd 9f6b 2e3d d9dc 503d
000000d0: a1f5 66bd a66c 17bc 84a8 fabb 29d3 33be
000000e0: bf20 103e 8f7e 2f3d a4de f53d 487e c2bd
000000f0: 62f2 39bd cf1f 98bd c953 22be ce9c ab3d
-0.044713434 -0.087679036 -0.09573523 0.13988076 0.012234537 0.049161747 0.10602653 -0.07467715
0.099453434 -0.038615327 -0.065299354 0.016324779 0.13696635 -0.09577048 -0.0006056817 -0.07330897
0.15704098 0.12190853 0.06268309 -0.0033827506 0.010473105 0.08331054 0.08260013 0.0071597835
0.009244494 -0.05813772 -0.08658582 -0.0012904246 -0.102053605 0.030142639 0.07827786 -0.05055936
-0.044503912 -0.018321572 -0.04792091 0.006596294 0.123804785 -0.006603185 -0.049377523 -0.08671253
-0.0038642364 -0.14273563 0.12748142 0.0829676 -0.14519045 -0.08382058 -0.08645969 0.043528203
0.13943243 -0.057304207 0.042583104 0.050991867 -0.056386594 -0.009242212 -0.007649483 -0.1756102
0.14074992 0.042845305 0.12005356 -0.094967425 -0.04539717 -0.07427942 -0.15852274 0.083795175

weight_ih_l0 f4 [256, 64]
00000000: deed 31be 6e55 0c3f 308d 2ebe 95c1 dcbb
00000010: d752 18be ce8c 7abd 95bc 73bc 0fc9 1d3d
00000020: 9fb3 053d 8e8a 833d dbf7 c9bc c84c 32bd
00000030: 4e8a b53d 98f4 0fbe 4814 37be eabf 923d
00000040: cdb2 1fbd 11f9 393d c2f2 c73d 9810 cdbe
00000050: 384a 153e 055f 83bd 81c7 343e 9a79 223b
00000060: 057a bd3d 1a21 a53e c947 273e 13e7 74bc
00000070: 3197 bf3e b43f 183e a77e 573d 2c43 08be
00000080: fc33 c93b ecc9 7b3d 710f f83c d25b 63bd
00000090: 3c9d 2b3c 5c55 4cbe b61f 39be da97 8b3c
000000a0: e6bc 643d 3398 77be 93ec 713c 4516 3bbe
000000b0: 1a89 893d af40 65bd 0e84 c4bc a7dd 143e
000000c0: fd89 763d 2ba2 453e d3bd ec3d 81bb a5bd
000000d0: 9162 933e cf16 0cbf c7e9 a9bd 69c7 733d
000000e0: fbf7 f83e 7cc5 9a3e 67f2 403e ebbb 1f3e
000000f0: ac8b ad3e 1f32 e8be b5c6 dbbd a588 b33e
00000100: ef74 71be 98eb 233e 092b 66be cd90 643f
00000110: 6454 393e 411b 3a3e 620b 75bc 43d8 083d
00000120: d98a 2e3d 94e2 53be 4661 723d 0e3c b53d
00000130: ff9a 79bb 3f48 e33d 68e8 4f3c 5924 f73c
00000140: 6b7c 903d ef19 12bd 9b5e 73be e6c3 a2bd
00000150: 4698 0b3e 53c2 8c3e ec6b a23e 6b81 d03d
00000160: 696d 89bd 2e3b be3d 76f1 063d e2d9 763d
00000170: bd00 123d 8d1f 3dbe 7988 8d3e 4030 f8bd
00000180: 669a 94be 59ae 6e3d 57c7 1bbd addf 063e
00000190: c0b1 c13c a5eb fcbc 819a 2cbd c175 493d
000001a0: b9f5 303e c06b b73c cbc9 f33d c5e7 55be
000001b0: c72b 093e a7a9 673d 2fae 9ebe 0d5b 3a3d
000001c0: aed0 7c3e 916b 7dbd abaa ef3c 6a75 ad3d
000001d0: b599 85be 9a15 f8bd 1e39 f7bb a3c5 c73c
000001e0: ae46 993e 5e93 bbbe 201a 29bd 2e03 123e
000001f0: 3e73 7dbe cbe7 54be 1f6b 7fbd b22c de3d
00000200: 0b16 c0bd 0c01 babe 242b 233f b458 2cbd
00000210: 7807 74bd ef8d 7c3e 545b e73c 0a81 7c3b
00000220: 044c 1dbe 9355 f23c 388a 633d e0a9 743e
00000230: 2ee6 a33e e63b 483f 2fda ce3d e1ac 25be
00000240: 2033 523c 81f9 02bd 951a 7f3e 6c5d 103e
00000250: 019b 8d3e 41cd 383e a58b 13be bcd1 fb3d
00000260: b9fd 643e c9b2 af3e eac1 39be bb93 8abe
00000270: 2d0d 263f e10a b2bd 8b22 733e 59e2 09bd
00000280: df0e c63d d4cd 0c3f 025d 8c3d 9f75 b0bc
00000290: 61b1 393e 36ea 03be 260b 343e ba82 1ebd
000002a0: 3cbc 953e fa5a 8dbe b00b f0be 37e6 3dbe
000002b0: 0640 7cbd 65b3 203d 7be8 45be 3aa2 2fbd
000002c0: 652a 5a3e 5a2f 883d 9e9a 7cbd 754d 3dbd
000002d0: 0b98 b9bd b1f0 e9bb afe2 7e3e 4de4 e23e
000002e0: d17a 83be b307 4c3f 347d 8f3d 0d50 cdbd
000002f0: d7a0 8fbb 6220 4bbe 75dd c4be 0256 d5be
00000300: c1d9 133d 43e9 223d 4080 453e 05a2 bf3e
00000310: e902 383e 592c acbd 755b 503e cc18 883e
00000320: dc2d 14bc f646 c1bc 1d0d 6e3e 9739 023e
00000330: 417c 1b3e 9dbd 2f3d c167 1abe eea1 993d
00000340: 521c 833e 8af7 8d3e b2cb 103f de23 febd
00000350: 58bc a63d 2964 163d bf14 7fbc 1d72 8b3d
00000360: ddf3 af3d e074 4cbd 0502 1cbe f0c8 b0bd
00000370: f98b 56be 23d6 453d b6c8 43bc 3543 093e
00000380: 1def 42be a75e 123c 9723 3bbd f258 7dbd
00000390: ae5d 4fbd 65cd a13c b3f6 093e 6576 da3d
000003a0: fafc 003e f575 f63e f5c3 86bd 31ce 4abd
000003b0: 2eeb ff3c 1794 2b3c cae0 13bc bc97 17be
000003c0: 1a8f 5239 ff74 983c fd6b 3f3e aec4 8ebd
000003d0: 4c77 2cbe 4231 77be 326b 993d 0e5a 3e3d
000003e0: 5e0f 82be 79aa 05bb 95eb 393e b18b b6bd
000003f0: 5b72 733e 56cd cabd e467 6cbd 6c3c 7d3d
-0.17375895 0.54817855 -0.17046046 -0.006736944 -0.14875351 -0.061169438 -0.014876504 0.038521823
0.032642003 0.064229116 -0.02465432 -0.043530256 0.0886427 -0.14058149 -0.1787883 0.07165511
-0.038988877 0.045403544 0.09763099 -0.40051723 0.14579093 -0.06414608 0.1765423 0.0024791718
0.09251789 0.32251817 0.16335978 -0.0149476705 0.37420037 0.14868051 0.05261102 -0.13306874
0.00614023 0.061471865 0.0302808 -0.05550749 0.010474499 -0.19954437 -0.18078503 0.017040182
0.05584421 -0.24179153 0.014765876 -0.18270214 0.06715603 -0.05596989 -0.02398875 0.14537679
0.06019019 0.19300143 0.115596436 -0.08092404 0.28786138 -0.54722303 -0.082965426 0.059516344
0.48626694 0.30228794 0.18842469 0.15599029 0.33895624 -0.4535074 -0.1073126 0.3506519
-0.23579763 0.1600784 -0.22477354 0.8928345 0.18098599 0.18174459 -0.014956327 0.03340937
0.042612884 -0.20691901 0.0591748 0.08849345 -0.003808677 0.11097764 0.012689687 0.0301687
0.07054981 -0.035669263 -0.23766558 -0.07947521 0.13632306 0.27492008 0.31722963 0.101809345
-0.067103215 0.092886314 0.03294512 0.060266383 0.035645235 -0.18469067 0.27643183 -0.12118578
-0.29024047 0.05827174 -0.038031902 0.13171263 0.023644328 -0.030874083 -0.042139534 0.049184565
0.17281236 0.022390246 0.11903723 -0.20889194 0.13395606 0.056558277 -0.30992267 0.04549699
0.2468898 -0.06187016 0.029256186 0.084696606 -0.26093832 -0.12113495 -0.0075446507 0.024386233
0.29936737 -0.3663587 -0.04128468 0.14259025 -0.24750993 -0.20791547 -0.062358018 0.10848369
-0.09379204 -0.36328924 0.637377 -0.04207678 -0.059577435 0.24663518 0.02824179 0.0038529062
-0.15361029 0.02958182 0.055551738 0.23892927 0.3201155 0.782164 0.10100209 -0.1617923
0.012829572 -0.031976227 0.24912484 0.14098138 0.2765732 0.18047048 -0.14408739 0.12295863
0.22362413 0.3431609 -0.18140379 -0.27065834 0.64863855 -0.08693481 0.23743646 -0.033663128
0.09670805 0.5500157 0.06853677 -0.021540461 0.18134071 -0.12882313 0.17582378 -0.03869889
0.29245174 -0.27608472 -0.46883917 -0.18544851 -0.061584495 0.039233584 -0.19326966 -0.04287932
0.21305235 0.066496566 -0.061670892 -0.046216447 -0.09062203 -0.0071392884 0.2489116 0.44314805
-0.2567964 0.7969925 0.070063025 -0.10025034 -0.0043831873 -0.19836572 -0.38450208 -0.4166718
0.03609634 0.039773237 0.19287205 0.374283 0.1796986 -0.08406896 0.20347388 0.2658142
-0.009044137 -0.023593407 0.2324719 0.12717281 0.15184118 0.04290544 -0.15078641 0.07501589
0.25607544 0.2772792 0.56560814 -0.12409185 0.081413925 0.036716614 -0.015568911 0.06808875
0.08591435 -0.04991615 -0.15235145 -0.08632076 -0.20951833 0.04829992 -0.011949709 0.13404544
-0.19036527 0.0089337 -0.045688238 -0.061852403 -0.05062645 0.01975126 0.13473015 0.10667113
0.12596503 0.4813687 -0.065803446 -0.049513046 0.031240072 0.010472319 -0.009025762 -0.14803976
0.0002008047 0.018610476 0.18693538 -0.069711074 -0.16842383 -0.24139884 0.07491149 0.0464726
-0.2540235 -0.00203958 0.18156274 -0.08913363 0.23774092 -0.09902446 -0.057716265 0.0618252

weight_hh_l0 f4 [256, 64]
00000000: 018f af3e 7750 9cbe dc6d 85be 3a9f 0b3e
00000010: 78ca c13e 2c99 973d 674a 85be 9a37 60bd
00000020: 707b 4fbf d14e 98bd 22f3 ffbd be5d 8cbe
00000030: 8fda a43e bdbf eb3e 7b4e 183d e25b 643e
00000040: c37a 44be a5ba 42bc f0ca 39be 9a84 cf3e
00000050: 12a0 1d3a c356 d6bd 324c abbe cf70 b03e
00000060: 0e49 02be d74a e8bd 95c0 bf3e 40ea c93e
00000070: f82f ed3e 871a 36be fae4 ab3c cf8a a5be
00000080: 82f0 773d ea72 f33e 9126 3dbe 6abd 93be
00000090: ce1a 9c3e 217b 2c3e 94bc 49be 693a 323c
000000a0: bda3 ae3b 69d7 76be c41d 073e 160f b23e
000000b0: e836 9dbd 44e3 883d 877a fa3d e4e7 f33e
000000c0: 3174 e6bd 76a6 b53d 8878 cdbd 24d3 80be
000000d0: 7769 16bf 688c f4be 7f37 dcbc 45dd 133e
000000e0: 6389 5abe 4c89 d0be 7e66 ccbe ac83 8a3e
000000f0: e32b cc3d 3a13 eabd 4e12 93be cd20 8c3e
00000100: f54c 50be b1ce 453e ec5a f3bd c79a adbd
00000110: 8b14 483e 8dad d1bd 78be 923e 660d a9bb
00000120: ee27 02bf 83a2 1ebf eeff 75be 2253 d0be
00000130: d141 8a3e 2b78 c23e d55a 09be 233b 223d
00000140: f0b7 03bc 2c2d dbbd de36 d73e 19a9 14be
00000150: 1ea2 cdbe 83bf 923e 8507 3dbc ba5f 233e
00000160: 6322 bf3e 2186 0cbb 729a 223e 5554 edbd
00000170: 7f03 0dbe c96b 603c eb25 89be 203a 073e
00000180: cc41 bf3e 5fa0 273f 9174 0b3e bf99 533e
00000190: a749 5cbe 400c 63bd 6adc 863d 5ee4 963e
000001a0: 7092 e53e f84c 563f 18f4 86bc fbf8 9f3e
000001b0: 2c07 7f3e f887 cb3c 8925 aabe 4d90 363e
000001c0: 5f39 4f3d 6572 8bbd 729a 8ebe 7461 df3e
000001d0: 0134 ca3b d448 6bbe ef46 bc3c a0df 5b3e
000001e0: 4454 8abe fc64 27be f776 823c dc15 2dbe
000001f0: 695f b7bd 5224 d93e c256 ee3d cf94 5c3a
00000200: dfb3 88bf f9ff f93d 2f19 3b3e f5d9 8c3e
00000210: 32e2 26be a223 993d b373 ef3d 0a37 473d
00000220: 8596 903f 9249 633c f77b f1bd ff06 70bb
00000230: a163 afbe 3013 94bf f9bd 9bbd 0c5d b1bd
00000240: 8106 ddbd 3296 8bbe 9e73 20be ffdf ee3e
00000250: f197 a23e aae7 2d3e 711c 19be 1514 813d
00000260: 151c 1e3f a72c c03e 20d1 323f e375 813e
00000270: 0067 d0be 6569 313e cf52 49be 3a11 3d3f
00000280: 7553 af3e 628d 773e 0bf7 0e3f 2961 86bf
00000290: 60da 3ebe 6176 eb3d 50e9 023e aa19 073d
000002a0: 1569 a53d adcf 093e 9de0 563f e7a2 e4be
000002b0: 6cac 863e 93ff 63bd 5807 df3d 8f37 23bf
000002c0: d75a d33d c213 2bbf b83a 14be 7e19 d13e
000002d0: 9580 1fbd 5538 b43e f258 753e 97e9 dfbd
000002e0: 42c6 3ebe 4e51 2e3d 0b36 a03d 8550 25be
000002f0: ba2f f03c bc50 a7bd 9332 8d3d 7a2c d1be
00000300: f10a 4a3e c8b4 c6bd b1f0 a03c d2ba 70bb
00000310: a413 b6be a0d5 b23d 13b5 2f3d 2082 d73d
00000320: 66e5 bdbd 4c1a 8a3e 806e fcbd 37cf 96be
00000330: c83a 6dbe e9af 863e da46 c23d eea7 493e
00000340: ab46 f7bd dbd5 65be 3325 333e 6331 10be
00000350: f855 5abd 6e65 bcbd 4234 2e3d 3f45 3e3b
00000360: 6143 303e c8aa c03e f730 b1be eca1 6cbd
00000370: 556c b13d bea4 c23d 3d94 a13e 9df8 2f3e
00000380: d156 e63e ae7d ac3e b9cb 5b3e 27c2 0a3c
00000390: 8c8a 963d fdda 95bc 23b1 68be 6eba 3fbe
000003a0: f773 0bbe 7590 f93d 25b8 bd3b 0c97 88be
000003b0: e666 723e a060 f4bd 0db7 443e c67d 0abd
000003c0: c901 46bd c6d5 46bc ed82 39be e46c 733e
000003d0: 1bc1 913c 8265 a8bb 4e39 9fbd caa6 923d
000003e0: 1fe1 9abd 1415 90bd d22e c53e cbaf a73d
000003f0: 971b d53d 522e 0dbe cc00 38be 17dd 1b3e
0.3428879 -0.3053014 -0.2606038 0.13634959 0.37849784 0.07402262 -0.26033327 -0.054740526
-0.81047726 -0.07436908 -0.12497546 -0.2741527 0.32197997 0.46044722 0.03718422 0.22300676
-0.19187455 -0.01188532 -0.18143821 0.40530854 0.0006012927 -0.10465767 -0.3345657 0.34461066
-0.1272318 -0.113423996 0.37451616 0.3943653 0.4632566 -0.17783557 0.020983208 -0.32332465
0.0605321 0.4754861 -0.18471743 -0.2885545 0.304892 0.16843845 -0.19700843 0.010878184
0.0053295777 -0.2410561 0.13194948 0.34777135 -0.07676488 0.066839725 0.122304015 0.47637856
-0.112526305 0.088696405 -0.10032755 -0.25161088 -0.58754677 -0.4776337 -0.026881931 0.14439876
-0.21341471 -0.4072975 -0.39921945 0.27053583 0.09969308 -0.114294484 -0.28724903 0.27368775
-0.20341857 0.19317128 -0.11882576 -0.08476787 0.19539087 -0.1023818 0.2866094 -0.005159068
-0.5084218 -0.61966723 -0.2402341 -0.40688425 0.2700334 0.37982306 -0.13413556 0.03960718
-0.00803946 -0.10701975 0.42034048 -0.1451763 -0.40162748 0.28661737 -0.011537437 0.15954486
0.37330922 -0.0021442252 0.15879229 -0.11588351 -0.13770865 0.013697573 -0.26786742 0.13205767
0.37354887 0.6547908 0.13618685 0.20664118 -0.21512471 -0.055431604 0.065850094 0.29471105
0.44838285 0.83711195 -0.016473815 0.31244645 0.2490508 0.024845108 -0.33231762 0.17828484
0.050591823 -0.068089284 -0.27852207 0.43629038 0.00617075 -0.22977 0.022983043 0.21472025
-0.27017415 -0.16347116 0.015925867 -0.1690287 -0.08953745 0.42410523 0.116376415 0.0008414508
-1.0679892 0.12207026 0.18271326 0.27510038 -0.16297224 0.074774995 0.1169199 0.048636474
1.1295935 0.013872521 -0.117912225 -0.0036625264 -0.34255698 -1.1568356 -0.07604594 -0.086603254
-0.10792256 -0.27263027 -0.15669104 0.4665527 0.31756547 0.16982904 -0.14952256 0.063026585
0.617616 0.37534067 0.6985035 0.25285253 -0.40703583 0.17325361 -0.19660495 0.7385441
0.3424336 0.24175027 0.5584571 -1.0498401 -0.18637991 0.11497188 0.12784314 0.03298346
0.080766834 0.13458128 0.8393648 -0.44655535 0.26303422 -0.055663656 0.108900726 -0.6375665
0.10320061 -0.66827023 -0.14475524 0.40839761 -0.038940985 0.35199228 0.23959711 -0.109332256
-0.18630317 0.042558007 0.07822808 -0.16143997 0.029319633 -0.08169696 0.06894412 -0.40854245
0.19730736 -0.0970245 0.01964602 -0.0036732447 -0.3556186 0.08732152 0.042897295 0.10522866
-0.0927227 0.26973188 -0.12325764 -0.29454967 -0.23166955 0.26306084 0.0948617 0.19692966
-0.12074026 -0.2244486 0.17494659 -0.1408134 -0.053304642 -0.09199034 0.042530306 0.0029032973
0.17213203 0.37630296 -0.3460767 -0.05777161 0.08663241 0.09504078 0.3155841 0.17184682
0.4498811 0.33689636 0.21464433 0.008469141 0.073506445 -0.018292898 -0.22723822 -0.18723461
-0.13618456 0.12185756 0.005789774 -0.2667774 0.23672065 -0.11932492 0.19210453 -0.033811353
-0.048341546 -0.0121359285 -0.1811635 0.23772007 0.017792275 -0.005139054 -0.07774602 0.07160719
-0.0756247 -0.0703527 0.38512284 0.08187827 0.10405653 -0.13787201 -0.17969054 0.15221058

bias_ih_l0 f4 [256]
00000000: 9c00 fdbd 341f ea3d 26e7 74bd f6c9 2a3e
00000010: 8658 f3b9 7cf4 1fbd 6542 e9bd 8711 07bc
00000020: 18a7 c83b af0f dcbd 1bf0 bcbd 24c8 753c
00000030: b54b 12be 16c2 c63d 0e95 b53d 6b53 b13e
00000040: 4428 503c c15d 4abd e959 84bd 0130 91bb
00000050: b385 ef3d e21d 783e 89d3 15be 5e95 45bd
00000060: 0073 1fbd 9702 04bd 7669 9fbe da2c 253e
00000070: cafc 5cbc 885e 24be d583 e7bd 7a83 30be
00000080: 85a3 973d d24a 4bbe 06a7 e8bd 367e efbc
00000090: e2da fd3d a146 053d 5c46 af3e da57 96bc
000000a0: de88 0a3e f483 cf3d 9acf 22bd e08e a5bd
000000b0: c1d1 353d 4b58 aabc 92da 823d 61c8 a13d
000000c0: a3d4 0abe 04b5 d23b ba5b 393d 022c 983c
000000d0: bad9 813d 8e34 ccbd 6887 babc 2295 3a3c
000000e0: e1e4 dd3d 3d6d 943c 8c39 49bc 8c10 713d
000000f0: 3247 dcbb c722 0a3e b552 323e 5487 453d
00000100: 4a6c a03b 4827 423e afc4 233e 35e1 1f3d
00000110: 9e3d 16be 22ee ee3d fa63 7d3d a798 8ebc
00000120: 6a83 ca3d 1151 8cbd 7089 393d d9dd c33c
00000130: b4eb ba3c 7e33 063e a6a9 893d 3433 acbd
00000140: bc12 b7bd 9621 d53b c1ad d43d c183 0fbd
00000150: 7c2e b73c c241 283d 528e d0bd 4cb1 6c3c
00000160: b0e0 58bd 2798 143e fcfb ee3a e699 38bd
00000170: 016a 253e 6f4a ef3a 4c2d 73bd c228 37be
00000180: 21c1 963d 9e94 fc3b 3cfe adbb 7a6f 1e3e
00000190: 0e74 6b3d 1ea7 d0bd 9835 d43c 873e 72bd
000001a0: b50d 623c 91c5 ecbd 5033 9c3c c1af 14be
000001b0: 47fe 083e a7d4 94bb 238d cd3d aa7d 133e
000001c0: e665 ec3d 9435 9c3d ee5f 4d3d 2bb6 ad3d
000001d0: fba7 ea3d 3ec9 92bc 89df 2ebc 8723 f9bc
000001e0: f6a2 c43d 0b57 92bc 667a 9d3c 31ef cd3d
000001f0: a251 2ebe affd d2bd 9e69 fcbc 17e3 7f3a
00000200: af9d 06bc 69b1 d93d c5c1 f1bb c819 63be
00000210: d9a9 b13d b89a 47be 954c 27bd 121a 85bd
00000220: 5343 2a3c ae3e d73d 8e16 7abc 886d 223e
00000230: 2661 0fbd e7ac 243d ac0e 12be 46f6 3f3d
00000240: 15bf 033e 925a 30bc 8e87 013e 1c31 72be
00000250: c703 42be b50f 13be ca16 c7bd 9102 5ebe
00000260: 3310 cd3d d30d 2e3d 7a54 09bd 22db 45be
00000270: e906 003d bd86 cf3d 28f8 e73d e401 93bd
00000280: 5d63 99bd 02bc 933c 55e7 a8bd 1bb5 95bd
00000290: 1f61 2bbe 9b08 ecbd 1c96 eb3d 1cd9 f4bd
000002a0: 1aef c93c 1bce f8bd 9dba 83bd e186 a13d
000002b0: ae5f 233e c49c 19be 2b54 0e3e f107 1d3c
000002c0: ec79 6f3d 3b44 843c 63ae b13d 5e98 18be
000002d0: e9d4 f03d ac7e f6bc 997f bebb a8a2 8dbd
000002e0: fbdc 6d3e 19c3 04bc f3aa 943e c445 40bc
000002f0: 1b1e 063e 800a 14bd 2667 623e 19fb 28be
00000300: 3a68 43bd 8c14 7bbd 0012 873d 9afa 133e
00000310: 3bf3 8bbd 51e1 093e 0ffc b5bb b1db 883d
00000320: b621 f2bd c771 fb3b d54f 16be a133 153e
00000330: 5b96 b4bd 9aa4 083e a0e5 cf3b e92c 973d
00000340: bf71 153e cc37 163e 79fc a0bd 545c 79bc
00000350: 3126 8a3b 6498 e53d 8df0 ebbd 0e19 f33d
00000360: 1a44 e2bd 0871 a6bd 6712 06bd 8be8 d33d
00000370: bdce 0f3e 7f2f 42bd c5b2 89bd 29a0 973d
00000380: 4b2e 92bd 96fe 913c 25b6 f6bd 818b 0abe
00000390: b6a3 0e3d dd61 103e ab1c 853d 68dd 7f3c
000003a0: 3e49 953d dc31 6abc 9878 15be aa0d 4abd
000003b0: 048a 1f3d 4337 253e 0fa7 afbc ec60 9539
000003c0: e85a ce3c 0c33 813d 428b df3d 0c03 cebd
000003d0: 121c 313e 2c56 1abd 9817 773e 1a0e d3bc
000003e0: d9b0 413d ceea 183c 1596 543e 135c 50bc
000003f0: fb2c cc3c a453 113d f7e1 b43d fdaa a73d
-0.12353632 0.11431733 -0.059790753 0.16678604 -0.00046414527 -0.039051518 -0.11389617 -0.008243925
0.0061234348 -0.10745179 -0.09225484 0.0150013305 -0.14286692 0.09704988 0.088663206 0.34633955
0.012704913 -0.049405817 -0.064624615 -0.0044307713 0.11695423 0.2423015 -0.14631476 -0.04823815
-0.038928032 -0.032229032 -0.31135148 0.16130391 -0.013488004 -0.16051686 -0.11304442 -0.17237654
0.07404236 -0.1985276 -0.11359982 -0.029234987 0.12395264 0.03253806 0.34233367 -0.018352438
0.13528773 0.1013259 -0.039748766 -0.08083892 0.04438949 -0.020794054 0.06389345 0.07899547
-0.13557677 0.00643027 0.045253493 0.018575672 0.06340356 -0.099709615 -0.022769645 0.011388095
0.10834671 0.018118495 -0.012281787 0.05885367 -0.0067223543 0.13489829 0.17414363 0.048224762
0.0048957216 0.18960297 0.15992998 0.039033134 -0.14671943 0.11666514 0.061862923 -0.017406775
0.098883465 -0.068514 0.045297086 0.023909496 0.02281747 0.1310558 0.06721811 -0.08408204
-0.0893912 0.006504248 0.103847034 -0.03503776 0.022361033 0.041078337 -0.101833954 0.014446568
-0.052948654 0.14511167 0.0018233056 -0.045068644 0.16153719 0.0018256436 -0.05936937 -0.17886642
0.07361055 0.0077081462 -0.005309848 0.15472212 0.057483725 -0.10188125 0.025904462 -0.059141662
0.013797213 -0.1156112 0.019067436 -0.1452017 0.13378249 -0.0045419517 0.10036685 0.14403406
0.11542873 0.07627407 0.050140314 0.084820114 0.11457821 -0.017918225 -0.010673412 -0.030412449
0.09601395 -0.017863771 0.019223403 0.10055388 -0.17023328 -0.103022926 -0.030812081 0.0009761317
-0.008216306 0.106295414 -0.0073778355 -0.22177804 0.08674974 -0.19492614 -0.04084452 -0.06499113
0.010392028 0.10510002 -0.0152641665 0.15862095 -0.035004757 0.040203955 -0.1426341 0.046865724
0.12865861 -0.010763781 0.12649366 -0.23651546 -0.18946753 -0.1436146 -0.097211435 -0.21680667
0.100128554 0.042493653 -0.03352783 -0.19321874 0.03125659 0.10133121 0.11326629 -0.07178095
-0.07489655 0.018033985 -0.08247248 -0.07309934 -0.16736268 -0.11525079 0.115032405 -0.11955473
0.024650145 -0.121486865 -0.06432078 0.07887054 0.15954468 -0.15001208 0.13899295 0.009584413
0.058465883 0.016145816 0.0867584 -0.14901873 0.117593594 -0.030089699 -0.0058135507 -0.0691579
0.23228829 -0.0081031555 0.29036674 -0.011735383 0.13097422 -0.036142826 0.2210966 -0.16502036
-0.04770682 -0.061298892 0.0659523 0.14451066 -0.06833502 0.13464858 -0.0055537294 0.06682528
-0.11822836 0.0076734754 -0.14678891 0.14570476 -0.088177405 0.1334404 0.006344512 0.07381613
0.14594172 0.14669722 -0.07860655 -0.015219767 0.0042159786 0.11210707 -0.11520491 0.11870013
-0.110481456 -0.08127028 -0.032732394 0.103470884 0.14043708 -0.047408577 -0.06723551 0.07403595
-0.07137736 0.017821591 -0.1204646 -0.13529779 0.034824096 0.14099832 0.064996086 0.015616752
0.072893605 -0.014294114 -0.14596784 -0.049329437 0.03894998 0.16134362 -0.021441964 0.00028491707
0.025189832 0.063085645 0.10915233 -0.10059175 0.17295864 -0.037679836 0.24130094 -0.02576356
0.047287796 0.009333326 0.20760377 -0.012717265 0.024923792 0.035480157 0.08832162 0.0818691

bias_hh_l0 f4 [256]
00000000: 3bc9 16be 4c35 6dbc 4a8a 2a3e c5f9 933e
00000010: 1bb6 49be b812 cf3c e07e 52bc ae0c d63d
00000020: b032 38be fa3d bbbb 08bf 09bd a7e0 2d3d
00000030: 2388 5abe 589e 2cbd 5ed9 fb3b 782e 013e
00000040: 7b3f 3d3e 0a08 83bd 2bc5 a0bd 818b 1dbd
00000050: 0368 97bd bf64 b93d 238e c7bd 9308 98bd
00000060: 3c65 35bd 98a8 c2bd 9e1f 56be 1b98 183e
00000070: 142d 8a3c d0b8 55be 053d d2bc 03e8 2fbd
00000080: 1212 223c e8f0 f13b 8155 a93c 5d4e debb
00000090: f61b 0c3d e849 623d 3e3a ab3e aa49 7ebc
000000a0: 8767 353e 4085 283e 38cb 1fbd 8d7b 3dbe
000000b0: 3706 a0bd 7035 d6bd d70e 573e 9a97 633d
000000c0: 744d 3b3d 2c7c d13c aabb 173e 062d 6a3d
000000d0: 0905 d83c 885d ba3d fd19 de3d 5bf9 2d3c
000000e0: d617 33bd 1705 fc3d c7f5 643d ac44 dbbd
000000f0: 1908 e63d 9236 763d bd1a 1c3d 38b6 543d
00000100: ed82 2a3e 9034 29bd 69c3 063e 94a3 0ebe
00000110: ea59 2fbe 25aa 833d c366 0f3d f139 8d3d
00000120: 8446 c53d 218f fdbd 664d 87bd bd41 4ebd
00000130: 1f11 73bd a76e ce3d 7410 773e 7291 9ebc
00000140: 4cde ee3d 50d8 1abe a6a5 d73d a036 1ebc
00000150: 779b 2d3e 93c0 b5bc 7ae2 1fbe 1b49 1e3d
00000160: b06f 74bc 2330 7dbd a53c 00be 8da2 cf3d
00000170: b652 573e 387e 643d f1c2 143e 762b 15be
00000180: 8049 98bc 4e54 043e af02 a8bc 573d ff3d
00000190: 3899 123d 5541 6b3d 44dd aebc 0463 ab3d
000001a0: 7207 dfbc a12c 0fbd 818b 3ebc 462d 9ebc
000001b0: eeeb 2e3d 8c94 04bb fe19 debd 678e 493d
000001c0: a0e3 3d3e a9c8 c13d 5d78 b43d f88f 25bd
000001d0: 385c 233d 170b c7bd c659 55bd 31bf cf3d
000001e0: c46d 7d3d 4188 07bc d5c6 0cbd ff9d 053e
000001f0: cc1c 05bd 6313 743d c7d4 a23d 688c 273e
00000200: 0b79 c33c 6cfd d63d 5942 ccbd d8e6 7cbe
00000210: f925 f13d 9ccc e1bd f6b4 8f3d bd8a 713d
00000220: 462c 833c eb3d 21bd e51e 71bd 0d3a b53c
00000230: 7410 3fbe b14d 47be 25a8 abbd cde5 f23c
00000240: 7470 753d bcad 193e b26f 413e 9925 0dbe
00000250: 4cce 5bbe 2b00 e2bd 7979 253d 13c8 95be
00000260: 0d11 1abd cc5e aa3d d647 083e a2ac 08be
00000270: dfd2 a23d 93d3 9bbc 06db c63d 0edd 96bd
00000280: 6c63 343d 47be 8c3c e22c adbc b681 babd
00000290: 8d4d bfbd 0e34 e03c 7d7a 0c3d e860 da3c
000002a0: 09ed 053d d942 d0bc 1656 fc3c f0e6 c43c
000002b0: 8369 e53d 4c2b 053c 192c 103e e155 753d
000002c0: 27fe 1bbe 2071 d8bd ead6 78bd 06ba 26be
000002d0: 982c 113e 6fe6 4cbe 46cb b83d 2d92 05bd
000002e0: ffc9 563e cbd3 9cbc 32bd 5c3e 3256 3abd
000002f0: a3b7 0d3e a096 edbd 5a1c ab3d 0f96 dbbc
00000300: 877f e9bd 9f7d d93d 160a 6cbc f71e 3a3e
00000310: 245e 38bd 22d8 bebc 0313 e33d 546c b0bd
00000320: 8cdf dbbd a967 eebd 9ab5 ebbd d3d4 353e
00000330: 974e d63b 2e34 36bc 0ad2 783e abaa 7ebc
00000340: 4164 dd3d c7dc 963d a733 883b 3d91 77bd
00000350: a025 97bd 2211 233e ced4 1dbe c2e6 6dbd
00000360: a9c5 fcbd b552 d4bd abad 1ebe 102d fd3d
00000370: b891 243e 64f2 193e 2401 11be d042 e63d
00000380: 1d9c 173d 3e02 c0bd 9625 8a3d 6464 00be
00000390: a577 cc3d 41ae c93d 0abd 3c3e 464d 963d
000003a0: 723b f7bd 535b bf3c 51a4 42be a417 18be
000003b0: 1314 023e a046 2d3e 51a5 0b3e 04b2 e73d
000003c0: a51f 0a3e 8612 483e 0227 f23d bab0 fc3c
000003d0: fa2a 753d 86b7 15be c901 da3d 65fc 51bc
000003e0: 3fce 0c3e 41d2 803d 6453 543e 70b0 703d
000003f0: 53f2 39bd 5650 c0bd f55f 173e 1ce3 43bd
-0.14725201 -0.014478039 0.16654316 0.28901497 -0.19698374 0.02527748 -0.012847632 0.10451637
-0.17988086 -0.0057141753 -0.033629447 0.042450573 -0.21340995 -0.042143196 0.0076858243 0.12615383
0.18481247 -0.06398018 -0.07850107 -0.03846312 -0.073928855 0.09052419 -0.09743907 -0.074235104
-0.044285998 -0.09504813 -0.20910498 0.14901774 0.016867198 -0.20871282 -0.025663862 -0.042945873
0.009892004 0.0073834546 0.020670654 -0.006784244 0.034206353 0.055246264 0.33442873 -0.015520493
0.17715274 0.16457081 -0.039012164 -0.18504162 -0.078136854 -0.10459411 0.21001755 0.0555645
0.045728162 0.025571905 0.14817682 0.057171844 0.026369588 0.09099871 0.108448006 0.010618533
-0.043723904 0.12305658 0.055898454 -0.107064575 0.11232013 0.060110636 0.038111437 0.05193159
0.16651507 -0.041309893 0.1316048 -0.13929588 -0.17124143 0.06428937 0.03501011 0.06895817
0.096325904 -0.12380815 -0.066065595 -0.05035566 -0.0593425 0.10079699 0.2412737 -0.019356463
0.116634935 -0.15121579 0.10529642 -0.009656578 0.16953836 -0.022186553 -0.15613738 0.038643938
-0.0149192065 -0.061813485 -0.12523134 0.10138426 0.21027645 0.055784434 0.14527489 -0.1456736
-0.018589735 0.12922785 -0.020509092 0.124628715 0.035790652 0.057435352 -0.021345742 0.08368495
-0.02722523 -0.03495467 -0.01162994 -0.019308697 0.04270547 -0.0020230142 -0.10844801 0.04920807
0.18543863 0.09462101 0.0881202 -0.040420502 0.03988287 -0.09718912 -0.052087568 0.10143889
0.06187226 -0.008272232 -0.03436931 0.13048552 -0.032498166 0.0595888 0.0795074 0.16362154
0.023861429 0.10497555 -0.09973592 -0.24697435 0.11774821 -0.11025354 0.070169374 0.0589702
0.016012322 -0.03936569 -0.058867354 0.022122407 -0.1865862 -0.1946323 -0.083816804 0.029650593
0.059921697 0.1500768 0.18890265 -0.13783874 -0.21465415 -0.11035188 0.04039905 -0.29254207
-0.037613917 0.08318862 0.13308653 -0.13347104 0.07950377 -0.019021785 0.09709744 -0.073663816
0.04404013 0.017180575 -0.021139566 -0.09106772 -0.093409635 0.027368572 0.0342965 0.026657537
0.032696757 -0.0254225 0.030802768 0.0240359 0.112017654 0.008127999 0.14079322 0.059896354
-0.1523367 -0.10568452 -0.060751833 -0.162819 0.14177167 -0.20009778 0.09023146 -0.032610107
0.20975493 -0.01914396 0.21556547 -0.04549236 0.13839583 -0.11600995 0.08355017 -0.026804952
-0.11401277 0.106196634 -0.014406702 0.18175875 -0.045011654 -0.02329642 0.110876106 -0.08614412
-0.107359976 -0.11640865 -0.11509247 0.17756967 0.0065401304 -0.011120839 0.24298874 -0.01554362
0.108101375 0.07366329 0.004156548 -0.060441244 -0.07380223 0.15924504 -0.1541321 -0.058081396
-0.12342388 -0.103673376 -0.15495937 0.123621106 0.16071212 0.15033871 -0.14160591 0.11243212
0.037014116 -0.09375428 0.0674545 -0.12538296 0.09983758 0.098476894 0.18431488 0.073389575
-0.12071885 0.023358976 -0.19007994 -0.14852768 0.1270297 0.16921473 0.13637282 0.11313251
0.13488634 0.19538316 0.118238464 0.030845989 0.05985544 -0.1462079 0.10644872 -0.012816523
0.13750552 0.06290103 0.20734936 0.058762014 -0.045397114 -0.09390323 0.14782698 -0.04782401

weight f4 [60, 64]
00000000: 7832 dabd ea16 14bf 7ed4 d73d d150 3f3e
00000010: 8006 4a3d f497 183d 10a3 ec3d 1095 193e
00000020: a555 95be 9b39 22bd f121 90bd df71 9dbd
00000030: 85a1 06be 7890 843e 55dc 8cbd 3a26 8d3b
00000040: 0202 e93d 8ca7 10be f1e4 473f 535d 9ebe
00000050: 6eee 993e b4e0 b2bd c7cd 1bbe b329 e1bd
00000060: 4d90 833d 97e7 5abf 10e8 803f ec28 703e
00000070: eaaf 02bc 9a4d 5a3e 755e f2bd 9712 2bbf
00000080: 58c4 18be e88e efbd d724 7fbd 36e5 dfbe
00000090: 9e6e 513e 58a1 a43e 5466 c9bc 93ed 013e
000000a0: 790b 8dbc 81ca 9ebe c36c ecbe ede5 0bbe
000000b0: 1604 eb3c 54fa ffbe 863e 41be a716 043f
000000c0: a7da dc3c 0b56 10bf 7ef9 dabe a081 153e
000000d0: c472 7a3d 7f88 14be df53 463e 7368 aa3e
000000e0: b06b 1d3e 8f22 943e c2dd 8cbc 9dee 33bd
000000f0: d79b 563e 10cf 093f 97b4 78be a073 9bbc
00000100: 1dd3 1dbe f509 f4bc e5df 9b3e 87b4 973e
00000110: f315 8d3e b956 16be 149b 86bb c037 be3d
00000120: c27c a63d c03e 16be d95e 6bbd 8a95 4fbd
00000130: 0b83 9b3c e8fe b6bc a8d6 923d 1d2f 59bd
00000140: 31c8 ae3d eac5 b1bd 55b1 28be 9713 97bd
00000150: 7fd7 e03c 3d43 443d 4c05 643c 4aa5 323f
00000160: fcc8 b3bc 4265 c0bd 6101 993c f855 143e
00000170: beef 07be f8e7 b6bd 3991 16bc a40b 203d
00000180: 4e8a 4dbe 1455 193e 6431 62bd fa69 1cbe
00000190: b74f 7f3e 7a42 923c 4964 75bc 213b 233e
000001a0: 1b65 2a3d 5583 323c 20f4 e0be fcb2 4abd
000001b0: 5eab adbd c7ff 28be f557 e0bc e1fc 50bd
000001c0: 127b 233d 31dc 563e ca5a 88bd d860 b33d
000001d0: d68a 94be d7d8 ff3d c65b 103f 9231 113d
000001e0: d534 63be 3b80 f5bd ef80 4e3d f75f 423e
000001f0: bb55 45be 8991 003d c05a 5e3e 4fcd cebc
00000200: 1f5b 203e 02a6 b03e a824 b9bc 7ad7 f73c
00000210: bde2 2b3e 39a0 b53c bf63 753e b74c 19be
00000220: b3b7 0abf 5c7b 0bbf 72dd 053f 6147 0abe
00000230: 8d6a b13d 8e5c 8a3e cb3a c43d 63ab 88bd
00000240: 5738 6e3d 5ea6 5fbe 240f 2f3d 5f5d a53d
00000250: adf7 5fbe 9a36 163e c325 5bbd 61b5 4e3e
00000260: b096 8a3d c33d d7bc 73a6 693e a671 63be
00000270: bb51 1d3d 97ee 3c3e 0c76 063f a145 cf3d
00000280: d700 e0bc 12b0 01be def4 71bd d093 9d3e
00000290: 552e 04be 9f03 a2bd 2bdf 84bd 3385 e03e
000002a0: c322 e63d 024d c0bd 62d7 24be 2023 20bd
000002b0: d9fb fbbe e1cb e83e 1754 a0be 05fb 523e
000002c0: f333 11bc e2dd 8bbd 50b2 023e 3122 423d
000002d0: 6bea c63e 7b78 f6b8 6628 b6bc 339c 4abe
000002e0: 4c51 1b3c 53fa 1f3d 1c35 8ebc 3fc2 febd
000002f0: e077 c4be e0f3 e63e 77d3 b9bd 3245 903e
00000300: 4e70 473d 2177 d6bd 75ad bd3c 4471 9c3c
00000310: 1f44 863d 514a e13d 63a1 b9bd b8c7 0c3e
00000320: b202 713e c4dc d9bc b204 97bb 147d 643d
00000330: 9850 d4bd ea75 9dbc da1b d73d 8db1 a73c
00000340: be40 653c 92e5 e5bc abfb 8cbd 8aeb 2b3d
00000350: bc36 bebd b071 683d e94d 1abf 4cfd 52bc
00000360: 203b 573f c23f 2d3d 3d8c 0ebd d9d3 143e
00000370: 3e48 b0bd 6caf f6bd 551b ecbd 071a 633e
00000380: e18b 0b3f 4683 5e3f f4aa b13d 08c7 143c
00000390: 8d79 9c3e 5c74 a83d 360e 423d 82a9 74bd
000003a0: 5148 18bd 523e 123e 0ea7 403e c94a 973d
000003b0: 86fd ccbd 190c 173d 9015 92bd 1c58 6fbd
000003c0: 47dc b6bd 202f 363e 4b99 6dbe ce20 95be
000003d0: 6108 89be 4433 f73c 03c4 e73d 5288 583d
000003e0: de3e 12be fe88 053e 2c4c bcbb 58f0 e13c
000003f0: 5f9a acbe 4afc 01bd ccda 9fbc 6f6d 6e3d
-0.106541574 -0.57847464 0.105385765 0.18683173 0.049322605 0.03725429 0.11554539 0.14998269
-0.29166904 -0.039605718 -0.07037724 -0.07687735 -0.13147552 0.2589147 -0.068779625 0.0043075355
0.11377336 -0.14126414 0.7808371 -0.30930576 0.3006472 -0.08734265 -0.15215217 -0.109942816
0.064240076 -0.8550963 1.007082 0.2345311 -0.0079765115 0.21318665 -0.118344225 -0.6682524
-0.14918649 -0.11697179 -0.062290993 -0.43729562 0.20452353 0.32154346 -0.024584927 0.12688284
-0.017217385 -0.31013873 -0.4617673 -0.13661928 0.028688472 -0.49995673 -0.18871507 0.51597065
0.02695973 -0.5638129 -0.42768472 0.1460023 0.061144605 -0.14505194 0.19367932 0.33282813
0.15373111 0.28932616 -0.017195586 -0.04392873 0.20957886 0.5383158 -0.2428764 -0.018976033
-0.15412565 -0.029789904 0.30444255 0.2962992 0.27555808 -0.1468152 -0.004107842 0.09287977
0.081292644 -0.14672375 -0.0574635 -0.05067972 0.018983385 -0.022338346 0.07169849 -0.053023446
0.08534277 -0.08680327 -0.16473897 -0.07376783 0.027446507 0.047915686 0.0139172785 0.6978346
-0.021946423 -0.093943134 0.018677415 0.1448592 -0.13275048 -0.08930963 -0.009189897 0.0390736
-0.2007229 0.14973861 -0.055222884 -0.15274802 0.24932753 0.017853964 -0.014977523 0.15940525
0.041600328 0.01089557 -0.43936253 -0.0494871 -0.08479951 -0.16503821 -0.027385691 -0.051022414
0.03991229 0.20982434 -0.06657942 0.08758706 -0.29012173 0.12492531 0.56390035 0.035447665
-0.22188123 -0.11987349 0.05041593 0.1898192 -0.19270985 0.031388793 0.21714306 -0.025244383
0.1565976 0.34501654 -0.022600487 0.030254114 0.16785713 0.022171127 0.23963831 -0.1497067
-0.5418655 -0.54485106 0.52291024 -0.13503791 0.08662901 0.2702374 0.09581526 -0.066733144
0.0581592 -0.21840808 0.04273905 0.0807445 -0.21871825 0.14669266 -0.05350281 0.20186378
0.067670226 -0.026274567 0.22817402 -0.22211322 0.038408022 0.1845039 0.52523875 0.101207025
-0.02734415 -0.12664822 -0.059071414 0.30776834 -0.129083 -0.07910847 -0.064878784 0.43851623
0.11237099 -0.09389688 -0.16097787 -0.039095998 -0.49215582 0.45468047 -0.31314155 0.20603569
-0.008862483 -0.0682943 0.12763333 0.04739589 0.38850722 -0.00011752635 -0.02223606 -0.19786148
0.009479832 0.039057087 -0.017359309 -0.12439393 -0.38372707 0.45107937 -0.09073537 0.28177792
0.048691086 -0.10471941 0.023154 0.019096978 0.06555962 0.11000503 -0.09063985 0.13748062
0.23536184 -0.026594527 -0.004608714 0.055783346 -0.103669345 -0.019221265 0.10503359 0.020470405
0.0139924865 -0.02806357 -0.06883939 0.041972674 -0.092877835 0.056749046 -0.6027513 -0.0128777735
0.8407459 0.042297132 -0.03480171 0.14533938 -0.08607529 -0.12045178 -0.11528651 0.22177897
0.54510313 0.8691906 0.08675185 0.009080656 0.30561486 0.08225319 0.047376834 -0.059731968
-0.03717834 0.14281586 0.18813726 0.07387311 -0.10009293 0.03687677 -0.07133019 -0.058433637
-0.08928733 0.17791414 -0.23203008 -0.2912659 -0.26764205 0.030175813 0.11316683 0.05286438
-0.14281794 0.1304054 -0.005746385 0.027580425 -0.33711526 -0.031734742 -0.01951351 0.058209833

bias f4 [60]
00000000: 57de b3bc 5bc2 5abd 0379 293d e07b 94bc
00000010: 7482 acbd 2b87 a03d dd9c 6ebd 1d0c 55bd
00000020: 4260 8dbc ab76 fcbc 9690 babc 6ad3 13be
00000030: e4b1 a4bc ae38 d23d f16b f1bb 31fc 14bd
00000040: 6a1a b8bb 0609 203c 38f9 31bd 0ead 4dbc
00000050: 1db3 f1bc 8613 273e 6772 663d e1ab ddbd
00000060: 51ae 273d 94fb eb3e 8b8b 513d d81b 063d
00000070: 693a b23d 212a b03c 7d0e c53c ce92 d33c
00000080: 318d c13c f03e 4c3b fae4 58bb cc07 e43c
00000090: 6f59 bf3b 6a6e 183c e257 853b ec11 e1bc
000000a0: e9aa 2f3b 33a7 bfbe 2ec9 1dbd 4882 8c3b
000000b0: 507f 033d 94ee ba3b 5d70 d93c d39b 8fbe
000000c0: 2f48 2fbd 13d9 94ba 148e 04bc 1b6b 8bbc
000000d0: f40f 9cbe 7111 2bbe d5c1 773e 9515 d23e
000000e0: 1eca b63e 1d9b 9f3c e8dd ba3c 0d06 71bd
-0.021956606 -0.053408008 0.04137517 -0.018125474 -0.084233195 0.07838281 -0.058255065 -0.052013505
-0.017257813 -0.030818304 -0.022774022 -0.14436117 -0.020104356 0.10264717 -0.007367604 -0.03637332
-0.005618383 0.009767776 -0.043450564 -0.0125534665 -0.029504353 0.16316041 0.056261446 -0.10823799
0.040937725 0.46090376 0.05115847 0.032741398 0.08702547 0.021504464 0.02405476 0.025826838
0.023626896 0.0031165443 -0.0033095465 0.02783575 0.0058395187 0.0093036685 0.0040693143 -0.027474366
0.0026804751 -0.3743225 -0.038521938 0.0042879917 0.032103837 0.0057047103 0.026542837 -0.28048572
-0.04279345 -0.0011356197 -0.008090515 -0.017018845 -0.3048092 -0.16705872 0.24195035 0.4103209
0.35701078 0.019483143 0.022810891 -0.05884366
