data/example_dynamics_data/models/kitchen/MLP_q_only.pth (torch, 664463 bytes, 8 tensors)

weight f4 [256, 70]
00000000: 8dd0 063e 05b2 c63d 3016 fabd b929 043c
00000010: 3b7f a03d c34e debd 0f06 3cbb b357 883d
00000020: 646b c33d fbb3 dd3b 0a36 0abd 1b3f 143d
00000030: 866c f2bd 2709 9abc 7796 0f3e 3202 373d
00000040: f8b6 1bbe 4d51 d2be 3020 d6be 373c 0d3b
00000050: 7fb7 0d3d 41fb acbd ee6c 52bd f277 823c
00000060: d929 983d ad23 94bd 2cd5 2a3c 6eba 3abd
00000070: 6b2c 2fbe 15be 25bd 7782 af3c 7518 d9bb
00000080: 8875 edbd c243 bc3d 2f91 b73d 266c 52bd
00000090: 43e4 6d3d 64fd 503d e988 763c b115 c73d
000000a0: a644 a9bd 5a06 bfbd 0ceb db3d e25a 463d
000000b0: e2dd 50bd 4e48 613d ec89 d43d f0d5 ea3d
000000c0: 46be c5bd 01ed 1bbd 103a d83d d47f ee3d
000000d0: c888 d4bd 61c0 a9bd 4c26 01b9 e971 723d
000000e0: f49c 15bb 32b4 ca3c dbe6 22bd 5393 68bd
000000f0: 490a 40bd d470 8a38 2f5d 95bd 0f9d 05be
00000100: 1bec a3bd 0be5 8c3d 34b4 9fbd 3aad be3d
00000110: 4063 0fbd c44d 4a3d ca11 41bd d885 22bd
00000120: 0645 65bc 6fda 58bd 393f b03d e44f 053d
00000130: 2d6c 703d 1c60 8f3d 77b2 f33c 3e90 4dbd
00000140: a700 12be 0929 b8bd 9168 98bd 2c8a 7abc
00000150: 0042 033c 5f83 563c 73df 3fbd 02d6 893e
00000160: cc79 7e3e 5cd5 3e3d ef11 a03d ff57 f3bc
00000170: 593f 19bd f105 7cbd 68d5 37bd eee1 adbd
00000180: f482 d13c f7a9 793c 6624 4ebd 77a0 aabd
00000190: 86ef d23d b779 dd3d 6b62 b8bc de67 06bd
000001a0: d125 893d 5d6c ab3d b96f 8abb 2df9 28bc
000001b0: 7be6 903d 0afd 3e3d dd03 dc3d 1f69 e03d
000001c0: 6f3e bb3c 1884 38bd 6eaf af3d e142 c73d
000001d0: f899 88bd ad55 e1bd d23b 01bd 8743 87bd
000001e0: 6bb5 953d b79f 1f3d e15b d2bd e4d0 8b3d
000001f0: 23b7 75bd fc71 d93d 7d79 e5bd 2f0f 8ebd
00000200: 3192 27b9 e42d e73d a1f3 df3b 6775 943d
00000210: c59f d73d ed73 03be c933 0b3b c2b7 b3bd
00000220: a73b 063d 478a 9fbd 2ec0 383c a6cc 9f3d
00000230: 4eb5 163e 9955 f13d 7d1a f63c 3ba6 b1bd
00000240: bf82 9f3d 4346 4abd dcb4 e13d 7ad1 4a3d
00000250: 09dc c53c 6211 8f3c 50bf 6dbd 5680 81be
00000260: 2444 00bd 9edf b03d e57e f53d 2ab9 ab3d
00000270: 892d 043d 5ad8 c43e 45d8 c63e 3ee0 af3d
00000280: 245b 803d 7005 deb9 ffbc 7d3d 5fb0 9d3d
00000290: 2ea5 e6bd c585 be3d f6f9 2e3d f5ec 4c3d
000002a0: e301 dd3c e326 8dbd 99a4 ecbd 8711 a4bb
000002b0: cf33 ba3c fda8 b13c 8369 d5bd 6e71 373c
000002c0: 75b9 6ebd 0e1f ebbc f53a e33d 4a06 7bbd
000002d0: 16d5 acbd 055d 89bd d2dc 98bd ecf1 963d
000002e0: 161d 9f3d 7a82 cd3d 57bc 833d 2737 0d3d
000002f0: dc8c c9bc c5fc cdbb 843b edbd 2c75 57bc
00000300: 3958 a4bd d940 e53c 24d8 c6bb 92e5 32bc
00000310: 1822 f93d 8048 da3d 022c e53d f03d a03d
00000320: 394f 333c 779c 39bc e188 133d cd07 50bd
00000330: 6ffa 443b 56cf 763d 02b1 19be 2591 14bc
00000340: ee8b edbc 823f efbc b9ec cabd c475 b23d
00000350: 33f7 1b3e 58e0 123e 5406 d63c 8344 93bd
00000360: e488 abbd ce88 e3bc 2bb0 fe3d 501a b7bd
00000370: 2f1a bfbd d297 23bc 7311 8cbc c8c9 b1bd
00000380: 1a9b 93b9 bc66 953d 08bf 8abd fae7 da3d
00000390: fa91 283d 24c0 fdba 0fd6 e2bd 87b0 ffbd
000003a0: 1b1f 0bbe 53cf 8d3d eec9 81bd 5763 b43d
000003b0: 9ee5 b8bd c0a5 ec3b 063b f1bd 1558 e2bd
000003c0: 3204 da3d 11c3 1abd efe3 b33d e6ba df3d
000003d0: 80c7 b9bd ad51 eb3b 2e69 f4bd c194 a8bd
000003e0: b0ec 373d 1864 08bd 002b f4bd ccd5 cabc
000003f0: 1d5f 9a3c 6e7d 42bd 9dc2 97bd 5788 f4bb
0.13165493 0.09701923 -0.12211263 0.008066588 0.07836767 -0.10854866 -0.0028690135 0.06657352
0.095419675 0.00676584 -0.033742942 0.036192995 -0.118371055 -0.018803192 0.14022242 0.044679828
-0.15206516 -0.41077653 -0.41821432 0.0021550783 0.034598824 -0.084463604 -0.051373415 0.015926335
0.07429857 -0.07233367 0.010426801 -0.04558795 -0.17106788 -0.04046448 0.021424515 -0.00662523
-0.11594683 0.09192611 0.089632384 -0.05137267 0.058079015 0.051022902 0.01504729 0.09720934
-0.08265047 -0.09327383 0.10738191 0.048426516 -0.050992854 0.055000596 0.10377869 0.114665866
-0.096554324 -0.03806782 0.105579495 0.11645475 -0.103776515 -0.082886465 -0.00012316665 0.059190664
-0.0022829147 0.024744127 -0.039770942 -0.056781124 -0.04688481 6.601369e-05 -0.07293164 -0.13048194
-0.08004018 0.06879624 -0.07798043 0.09310384 -0.03500676 0.04939057 -0.047136106 -0.039678425
-0.013993507 -0.05294269 0.08605809 0.032546893 0.058696914 0.07000753 0.029748185 -0.05018639
-0.14258061 -0.08992202 -0.074418195 -0.015291732 0.008011341 0.013092845 -0.046843957 0.26921088
0.2485115 0.046590194 0.078159206 -0.029705046 -0.03741393 -0.061529104 -0.044881254 -0.08490358
0.025575139 0.015238277 -0.05032768 -0.083313875 0.10299592 0.10814231 -0.022507867 -0.0328139
0.06696666 0.08370278 -0.004224744 -0.010313314 0.07075211 0.046628036 0.10742924 0.1095755
0.02285692 -0.04504785 0.085783824 0.09729553 -0.06669992 -0.110026695 -0.03155119 -0.06604677
0.07309993 0.038970675 -0.10271431 0.06826952 -0.059989106 0.10617444 -0.11204813 -0.0693649
-0.00015980822 0.1128805 0.0068344628 0.07248955 0.105285205 -0.12837191 0.0021240583 -0.087752834
0.032771733 -0.07790046 0.011276288 0.078027055 0.147176 0.117839046 0.030041927 -0.08674284
0.0778861 -0.049383413 0.11020824 0.04951618 0.024152773 0.017464343 -0.058043778 -0.25293225
-0.031314984 0.086364016 0.11987094 0.083849266 0.03226999 0.38446313 0.38836876 0.08587693
0.06267384 -0.0004234719 0.06194782 0.07699656 -0.11261974 0.09302858 0.04271885 0.050030667
0.026978439 -0.06892183 -0.11554832 -0.0050069722 0.022729782 0.021687025 -0.104205154 0.011196477
-0.058282334 -0.028701331 0.110952295 -0.061285295 -0.084390804 -0.06707195 -0.07463993 0.07370362
0.077692196 0.10034652 0.06432407 0.034476425 -0.0246033 -0.006286236 -0.11583617 -0.013150495
-0.0802464 0.027985023 -0.0060682464 -0.010918992 0.12164706 0.106583595 0.111900344 0.07824314
0.010944181 -0.011328808 0.03601921 -0.05078869 0.0030056497 0.060256325 -0.1500893 -0.009067808
-0.028997388 -0.029205088 -0.099084325 0.08713868 0.15231018 0.14343393 0.026126064 -0.07190802
-0.08375719 -0.027775194 0.12435945 -0.089405656 -0.09331166 -0.009984927 -0.017098164 -0.08681065
-0.00028153585 0.07294986 -0.067747176 0.10688777 0.04115484 -0.001935963 -0.11075985 -0.12484842
-0.13586085 0.069243096 -0.06337343 0.0880801 -0.09028171 0.0072219074 -0.11778836 -0.110519566
0.106453314 -0.037783686 0.08783709 0.1092432 -0.09071255 0.0071813674 -0.11934124 -0.082314976
0.044903457 -0.03329858 -0.11922264 -0.02476015 0.018844182 -0.0474829 -0.074101664 -0.007462542

bias f4 [256]
00000000: d74f 92bd 9387 083d 61d8 e03d a054 fcbc
00000010: 5064 da3d 42cb 01b8 45f5 9b3d a917 283d
00000020: f1a7 00bd 7367 5fbd bbfd 633c 1327 8c3d
00000030: a59b f8bd 1950 a23c da70 8ebc 8590 423d
00000040: d045 a03d 7f11 f2bd 3308 473d c506 043e
00000050: 44c9 dc3d 153d 613d 5ae2 f9bd 2783 d4bd
00000060: 15ee cdbd 161d 1dbd 1263 c83d c210 46bc
00000070: 5eb7 49bd 7375 adbd f4b3 b83d 05be 6b3a
00000080: fcd8 61bc e760 7abd 6711 b53d 874d 2e3c
00000090: d8e2 a33d 093f a23d 3446 62bd 8870 393c
000000a0: e48c 93bd 55a1 b1bd 8118 34bd 8e9f da3d
000000b0: df13 e33c 4b01 07bd 4e0c efbc b473 103e
000000c0: 006c 7a3d bdf8 8dbd fd80 a3bc 1eff b83d
000000d0: 50e0 ecbd 5d2a 6abc 3854 be3c 1687 4ebd
000000e0: 7568 863d 9224 323c d42b 9cbd 1185 173e
000000f0: 080e 5ebc c800 933d f3ea cc3b b15d 0c3e
00000100: 4cff 8dbd 34f7 3fbd 5cbb 4c3d fafa a5bc
00000110: 2da1 14bd 741f f03d f2e9 413d 16f6 cdbd
00000120: 75e6 403d eec5 a0bd 9149 a9bd 514d 0c3e
00000130: b0e6 b03c c985 0ebe 7cd0 20bc 4915 06be
00000140: 33f6 c6bc 5ee6 2fbd 9ddc 1b3d d61f 2d3d
00000150: ad19 113e c75c 2abc d548 62bd 1745 f33d
00000160: 26e0 acbd 4606 ce3d 2b1a dbbd 34cb 153e
00000170: a49f e1bd b0a7 953c 205b 7b3b f1f5 d4bb
00000180: aeda 2abd 5022 483d 6f6c a43d e975 ddbd
00000190: eecc c73d 305a 6d3d 7182 f03d b3e2 273d
000001a0: bc64 c4bb ae94 c23d b1cd cbbb 1263 7dbd
000001b0: 0ba2 153e 958e f33d 0029 1b3e 9573 12bd
000001c0: 5fe8 d63d 963a 173d 4384 863d 8300 eb3d
000001d0: 6c7e 8cbd 229a 70bd 22d3 be3c 6d89 a4bc
000001e0: 2d5e 04bd a3a0 8b3d 8d2f 60bc ee8e dcbc
000001f0: e9a9 f83c 1810 9a3d 1b14 f33d bace 89bd
00000200: d0ea a33d 69cf dbbd 8982 9a3d 2c1a e63d
00000210: 9d94 fe3d 3a07 9f3d 97cd 46bd fdd2 b5bb
00000220: 6c65 7ebd df7e ecbd cfaa 4fbd 7ec3 b03c
00000230: 52c4 933d 2222 85bd c0f3 cbbd 2d5b a1bd
00000240: 41db c93d 94df 6a3d 8fcd 92bb 854e 0fbd
00000250: 272a d43d cb52 7a3d fcc9 eebc d7f8 9e3c
00000260: 8a63 89bd aeab abbd c8ce 0c3e ef32 d0bd
00000270: fbba 943d 4f0e 43bc f97f 143d 6ed3 053d
00000280: 6ffc 993d 5f28 fd3c 58a8 abbd 3cb6 683d
00000290: be64 603c 4658 af3c 821d c5bc 25ed 373b
000002a0: 363d d03c 7920 26bd af56 733d 205f 243c
000002b0: 1bfb c7bd fc03 5c3d 3a0e 513d ad80 a43d
000002c0: 08b1 4d3c 42d1 2fbd 035c d03d fe50 8fbd
000002d0: b0db d5bd befc 81bd 7588 0b3e 0b96 01bd
000002e0: 9958 753d 0af7 f53d d8c7 e53d 2e2b 2b3d
000002f0: a79b 9ebd 053d 05bd 9ea6 0ebd 6dac 463d
00000300: 3062 76bd 7a95 f03d 0378 363d 1bc3 d9bd
00000310: b8ab 823d 9433 e43d 48d0 bfbd e289 7ebd
00000320: 9b28 263d abe3 05bd 8496 e5bd 907e 183c
00000330: a116 6c39 2443 023d c638 943d 5672 adbd
00000340: aa6f bb3c d7ed d1bd e893 513d 8593 edbd
00000350: 5f6a 82bd e794 34bd c638 9c3d 808d 733d
00000360: ef3e c7bd 4489 06bc a056 f83c e8a0 133e
00000370: bd1a 063e 2c88 9cbd 2f1f e53d ec02 8ebd
00000380: 7b94 97bb a752 3c3d 8c58 0e3e 6bf0 bf3d
00000390: 98b0 0a3e de65 7f3c 4ffc af3d 51dd dabd
000003a0: 6c8c bb3c 94fa 003c 135a eb3d 7a77 92bc
000003b0: 793b 903c 307b b4bd b66f 053d 2900 1e3d
000003c0: c151 5a3d eaeb 00bd 41b0 96bc 00d5 e8bd
000003d0: 6202 dbbc 0066 be3d 53c8 3fbd 022d f43d
000003e0: 755b bdbd 081f 003e 6542 053e ab2d 813d
000003f0: 8258 c03d e631 bdbc a7df 9c3d 51fe fa3c
-0.071441345 0.03333242 0.10978771 -0.030802071 0.10663664 -3.0945295e-05 0.07615141 0.04103819
-0.03141016 -0.054542016 0.0139154745 0.0684339 -0.12139062 0.019813584 -0.017387796 0.047501106
0.07825816 -0.11819743 0.048591804 0.12893207 0.10780576 0.054989893 -0.12201376 -0.10376578
-0.10055176 -0.038357817 0.09784521 -0.012088956 -0.04924714 -0.08469667 0.09018698 0.00089928537
-0.013784643 -0.06112757 0.0884121 0.010638601 0.080022514 0.07922179 -0.055242732 0.011318333
-0.07204607 -0.0867335 -0.04396868 0.10674964 0.027719436 -0.032960217 -0.029180672 0.14106637
0.061138153 -0.06932209 -0.019958967 0.09033035 -0.11566222 -0.014292327 0.023233518 -0.050421797
0.06562892 0.010872977 -0.07625547 0.14796855 -0.01355315 0.071778834 0.006253594 0.13707615
-0.0693346 -0.04686661 0.049983367 -0.020261277 -0.03628652 0.11724749 0.04734225 -0.10056703
0.04709478 -0.07850252 -0.08265985 0.13701369 0.021594375 -0.13918222 -0.009815332 -0.13094057
-0.024287319 -0.042944305 0.03805219 0.04226669 0.14169951 -0.010398096 -0.05524524 0.11878412
-0.084411904 0.1005979 -0.106983505 0.14628297 -0.11016777 0.018268436 0.0038353875 -0.006499045
-0.041712455 0.048860848 0.080284946 -0.10813505 0.09755884 0.057947338 0.1174363 0.04098768
-0.005993454 0.09501015 -0.0062195887 -0.06186206 0.14612596 0.1189243 0.15152359 -0.03575476
0.1049354 0.036921106 0.06568196 0.11474707 -0.068600506 -0.058740743 0.023294035 -0.020085061
-0.032316376 0.068177484 -0.013683212 -0.026923623 0.030354457 0.07522601 0.11869069 -0.06728883
0.08003771 -0.1073292 0.07544429 0.11235461 0.124306895 0.0776505 -0.04853591 -0.0055488334
-0.062108442 -0.11547636 -0.050700005 0.021577593 0.072151795 -0.06500651 -0.09958601 -0.078787185
0.098562725 0.057342127 -0.004480071 -0.03498699 0.103596024 0.061114114 -0.029149048 0.019405765
-0.06708439 -0.08382355 0.13750756 -0.10165965 0.07262226 -0.011905267 0.036254857 0.03267234
0.07518851 0.03090304 -0.083817184 0.056814417 0.013695894 0.021404397 -0.024061922 0.0028064933
0.025419813 -0.040558312 0.05940884 0.010032445 -0.097646914 0.053714737 0.051038958 0.080323555
0.012554415 -0.042924173 0.101738 -0.0699787 -0.10442293 -0.06347035 0.13626273 -0.031637233
0.059898946 0.120100096 0.11219758 0.041789226 -0.07744532 -0.032528896 -0.034826867 0.04850428
-0.060152233 0.117472604 0.044548046 -0.106329165 0.06380409 0.1114265 -0.09365898 -0.062143214
0.04056607 -0.032687824 -0.11210349 0.009307519 0.00022515144 0.03180231 0.07237391 -0.084690735
0.022880394 -0.102504425 0.051166445 -0.11600403 -0.06367945 -0.044087317 0.07628016 0.059461117
-0.097288005 -0.008211438 0.030314744 0.1441685 0.13096137 -0.0764316 0.111875884 -0.06934151
-0.0046258545 0.04597726 0.13900965 0.09372028 0.13543928 0.015588252 0.08593046 -0.10686744
0.022894107 0.0078722425 0.1149179 -0.017879236 0.017606484 -0.08812559 0.03257724 0.03857437
0.053300623 -0.031474985 -0.018394591 -0.113687515 -0.026734535 0.09296799 -0.046821903 0.11922647
-0.0924596 0.12511837 0.13013609 0.063075386 0.093918815 -0.023095082 0.07659846 0.030638846

weight f4 [256, 256]
00000000: f56c 123d 4239 0c3d 766d 97bd 0136 953c
00000010: c69c 99bc e093 0cbd e580 63bd af0b da3c
00000020: 7a6f a53d 1b4c 423d 652e f3bb f72f ffbc
00000030: d98b 48bc bd05 66bd 1211 4a3c bf23 373d
00000040: a3dc c6bc b9b8 3bbc 56dc 0b3d 1ea8 9e3c
00000050: 62d4 853c 79ff 083d 9933 803d f9c5 43bd
00000060: 13ef 263d 0e1e e93c c9a6 7c3b a4ba 2eba
00000070: e57f 1fbd 0e92 afbc c99c 7bbc eefb 013c
00000080: 33cc 3bbd b4ba 033d 3f12 9fbd 43f1 0fbd
00000090: 80a6 76bd c97b ba3d f7a4 1f3d f262 9bbc
000000a0: bf07 953c de8d c8bc 0214 afbb 479b 883b
000000b0: 5217 bfbc 227d 713d 7bd5 07bd 081f 6a3c
000000c0: a43f fdbb 43eb 82bc 8fab 01bd 8d17 cf3c
000000d0: 8618 f6bc a095 853c 76fd c6bb 5fda 0cbd
000000e0: 5f11 5d3d c4fb f23c 2b15 6dbd f305 5bbd
000000f0: 0261 483c 8bd5 75bd 29e0 9abc 8569 fbbb
00000100: d60a 5dbd b09c 99bc d1d8 d13c c03d 7fbc
00000110: 7c6a 8fbd 6d41 70ba ea8b 0a3d 7062 e43c
00000120: d3c0 8fbd e10a 733d 7e09 873b 694c 8e3c
00000130: b9db 23bd 7391 4b3d 6b3e fb3c c7cd 0e3d
00000140: a0d9 dbbd 935a 06bd 7edc ee3c 02ba fb3c
00000150: cf30 bcbb 850c 84bd bbb6 1f3c 74ff 6c3d
00000160: 3cb3 a0bb 2a5e 523d 7d9a afbb 4b93 54bd
00000170: b45a 873d a4c0 08bd 0cc2 053d 378b 183d
00000180: 7400 ecbc c422 313c 4411 afbd b50d b6ba
00000190: b40e 2bbd d86c d6bc 32d7 9b3c bb40 533d
000001a0: 0a63 6a3d 7a7f 6dbd ca58 29bc 6f14 253d
000001b0: 2e79 103d a650 a33c 5a8a 03bd 6d02 d1bc
000001c0: db40 94bc b05d 223d c651 d0bc 6cfc f83c
000001d0: 7e18 fb3c 5555 7abd 5a11 0abc 81a3 d9bc
000001e0: 8a5d a0bb a5ec 25bd 1df8 09bd 3867 1abc
000001f0: 1b65 62bd e5f5 d23d dc31 473d f836 9c3b
00000200: 4e1e 553d 128f 243c cee8 513d f6ca f93a
00000210: 447f b4bc 4ad9 96bd 896b 8bbc c950 243d
00000220: db53 0c3d eb7b 183d 63ce a4bd e3d0 e3bb
00000230: d7a5 53b9 9072 59bc 0d91 e23c 5598 8a3d
00000240: db88 603d 4276 13bd 6d05 6dbd b57b f13b
00000250: c0e9 2dbd 64c9 133d 6eed 5ebd abd3 543b
00000260: c122 0c3d df89 20bd 8ba3 433d 01bb 94bd
00000270: d45c 08bd c270 97bc f011 373d 9c3d 883c
00000280: edb4 b2bd 33d9 29bb 3bac 053c c4fe 323d
00000290: 3ab9 da3c 49ec 84bc 75d2 80bd a128 86bd
000002a0: 88ce 50bd d739 803c 1880 863b a0ac fa3b
000002b0: 7359 a2bd 1a08 ce3c 17de 19bc 6409 2fbc
000002c0: 9962 8fbd dea4 29bd 96cc 4c3d 754b a0bc
000002d0: 8722 46bd 6b2f 983d 2b86 aa3c daee 56bd
000002e0: 345b b13d d513 a83c 8157 75bd 2dfa 29bd
000002f0: 7768 88bd fb21 e9bb b995 503d 01c7 5f3d
00000300: 82fa 8c3d 23a1 d73d 2f13 2a3d 5aee 8bbc
00000310: 5cc9 f23c 936e c5bb a265 373d c6cb 3abc
00000320: bf64 cbbc b4ab 34bd 6e90 88bd fc80 773d
00000330: a749 83bd fb87 293d 3333 c83c 2180 013b
00000340: e151 44bc 4b89 3ebd 840f f53c 1fbc 18bc
00000350: e488 91bc df90 3c3c 051e 323d 0697 8fbd
00000360: c452 653d d19c fe3c f855 e4bc 5cf9 a3bc
00000370: 9d63 5fbb 2ecb dc3c b3d7 233d 19f5 27bd
00000380: e4ee 823d 5362 43bd c762 503d 7ac1 0fbc
00000390: d1b3 993d b444 b23b 9c11 e9bc 313a 133d
000003a0: 7a0d 53bd 0a1a b63c b168 ef3c cc68 1dbc
000003b0: 7afa 4a3b 80d1 00bd 86aa f9bc 29eb de3c
000003c0: 1fe0 cd3d 6f7d 283d d8cc b43c 49fe 53bd
000003d0: ad8e 823c 992a 2b3c 38e4 6dbd 3e49 cebc
000003e0: dfec a4bd 0651 1cbd 00e7 87bd d792 653d
000003f0: 3134 4f3a 3e9c 183a c7d3 1d3d c248 e63c
0.03574844 0.034234293 -0.07393925 0.018214228 -0.018751513 -0.034320712 -0.055542845 0.0266169
0.08077903 0.04743586 -0.007421302 -0.031150801 -0.0122403735 -0.056157816 0.012333171 0.044711825
-0.02427513 -0.0114576155 0.034145676 0.019367274 0.016336624 0.033446763 0.062598415 -0.047796223
0.040755343 0.028456714 0.003855156 -0.0006665385 -0.03894033 -0.021431949 -0.015357205 0.0079336
-0.045849036 0.032160476 -0.07767152 -0.035142194 -0.06021738 0.091056414 0.038975682 -0.01896808
0.01819217 -0.02448171 -0.0053429613 0.004168901 -0.02332655 0.058957227 -0.033162575 0.014289625
-0.007728534 -0.015981322 -0.03165775 0.025279785 -0.03004099 0.016306698 -0.0060726954 -0.034387942
0.053971644 0.029661067 -0.057881515 -0.05347247 0.01223016 -0.060018104 -0.018905716 -0.007672491
-0.053965412 -0.018751472 0.025616081 -0.015578687 -0.07002732 -0.00091650226 0.03382484 0.02787897
-0.070192 0.059336547 0.0041210046 0.01737042 -0.040004466 0.049699258 0.030669412 0.034864213
-0.10734868 -0.032801222 0.029157873 0.030728344 -0.005743123 -0.064477004 0.009748156 0.057860807
-0.004904179 0.051359333 -0.0053589926 -0.051898282 0.06609097 -0.03338684 0.03265576 0.03724214
-0.02880881 0.010811511 -0.08548215 -0.0013889583 -0.04176207 -0.026174948 0.019023512 0.051575404
0.057223357 -0.0579829 -0.01033611 0.04030269 0.035271816 0.019935917 -0.032114364 -0.025513852
-0.018097332 0.03964013 -0.025429618 0.030393802 0.030651327 -0.061116535 -0.0084269885 -0.026567223
-0.004893963 -0.040508885 -0.033683885 -0.009424023 -0.055272203 0.10300807 0.048631534 0.004767295
0.052030854 0.010043876 0.05124741 0.001905768 -0.022033341 -0.07365663 -0.01701905 0.040116105
0.03425966 0.037227552 -0.08047178 -0.0069523915 -0.00020184308 -0.013271943 0.027657056 0.06767336
0.054818016 -0.03600145 -0.057866503 0.0073694834 -0.04245925 0.036080733 -0.05442565 0.0032474797
0.03421283 -0.039193984 0.04776339 -0.07262231 -0.033291653 -0.018486384 0.04469484 0.01663094
-0.08725915 -0.0025916814 0.008158739 0.043699995 0.026699651 -0.01622595 -0.062901415 -0.06550718
-0.050978214 0.01565258 0.0041046254 0.007649973 -0.07927217 0.025150348 -0.009391329 -0.010683391
-0.07001228 -0.041416995 0.049999796 -0.01956723 -0.04837277 0.07430919 0.02081593 -0.05247388
0.08659974 0.02051727 -0.059897903 -0.04149835 -0.0666055 -0.0071146465 0.050924037 0.054633144
0.06883718 0.10528781 0.0415222 -0.017081428 0.029637031 -0.0060251444 0.04477466 -0.011401122
-0.024828313 -0.04410906 -0.06668173 0.060425743 -0.064105324 0.041389447 0.024438476 0.0019760209
-0.011982412 -0.04651765 0.029914625 -0.009322195 -0.01776547 0.011509149 0.04348566 -0.07011227
0.055987135 0.031080635 -0.027873024 -0.020016365 -0.0034086474 0.026952352 0.04000063 -0.041005228
0.06393221 -0.04770119 0.05087545 -0.008774156 0.075050004 0.005440319 -0.02845078 0.035944168
-0.051526524 0.022229213 0.029224725 -0.009607505 0.003097205 -0.031449795 -0.03047682 0.027211742
0.10052513 0.041135248 0.022070333 -0.051756177 0.015937174 0.010447168 -0.058078974 -0.025181409
-0.08052992 -0.038163207 -0.06635857 0.05604824 0.00079042005 0.0005821622 0.038532045 0.028110866

bias f4 [256]
00000000: c98f e0bb 76ce 383d 5cca 0cbd 5d92 fb3c
00000010: 41d8 31bd 7acf 9b3d 9b0a 5c3d 65d4 cebc
00000020: 3e30 903b e6a9 43bc 4d2d 74ba 7100 a2bd
00000030: 8bed 7bbc 1fed 9e3d c954 5c3d bc20 11bd
00000040: 6a75 9b3d b91b 0ebd a246 583d 055f a83c
00000050: 37cb 03bd 2b52 33bc df24 173d 6be8 b53c
00000060: 2dd3 8a3b 0e2e 0fbd 9f2a 123d bd69 76bd
00000070: a54e 183d 9c31 bf3d 4953 7bbc 8576 26bd
00000080: c1dd 203d 4640 3e3d 2195 2abd 5fb9 c8bc
00000090: be54 993d 72d5 3f3d b63b 823c 967c 593d
000000a0: ed70 3b3d b3f3 ef3c b9a6 84bd 4ffd 203d
000000b0: 1067 5e3d 6a89 1b3b 0380 063d ac89 bc3d
000000c0: 899a f1ba f070 a23d bc27 513d c822 763d
000000d0: e577 c03d 05e8 813c 46c4 5f3d c021 a73d
000000e0: e737 b13d 7548 db3c 979f 5b3d 90ae 2bbd
000000f0: 7046 0b3d 3e81 3fbb 3087 a6bc 1ce9 46bd
00000100: 1599 773d 64de dbbc f3d2 e2bc 19c7 d7bc
00000110: be5a 46bd 7e94 9a3d b5d4 283d 918e f2bc
00000120: 12a7 10bd 422d ab3c 38f5 34bd c5d1 dd3a
00000130: 2459 d0bc f62a a73b 7488 153c 626b 043d
00000140: 2a98 013b 8cce e2bb f769 d7bc afe0 ce3b
00000150: d388 a3bc 9659 71bd a8b8 cb3c d790 7d3d
00000160: 16e0 b5bc 7088 d0bc 3e47 2cbd 7b79 34bc
00000170: 2176 74bc bc5c 0b3d d565 5b3d 4b93 663d
00000180: 37f1 513d 12b6 213d cab1 25bc b437 213d
00000190: a9c1 a63d 0041 393d 8f71 0d3d 6b71 15bd
000001a0: 660c 083c 05dc 103d 460c 713d 9ad2 2dbd
000001b0: 384e 3b3d 6317 28bc 8c3c 543d c8bd da3c
000001c0: e482 1abd 667f 0b3d 7269 f8bc 3353 8e3d
000001d0: 163d edbc b56a 453b b543 9abc b75e 9f3c
000001e0: 49fa c4bc e7f0 2bbc 8615 45bc 7664 8d3c
000001f0: 962f cc3b 3bc9 0cbc 1ba2 823d 711f 873d
00000200: 74f8 953d 900f d73c 49de 923c d7c4 6abd
00000210: 12b4 f03c d6f7 993c 3db1 963a 1c66 b33c
00000220: 6050 43bd 36eb 89bd b309 783b 0f6e 72bd
00000230: 227f 9c3d 57e7 febc 6eb4 9c3d bd4d 813d
00000240: dfe4 5c3d 463a 2b3b 4a27 873d 03af 473d
00000250: 2e9e 0b3d 55b2 463c 9fe0 a5bb 06b0 febc
00000260: d7d5 c7bc 9235 c23c 5cfc 9bbc 9350 a13d
00000270: dcc5 a5bc e7c7 383d f6f5 203c 43e3 e5bc
00000280: 57d6 023d db49 3c3d 9318 2c3b 82b3 3f3d
00000290: ef04 603d f174 703c a3e0 033d b540 173d
000002a0: 0825 c53c 0d4a 2b3c d9a1 bcbc 5e8d 423d
000002b0: d3fb f7bb 537a 153c 07e1 f23b 84f7 843d
000002c0: 6208 3d3d f6ef e4bc b251 003d fc6f ab3d
000002d0: edba 8f3c 2f47 b03d 43f9 213c 6f1c 63bd
000002e0: a1a5 6ebd f40b 17bd 38a5 813c 24f9 143d
000002f0: b1a3 02bd feff 973d 6d51 f5bc 8815 853d
00000300: fc13 333c 9574 8a3c 083c 173d aee5 14bd
00000310: 654c 813c 4b86 983d 19b5 3f3c d5b2 b4bb
00000320: dfe4 023c e52a 143d 3caa b53c cd3a 253d
00000330: 7fa9 043d 30a6 b2bb deca b73c b421 723d
00000340: 8d3a 2ebc 55f6 833b c2c8 a73d 506f 703d
00000350: d933 6cbd a240 ef3c 8968 dc3b dc85 5d3d
00000360: 6f2c b73c d62b 793d 7e74 913c 8b2f ad3d
00000370: 390d 2dbd 1320 06bc aa58 cb3c f48d 423d
00000380: 951e c9bc bd17 bebd 8129 f2bc e750 ed3b
00000390: 923d 5d3d 153b 4a3d 3059 843a 8cc7 423c
000003a0: 99f7 9c3c 4354 793d 0e05 9c3b 2fc1 efbc
000003b0: 40b7 56bd 36bd 953c fb28 1e3d 74fe 633d
000003c0: a063 7cbd 41cd 29bd 2a96 633d 1c5f 923c
000003d0: 0d04 ba3c 7eac 6c3d a43b 023d 24a5 b6bc
000003e0: fc42 b03d d943 f0bb a2b8 033d fd7b 1a3d
000003f0: 42e0 c83c c75b 49bd 9d18 a5bb 542e 3a3d
-0.006853078 0.04511877 -0.034372672 0.03070944 -0.043419126 0.076079324 0.05372105 -0.025247762
0.004400282 -0.011942362 -0.00093146117 -0.079102404 -0.015376459 0.07760071 0.053791795 -0.03543161
0.07590754 -0.034694407 0.052801736 0.020553121 -0.032176223 -0.010944883 0.036900397 0.022205552
0.0042366 -0.03495603 0.035685178 -0.060159434 0.037184376 0.09335634 -0.015339681 -0.040640373
0.03927398 0.046448015 -0.041646127 -0.024502454 0.074868664 0.046834417 0.015897613 0.05309733
0.04576199 0.02929101 -0.06477112 0.039304074 0.054297507 0.0023733028 0.032836925 0.09205946
-0.0018432896 0.07931697 0.051063284 0.060091764 0.09397868 0.015857706 0.05463054 0.08160734
0.08653241 0.026767949 0.053618994 -0.041914523 0.03400272 -0.0029221321 -0.020328134 -0.048562154
0.060448725 -0.026839443 -0.027688479 -0.026340054 -0.048426382 0.07547854 0.04121848 -0.029608997
-0.03531558 0.020895604 -0.04417917 0.0016923478 -0.02543313 0.005101557 0.009126771 0.03232897
0.0019774535 -0.006921595 -0.026295645 0.0063134055 -0.019962704 -0.058923326 0.024868324 0.06190571
-0.022201579 -0.025455683 -0.04206013 -0.011015291 -0.014920742 0.034023985 0.05356391 0.056292813
0.05125543 0.039480276 -0.010113189 0.039359763 0.081424065 0.045228004 0.034532126 -0.036485117
0.008303737 0.035366077 0.058849595 -0.042437173 0.045728892 -0.010259482 0.051815554 0.026701823
-0.037722483 0.034057043 -0.030323718 0.06949463 -0.028959792 0.0030123417 -0.018831113 0.019454343
-0.024045127 -0.010494447 -0.012029057 0.017259818 0.0062312586 -0.008592899 0.063785754 0.06597794
0.07322779 0.026252538 0.01792826 -0.057316627 0.02938274 0.018794935 0.0011496913 0.021899275
-0.047684073 -0.06734316 0.0037847578 -0.05918699 0.07641436 -0.03111617 0.07651602 0.063136555
0.053929206 0.0026127263 0.06599291 0.04875089 0.0340864 0.012127479 -0.0050621773 -0.031089794
-0.024393959 0.023707185 -0.019041233 0.078766964 -0.020235948 0.045112517 0.009824267 -0.028062468
0.03194269 0.04596887 0.0026259765 0.04680205 0.054692205 0.0146763185 0.032196652 0.036926944
0.02406551 0.010454667 -0.023026394 0.0474981 -0.0075678616 0.009123403 0.0074120793 0.06492522
0.046150573 -0.027946454 0.03132791 0.08370969 0.017545188 0.08607327 0.009886089 -0.05544704
-0.058263425 -0.036876634 0.015825853 0.03637041 -0.03189439 0.074218735 -0.029946053 0.064982474
0.010930058 0.016901294 0.036922485 -0.036351852 0.015783498 0.07447489 0.011700892 -0.0055144825
0.007989137 0.03617372 0.0221759 0.04033928 0.032388207 -0.00545194 0.022435602 0.059114173
-0.010634077 0.004027168 0.081925884 0.058699906 -0.057666633 0.029205624 0.0067263287 0.054082736
0.022360055 0.06083282 0.017755743 0.08456334 -0.04224894 -0.008186358 0.024822552 0.04749866
-0.024550715 -0.092818715 -0.029560806 0.0072423103 0.054013796 0.04937275 0.0010097381 0.011888396
0.019161033 0.060871374 0.0047613448 -0.029266922 -0.052420855 0.0182787 0.0386133 0.055662587
-0.061618447 -0.04145551 0.05556313 0.017867617 0.02270701 0.05778169 0.03179516 -0.022295542
0.08606526 -0.007332307 0.0321585 0.0377159 0.024520997 -0.04915979 -0.0050383345 0.04545434

weight f4 [256, 256]
00000000: 043d a0bc 708c af3c 7857 d5bc ccff 9a3c
00000010: 4f03 8abc 3f0f 43bd 9ecb 8abc c6b3 21bd
00000020: 2e2e 6abb 1dc7 e73b 0036 a9bb 90f9 07bd
00000030: 181f 63bc 14d5 823c 12c5 103b 9964 263d
00000040: f3ff 583d c93c b1bc 0c60 0bbd ea9c 0cbd
00000050: 8e58 b73c 4d58 7ebd 7990 4e3c ff31 1cbd
00000060: 67ab c73b e282 4abd 4f41 5ebd e9d0 8cbd
00000070: 0384 83bd 7e1d 5b3d 201f 3bbd df61 28ba
00000080: af9c 7bbd ff2a 33bd 9d05 953c 6b85 cfbc
00000090: 2903 523d 7960 213c cf18 f93c f1b4 eabc
000000a0: 6667 6d3c e8d1 903b ee85 913d 2280 7cbc
000000b0: 3767 103d 1fb2 19bd 3768 1fbd 3201 13bd
000000c0: 7d66 b4bc 1b1d 85bc a999 6dbc 00f2 20bd
000000d0: fa12 1838 da0b 6f3c 1043 80bd d330 fdb8
000000e0: af0f 7d3c f371 5b3c 0b57 a5bb 3cb3 3a3d
000000f0: 8aaa 18bd ae21 afbc 8771 2abd 0e8d 63bd
00000100: 4e18 6abc 7f6d de3c 7132 aabb 0633 8fbc
00000110: f305 7d3b 07ac 2c3d 76a1 d7bc 8766 88bc
00000120: f1e1 81bb 71df 33bd abce d23c 28c4 eb3c
00000130: 7cec 883d 1574 b7bc ab63 5fbd 242c 0b3d
00000140: 58e0 cfbc 4ef1 cabb 5c8c 23bd fcab c93c
00000150: eee9 893c ba6c 09bd ac8c 5fbd 67a5 863c
00000160: e9e4 8ebd 7d95 81bd d023 29bd 9453 64bd
00000170: e72e 923c 07f9 45bd 31b2 01bd c031 4c3d
00000180: feeb 20bd 05fa a83c 1e1f 39bc 62f7 18bd
00000190: 09fa 13bd 69fc b93c de59 02bd 8a93 413d
000001a0: d01d 943c 2ccc 65bc 1da0 07bd 79f2 56bd
000001b0: ba0c 9f3c f226 3cbd 5dc8 37bd fe92 ad3c
000001c0: 9610 82bc a820 233b b98b 2fbd 2315 75bb
000001d0: 5591 5cbd 5ad6 883c 4404 ccbc 6708 4abd
000001e0: 39e1 4a39 b915 063d 27fc 163d 8299 973c
000001f0: 36c1 103c f39e 123d 46f5 81bd 5b1d 813c
00000200: d625 7dbd 991e 533d a10a 7fbc 0833 65bd
00000210: b376 0f3d b95c 993c 5a09 7e3c 9b58 bbbb
00000220: 2893 923c 7844 0ebd 90ea 243d 36f0 f03c
00000230: 0a8e ff3c 6ce9 3ebd a80b 75bd 8688 1abd
00000240: 15fb 96bc b1b8 613d 136b 7cbd 2b5c c5bc
00000250: 3fef 0ebd 3363 84bd da4b 67bc 22b3 d9bc
00000260: acf1 6bbd dc83 e43c 3711 c4ba 41b9 09bd
00000270: f767 2bbd 02db d3bc c0a4 5cbc 332c 483d
00000280: e121 583d 0390 bbbc 3d53 59bd c217 433d
00000290: 7e45 aabc 084f 23bd 141d 433d 3e5c 583d
000002a0: 5497 67bc 503f 513d 7288 623d a490 92bc
000002b0: 026d 53bc 63fa 32bc 4abc 963c ffb3 5abb
000002c0: 3e0b 333d 06da 36bd 48de c23c c485 513d
000002d0: 6d35 1a3d ceb0 c9bc 21fe 13bd bb8d 07bd
000002e0: 16b3 aabb 6aa9 3f3d 0584 143d 758e ad3d
000002f0: dcef 55bd b03f 39bc 30b1 1d3d a3ae 80bd
00000300: 649c cc3c 9643 06bc 09db 213b cf42 86bd
00000310: c2b0 4d3d e407 da3c 7dda dcbc 9a83 b0bc
00000320: 7761 48bd 8354 fb3c 8bde 063c 0b1c 7a3c
00000330: 4092 373d 5078 dfbc 8985 11bd 5c6e 59bd
00000340: 145a 523c 9527 56bd d0f0 59bd 96a2 54bd
00000350: 1151 2c3d 0bac f0bc 7d7f 963c 3be1 23bd
00000360: b64b c13b 4c96 143d 3379 5cbd c450 003d
00000370: 2899 1a3d 2a50 4cbd eb9f 0c3d cf57 a93c
00000380: de5e 0d3b 197f a73c a826 80bd 921c 2abb
00000390: c100 14bd fcf0 073d f26d 67bb 3314 c03c
000003a0: 94e5 1e3d 4bef 15bd 5d9e 243d b593 463d
000003b0: f513 df3b f92e 063d df68 c93c 07f7 c0bc
000003c0: c567 f2bc 619b 26bc 3ce8 5ebb f07c 323b
000003d0: f8d4 5f3c b5c9 023d afc3 0a3d e0df aebb
000003e0: f6a5 8d3c 1496 433d e8a7 aabb 3b1d 3b3c
000003f0: 098f 08bd a2e7 d73c d9d7 543d a406 26bd
-0.019560345 0.02142927 -0.026042685 0.018920802 -0.01684728 -0.04762196 -0.016942795 -0.039478086
-0.0035733092 0.0070732967 -0.005163908 -0.033196986 -0.013862394 0.015970744 0.002209012 0.04062328
0.052978467 -0.02163543 -0.034027144 -0.034329332 0.022381093 -0.06209593 0.012607687 -0.038133617
0.006093431 -0.049441226 -0.054261502 -0.06875784 -0.064216636 0.053494923 -0.04568398 -0.00064232753
-0.061428722 -0.043742176 0.018191153 -0.025332173 0.051272545 0.009849661 0.030407337 -0.028650733
0.014489984 0.004419554 0.07105623 -0.015411409 0.035254683 -0.037523385 -0.038917746 -0.03588981
-0.022021526 -0.01624923 -0.0145019675 -0.03929329 3.6257297e-05 0.014590228 -0.06262791 -0.00012073074
0.015445634 0.013393867 -0.0050457767 0.045581087 -0.037272014 -0.021378364 -0.041612174 -0.055554442
-0.014288021 0.027151821 -0.0051940014 -0.017480385 0.0038608282 0.042156246 -0.026322108 -0.016650451
-0.003963702 -0.043914262 0.025733313 0.028780058 0.06685731 -0.02239422 -0.05453841 0.033977643
-0.02537553 -0.0061933165 -0.03992878 0.024618141 0.01683518 -0.033550955 -0.054577515 0.016436292
-0.06977255 -0.06327341 -0.04129392 -0.05574377 0.01784463 -0.048333194 -0.031664077 0.049852133
-0.03928756 0.020627031 -0.011298923 -0.037345298 -0.036127124 0.022703366 -0.031823985 0.047259845
0.018080622 -0.014025729 -0.03311168 -0.052477334 0.019415248 -0.04593558 -0.044868816 0.021188255
-0.01587705 0.002489129 -0.04285786 -0.0037396632 -0.053849537 0.016703773 -0.024904378 -0.04932442
0.00019348123 0.03273556 0.036861565 0.018505815 0.008835128 0.035796117 -0.0634561 0.015761068
-0.06180366 0.051542852 -0.015566499 -0.05595687 0.03502531 0.018720971 0.015505159 -0.0057173497
0.017892435 -0.034733266 0.04026276 0.029411417 0.03119566 -0.046609327 -0.05982557 -0.037727855
-0.018430272 0.055107776 -0.06162555 -0.0240918 -0.03489613 -0.06464233 -0.0141172055 -0.026574675
-0.057603523 0.027894907 -0.0014958744 -0.033623938 -0.041847195 -0.025861267 -0.013467014 0.048870277
0.052766684 -0.022895819 -0.053057898 0.04763008 -0.02078509 -0.039870292 0.047635153 0.052822344
-0.0141352005 0.05108577 0.055305906 -0.017891236 -0.012904407 -0.010923955 0.01840033 -0.0033371446
0.043711893 -0.044641517 0.023787633 0.05115296 0.037648607 -0.02462044 -0.036131028 -0.03309415
-0.005209337 0.046792425 0.036258716 0.08474437 -0.0522307 -0.011306688 0.038499057 -0.06283309
0.024976917 -0.008194825 0.0024697206 -0.065557115 0.050217398 0.02661509 -0.026959652 -0.021547128
-0.048921075 0.030679947 0.008231769 0.015265475 0.04481721 -0.02727905 -0.03552774 -0.053083763
0.012838859 -0.052283842 -0.053208172 -0.051912867 0.0420695 -0.029378911 0.018371338 -0.04000972
0.005898918 0.036276147 -0.053826522 0.031327024 0.037743717 -0.049881138 0.034332197 0.020671753
0.0021571438 0.020446347 -0.06257373 -0.002595697 -0.03613353 0.033188805 -0.0035313335 0.023447132
0.03879316 -0.03660516 0.04019009 0.04848071 0.006807799 0.03275964 0.02458614 -0.023555292
-0.029590497 -0.010168881 -0.0034012934 0.0027235113 0.013661616 0.031930644 0.033878025 -0.0053367466
0.01729105 0.047750548 -0.0052080043 0.011420543 -0.033339534 0.026355568 0.05196366 -0.040533677

bias f4 [256]
00000000: f88f 8f3a 491b 87bc 92da 50bc 745f 4ebd
00000010: 3e67 c43d 5617 5fbd 5a6f 893b 313d debc
00000020: b3ee f23c e0b0 b53c 65e3 30bd c47e 95bc
00000030: 278e 22bd ac44 94bd 545c 033d f8b9 24bd
00000040: fe48 27bd 9fc6 923c 441f 3abd fee7 803b
00000050: 1c61 b73c 2b1a fe3c 5382 113d 6cbe 84bd
00000060: 399b d8bc 2dae 1b3d a803 403d cbf6 6f3d
00000070: 33b0 33bd 82ca 593d 24d3 70bc 4440 56bc
00000080: 5a04 08bd 793e 5b3d 368b 76bd bb88 b7ba
00000090: 67c2 febc ef7c b93d 5627 bf3c b0e0 ac3c
000000a0: 0e6e 2b3c cd5c 1c3c 0309 8d3c 6d58 46bd
000000b0: 7bfb ac3d e565 dcbc aafc 5d3d 5d0c 0e3d
000000c0: 5d71 0a3c 8902 53bd dbac 913d fbf7 933d
000000d0: b022 3e3d 1d82 09bd 61b6 c73c 834a 023d
000000e0: 915e 8abd 1e22 743d 4d9e e3bb cb2c ae3b
000000f0: 3372 b2bc 7618 56bc 41b4 743d d8cf 3bbd
00000100: ce3b e4bc 7cc2 573d 316e fdb9 8e9d 9ebc
00000110: 194a d93c e536 b5bc 97ad 9c3d 09e1 27bd
00000120: 62a5 043c 6580 583b 534f cabb e124 6a3d
00000130: 805e 2cbc 8958 31bd 94a6 273d bacb a73c
00000140: 33f8 233d dd93 583d ab1e f0ba bcc7 033d
00000150: 0645 6dbc d9d2 8e3c 207c 913c 5381 0f3d
00000160: 0d14 4c3b 28ad af3d 3784 463d d3b1 a7bc
00000170: 488f af3c a3e3 313c 1be2 323d ce0b 5d3c
00000180: 2257 813c 61d8 b43c 2852 543d 4f96 283c
00000190: 8977 89bd a30a 413d c046 cebb c31d 34bd
000001a0: edcd 6cbd 4fe4 903c 07a3 b1bc a079 fcbc
000001b0: 5509 403d a8cb 8abb bdf5 abba dcf7 adbc
000001c0: 8805 cc3c 5e0e f3bc 03b6 333d 6354 f93c
000001d0: 5fb7 843c 9568 d63c e0e3 733d aafa 19bd
000001e0: 723c 1cbb 7baf a73d 1d86 9c3d 1e21 b2ba
000001f0: add2 893d 5a0d a3bd fdb5 983c 90ee c3bc
00000200: f82a 3bbc c754 8a3d 1e59 2b3d 5635 e3bc
00000210: b591 573d 0b10 6d3c fa3f 4b3d 1d9c 973b
00000220: f1d9 213d babf 01bd 19df a73c fe6a c7bb
00000230: 32fa 493d 2542 36bd 0b13 c8ba 99b0 8c3c
00000240: cf75 4e38 786a 87bd d950 4bbd c100 15bd
00000250: adce 513c 261b 913d 831e 183d 0c50 06bd
00000260: 82d0 07bd 6c9f f3bb 4315 06bc d86b eb3c
00000270: 7492 45bd c7dd 193d c2d2 523d a5e8 353d
00000280: 9f61 bf3c b030 78bd e327 453c 0621 b3ba
00000290: c2f9 403d 9bd0 fcbc f143 263d 9c75 a4bc
000002a0: 8dc0 38bd 7b19 76bd c3dd 7ebd f88d ac3d
000002b0: 9f1d 0abd d480 33bd 8c91 f53c 9b9e 76ba
000002c0: 582e b63d d26f e23c ebe7 933a 41fe 333a
000002d0: 5233 903d 5c85 3e3d 3214 7a3d 6cbe 30bc
000002e0: 726a e33c ad9b e3bc 1c82 453d 7327 a0bc
000002f0: c2f7 5d3d 756f b03b aa59 993d b304 b93c
00000300: 285a 30bb e451 8b3d 44b8 6cbc 93f2 4ebd
00000310: d78a cfbc 2533 97bc 3a75 26bc 0637 35bc
00000320: 4922 c63b 83ea 033d 7028 89bc 0b03 263d
00000330: cd5c 28bd 5075 703d 5cad 4bbd f34a 323c
00000340: 505d 2dbd 4c64 9f3d 8d75 353d 84bc 043b
00000350: 6a02 ec3c f4e8 2dbb b3ee 20bd add0 b03d
00000360: 315b 233b 8536 0abd 320f 79bc ba03 523d
00000370: a0fc 883d 50fb 3abd 1e99 083c 4caa 653d
00000380: 995f 6f3c c988 2a3c 47e8 adbc 30a7 ffbc
00000390: f84b 8abc c2a4 113d 43eb 2a3d b852 7ebd
000003a0: 2929 913d add9 243d d156 2fbd 6f0d f73c
000003b0: 8cbf db3b e82e 9e3d df41 f13c 7ab3 b7bc
000003c0: 545e 933d b0f6 4abc af26 293c e885 88bd
000003d0: b650 1fbd 8062 34bc cf14 d7bc 83b6 343d
000003e0: d45a b7bb e1bf 873d aac1 a4bc 8287 ccbc
000003f0: 2cfb 913d e6ae 703d 767c 813c ac21 053d
0.001095294 -0.016492503 -0.012747424 -0.050384 0.095900044 -0.054465614 0.0041941823 -0.027128788
0.029654836 0.022179067 -0.04318561 -0.018248923 -0.03968635 -0.072396606 0.032070473 -0.040216416
-0.040841095 0.017916976 -0.045439973 0.0039339056 0.022385173 0.031018337 0.035524677 -0.064816326
-0.026441203 0.038007904 0.046878487 0.05858497 -0.04386921 0.053171642 -0.014698777 -0.013076846
-0.033207275 0.053526375 -0.060191356 -0.0014002541 -0.031098558 0.09057032 0.023334187 0.021103233
0.010463251 0.00954361 0.017216211 -0.048424173 0.084464036 -0.026904056 0.054196037 0.03467976
0.0084498795 -0.05151609 0.07113048 0.07225033 0.0464198 -0.03357135 0.024378957 0.03180934
-0.06756318 0.05960285 -0.006946361 0.0053153983 -0.02178297 -0.013067355 0.059742216 -0.045852512
-0.027860548 0.05267571 -0.0004833802 -0.019362237 0.02652459 -0.022120902 0.07650297 -0.040986095
0.008096071 0.0033035513 -0.006174007 0.057164077 -0.010520577 -0.043297324 0.040930346 0.020482887
0.040031623 0.05287539 -0.0018319687 0.032172903 -0.0144817885 0.017434524 0.017759383 0.035035443
0.003113988 0.08577949 0.048465934 -0.020470535 0.021430627 0.0108574955 0.043672662 0.013491584
0.015788618 0.022075834 0.051836163 0.010289743 -0.06712253 0.047129285 -0.006295055 -0.043973695
-0.057813574 0.017686991 -0.021684183 -0.030819714 0.0468839 -0.0042357035 -0.00131195 -0.021236353
0.024904981 -0.029669937 0.04387475 0.030435747 0.01620072 0.026172915 0.05954349 -0.037592568
-0.002383974 0.08187767 0.076427676 -0.0013590192 0.06729636 -0.07961531 0.018641466 -0.023917466
-0.011423819 0.06754451 0.041833036 -0.027735393 0.05262919 0.014469157 0.04962156 0.0046267645
0.039514486 -0.031676985 0.020492123 -0.0060857525 0.04931087 -0.044496674 -0.0015264464 0.017174052
4.9223945e-05 -0.06612104 -0.04963765 -0.036377672 0.012805623 0.07085256 0.037138473 -0.032791182
-0.033157833 -0.007434776 -0.00818378 0.028737947 -0.04823537 0.03756502 0.051470526 0.04441132
0.023361979 -0.060593307 0.0120334355 -0.0013666458 0.047113188 -0.03086119 0.040592138 -0.020075612
-0.045105506 -0.060082894 -0.062223207 0.08425516 -0.033719655 -0.043824032 0.029976629 -0.00094077893
0.08895558 0.02764121 0.0011284327 0.0006866195 0.070410386 0.0465139 0.061054416 -0.010787588
0.027760718 -0.027784193 0.048219785 -0.01955006 0.05419136 0.0053843805 0.07487805 0.022585249
-0.0026909206 0.06802729 -0.014448229 -0.050524306 -0.025334759 -0.018457005 -0.010159785 -0.011060482
0.0060465676 0.03220607 -0.016742915 0.040530246 -0.041104127 0.058705628 -0.049725875 0.010882127
-0.042325318 0.07782802 0.04430156 0.0020253966 0.028809745 -0.0026536556 -0.03929014 0.08633552
0.002492618 -0.0337434 -0.015201377 0.051273085 0.066888094 -0.045649827 0.008337287 0.05607061
0.014610195 0.010408589 -0.021228923 -0.03120765 -0.016881928 0.035557516 0.04172827 -0.062090605
0.07087929 0.040246654 -0.042807404 0.030157773 0.006706184 0.077237904 0.029450355 -0.022424448
0.07195726 -0.012387916 0.010324164 -0.066661656 -0.03889533 -0.011009812 -0.02625504 0.04411937
-0.0055955444 0.06628395 -0.020111877 -0.024966959 0.07127985 0.058760546 0.015806418 0.032502815

weight f4 [60, 256]
00000000: 70b2 65bd c507 283d f10b c93d 1b9d 23bc
00000010: d2e9 f93b 157e 79bd 9c42 3fbd 3ff7 a73c
00000020: aec9 963c 3e8d 1c3d 5043 28bc 8fa0 f53c
00000030: f581 f93b 4d96 203d 57ca f83c a2fc ad3d
00000040: 1319 243c 0c8d 1b3d fa80 5f3d 97f7 b2bc
00000050: 877d 9dbc 1746 92bc e8d2 5fbc 0823 ddbc
00000060: 5696 54bc f25a 163d 7223 b6bc febc 32bd
00000070: fe9e 673d e638 423d 16b5 b3bc 2f2d dcbc
00000080: ff41 dbbc d837 193c d13e 3b3d f0cf 51bd
00000090: ad23 5cbd dc95 c9bc f996 cb3c 1e42 8a3d
000000a0: 4945 c0bb 98e3 8abc 5397 4ebc 29a7 4a3d
000000b0: 034c 8dbd 9db8 56bd f66f 78bb 0017 10bd
000000c0: 0a03 0bbd 52b0 2e3b ef15 80bd 8f6c 98bd
000000d0: d83c a4bd 2673 c83c b1a6 47bc 0415 c6bc
000000e0: 2519 c23c 9ea3 37bc da97 133c dd27 63bd
000000f0: 9e63 813d 8375 80bc c0ae 25bd a325 7a3d
00000100: a682 893d 5cdd 66bb 73e1 5f3d bba5 ff39
00000110: ae22 ffbc fbaf c3bb 2d37 f63c de05 84bd
00000120: 436e bebd 9df9 863d 44bc ec3c 969e e6bc
00000130: 37ee a3bc 2f97 bdbc 8c8c 8e3d fd00 1d3d
00000140: cf2b 1dbd 9bb8 85bb 1f2b 45bb d412 61bd
00000150: 3d7b 16bd d74c a83d 2735 b6bd c5b1 4c3d
00000160: 2b96 05bd ebde efbc 9e7a 92bd b85b 5ebd
00000170: 7909 643c e9cd 98bc 1af4 b33d 071e 0e3d
00000180: f850 7c3d 5d86 cf3c 10b5 723d 8e73 24bc
00000190: 5156 863d 72d8 fd3b cf49 153c 03e3 06bc
000001a0: 5136 9f3d e865 82bd 1458 e4bb 34ad 44bd
000001b0: c2a6 133c 30af 7e3d 47df 4f3c 2359 833d
000001c0: 1499 31bc 1223 833b 8913 263d f4f8 b5bc
000001d0: 7701 85bd 8ce2 89bd 3b8c 13be bc38 00bd
000001e0: ceca f5bc d69c 60bd a052 b3bc 8fef 9b3c
000001f0: 7cb6 4fbc cc8b 653d 25d3 ffbb d889 5b3d
00000200: 9b6b 113d 113f 743d 8de6 263d 1464 99bc
00000210: 7317 03bd ad79 22bb 31af 47bd 1987 4f3d
00000220: 8346 2a3c 9104 6b3d ab97 ecbb 615c ba3c
00000230: fd34 aebd 8c5e 343c 8b0e 1abd c9b8 0b3b
00000240: 862e 813d 22cc 49bd 786d 1d3b 54be e23c
00000250: 8c01 8dbc 9734 693d df5f 6dbd 90c8 f4bc
00000260: 8962 2c3d 0101 0dbd feb2 f9bc 6626 913c
00000270: a013 393d a895 003d 5de9 803d 6f7c 1c3b
00000280: b89a 35bd 3945 92bc 7c69 063d 34d6 64bd
00000290: 59fd e8ba 96ba 8e3d fc44 eebb deeb a83c
000002a0: 3dbd e93b 32ae 08bc 1a93 79bc 4c18 24bd
000002b0: abfa 1abd e7cd 903d 0033 55bd 4170 5f38
000002c0: 76a8 953d aa61 79bd 333f 5b3d 7c59 863d
000002d0: 0b23 e53c c4cb 4f3c f618 223d 7e3c e73c
000002e0: 4f6c dabb c6f0 7bbc 103e 53bd 8d79 803c
000002f0: 2a6a b3bc ec9c b5bc 4e33 a03c b466 0e3d
00000300: 3f59 30bd b96b 923d b870 04bd bbba 3a3d
00000310: f32b 7a3d a86c 3cbc a8cf ccbc 5bac f73c
00000320: 8049 6cbc e01b 04bd d4d2 75bd 8c60 1bbc
00000330: 9f99 a03d 3c35 b73c 023b 8b3d fae7 23bd
00000340: 89c9 4ebc efaa c1bd 5b96 acbb 62db c5bd
00000350: 6192 f7bb 8346 c5bb 7395 6fbd 4597 96bc
00000360: 9aff bcbc 0862 6bbd 3140 4f3d abaa bf3c
00000370: a2c9 b4bd e12a 523d d96c f43c 60ed 69bd
00000380: e895 4d3d 2c60 22bd 640d aa3c e23f 1fbd
00000390: 53a5 a63c 4aea 983d 862a 08bd 80be d5ba
000003a0: 5eb8 debb dda8 633d a12b c4bd 0c03 6b3d
000003b0: 380d 173d c800 c73c fdef ae3c 0d4b 0dbd
000003c0: 8228 af3c 05dc 393d abd0 70bd d598 cfbc
000003d0: 399d 2c3c 1269 ecbc 8fb4 823d a9ab 72bc
000003e0: e747 4f3d 814e 4e3d 59c0 47bc 123e ac3d
000003f0: b724 67bd 850a c9bc 3452 7f3d f4b5 93bc
-0.056078374 0.041023035 0.09816731 -0.009986187 0.0076267505 -0.060911257 -0.046694383 0.020503638
0.018406715 0.038220637 -0.010269955 0.029983787 0.007614369 0.039205838 0.03036992 0.084954515
0.010015744 0.03797631 0.05456636 -0.021846576 -0.019224895 -0.017855687 -0.013661124 -0.026994243
-0.012975296 0.036707826 -0.022233699 -0.04363727 0.05654811 0.047417544 -0.021936934 -0.026877014
-0.026764868 0.009351693 0.045714203 -0.051223695 -0.05374496 -0.024607591 0.024852263 0.06750892
-0.0058676344 -0.016954228 -0.012609321 0.049475823 -0.06899264 -0.052422155 -0.003790853 -0.035178185
-0.033938445 0.0026655388 -0.062541835 -0.07442581 -0.080194175 0.02446897 -0.012185738 -0.024179943
0.02369363 -0.011208443 0.009008372 -0.05545794 0.063178286 -0.015681034 -0.040449858 0.06107105
0.06714372 -0.0035227155 0.054658365 0.0004876087 -0.031144466 -0.0059719062 0.030055607 -0.064464316
-0.092983745 0.06590579 0.028898366 -0.028151792 -0.02001105 -0.023143379 0.06960401 0.03833102
-0.038371857 -0.0040808446 -0.0030085517 -0.054949597 -0.036738623 0.08217781 -0.08896857 0.04997422
-0.032613914 -0.0292811 -0.071522936 -0.05428669 0.013918274 -0.018652873 0.08786793 0.034696605
0.061600655 0.025332624 0.059254706 -0.010037316 0.06559432 0.0077467496 0.009111836 -0.008232835
0.07774032 -0.06367093 -0.0069685075 -0.048016742 0.009011926 0.06217879 0.012687511 0.06413486
-0.010839719 0.0040019834 0.040545974 -0.022213437 -0.0649442 -0.067326635 -0.14408962 -0.031304106
-0.030003931 -0.05483707 -0.021889985 0.019035129 -0.012677785 0.056041524 -0.007807153 0.053598255
0.03550301 0.059630457 0.040747214 -0.018724479 -0.032004785 -0.0024791763 -0.04875106 0.05066595
0.010392788 0.0573774 -0.0072202287 0.022749128 -0.085062005 0.01100887 -0.037611526 0.0021319857
0.06307702 -0.04926694 0.0024021547 0.027678646 -0.017212652 0.05693492 -0.057952758 -0.029880792
0.042086158 -0.034424786 -0.030480858 0.017718505 0.04518473 0.031392723 0.062945105 0.002387788
-0.044337004 -0.017855274 0.03281544 -0.055868343 -0.0017775699 0.06969182 -0.007271407 0.020620283
0.0071331547 -0.008342313 -0.015232826 -0.040062234 -0.03783671 0.07070523 -0.05205059 5.3271888e-05
0.07307522 -0.060884155 0.05352707 0.065600365 0.027970811 0.012682859 0.039574586 0.028227087
-0.0066657434 -0.015377229 -0.05157286 0.01568296 -0.021901209 -0.022169553 0.019555714 0.034765914
-0.04305386 0.07149453 -0.03233406 0.045588236 0.06107707 -0.011500515 -0.025001362 0.030233553
-0.014421821 -0.032253146 -0.060015514 -0.009483468 0.07841801 0.022364251 0.06798364 -0.040016152
-0.012621292 -0.09456431 -0.005266947 -0.096609846 -0.0075552915 -0.0060203685 -0.058492135 -0.018382678
-0.0230711 -0.057466537 0.050598327 0.02339681 -0.08827521 0.051310424 0.029837059 -0.057111144
0.05019179 -0.039642498 0.020758338 -0.038879283 0.020342505 0.07466562 -0.03324368 -0.0016307384
-0.0067968806 0.055580962 -0.09578634 0.057375953 0.03687784 0.024292365 0.02135467 -0.034495402
0.02138162 0.045375843 -0.05879275 -0.02534143 0.010535532 -0.028858695 0.06382095 -0.014811435
0.05060568 0.050367836 -0.012191855 0.084102765 -0.0564315 -0.024541149 0.062334254 -0.018031098

bias f4 [60]
00000000: e8f3 72bd 3470 08bd 847d 363d f5ed 323c
00000010: b1b9 273d f2c6 953d d1bb 333d fef1 3f3d
00000020: 4fd5 0abd d6eb 12bd 0c95 693d d3fa 80bc
00000030: 6e28 833d 30a3 01bd 733a f73c 3101 203d
00000040: c08a 6e3d 9f77 f23c 3fad aa3c 35f9 e0bb
00000050: 4f13 8bbc b4c3 97bc d251 00bd b699 9d3b
00000060: 9785 68bc 0035 003d ed8e a23d 89a8 94bc
00000070: b180 67bd dc7a cdbc b907 86bc 687a ccba
00000080: cbf4 8f36 e49a de3c e810 5c3c 9314 963c
00000090: 4f88 d5bc e247 2d3c 24bf 043d d52e b73c
000000a0: 6302 663c e514 acbd 9c1a 2d3d d765 8ebc
000000b0: 7f3c 48bd 5fc8 8fbb 78bd 4bbc aa7a 4dbd
000000c0: e94a 813c 6da3 053c 8e30 4f3d e1c2 073d
000000d0: 4a05 14bc a0c3 d7bb 1530 b63d 2733 7f3c
000000e0: 336e af3d 4288 08bd b74c 423c 1657 b9bc
-0.05931464 -0.03331013 0.044553295 0.010920991 0.040948573 0.073133364 0.043880288 0.04686164
-0.033894833 -0.035869442 0.057026908 -0.015744602 0.06404196 -0.03164977 0.030179238 0.039063636
0.05823779 0.029598055 0.020834563 -0.0068656453 -0.01697698 -0.018525936 -0.03132803 0.0048095835
-0.014192007 0.031300545 0.07937417 -0.01814677 -0.056519214 -0.025082998 -0.016361104 -0.0015600445
4.2902298e-06 0.027173467 0.013431765 0.018320357 -0.026065974 0.01057622 0.03240885 0.022361198
0.014038655 -0.08402423 0.042261705 -0.017382545 -0.04888582 -0.0043879 -0.01243531 -0.05016581
0.01578279 0.0081566395 0.050583415 0.033144835 -0.009034464 -0.0065845996 0.0889589 0.0155761605
0.08565941 -0.03333307 0.011859111 -0.022624534
