data/example_dynamics_data/models/kitchen/MLP_q_no.pth (torch, 664463 bytes, 8 tensors)

weight f4 [256, 70]
0	0x3e2510b1	0.16119649
1	0x3d33c6e4	0.04389085
2	0xbe2975a4	-0.16548783
3	0xbd2a6778	-0.04160258
4	0x3adae3a1	0.0016699919
5	0xbd2e4774	-0.04254861
6	0xbc89092e	-0.01672801
7	0xbc6ff2ef	-0.014645322
8	0x3e30b3d9	0.17256106
9	0x3f664f73	0.8996498
10	0xbe606363	-0.21912913
11	0x3c1a761a	0.009427572
12	0xbe16a662	-0.14711908
13	0x3eca338d	0.39492455
14	0xbea799fa	-0.32734662
15	0xbd90ab03	-0.07063868
16	0xbe7c2bbc	-0.24626058
17	0xbdaa5ee4	-0.0831888
18	0xbde59d96	-0.11211698
19	0x3e906bf4	0.28207362
20	0x3d253b1b	0.04033957
21	0x3d224008	0.039611846
22	0xbd824678	-0.06361097
23	0x3b497f9e	0.0030746232
24	0x3e1dd74f	0.15414165
25	0xbcbf45bc	-0.023348682
26	0x3d97ca0f	0.074115865
27	0x3d8e6cd2	0.069543496
28	0xbbff775c	-0.007796211
29	0x3cfa5ab8	0.030560836
30	0x3caf8277	0.021424515
31	0xbbd91875	-0.00662523
32	0xbded7588	-0.11594683
33	0x3dbc43c2	0.09192611
34	0x3db7912f	0.089632384
35	0xbd526c26	-0.05137267
36	0x3d6de443	0.058079015
37	0x3d50fd64	0.051022902
38	0x3c7688e9	0.01504729
39	0x3dc715b1	0.09720934
40	0xbda944a6	-0.08265047
41	0xbe1382ec	-0.14405411
42	0x3d67dee3	0.056609046
43	0x3d465ae2	0.048426516
44	0xbd50dde2	-0.050992854
45	0x3d61484e	0.055000596
46	0x3dd489ec	0.10377869
47	0x3d82d613	0.06388488
48	0xbe16de85	-0.14733322
49	0xbd1bed01	-0.03806782
50	0x3dd83a10	0.105579495
51	0x3dee7fd4	0.11645475
52	0xbe1e4419	-0.15455665
53	0xbe08dfe8	-0.13366663
54	0x3d4f7e1d	0.05065738
55	0x3de138d3	0.109971665
56	0x3d46a57b	0.04849766
57	0x3ccab432	0.024744127
58	0xbd22e6db	-0.039770942
59	0xbddc48e6	-0.10756092
60	0xbc6c609b	-0.014427329
61	0xbca44f25	-0.02005727
62	0xbd4434e2	-0.047901995
63	0xbec60585	-0.38676086
64	0xbc9aacf0	-0.018881291
65	0x3dab651c	0.083688945
66	0x3c410192	0.01178016
67	0xbca0dd18	-0.019636676
68	0xba176c47	-0.00057763275
69	0x3d8dd24c	0.069248766
70	0xbd802ff3	-0.062591456
71	0xbd1374ad	-0.035999943
72	0xbcc5c651	-0.024142416
73	0xbc3505ff	-0.011048793
74	0x3e3633c2	0.17793182
75	0x3bb66182	0.005565823
76	0x3c831edb	0.016005924
77	0x3d18c6c8	0.037298948
78	0x3df3fd28	0.1191352
79	0x3f058e91	0.52170664
80	0xbe43e305	-0.1912957
81	0x3c6f39c0	0.014601171
82	0xbdd73847	-0.10508781
83	0x3d93728f	0.07199585
84	0xbf1e712f	-0.61891454
85	0xbd37aa09	-0.044839893
86	0xbe1de328	-0.15418684
87	0x3c879cb6	0.016554218
88	0xbc0ca4e8	-0.008584239
89	0x3d37ef81	0.044906143
90	0xbd2003b6	-0.03906604
91	0xbce0bcfd	-0.027433867
92	0x3d3f7c9e	0.046749704
93	0xbda19cd0	-0.07891238
94	0xbd5877da	-0.052848674
95	0xbdc01ade	-0.093801245
96	0x3c6e08f6	0.014528504
97	0x3e22020f	0.15821098
98	0xbd7ba809	-0.061439548
99	0x3df33cde	0.11876844
100	0x3dd2ef86	0.10299592
101	0x3ddd79b7	0.10814231
102	0xbcb8626b	-0.022507867
103	0xbd0667de	-0.0328139
104	0x3d8925d1	0.06696666
105	0x3dab6c5d	0.08370278
106	0xbb8a6fb9	-0.004224744
107	0xbc28f92d	-0.010313314
108	0x3d90e67b	0.07075211
109	0x3d3efd0a	0.046628036
110	0x3ddc03dd	0.10742924
111	0x3df273dc	0.11838505
112	0x3d01afc3	0.03166176
113	0xbd388418	-0.04504785
114	0x3dafaf6e	0.085783824
115	0x3dc742e1	0.09729553
116	0xbd8899f8	-0.06669992
117	0xbdcf4afd	-0.10121725
118	0xbcba4ebd	-0.022742623
119	0xbd874387	-0.06604677
120	0x3d95b56b	0.07309993
121	0x3d1f9fb7	0.038970675
122	0xbdc05133	-0.093904875
123	0x3d9ddb82	0.077078834
124	0xbd8ce649	-0.06879861
125	0x3dc7672e	0.09736477
126	0xbdf78439	-0.12085766
127	0xbd8e0f2f	-0.0693649
128	0xb9279231	-0.00015980822
129	0x3df93819	0.12168903
130	0x3cb99791	0.02265528
131	0x3e013c05	0.12620552
132	0x3ce3e612	0.027819667
133	0xbe0281fc	-0.12744898
134	0xbcfe3fdd	-0.031036312
135	0xbca16748	-0.019702569
136	0xbcde141e	-0.027109202
137	0xbd60bec5	-0.054869432
138	0x3aedcd48	0.0018142844
139	0x3d09e7d3	0.03366835
140	0x3e2aac84	0.16667372
141	0x3e1dec33	0.15422134
142	0x3d7f4d7b	0.06232975
143	0xbd2c4a22	-0.042062886
144	0x3e64f531	0.22359158
145	0xbd8f2130	-0.06988752
146	0x3db65b06	0.0890408
147	0x3d72dfb7	0.059295382
148	0xbcb4c1b5	-0.022065023
149	0xbecc5469	-0.3990815
150	0xbcdb3d41	-0.026762607
151	0xbdcbafa2	-0.09945609
152	0x3d0b2c81	0.03397799
153	0x3e7f5888	0.24936116
154	0x3ea69df9	0.325424
155	0x3a891f87	0.0010461666
156	0xbd5626f9	-0.05228326
157	0x3d75bf20	0.059996724
158	0x3d9e2f1b	0.077238284
159	0x3e762599	0.2403778
160	0x3e974703	0.29546365
161	0xbf0d9ab7	-0.553142
162	0x3d9b41d0	0.07580912
163	0x3dad12cd	0.084508516
164	0xbd78ee57	-0.060774174
165	0x3d974cf3	0.07387724
166	0x3bb9bfcc	0.005668616
167	0xbe3e00a6	-0.18554935
168	0xbed3d839	-0.41375902
169	0xbd2753b0	-0.040851295
170	0xbdeca499	-0.11554832
171	0xbba41187	-0.0050069722
172	0x3cba33cf	0.022729782
173	0x3cb1a8fd	0.021687025
174	0xbdd56983	-0.104205154
175	0x3c37716e	0.011196477
176	0xbd6eb975	-0.058282334
177	0xbceb1f0e	-0.028701331
178	0x3de33af5	0.110952295
179	0xbd7b064a	-0.061285295
180	0xbdacd516	-0.084390804
181	0xbd45a907	-0.0482569
182	0xbd64ae1f	-0.055830117
183	0x3d96f1ec	0.07370362
184	0x3d9f1d16	0.077692196
185	0x3dcd827a	0.10034652
186	0x3d83bc57	0.06432407
187	0x3d5a4812	0.053291388
188	0xbbbdb2e4	-0.0057891477
189	0xbbcdfcc5	-0.006286236
190	0xbded3b84	-0.11583617
191	0xbc57752c	-0.013150495
192	0xbd7b9f71	-0.061431352
193	0x3d3fb17a	0.046800114
194	0xbccbd834	-0.024883367
195	0xbcf394c4	-0.029734023
196	0x3dd29962	0.10283162
197	0x3dda4880	0.106583595
198	0x3de52c02	0.111900344
199	0x3dc6c5f9	0.09705729
200	0xbcc5a1e6	-0.02412505
201	0xbcc6bcf8	-0.02426003
202	0x3d89ddca	0.06731756
203	0xbca1dabc	-0.019757621
204	0xbc82772d	-0.015925968
205	0xbce493e3	-0.02790255
206	0xbe0c79a7	-0.13718282
207	0xbc7abad3	-0.015303331
208	0xbc7b0a36	-0.015322259
209	0x3d8f9128	0.07010108
210	0xbdfbba56	-0.122914
211	0x3e103f16	0.14086565
212	0x3e37a11b	0.1793255
213	0x3cf30c3f	0.029668925
214	0x3e3cc167	0.18433152
215	0xbd85c530	-0.06531751
216	0x3b944018	0.004524242
217	0xbd8c32bf	-0.068456165
218	0x3de723c1	0.112861164
219	0x3c01e351	0.007927732
220	0xbeb7b64c	-0.3588127
221	0xbc377ee3	-0.011199686
222	0x3d69d05b	0.05708347
223	0xbe418b03	-0.18900685
224	0x3d34f492	0.044178553
225	0x3d12be8f	0.035826262
226	0xbd1a8928	-0.03772846
227	0xbe19eed8	-0.15032518
228	0xbe539726	-0.20663127
229	0x3ee6a31b	0.45046315
230	0xbf1d001c	-0.6132829
231	0x3dd85a5c	0.1056411
232	0xbd8769fb	-0.06612011
233	0x3db8db67	0.09026223
234	0xbd884c94	-0.06655231
235	0x3da216ff	0.079145424
236	0xbdbd9fb4	-0.092589766
237	0xbdab2e47	-0.08358436
238	0x3e8714ce	0.2638306
239	0xbbb7e43d	-0.005611925
240	0x3dda0432	0.106453314
241	0xbd1ac311	-0.037783686
242	0x3db3e3ef	0.08783709
243	0x3ddfbae6	0.1092432
244	0xbdb9c780	-0.09071255
245	0x3beb51ad	0.0071813674
246	0xbdf4692e	-0.11934124
247	0xbda894c1	-0.082314976
248	0x3d37ecb0	0.044903457
249	0xbd086418	-0.03329858
250	0xbdf42b00	-0.11922264
251	0xbc8e1507	-0.017344011
252	0x3cd7207a	0.026260603
253	0xbd427d6e	-0.0474829
254	0xbd97c29d	-0.074101664
255	0xbbf48857	-0.007462542

bias f4 [256]
0	0xbca94041	-0.020660521
1	0x3cc8e42e	0.024522867
2	0x3dba4fa7	0.09097224
3	0xbd1c8a72	-0.03821797
4	0x3df85e15	0.1212732
5	0xbc4d7a37	-0.012541345
6	0x3d2b4cfe	0.041821472
7	0x3d5128ec	0.051064417
8	0xbd736790	-0.059424937
9	0xbdb0cfda	-0.086333945
10	0xbcd15c45	-0.025556693
11	0x3d46006e	0.048340254
12	0xbdef3b52	-0.11681236
13	0xbca9ff0d	-0.0207515
14	0xbd303ae4	-0.043024912
15	0x3c70297a	0.014658326
16	0x3d18e4d6	0.03732761
17	0xbe1eda76	-0.15513024
18	0x3c2e87f1	0.010652528
19	0x3e051b1d	0.12998624
20	0x3dd162c3	0.102239154
21	0x3cc55468	0.0240881
22	0xbde70e12	-0.112819806
23	0xbdc46c4d	-0.09590969
24	0xbda2dc9c	-0.07952234
25	0x3b0ab1da	0.0021163137
26	0x3db8354d	0.08994541
27	0xbcb9a28a	-0.022660512
28	0x3c0119d0	0.007879689
29	0xbdf04e8f	-0.11733734
30	0x3e209f13	0.15685682
31	0xbbdc7753	-0.0067280917
32	0x3b99c583	0.0046927347
33	0xbd86dcbf	-0.06585073
34	0x3de9acae	0.11409889
35	0xbd03c5f8	-0.03217122
36	0x3d89e059	0.06732244
37	0x3d53436c	0.05157797
38	0xbd3968b3	-0.045265865
39	0x38ed51ad	0.00011316254
40	0xbd4282dd	-0.047488082
41	0xbdcf1125	-0.10110692
42	0xbda0df31	-0.078550704
43	0x3df21d50	0.11821997
44	0x3b912d0c	0.004430419
45	0xbd32b2aa	-0.04362742
46	0xbd96da37	-0.0736584
47	0x3dee5bee	0.11638628
48	0x3d362a7b	0.044474106
49	0xbdca3e20	-0.09875131
50	0xbd87a416	-0.06623094
51	0x3d902f76	0.070403025
52	0xbde4cb14	-0.111715466
53	0xbd48c124	-0.04901232
54	0x3bd744b1	0.006569468
55	0xbc54e39d	-0.01299372
56	0x3cd00bb6	0.02539621
57	0x3c8088fc	0.01569032
58	0xbdb57a55	-0.088612236
59	0x3db6b1e4	0.08920649
60	0xbd0435a5	-0.032277722
61	0x3e123d6f	0.14281248
62	0xbc60df4c	-0.013725113
63	0x3de7e98f	0.11323845
64	0xbd5ac68f	-0.053412016
65	0xbd7182cb	-0.058962625
66	0x3cfd7901	0.030941488
67	0xbd2c14aa	-0.042011894
68	0xbdc80d8b	-0.09768208
69	0x3d9ce66a	0.076611355
70	0x3d43d3ac	0.047809288
71	0xbdadf063	-0.08493116
72	0x3cfb7fdf	0.030700622
73	0xbdcc306e	-0.09970175
74	0xbda11605	-0.07865528
75	0x3dcb59ed	0.09929261
76	0x3d2b500c	0.041824386
77	0xbdbf4d44	-0.09340909
78	0xbd7a92bb	-0.06117509
79	0xbe07affe	-0.1325073
80	0xbdba0b28	-0.09084159
81	0xbd45a03d	-0.04824852
82	0x3d1d2e08	0.038373977
83	0x3d5e2365	0.054232974
84	0x3db370ca	0.08761747
85	0x3ca3c2e1	0.019990386
86	0xbdb17b2c	-0.08666071
87	0x3d847d09	0.06469161
88	0xbd6ea585	-0.05826332
89	0x3da75bdf	0.0817182
90	0xbe06afce	-0.13153002
91	0x3db5dc7e	0.08879946
92	0xbde216f4	-0.11039534
93	0xbc383372	-0.011242734
94	0xbc98220d	-0.018570924
95	0xba94107e	-0.0011296419
96	0xbd815760	-0.063154936
97	0x3d7620fd	0.060090054
98	0x3e075033	0.13214187
99	0xbce9be77	-0.028533204
100	0x3db3b239	0.08774228
101	0xbc40d608	-0.011769779
102	0x3d8fcc49	0.07021386
103	0x3d801230	0.06253469
104	0xbd34b7e0	-0.04412067
105	0x3dc0d5dc	0.094157904
106	0x3c8049cd	0.015660191
107	0xbda16ad3	-0.07881703
108	0x3dc15bf5	0.094413675
109	0x3d87071a	0.065931514
110	0x3df7754d	0.1208292
111	0xbcffd96f	-0.03123161
112	0x3e0fe37b	0.1405162
113	0x3d45f013	0.048324656
114	0x3c995265	0.018716047
115	0x3d5ef8f2	0.05443663
116	0xbd864235	-0.06555597
117	0xbdc758f9	-0.09733767
118	0xbb0c476b	-0.0021404873
119	0x3d06fb83	0.032954704
120	0xbd3d81d7	-0.046266403
121	0x3d3b0b2a	0.045664944
122	0x3c30fe36	0.010802796
123	0xbc19dde5	-0.009391283
124	0x3d117852	0.035515137
125	0x3c3b24d9	0.011422359
126	0x3de2c6c9	0.110730715
127	0xbd89b4a9	-0.06723911
128	0x3d221e24	0.039579526
129	0xbe021bb2	-0.12705877
130	0x3d581537	0.052754607
131	0x3da73c54	0.081658036
132	0x3dfc3778	0.12315267
133	0x3db53d2a	0.08849557
134	0xbc2ea720	-0.010659963
135	0xbcd13196	-0.02553634
136	0xbda96c68	-0.0827263
137	0xbdc9fffd	-0.09863279
138	0xbd0b6d3a	-0.034039713
139	0x3b95260f	0.004551656
140	0x3c0a49de	0.008440463
141	0xbd9ea6de	-0.07746671
142	0xbdc2b56f	-0.09507262
143	0xbdfa50b1	-0.12222422
144	0x3e1717cc	0.14755172
145	0x3cb6b8c2	0.022304896
146	0xbde9193f	-0.113817684
147	0xbd6e36e1	-0.058157805
148	0x3dd16fb7	0.10226386
149	0x3df33daa	0.11876996
150	0xbc8c24bf	-0.017107366
151	0xbb32ca59	-0.0027281253
152	0xbd7ad0c3	-0.061234247
153	0xbe05d716	-0.1307033
154	0x3de9d974	0.11418429
155	0xbdfa79b1	-0.12230242
156	0x3d7a68e7	0.0611352
157	0x3d2462ae	0.04013317
158	0x3daaae75	0.08334056
159	0x3c3aaa39	0.011393123
160	0x3db9bde8	0.09069425
161	0x3c76aab6	0.015055349
162	0xbdefa7f8	-0.11701959
163	0x3dd0cfec	0.10195908
164	0x3cab9391	0.020944389
165	0xbcc3cc63	-0.02390117
166	0xbd107d93	-0.035276007
167	0xbbd956af	-0.006632648
168	0x3b242eb5	0.0025052254
169	0xbd60aaa4	-0.054850236
170	0x3d20f5e1	0.03929699
171	0xbc3ed1af	-0.011646672
172	0xbddc9620	-0.107708216
173	0x3cb57f50	0.022155434
174	0xbcf36426	-0.02971084
175	0x3df14ea1	0.117825754
176	0x3d33baf3	0.04387946
177	0xbdb3040f	-0.087410085
178	0x3db1ae72	0.08675851
179	0xbdd2b164	-0.10287741
180	0xbdccd033	-0.10000648
181	0xbd3e5c84	-0.04647495
182	0x3e0063fa	0.12538138
183	0xbd2a09c8	-0.041513234
184	0x3cdcd737	0.026958091
185	0x3dc102b5	0.094243445
186	0x3d85631b	0.065130435
187	0x3d0700b3	0.03295965
188	0xbdcae3c0	-0.09906721
189	0xbd39db2f	-0.045375045
190	0xbd4bebdb	-0.049785476
191	0x3d8484de	0.06470655
192	0xbd46192e	-0.048363857
193	0x3dfae484	0.12250617
194	0x3d27df42	0.0409844
195	0xbd8525c6	-0.06501345
196	0x3d0649fe	0.03278541
197	0x3cf74ecd	0.030188942
198	0xbde624ce	-0.11237489
199	0xbdd5ab50	-0.10433066
200	0x3d405d24	0.046963826
201	0xbd324a52	-0.04352791
202	0xbd9d186d	-0.076706745
203	0x3d0a57cf	0.033775147
204	0xbb92fa7a	-0.0044854255
205	0xbb484916	-0.003056114
206	0x3d2f2abf	0.042765375
207	0xbdd6d410	-0.104896665
208	0x3d25d9d2	0.040490933
209	0xbd724c04	-0.059154525
210	0x3ce73d7b	0.028227558
211	0xbe216e93	-0.15764837
212	0xbdb1a9f4	-0.08674994
213	0xbd492584	-0.049108043
214	0x3da75313	0.08170142
215	0x3d4f7a56	0.050653778
216	0xbdeeb2e6	-0.11655216
217	0x3bc9448d	0.006142205
218	0xbb8d3612	-0.004309424
219	0x3e0b8082	0.1362324
220	0x3ddbbcd7	0.10729378
221	0xbdb613d8	-0.08890504
222	0x3d70387a	0.05864761
223	0xbc3994f3	-0.011327016
224	0xbd5d9bff	-0.054103848
225	0x3d900416	0.07032029
226	0x3dfab506	0.12241559
227	0x3d955cab	0.07293066
228	0x3dc571e7	0.09640866
229	0xbb633ea1	-0.003467478
230	0x3cc729a7	0.024311854
231	0xbdb7577a	-0.08952232
232	0xbba4c2a6	-0.0050280867
233	0x3c170383	0.009217146
234	0x3dcee14b	0.10101565
235	0xbcc950b6	-0.024574619
236	0xbd419d6c	-0.04726927
237	0xbdf26ad2	-0.118367806
238	0x3d06062f	0.03272074
239	0x3cb358af	0.021892874
240	0x3cc22834	0.023700811
241	0x3bbdfbd2	0.0057978416
242	0xbccbb75a	-0.024867702
243	0xbdabc0e0	-0.08386397
244	0xbd330c5c	-0.04371296
245	0x3dd1b04e	0.102387056
246	0xbd00f8bd	-0.031487215
247	0x3de02ff0	0.10946643
248	0xbdb3d8c7	-0.08781581
249	0x3ddc2649	0.1074949
250	0x3de58d2a	0.112085655
251	0x3d748567	0.059697535
252	0x3dda65e2	0.10663964
253	0x3ccc5de5	0.024947116
254	0x3d8f6da4	0.07003334
255	0x3bb6383f	0.0055609043

weight f4 [256, 256]
0	0x3d8aaef4	0.06771651
1	0x3d214f46	0.03938224
2	0x3d6fd907	0.058556583
3	0xbd80aac2	-0.062825695
4	0x3c5831a4	0.013195429
5	0xbdb1f1b3	-0.086886786
6	0xbd60a451	-0.054844204
7	0x3cdcf549	0.02697243
8	0x3ca07c18	0.019590423
9	0x3be4afe9	0.006978978
10	0xbbd2695a	-0.0064212503
11	0xbd38d80d	-0.045127917
12	0xbd812390	-0.06305611
13	0xbd583f57	-0.05279478
14	0x3c91b887	0.017788185
15	0x3ca78653	0.020449793
16	0xbce15915	-0.027508298
17	0x3e414e09	0.18877424
18	0x3d222674	0.039587453
19	0x3caf867a	0.021426428
20	0xbd12a3c8	-0.035800725
21	0x3d8a42c6	0.06751017
22	0x3d9f62cd	0.07782517
23	0x3c10f31f	0.008847027
24	0x3d5b1cb0	0.053494155
25	0x3da82d47	0.08211761
26	0x3d221051	0.03956634
27	0x3c5c2f29	0.013438978
28	0x3c8ca2ae	0.017167415
29	0xbcb80b84	-0.022466429
30	0x3c25e557	0.01012548
31	0x3d9d2745	0.07673506
32	0xbd0ce16a	-0.03439466
33	0x3b7434c8	0.0037262905
34	0x3c5862f7	0.013207189
35	0xbd4d56de	-0.05013167
36	0xbd31bec6	-0.043394826
37	0x3d70e82f	0.058815178
38	0x3d30d9f4	0.043176606
39	0xbd336294	-0.043795183
40	0x3cae9e45	0.021315703
41	0xbda7f163	-0.08200338
42	0xba353d14	-0.00069137034
43	0x3b4c2b8f	0.0031153893
44	0xbc9b2398	-0.01893787
45	0x3cb00584	0.021487005
46	0xbd553dc2	-0.05206085
47	0xbc0443be	-0.008072792
48	0x3d6473f7	0.055774655
49	0xbca92831	-0.020649048
50	0xbd4a5ddb	-0.049405914
51	0xbc335601	-0.010945798
52	0xbcf6c7e6	-0.030124616
53	0xbbfa3525	-0.00763573
54	0xbd005014	-0.03132637
55	0x3bdf540f	0.0068154405
56	0x3d49c7de	0.049262874
57	0x3c82d896	0.015972417
58	0xbd1c7f60	-0.03820741
59	0xbd060097	-0.032715406
60	0x3d7bb8b0	0.06145543
61	0x3a8604fb	0.0010224873
62	0x3dd92068	0.10601884
63	0x3cd1de39	0.02561866
64	0xbd01f451	-0.03172714
65	0xbd37e113	-0.044892382
66	0x3cf08fef	0.029365508
67	0xbb9e1b78	-0.004825052
68	0xbc74ee27	-0.014949358
69	0xbc6fefde	-0.014644591
70	0xbc8e367a	-0.01735996
71	0x3d57597b	0.05257557
72	0xbc2361f7	-0.009972087
73	0x3cd7121d	0.026253754
74	0xbc34c4ba	-0.011033231
75	0xbcc59a96	-0.024121564
76	0xbe03029b	-0.12793963
77	0x3c9d2527	0.019182755
78	0x3c83c2a0	0.016084015
79	0x3e073f1c	0.13207668
80	0xbd19cecb	-0.03755073
81	0xbcffb0cb	-0.031212231
82	0x3d4a8710	0.049445212
83	0x3cd36e62	0.02580947
84	0xbcb5a07b	-0.02217125
85	0x3c9b2efd	0.018943304
86	0xbc84ab03	-0.016194826
87	0x3d39a3f8	0.04532239
88	0xbca47a79	-0.02007793
89	0x3caa1f89	0.02076699
90	0x3d1a2c54	0.03763993
91	0x3d9645b1	0.07337511
92	0x3d57e87c	0.05271195
93	0xbd0f6fb1	-0.035018627
94	0xbc985a85	-0.01859785
95	0x3bcc6b70	0.0062383935
96	0xbd802ada	-0.06258173
97	0xbcc0fb61	-0.023557367
98	0xbdcc08e4	-0.09962633
99	0x3e2d28dd	0.1691012
100	0x3d80a89a	0.06282158
101	0xbcd087f6	-0.025455456
102	0xbcd294a4	-0.025705643
103	0x3d13aaea	0.03605167
104	0x3d80a9d4	0.06282392
105	0xbd883995	-0.06651608
106	0x3da33188	0.07968432
107	0x3c4b429b	0.012406017
108	0x3d9686a2	0.07349898
109	0x3c60d923	0.013723644
110	0xbc2638e1	-0.010145397
111	0xbde3804a	-0.111084536
112	0x3d3333e0	0.043750644
113	0x3c48b605	0.012250428
114	0x3c150537	0.009095482
115	0xbc3fa1d1	-0.011696295
116	0x3d167194	0.03672941
117	0xbd63535f	-0.05549943
118	0x3a9ea8d0	0.0012104753
119	0x3d8ec782	0.06971647
120	0xbd358e3b	-0.044325095
121	0xbdf63588	-0.12021929
122	0xbce8e83f	-0.028431056
123	0xbc988325	-0.018617222
124	0xbd304423	-0.04303373
125	0x3be5f76c	0.0070180204
126	0x3cf5bc83	0.029997116
127	0x3b81b32e	0.0039581275
128	0x3c5512ac	0.01300494
129	0xbc8a3ea0	-0.016875565
130	0x3d826e9f	0.063687555
131	0x3bc6ca8d	0.0060666264
132	0xbcd4fbdf	-0.025999008
133	0xbcb357d1	-0.02189246
134	0xbda35d5e	-0.07976793
135	0x3857ecad	5.1480416e-05
136	0x3c89cb99	0.016820716
137	0x3ca98991	0.02069548
138	0xbc779768	-0.015111782
139	0xbca5cf7c	-0.020240538
140	0x3c2a87e1	0.010408373
141	0xbd7a43d3	-0.06109984
142	0xbd93273b	-0.07185217
143	0xbb8c7ba6	-0.004287201
144	0x3d371292	0.044695444
145	0xbd2f3725	-0.0427772
146	0xbd0bc753	-0.034125637
147	0x3d21681e	0.039405935
148	0xbd7495d1	-0.05971319
149	0x3d987be6	0.07445507
150	0xbcdba523	-0.026812142
151	0x3ce8d42b	0.028421482
152	0x3c90001e	0.01757818
153	0x3db77038	0.08956951
154	0x3d75c362	0.060000785
155	0xbd40ad38	-0.047040194
156	0xbc859feb	-0.016311606
157	0x3c9ed53f	0.019388793
158	0x3d37c9c9	0.04487017
159	0x3c885130	0.016640276
160	0xbd86e5b0	-0.06586778
161	0xbcc4705f	-0.023979364
162	0xbd7f86c3	-0.06238438
163	0x3e12d891	0.14340426
164	0xbcf79417	-0.030221982
165	0xbca88d5f	-0.020575223
166	0xbcb0d05d	-0.02158373
167	0xbd8a94f8	-0.06766695
168	0xbd40b2b2	-0.047045417
169	0xbb15ad2b	-0.0022838812
170	0xbd81bd8e	-0.06334983
171	0x3c5cd750	0.013479069
172	0xbc45eeff	-0.012080907
173	0x3d3f9c78	0.04678008
174	0x3c6f8569	0.01461921
175	0xbdc2ce21	-0.09511972
176	0x3ae95634	0.001780218
177	0xbd2e45ae	-0.04254692
178	0x3ccb416d	0.02481147
179	0xbd4581e0	-0.04821956
180	0xbcd4ab46	-0.025960576
181	0x38b063f9	8.410955e-05
182	0xbcdffe83	-0.02734304
183	0xbd88437b	-0.06653496
184	0x3d712ef1	0.058882657
185	0x3b5529ed	0.003252621
186	0xbd53aecd	-0.051680375
187	0xbccb23ed	-0.024797404
188	0x3c30261e	0.010751275
189	0xbcac4416	-0.02102856
190	0x3ccc3452	0.024927292
191	0x3cd3957c	0.025828116
192	0x3dd099f0	0.10185611
193	0xbbd495a3	-0.0064875646
194	0x3b2e563b	0.002660169
195	0xbd4d204b	-0.050079625
196	0x3a967bfd	0.0011481043
197	0xbd2c6176	-0.042085133
198	0x3d3103ff	0.0432167
199	0xbcb3fe94	-0.021971978
200	0xbbea2dd5	-0.007146577
201	0xbd945f26	-0.072447106
202	0xbd42fd54	-0.047604874
203	0x3d4539e4	0.048150912
204	0xbda3f011	-0.080047734
205	0xbbc02ebf	-0.0058649476
206	0x3c90cf05	0.01767684
207	0xbd26c3de	-0.040714137
208	0x3a1a82f3	0.0005894147
209	0x3c88e4e3	0.016710704
210	0x3c574fdf	0.013141601
211	0x3dc39c96	0.09551351
212	0x3c19d7d8	0.00938984
213	0x3c7acafd	0.015307185
214	0xbb901fce	-0.0043983227
215	0x3d80cda9	0.062892266
216	0xbc42d673	-0.011891949
217	0xbdadcb84	-0.08486083
218	0x3d887aea	0.06664069
219	0xbd263ee2	-0.040587313
220	0xbc0e808e	-0.008697642
221	0x3d4a8f1f	0.049452897
222	0x3dc374a7	0.09543734
223	0x3c6dde8c	0.014518391
224	0x3d53c8da	0.05170522
225	0x3db6509c	0.08902094
226	0xbc1b36d9	-0.009473526
227	0xbc9e137a	-0.019296397
228	0x3d8c8acb	0.0686241
229	0xbc9dd1d0	-0.019265085
230	0xbd1bb837	-0.038017478
231	0x3bf1aa0a	0.0073750066
232	0xbd921790	-0.071334004
233	0x3c0f04f5	0.008729209
234	0x3c558303	0.013031724
235	0xbc731fa0	-0.014839083
236	0xbd3639ae	-0.0444886
237	0x3c5be619	0.013421559
238	0xbd062090	-0.032745898
239	0xbd9553ec	-0.072913975
240	0x3d8575b7	0.06516593
241	0x3d551d6b	0.05203001
242	0x3e17b4d2	0.14815071
243	0xbd4d52b8	-0.050127715
244	0x3d1332c7	0.035937097
245	0xbc815796	-0.015788835
246	0xbd8b347f	-0.06797122
247	0xbd19728f	-0.037462767
248	0xbd7dc3fa	-0.061954476
249	0x3c84f3df	0.016229568
250	0xbd79368e	-0.060843043
251	0xbc1e3b6a	-0.00965772
252	0x3d16d9c5	0.036828775
253	0xbd18aedd	-0.037276138
254	0x3d870486	0.0659266
255	0xbc94dd77	-0.018172009

bias f4 [256]
0	0x3ac4f663	0.0015027042
1	0x3d2952f1	0.041338865
2	0xbd222be2	-0.03959263
3	0x3c437c0c	0.011931431
4	0xbd1c552e	-0.03816717
5	0x3d596aaf	0.053080257
6	0x3cedaa12	0.02901176
7	0xbd0440b5	-0.032288272
8	0x3d0b2b3d	0.033976782
9	0xbc37571e	-0.011190204
10	0xbd0319d0	-0.03200704
11	0xbdcd5867	-0.10026627
12	0xbcd52cae	-0.026022281
13	0x3db9202a	0.09039338
14	0x3d80ae6e	0.0628327
15	0xbd3c6c2a	-0.04600159
16	0x3d0a139f	0.03371012
17	0xbcfbb6d9	-0.030726837
18	0x3b0181d8	0.001976123
19	0x3cf9aa48	0.030476704
20	0xbd20c27d	-0.03924798
21	0xbcad9f44	-0.021194108
22	0x3d2823f0	0.041049898
23	0x3d2f4533	0.042790603
24	0x3d069ce7	0.032864477
25	0xbcbe6a60	-0.023244083
26	0x3cce969b	0.025218299
27	0xbd344872	-0.0440144
28	0x3d0c03ef	0.03418344
29	0x3d647e79	0.055784676
30	0xbd5875da	-0.052846767
31	0xbcd8b13c	-0.0264517
32	0x3c525377	0.012837282
33	0x3cb2f32e	0.021844473
34	0xbd2978ee	-0.041375093
35	0xbcd1a9ca	-0.025593657
36	0x3cf68dec	0.03009697
37	0x3da1a4f1	0.07892788
38	0x3d1c1b8f	0.03811222
39	0x3d6d1c3d	0.05788826
40	0x3d69d7eb	0.05709068
41	0x3d2c91bd	0.042131174
42	0xbceafba0	-0.028684437
43	0x3d59c5e2	0.05316723
44	0x3d0e9216	0.034807287
45	0x3cf572b7	0.029961927
46	0x3d3df4e3	0.04637612
47	0x3db4b56d	0.08823667
48	0x3c976533	0.018480873
49	0x3db30cc0	0.08742666
50	0x3d323c62	0.043514617
51	0x3caf3685	0.021388302
52	0x3dac436e	0.08411299
53	0x3cc19f6f	0.023635594
54	0x3d80d92a	0.06291421
55	0x3dddc88b	0.10829266
56	0x3d898a5d	0.06715844
57	0xbcdb6765	-0.0267827
58	0x3d8947fb	0.06703182
59	0xbd299575	-0.0414023
60	0x3d0bc1bf	0.034120318
61	0x3c85a2d4	0.016312994
62	0xbb929f9e	-0.0044745943
63	0xbd5a4942	-0.05329252
64	0x3d9eb0a6	0.07748537
65	0xbcd431cd	-0.025902653
66	0xbd2b8e79	-0.04188392
67	0xbd24e184	-0.04025413
68	0xbda0e3ee	-0.07855974
69	0x3d91b1a0	0.071139574
70	0x3d4f081f	0.050544854
71	0xbc0e5797	-0.008687875
72	0xbcd9848f	-0.026552467
73	0x3c151c29	0.009100952
74	0xbd75d49e	-0.06001722
75	0x3c535185	0.012897854
76	0x3b559ef2	0.003259596
77	0x3c731620	0.014836818
78	0x3c0b26b7	0.008493117
79	0x3d05ba12	0.032648154
80	0xb98bf1a5	-0.00026692185
81	0xbc02c774	-0.007982124
82	0xbbfab575	-0.007651026
83	0x3c5c83cf	0.01345916
84	0x3ae411a2	0.0017400275
85	0xbcae29e6	-0.021260213
86	0x3d6a4d5b	0.05720268
87	0x3d833908	0.06407362
88	0xbcd99d53	-0.026564276
89	0xbca9b2e2	-0.02071518
90	0xbd34ad5a	-0.044110633
91	0x3c6f1e5e	0.014594642
92	0xbca4a312	-0.02009729
93	0x3d0dc7bb	0.034614306
94	0x3d1d02c8	0.03833273
95	0x3db4580d	0.08805857
96	0x3c2acf59	0.010425412
97	0x3d04b1fd	0.032396305
98	0x3b129afd	0.0022370212
99	0x3d470772	0.048591085
100	0x3dc07938	0.09398121
101	0x3d364a7e	0.044504635
102	0x3d38bee6	0.04510393
103	0xbd3782d4	-0.0448025
104	0xbd8377cf	-0.06419336
105	0x3d574bb0	0.052562416
106	0x3d5dd490	0.054157794
107	0xbd01de80	-0.031706333
108	0x3d6bce05	0.057569522
109	0xbd0586bc	-0.032599196
110	0x3ceab7aa	0.028652031
111	0x3b344199	0.002750492
112	0xbd01a0b1	-0.031647388
113	0x3d3e0a06	0.046396278
114	0xbc98c354	-0.018647827
115	0x3bb8643d	0.0056271837
116	0xbcad7323	-0.021173066
117	0x3b6aa014	0.003580098
118	0xbcb0fdf4	-0.02160547
119	0x3c71b04f	0.014751508
120	0x3c505863	0.012716386
121	0x3c8966fe	0.016772743
122	0xbcf6c450	-0.030122906
123	0x3d08f352	0.033435173
124	0xbd5a957d	-0.05336522
125	0xbb85715c	-0.0040723514
126	0x3d7523f6	0.05984875
127	0x3d6cc305	0.057803173
128	0x3db7f683	0.08982565
129	0x3d25081c	0.040290937
130	0x3d291491	0.04127938
131	0xbd2e18b6	-0.042504035
132	0xbcbd5e80	-0.02311635
133	0x3c9e6452	0.019334946
134	0x3bf83d75	0.0075756856
135	0x3cf6ff4d	0.030151034
136	0xbda35ee4	-0.07977083
137	0xbd5cc1fd	-0.05389594
138	0xbce0ed30	-0.02745685
139	0xbd221c71	-0.039577905
140	0x3da4f60e	0.08054744
141	0xbd06ea51	-0.032938305
142	0x3da86613	0.08222594
143	0x3d38be47	0.045103338
144	0x3d73d541	0.059529547
145	0xbc898757	-0.016788168
146	0x3da0b918	0.07847804
147	0xbcc0cfb0	-0.023536533
148	0x3d0f5259	0.034990642
149	0xbbc42cb5	-0.005986775
150	0xbd36121e	-0.04445087
151	0xbcac7b66	-0.021054935
152	0xbc6913cf	-0.014225914
153	0xbc1acd64	-0.009448383
154	0xbcc73830	-0.024318784
155	0x3d04f350	0.032458603
156	0xbd477b68	-0.048701674
157	0x3d2dcda2	0.042432435
158	0x3cba286c	0.022724353
159	0xbcaa12f1	-0.020760985
160	0x3d6bacc7	0.05753782
161	0x3d2584c0	0.040409803
162	0xbd21fd7d	-0.039548386
163	0x3d62f6d5	0.05541118
164	0x3d9d0da2	0.07668616
165	0x3c915d28	0.017744616
166	0x3d1beeb8	0.038069457
167	0x3d3e586e	0.046471052
168	0x3c4952a2	0.012287768
169	0xbc40e4f7	-0.0117733395
170	0xbb63fd35	-0.0034788374
171	0x3d6791cf	0.05653554
172	0xbca0a9d2	-0.019612227
173	0x3c8fbd51	0.017546328
174	0x3b53e11b	0.0032330218
175	0x3dba49a6	0.090960786
176	0x3d245b85	0.040126342
177	0xbca6f186	-0.02037884
178	0x3cc171b1	0.023613783
179	0x3d91a003	0.07110598
180	0x3c909fe8	0.017654374
181	0x3d975cf9	0.0739078
182	0x3c25ff74	0.010131706
183	0xbd17bbcc	-0.03704433
184	0xbd807c62	-0.06273724
185	0xbca8e790	-0.02061823
186	0x3d1a371d	0.037650216
187	0x3cff866b	0.031192025
188	0xbcecc408	-0.028902069
189	0x3c5c860b	0.013459693
190	0xbd26b118	-0.040696234
191	0x3d929a75	0.071583666
192	0x3c9e52aa	0.019326527
193	0xbcc8128a	-0.024422903
194	0x3d460d47	0.048352506
195	0xbd468574	-0.048467115
196	0xbc50abfd	-0.012736318
197	0x3d64a514	0.055821493
198	0xbc002de4	-0.007823441
199	0xbb0dfddf	-0.0021666212
200	0xbba9e07e	-0.0051842323
201	0x3c9122b6	0.017716747
202	0xbc696bb4	-0.01424687
203	0x3da107d1	0.07862819
204	0x3cebc0c7	0.028778447
205	0xbcca92a6	-0.02472813
206	0x3cb77bbe	0.022397872
207	0x3d89d28d	0.067296125
208	0xbc11d624	-0.008901153
209	0xbc181a05	-0.009283547
210	0x3dc1e061	0.09466625
211	0x3d8c8033	0.068603896
212	0xbd1d09b9	-0.03833935
213	0x3d4371b5	0.04771586
214	0x3c40dcd4	0.0117713995
215	0x3cdbe7a1	0.026843848
216	0x3c6e1ee5	0.014533733
217	0x3d9902ff	0.074712746
218	0x3bda3270	0.0066588446
219	0x3dbb21ce	0.09137307
220	0xbd5ae478	-0.05344054
221	0xbcaa8f06	-0.020820152
222	0xbc9c784d	-0.019100333
223	0x3d3cff28	0.046141773
224	0xbc57f9df	-0.0131821325
225	0xbd9e2a46	-0.07722907
226	0xbd0f3b8a	-0.03496889
227	0xbbf8e750	-0.007595934
228	0x3d074ce1	0.0330323
229	0x3d7a6f1d	0.061141122
230	0xbc93ebd2	-0.018056784
231	0x3c2ee633	0.010675001
232	0xba023f28	-0.00049685175
233	0x3d67ecf2	0.056622453
234	0xbc5ad324	-0.013356004
235	0xbcf527c9	-0.029926198
236	0xbd7803f9	-0.060550664
237	0x3d85abcc	0.06526908
238	0x3d12920e	0.03578382
239	0x3d37f4c5	0.044911165
240	0xbd3ae6e2	-0.045630343
241	0xbced6c50	-0.028982311
242	0x3d93066c	0.07178959
243	0x3d09d8c0	0.033653975
244	0xbceaf45e	-0.028680976
245	0x3d9fb2cd	0.077977754
246	0x3cf00fc3	0.02930439
247	0x3c34a9ff	0.011026858
248	0x3d869d4c	0.06572971
249	0xbcb7b0ac	-0.02242311
250	0x3ce0b84c	0.02743163
251	0x3c6b1430	0.014348075
252	0x3d2f9140	0.04286313
253	0xbd4d6284	-0.05014278
254	0x3c5c3862	0.013441177
255	0x3d81bee4	0.063352376

weight f4 [256, 256]
0	0xbbf2c444	-0.0074086506
1	0x3ccf288b	0.025287887
2	0xbd9d7e23	-0.07690074
3	0x3cb1de1c	0.021712355
4	0xbc513ed4	-0.012771327
5	0xbd5519be	-0.052026503
6	0xbc902eb0	-0.017600387
7	0xbd22c6b1	-0.03974027
8	0x3b1e4c98	0.002415454
9	0x3cef5989	0.029217498
10	0x3ca895d7	0.020579262
11	0xbd50d1d7	-0.05098137
12	0xbda591ec	-0.08084473
13	0x3ca54a26	0.020176958
14	0xbbb7bedf	-0.0056074704
15	0x3ce267b6	0.027637344
16	0x3d29753d	0.041371573
17	0xbb3f7030	-0.0029211156
18	0xbc445189	-0.01198233
19	0xbd2c89b5	-0.042123515
20	0x3d102dca	0.035199918
21	0xbd753e0e	-0.059873633
22	0x3bed594a	0.00724331
23	0xbd081f80	-0.033233166
24	0x3c1e1c5f	0.009650319
25	0x3d5e6423	0.054294717
26	0xbde17206	-0.11008076
27	0xbd9ef02c	-0.07760653
28	0xbd8ce023	-0.06878688
29	0x3d8cfdb6	0.06884329
30	0xba0abc60	-0.0005292352
31	0x3b9b4296	0.0047381623
32	0xbdafec17	-0.085899524
33	0xbb01195d	-0.0019698956
34	0xbc8ca9bf	-0.017170785
35	0xbbb0009c	-0.0053711664
36	0x3d168b37	0.03675386
37	0x3cbbad6e	0.022909846
38	0x3d21ca11	0.039499346
39	0xbdadad93	-0.08480372
40	0xbdac4c20	-0.08412957
41	0x3cd57ce1	0.026060523
42	0xbbcd0eb4	-0.0062578563
43	0xbcc25aa3	-0.02372486
44	0x3cc2dc39	0.023786651
45	0xbd226eeb	-0.03965656
46	0xbd73c3b4	-0.05951281
47	0xbd8460aa	-0.0646375
48	0x3cd95a17	0.026532216
49	0xbcb8622a	-0.022507746
50	0x3b26b58d	0.0025437803
51	0xbd31716c	-0.04332106
52	0xbcb882a5	-0.022523234
53	0x3cade53e	0.021227475
54	0xbd2e0c21	-0.042492036
55	0xbd1856b9	-0.03719208
56	0x3d4c4785	0.049872894
57	0xbc1a49fd	-0.009417054
58	0xbc96665c	-0.018359356
59	0x3d90c88a	0.070695
60	0xbcd6bb0d	-0.02621224
61	0xbcaf163a	-0.021372903
62	0xbd779759	-0.06044707
63	0x3ceef185	0.0291679
64	0xbcca4e9a	-0.024695683
65	0x3cb200df	0.021728931
66	0xbb7cc44c	-0.003856915
67	0x3d014305	0.031558055
68	0x3cc96a09	0.024586694
69	0x3d372f9c	0.04472314
70	0xbd01560b	-0.031576198
71	0xbb96b57c	-0.0045992713
72	0xbc8a7aeb	-0.016904315
73	0xbd57d34d	-0.052691747
74	0x3b6e8417	0.003639465
75	0xbb279b3c	-0.0025574705
76	0x3c522134	0.012825299
77	0xbd21214a	-0.039338388
78	0xbd45718d	-0.048203994
79	0x3d0a0845	0.033699293
80	0xbd621288	-0.055193454
81	0x3d0960f6	0.033539735
82	0xbce9ff1a	-0.028564025
83	0xbb29393b	-0.0025821466
84	0x3ca52e7c	0.020163767
85	0xbd06dd66	-0.032925986
86	0xbd97d847	-0.074142985
87	0xbb903ad2	-0.004401543
88	0xbd953be1	-0.072868116
89	0xbd968202	-0.07349016
90	0xbc73f209	-0.014889249
91	0xbd7dd335	-0.061969
92	0x3b57adc1	0.0032909962
93	0xbd48f7f1	-0.04906458
94	0x3cad473f	0.021152137
95	0x3d37f7ea	0.044914164
96	0xbd68de6d	-0.056852747
97	0xb8b362c1	-8.5537795e-05
98	0xbccd4b01	-0.025060179
99	0xbd03a029	-0.032135163
100	0xbd257913	-0.04039867
101	0x3c7d4d20	0.015460283
102	0xbe06f625	-0.13179834
103	0x3d279886	0.040916942
104	0x3d5503cf	0.052005585
105	0xbc4dae21	-0.012553723
106	0xbbd5bb81	-0.0065225963
107	0xbd22c15a	-0.039735176
108	0x3d1ba3c0	0.03799796
109	0xbdd8e579	-0.105906434
110	0xbca85f13	-0.020553147
111	0xbd0faddc	-0.035077915
112	0x3c50be1d	0.012740639
113	0xbb434af1	-0.0029799307
114	0x3ddce9bd	0.107867695
115	0xbd1fc317	-0.03900441
116	0xbcfdb933	-0.030972099
117	0x3d8fe62e	0.07026325
118	0xbc9cb179	-0.019127594
119	0xbcbfe5f9	-0.02342509
120	0x3aa878b3	0.0012853354
121	0x3d040852	0.032234497
122	0x3c8ecd13	0.017431771
123	0x3a969c30	0.0011490639
124	0xbd821e99	-0.06353492
125	0x3d901603	0.070354484
126	0xbda6fdb6	-0.0815386
127	0x3d1f0969	0.038827334
128	0xbd48e459	-0.049045894
129	0x3d805c5c	0.06267616
130	0xbb0c6dd8	-0.0021427777
131	0xbd4d20bb	-0.050080042
132	0x3c30c9a7	0.010790265
133	0x3b6e4252	0.0036355448
134	0xbc90fc1b	-0.017698338
135	0x3c7f5a55	0.015585502
136	0x3d2883dc	0.041141376
137	0xbde6b652	-0.112652436
138	0x3d85c772	0.06532182
139	0x3d9c5ac2	0.07634498
140	0x3dd04d6a	0.101710156
141	0xbd7e07c5	-0.06201913
142	0xbd511383	-0.051044
143	0x3c81eb0c	0.01585915
144	0xbbce630c	-0.0062984284
145	0x3d6e16a6	0.058127068
146	0xbd102052	-0.035187073
147	0xbd04237d	-0.032260407
148	0xbd2867f3	-0.04111476
149	0xbd49a0f7	-0.049225774
150	0x3c287875	0.010282625
151	0xbd2a19ac	-0.04152839
152	0xbd41a92f	-0.047280487
153	0x3ce03e6e	0.027373519
154	0xbc56c510	-0.013108507
155	0x3db64d83	0.08901503
156	0xbd09161c	-0.03346835
157	0xbcd5763c	-0.026057355
158	0xbcbf9630	-0.023387045
159	0x3d40fc48	0.047115594
160	0x3d2d52ca	0.042315282
161	0xbd0c707d	-0.034286965
162	0xbd45bd93	-0.048276495
163	0x3d58310e	0.052781157
164	0xbcdd671c	-0.027026705
165	0xbcf09038	-0.029365644
166	0x3d568123	0.052369248
167	0x3d2de32f	0.042452987
168	0xbc699878	-0.014257543
169	0x3d6fff75	0.058593232
170	0x3d7be74d	0.061499882
171	0xbcccf12e	-0.025017347
172	0xbc34a3e3	-0.011025402
173	0xbc3015b5	-0.010747363
174	0x3cee7771	0.029109688
175	0x3a29fcba	0.00064844976
176	0x3d6c312a	0.057664074
177	0xbd272d27	-0.040814545
178	0x3d6d4620	0.057928205
179	0x3d868cbc	0.06569812
180	0x3d0ace3b	0.033888083
181	0xbcd3fb06	-0.025876533
182	0xbd625a5b	-0.05526195
183	0xbd83e2db	-0.064397536
184	0x3c4eea8f	0.012629165
185	0x3d724b97	0.05915412
186	0xbc2f80d1	-0.010711865
187	0x3da33af8	0.07970232
188	0xbd3589c3	-0.044320833
189	0x3d8ae6d9	0.06782312
190	0x3d5f3733	0.054496
191	0xbd6d9f8b	-0.05801348
192	0x3c7ccd7a	0.015429849
193	0x3c47f1a1	0.012203605
194	0x3ccf68c2	0.025318507
195	0xbd97c952	-0.07411446
196	0x3d66af27	0.056319382
197	0x3d87e562	0.06635548
198	0xbd1582f6	-0.036501847
199	0xbc879996	-0.016552728
200	0xbd476a9f	-0.048685666
201	0x3d0cb931	0.0343563
202	0xbbba1e3f	-0.005679875
203	0xbdbd3c09	-0.092399664
204	0x3d728e01	0.059217457
205	0x3ce60ad7	0.02808134
206	0xbc8b4d1a	-0.017004538
207	0xbd3921ff	-0.045198437
208	0x3ce7cfec	0.028297387
209	0xbd3b6972	-0.045754857
210	0xbd3d7f57	-0.04626402
211	0xbd761bbf	-0.060085054
212	0x3d4c13c9	0.049823556
213	0xbcd23d12	-0.025663886
214	0x3c0c3c8e	0.008559359
215	0xbd36c931	-0.044625465
216	0x3b50ee6c	0.0031880392
217	0x3d2f7253	0.042833637
218	0xbd067489	-0.03282598
219	0x3c8c8e3a	0.017157663
220	0x3c80db27	0.0157295
221	0xbd69d4ed	-0.057087827
222	0x3d4a5816	0.04940041
223	0x3c8350d1	0.016029747
224	0x3c8f7aad	0.017514551
225	0x3d43c96c	0.047799513
226	0xbd0ae445	-0.0339091
227	0x3ce1445c	0.027498417
228	0xbd2b364e	-0.041799836
229	0x3d28ce55	0.0412124
230	0xbcaafd77	-0.020872815
231	0xbd171830	-0.0368883
232	0x3d769599	0.06020126
233	0x3cfe6c1e	0.031057414
234	0x3dfd38fe	0.12364386
235	0x3d68f880	0.056877613
236	0x3d47799a	0.048699953
237	0x3c82012b	0.015869698
238	0x3cc88c24	0.024480887
239	0x3bb7993d	0.005602984
240	0xbb1cc782	-0.0023922627
241	0xbdd6a5b4	-0.10480824
242	0xbc305e30	-0.010764644
243	0x3cb39c94	0.021925248
244	0xbe1976d7	-0.1498674
245	0x3d00d108	0.031449348
246	0x3d8c7b36	0.06859438
247	0xbc47bf09	-0.012191542
248	0x3bb7c268	0.005607892
249	0x3d67eed0	0.056624234
250	0x3ced3547	0.028956069
251	0x3c36efc6	0.011165565
252	0xbd0c2bec	-0.034221575
253	0x3ce18027	0.027526928
254	0xbd2c01c7	-0.041993883
255	0x3d73ccc6	0.05952146

bias f4 [256]
0	0xbca5a67d	-0.02022099
1	0xbd169a4d	-0.036768246
2	0xbd3b7d1d	-0.045773614
3	0xbcad0707	-0.021121515
4	0x3dd1e001	0.102478035
5	0xbddb5019	-0.10708637
6	0xbcdbbb26	-0.026822638
7	0xbd0234de	-0.0317887
8	0x3d74ef53	0.05979855
9	0x3d8a54e9	0.067544766
10	0xbd4d78dc	-0.05016409
11	0xbc355550	-0.011067703
12	0x3b8a6bc7	0.004224274
13	0xbdd45c93	-0.1036922
14	0x3d9775eb	0.07395538
15	0x3c3b55f8	0.011434071
16	0x3c8fd504	0.017557628
17	0x3d8c5c92	0.06853594
18	0xbdaf9f63	-0.085753225
19	0x3ce833da	0.028345037
20	0x3d74cc4c	0.059765145
21	0x3d8eac27	0.06966429
22	0x3da1595c	0.07878372
23	0xbe04fcc7	-0.12987052
24	0xbd73210b	-0.059357684
25	0x3de22603	0.110424064
26	0x3d898a65	0.0671585
27	0x3d5814c3	0.052754175
28	0xbdaa094e	-0.08302556
29	0x3d4acbab	0.04951064
30	0x3d27795d	0.040887225
31	0xbd886367	-0.066595845
32	0xbd0c4eae	-0.034254722
33	0x3dcf4d81	0.101222046
34	0xbdbfb577	-0.093607835
35	0x3ce56380	0.028001547
36	0x3c119b60	0.008887142
37	0x3db555fd	0.088542916
38	0x3ca6eb64	0.020375915
39	0xbc744749	-0.014909574
40	0x3d51b10d	0.05119424
41	0x3d6dd627	0.05806556
42	0xbd54246b	-0.051792543
43	0xbdf089c5	-0.117450275
44	0x3ddbaebe	0.10726689
45	0x3cacf233	0.021111583
46	0xbc5d66e5	-0.0135133015
47	0x3d913056	0.070892975
48	0x3bfe43a2	0.0077595273
49	0xbdbbee0c	-0.09176263
50	0x3deb1e69	0.1148041
51	0x3d615ae4	0.05501832
52	0x3dd2d719	0.10294933
53	0xbd8877d3	-0.0666348
54	0x3d7313e5	0.059345145
55	0x3ceb48d7	0.028721256
56	0xbc7883db	-0.015168156
57	0xbd0c73b1	-0.03429002
58	0xbcaddf60	-0.021224678
59	0x3d25da81	0.040491585
60	0xbb266ece	-0.0025395635
61	0xbc22a8fc	-0.009927984
62	0x3daf2702	0.08552362
63	0xbd8af7bf	-0.06785535
64	0x3cb53af9	0.022122847
65	0x3d3a4369	0.045474444
66	0xbd54c052	-0.051941223
67	0xbd3b08ca	-0.04566268
68	0x3da0d3c6	0.078528926
69	0x3d0b3cf4	0.033993676
70	0x3df42a18	0.11922091
71	0xbc07089c	-0.008241799
72	0x3d244c31	0.040111724
73	0xbcefcd07	-0.02927257
74	0xbd0b0fa8	-0.033950478
75	0xbc984cc9	-0.018591302
76	0xbd673d05	-0.056454677
77	0xbc0336fa	-0.008008713
78	0x3d8e4fe3	0.06948831
79	0x3d7cec95	0.06174906
80	0x3d886311	0.066595204
81	0x3dabbf53	0.083861016
82	0xbbdfc5f5	-0.0068290182
83	0x3d72c460	0.05926931
84	0xbd690374	-0.05688806
85	0xbc11adf5	-0.008891572
86	0x3d7c51bc	0.061601385
87	0x3d4ed4ba	0.05049584
88	0xbda73d25	-0.08165959
89	0x3df51702	0.11967279
90	0x3d898007	0.067138724
91	0x3b876423	0.0041318103
92	0xbbea38bb	-0.007147876
93	0x3c1828ae	0.009287043
94	0x3d1374e9	0.036000166
95	0xbcaa794f	-0.020809798
96	0x3d7bf24c	0.06151037
97	0x3c4bf542	0.012448611
98	0x3cb2c670	0.021823138
99	0x3d2988cb	0.04139022
100	0xbde118b0	-0.10991037
101	0x3d87f4bf	0.066384785
102	0xbcaf3c2b	-0.021390995
103	0xbd97b233	-0.07407036
104	0xbdb270ef	-0.087129466
105	0x3d3e4b33	0.046458434
106	0xbc134bf2	-0.008990275
107	0xbdae5bc9	-0.085136004
108	0x3dbebbbe	0.09313153
109	0x3d2b3712	0.041800566
110	0x3d33b93a	0.043877818
111	0xbd8a6d9f	-0.0675919
112	0x3cbdb3f3	0.023157096
113	0xbd0ff323	-0.035143983
114	0x3d81db9e	0.06340717
115	0x3d62c5a7	0.055364277
116	0x3c211296	0.009831091
117	0xbca4451b	-0.020052483
118	0x3d7ff93e	0.062493555
119	0xbadd04bf	-0.0016862376
120	0x3d35e7ec	0.04441063
121	0x3dd40f5c	0.10354492
122	0x3de4a89f	0.111649744
123	0xbd012382	-0.031528004
124	0x3dbb997a	0.09160133
125	0xbda3b098	-0.07992667
126	0x3c43ea86	0.01195777
127	0xbcbca544	-0.023028024
128	0x3ca6a881	0.02034402
129	0x3dccb114	0.099947125
130	0x3d444e0e	0.047926
131	0xbc93232a	-0.017961103
132	0x3e0628c9	0.13101496
133	0x3c803012	0.015647922
134	0x3d1a1140	0.037614107
135	0xbdb76acc	-0.08955917
136	0x3c1868e7	0.009302354
137	0xbd566e4b	-0.052351277
138	0xbd168ed6	-0.036757313
139	0xbc338c19	-0.010958695
140	0x3daed823	0.085373186
141	0xbd57061f	-0.052496072
142	0xbcd820e7	-0.026382877
143	0x3d716d34	0.058942035
144	0xbdaa575d	-0.083174445
145	0xbdbd114d	-0.092318155
146	0xbde0c083	-0.10974219
147	0x3c1a6605	0.009423737
148	0xbc2788f4	-0.010225523
149	0x3d124d20	0.035718083
150	0x3dde9db9	0.10869927
151	0xbc25c3bc	-0.0101174675
152	0xbd768a77	-0.060190644
153	0xbda48018	-0.080322444
154	0x3d7cf7a8	0.06175962
155	0x3da3078e	0.07960425
156	0xbd02bfc3	-0.03192116
157	0x3c86e534	0.016466714
158	0x3ccebc03	0.025236135
159	0x3d835318	0.06412333
160	0x3cb72d7e	0.02236056
161	0xbda9ec55	-0.0829703
162	0xbc263e4d	-0.01014669
163	0xbc809c22	-0.01569945
164	0x3d9b05c4	0.07569459
165	0xbdb8afa7	-0.09017878
166	0x3dc3da90	0.09563172
167	0xbd816181	-0.063174255
168	0xbd206fb9	-0.039169047
169	0xbc8b4a0f	-0.017003087
170	0xbdb95670	-0.0904969
171	0x3e03a6b6	0.12856564
172	0x3cefa210	0.029252082
173	0xbd7f03a7	-0.062259343
174	0x3d181bd4	0.037135914
175	0x391738d1	0.00014421648
176	0x3e08d08c	0.13360804
177	0xbbdbc8f1	-0.0067073037
178	0x3d483456	0.048878036
179	0x3d09a73b	0.03360675
180	0x3de06d17	0.10958307
181	0x3da7aea2	0.081876054
182	0x3def32bc	0.11679599
183	0x3dc8694b	0.09785708
184	0x3cfd4b76	0.030919772
185	0xbd5b71df	-0.053575393
186	0x3db7c3c1	0.08972884
187	0xbc2d0fc6	-0.010562843
188	0x3d9d2828	0.07673675
189	0x3a8e581d	0.001086
190	0x3dec6969	0.11543543
191	0x3db3b03c	0.087738484
192	0xbaf05d9c	-0.0018338445
193	0x3de092ec	0.10965523
194	0xbd834650	-0.064098954
195	0xbde2b556	-0.11069743
196	0x3d38cfa1	0.045119885
197	0xbcdfdbbe	-0.02732646
198	0x3d031a97	0.03200778
199	0xbdbc9026	-0.09207182
200	0x3ccbb012	0.02486423
201	0x3d90741e	0.070533976
202	0xbd257fe9	-0.040405188
203	0x3c74381c	0.014905956
204	0x3b94f4e8	0.0045457967
205	0xbda54c41	-0.08071185
206	0xbd2157e9	-0.03939048
207	0x3d219ac5	0.03945424
208	0xbd41fe10	-0.047361434
209	0x3d1757a6	0.036948822
210	0xbacfa3e2	-0.0015841688
211	0xbd1cb269	-0.038256083
212	0x3d634fb8	0.055495948
213	0x3d7e83e9	0.062137518
214	0xbc9dd2fb	-0.019265642
215	0x3e07c958	0.132604
216	0xbd0c5bdc	-0.03426729
217	0xbd008138	-0.031373233
218	0x3cba8f10	0.022773296
219	0x3c55850c	0.013032209
220	0x3dcbc83c	0.09950301
221	0xbd9180d9	-0.07104654
222	0x3d4faa77	0.050699677
223	0x3dc545d2	0.09632458
224	0xbc600e2d	-0.013675255
225	0x3d9a1950	0.07524359
226	0xbd3f96bb	-0.046774607
227	0xbd2be39d	-0.041965116
228	0xbd271a2c	-0.040796444
229	0x3b33292f	0.002733778
230	0x3d846094	0.06463733
231	0xbdab7369	-0.08371622
232	0x3ddbc86c	0.10731587
233	0x3ce521a4	0.027970143
234	0xbc9cfc3e	-0.019163247
235	0x3d80e50b	0.062936865
236	0x3d0fcfd0	0.035110295
237	0x3df4c204	0.11951068
238	0x3cf7e3bd	0.030259961
239	0x3bd54aa5	0.0065091425
240	0x3df73c87	0.120720915
241	0xbb9b8f97	-0.004747342
242	0x3d5ce7c2	0.05393196
243	0xbacdba57	-0.0015695792
244	0xbbf0ef00	-0.00735271
245	0xbaf830dc	-0.001893546
246	0xbd106869	-0.035255823
247	0x3da707a6	0.08155756
248	0xbc94ccc2	-0.018164042
249	0x3cc4eba6	0.024038147
250	0xbc192d9c	-0.009349253
251	0x3c3f54f7	0.011677972
252	0x3deff3ee	0.11716448
253	0x3cd0b0a8	0.025474861
254	0xbd3c8d59	-0.046033237
255	0xbc58916f	-0.013218268

weight f4 [60, 256]
0	0xbd6b6e48	-0.05747822
1	0x3cc914cd	0.024546051
2	0x3db99cec	0.090631336
3	0xbc4e76ca	-0.012601564
4	0x3cf9602b	0.030441364
5	0xbc36e0af	-0.011161967
6	0xbdea475a	-0.114393905
7	0x3c3cd632	0.0115256775
8	0x3c1806a0	0.009278923
9	0x3cc65648	0.024211064
10	0x3c90e67f	0.017688034
11	0x3db0942f	0.08622014
12	0x3b988f01	0.0046557193
13	0x3cab6f73	0.020927167
14	0x3bd6e6a2	0.0065582553
15	0x3d7380d9	0.05944905
16	0xbcc99ad8	-0.024609968
17	0x3cf57f08	0.0299678
18	0x3d680036	0.056640826
19	0xbd29971a	-0.041403867
20	0xbd37ef7c	-0.044906124
21	0xbd21984a	-0.039451875
22	0xbba03125	-0.004888671
23	0xbbed740f	-0.0072465013
24	0xbbada479	-0.0052991477
25	0x3c880687	0.016604675
26	0xbd1c1da2	-0.038114198
27	0xbc8e9a1e	-0.017407473
28	0x3d4d3938	0.050103396
29	0x3d251b88	0.04030946
30	0xbd273ea3	-0.04083122
31	0xbca6f46f	-0.020380227
32	0xbce59d70	-0.028029174
33	0x3b8c67ba	0.004284826
34	0x3d1cc3f8	0.038272828
35	0xbd84a1f2	-0.06476201
36	0xbda93501	-0.08262063
37	0xbd599a04	-0.053125396
38	0x3c833eb3	0.016021108
39	0x3d414beb	0.04719154
40	0xbc17069b	-0.009217883
41	0xbc3343fd	-0.010941503
42	0x3c8f9789	0.017528312
43	0x3d92695a	0.071490005
44	0xbdac8724	-0.084242135
45	0xbd9ed547	-0.07755523
46	0x3bdee038	0.0068016313
47	0xbd7df2d2	-0.06199915
48	0xbd0a7587	-0.03380349
49	0xba862225	-0.0010233565
50	0xbda27a9c	-0.07933542
51	0xbd2398f5	-0.039940793
52	0xbdb29930	-0.087206244
53	0x3d51f7cc	0.05126171
54	0xbc5aa055	-0.01334389
55	0xbce9618f	-0.028488902
56	0x3b188e66	0.0023278235
57	0x3c667d43	0.014067951
58	0x3d0383ec	0.032108232
59	0xbd8bc4b1	-0.06824625
60	0x3e1eb98d	0.1550047
61	0xbd9216a3	-0.07133224
62	0xbd4b66e8	-0.049658686
63	0xbb03a21b	-0.0020085636
64	0x3d8a83fb	0.067634545
65	0xbb03f787	-0.0020136551
66	0x3d448cf8	0.047986
67	0xbd45fbda	-0.048335887
68	0xbd780961	-0.06055582
69	0x3d2a5da9	0.041593228
70	0x3c4d38b8	0.01252573
71	0xbd4cd8db	-0.050011497
72	0xbdc713e3	-0.0972059
73	0x3d8968c6	0.06709437
74	0x3d383d9d	0.044980634
75	0x3ce368fb	0.02776002
76	0x38518224	4.9950686e-05
77	0x3dc53da6	0.09630899
78	0x3d682cef	0.056683477
79	0x3db9a95d	0.090655066
80	0xbd89e4af	-0.06733071
81	0xbb2825cd	-0.0025657297
82	0xbca29ef0	-0.019851178
83	0xbd5a1e2b	-0.053251427
84	0xbc8c745e	-0.017145332
85	0x3d4ef37f	0.050525185
86	0xbdb92ab6	-0.090413496
87	0x3d0ab920	0.033867955
88	0xbb41b3f7	-0.002955673
89	0xbcc76547	-0.024340285
90	0xbdb17d0b	-0.08666428
91	0xbdb5a924	-0.08870152
92	0x3cc86adb	0.024465015
93	0xbc9cd692	-0.019145284
94	0x3d06d9f3	0.032922696
95	0x3d5228fd	0.05130862
96	0x3d3254be	0.043537848
97	0x3d5aebf5	0.053447682
98	0x3d1e276b	0.03861181
99	0x3bd0a5e9	0.0063674343
100	0x3dbe4036	0.09289591
101	0x3cdd6c62	0.02702922
102	0x3c9bd73a	0.019023526
103	0xbb818a97	-0.003953289
104	0x3d422e3d	0.047407378
105	0xbd68ee2a	-0.056867756
106	0xbb8ff618	-0.0043933503
107	0xbd3cf0bf	-0.04612803
108	0xbcd78d5c	-0.026312523
109	0x3d77d759	0.060508106
110	0x3ce31bae	0.02772316
111	0x3e23749c	0.15962452
112	0xb9d5f3a1	-0.00040808044
113	0x3c210e79	0.009830111
114	0x3c7c8a48	0.015413828
115	0xbc771acd	-0.015082073
116	0xbd33f87e	-0.043938152
117	0xbd4f8234	-0.05066128
118	0xbe127808	-0.14303601
119	0xbb5c9416	-0.0033657602
120	0xbd628706	-0.05530455
121	0xbda32ba4	-0.07967308
122	0xbd32ff13	-0.04370029
123	0xbcfb4803	-0.030673986
124	0xbd4f66eb	-0.05063526
125	0xbd969990	-0.073535085
126	0xbe2f9906	-0.17148218
127	0x3d0dc2f5	0.034609754
128	0x3d27956f	0.040913995
129	0x3d0c716e	0.034287862
130	0x3d047d4c	0.032346055
131	0xbc987642	-0.018611077
132	0xbd734e8f	-0.05940109
133	0x3d1b57bd	0.03792547
134	0xbd32205e	-0.0434879
135	0x3d55726c	0.052111074
136	0xbbae48e1	-0.0053187464
137	0x3d4679e2	0.04845608
138	0x3bcaa9c1	0.006184787
139	0x3cb7d41d	0.02244001
140	0xbdc81aa1	-0.09770704
141	0x3c29bb40	0.010359585
142	0xbcfeb1e1	-0.031090679
143	0xbcdc8016	-0.026916545
144	0x3daaf637	0.08347743
145	0xbd0cae6b	-0.034346025
146	0x3c706de7	0.01467464
147	0x3c5b3c04	0.013381008
148	0xbc89a41e	-0.01680189
149	0x3d115553	0.035481762
150	0xbd9dde94	-0.07708469
151	0xbcf80857	-0.030277414
152	0x3d3b4637	0.04572126
153	0xbc22d446	-0.009938305
154	0xbd2e0ebc	-0.04249452
155	0x3c1d0d4f	0.009585693
156	0x3ca10c6a	0.01965924
157	0x3d01adef	0.031660017
158	0x3d210432	0.03931064
159	0x3d0a6a99	0.033793066
160	0xbd55088c	-0.052010104
161	0xbd20fc98	-0.039303392
162	0x3d1cbcff	0.03826618
163	0xbc84303a	-0.016136277
164	0xbca79c78	-0.020460352
165	0x3da11c07	0.07866674
166	0xbc13b7af	-0.009015962
167	0x3b9f3284	0.004858317
168	0x3c735109	0.014850863
169	0x3b88d0b5	0.0041752704
170	0x3b4f21dd	0.0031605877
171	0xbd87e0a2	-0.06634642
172	0xbd92a2e1	-0.07159973
173	0x3d586831	0.05283374
174	0xbd7b399e	-0.061334245
175	0x3bce39ab	0.0062934957
176	0x3d369a14	0.044580534
177	0xbd2f5e23	-0.042814385
178	0x3cc093b3	0.023507928
179	0x3d327f93	0.043578696
180	0x3c9d76ae	0.01922163
181	0xbc05630f	-0.008141293
182	0x3d4c6388	0.049899608
183	0xbca1adde	-0.019736227
184	0xbc4fbc36	-0.01267915
185	0xbd644949	-0.055733953
186	0xbd7fa71e	-0.062415235
187	0x3c41eaaa	0.011835733
188	0xbd21b27c	-0.039476857
189	0xbc2de28c	-0.010613095
190	0xb9365899	-0.00017389878
191	0x3c7ddd4c	0.015494656
192	0xbd391c65	-0.045193095
193	0x3d95be51	0.073116906
194	0xbc404057	-0.01173409
195	0x3db335ef	0.087505214
196	0x3d7127bb	0.05887578
197	0xbcad566b	-0.021159371
198	0xbd5de66f	-0.054174837
199	0x3d47783b	0.048698645
200	0xbde61013	-0.11233535
201	0xbd52b764	-0.051444426
202	0xbccfc23a	-0.02536117
203	0x3b808c61	0.0039229845
204	0x3d69f3d2	0.05711729
205	0xbbee2102	-0.0072671184
206	0x3e4c1676	0.19930443
207	0xbd684d25	-0.056714196
208	0xbc48c332	-0.012253569
209	0xbcb69dff	-0.022292135
210	0xbc06baea	-0.008223275
211	0xbdd4b621	-0.10386301
212	0xbd13e9e8	-0.036111742
213	0xbcb8361a	-0.022486735
214	0x3dc89509	0.09794051
215	0xbd381832	-0.04494495
216	0xbbf297f3	-0.0074033677
217	0xbd2d075a	-0.04224334
218	0x3d39ee02	0.045392998
219	0x3cd37ab1	0.02581534
220	0xbdc5bf92	-0.0965568
221	0x3b636bcc	0.0034701703
222	0x3cd3a5f7	0.025835974
223	0xbdc209d3	-0.0947453
224	0x3d26fd52	0.04076893
225	0xbdfe2d52	-0.12410988
226	0x3ca53d84	0.020170934
227	0x3da5e195	0.08099667
228	0xbd924e99	-0.071438976
229	0x3d6557fd	0.055992115
230	0xbd580085	-0.05273487
231	0xbb1e1d9b	-0.0024126533
232	0xbc2d6fb3	-0.010585713
233	0x3d2177d8	0.039420933
234	0xbd96de01	-0.07366563
235	0x3d5860c6	0.052826665
236	0x3cef3147	0.029198302
237	0x3d02c1bf	0.031923052
238	0x3cba91e2	0.02277464
239	0xbca396c3	-0.01996935
240	0x3bff653a	0.0077940496
241	0xbd306c26	-0.04307189
242	0xbd2ea876	-0.042641126
243	0xbcdf85e2	-0.02728552
244	0x3abe7c3e	0.0014532877
245	0xbd4c9adf	-0.049952384
246	0x3d1f6b00	0.038920403
247	0xbcce6d0b	-0.02519848
248	0x3d14c675	0.036322076
249	0x3bbabfd0	0.0056991354
250	0xbe2057d6	-0.15658507
251	0x3d432c05	0.047649402
252	0xbdbf80d6	-0.093507454
253	0xbcac3946	-0.021023404
254	0x3dc539d4	0.096301705
255	0x3b3a37ee	0.0028414684

bias f4 [60]
0	0xbdd6e8c2	-0.10493614
1	0xbe051aec	-0.12998551
2	0x3dc17a9d	0.09447215
3	0xbd5bb275	-0.053636987
4	0x3d903b41	0.07042552
5	0x3de626ab	0.11237844
6	0x3db7b6c5	0.089704074
7	0x3d47254c	0.048619553
8	0xbcb68dc3	-0.022284394
9	0xbcb7f641	-0.02245629
10	0x3d1f49ee	0.038888864
11	0xbd2f410a	-0.042786635
12	0x3d45c9f3	0.048288297
13	0xbbe240c7	-0.0069046947
14	0x3ca1bbe0	0.019742906
15	0x3ce3c452	0.027803574
16	0x3cb91dcb	0.022597214
17	0x3c9accb9	0.018896447
18	0x3c22c81d	0.009935406
19	0xba4c036d	-0.0007782493
20	0xbc1f4be0	-0.00972268
21	0xbc10f03c	-0.008846339
22	0xbd57855d	-0.05261742
23	0xbcbd7232	-0.023125742
24	0x3bf51410	0.0074791983
25	0x3dcee4bf	0.101022236
26	0x3e023520	0.12715578
27	0xbc69943b	-0.014256532
28	0xbd604b15	-0.054759104
29	0xbc17bd1c	-0.009261396
30	0xbc51ef75	-0.012813439
31	0x3c1a92ad	0.009434384
32	0x3b8207c4	0.003968211
33	0x3c7dc396	0.015488526
34	0x3caf08dc	0.02136653
35	0x3cb81800	0.022472382
36	0xbc4e4385	-0.01258934
37	0x3bb15da6	0.005412775
38	0x3d14928d	0.036272574
39	0x3cc53e03	0.024077421
40	0x3c1b3cf3	0.009474981
41	0xbe133a51	-0.14377715
42	0x3c634528	0.013871469
43	0xbc174545	-0.009232824
44	0xbcfa9bec	-0.030591927
45	0x3b3339ec	0.0027347757
46	0xbb950c4f	-0.0045485864
47	0xbde79cf0	-0.1130923
48	0xba0f1034	-0.00054574315
49	0xbc3e5e94	-0.011619229
50	0x3d318ef2	0.043349214
51	0x3c84a83e	0.016193505
52	0xbd834407	-0.064094596
53	0xbd2a8fc7	-0.041641023
54	0x3e1b400c	0.1516115
55	0x3db1b9aa	0.08677991
56	0x3e19d79d	0.15023656
57	0xbcc915e4	-0.024546571
58	0x3c02a8f2	0.00797485
59	0xbd2d29a0	-0.042276025
