data/example_dynamics_data/models/kitchen/MLP_qhat_true.pth (torch, 664463 bytes, 8 tensors)

weight f4 [256, 70]
0	0x3e2feaaa	0.17179361
1	0x3dde2066	0.10846023
2	0xbdf644cc	-0.12024841
3	0xbc9e9282	-0.01935697
4	0x3dd31312	0.10306372
5	0xbdf3220b	-0.118717276
6	0xbcc5956d	-0.024119103
7	0x391ac3f5	0.00014759584
8	0x3dc9c76c	0.0985249
9	0xbceba287	-0.028764023
10	0xbd9a5808	-0.07536322
11	0x3e471bba	0.1944417
12	0x3d096d20	0.033551335
13	0xbcf551d9	-0.029946255
14	0x3e040a42	0.12894538
15	0x3dbf6997	0.093463115
16	0xbe19e486	-0.15028581
17	0xbe3ad0f7	-0.18243776
18	0xbe428197	-0.18994747
19	0x3d86bb55	0.065786995
20	0x3d059c22	0.032619603
21	0xbd05a883	-0.03263141
22	0xbcb25526	-0.021769118
23	0x3d0d318b	0.034471076
24	0x3d6ba250	0.05752784
25	0xbdae7512	-0.08518423
26	0x3b59e8d8	0.0033250358
27	0x3dca7861	0.09886242
28	0xbe8d9be5	-0.27658
29	0xbc990aa4	-0.018681832
30	0x3caf8277	0.021424515
31	0xbbd91875	-0.00662523
32	0xbded7588	-0.11594683
33	0x3dbc43c2	0.09192611
34	0x3db7912f	0.089632384
35	0xbd526c26	-0.05137267
36	0x3d6de443	0.058079015
37	0x3d50fd64	0.051022902
38	0x3c7688e9	0.01504729
39	0x3dc715b1	0.09720934
40	0xbda944a6	-0.08265047
41	0xbda50c90	-0.08059037
42	0x3df5e494	0.120064884
43	0x3d465ae2	0.048426516
44	0xbd50dde2	-0.050992854
45	0x3d61484e	0.055000596
46	0x3dd489ec	0.10377869
47	0x3e0267fc	0.1273498
48	0xbdabc483	-0.08387091
49	0xbd1bed01	-0.03806782
50	0x3dd83a10	0.105579495
51	0x3dee7fd4	0.11645475
52	0xbdba8f01	-0.09109307
53	0xbd8fc68e	-0.07020293
54	0xbc51d335	-0.012806703
55	0x3d3e7e35	0.04650708
56	0xbc753604	-0.014966492
57	0x3ccab432	0.024744127
58	0xbd22e6db	-0.039770942
59	0xbd349fd5	-0.04409774
60	0xbd049052	-0.032364197
61	0xbccd666f	-0.025073258
62	0xbd8d832f	-0.06909787
63	0xbd843720	-0.06455827
64	0xbd93447f	-0.07190799
65	0x3d80ec6a	0.062950924
66	0xbd53aa02	-0.051675804
67	0x3d8fd39d	0.07022784
68	0xbd0f3d8b	-0.0349708
69	0x3d99c9b0	0.07509172
70	0x3ca72ffe	0.020408627
71	0xbd7bf1b8	-0.061509818
72	0x3c652309	0.013985404
73	0xbd2284eb	-0.03967754
74	0x3dc3fc14	0.095695645
75	0x3cc9bb65	0.02462549
76	0x3d5ae0c4	0.05343701
77	0xbc3850fc	-0.011249777
78	0xbd8172c0	-0.06320715
79	0x3e167457	0.14692818
80	0xbdd1e72e	-0.10249172
81	0x3e47c5a0	0.19508982
82	0x3d93017d	0.07178018
83	0x3d9f76b0	0.0778631
84	0xbda7e6df	-0.08198332
85	0x3d509280	0.050920963
86	0xbd95ae92	-0.07308687
87	0x3e4cb50d	0.1999094
88	0x3e331f7d	0.1749248
89	0xbd8f42ab	-0.06995138
90	0x3dc46dd1	0.09591258
91	0x3e064333	0.13111572
92	0xbda258ba	-0.079270795
93	0xbd9ea69c	-0.07746622
94	0xbd85f676	-0.06541149
95	0xbdb91352	-0.09036888
96	0x3c9cfe6a	0.019164283
97	0xbeb651ba	-0.35609227
98	0x3e380f08	0.17974484
99	0xbddd554d	-0.108072855
100	0x3dd2ef86	0.10299592
101	0x3ddd79b7	0.10814231
102	0xbcb8626b	-0.022507867
103	0xbd0667de	-0.0328139
104	0x3d8925d1	0.06696666
105	0x3dab6c5d	0.08370278
106	0xbb8a6fb9	-0.004224744
107	0xbc28f92d	-0.010313314
108	0x3d90e67b	0.07075211
109	0x3d3efd0a	0.046628036
110	0x3ddc03dd	0.10742924
111	0x3de713f8	0.112831056
112	0x3cd5e284	0.026108988
113	0xbd388418	-0.04504785
114	0x3dafaf6e	0.085783824
115	0x3dc742e1	0.09729553
116	0xbd8899f8	-0.06669992
117	0xbddaaadc	-0.1067712
118	0xbce7cdff	-0.028296469
119	0xbd874387	-0.06604677
120	0x3d95b56b	0.07309993
121	0x3d1f9fb7	0.038970675
122	0xbdcbb10c	-0.099458784
123	0x3d927ba5	0.071524896
124	0xbd818656	-0.06324451
125	0x3dd2c71e	0.10291885
126	0xbdec2456	-0.11530368
127	0xbd8e0f2f	-0.0693649
128	0xb9279231	-0.00015980822
129	0x3dedd864	0.11613539
130	0xbaa719b5	-0.001274875
131	0x3d81f9e1	0.06346489
132	0x3d77c450	0.060489953
133	0xbe6a0265	-0.22852476
134	0x3cd8bb0c	0.026456378
135	0xbdad7070	-0.084687114
136	0xbb83afe2	-0.0040187696
137	0xbd20dc67	-0.039272692
138	0xbb3a9b4d	-0.0028473914
139	0x3e0380d4	0.12842113
140	0x3e0d0fe9	0.137756
141	0x3dbf801b	0.09350606
142	0x3d1d510f	0.03840738
143	0xbcb0e98d	-0.02159574
144	0x3db74d42	0.08950283
145	0xbd87e35c	-0.06635162
146	0x3dd2ff34	0.103025824
147	0x3dd56b30	0.10420835
148	0x3da86839	0.08223004
149	0xbc9032be	-0.01760232
150	0xbd8d3f75	-0.06896869
151	0xbe4c9412	-0.1997836
152	0xbd7fe52f	-0.062474426
153	0x3ddfbdd9	0.109248824
154	0x3e40a293	0.18812017
155	0x3e7e55fc	0.24837488
156	0x3e387aef	0.18015645
157	0x3d3f79ee	0.04674714
158	0x3d4a9359	0.049456928
159	0x3e9dbcdc	0.3080815
160	0xbd815556	-0.06315105
161	0xbdc23b54	-0.09483972
162	0x3e18dd92	0.14928272
163	0x3d4653dd	0.048419822
164	0xbe7511d9	-0.2393259
165	0x3dd1d1ab	0.10245069
166	0x3d5f3c52	0.054500885
167	0x3ce59dbe	0.028029319
168	0x3da59d7c	0.080866784
169	0xbd237bd8	-0.03991303
170	0xbdeca499	-0.11554832
171	0xbba41187	-0.0050069722
172	0x3cba33cf	0.022729782
173	0x3cb1a8fd	0.021687025
174	0xbdd56983	-0.104205154
175	0x3c37716e	0.011196477
176	0xbd6eb975	-0.058282334
177	0xbceb1f0e	-0.028701331
178	0x3de33af5	0.110952295
179	0xbd7b064a	-0.061285295
180	0xbdacd516	-0.084390804
181	0xbd9d92b2	-0.076939955
182	0xbdad1422	-0.08451106
183	0x3d96f1ec	0.07370362
184	0x3d9f1d16	0.077692196
185	0x3dcd827a	0.10034652
186	0x3d83bc57	0.06432407
187	0x3cc99778	0.024608359
188	0xbd0d325e	-0.034471862
189	0xbbcdfcc5	-0.006286236
190	0xbded3b84	-0.11583617
191	0xbc57752c	-0.013150495
192	0xbdb88dd3	-0.09011426
193	0x3c9469d8	0.018116876
194	0x3b790603	0.0037997968
195	0xba89c29f	-0.0010510272
196	0x3e06abd5	0.13151486
197	0x3dda4880	0.106583595
198	0x3de52c02	0.111900344
199	0x3d8c07ff	0.06837463
200	0x3ce0c265	0.027436445
201	0x39c045c8	0.00036673085
202	0x3cf8e361	0.03038186
203	0x3ba2ef23	0.004972355
204	0xbbc5a944	-0.006032141
205	0x3d522b9e	0.051311128
206	0xbd966ccc	-0.0734497
207	0xbbdfaa93	-0.006825754
208	0xbba4ec72	-0.0050330693
209	0xbcd1e833	-0.025623417
210	0xbdf56b8b	-0.11983403
211	0x3d8ddf04	0.069273025
212	0x3e474e12	0.19463375
213	0x3d91fa33	0.071278
214	0x3d03f18a	0.03221277
215	0xbdc49295	-0.09598271
216	0xbd75edfe	-0.06004142
217	0x3c24a123	0.010048184
218	0x3ce0a2ef	0.027421443
219	0xbad6c919	-0.0016386836
220	0xbd10ac61	-0.035320643
221	0xbde1bf0b	-0.11022767
222	0xbd3b1811	-0.04567725
223	0xbdca93e5	-0.0989149
224	0xbc70e4d6	-0.014702996
225	0x3cf40983	0.029789692
226	0xbd494e75	-0.049147088
227	0xbc48b680	-0.012250543
228	0xbd9a675c	-0.075392455
229	0x3e5bef32	0.21477965
230	0xbe1590d2	-0.14606026
231	0xbe9c0c0c	-0.3047794
232	0xbe16eb40	-0.14738178
233	0x3d0945df	0.0335139
234	0xbd9045b8	-0.07044548
235	0x3e05faef	0.13084005
236	0xbd2e1c6a	-0.042507567
237	0x3e3398ec	0.17538804
238	0xbdf414a8	-0.11918002
239	0xbde50314	-0.11182228
240	0x3dda0432	0.106453314
241	0xbd1ac311	-0.037783686
242	0x3db3e3ef	0.08783709
243	0x3ddfbae6	0.1092432
244	0xbdb9c780	-0.09071255
245	0x3beb51ad	0.0071813674
246	0xbdf4692e	-0.11934124
247	0xbda894c1	-0.082314976
248	0x3d37ecb0	0.044903457
249	0xbd086418	-0.03329858
250	0xbdf42b00	-0.11922264
251	0xbd859cad	-0.06524024
252	0xbcb1370c	-0.021632694
253	0xbd427d6e	-0.0474829
254	0xbd97c29d	-0.074101664
255	0xbbf48857	-0.007462542

bias f4 [256]
0	0xbdac49a1	-0.08412481
1	0x3cf66433	0.030077076
2	0x3df50dfa	0.119655564
3	0x3c1e9129	0.009678164
4	0x3dc18529	0.094492264
5	0x3c8a41af	0.016877024
6	0x3d9dc1d4	0.077029854
7	0x3d39c33f	0.045352217
8	0xbd654ba1	-0.05598033
9	0xbd92437e	-0.07141779
10	0x3c879084	0.016548403
11	0x3d6dd12b	0.058060806
12	0xbe0e870c	-0.13918704
13	0x3c373ffd	0.01118469
14	0xbce74449	-0.028230803
15	0x3d0fde9a	0.0351244
16	0x3d90893d	0.07057426
17	0xbe0b3d51	-0.13597609
18	0x3d4ae9aa	0.049539246
19	0x3e014110	0.12622476
20	0x3dcd9628	0.10038406
21	0x3d20086a	0.039070524
22	0xbdc6f548	-0.097147524
23	0xbdbb1685	-0.09135155
24	0xbdc9ac1e	-0.09847282
25	0xbcd5f2ce	-0.026116755
26	0x3db1f317	0.08688944
27	0xbc9c2513	-0.019060647
28	0xbd761c2e	-0.060085468
29	0xbdc09248	-0.09402901
30	0x3d979587	0.07401567
31	0xbd69c895	-0.057076056
32	0x3cdc4a86	0.026891004
33	0xbd936d81	-0.071986206
34	0x3ded61c3	0.11590912
35	0xbbc42af9	-0.005986568
36	0x3dcf9f27	0.10137778
37	0x3d88e485	0.06684212
38	0xbd4f2405	-0.05057146
39	0x3c045771	0.008077488
40	0xbd92a029	-0.071594544
41	0xbdc16033	-0.09442177
42	0xbd67bb7b	-0.05657528
43	0x3df07370	0.11740768
44	0x3d1f5e68	0.038908392
45	0xbd80d946	-0.062914416
46	0xbd0482e7	-0.0323514
47	0x3e0bb7fa	0.136444
48	0x3d49cded	0.04926865
49	0xbd88525f	-0.06656336
50	0xbd8bcfd3	-0.06826749
51	0x3dc3fddd	0.09569905
52	0xbdb4ae70	-0.08822334
53	0xbcc09413	-0.023508107
54	0x3cf7c2f8	0.030244336
55	0xbc802993	-0.015644824
56	0x3d8cc534	0.06873551
57	0x3c012017	0.007881186
58	0xbd9d63a1	-0.07685018
59	0x3e08d9e2	0.13364366
60	0xbc69dd79	-0.014273995
61	0x3d9aacd1	0.07552493
62	0x3c827c93	0.015928542
63	0x3e153c45	0.14573772
64	0xbd86b032	-0.06576575
65	0xbd6e6e2b	-0.058210533
66	0x3d6212e0	0.05519378
67	0xbd1055dd	-0.035238136
68	0xbda38326	-0.07983999
69	0x3deb624f	0.1149336
70	0x3d54e023	0.051971566
71	0xbdf65c75	-0.120293535
72	0x3ca524ad	0.02015909
73	0xbdb31399	-0.08743972
74	0xbd9d1c75	-0.076714434
75	0x3e062d89	0.13103308
76	0x3cb90c6f	0.022588937
77	0xbde30066	-0.1108406
78	0xbd22e19a	-0.03976593
79	0xbdfc9048	-0.12332207
80	0xbd1443eb	-0.036197584
81	0xbc56daf9	-0.013113731
82	0x3d889202	0.06668474
83	0x3d0e762c	0.034780666
84	0x3df08586	0.117442176
85	0xbc1f9c97	-0.009741924
86	0xbd880afb	-0.06642719
87	0x3daa86ed	0.08326516
88	0xbda926ff	-0.08259391
89	0x3d95fdce	0.073238
90	0xbde72555	-0.112864174
91	0x3e0e5c91	0.13902499
92	0xbe1d3bcd	-0.15354843
93	0x3c09c0bd	0.008407769
94	0x3b8ec4f4	0.0043569747
95	0x3ce0c7c1	0.027439
96	0xbd10232e	-0.0351898
97	0x3d7fe9c5	0.0624788
98	0x3e0e6484	0.13905531
99	0xbdcf949f	-0.10135769
100	0x3e0a380b	0.13497941
101	0x3c045a9a	0.008078242
102	0x3dd86fcc	0.105681986
103	0x3d948c92	0.07253374
104	0xbb9cf388	-0.0047897734
105	0x3dc88d8f	0.09792625
106	0x3c85951f	0.016306458
107	0xbd5ccd82	-0.053906925
108	0x3da9fa28	0.08299667
109	0x3db50942	0.088396564
110	0x3e154e9d	0.1458077
111	0xbd0459d7	-0.03231224
112	0x3df52788	0.119704306
113	0x3da0bd7a	0.0784864
114	0x3d3cee41	0.046125654
115	0x3dbb1e1a	0.09136601
116	0xbd7e3de2	-0.062070735
117	0xbd98a06b	-0.07452472
118	0x3caf8f4d	0.021430636
119	0xbc195600	-0.009358883
120	0xbd068454	-0.03284104
121	0x3db7af32	0.08968963
122	0x3cba8828	0.022770002
123	0xbd0174e5	-0.03160562
124	0x3d0f0047	0.034912374
125	0x3d13307f	0.03593492
126	0x3da1c35c	0.0789859
127	0xbd939c33	-0.07207527
128	0x3d83707f	0.06417941
129	0xbdfcb42f	-0.12339055
130	0x3d9624c7	0.073312335
131	0x3de38d48	0.11110932
132	0x3e1cf9ea	0.1532971
133	0x3db3c33b	0.08777472
134	0xbd64f2a4	-0.055895463
135	0xbc4100cb	-0.011779974
136	0xbd0fad78	-0.035077542
137	0xbdad163a	-0.08451505
138	0xbca72a8d	-0.020406032
139	0x3d361400	0.044452667
140	0x3d3bfbf2	0.04589457
141	0xbd2a4ab6	-0.041575156
142	0xbda21573	-0.07914247
143	0xbd9cbc38	-0.076530874
144	0x3da55de0	0.08074546
145	0x3d42e715	0.04758366
146	0xbd1a5574	-0.03767915
147	0xbd2f76ff	-0.042838093
148	0x3dfda8e8	0.12385732
149	0x3dcb3a55	0.09923235
150	0xbd3b9942	-0.045800455
151	0x3cc8d530	0.024515718
152	0xbd8262a3	-0.0636647
153	0xbdebe4c5	-0.11518244
154	0x3e08c411	0.13356043
155	0xbdf86260	-0.121281385
156	0x3da19bc5	0.07891039
157	0x3d18607a	0.037201382
158	0x3db8bdae	0.090205535
159	0x3d0b0293	0.033938
160	0x3db95001	0.09048463
161	0x3d15d1a5	0.036576886
162	0xbde35540	-0.111002445
163	0x3d08f695	0.033438284
164	0xbb8c88e5	-0.00428878
165	0x3c0f1210	0.008732334
166	0xbc8d7e3b	-0.017272105
167	0x3c46f9b1	0.012144492
168	0x3c253d20	0.010085374
169	0xbd51a3be	-0.051181547
170	0x3d354898	0.044258684
171	0xbbb34a80	-0.0054715276
172	0xbdbb1ed1	-0.09136737
173	0x3d85fc9a	0.065423205
174	0x3c118e86	0.008884078
175	0x3d9c7b03	0.0764065
176	0x3d3ced36	0.04612466
177	0xbd6c57f1	-0.057701055
178	0x3dbe6b54	0.09297815
179	0xbdd887e4	-0.10572794
180	0xbdf1f5e3	-0.11814477
181	0xbd24b1fc	-0.0402088
182	0x3e114082	0.14184764
183	0xbc60019d	-0.01367226
184	0x3d63fc6d	0.055660654
185	0x3de6bbb4	0.1126627
186	0x3dc70f96	0.0971977
187	0x3d388023	0.045044076
188	0xbdeb9c37	-0.11504405
189	0xbca69bf6	-0.02033804
190	0xbd54b423	-0.051929604
191	0x3c6ab2e4	0.014324877
192	0xbd88352f	-0.06650769
193	0x3dbfd0af	0.09365975
194	0x3cd46f21	0.025931897
195	0xbdf12ca1	-0.117760904
196	0x3d688a7a	0.056772687
197	0x3d970045	0.07373098
198	0xbddea5bf	-0.10871457
199	0xbd6f450f	-0.05841547
200	0x3d481e4e	0.048857026
201	0xbcfef9f0	-0.031125039
202	0xbdda6777	-0.106642656
203	0xbc49660a	-0.012292394
204	0xbc248547	-0.010041541
205	0x3c913f5e	0.017730411
206	0x3da10945	0.07863096
207	0xbd3bf272	-0.04588551
208	0x3bc4e099	0.0060082194
209	0xbde06086	-0.109559104
210	0x3d40c7f0	0.047065675
211	0xbdb8c707	-0.090223365
212	0xbd6b5efe	-0.05746364
213	0xbcddbc89	-0.02706744
214	0x3dce3aa6	0.1006978
215	0x3d78789c	0.060661897
216	0xbdbdcd0e	-0.09267627
217	0x3c4690ea	0.012119511
218	0x3d19d3f2	0.037555642
219	0x3e0c9036	0.13726887
220	0x3dfecca1	0.124413736
221	0xbd77d88f	-0.06050926
222	0x3db7d4c0	0.08976126
223	0xbdbfc296	-0.09363286
224	0xbbae890b	-0.0053263954
225	0x3d63bf48	0.055602342
226	0x3e26f8ba	0.16305819
227	0x3dc28d43	0.094996
228	0x3e0c7b2b	0.1371886
229	0xbaf754fa	-0.001886993
230	0x3d73f0ed	0.059555937
231	0xbd818dfb	-0.06325909
232	0x3d08eff9	0.03343198
233	0xbd490f36	-0.049086772
234	0x3ddb2c3b	0.10701796
235	0xbcb9d050	-0.022682339
236	0x3b2c29dd	0.002627007
237	0xbde88fcb	-0.11355551
238	0x3cf0f52d	0.029413784
239	0x3d65dac8	0.05611685
240	0x3d3c7dec	0.046018526
241	0xbcadde05	-0.021224031
242	0x3c5c8ee9	0.013461807
243	0xbe08c971	-0.13358094
244	0xbcdea362	-0.027177516
245	0x3de3dde1	0.111263044
246	0xbcee926f	-0.02912256
247	0x3e0ab540	0.13545704
248	0xbdb8d97d	-0.090258576
249	0x3e0f8954	0.1401723
250	0x3e04074e	0.12893412
251	0x3d92e3e6	0.071723744
252	0x3db68917	0.089128666
253	0xbc549117	-0.012974045
254	0x3d9db14e	0.07699834
255	0x3c20bf6f	0.009811266

weight f4 [256, 256]
0	0x3b0f3da6	0.0021856814
1	0x3d8461bc	0.06463954
2	0xbd3a3841	-0.045463804
3	0xbb2cfa73	-0.0026394397
4	0xbd9a2dd9	-0.07528276
5	0xbc0bc0f0	-0.008529887
6	0xbd6cc92e	-0.057809047
7	0x3c8733b3	0.016504144
8	0x3d9f1547	0.0776773
9	0x3cb77439	0.022394286
10	0x3ab8d3e9	0.001410124
11	0xbd3516a1	-0.044211034
12	0xbc4aa781	-0.012369038
13	0xbd7c150c	-0.06154351
14	0x3c9d24fd	0.019182676
15	0x3cbd1cd0	0.023085028
16	0xbcb298f2	-0.021801446
17	0xbce51b38	-0.02796708
18	0x3d885b71	0.06658066
19	0x3d0b3dfd	0.033994664
20	0x3c804e08	0.015662208
21	0xbcf1e5f3	-0.029528594
22	0x3dd8d73a	0.10587926
23	0xbdea91ee	-0.11453615
24	0x3cc3fc74	0.02392409
25	0x3cf9b9a5	0.03048403
26	0x3b2c818e	0.0026322338
27	0x3b2d655c	0.002645812
28	0xbd10ebcc	-0.035381123
29	0xbcda4efc	-0.02664899
30	0xbc9454f1	-0.01810691
31	0xbc452589	-0.012032875
32	0xbdc293d1	-0.0950085
33	0x3cc1242e	0.023576822
34	0xbd71429f	-0.058901425
35	0xbd0fd515	-0.03511532
36	0xbd6c27e3	-0.057655226
37	0x3dad11e6	0.084506795
38	0x3dabd7df	0.083907835
39	0xbc7716bc	-0.015081104
40	0xbd1827df	-0.0371474
41	0xbd648cb4	-0.055798247
42	0xbc651378	-0.0139816925
43	0xba60a3a4	-0.0008569306
44	0xbb6e8d9b	-0.0036400321
45	0x3d8250e6	0.063630864
46	0xbd814654	-0.06312242
47	0xbc5cd786	-0.013479119
48	0xbd1abd79	-0.03777835
49	0xbc2cbed4	-0.010543544
50	0xbd94831c	-0.0725157
51	0x3d153e9b	0.03643666
52	0xbd80c410	-0.06287396
53	0x3c6f64a5	0.014611398
54	0xbc622d3e	-0.013804732
55	0x3cf262a2	0.029588047
56	0x3d9f20db	0.077699386
57	0x3cdafd58	0.026732132
58	0xbd898f81	-0.06716824
59	0xbd56c177	-0.052430596
60	0x3a889030	0.0010418948
61	0xbdc35df5	-0.09539405
62	0xbc78b018	-0.015178703
63	0xbcb5c784	-0.022189863
64	0xbd614166	-0.05499401
65	0x3d0e54c1	0.034748796
66	0x3cd54967	0.026035978
67	0xbcc3d477	-0.023905022
68	0x3c49e8f4	0.012323607
69	0xbc975935	-0.018475154
70	0x3d8ead06	0.06966595
71	0x3c50e06e	0.012748821
72	0xbd8084a3	-0.062752984
73	0x3d879c51	0.06621612
74	0x3b8b036b	0.004242351
75	0x3c8cb405	0.017175684
76	0xbc4215c7	-0.011846012
77	0x3d44be76	0.0480332
78	0x3cb4ebc4	0.022085078
79	0xbd80c899	-0.06288261
80	0xbe068350	-0.13136029
81	0xbc7b9d99	-0.015357398
82	0x3ddeb195	0.10873715
83	0x3c217f54	0.009857018
84	0xbcccc068	-0.02499409
85	0xbd3f1982	-0.046655186
86	0x38b375d5	8.557333e-05
87	0x3d47bd6a	0.048764624
88	0xbd05121f	-0.032487985
89	0x3d13fe33	0.036131095
90	0x3d3c94e5	0.046040434
91	0xbdddce80	-0.108304024
92	0x3d2532be	0.040331595
93	0xbd1c5f7a	-0.03817699
94	0x3caf4e5f	0.021399675
95	0x3d62b001	0.05534363
96	0x3c069413	0.008214015
97	0x3bef737e	0.007307469
98	0xbdcfd48c	-0.10147962
99	0xbd79c1b3	-0.06097574
100	0xbcf57a29	-0.029965477
101	0x3dad8c3c	0.08474013
102	0x3cd06ca0	0.025442421
103	0x3e09038c	0.1338026
104	0x3d9280fd	0.07153509
105	0xbd4f902c	-0.050674602
106	0xbd5e628b	-0.054293197
107	0x3d0aa502	0.03384877
108	0x3d9bde08	0.076107085
109	0x3d8341e2	0.064090505
110	0xbc20562a	-0.009786168
111	0xbd9d4048	-0.07678276
112	0xbc9af9ad	-0.018917883
113	0x3d545da7	0.051847126
114	0xbb0eea9e	-0.0021807323
115	0x3cb51071	0.022102566
116	0x3d223858	0.039604515
117	0xbd3f898e	-0.04676204
118	0xbc0475e8	-0.008084752
119	0xbcccfacf	-0.025021939
120	0xbcb3440c	-0.021883033
121	0xbd63cdc7	-0.055616166
122	0xbce4cf1b	-0.027930787
123	0xbc51bd26	-0.012801444
124	0xbd67f86f	-0.05663341
125	0x3c81e971	0.015858384
126	0x3d6746af	0.056463894
127	0xbbed1d6d	-0.007236174
128	0x3d675bbf	0.05648398
129	0x3a94c664	0.0011350629
130	0x3d40aa5c	0.047037467
131	0x3bd8e10f	0.006618626
132	0xbb363349	-0.0027801564
133	0xbd85c4c4	-0.06531671
134	0xbd39c559	-0.04535422
135	0x3d438cbe	0.047741644
136	0x3d64398b	0.05571894
137	0x3cc6d73a	0.02427255
138	0xbdb2567d	-0.087079026
139	0x3c26e324	0.0101859905
140	0x3d0eacc4	0.03483273
141	0xbbc712d6	-0.0060752435
142	0x3d50e25c	0.050997123
143	0x3d80b3f8	0.06284326
144	0x3d29b47a	0.04143188
145	0xbd8aec70	-0.06783378
146	0xbd08021e	-0.033205144
147	0x3c2fa2c7	0.0107199615
148	0xbced1568	-0.028940871
149	0x3d9892bb	0.074498616
150	0xbd4dab21	-0.05021203
151	0x3c4e6f3e	0.012599764
152	0x3da77bb7	0.081778936
153	0xbd28af64	-0.04118289
154	0x3d576b86	0.052592777
155	0xbe67d6e2	-0.22640565
156	0xbb83188a	-0.004000728
157	0xbd290f30	-0.04127425
158	0xbd10a21f	-0.03531086
159	0x3c58b847	0.013227529
160	0xbddc4675	-0.10755626
161	0x3ac3f137	0.0014949207
162	0xbcb1a730	-0.021686167
163	0x3cc866f5	0.024463156
164	0x3d15ba3d	0.036554564
165	0xbaab72b7	-0.0013080452
166	0xbdb56d85	-0.0885878
167	0xbd93ead6	-0.07222526
168	0xbd8c59ad	-0.06853042
169	0x3ca85690	0.020549089
170	0xbc34138a	-0.010990987
171	0x3c8cc21d	0.017182404
172	0x3cc16755	0.023608843
173	0x3d1025d5	0.03519233
174	0xbba86043	-0.0051384284
175	0xbc9519d1	-0.018200787
176	0xbdf16c13	-0.11788192
177	0xbca7ca49	-0.0204822
178	0x3da0adf9	0.07845683
179	0xbd10be3c	-0.03533767
180	0xbd4faa3f	-0.05069947
181	0x3d871d41	0.065973766
182	0x3caeed16	0.021353286
183	0xbcde1c67	-0.027113153
184	0x3da4fb03	0.08055689
185	0x3be8460a	0.0070884274
186	0xbd803e48	-0.06261879
187	0xbbb36030	-0.005474113
188	0xbe22f8f3	-0.15915279
189	0xbb6cad4e	-0.003611404
190	0xbc0f3205	-0.008739953
191	0x3ca1b840	0.019741178
192	0xbcc6e06b	-0.024276933
193	0x3da170d0	0.078828454
194	0x3d1e2a38	0.03861448
195	0xbd03d17c	-0.0321822
196	0x3cf397e2	0.02973551
197	0x3b245d54	0.0025080042
198	0x3d58fc8e	0.05297523
199	0x3c7710b2	0.015079664
200	0xbd562dc9	-0.052289758
201	0xbd31da02	-0.0434208
202	0xbd74a7c5	-0.05973031
203	0x3d2c42f8	0.042056054
204	0xbd88ca2c	-0.06679186
205	0x3d24a7b6	0.040199004
206	0x3cda0ae8	0.026616529
207	0x3c261577	0.010136954
208	0xbd067591	-0.032826964
209	0xbd495784	-0.049155727
210	0x3ce20d63	0.027594274
211	0xbd18f179	-0.03733966
212	0xbbc39928	-0.0059691854
213	0x3c03936f	0.008030756
214	0x3d3d2474	0.046177343
215	0xbd88b986	-0.06676011
216	0x3d035cc0	0.032070875
217	0x3cabde6a	0.020980079
218	0xbdda6579	-0.106638856
219	0xbca7e8a8	-0.020496681
220	0xbc30dee6	-0.010795331
221	0x3d133e57	0.035948124
222	0x3d0d2127	0.034455445
223	0xbcebd3da	-0.028787542
224	0x3d8a8a27	0.06764632
225	0xbd6bbfb3	-0.057555865
226	0x3d20af50	0.03922969
227	0xbb17f552	-0.0023186994
228	0x3da5a78d	0.080885984
229	0xbc4a7853	-0.012357789
230	0xbc9f7360	-0.019464195
231	0x3d8a4183	0.067507766
232	0xbd5d613a	-0.0540478
233	0xbd2a0f48	-0.04151848
234	0x3c4d4f7d	0.0125311585
235	0xbc87bcd9	-0.016569542
236	0xbc180055	-0.009277423
237	0x3bb62552	0.005558648
238	0xbd106a2a	-0.035257496
239	0x3ca19058	0.019722149
240	0x3da1d273	0.07901468
241	0x3bfff6d9	0.007811409
242	0x3d2182e7	0.03943148
243	0xbdc261ba	-0.09491296
244	0x3d26bfb9	0.040710185
245	0x3d01d704	0.031699196
246	0xbd5f69a8	-0.05454412
247	0xbca199a7	-0.019726587
248	0xbdc67af3	-0.096914195
249	0xbc5742ab	-0.0131384535
250	0xbaf53e1f	-0.001871053
251	0x3d519b54	0.051173523
252	0xbc32ae80	-0.010905862
253	0x3a289591	0.00064309785
254	0x3d290d55	0.04127248
255	0x3b858329	0.0040744734

bias f4 [256]
0	0x3c59dc8a	0.0132972095
1	0x3d53cb71	0.05170769
2	0xbc7e92c4	-0.015537921
3	0x3d4d09a9	0.05005804
4	0xbd40732b	-0.046984833
5	0x3d8d44be	0.06897877
6	0x3d73da7a	0.059534527
7	0xbcdb1d08	-0.026747242
8	0x3c8ff70b	0.017573854
9	0xbb6f37e9	-0.003650183
10	0xbd0da9f7	-0.03458592
11	0xbdc84a2f	-0.097797744
12	0xbcb57726	-0.022151541
13	0x3da5c4ac	0.08094153
14	0x3d87b039	0.06625409
15	0xbd0c2a03	-0.034219753
16	0x3d8e4a59	0.069477744
17	0xbd0ba65c	-0.0340942
18	0x3d1e1553	0.038594555
19	0x3cead101	0.028664114
20	0xbc9bde31	-0.019026848
21	0xbc276e92	-0.010219233
22	0x3ce9ff03	0.028563982
23	0x3d22c048	0.039734155
24	0x3c54d8ef	0.012991174
25	0xbd0d36a0	-0.034475923
26	0x3d3d98d5	0.04628833
27	0xbd2e91fd	-0.042619694
28	0x3d0198a8	0.031639725
29	0x3d745676	0.059652768
30	0xbc8e35ac	-0.017359577
31	0xbd2b5da1	-0.04183734
32	0x3d6e87d3	0.058235
33	0x3d4fa57d	0.05069493
34	0xbd284b3a	-0.041087367
35	0xbd005b58	-0.031337112
36	0x3d9c9767	0.07646065
37	0x3d9bb868	0.07603532
38	0x3beee808	0.007290844
39	0x3d650ed8	0.05592236
40	0x3d2bcabf	0.0419414
41	0x3d16823f	0.036745306
42	0xbd8bce1c	-0.068264216
43	0x3d9c0951	0.076189645
44	0x3d914a5d	0.07094262
45	0x3c813909	0.015774267
46	0x3d36eaf4	0.044657663
47	0x3dcbfda1	0.09960485
48	0x3c2071db	0.00979277
49	0x3da05f92	0.078307286
50	0x3d470a8b	0.04859404
51	0x3d7e93b1	0.06215257
52	0x3dc3d04f	0.09561216
53	0x3c4af42b	0.012387316
54	0x3d6a8e3e	0.05726456
55	0x3dd6c2f8	0.10486406
56	0x3dc4e3e4	0.09613779
57	0x3c375d4e	0.011191679
58	0x3d561520	0.05226624
59	0xbcf8f1ae	-0.03038868
60	0x3d010bda	0.031505443
61	0x3b5ebcb6	0.0033986992
62	0xbc9ee7d1	-0.019397648
63	0xbd4d1f74	-0.050078824
64	0x3d96aa54	0.07356706
65	0xbcd7d715	-0.026347676
66	0xbcb72332	-0.02235565
67	0xbcd0d116	-0.025490325
68	0xbd559a1c	-0.052148923
69	0x3d91de54	0.07122484
70	0x3d403c05	0.04693224
71	0xbce490b0	-0.027901024
72	0xbd0cae78	-0.034346074
73	0x3d80c1df	0.06286978
74	0xbd415904	-0.047204033
75	0x3b5aabe3	0.0033366613
76	0xbcb29dc4	-0.021803744
77	0x3a097af1	0.0005244455
78	0x3c801c1a	0.0156384
79	0x3d15d65f	0.036581393
80	0x3c0fd401	0.008778573
81	0xbc04a3cb	-0.008095692
82	0xbba55400	-0.005045414
83	0x3cc7b366	0.024377536
84	0xbc70b8b1	-0.014692471
85	0xbcdb1d9e	-0.026747521
86	0x3d5f75be	0.054555647
87	0x3d6e21bd	0.058137644
88	0xbd1ad8ba	-0.037804343
89	0xbd159e61	-0.036527995
90	0xbd058c4d	-0.032604504
91	0x3c7fbf02	0.015609505
92	0xbca0f442	-0.019647721
93	0x3d0b7f49	0.034056935
94	0x3da4cca4	0.080468446
95	0x3d7ea85d	0.062172282
96	0x3d868ebe	0.06570195
97	0x3d1d8831	0.03845996
98	0xbc69ff4e	-0.014282061
99	0x3d2ac448	0.041691095
100	0x3dc524bf	0.096261494
101	0x3d600adb	0.054697853
102	0x3d0efe3b	0.03491042
103	0xbcfa7c40	-0.030576825
104	0xbd63c2c6	-0.055605672
105	0x3d1f0011	0.038818423
106	0x3d7d830d	0.061892558
107	0xbd3b849d	-0.045780767
108	0x3d85556d	0.06510434
109	0xbd35c1ab	-0.04437415
110	0x3d25f358	0.040515274
111	0x3cba38ff	0.022732256
112	0xbd0c3599	-0.034230802
113	0x3d328242	0.043581255
114	0xbca27fcf	-0.019836335
115	0x3d6f8aef	0.058482107
116	0xbc2c143f	-0.010502874
117	0x3c63a79d	0.013894943
118	0xbc88d4cb	-0.01670303
119	0x3c8f6b82	0.017507318
120	0x3be878fc	0.0070945006
121	0x3c48f8d4	0.0122663565
122	0xbbe5dba8	-0.0070147105
123	0x3c8f4821	0.017490448
124	0x3c0004ef	0.007813676
125	0x3c92931f	0.017892418
126	0x3d8efa69	0.06981356
127	0x3daf3ad7	0.08556145
128	0x3da77dc4	0.08178285
129	0x3d7886ce	0.060675435
130	0x3d657415	0.056018908
131	0xbd1a649d	-0.03769361
132	0xbca2ecc3	-0.019888287
133	0x3c9f6f9c	0.0194624
134	0x3d0543fb	0.032535534
135	0x3c96da82	0.01841474
136	0xbd2a9391	-0.041644637
137	0xbd3ec1fd	-0.04657172
138	0x3c45bc84	0.012068871
139	0xbce14d1a	-0.027502585
140	0x3dac2b0c	0.08406648
141	0xbcdbac6e	-0.02681562
142	0x3da514d6	0.08060615
143	0x3d89f31a	0.06735821
144	0x3d68829d	0.056765188
145	0x3b2c37f2	0.0026278463
146	0x3d99234c	0.074774355
147	0x3d1dcd4c	0.038525864
148	0x3d9b8e5c	0.07595512
149	0x3c379b1a	0.011206413
150	0xbc132d12	-0.008982914
151	0xbcae727f	-0.02129483
152	0xbb569970	-0.0032745264
153	0x3c6c201d	0.014411953
154	0xbc7e879b	-0.015535261
155	0x3dca4eda	0.09878321
156	0xbca50a12	-0.020146403
157	0x3d333d78	0.043759793
158	0x3ccb340a	0.024805088
159	0xbc0970e3	-0.008388731
160	0x3d31cf7a	0.043410756
161	0x3d3e0e2d	0.046400238
162	0xbd60ecf4	-0.054913476
163	0x3d5133c1	0.051074747
164	0x3d798ae3	0.06092347
165	0x3cd98f6e	0.02655765
166	0x3d1a8827	0.0377275
167	0x3d1203f1	0.03564829
168	0x3cc463ac	0.023973309
169	0x3c1df640	0.00964123
170	0xbcdb6931	-0.026783558
171	0x3d3cabaf	0.046062168
172	0xbcc1f73e	-0.023677465
173	0x3c02f2d7	0.007992468
174	0x3c82b8ae	0.015957203
175	0x3d868022	0.06567408
176	0x3d300591	0.04297406
177	0xbc79f40e	-0.015255941
178	0x3cea63ca	0.028612036
179	0x3d904905	0.07045177
180	0x3c32afb4	0.010906149
181	0x3dbd1c3d	0.09233902
182	0x3c792752	0.015207129
183	0xbd363027	-0.044479515
184	0xbd707d5d	-0.058713306
185	0xbd196f74	-0.037459806
186	0x3d18202e	0.037140064
187	0x3cbde9f2	0.023182843
188	0xbce66c28	-0.028127745
189	0x3d58e186	0.05294945
190	0xbcd1c600	-0.02560711
191	0x3d8fb920	0.07017732
192	0x3cbd365a	0.023097206
193	0xbcd92570	-0.02650711
194	0x3d1e58be	0.03865885
195	0xbd0dae8c	-0.03459029
196	0x3c8b2521	0.016985478
197	0x3d573210	0.052537978
198	0x3c2967fa	0.010339731
199	0xbc95c95e	-0.018284496
200	0x3b8e6a65	0.0043461793
201	0x3d100868	0.035164267
202	0x3d01f55f	0.031728145
203	0x3d28704e	0.041122727
204	0x3d0c3bf9	0.034236882
205	0xbb96f6b3	-0.0046070456
206	0x3cbc3f06	0.02297927
207	0x3d464cdc	0.048413143
208	0xbc5b10a9	-0.013370671
209	0xbb3c5ac2	-0.002874062
210	0x3da74936	0.08168261
211	0x3d957fe3	0.07299783
212	0xbd65daaf	-0.056116756
213	0x3d47ceb0	0.048781097
214	0x3cb0be27	0.021575047
215	0x3d5a4811	0.053291384
216	0x3c899979	0.016796814
217	0x3d89031d	0.06690047
218	0x3c80be9d	0.015715891
219	0x3db4c004	0.088256866
220	0xbcd6d763	-0.026225751
221	0xbc484372	-0.012223111
222	0x3cfaad1f	0.030600129
223	0x3d3e7ac7	0.04650381
224	0x3ba0579a	0.0048932554
225	0xbd9b68c0	-0.07588339
226	0xbcb0d901	-0.02158785
227	0x3c770e73	0.015079129
228	0x3c77f9bb	0.015135224
229	0x3d57c2b2	0.05267591
230	0x3a4305e7	0.0007439539
231	0x3c73145e	0.014836399
232	0x3cb11cfc	0.021620266
233	0x3d875f2b	0.06609949
234	0x3b4597d3	0.0030150309
235	0xbd109a45	-0.035303373
236	0xbd4f790e	-0.050652556
237	0x3d1a2159	0.03762946
238	0x3d15c0ba	0.03656075
239	0x3d48f02f	0.049057182
240	0xbd847440	-0.064674854
241	0x3bcf43b7	0.006325211
242	0x3d819c7a	0.06328674
243	0x3c5e30a4	0.0135614015
244	0x3c85917e	0.016304728
245	0x3d4523e2	0.048129924
246	0x3d0a10cd	0.03370743
247	0x3c7fa921	0.015604288
248	0x3d9b247d	0.07575319
249	0xbafac796	-0.0019132968
250	0x3d3fb91f	0.046807405
251	0x3d50e0d9	0.05099568
252	0x3cc700fd	0.024292463
253	0xbd44ecc6	-0.048077367
254	0xbbaba763	-0.00523846
255	0x3d469869	0.048485193

weight f4 [256, 256]
0	0xbc9d2580	-0.01918292
1	0x3cfafdea	0.030638654
2	0xbcd4a917	-0.025959535
3	0x3c861da0	0.016371548
4	0xbb55f80b	-0.0032649066
5	0xbd4b0c27	-0.049572136
6	0xbc9d25e8	-0.019183114
7	0xbd21a23a	-0.039461352
8	0x39d8e19a	0.00041366817
9	0x3c03e1c3	0.008049431
10	0xbb017e4a	-0.0019759112
11	0xbd3f5c5f	-0.04671895
12	0x3c7c34ba	0.01539343
13	0x3c52eef4	0.012874354
14	0x3ac6f51a	0.0015179247
15	0x3d2a5592	0.041585512
16	0x3d5ba6ff	0.053626057
17	0xbc9866b0	-0.018603653
18	0xbd0914d4	-0.03346713
19	0xbcf5d14d	-0.030007029
20	0x3cce59e6	0.025189351
21	0xbd7cd60f	-0.06172758
22	0x3c2b1593	0.010442155
23	0xbcf50d64	-0.029913612
24	0x3bbd68ef	0.0057803313
25	0xbd4e1478	-0.05031249
26	0xbd584c29	-0.052807007
27	0xbd9ca206	-0.07648091
28	0xbd86208d	-0.06549177
29	0x3d2e96aa	0.042624153
30	0xbd3f0942	-0.04663969
31	0x38a3d5e9	7.8122896e-05
32	0xbd81d9c7	-0.06340366
33	0xbd320618	-0.043462843
34	0x3c8b40a2	0.016998593
35	0xbccc940e	-0.024972942
36	0x3d544141	0.051820043
37	0x3bfcfb48	0.0077203847
38	0x3d130594	0.03589399
39	0xbcb675be	-0.02227294
40	0xbc7c5731	-0.015401647
41	0x3b5b6825	0.0033478823
42	0x3d847f08	0.06469542
43	0xbc859fe9	-0.016311603
44	0x3d0d537e	0.034503452
45	0xbd1bbb31	-0.038020317
46	0xbc6f5515	-0.0146076875
47	0xbd564764	-0.052314177
48	0xbc48f803	-0.012266162
49	0xbc8f7ff5	-0.01751707
50	0xbc063207	-0.008190638
51	0xbd1932b3	-0.037401866
52	0xbc8dafe4	-0.017295785
53	0x3c8fbb31	0.017545315
54	0xbd5c2ffd	-0.053756703
55	0x3ba5cd94	0.005059907
56	0x3ca94ebe	0.02066743
57	0xbc509a2d	-0.012732071
58	0xbc78461c	-0.015153434
59	0x3d509ad9	0.050928924
60	0xbd16c61f	-0.036810037
61	0xbcaeafd8	-0.021324083
62	0xbd2dff2b	-0.042479675
63	0xbd5ad480	-0.053425312
64	0xbc64c45b	-0.01396283
65	0x3ce7955b	0.02826946
66	0xbb7ad744	-0.003827528
67	0xbc87635c	-0.01652687
68	0x3b53e907	0.003233494
69	0x3d6d7b0c	0.057978675
70	0xbcc7cc64	-0.024389453
71	0xbc387c42	-0.011260094
72	0x3aad7954	0.0013235011
73	0xbc493235	-0.012280037
74	0x3cce2141	0.025162341
75	0x3ce8a7e2	0.028400365
76	0x3d3f61a0	0.04672396
77	0xbcd5181e	-0.026012477
78	0xbd604b8d	-0.05475955
79	0x3d16118f	0.03663784
80	0xbcbb7003	-0.02288056
81	0xbac36e3e	-0.0014910174
82	0xbd2a7a14	-0.04162033
83	0x3c928f90	0.017890722
84	0x3c0f2243	0.008736196
85	0xbd1a4cb3	-0.037670802
86	0xbd68a17b	-0.056794625
87	0xba62122d	-0.0008623924
88	0xbd8ca8d6	-0.068681404
89	0xbd811eb9	-0.06304688
90	0xbd2fe5c0	-0.042943716
91	0xbd98bf55	-0.07458369
92	0x3c92cb3a	0.017919172
93	0xbd48f2ec	-0.049059793
94	0xbd300ea2	-0.042982705
95	0x3d4d5b59	0.050135944
96	0xbc9e70fc	-0.019340985
97	0x3c8e3e61	0.017363729
98	0xbbbc5911	-0.005747922
99	0xbd1b5e14	-0.037931517
100	0xbd123e87	-0.035704162
101	0x3cb62a01	0.022236826
102	0xbc9b9f76	-0.018996935
103	0x3d3554e1	0.0442704
104	0x3cf60523	0.030031746
105	0xbc722296	-0.014778754
106	0xbcd93c4e	-0.026518013
107	0xbd5469c2	-0.05185867
108	0x3cb226f9	0.0217471
109	0x3bed0b60	0.007234022
110	0xbd46b606	-0.048513435
111	0x3ca62943	0.020283347
112	0xbc699642	-0.014257016
113	0x3b45ab0c	0.0030161766
114	0xbd29e5f8	-0.04147908
115	0xbc6b1f4f	-0.014350726
116	0xbd58429d	-0.052797902
117	0x3c6e78b1	0.014555142
118	0xbcb56f7d	-0.022147888
119	0xbd548916	-0.051888548
120	0xba86edd2	-0.0010294265
121	0x3d04689e	0.032326333
122	0x3d1d0f3d	0.03834461
123	0x3c9cb11c	0.019127421
124	0x3bf4587e	0.007456838
125	0x3d01e69c	0.031714067
126	0xbd82adb4	-0.063807875
127	0xbc82c3bc	-0.015962474
128	0xbd85bafa	-0.065298036
129	0x3d06fc55	0.032955486
130	0xbbf35ab6	-0.007426585
131	0xbd77307a	-0.060348965
132	0x3d070230	0.03296107
133	0x3cb196fe	0.021678444
134	0xbd5ad5d2	-0.05342657
135	0xbb951be1	-0.0045504426
136	0x3c4d1ce4	0.012519095
137	0xbd029a82	-0.03188563
138	0x3d19dc9b	0.0375639
139	0x3d13741b	0.0359994
140	0x3d35656b	0.044286173
141	0xbd3d2759	-0.046180103
142	0xbd72435e	-0.059146278
143	0xbd72fda5	-0.059323926
144	0xbc81b08c	-0.015831254
145	0x3d65b56b	0.056081217
146	0xbd7af40b	-0.061267894
147	0xbcc2b0f3	-0.023766017
148	0xbd398d37	-0.04530069
149	0xbd8709b7	-0.0659365
150	0xbc46d70d	-0.012136233
151	0xbcdf176c	-0.027232848
152	0xbd7c1da3	-0.0615517
153	0x3cdf2646	0.02723993
154	0x3bc2de32	0.005946898
155	0xbd0ba179	-0.03408954
156	0xbd2f1da0	-0.042752862
157	0xbcd6abcd	-0.026204968
158	0xbc6ea8f7	-0.014566652
159	0x3d4b0bd6	0.049571835
160	0x3d53f44f	0.051746663
161	0xbcb410f6	-0.021980744
162	0xbd5d0585	-0.053960342
163	0x3d4588aa	0.048226036
164	0xbcb16acb	-0.021657368
165	0xbd24f278	-0.0402703
166	0x3d45b698	0.048269838
167	0x3d5adb3a	0.053431727
168	0xbc77dd38	-0.015128426
169	0x3d41ecfe	0.047345154
170	0x3d5e5ab3	0.054285716
171	0xbb09c7f7	-0.002102373
172	0xbc33dcde	-0.010977952
173	0xbc1b483a	-0.009477669
174	0x3ca86e2b	0.020560345
175	0xbb85d0f5	-0.0040837475
176	0x3d3eb020	0.046554685
177	0xbd20b9a2	-0.039239533
178	0x3d0381c2	0.03210617
179	0x3d537839	0.051628325
180	0x3d1d0232	0.03833217
181	0xbd0d1779	-0.034446213
182	0xbca4d6bb	-0.020121923
183	0xbb3bdaae	-0.0028664279
184	0xbc28faee	-0.010313733
185	0x3d3d8af4	0.046275094
186	0x3d2ada63	0.041712176
187	0x3dc789dc	0.097430915
188	0xbd52713f	-0.05137753
189	0xbc890365	-0.016725251
190	0x3d1f57b4	0.038902
191	0xbd7b84f7	-0.061406102
192	0x3cefef30	0.029288858
193	0xbcb9365d	-0.02260893
194	0x3c274cfa	0.010211224
195	0xbd556fb5	-0.052108485
196	0x3cf34543	0.029696112
197	0x3cdce386	0.02696396
198	0xbce15148	-0.027504578
199	0xbca23b5e	-0.0198037
200	0xbd5e03b2	-0.054202743
201	0x3cf3faeb	0.029782733
202	0x3c1a8178	0.009430282
203	0x3c0977ea	0.008390406
204	0x3d3c1164	0.045915022
205	0xbc9edf75	-0.019393662
206	0xbd0b14e3	-0.033955466
207	0xbd5916fa	-0.053000428
208	0x3c8004ce	0.015627291
209	0xbd58ff47	-0.052977826
210	0xbd4b67db	-0.04965959
211	0xbd062d4c	-0.032758042
212	0x3d106313	0.035250735
213	0xbce06434	-0.02739153
214	0x3cdc66b5	0.026904443
215	0xbd1d25a5	-0.03836598
216	0x3b5514b3	0.0032513558
217	0x3d18ce7e	0.0373063
218	0xbd58e0dd	-0.05294882
219	0x3c37c067	0.011215306
220	0x3d1a837e	0.037723057
221	0xbd5c20e1	-0.053742293
222	0x3d384eae	0.04499691
223	0x3cb1cf89	0.021705406
224	0x3d1b421e	0.03790485
225	0x3d32f5a5	0.043691296
226	0xbd7c00e2	-0.06152428
227	0xbac6eb9a	-0.0015176416
228	0xbd17b4d7	-0.037037697
229	0x3d11f635	0.035635192
230	0xbb905081	-0.004404128
231	0x3c400823	0.01172069
232	0x3d18d429	0.037311707
233	0xbd1b4e56	-0.037916504
234	0x3d19214b	0.037385266
235	0x3d4984e5	0.049199004
236	0x3bb8a9ac	0.005635461
237	0x3d15df57	0.036589947
238	0x3cbe85d9	0.023257183
239	0xbd13434a	-0.035952844
240	0xbceee8d0	-0.029163748
241	0xbd059dfa	-0.03262136
242	0xbbb6ff0a	-0.0055846022
243	0x3c7f7367	0.015591479
244	0x3c6033d0	0.013684228
245	0x3d025df0	0.031827867
246	0x3d1f99d0	0.038965046
247	0xbbdf96af	-0.006823383
248	0x3b5a7a12	0.003333692
249	0x3d4164e8	0.047215372
250	0xbbde6e8a	-0.0067880796
251	0x3c324392	0.010880368
252	0xbd010cba	-0.031506278
253	0x3d4b18a8	0.04958406
254	0x3d50eea3	0.05100883
255	0xbd0998e9	-0.033593092

bias f4 [256]
0	0x396ae64f	0.00022401776
1	0x3bb68ab2	0.005570733
2	0xbca20862	-0.019779388
3	0xbd50dcd1	-0.050991837
4	0x3dbd5bba	0.09246011
5	0xbd5a9440	-0.05336404
6	0x3b7b665f	0.0038360578
7	0xbcd84054	-0.026397862
8	0x3d0d6cf0	0.03452772
9	0x3cd4e172	0.025986407
10	0xbcb7edce	-0.022452261
11	0xbbbd14dd	-0.0057703094
12	0xbd17961e	-0.037008397
13	0xbd91e36b	-0.07123455
14	0x3d0e4237	0.034731116
15	0xbc93eb88	-0.018056646
16	0x3bc61fea	0.006046285
17	0x3d26132a	0.04054562
18	0xbd402f9d	-0.046920408
19	0x3c585a5e	0.013205139
20	0x3cd0f337	0.025506599
21	0x3d0fd7a6	0.035117768
22	0x3d238c88	0.039928943
23	0xbd8a17a3	-0.067427896
24	0xbce5aeb9	-0.028037416
25	0x3d98cd7d	0.07461069
26	0x3d61b304	0.055102363
27	0x3d83c6d6	0.06434409
28	0xbd6d3128	-0.057908207
29	0x3d593cbd	0.05303644
30	0x3cd070e4	0.025444455
31	0xbc97a725	-0.018512318
32	0xbd0416ee	-0.03224843
33	0x3d578821	0.052620057
34	0xbd912378	-0.07086843
35	0x3ab74c4b	0.0013984529
36	0xbce5b21e	-0.028039034
37	0x3dc13876	0.09434597
38	0x3cc0d6e6	0.023539972
39	0x3d2b7b4e	0.04186564
40	0x3c4c3f38	0.012466244
41	0x3c8ee4e4	0.017443128
42	0x3cc2ab51	0.02376333
43	0xbd577d68	-0.05260983
44	0x3dbd0e0e	0.09231196
45	0xbbb13da4	-0.0054089595
46	0x3d92ce35	0.07168237
47	0x3d42d03d	0.047561873
48	0x3be456a2	0.0069683352
49	0xbd4fc714	-0.050726965
50	0x3da682c5	0.08130411
51	0x3da24955	0.07924143
52	0x3d6c4ee5	0.057692427
53	0xbd0d1676	-0.03444525
54	0x3cd7316f	0.026268689
55	0x3d009ff8	0.031402558
56	0xbd881384	-0.06644347
57	0x3d1471b0	0.036241233
58	0xbd02899a	-0.03186951
59	0x3c05cb2f	0.0081661185
60	0xbc80734d	-0.01567998
61	0xbc9ea429	-0.019365387
62	0x3d803486	0.06260018
63	0xbd5d8cb6	-0.05408927
64	0xbc0981c6	-0.008392757
65	0x3d566d3b	0.052350264
66	0x3a19dd75	0.00058694865
67	0xbcff82a1	-0.031190218
68	0x3d65ef05	0.05613615
69	0xbca974fa	-0.020685662
70	0x3dae0ac4	0.08498147
71	0xbd0cdfbc	-0.034393057
72	0x3bebe34f	0.007198728
73	0x3ccb137c	0.024789564
74	0x3d20b2e9	0.039233122
75	0x3d1713f1	0.036884252
76	0xbc9f3083	-0.019432312
77	0xbceb77bd	-0.02874362
78	0x3d3c7371	0.04600853
79	0x3ccab347	0.02474369
80	0x3d2bc845	0.04193904
81	0x3d619aaf	0.05507916
82	0xbbdedda9	-0.0068013263
83	0x3cfe7247	0.031060351
84	0xbac49f2f	-0.0015001054
85	0x3c195dd0	0.009360746
86	0x3d0f0afb	0.03492258
87	0x3d35eae0	0.044413447
88	0x3c2aedd2	0.010432677
89	0x3da835bc	0.08213374
90	0x3d4d6703	0.050147068
91	0xbc3ebf71	-0.011642323
92	0x3d33f997	0.0439392
93	0x3c1da29c	0.009621289
94	0x3d6e3cea	0.05816356
95	0x3c5c9e79	0.013465517
96	0x3cc50053	0.024048006
97	0x3cb4231b	0.021989396
98	0x3d457d09	0.048214946
99	0x3d418f58	0.047255844
100	0xbd8a36d0	-0.06748736
101	0x3d464da2	0.04841388
102	0xbc96978c	-0.01838281
103	0xbd341e48	-0.04397419
104	0xbd8960e0	-0.067079306
105	0x3cf84758	0.030307457
106	0xbcb2fb5b	-0.021848371
107	0xbcf62df7	-0.030051215
108	0x3d460d45	0.0483525
109	0x3b459c01	0.00301528
110	0x3c11ab7a	0.008890981
111	0xbc632623	-0.013864073
112	0x3cba8996	0.022770684
113	0xbced05a9	-0.028933363
114	0x3d507e4b	0.050901692
115	0x3d0aa2fc	0.03384684
116	0x3c8447e4	0.016147561
117	0x3c0eeb15	0.00872304
118	0x3d3ea113	0.04654033
119	0xbcbe57a8	-0.023235157
120	0x3cf80454	0.030275501
121	0x3daa7b02	0.08324243
122	0x3da77920	0.081774
123	0xbc14ff99	-0.009094142
124	0x3d85f048	0.06539971
125	0xbd1d442d	-0.038395096
126	0x3c98b23a	0.018639673
127	0xbcbf2de5	-0.023337314
128	0xbc9376cd	-0.018000985
129	0x3db1bb1e	0.08678268
130	0x3d2ed743	0.04268576
131	0xbccc2ef5	-0.024924735
132	0x3db1e4ea	0.0868624
133	0x3cac9c2a	0.021070559
134	0x3d5e63b0	0.05429429
135	0xba9dfe83	-0.0012054
136	0x3c194312	0.00935437
137	0xbcff1294	-0.031136788
138	0x3c9f05af	0.01941189
139	0xbbddf744	-0.006773861
140	0x3d3f27ff	0.046669003
141	0xbd38c36c	-0.045108244
142	0xbb078cfb	-0.0020683396
143	0x3cb63819	0.022243546
144	0x3a11d0d4	0.0005562429
145	0xbc9dee98	-0.01927881
146	0xbcfbe688	-0.030749574
147	0xbc53beea	-0.012923935
148	0xbafdfe66	-0.0019378185
149	0x3d23b71b	0.039969545
150	0x3d71c619	0.05902681
151	0xbd03a9ef	-0.032144483
152	0xbcb7addf	-0.022421775
153	0xba43ddbd	-0.0007471701
154	0x3d456aa5	0.048197407
155	0x3d19c000	0.03753662
156	0xbd467944	-0.04845549
157	0x3d4704cc	0.04858856
158	0x3d47f3c0	0.048816442
159	0x3d7018f8	0.058617562
160	0x3cbd1158	0.02307956
161	0xbd8f74ce	-0.070047006
162	0x3c4a877d	0.0123614045
163	0xbbcd4d22	-0.0062652985
164	0x3d64a14a	0.05581788
165	0xbd3e5044	-0.046463266
166	0x3d8fe079	0.07025237
167	0xbccb78ab	-0.024837812
168	0xbd61b7d1	-0.05510694
169	0xbd5f498a	-0.05451349
170	0xbd7be224	-0.06149496
171	0x3dbe0fee	0.09280382
172	0xbd1cfbf8	-0.038326234
173	0xbd287df7	-0.041135754
174	0x3ce4baf1	0.027921172
175	0xba643dfa	-0.0008706745
176	0x3de26a3e	0.1105542
177	0xbc72d955	-0.014822324
178	0x3b9c15b0	0.0047633275
179	0x3a53fd06	0.00080867147
180	0x3dba8901	0.09108163
181	0x3d5ba72c	0.053626224
182	0x3d94d450	0.07267058
183	0xbc5c51eb	-0.013447265
184	0x3ce64a2c	0.02811154
185	0xbc444ef9	-0.011981719
186	0x3d3d4443	0.046207678
187	0x3ce3f78c	0.027828
188	0x3d7b3334	0.061328128
189	0xbcd3599d	-0.025799567
190	0x3db8c23f	0.090214245
191	0x3cce500f	0.02518466
192	0x3babb922	0.0052405754
193	0x3d9c4676	0.07630627
194	0xbcbb407d	-0.022857899
195	0xbd89449f	-0.067025416
196	0x3cbd939b	0.023141673
197	0xbc96bff0	-0.01840207
198	0xbc31598d	-0.010824573
199	0xbba82727	-0.0051316204
200	0x3bb67945	0.0055686557
201	0x3d16dbe8	0.036830813
202	0xbcb6924d	-0.022286559
203	0x3d1def0b	0.038558047
204	0xbcbc7e13	-0.023009336
205	0xbd317686	-0.043325923
206	0xbc8d7957	-0.017269773
207	0x3c36be6d	0.0111537995
208	0xbd2d1d5a	-0.04226432
209	0x3daacc44	0.08339742
210	0x3b1659cb	0.0022941704
211	0xbb4d8abe	-0.0031363214
212	0x3cd97566	0.026545238
213	0x3d311677	0.043234315
214	0xbd88fd0e	-0.06688891
215	0x3dbe7c3c	0.093010396
216	0xbbb15e81	-0.005412877
217	0xbd05b922	-0.03264726
218	0xbc198b0b	-0.009371529
219	0x3c9740da	0.01846354
220	0x3d8e2df9	0.06942362
221	0xbd6f024b	-0.058351796
222	0x3c735b5e	0.014853327
223	0x3d858745	0.06519941
224	0x3b3efa31	0.0029140825
225	0x3cbaf986	0.02282406
226	0xbc07a90f	-0.008280053
227	0xbd74048a	-0.05957464
228	0xbc768f33	-0.01504879
229	0x3cfa69cf	0.030568032
230	0x3d38fe74	0.04516454
231	0xbd904cc1	-0.0704589
232	0x3da5e954	0.081011444
233	0x3d215d66	0.039395712
234	0xbd368e1d	-0.044569124
235	0x3d32fd84	0.043698803
236	0x3c5bde99	0.013419771
237	0x3da97852	0.082749024
238	0x3cf45ecd	0.02983036
239	0xbcb76174	-0.022385336
240	0x3d9eb9c4	0.07750276
241	0xbc588c05	-0.013216977
242	0x3c2720bf	0.010200678
243	0xbd8883e1	-0.06665779
244	0xbd06e91b	-0.03293715
245	0xbc113b0a	-0.008864174
246	0xbcd3c431	-0.025850387
247	0x3d3bebe5	0.045879263
248	0xbbe0dfce	-0.006862617
249	0x3d9a3477	0.07529538
250	0xbc00490e	-0.007829918
251	0xbc34795c	-0.011015262
252	0x3d9a9eb3	0.07549801
253	0x3d07db1d	0.033167947
254	0x3c2e072c	0.010621827
255	0x3cd66379	0.02617048

weight f4 [60, 256]
0	0xbd4ecd4a	-0.050488748
1	0x3d38679a	0.045020677
2	0x3d8a9e42	0.067684665
3	0xbbcc8648	-0.0062415935
4	0xbd223c2e	-0.039608173
5	0xbc8064d9	-0.015673088
6	0xbd3c1a77	-0.045923676
7	0x3cd4a69e	0.025958356
8	0x3c8f8a89	0.017522113
9	0x3d2dbc9c	0.0424162
10	0xbd033fcd	-0.032043267
11	0x3ce96ccb	0.02849426
12	0x3c11f8c3	0.008909407
13	0x3d0f9a43	0.035059225
14	0x3cad652e	0.02116641
15	0x3da285a7	0.079356484
16	0xbcedcadc	-0.029027395
17	0x3c9d89bf	0.019230722
18	0x3d64b9ae	0.05584114
19	0xbc4d2e9e	-0.012523321
20	0xbc9fcbc7	-0.019506348
21	0xbcdbcaed	-0.026830161
22	0xbc38aef9	-0.0112721855
23	0xbcbe174c	-0.023204468
24	0xbc2d25c3	-0.010568085
25	0x3d1c49c9	0.038156305
26	0xbc489383	-0.012242201
27	0xbd2257ae	-0.0396344
28	0x3d89e030	0.067322135
29	0x3d40ee47	0.04710224
30	0xbd021637	-0.031759467
31	0xbccaa7a3	-0.024738139
32	0xbcff0d28	-0.031134203
33	0x3aa08cee	0.0012249032
34	0x3d87a8ed	0.06624017
35	0xbd2dd2a9	-0.04243723
36	0xbd7e6545	-0.062108297
37	0xbd61a70a	-0.05509094
38	0x3cc66a6d	0.02422067
39	0x3d7522c2	0.0598476
40	0xbc69d209	-0.014271268
41	0xbcbc77dd	-0.023006374
42	0x3d49bf6c	0.04925482
43	0x3d5c387c	0.053764805
44	0xbd89d7dc	-0.06730625
45	0xbd9acf82	-0.0755911
46	0xbc0febd9	-0.008784258
47	0xbd176b12	-0.036967345
48	0xbd2e80cc	-0.0426033
49	0x3c0efbdf	0.008727043
50	0xbda08011	-0.07836927
51	0xbd9b3161	-0.07577778
52	0xbd8cadc9	-0.068690844
53	0x3c9cd38e	0.019143846
54	0xbccc731d	-0.024957234
55	0xbccae9e1	-0.024769725
56	0x3c57d604	0.013173584
57	0xbac8dea3	-0.001532514
58	0xbd1036b4	-0.03520842
59	0xbd836305	-0.06415371
60	0x3d882055	0.06646792
61	0xbacb86c9	-0.001552784
62	0xbd2b45b8	-0.041814536
63	0x3d871e65	0.06597594
64	0x3db3fdde	0.08788656
65	0xbb2ae8bb	-0.002607866
66	0x3d982e77	0.074307375
67	0xba991571	-0.0011679364
68	0xbd92342e	-0.07138859
69	0xbb65dc69	-0.0035074002
70	0x3ceeba78	0.02914165
71	0xbd984faf	-0.074370734
72	0xbdcafa5c	-0.099110335
73	0x3da3da86	0.080006644
74	0x3ca947ee	0.020664182
75	0x3c92ba62	0.01791114
76	0xbc77b1e2	-0.015118094
77	0xbd1cf50e	-0.03831964
78	0x3c808bb7	0.015691621
79	0x3d5d9a10	0.054102004
80	0xbd2a64c2	-0.041599996
81	0xbc93f1ad	-0.018059576
82	0xbd2768df	-0.040871497
83	0xbd8ae9da	-0.06782885
84	0xbd2a1976	-0.041528188
85	0x3db98296	0.090581104
86	0xbddbde0f	-0.10735714
87	0x3d657fd5	0.056030113
88	0xbd0127ad	-0.03153198
89	0xbd0464a2	-0.032322533
90	0xbd9d44c4	-0.076791316
91	0xbd865b17	-0.06560343
92	0x3c3d58a1	0.011556775
93	0xbce9b2e8	-0.028527692
94	0x3d908c59	0.07058019
95	0x3d142678	0.0361695
96	0x3d5fb169	0.05461255
97	0x3bf0f0ef	0.0073529403
98	0x3da680b2	0.081300154
99	0xbcba9e7e	-0.022780653
100	0x3d88151a	0.0664465
101	0x3b9fafb7	0.0048732418
102	0x3cea6d4d	0.028616572
103	0xbbf7191f	-0.0075408365
104	0x3dad205c	0.08453438
105	0xbd9700a6	-0.073731706
106	0x3a0ea82f	0.00054419314
107	0xbd45cba0	-0.048289895
108	0xbc22d91b	-0.009939457
109	0x3d7e9aa4	0.062159196
110	0x3c62d47c	0.013844606
111	0x3d8a8dcd	0.067653276
112	0xbc201639	-0.009770923
113	0x3bbffcb2	0.005858981
114	0x3d265093	0.040604185
115	0xbce713a6	-0.028207611
116	0xbd830b0a	-0.0639859
117	0xbe00ad6e	-0.12566158
118	0xbbfe658f	-0.0077635716
119	0xbcf4c6ed	-0.029880011
120	0xbd502a57	-0.05082163
121	0xbd6b1e6a	-0.057402052
122	0xbd00f002	-0.03147889
123	0x3daf3049	0.085541315
124	0xbc793fb2	-0.01521294
125	0x3d524987	0.051339652
126	0xbb035894	-0.002004181
127	0x3d58a994	0.052896097
128	0x3d06398f	0.032769736
129	0x3d559f43	0.052153837
130	0x3d2672af	0.040636715
131	0xbc5e261e	-0.0135588925
132	0xbd754c76	-0.059887372
133	0x3cfada62	0.030621711
134	0xbda7741c	-0.08176443
135	0x3d56be54	0.052427605
136	0xbc28ae04	-0.010295395
137	0x3d822644	0.06354955
138	0xbbfc0ccc	-0.007691955
139	0x3ca67822	0.020320956
140	0xbdc38a72	-0.09547891
141	0x3c7b2f4b	0.0153311
142	0xbd04830c	-0.03235154
143	0xbc0d5e1e	-0.008628396
144	0x3d88aea7	0.06673937
145	0x3d948dc2	0.07253601
146	0xbc11bee8	-0.008895613
147	0x3ba0b4ab	0.00490435
148	0xbd048478	-0.032352895
149	0x3d475fc0	0.0486753
150	0xbd88c1d9	-0.066775985
151	0xbcd8eec7	-0.026481045
152	0x3d47f89d	0.04882108
153	0xbd35b46e	-0.044361524
154	0xbd28679d	-0.04111444
155	0x3b987495	0.0046525695
156	0x3d3b156c	0.045674726
157	0x3d2427cf	0.040077027
158	0x3d89145c	0.06693336
159	0x3ca1a1b7	0.019730432
160	0xbd34d005	-0.044143695
161	0xbc62470c	-0.013810884
162	0x3d3f3c78	0.046688527
163	0xbe145adf	-0.1448779
164	0x3a90c93f	0.0011046304
165	0x3d6082dc	0.054812297
166	0xbcb9415b	-0.022614172
167	0x3c39f482	0.011349799
168	0x3be3b3fe	0.006948947
169	0xbc8942d3	-0.016755497
170	0xbc072fb1	-0.008251117
171	0xbd5c27f4	-0.05374904
172	0xbd0a7ce5	-0.033810515
173	0x3d92d166	0.07168846
174	0xbd5affd7	-0.053466644
175	0x395c195f	0.00020990286
176	0x3db1fd3d	0.086908795
177	0xbd5a5266	-0.053301238
178	0x3cce1304	0.025155552
179	0x3d95f591	0.07322229
180	0x3c0e1006	0.0086708125
181	0x3c8becc7	0.017080678
182	0x3cedd795	0.029033462
183	0x3cca15b3	0.02466855
184	0xbc1c90ca	-0.009556005
185	0xbc5e3ef6	-0.013564816
186	0xbd626ac0	-0.055277586
187	0xbc47bc34	-0.012190867
188	0xbcb44f3c	-0.022010438
189	0x3d113d70	0.035458982
190	0x3c527f05	0.012847667
191	0x3cc4e894	0.024036683
192	0xbd525359	-0.051349018
193	0x3da1e152	0.079043046
194	0xbd040928	-0.032235295
195	0x3d914523	0.07093265
196	0x3d50102d	0.050796676
197	0xbcb0f347	-0.021600379
198	0xbcb4ecdc	-0.0220856
199	0x3d03404b	0.032043736
200	0xbc1e768f	-0.009671821
201	0xbd34ff6e	-0.04418891
202	0xbdbc7f71	-0.09203995
203	0xbc6295fd	-0.013829705
204	0x3d8fa289	0.07013423
205	0xbcede86b	-0.02904149
206	0x3de9f72f	0.114241
207	0xbd60ceb2	-0.05488462
208	0xbc58ee3d	-0.013240394
209	0xbdf2a1b4	-0.11847249
210	0xba8d5aa4	-0.0010784459
211	0xbdd7ded3	-0.10540547
212	0xbb35c5a7	-0.0027736218
213	0xbcee1d29	-0.029066639
214	0xbd43c709	-0.047797237
215	0xbcb27756	-0.02178542
216	0xbd282b54	-0.041056946
217	0xbd67b09c	-0.056564912
218	0x3d59a2b6	0.05313369
219	0x3cf2a802	0.029621128
220	0xbda88588	-0.08228594
221	0x3d4d2944	0.050088182
222	0x3c8ec044	0.017425664
223	0xbd8c4c56	-0.068504974
224	0x3d613b06	0.05498793
225	0xbc55632d	-0.013024134
226	0x3cfe4821	0.031040253
227	0x3c25c924	0.010118756
228	0xbb96c02f	-0.004600547
229	0x3d9e6156	0.07733409
230	0xbd4dee8d	-0.050276328
231	0xbbdbdfe2	-0.0067100385
232	0xbc80c4f2	-0.01571891
233	0x3d4af4d6	0.0495499
234	0xbd9673da	-0.07346316
235	0x3d4cac9a	0.049969293
236	0x3d14b6eb	0.036307257
237	0x3c9aa336	0.018876653
238	0x3cbdaa42	0.023152474
239	0xbd22305f	-0.03959691
240	0x3c705e5b	0.014670934
241	0x3d40b5b5	0.04704829
242	0xbd7bf273	-0.061510514
243	0xbcd01095	-0.025398532
244	0x3bd5a6d9	0.006520134
245	0xbce7d5e4	-0.028300233
246	0x3d6936db	0.05693708
247	0xbcbee066	-0.02330036
248	0x3d4392e1	0.047747497
249	0x3d92a752	0.0716082
250	0x3b3cc76c	0.0028805388
251	0x3dc23b51	0.0948397
252	0xbd8ccce6	-0.06875019
253	0xbce6156a	-0.028086383
254	0x3d89d0f4	0.06729308
255	0xbc5f410c	-0.013626348

bias f4 [60]
0	0xbd849176	-0.06473057
1	0xbd3739d1	-0.044732872
2	0x3d38f00a	0.045150794
3	0x3b26a821	0.0025429802
4	0x3d1e2a4d	0.03861456
5	0x3d9bcd3c	0.07607505
6	0x3d4f5964	0.05062236
7	0x3d4441fc	0.04791449
8	0xbcf401bf	-0.029785989
9	0xbd083de3	-0.033262145
10	0x3d54c953	0.05194981
11	0xbd0bafa6	-0.03410306
12	0x3d6dc250	0.05804664
13	0xbcbe8602	-0.02325726
14	0x3d0193e5	0.031635184
15	0x3cac2e91	0.021018298
16	0x3d655a11	0.055994097
17	0x3cdae5e2	0.026720945
18	0x3c811eab	0.015761694
19	0x3c0588b1	0.008150266
20	0xbc2ca35b	-0.010536994
21	0xbc1bf805	-0.009519582
22	0xbd051d1f	-0.032498475
23	0xbb8a3555	-0.0042177835
24	0xbc4b36ae	-0.012403173
25	0x3d2e7adf	0.042597648
26	0x3dbd0e7d	0.09231279
27	0xbcc81717	-0.024425073
28	0xbd575ce1	-0.05257881
29	0xbc9fbbba	-0.019498695
30	0xbc5d6e42	-0.013515057
31	0x39842484	0.00025204208
32	0x3af3734d	0.0018573791
33	0x3cda6188	0.026657835
34	0x3ccc79a5	0.024960348
35	0x3bda3714	0.006659398
36	0xbcc71214	-0.024300613
37	0x3bee5518	0.0072733276
38	0x3cdeff99	0.027221488
39	0x3cdf8cce	0.02728882
40	0x3c19a120	0.009376794
41	0xbdc65d1d	-0.09685729
42	0x3d178240	0.03698945
43	0xbc5f9227	-0.013645685
44	0xbd4ad1f8	-0.049516648
45	0xbb4a9c23	-0.0030915819
46	0xbc99290b	-0.018696329
47	0xbd83b0da	-0.06430216
48	0x3c7f55a3	0.015584382
49	0x3bfd2930	0.007725857
50	0x3d5882fd	0.052859295
51	0x3cce72ef	0.025201289
52	0xbcc812a4	-0.024422951
53	0xbc9608f3	-0.018314814
54	0x3dce6a7f	0.10078906
55	0x3cd08c4b	0.025457522
56	0x3dcf9ae8	0.10136968
57	0xbd0d5333	-0.034503173
58	0x3c7a3d60	0.015273422
59	0xbcc4a63c	-0.024005048
