data/example_dynamics_data/models/kitchen/MLP_qhat_no.pth (torch, 664463 bytes, 8 tensors)

weight f4 [256, 70]
000000 29 50 49 3e 9f 6a 85 3d 86 0e 1e be dd a4 04 bd
       0.19659485 0.06514477 -0.15435228 -0.03238379
000010 de f6 64 3d 9b cc db bd ad 72 4b 3c 22 d2 49 3c
       0.055899493 -0.10732385 0.012417478 0.012318166
000020 b5 db 54 bd 04 e4 66 be 31 b1 ae 3e 5b 42 73 3d
       -0.05196734 -0.22547919 0.3411956 0.059389453
000030 61 3b e8 bd 16 6d bf 3d b5 07 54 3f 7b 1f 4f bc
       -0.11339451 0.09346978 0.8282426 -0.012641783
000040 cb 1a 34 be 28 a9 06 be d5 0e 1c be f6 97 4b 3e
       -0.17588346 -0.13150465 -0.15240033 0.19882187
000050 ef ed 1d 3f 06 90 45 be 0e b2 6d bd c0 13 91 bc
       0.6169118 -0.19293222 -0.058031134 -0.017709613
000060 77 de 62 3e 42 d1 8a bc af 35 a6 3d a1 db 8d be
       0.22155176 -0.016945485 0.08115708 -0.27706626
000070 96 c4 dc be 89 98 e6 3d 77 82 af 3c 75 18 d9 bb
       -0.43118733 0.112595625 0.021424515 -0.00662523
000080 88 75 ed bd c2 43 bc 3d 2f 91 b7 3d 26 6c 52 bd
       -0.11594683 0.09192611 0.089632384 -0.05137267
000090 43 e4 6d 3d 64 fd 50 3d e9 88 76 3c b1 15 c7 3d
       0.058079015 0.051022902 0.01504729 0.09720934
0000a0 a6 44 a9 bd 91 05 1d be b2 d8 41 3d e2 5a 46 3d
       -0.08265047 -0.15334155 0.047325797 0.048426516
0000b0 e2 dd 50 bd 4e 48 61 3d ec 89 d4 3d 4c a3 5f 3d
       -0.050992854 0.055000596 0.10377869 0.05459909
0000c0 bf 60 20 be 01 ed 1b bd 10 3a d8 3d d4 7f ee 3d
       -0.15661906 -0.03806782 0.105579495 0.11645475
0000d0 b9 c6 27 be 5b 62 12 be 8c 87 75 3d 18 3d f4 3d
       -0.163844 -0.14295332 0.05994372 0.11925715
0000e0 df ae 6c 3d 32 b4 ca 3c db e6 22 bd 5d 4d ef bd
       0.057783958 0.024744127 -0.039770942 -0.11684678
0000f0 d3 0f 12 3a 73 18 d4 bc 17 a1 68 bc 88 0f 20 be
       0.0005571816 -0.025890565 -0.014198563 -0.15630925
000100 df 60 44 bb 5c ed 46 bc 3c 37 d8 3b 40 45 00 3c
       -0.0029964966 -0.012141552 0.0065983813 0.0078290105
000110 dd 61 6c 3c a2 bd 68 3d 59 c0 08 bd 14 ba 23 bc
       0.014427629 0.056821473 -0.033386562 -0.009993095
000120 c7 61 74 3c 76 fe a1 bc b1 8e 47 3e e8 80 52 bc
       0.01491589 -0.019774657 0.19488026 -0.012848116
000130 11 46 a5 3d c1 a3 1b bd fa 4c 78 3c 69 db 88 3e
       0.08070005 -0.037997965 0.015155071 0.26729897
000140 1e 87 0e 3f be ed 82 3d 23 2e 42 bd 74 c3 c0 3d
       0.5567492 0.06393002 -0.04740728 0.0941228
000150 25 c2 d6 bd d3 19 8b 3c 42 13 c7 bd f6 a5 9b 3d
       -0.10486249 0.016980087 -0.0972047 0.07600014
000160 52 f8 f5 3c 1d b9 85 be 36 df ca 3e 63 b7 b5 bd
       0.030025635 -0.26117793 0.3962342 -0.08872869
000170 05 07 21 bc 91 7f 41 bd 8e 46 37 bd 5b 32 db bd
       -0.009828334 -0.047240797 -0.04474502 -0.10702964
000180 8e 31 09 ba bb 4d 00 3e 4f ff 26 3f e4 4a bc be
       -0.00052335195 0.12529652 0.6523332 -0.36775887
000190 86 ef d2 3d b7 79 dd 3d 6b 62 b8 bc de 67 06 bd
       0.10299592 0.10814231 -0.022507867 -0.0328139
0001a0 d1 25 89 3d 5d 6c ab 3d b9 6f 8a bb 2d f9 28 bc
       0.06696666 0.08370278 -0.004224744 -0.010313314
0001b0 7b e6 90 3d 0a fd 3e 3d dd 03 dc 3d bd 18 07 3e
       0.07075211 0.046628036 0.10742924 0.1319303
0001c0 bd 27 39 3d 18 84 38 bd 6e af af 3d e1 42 c7 3d
       0.045203913 -0.04504785 0.085783824 0.09729553
0001d0 f8 99 88 bd 63 8d b3 bd 26 b4 16 bc 87 43 87 bd
       -0.06669992 -0.08767202 -0.009198224 -0.06604677
0001e0 6b b5 95 3d b7 9f 1f 3d 98 93 a4 bd 0a 99 b9 3d
       0.07309993 0.038970675 -0.08035964 0.09062393
0001f0 da a3 a8 bd ae a9 ab 3d d8 a0 09 be 2f 0f 8e bd
       -0.08234377 0.08381973 -0.13440263 -0.0693649
000200 31 92 27 b9 c3 7a 0a 3e 0b 32 2f 3d 5e f0 dc 3d
       -0.00015980822 0.13523392 0.042772334 0.10788034
000210 7f 8b 2b 3e be 00 c4 bd fe 7c 4a 3b 8c 5f b8 bd
       0.16752432 -0.09570454 0.0030897255 -0.09002599
000220 ee 1c b5 bc f7 56 4e bc aa 64 72 bb f5 7c 00 3e
       -0.022108521 -0.012593976 -0.003698627 0.12547667
000230 16 57 14 3e 88 16 0a 3e 6d 19 e8 3d 48 25 a7 3c
       0.14486346 0.13485157 0.113329746 0.02040352
000240 38 4c 1f 3e 93 b0 38 be a9 f7 31 3e 39 46 b2 3b
       0.15556419 -0.18036108 0.17379631 0.0054405
000250 c0 8d e9 bc 94 67 97 3e 52 8c 25 bf 43 76 23 be
       -0.028509974 0.2957121 -0.64667237 -0.15963082
000260 6d 5e 8e bc 98 b2 aa 3d ea f0 40 3f 4c 14 4e 3e
       -0.01737901 0.08334845 0.75367606 0.2012493
000270 71 01 11 3e 16 f0 af bd 61 c1 97 bd 94 43 7f 3c
       0.14160706 -0.08590715 -0.07409931 0.015580077
000280 ab 49 5b be 0a e9 99 3d 1a 29 4d 3e ad d5 96 3d
       -0.21414821 0.07515152 0.2003521 0.07364974
000290 73 92 36 be da d0 85 3d 31 56 35 ba 84 40 0f 3f
       -0.17829303 0.06533976 -0.00069174456 0.5595782
0002a0 a3 06 34 be 3b 38 ef 3d 99 a4 ec bd 87 11 a4 bb
       -0.17580657 0.11680647 -0.11554832 -0.0050069722
0002b0 cf 33 ba 3c fd a8 b1 3c 83 69 d5 bd 6e 71 37 3c
       0.022729782 0.021687025 -0.104205154 0.011196477
0002c0 75 b9 6e bd 0e 1f eb bc f5 3a e3 3d 4a 06 7b bd
       -0.058282334 -0.028701331 0.110952295 -0.061285295
0002d0 16 d5 ac bd a2 81 12 bd e4 89 31 bd ec f1 96 3d
       -0.084390804 -0.03576816 -0.043344393 0.07370362
0002e0 16 1d 9f 3d 7a 82 cd 3d 57 bc 83 3d a4 b7 86 3d
       0.077692196 0.10034652 0.06432407 0.065779954
0002f0 a5 83 db 3b c5 fc cd bb 84 3b ed bd 2c 75 57 bc
       0.006699043 -0.006286236 -0.11583617 -0.013150495
000300 f6 77 48 bd b0 d8 72 3d 67 13 19 bd e2 f1 2c bd
       -0.04894253 0.05928868 -0.03737202 -0.042222865
000310 e9 05 b9 3d 80 48 da 3d 02 2c e5 3d 92 59 e0 3d
       0.090343304 0.106583595 0.111900344 0.10954584
000320 90 df 8a 3c ae e4 07 bd 18 89 1e 3e f5 b2 9d bc
       0.016952306 -0.03317707 0.15481985 -0.019250372
000330 7f 1e ed 3c f7 8b 8a bb 93 20 fa bd ec bf cc 3d
       0.028945206 -0.004228111 -0.12213244 0.09997544
000340 2c 1a b9 bc aa 84 3a bd c1 f3 83 be 17 2f 5b 3e
       -0.022595488 -0.045536675 -0.25771907 0.21404682
000350 70 f2 6c 3d 20 73 95 3d c2 08 96 3d 90 c3 1f bd
       0.057848394 0.07297349 0.07325889 -0.039004862
000360 63 0a 1a bd 49 3b 5f 3e 83 2a 08 3d 8a 11 3b 3f
       -0.03760756 0.21799959 0.033243667 0.7307364
000370 f4 fe 5e bf 05 e6 d6 bd fd b8 11 bd 67 1b 56 be
       -0.8710778 -0.104930915 -0.03557681 -0.2090889
000380 c4 65 49 be d9 8d 24 bd 20 52 df bd 9e cd 9b be
       -0.19667727 -0.04017434 -0.10904336 -0.3043031
000390 9f d5 ba be 92 85 fd 3e 4c 2f 42 3e 6b 5b 0c be
       -0.36491105 0.4951597 0.18963355 -0.13706748
0003a0 fc 95 f5 bd 84 9e c8 3d 50 78 9d bd a5 eb aa 3d
       -0.11991498 0.097958595 -0.076889634 0.08345727
0003b0 57 09 ae bd bd 37 09 bf cb 9d c7 be 4f 4b 3e 3e
       -0.08497875 -0.53600675 -0.38987574 0.18583415
0003c0 32 04 da 3d 11 c3 1a bd ef e3 b3 3d e6 ba df 3d
       0.106453314 -0.037783686 0.08783709 0.1092432
0003d0 80 c7 b9 bd ad 51 eb 3b 2e 69 f4 bd c1 94 a8 bd
       -0.09071255 0.0071813674 -0.11934124 -0.082314976
0003e0 b0 ec 37 3d 18 64 08 bd 00 2b f4 bd 47 3c a9 bc
       0.044903457 -0.03329858 -0.11922264 -0.020658625
0003f0 cb 06 bc 3c 6e 7d 42 bd 9d c2 97 bd 57 88 f4 bb
       0.022952458 -0.0474829 -0.074101664 -0.007462542

bias f4 [256]
000000 2d 5c 3a bc 5c dd 33 3c 3e bc a0 3d cb f6 0e bd
       -0.0113745155 0.010978069 0.07848404 -0.03490333
000010 30 e4 99 3d db 55 10 bc fb 1a 3c 3d ac 44 72 3d
       0.075142264 -0.008809532 0.045924168 0.05914752
000020 a0 0c 65 bd 23 7c 99 bd 6f d3 b2 bc b1 22 3f 3d
       -0.055920243 -0.0749438 -0.021829335 0.046663944
000030 b6 e3 e8 bd e9 39 6b 3c b6 c7 40 bd 64 e8 22 3c
       -0.113715574 0.014357069 -0.04706546 0.009943102
000040 f4 fd 1c 3d e2 e7 14 be 30 89 1a 3c 79 bc 08 3e
       0.038328126 -0.14541581 0.009432122 0.13353147
000050 fa f3 c0 3d f4 01 08 3d 40 8a f8 bd 98 ca ac bd
       0.09421535 0.033204988 -0.12135744 -0.08437079
000060 5c 93 8a bd 5c 7b 07 bc e5 aa af 3d f4 6f 09 bc
       -0.06766388 -0.008269157 0.085775174 -0.008388508
000070 16 7c d7 3a 16 5a f2 bd 38 72 15 3e ec ab 41 bd
       0.0016440179 -0.11833589 0.14594352 -0.047283098
000080 da 9b 39 3c 50 27 8c bd e1 54 d6 3d 1e 49 30 bd
       0.011328662 -0.06843436 0.10465408 -0.04303848
000090 59 e0 8c 3d cf 2e 52 3d 95 42 60 bd 11 67 3b bc
       0.068787284 0.05131417 -0.054750998 -0.011438147
0000a0 d7 06 8b bd f5 97 ca bd d2 c9 9d bd e3 4e c9 3d
       -0.06788414 -0.09892265 -0.0770451 0.098294996
0000b0 a6 01 70 3c 04 84 3b bd 36 51 92 bd b1 c4 ec 3d
       0.0146488305 -0.045780197 -0.07144396 0.115609534
0000c0 72 23 60 3d 4b 93 d6 bd 10 93 66 bd 23 ab 88 3d
       0.054721303 -0.10477313 -0.056292593 0.06673267
0000d0 b1 14 ec bd a3 2f 44 bd 9d 52 ed 3b cd e9 ca bc
       -0.11527384 -0.047896992 0.0072425143 -0.024769688
0000e0 ca 42 fa 3c e2 9f 2c 3c a8 83 be bd ee 89 ba 3d
       0.030549426 0.010536166 -0.09302455 0.09108339
0000f0 02 4c 3b bd c6 26 dd 3d ae 00 10 3b ff 2d b6 3d
       -0.045726784 0.10798411 0.0021973061 0.08895492
000100 36 fc 20 bd 18 8d 54 bd 97 8e fd 3c 49 a0 29 bd
       -0.039303027 -0.05189237 0.030951781 -0.041412625
000110 1a 0e c9 bd 88 9b 96 3d 4d 0f 2a 3d a4 51 d1 bd
       -0.09817143 0.07353884 0.0415185 -0.1022065
000120 e1 83 85 3d 94 50 cb bd d3 46 9b bd df 07 ca 3d
       0.065192945 -0.099274784 -0.07581868 0.098647825
000130 b9 78 25 3d f5 a2 d0 bd 98 56 70 bd 4f 4b 05 be
       0.040398333 -0.101873316 -0.058676332 -0.13017009
000140 48 00 c5 bd ea 37 51 bd f9 fe 49 3d 40 c3 a0 3d
       -0.09619194 -0.051078714 0.049315426 0.07849741
000150 8e be bc 3d e9 81 a9 3c 60 5c bb bd 5d db 7a 3d
       0.09216033 0.020691829 -0.091484785 0.061244357
000160 59 ab 84 bd cd c2 90 3d c4 84 cf bd 26 ef d7 3d
       -0.064779945 0.07068405 -0.10132745 0.10543661
000170 29 0f 1f be d4 0e 5d bc 02 59 89 bc 62 28 94 3b
       -0.15533127 -0.013492305 -0.016766075 0.0045214156
000180 09 60 8c bd 34 8c 3b 3d a1 43 fb 3d 68 8b 01 bd
       -0.06854255 0.045788005 0.122687586 -0.03162709
000190 b8 48 83 3d 40 7e b4 bc 0c 57 c0 3d e2 6d 6f 3d
       0.064103544 -0.022032857 0.09391603 0.0584544
0001a0 67 7d f4 bc 66 b6 ba 3d 98 59 65 ba a0 a5 a8 bd
       -0.029844953 0.09116821 -0.0008749007 -0.082347155
0001b0 02 11 b6 3d 07 7c 89 3d 14 ac bb 3d 99 c5 3f bd
       0.08889963 0.067131095 0.09163681 -0.046819303
0001c0 3e 7c 0c 3e 53 e4 3e 3d 01 d4 02 3c 13 21 41 3d
       0.1371927 0.046604466 0.007985116 0.047150683
0001d0 0c 9f 8c bd cb 79 c7 bd bd 4d 36 bb fa 4e b0 3c
       -0.06866273 -0.09740027 -0.0027817332 0.021522034
0001e0 7a 8f 3a bd 3c fd 8b 3d 77 ab 1a 3c b4 fc a7 bc
       -0.045546986 0.0683541 0.0094402945 -0.02050624
0001f0 79 f9 1b 3d cf 5b 02 3c ca 69 e3 3d b1 11 a4 bd
       0.038079713 0.007956459 0.11104162 -0.08011187
000200 09 1b 3e 3d 2b df 04 be ba 39 3f 3d a9 3d 9f 3d
       0.0464125 -0.12975757 0.04668591 0.077754326
000210 fe 0a fb 3d 38 57 c2 3d c8 a9 1b bc 72 d2 de bc
       0.12257956 0.09489292 -0.009500928 -0.027199958
000220 66 d1 af bd c5 4f ce bd 79 d5 af bc 99 d4 2b 3c
       -0.085848615 -0.100738086 -0.021464096 0.010487699
000230 87 79 04 3c 4b c7 5a bd 0f d2 a2 bd 80 46 d7 bd
       0.008085615 -0.053412717 -0.07950222 -0.10511494
000240 1c 62 17 3e 18 af f6 3c ae 52 c3 bd eb b2 70 bd
       0.1478352 0.030112788 -0.09537254 -0.05876438
000250 c9 ef d0 3d 09 88 ea 3d 89 4c a0 bc a2 18 f4 bb
       0.102019854 0.11451728 -0.019567745 -0.0074492255
000260 95 97 92 bd 3c 32 13 be a7 66 e0 3d c4 8a 30 bd
       -0.07157818 -0.14374632 0.109570794 -0.043101087
000270 f0 77 90 3d 83 cc 0a 3d 83 c4 9d 3d 8a c5 ad 3b
       0.07054126 0.033886444 0.07703497 0.0053030895
000280 bc 38 ad 3d 70 ff b2 3c 79 1f f2 bd c2 9d bc 3d
       0.08458087 0.021850318 -0.11822409 0.092097774
000290 e0 b1 94 3c 5c d4 e7 bc 79 b3 09 bd d7 d8 46 bc
       0.018151224 -0.028299503 -0.033618424 -0.01213666
0002a0 2e d4 a2 bb 75 99 62 bd d6 89 18 3d e9 e3 b6 bc
       -0.0049691414 -0.05532213 0.037240826 -0.022325473
0002b0 bd 6e db bd 68 0f a3 3c 2a 6c db bc b1 65 e9 3d
       -0.10714481 0.019904807 -0.026784975 0.11396349
0002c0 07 77 4b 3d f2 c5 b6 bd b1 d7 b4 3d d5 75 d9 bd
       0.04967406 -0.08924474 0.08830202 -0.10618178
0002d0 20 45 f0 bd 02 c5 4c bd 3f a7 f9 3d c0 81 d8 bc
       -0.117319345 -0.04999257 0.12190103 -0.026429057
0002e0 b4 7d eb 3c 5a f4 a4 3d 34 17 7c 3d e5 b2 4e 3d
       0.028746463 0.08054419 0.061545566 0.050463576
0002f0 bc cc 80 bd ff b4 27 bd c9 2c 5e bd b9 fe 58 3d
       -0.0628905 -0.040944096 -0.05424193 0.052977297
000300 35 e0 64 bd e0 58 c8 3d 50 fa 5b 3d fa 3b a2 bd
       -0.055877883 0.097825766 0.053705513 -0.07921596
000310 b7 70 02 3d b3 38 e1 3c 03 c9 ef bd 53 86 e2 bd
       0.031845775 0.027492857 -0.11708262 -0.110607766
000320 4f 88 0a 3d 33 d9 e2 bc d7 0e 65 bd 93 ee c7 3b
       0.0338214 -0.02769146 -0.055922356 0.0061014383
000330 fc c8 ca bb 0e 3b 61 bb b1 5a 13 3d 5f fe d6 bd
       -0.00618851 -0.0034367475 0.035975162 -0.10497736
000340 1a 35 ce 3c ea cd 07 bd eb 86 e0 3c d5 58 de bd
       0.025171805 -0.03315536 0.027408084 -0.10856787
000350 9e 7d b2 bd 47 ac 3d bd 47 fc ab 3d 49 fb 39 3d
       -0.08715366 -0.046306875 0.083977275 0.04540566
000360 5c 9d fd bd 90 09 8d bb 24 89 21 3d a0 f0 05 3e
       -0.123835295 -0.0043041185 0.039437428 0.13080072
000370 31 4c e8 3d 3c d9 c3 bd 70 8d 9a 3d 36 cb b2 bc
       0.11342657 -0.095629185 0.07546508 -0.021825414
000380 ab 26 5d bd 40 13 ea 3c 20 cd 09 3e 5f 18 88 3d
       -0.053991955 0.028573632 0.13457155 0.066452734
000390 ea 94 b6 3d fd 98 a8 3a 0e f5 31 3d 1e a6 96 bd
       0.08915122 0.0012862977 0.043446593 -0.07355903
0003a0 13 e3 35 3b cf 15 b8 bc e0 8f be 3d cd 07 b9 bc
       0.0027753755 -0.022471337 0.09304786 -0.022586728
0003b0 c8 68 47 bd 6e 14 c2 bd 29 57 05 3d c4 e1 c4 3c
       -0.04868391 -0.09476553 0.032553826 0.024033435
0003c0 7f 0c 64 3c 6d de 80 3c d6 c5 a6 bc ca 27 b7 bd
       0.013918995 0.01573106 -0.020358007 -0.08943136
0003d0 d3 da 3f bd 11 46 c0 3d d2 dd 16 bd 02 54 da 3d
       -0.046839546 0.09388364 -0.036832638 0.106605545
0003e0 e6 70 ba bd 54 ba 6c 3d 3a 7c 08 3e 5b f3 96 3d
       -0.09103565 0.057794884 0.13328639 0.07370635
0003f0 f1 bf c7 3d f6 24 15 3d 7b 7a 8a 3d 1e c7 b3 3b
       0.09753407 0.0364122 0.067616425 0.005486383

weight f4 [256, 256]
000000 c9 97 e9 3d 75 c8 7b 3c d9 b8 28 bc 25 0c 3e bd
       0.11405904 0.015367617 -0.010297977 -0.0463983
000010 fd f3 1f 3b 58 1c 3b bd 60 41 36 bd 35 ce 9d 3c
       0.0024406903 -0.045681328 -0.04449594 0.019263366
000020 b8 59 88 3c 19 a7 9a 3c 00 75 b5 bc 59 c7 71 bc
       0.016644344 0.018878506 -0.022150517 -0.014757001
000030 d5 77 19 bd ad fe 2e bd 2f 8c b6 3c ae e9 89 3c
       -0.037467796 -0.042723347 0.022283642 0.01683506
000040 40 e6 62 bd 8c c6 ba be 38 99 53 3d c1 6f fe 3a
       -0.055395365 -0.36479604 0.051659793 0.0019411967
000050 70 90 3d bc a3 a8 07 3d 51 15 21 3d 53 88 a8 bd
       -0.011570081 0.03311981 0.03932697 -0.08229127
000060 bd bd b2 3c 09 f3 75 3d 09 94 b3 3b df 68 bd 3b
       0.02181899 0.06004623 0.0054802937 0.005780324
000070 8c 2f 60 3c ea 89 a8 bc a5 f2 4a 3d e2 a2 fa 3c
       0.013683211 -0.020573575 0.04954781 0.030595247
000080 e1 0a c3 bd 5a 13 0f 3b 19 ed 29 3c 5e 29 6e bd
       -0.09523559 0.0021831603 0.01037147 -0.05814492
000090 5e a3 6b bd 44 b6 5a 3d aa ea 55 3d ad 75 0f bd
       -0.057528846 0.05339648 0.052225746 -0.035024334
0000a0 db 98 0b 3c c5 22 5a bd 05 aa ac 3b a7 65 9c 3c
       0.00852033 -0.053255815 0.0052692913 0.01909144
0000b0 e5 a8 84 bd 83 3f 48 3d ae 54 ff bc fa e2 2f 3c
       -0.064775266 0.048888694 -0.031168308 0.010735268
0000c0 38 e9 7e 3b 16 c0 03 3c 8e f2 50 bd 87 a4 4f 3d
       0.0038896333 0.008041402 -0.05101257 0.050694015
0000d0 37 cf 9b bd a9 23 83 3c 60 d0 8f bc f5 54 a5 bb
       -0.076078825 0.016008215 -0.017555416 -0.005045528
0000e0 3c 71 51 3d 1b dc a6 3d be a3 1e bd 7f a3 35 bd
       0.05113338 0.081474505 -0.038730375 -0.044345375
0000f0 27 bc 97 3d 71 dd a8 3d 2b 7b 51 bc c1 e0 20 3d
       0.07408934 0.082453616 -0.012785713 0.039276842
000100 dc b8 92 bc f4 04 49 3d 24 fb c8 3c ef d1 05 3c
       -0.017910413 0.04907699 0.024533816 0.008167728
000110 2e 86 44 ba 4c b6 ba bc 28 1e 60 3c c9 b8 30 3d
       -0.0007496801 -0.022792004 0.013679065 0.043144975
000120 4d 5a 16 be d9 b8 a9 3c ac 50 6b bc 0d bb c2 bc
       -0.14682885 0.020718025 -0.014362495 -0.023770833
000130 22 24 c5 bd 38 9c 7b 3d d3 3d ee 39 3d 44 9a 3c
       -0.096260324 0.06142828 0.0004544096 0.018831367
000140 2e 11 88 bd 92 de da bc ff 90 63 3c 4f 01 34 3a
       -0.06643902 -0.026717458 0.01388955 0.000686665
000150 38 1b 69 bd 9a e9 ee bc 1c 41 59 bc c3 d4 31 3d
       -0.056910723 -0.029164124 -0.013260152 0.043415796
000160 0b d3 0a bd 53 da 3b bc 59 e4 cc 3d 60 f4 2d 3d
       -0.033892673 -0.011465627 0.10004491 0.042469382
000170 6e b3 3c 3e 4c 59 4e bd e3 4a d3 3b b7 ab 8b 3d
       0.18427822 -0.05037813 0.006448136 0.068198614
000180 e9 71 7c bd 99 4f 5b 3b ab 65 79 bd a8 0d 27 3e
       -0.06163207 0.0033464192 -0.060887974 0.16313803
000190 a6 b4 8e 3d b7 59 20 bc 77 f4 cd bc a6 b9 b9 3d
       0.0696805 -0.009787015 -0.025140984 0.09068613
0001a0 e3 c4 19 3d d7 8e 8a bd 91 59 65 3d 01 0f 75 3c
       0.03754128 -0.06765526 0.05599362 0.0149571905
0001b0 70 8a 7b 3d ed a7 f3 3c 33 51 cc bd e0 89 0a be
       0.06141132 0.02974316 -0.09976425 -0.13529158
0001c0 cc 83 2c 3d dc ed 0e 3d 66 ac 46 3d 8c b7 10 bc
       0.04211788 0.03489481 0.048504256 -0.0088328235
0001d0 0d 36 2e 3d 38 fb 37 bd a7 9e 4d ba 02 ae 92 3d
       0.042532016 -0.044917315 -0.00078437704 0.071620956
0001e0 2b 5f 1c bd 42 76 4d bd 90 48 5e bd a9 75 73 bd
       -0.038176697 -0.050161608 -0.05426842 -0.05943838
0001f0 c1 b7 8d bd be d3 0b 3d bd b0 ec ba 91 d2 12 3d
       -0.06919814 0.03413748 -0.0018058043 0.035845343
000200 14 8a 9f 3c a6 4e 9b bc e4 22 9b 3d e9 a4 d8 3b
       0.01947502 -0.018958401 0.07575014 0.0066114557
000210 6e f6 20 3c 9a 7e a9 bd b1 ba f8 bd 9c 4c 89 3b
       0.009824378 -0.082761005 -0.121449836 0.0041900408
000220 27 e6 0c 3d 8d 77 7e 3d 69 4b a2 3c 5d 94 14 bd
       0.034399178 0.06212573 0.019811349 -0.036274303
000230 09 9c 5c 3c a5 21 19 3e da 65 8d 3c f1 38 06 3d
       0.013464936 0.1495424 0.01726048 0.032769147
000240 2c ce 9c bb 43 e8 a5 bd aa 42 e5 bd e3 37 8f 3d
       -0.00478532 -0.08100941 -0.11194356 0.069930814
000250 b7 ba 05 be 29 f6 d6 3b 34 36 6e bd 44 ad 21 bc
       -0.13059507 0.0065601063 -0.05815716 -0.00986797
000260 09 29 2d bc 3d 6d 30 3d ab 96 84 3d f7 f3 36 bd
       -0.010568866 0.043072928 0.0647405 -0.044666257
000270 9f dc 4f bc 28 11 2c bd d9 9d d4 3c 21 58 bf 3c
       -0.0126868775 -0.04200855 0.025954174 0.023357453
000280 d1 d8 7f bd fe 10 10 bd c9 a8 d4 bc fc 63 e2 3d
       -0.06246263 -0.035172455 -0.02595939 0.11054227
000290 1f 1b 20 3d 60 47 c6 3c 0a b0 8b bb de fe 9c bd
       0.039088365 0.024203956 -0.004262929 -0.076657996
0002a0 ad d5 9d bd 6b f3 c1 bc 0c 67 a4 bd b3 18 5e 3c
       -0.07706771 -0.023675641 -0.08027467 0.013555693
0002b0 ff 47 07 bd d9 c2 58 3d b6 5d 0a 3d 22 14 24 be
       -0.033027645 0.052920196 0.033780776 -0.16023305
0002c0 90 58 19 3c 2a 53 44 bd 21 51 25 3d 7a 89 e3 bc
       0.009359494 -0.047930874 0.040360574 -0.027775515
0002d0 73 45 a1 bd 56 c3 2f 3d eb 94 5b bc ab 61 db bc
       -0.078745745 0.042910896 -0.013402204 -0.02677997
0002e0 88 cd 10 3d f8 1c 9e 3d 1e da 64 bd 8a 5e 9e bc
       0.03535226 0.07720369 -0.055872075 -0.01933219
0002f0 48 13 3e 3d e2 0f c9 bc bb a4 9d 3b 66 1c d8 bc
       0.046405107 -0.024543706 0.004810897 -0.026380729
000300 fe a8 96 3d d8 88 e2 3c 7a fd 2e bc 5b 7b bf bd
       0.073564515 0.027653143 -0.010680551 -0.093497
000310 46 be 67 3c bb f9 2e bd 85 a5 67 3d aa fa d8 b9
       0.014144486 -0.04271863 0.056554336 -0.0004138549
000320 c5 bb 06 bd 62 ca 10 3d b8 cd d9 bd f0 49 e7 3b
       -0.032893915 0.035349257 -0.10634941 0.0070583746
000330 7e 46 8e bd 6a 42 de bb b2 8f 10 3d cb 4e 98 bd
       -0.06947039 -0.0067828195 0.03529329 -0.074369036
000340 b6 3b 50 bd d6 29 58 bb 00 64 c4 bb 5f bf d9 bc
       -0.050838195 -0.003298392 -0.0059933662 -0.02658051
000350 20 c2 5c 3c f4 18 82 bc 04 ca 2a 3d 29 e4 1b bd
       0.013474017 -0.01588104 0.041696563 -0.038059387
000360 fb 32 43 3d ae 49 f2 bc 39 0c 86 3d 2b 87 e5 bb
       0.04765604 -0.029576149 0.065453 -0.0070046387
000370 cd 46 45 bc e7 35 10 3d ba 54 1b 3d 65 e5 9b 3c
       -0.012040806 0.035207655 0.0379226 0.019030282
000380 89 70 82 3d c0 d4 5c bc 9c d3 20 bd 80 be 99 bb
       0.06369121 -0.013478458 -0.039264306 -0.004691899
000390 78 b3 93 3d c9 d2 64 3c bc 90 3a 3d 0f ff bd 3d
       0.07211965 0.013966271 0.045548186 0.09277164
0003a0 0e 61 2f bd 7f f8 31 3e d2 36 60 3d 99 76 eb 3b
       -0.042817168 0.1737995 0.05473978 0.007185769
0003b0 5c 13 0a bd 62 a1 01 bd a6 64 cf bd 5f 29 5b 3d
       -0.03370987 -0.031648047 -0.10126619 0.05350625
0003c0 97 4d 1e 3d e6 32 c4 bc 63 48 b7 3d e7 c0 3e bd
       0.038648214 -0.023950052 0.089493535 -0.046570685
0003d0 d4 6a 3e 3d cb 0d 09 bd 9a c2 0b be de 5c b0 bc
       0.046488598 -0.03346042 -0.13648453 -0.021528658
0003e0 4c 9c 84 bd c4 32 9a bd 6a 4d 62 bc 71 30 62 3d
       -0.06475124 -0.07529214 -0.013812402 0.05522198
0003f0 9f 26 13 3d 5d 71 ee bc d7 64 60 3d 05 88 84 bb
       0.035925504 -0.02910679 0.05478367 -0.004044535

bias f4 [256]
000000 65 a4 6c 3b 09 9a 54 3d 69 fa 5f bd 52 4b d7 bb
       0.003610873 0.051904712 -0.05468217 -0.006570258
000010 85 53 34 bd e6 e2 5d 3d 6e 4f 28 3d c6 b9 f7 bc
       -0.044024963 0.054171465 0.041091375 -0.03023995
000020 13 33 84 3c 45 63 31 bb 01 63 03 bd 6d ef d4 bd
       0.016137635 -0.0027067226 -0.03207684 -0.10397229
000030 95 7e 85 3c 0a 39 bb 3d 09 5c 7a 3d 4b 8a 3b bd
       0.01629571 0.09141739 0.061122928 -0.045786183
000040 73 17 02 3d e6 4a 15 bd 9e a7 c8 3c 5f ca dd 3c
       0.031760644 -0.03644838 0.024493989 0.027074037
000050 46 c8 8f bd b5 65 77 bc e8 fe 1f 3d ab 98 57 3d
       -0.07020621 -0.015099932 0.039061457 0.05263583
000060 6e d5 00 3d c7 ab 02 bd cd ac d3 3c fa db 2c bd
       0.031453542 -0.0319021 0.025839234 -0.042201973
000070 3a 50 f0 3c e6 5c 41 3d 81 18 eb bc 0c f8 f5 bc
       0.02933513 0.047207735 -0.028698208 -0.030025505
000080 d3 ca 79 3c 8e ae 1e 3d e8 e1 67 bc 5a e6 ce bc
       0.015246111 0.038740687 -0.014152981 -0.025256325
000090 b6 d2 99 3d 05 c1 bd 3d 05 ca ff 3c bd a6 24 3d
       0.07510893 0.09265331 0.03122426 0.040198077
0000a0 4f 89 a1 3d dd 08 21 3d 2a a9 04 bd f9 0a 8b 3d
       0.07887518 0.039315093 -0.03238789 0.06789202
0000b0 f2 40 54 3d 26 92 eb 3c 04 87 3d 3d 53 d4 aa 3d
       0.05181975 0.028756212 0.04627134 0.08341279
0000c0 f0 71 cf 3c d9 a5 b7 3d b0 9f 3a 3d c5 47 3f 3d
       0.025322884 0.0896718 0.045562446 0.046699304
0000d0 3e 1a bb 3d b1 e3 67 3c 45 09 84 3d e5 0d cf 3d
       0.09135865 0.014153407 0.064470805 0.10110072
0000e0 69 fa 37 3d 1c 83 36 bd 1b 0a 84 3d 40 7f 27 bd
       0.044916544 -0.04455863 0.0644724 -0.04089284
0000f0 11 42 0e 3d 93 8f 80 3c 56 8c e6 bb 36 5b 40 bd
       0.034730975 0.015693462 -0.0070357723 -0.046961986
000100 79 4d 9d 3d 5d 05 92 bd eb 01 68 bd de 44 0f bd
       0.07680792 -0.07129929 -0.056642454 -0.034977786
000110 42 87 a5 bd 98 14 89 3d f0 cc 80 3d ad 1d a1 bb
       -0.08082439 0.06693381 0.06289089 -0.0049168677
000120 bc d4 0b bd b6 e0 a4 3a 0b 7b 69 bd a9 91 ea 3c
       -0.034138426 0.0012579176 -0.05700211 0.02863391
000130 d2 79 0d bd 4b 88 2a 3c 48 b6 fa 3b 9d ee 1b 3d
       -0.034540005 0.010408471 0.007651124 0.038069356
000140 42 56 fb ba 5d ad 71 bc b2 01 6d bc 22 7a 85 3c
       -0.0019175487 -0.014750806 -0.014465736 0.016293589
000150 9e ff db 39 da c5 8c bc 11 5f 82 3d e4 ae 7c 3d
       0.00041961385 -0.017184187 0.06365789 0.061690226
000160 15 ea aa bc 21 d8 b9 bc 00 7c 23 bd 34 21 e6 3c
       -0.020863572 -0.022686066 -0.039913177 0.028092004
000170 fe 32 24 bd cf eb 0e 3d 84 19 00 3d e9 b6 a3 3d
       -0.040087692 0.034892853 0.031274334 0.07993872
000180 68 e8 9c 3b 09 19 c9 3b 1f ed 97 3c c0 32 2b 3d
       0.004788447 0.0061370176 0.018545685 0.041796446
000190 03 ed c3 3d 4e ed f1 3c ee 58 57 3d 0b 76 06 bd
       0.09566691 0.029532101 0.052575044 -0.03282742
0001a0 3e 38 80 bd 64 8e 5a 3d 8d 03 49 3d cd 06 e1 bc
       -0.06260727 0.05335845 0.049075652 -0.027469063
0001b0 54 63 80 3d ea ca 8e bc 7a 8d b7 3c bd fc c1 3c
       0.06268945 -0.017430741 0.022406328 0.023680085
0001c0 b1 85 10 bd e4 f8 4b 3d bd cc ef bc 88 b3 8b bc
       -0.035283748 0.049797907 -0.029272432 -0.01705338
0001d0 bd 76 b6 bc 26 b4 3c 3c be 5f 50 bc d4 ea dd 3c
       -0.022273416 0.01151756 -0.012718139 0.027089514
0001e0 43 ee a6 3c 03 2a cd 3c ce 22 c8 bc d5 04 b7 3c
       0.020377284 0.025044447 -0.024430659 0.022341171
0001f0 9d 10 0e bd f1 3b 34 bb f9 ed 86 3d 26 17 9a 3c
       -0.034683812 -0.0027501548 0.065883584 0.018809866
000200 f9 70 c4 3d ac 72 85 3d 56 02 11 3d 33 a2 38 bd
       0.0959186 0.065160125 0.03540262 -0.04507656
000210 f2 9b b7 bc b3 1c b5 3c 9a 9c ad 3c 1b 3a d4 3c
       -0.022413228 0.022108411 0.021192838 0.025906613
000220 9c fa a5 bd 42 97 58 bd a5 1e aa bb a8 f9 38 bd
       -0.081044406 -0.052878626 -0.0051916414 -0.045159966
000230 ad 30 8f 3d ed 3f d6 bc cc 15 ae 3d 81 8c 96 3c
       0.06991706 -0.026153529 0.08500251 0.018377544
000240 00 4b 7d 3d 01 3d c2 3a 9a 91 a4 3d bd e9 fd bc
       0.061839104 0.0014819206 0.08035584 -0.030995244
000250 26 83 e2 3c b0 8c 2d bb 9f 4b 05 bd 7d f0 a9 bc
       0.027650427 -0.0026481561 -0.03254282 -0.020744557
000260 3e 0f 6a bc c9 a2 f8 3b 9c 9a b8 bc 67 0e 13 3d
       -0.014285861 0.007587765 -0.022534661 0.035902407
000270 d1 a5 44 bd 17 f5 2c 3d 82 25 ca 3c 8c 67 56 bc
       -0.048009697 0.042225923 0.024676088 -0.013086211
000280 2e dd 17 3d a1 86 2c 3d 08 43 11 bd 94 fc 70 3d
       0.037076168 0.04212058 -0.035464317 0.058834627
000290 dd ab a3 3d 42 e6 74 3c 60 7a d3 3c 91 f9 8b 3c
       0.07991765 0.014947476 0.025815189 0.017086776
0002a0 f0 95 86 3c a9 4e 4b 3d e2 5d fd bb 03 fc 75 3d
       0.016428918 0.049635563 -0.007732139 0.06005479
0002b0 65 b6 96 bb 69 21 72 3c a1 2a 36 3c f1 38 ba 3d
       -0.00459938 0.014778473 0.011118562 0.09092892
0002c0 54 5b 4e 3d 19 18 13 bc 5d 2a aa 3c af 1b 9d 3d
       0.050380066 -0.008977913 0.020772154 0.07671296
0002d0 0e 6b ad 3c ce 3a a0 3d ff c4 80 3c d4 c8 d8 bc
       0.021169212 0.07823716 0.015718935 -0.02646295
0002e0 d2 f2 28 bd 8b 3b 44 bd f8 b9 0e 3d de 49 05 3d
       -0.041247196 -0.047908347 0.034845322 0.03254115
0002f0 6f 47 bd bc 36 bf 5c 3d 43 c8 02 bd 54 71 88 3d
       -0.023105351 0.05389329 -0.031929266 0.066622406
000300 0b db ff 3c 14 ed 12 bd 6c 4b 31 3d b2 3c 56 bd
       0.031232378 -0.035870627 0.04328482 -0.052303977
000310 14 4c 3b 3d 4d 71 5e 3d e0 27 5e bc 9d d5 2b bc
       0.04572685 0.05430727 -0.013559312 -0.010487941
000320 10 4f e5 bb f0 24 00 3d 55 39 a3 b9 0f d4 9a 3d
       -0.0069979504 0.031285226 -0.00031132498 0.07559978
000330 3c 3c fb 3c 15 f5 52 bc 3a f8 e7 3c a7 a4 8c 3d
       0.03066837 -0.012875815 0.028316606 0.068673424
000340 22 77 f2 3a 5a 1f 96 3b db ad c8 3d db 2d 0f 3d
       0.0018498639 0.004581374 0.09798785 0.03495584
000350 7a 90 1a bd a5 63 57 3d ca bb 24 3c 35 77 f8 3c
       -0.03773544 0.052585263 0.010054538 0.03033028
000360 58 02 66 3c 9f 1b 92 3d 0d 79 a3 3c b1 f7 bc 3d
       0.014038645 0.071341746 0.019955182 0.09226931
000370 0e 0a 87 bd 5b 3c 8e bc 5e 7c 3d bc d8 c9 57 3d
       -0.06593715 -0.017362764 -0.011565296 0.052682728
000380 09 f3 2d bc db b9 bb bd fd 00 d1 bc 69 19 fb bb
       -0.010617026 -0.091663085 -0.025513167 -0.0076629412
000390 1d fc 30 3d cf e6 73 3d ba e1 aa bc 02 d6 b8 ba
       0.043209184 0.059546288 -0.020859588 -0.0014101865
0003a0 87 ea d2 39 9a 5e 7f 3d 75 be 98 bc 1d e6 91 bc
       0.00040229058 0.06234608 -0.018645504 -0.017809922
0003b0 42 00 53 bd 85 b6 6f 3d 9b 13 0c 3d 18 40 2a 3d
       -0.051513918 0.058523674 0.034198385 0.04156503
0003c0 d7 56 22 bd fa 99 5d bd bd 6a 8f 3d 22 fb 22 3d
       -0.0396336 -0.05410192 0.070027806 0.03979028
0003d0 82 c4 b3 bc c9 97 93 3d 82 d5 09 3d 78 d8 a1 3b
       -0.021944288 0.07206685 0.033650883 0.004939135
0003e0 bc f3 8c 3d 15 5b 05 bd 79 0c d2 3c 6e de 81 3c
       0.06882426 -0.032557566 0.025640713 0.015853133
0003f0 6d f1 3f 3d 91 24 41 bd 18 e4 a9 bc 7d 58 b7 bc
       0.0468611 -0.047154013 -0.020738646 -0.022381062

weight f4 [256, 256]
000000 c3 f4 a2 bc f7 1f 99 3c 4f 23 d6 bc 62 61 79 3c
       -0.019892102 0.018692 -0.026139883 0.015220972
000010 45 a4 56 bb 50 cc 5f bd 6e 7c 8a bc 8d 3a d5 bc
       -0.003275172 -0.054638207 -0.016905036 -0.026028896
000020 b1 d8 02 3d a6 02 41 3c 1a b9 e0 3c 5d 56 f3 3b
       0.031944934 0.011780417 0.027432013 0.007426067
000030 d7 7e 0b bd 40 4b 2d bb 41 1b 56 bc ae 7f 18 3d
       -0.03405651 -0.0026442558 -0.013068021 0.03723114
000040 b0 78 4b 3d 5d 61 bc bc 55 b1 a5 bb a4 96 ce bc
       0.049675643 -0.022995645 -0.00505654 -0.025218315
000050 08 25 94 3b 01 ed 7f bd 63 be 89 3b a9 0e 08 bd
       0.004521016 -0.062481884 0.004203604 -0.033217106
000060 b1 89 0f bc 3e 61 8a 3d d6 b4 cb bd c6 0c 7d bd
       -0.0087608555 0.06756829 -0.09946601 -0.06177976
000070 6a c8 99 bd 9d 41 16 3d e9 cf 83 bd dd 40 3e 3b
       -0.07508929 0.036683667 -0.0643614 0.002903036
000080 47 87 8c bd ac ca 1e bd 21 bd be 3c bb e3 95 bc
       -0.068617396 -0.0387675 0.023283543 -0.018297067
000090 34 18 5a 3d 46 ea 4c 3c eb 3a 4f 3d 59 ea af bd
       0.05324574 0.012507027 0.050593298 -0.0858962
0000a0 24 69 94 bd 02 bd 71 3c 91 b5 23 3d 32 2c cb bc
       -0.072466165 0.014754536 0.039968077 -0.024801347
0000b0 89 f3 d9 3c cd 93 20 bd c9 bd 80 bd fb fa 7b bd
       0.026605384 -0.039203454 -0.06286199 -0.06151865
0000c0 4b b1 20 3d 0f 53 72 bc fe 58 26 bc 9c 79 32 bd
       0.03923158 -0.0147903105 -0.010153053 -0.043573007
0000d0 2f 53 ab bc 42 3e a1 bc b8 92 85 bd 5f d0 3f 3d
       -0.020913688 -0.019683007 -0.06522125 0.046829578
0000e0 ed 69 94 3c 25 a7 4a bc 9c bd e3 bc 4f 18 97 3c
       0.018116916 -0.012368952 -0.027800374 0.018444208
0000f0 51 2b 1e bd 89 7d fb bc d5 78 9f bd f2 d3 b6 bc
       -0.03861553 -0.030699508 -0.07786719 -0.02231786
000100 eb 06 75 bc 2f e8 be 3d 95 2b 92 3c 6b d7 9d bc
       -0.014955263 0.09321629 0.017843047 -0.019267758
000110 9e 64 93 3c 17 9a c2 3c b3 7b 18 bd c6 69 b1 bc
       0.017992314 0.023755116 -0.037227344 -0.021656882
000120 8c b8 1b bc 87 2b 60 bd 68 75 0b 3d 57 8b fb 3c
       -0.009504449 -0.05472901 0.034047514 0.03070609
000130 da c2 e9 3c 86 da da bc 90 1e 37 bd 59 f8 07 3d
       0.028535295 -0.026715528 -0.04470688 0.033195827
000140 ca 02 b8 bc 5a 95 c2 3c 92 53 16 bd 46 a4 08 3d
       -0.022462267 0.023752857 -0.036700793 0.03335979
000150 dc 7c fd 3a af 33 3d bd 6b 8b 8d bd 9f eb 82 bc
       0.0019339579 -0.046191867 -0.069113575 -0.015981494
000160 2d 40 90 bd 6c d4 ae bd 6c 48 01 bd 87 a5 8b bd
       -0.070434906 -0.0853661 -0.031563208 -0.06818681
000170 f4 16 08 bd fe 55 4b bd f9 c3 22 bd a5 ff 6d 3d
       -0.033225015 -0.049642555 -0.039737675 0.05810513
000180 8b 3d 9a bd b2 34 45 3d d4 77 37 bd 60 d0 9e bc
       -0.0753127 0.048145957 -0.04479201 -0.01938647
000190 36 fc 31 bd 78 57 8b 3c 91 aa 0f be f8 5d 01 3d
       -0.043453418 0.017009482 -0.1402991 0.031583756
0001a0 04 22 40 3a 3a d0 5e bc 95 23 77 bd e7 be 47 bd
       0.00073292875 -0.01359945 -0.060336668 -0.048766043
0001b0 6b 68 3c 3d 83 2e 14 bd e3 83 78 bd 0c 5f 82 bc
       0.04599802 -0.03617717 -0.060672652 -0.015914463
0001c0 02 cb 07 bc af f2 4a bc b8 3c d6 bc f4 74 af 3c
       -0.008288147 -0.012386962 -0.026152 0.021418072
0001d0 f5 ad 23 bd c3 06 65 3d 4f 82 93 bc 1f a6 3d bd
       -0.03996082 0.05591465 -0.018006472 -0.046301004
0001e0 02 fc 1e bb 4c cd d6 3c 4d 8d 37 3d 63 45 7c 3b
       -0.0024259095 0.02622094 0.04481249 0.0038493506
0001f0 0d 65 84 3d a1 5b 29 3c 00 45 c6 bd 2b 4d be 3c
       0.064645864 0.010336787 -0.096811295 0.023230156
000200 7d dd 94 bd 14 fd 5b 3d 99 1d 09 3b c8 0b 07 bd
       -0.07268808 0.05370815 0.0020922183 -0.03297022
000210 dc 25 ad 3c 3d f8 56 3c b5 c8 3e bd 84 94 aa bb
       0.021136217 0.013120708 -0.046578128 -0.0052056927
000220 2d 16 3d 3d 8f 6b 44 bd 1e b0 c1 39 20 31 bf 3a
       0.046163727 -0.04795414 0.00036943046 0.0014586784
000230 9f 8c 34 3d 97 50 46 bd 54 2e 65 bd 20 8e 7a bd
       0.04407942 -0.0484167 -0.055952385 -0.061170697
000240 e7 8a 2f bc 51 a8 b2 3d b2 96 70 bd 77 09 1c bd
       -0.010714269 0.0872351 -0.058737464 -0.038094964
000250 57 16 3f bd 06 6a 35 be 00 78 bf bd 7b 6f e3 bc
       -0.046652164 -0.17716226 -0.0934906 -0.027763119
000260 70 52 69 bd 4a 1a 04 3d a8 20 d2 3b 50 2a 4d bd
       -0.056963384 0.032251634 0.0064125843 -0.05008918
000270 80 2a 3d bc 4f 1e d6 bc f2 52 55 bc d5 17 64 3d
       -0.011545777 -0.0261375 -0.013020264 0.05568679
000280 15 29 dc 3d 1f ac de bc 59 e1 45 bd d0 95 27 3d
       0.10750023 -0.027181683 -0.04831061 0.040914357
000290 ff c3 32 bd 1e 9e 23 bd 6e 88 51 3d e4 5d 54 3d
       -0.043643948 -0.039945714 0.0511555 0.051847354
0002a0 48 c0 df bb 28 cb 56 3d c7 a7 68 3d a5 6d 8f 3b
       -0.0068283416 0.05243984 0.05680063 0.0043770843
0002b0 2c 8f 72 3c 6e c4 3e bc 32 b5 c0 3c aa ef 83 bc
       0.014804643 -0.011643512 0.0235239 -0.016105492
0002c0 a1 7e 6e 3d de 5d e9 bc db 6d fc 3c d1 35 6e 3d
       0.05822623 -0.028487142 0.030814102 0.058156792
0002d0 64 e6 20 3d 63 cf 99 bc d5 4c 2a bd 98 7f cb bd
       0.039282218 -0.018775648 -0.04157718 -0.09936446
0002e0 a8 5b 03 bc ff 2a 19 3e 83 37 d7 3c b3 f1 80 3d
       -0.008017458 0.14957808 0.026271587 0.062961005
0002f0 80 e7 3e bd ed fe 59 3d e1 36 56 3d 4d 41 87 bd
       -0.046607494 0.05322163 0.05229843 -0.06604252
000300 28 85 c4 3c db 0b 93 3c a1 56 26 3c 3a 6d 85 bd
       0.023989275 0.017949989 0.01015249 -0.06514974
000310 44 14 9e 3c d0 a3 27 3d cf ff 37 bc 24 1b 97 3d
       0.019296773 0.04092771 -0.011230423 0.073782235
000320 82 c7 66 bd 61 f9 fb 3c 00 1c 31 3c b0 3f 76 bd
       -0.05634261 0.030758562 0.010809898 -0.06011933
000330 8a 9d 13 3d 12 e8 10 3e 08 e0 dc bc 31 b2 50 bd
       0.036038913 0.14151028 -0.026962295 -0.050951187
000340 02 ff a1 3c f4 e8 58 bd 2c ed 5f bd 3e 93 23 bd
       0.019774918 -0.052956536 -0.054669544 -0.039935343
000350 50 1d 32 3d cd 31 cf bc 47 0c 8f 3b e6 7a 26 bd
       0.043484986 -0.025292302 0.0043654772 -0.04064455
000360 b2 80 07 3c fe 31 1a 3d cd 6b 65 bd a5 59 4c 3b
       0.008270429 0.037645333 -0.05601101 0.0031181362
000370 5b b9 10 3d c1 27 8b bd c4 82 02 3d 64 70 e5 3b
       0.03533302 -0.06794692 0.03186299 0.0070019234
000380 4d 39 e5 bc 1c 2a 22 3d 8e b1 81 bd 44 29 ba 3c
       -0.027981425 0.03959094 -0.06332694 0.022724755
000390 9c 52 23 bd 21 4c ed 3c 7f 3a cc bb 94 57 b3 ba
       -0.039873704 0.028966965 -0.006232559 -0.0013682717
0003a0 7c 24 5f 3d c4 af 05 bd 5c 3e a2 3d 2d 7f 52 3d
       0.054478154 -0.032638326 0.0792205 0.051390816
0003b0 18 72 b7 bb 6d 01 90 bd cc 3e d5 3c 1c 2a 95 bc
       -0.005598318 -0.07031522 0.02603092 -0.018208556
0003c0 84 ba 8d bc f4 c6 71 bd e5 d5 ba bc d7 5b 65 bd
       -0.017300852 -0.059027627 -0.022807071 -0.05599579
0003d0 43 08 8a 3c 48 81 42 3d 1c 23 bb 3c 6d cd 88 bc
       0.016849643 0.047486573 0.02284389 -0.016699517
0003e0 2d 70 b8 ba 64 ff 3c 3d 68 6e c7 3c ee a1 9d 3c
       -0.0014071517 0.046141997 0.024344638 0.019242253
0003f0 5d de 2b bd 46 18 63 3c 7a df ea 3c 3f 47 59 bc
       -0.04196011 0.013860768 0.028671015 -0.013261615

bias f4 [256]
000000 3c 1d f7 bc cf ca 25 bd bf ff 20 bd 85 d4 05 bd
       -0.030165307 -0.040476616 -0.0393064 -0.032673378
000010 b9 c2 d2 3d 47 42 e6 bd ad b4 33 bd 69 6a c1 bc
       0.10291047 -0.1124311 -0.043873478 -0.02361031
000020 23 74 91 3d 84 cf 81 3d b4 fd 3b bd 5f cc 44 bb
       0.071022294 0.063384086 -0.045896247 -0.0030029041
000030 46 61 75 3c f2 d8 e8 bd fb 76 85 3d df 98 92 3c
       0.014976805 -0.11369504 0.06516834 0.01789516
000040 a8 68 9b 3c 91 d6 97 3d 47 43 99 bd f7 98 ab 3c
       0.018970802 0.07413972 -0.07483535 0.020946963
000050 9d 69 68 3d 27 ec 8f 3d fe 97 69 3d c8 c5 67 bd
       0.056741346 0.07027464 0.057029717 -0.056585103
000060 35 3c 83 bd 89 87 f6 3d f3 2a 99 3d ad 2a 3c 3d
       -0.06407968 0.1203757 0.07478895 0.045939136
000070 b5 84 87 bd 70 cb 55 3d 26 21 ef 3c 8f 4d 9a bd
       -0.06617109 0.052195966 0.029190611 -0.075343244
000080 7b ae 0d bd e1 6a d1 3d 59 9c 17 be 34 34 ca 3c
       -0.034590226 0.10225464 -0.14805736 0.024683096
000090 d5 c4 20 3c f2 26 cb 3d 1e 2e a6 3c ba 48 83 bc
       0.009812553 0.099195376 0.020285662 -0.01602589
0000a0 15 d1 5b 3d 43 95 75 3d f0 e7 2a bd f1 e5 f7 bd
       0.053666193 0.0599568 -0.0417251 -0.12104405
0000b0 18 0e de 3d 7d 11 e5 3c 17 4f 2e bc c8 2e 8a 3d
       0.10842532 0.02796244 -0.010638974 0.06747204
0000c0 08 82 0e 3c 1f ae 78 bc 12 1a e6 3d c3 98 54 3d
       0.008697994 -0.015178232 0.11235441 0.051903497
0000d0 f1 0c ca 3d c9 97 8e bd 9f 5f 80 3d df d8 e6 3c
       0.098657496 -0.069625445 0.06268238 0.028179584
0000e0 65 b0 37 bb aa 3e da bc d9 5b ee bc 19 f0 12 3d
       -0.0028028723 -0.026641209 -0.02909653 0.035873506
0000f0 94 d6 d6 bc aa f6 f9 b9 06 38 ac 3d e5 8f 37 bd
       -0.026225366 -0.0004767676 0.08409123 -0.044814963
000100 80 f4 e3 3c 42 ce 4c 3d 4a 9e 1e bd cf 08 ad bc
       0.027826548 0.05000139 -0.038725175 -0.021122364
000110 fe 99 9a 3d 96 18 56 bd 5a e9 f7 3d 8d 25 43 3b
       0.07548903 -0.05226954 0.12105055 0.002977702
000120 a4 62 07 3d 65 58 04 bd 5f 0d 17 bd 9e 57 11 bc
       0.033053055 -0.032310862 -0.036877986 -0.008870987
000130 4c 42 5e bd fe 11 20 bd e9 ee 86 3d b3 fe 9e 3d
       -0.054262444 -0.03907966 0.06588537 0.07763424
000140 d5 be 90 3d 72 ca aa 3d dd 31 c7 3a 6f 04 4d 3d
       0.07067648 0.08339395 0.0015197356 0.050053056
000150 53 88 11 bd cb 67 da bb bf fd 7d 3d 04 e0 28 3d
       -0.0355304 -0.006665205 0.06200957 0.041229263
000160 9c 9b b7 bd df f0 eb 3d 68 98 93 3d e0 83 cb bb
       -0.08965227 0.11520552 0.072068036 -0.006210789
000170 1e bd b1 ba 25 c2 0f 3c bd 53 1c 3d 4d ca 6e bc
       -0.001356039 0.008774315 0.038165797 -0.014574599
000180 45 d3 6a 3d b7 2b ad 3c 25 2f c4 3c c0 50 73 3d
       0.05733039 0.021139009 0.023948262 0.05940318
000190 85 20 e1 bd 9e d2 86 3d 4c 02 73 bc 71 44 b9 bd
       -0.10992531 0.06583141 -0.014832091 -0.09046257
0001a0 48 78 07 be 7c b5 52 3d 0b d6 2c ba cd 57 c4 bd
       -0.13229477 0.05144261 -0.0006593174 -0.09587059
0001b0 33 dc cc 3d 86 93 24 3d 31 d7 4b 3d 5f dd 71 bd
       0.10002937 0.04017975 0.04976577 -0.059049007
0001c0 79 c6 c0 3c 17 2d 44 bc ac c6 5e 3d a5 d6 64 3d
       0.02353214 -0.011973641 0.054388687 0.055868763
0001d0 35 4d e2 3b 7f 05 8f 3a 77 03 c3 3c 19 ff 0e 3c
       0.0069061765 0.0010911672 0.023805363 0.008727812
0001e0 e0 04 e5 3c 97 30 d8 3d 07 f6 e9 3d 6f 00 18 bd
       0.027956426 0.10556143 0.11423879 -0.03710979
0001f0 63 4b b9 3d 11 95 da bd fb 2e 7a 3c b4 80 b3 bc
       0.09047582 -0.106729634 0.01526999 -0.021911956
000200 cb 23 91 3c f7 f9 dc 3d e4 1a 4b 3d d8 ec b6 bb
       0.017717263 0.107898645 0.04958619 -0.005582433
000210 e9 01 09 3e 39 4e a4 3c 3f b5 1e 3d ec 42 cd bd
       0.13379635 0.02005683 0.03874707 -0.1002253
000220 b8 96 1a 3c 1f 44 22 bd e0 e1 25 bd 50 a1 f5 bb
       0.009435348 -0.039615747 -0.040498614 -0.0074960366
000230 e5 f5 a4 3d 0c 09 40 bd 23 f9 76 bc 3e 12 67 3d
       0.08054713 -0.046883628 -0.015074047 0.05641388
000240 a6 e5 9a bd a8 a1 53 bd 2e 2e fd bd f7 17 ad 3b
       -0.07563333 -0.05166784 -0.12362324 0.005282398
000250 97 9f f5 bc dc e7 21 3d f0 7e f5 3d ff ed f1 bb
       -0.029983325 0.03952776 0.11987102 -0.0073831077
000260 52 8a 7a bd 91 24 ad bd 1a c2 87 3d 69 a5 9c 3d
       -0.06116707 -0.0845424 0.06628819 0.07648737
000270 79 f8 0c bd d9 c8 3b ba 0e 54 31 3c d8 85 6f 3d
       -0.03441665 -0.00071634125 0.010823263 0.058477253
000280 c0 c9 bf 3c 37 31 ea bd 88 72 13 bc 29 ac 84 bc
       0.023411632 -0.11435168 -0.008999474 -0.016195374
000290 6b 88 80 3d 0c 69 b2 bd 2e f8 c8 3d d8 21 7a bb
       0.0627602 -0.08711442 0.098129615 -0.0038167145
0002a0 97 45 9f bd 90 69 ad bc 88 b2 4f bd 50 08 01 3e
       -0.07776945 -0.0211685 -0.05070737 0.12600827
0002b0 7c 6a 0a 3d c4 6a 5b bd ab ae ac 3c 34 ee a6 3a
       0.033792958 -0.053568617 0.021079382 0.0012735785
0002c0 a0 76 0b 3e 8d e7 b4 3c d6 ab 55 3d 4e 3c 0b 3d
       0.1361947 0.022083068 0.05216583 0.033993058
0002d0 9c 53 e5 3d 3a 12 9e 3d 39 bb f2 3d a6 f8 8e bc
       0.11197588 0.0771832 0.11852116 -0.01745255
0002e0 84 12 f0 3c 1f 5a 2f bd c3 6f ac 3d 9b 10 59 bc
       0.029305704 -0.042810556 0.08419754 -0.013248588
0002f0 fc 15 86 3d 04 fb 43 3c 9b 60 f9 3d fb 9b bf 3d
       0.06547162 0.011961702 0.12176629 0.09355923
000300 d1 91 46 3b b9 31 d9 3d 32 cb 6c bd 35 9f e7 bd
       0.0030299316 0.10605187 -0.05781097 -0.11309663
000310 96 9f 1a 3d 5e 4e ba bc bd 50 ea 3c 6d 31 99 bd
       0.03774985 -0.022742447 0.028602952 -0.0748013
000320 4c e4 e3 3c df 75 95 3d 9f c0 2b bd d0 91 a0 3c
       0.027818821 0.07297873 -0.041931745 0.019600779
000330 63 a3 c2 3b f0 08 b1 bd b9 30 ac bd 19 d8 28 3d
       0.0059398874 -0.08644283 -0.084077306 0.04122171
000340 3a d4 32 bd fa 56 91 3d 61 19 ba bb bf 3c 36 bd
       -0.043659426 0.070966676 -0.005679295 -0.044491526
000350 9c 1e 4f 3d d0 c6 74 3d 95 a4 83 bc 77 a0 06 3e
       0.0505663 0.059759915 -0.01606969 0.1314715
000360 f4 43 e6 bc 14 34 be bc 91 5c d1 3c 36 4e 97 3c
       -0.028108574 -0.023218192 0.025556834 0.018469911
000370 0a 8e bb 3d 03 2f 58 bd 11 ea 33 3d 8a 52 b8 3d
       0.09157951 -0.05277921 0.043924395 0.09000118
000380 eb 84 2d bc 6f 87 3f 3d 8d fc 47 bd a6 a3 0f bd
       -0.010590772 0.04676002 -0.048824836 -0.035068177
000390 79 27 57 bd 6e 67 ad 3b e8 b6 78 3d f5 cd 88 bd
       -0.05252788 0.005291871 0.060721308 -0.06679908
0003a0 85 31 d5 3d 2b 98 14 3d 00 c5 02 bd 05 fd 52 3d
       0.10409836 0.03627793 -0.031926155 0.05151083
0003b0 42 06 cb 3c e8 d6 e1 3d 14 a4 f6 3c ec ba 40 3c
       0.024783257 0.11027318 0.030107535 0.011763316
0003c0 3a 5c f7 3d fc 1f 7e ba dd 27 87 3d 33 ff 2e ba
       0.12078138 -0.0009694097 0.065994 -0.0006675601
0003d0 5c 63 c8 bc 41 a7 98 b9 3e a5 c2 bc b6 d5 ab 3d
       -0.02446144 -0.00029116313 -0.023760434 0.083903715
0003e0 96 21 0d bc fa 85 b5 3d 2d 6f 5d bd 5f c0 aa 3b
       -0.008613965 0.088634446 -0.054061104 0.0052109207
0003f0 ae 04 e3 3d d5 ea ef 3c 6a 9b 6f bd a9 24 37 bb
       0.11084877 0.029286781 -0.058497824 -0.0027945435

weight f4 [60, 256]
000000 00 b8 44 bd a0 0c b3 3c a0 8d a4 3d b0 7e a5 bc
       -0.04802704 0.021856606 0.08034825 -0.02020201
000010 a9 07 f8 3c fe 24 18 bc bf 9e ac bd 84 be aa 3b
       0.03027709 -0.009286163 -0.08428716 0.0052106995
000020 06 18 f8 3b 34 02 8e 3c ee 00 a0 3d 34 59 e4 bd
       0.007571223 0.017335035 0.07812677 -0.11149827
000030 a2 ba 4d 3b 6b db e9 3c a4 6b 7a 3b db e8 15 3d
       0.003139176 0.02854701 0.0038211131 0.03659902
000040 84 da df bc b1 a5 90 3c 64 bf 5a 3d b4 2f 3e bd
       -0.027325876 0.017657133 0.05340518 -0.046432212
000050 32 64 23 bd cd 90 0d bd e1 67 20 bc 70 93 b3 bd
       -0.039890476 -0.03456192 -0.009790392 -0.08768356
000060 a1 b1 3e 3c 47 01 30 3c 70 f3 aa bc 37 b0 b0 bc
       0.01163903 0.010742492 -0.020868033 -0.0215684
000070 07 36 42 3d a4 54 41 3d e2 36 49 bd f0 c2 80 bc
       0.047414806 0.04719986 -0.049124606 -0.015717953
000080 f0 23 df bc dd cf 96 3c fb d4 3c 3d df f2 3b bd
       -0.027238816 0.018409664 0.04610155 -0.045885917
000090 9f df 93 bd e6 02 88 bd 88 88 58 3c e6 31 50 3d
       -0.07220387 -0.06641178 0.013216145 0.050828837
0000a0 04 83 05 bc 90 eb ba bb 14 f5 50 3c 2e 44 92 3d
       -0.008148912 -0.005704351 0.012753744 0.071419105
0000b0 89 d7 9d bd 06 7a 93 bd 38 f3 05 3c 2a 43 31 bd
       -0.07707126 -0.072010085 0.008175664 -0.043276943
0000c0 ab ef 3c bd 5b 01 4d bd 6f d0 9a bd b5 2e 43 bd
       -0.046127003 -0.05005012 -0.07559287 -0.047651965
0000d0 74 ae d2 bd 7d 68 5d 3d 6e 50 89 bc 06 73 b8 bc
       -0.102871805 0.054054726 -0.016761985 -0.022515785
0000e0 61 71 22 3b 21 ac d4 3c 94 41 02 3b cd c0 84 bd
       0.0024786817 0.025960984 0.0019875513 -0.06482086
0000f0 ad 55 9f 3e 50 10 0b be c8 02 3c bd 9d 86 5e bd
       0.31120053 -0.13580441 -0.04590109 -0.054327596
000100 56 a9 3e 3d 44 30 4d 3b 1a f1 34 3d e2 80 e1 bd
       0.04654821 0.0031309286 0.044175245 -0.110109106
000110 b2 22 4c bd c9 f5 7e 3b 1a be b7 b9 d5 65 44 bd
       -0.049837776 0.0038903824 -0.00035046117 -0.047948677
000120 c3 77 c0 bd 47 d1 81 3d 4e 02 29 3d 1b b8 d6 3c
       -0.09397843 0.063387446 0.041261964 0.026210835
000130 cd 58 ef ba ef 36 32 bc 0b 43 59 3d ec 58 70 3d
       -0.0018260718 -0.010877355 0.053042453 0.058678553
000140 74 3d 93 bd 2c 7e 00 bc 6e b3 cb bc 40 e1 df bd
       -0.07189456 -0.007842582 -0.024865832 -0.10931635
000150 0c fb 00 bc ce a3 44 3d a3 e5 bd bd 7a a3 36 3d
       -0.007872354 0.04800778 -0.09272315 0.044589497
000160 fd 32 eb 3a a0 64 8a bc fe 90 ac bd 01 aa b9 bd
       0.0017944273 -0.016893685 -0.084260926 -0.09065629
000170 28 19 c3 3c 05 20 c3 bc 6d 6c 09 3d 72 e0 5d 3d
       0.023815706 -0.023818979 0.03355067 0.054169126
000180 7d 7a 13 3d 1b 26 8a 3c 54 89 5b 3d 13 3b 2f 3c
       0.036005486 0.016863873 0.053597763 0.010695237
000190 f0 7c 92 3d 50 a0 c0 3c 36 bb c4 3c 97 c7 d7 3b
       0.07152736 0.023513943 0.02401505 0.0065850723
0001a0 55 bd 72 3d f6 33 5d bd c0 30 d3 bc 52 dc 28 bd
       0.059262592 -0.054004632 -0.025780082 -0.04122574
0001b0 23 99 fc bc 6b c0 40 3d 9d 7f 82 3c 34 28 8b 3e
       -0.03083474 0.047058504 0.015929991 0.2717911
0001c0 81 5b 91 bb d3 2f 00 bd 0c 70 17 3c be 0c bc bc
       -0.004435957 -0.03129561 0.009243023 -0.022955295
0001d0 c1 83 64 bd 1f 01 c4 bd 7b af 89 bd 31 53 7c bc
       -0.055789713 -0.09570526 -0.06722923 -0.015400694
0001e0 f1 fa 6c bd 1e 3f 99 bd cf 5b 1d bd e3 e8 83 3d
       -0.057856504 -0.07482742 -0.038417634 0.06440904
0001f0 76 18 0e bd 48 ab e9 bd 99 59 71 bb 38 7b 13 3d
       -0.034691297 -0.114096224 -0.0036827086 0.036006182
000200 cb bf 03 3d 13 b0 0e 3d 44 47 be 3c cc bf 00 bc
       0.03216533 0.034835886 0.023227341 -0.007858228
000210 3b e5 63 bd bf 56 0f 3d b0 cf 34 bd 4c 07 50 3d
       -0.055638533 0.034994837 -0.04414338 0.05078821
000220 54 7a 45 bc 42 1a 5c 3d 65 2f 75 3b a1 39 c1 3c
       -0.012053091 0.05373598 0.0037412283 0.02358705
000230 5f 3f c5 bd aa ff 60 3c e5 b9 2c bd 69 d0 8b bc
       -0.09631228 0.01373283 -0.04216947 -0.017067151
000240 6d 59 81 3d 76 51 c5 bc 6d bc d6 3c 1f 01 8b 3b
       0.06315885 -0.024086695 0.026212895 0.004242077
000250 f8 82 99 bb 8e a0 2a 3d 4b 1e 8d bd 92 43 aa bc
       -0.004684802 0.041657023 -0.068905436 -0.020784173
000260 3e cf 1e 3d a6 b9 0f bc d0 fd 5c bd 68 1c 0b 3c
       0.03877186 -0.008772289 -0.053952992 0.008490659
000270 71 0f 18 3e 3f 00 eb 3c 2e f9 84 3d eb ce bc 3c
       0.1484964 0.02868664 0.0649284 0.023047885
000280 98 90 81 bd 65 e4 44 3c a5 5e 16 3c d5 d9 f7 bb
       -0.06326407 0.012017344 0.009177838 -0.0075638094
000290 8c 8f 0f bc ec 44 83 3d 2b 64 52 bc 5a 03 10 3e
       -0.008762252 0.0640963 -0.012841265 0.14063779
0002a0 c9 55 09 be 0d cc 87 3b 59 69 3e bd 11 f6 57 bd
       -0.1341163 0.004144198 -0.046487186 -0.0527249
0002b0 25 ff 7d bd aa 59 13 3d 93 4e 55 be 08 53 17 3b
       -0.062010903 0.035974182 -0.20830755 0.0023090262
0002c0 72 ad 1b 3d d6 fb 91 bd d4 bd 29 3c c1 25 0d 3d
       0.038007207 -0.07128112 0.0103602 0.034459833
0002d0 8e 52 a5 3c 86 e3 83 bb c0 49 24 3d 9a 3f 8d 3c
       0.020180967 -0.0040249256 0.040109396 0.017242242
0002e0 b8 b1 9c bc 06 79 39 bd bd 44 92 bd 3c 75 0f 3c
       -0.019127712 -0.045281433 -0.07142017 0.008755978
0002f0 25 f5 0d bd 7f f6 e2 bc 20 5c 21 bb a3 e6 0f 3c
       -0.034657616 -0.02770543 -0.0024621561 0.008783015
000300 73 04 30 bd 04 be 8e 3d e3 a6 0c bc 17 09 93 3d
       -0.042972993 0.06969836 -0.008584711 0.07179468
000310 0d 4b 4a 3d ce e9 6a bc f0 78 54 bd ba 16 2e be
       0.04938798 -0.01433797 -0.051873147 -0.17000857
000320 f8 e9 ba bd 38 3f 35 bd 7f b6 22 bd 7f 48 95 3b
       -0.09126657 -0.044249743 -0.039724823 0.0045557613
000330 c1 5d 31 3d 94 f7 2a ba bc 95 ee 3d 75 9e 67 bd
       0.0433023 -0.00065218774 0.11649653 -0.0565476
000340 38 de 7f bc c4 c2 72 bd 3d ce 30 bd b4 5e 15 be
       -0.015616946 -0.059267774 -0.043165434 -0.14586908
000350 f9 73 c8 bc 19 90 89 bc f7 b2 1d bd 94 91 28 bd
       -0.024469363 -0.016792344 -0.038500752 -0.04115446
000360 a2 f7 a4 ba 75 a5 58 bd f1 ce fa 3c 97 45 e3 3c
       -0.0012586007 -0.052892167 0.030616255 0.027743144
000370 f1 2c b7 bd c4 1c 02 3d 8d 84 b2 3c 92 a2 a2 bd
       -0.08944119 0.031765714 0.02179172 -0.07941164
000380 09 7d 1b 3d 7d f2 d7 bc 47 59 80 3c e0 69 4e 3b
       0.03796104 -0.026360745 0.01566757 0.0031496212
000390 66 a1 b5 bc 4b be 5c 3d c3 57 2f bd 41 b0 e6 3c
       -0.022171687 0.053892415 -0.042808305 0.028160216
0003a0 e9 31 f1 bb 54 f7 17 3d 52 87 83 bd d8 d4 68 3d
       -0.007360686 0.037101105 -0.06422295 0.05684361
0003b0 90 6e fc 3c 3b 57 df 3c 8f d9 d2 3c 67 8b 2f bd
       0.030814439 0.027263274 0.025738506 -0.042857554
0003c0 9d a7 42 ba 75 73 01 3d 4a 22 21 bd 4e 07 30 bd
       -0.0007425489 0.03160425 -0.03933934 -0.042975716
0003d0 12 8e 28 3c db 61 1f bd a2 95 10 3d f4 6b e3 bc
       0.010287778 -0.03891168 0.03529895 -0.027761437
0003e0 88 c3 05 3d 77 a2 01 3e bb 08 4a bd c3 e4 0b 3d
       0.032657176 0.12659632 -0.049324732 0.03415371
0003f0 34 1b af bd 35 27 00 bd 2e 12 d2 3d 94 a5 08 bc
       -0.085501105 -0.03128739 0.10257374 -0.008340258
