data/example_dynamics_data/models/office/LSTM_q_true.pth (torch, 206163 bytes, 10 tensors)

weight f4 [64, 107]
000000 e0 1a a1 3e 88 6f 25 3f 3c 9e f9 bd 88 9b 8c 3e
       0.31465816 0.6462331 -0.12188384 0.2746241
000010 8c 07 26 3f 07 a3 9d bd 33 f5 6b 3e f4 64 9c bd
       0.64855266 -0.076971106 0.23042755 -0.07636443
000020 1f 74 2b be 66 71 e5 3d ed ee 55 be e7 5d 23 3f
       -0.16743515 0.1120327 -0.20891924 0.6381516
000030 d5 53 9d bc b6 54 4b 3f 64 43 23 3e ad 07 e5 3d
       -0.019205013 0.79426134 0.15943676 0.11183105
000040 75 12 18 be 19 25 f9 bc 1d 48 8c be ad b9 31 3e
       -0.14850791 -0.030413197 -0.27398768 0.17355986
000050 66 c5 cc be 9f aa 9f be d8 62 53 3e 33 2a ac 3d
       -0.39994353 -0.3118486 0.20643175 0.08406486
000060 25 a1 91 3d 8c f6 c2 3e ab b2 d2 3d 53 d3 e7 3d
       0.07110814 0.38078725 0.102879845 0.11319604
000070 f7 8b 8b bd 8a 0f 6d be b5 78 9a 3d cd 48 fa bd
       -0.068138056 -0.23150459 0.07542554 -0.12220917
000080 43 12 8a be e4 2d ac bb 3c c4 66 3f c5 48 a7 bc
       -0.26967058 -0.005254494 0.9014318 -0.020420441
000090 80 20 a7 bd 88 7d 93 3d cf ba 07 3f 55 50 35 3e
       -0.08160496 0.072016776 0.5301942 0.17706425
0000a0 3e 86 18 be 44 01 19 bf 8e c5 8f 3e f2 98 69 be
       -0.1489496 -0.59767556 0.2808041 -0.2281225
0000b0 48 20 3f be 15 6d b3 be 07 ff 43 bd 36 af 95 3d
       -0.18664658 -0.3504416 -0.047850635 0.073088095
0000c0 8f 2b 21 3f 03 28 1d bd fd 67 be 3d 8a 6b d0 3d
       0.6295709 -0.038368236 0.09297178 0.101767614
0000d0 8d 06 a7 bd e9 6b 84 bd 0d d1 24 bc 11 4d 1b 3d
       -0.08155546 -0.06465895 -0.010059607 0.037915293
0000e0 e7 63 41 bc 80 fe e1 3c b6 73 c9 bc 76 5b 32 bd
       -0.011803604 0.027587175 -0.024591308 -0.043544255
0000f0 e8 7e 9d bd bf 7e 3e bc 10 f7 91 bd 99 b5 be bd
       -0.07690221 -0.011626898 -0.071272016 -0.09311981
000100 18 d5 c1 bd f5 d0 99 3d 3b 44 65 bd 00 00 a4 3d
       -0.094644725 0.075105585 -0.055973273 0.080078125
000110 0c 0e 76 bc 4c 67 11 3d 33 52 2a 3e cd 3e 84 bc
       -0.0150179975 0.035498902 0.16632919 -0.016143227
000120 f3 89 90 3c ce 38 68 3e 2b c7 0e 3f 1b cc 4f be
       0.017643904 0.2267792 0.55772656 -0.20292704
000130 24 52 a0 3d 3a 09 81 3d 0a 95 62 3f 66 ee 0d 3e
       0.07828167 0.06300588 0.88508666 0.13860473
000140 34 4e 4e be 03 fe ca 3e c5 a1 ce bb e5 6a 02 bc
       -0.2014702 0.3964692 -0.0063059055 -0.007960056
000150 12 ff f1 3c bb 42 11 3d 77 00 97 bd be eb 31 3c
       0.029540572 0.03546403 -0.073731355 0.010859428
000160 56 04 64 bc fd a9 49 3d 71 50 90 3d 5f 1e f7 bc
       -0.013917049 0.04923438 0.07046593 -0.03016585
000170 8e d1 be bc 43 7e 50 bd d8 9a f0 bc 94 61 94 bd
       -0.023293283 -0.050901663 -0.02937071 -0.07245174
000180 06 d2 87 3c fd 0b fe 3b ab 85 9c 3c 93 a0 86 bd
       0.01657964 0.007752894 0.019106707 -0.06573596
000190 55 b8 02 3e 3b f8 c6 bc 9d 10 e1 bb a0 d2 6e 3d
       0.1276563 -0.024288287 -0.0068684355 0.058306336
0001a0 36 2f 31 bc 48 f1 d1 3c 44 f5 1c 3d bf 99 97 bd
       -0.010814479 0.025627747 0.03831984 -0.074023716
0001b0 e1 0d f5 be c4 a3 b0 3d fb 61 31 3e 90 2f 3a be
       -0.4786215 0.08624986 0.17322533 -0.18182206
0001c0 49 c4 d7 3c 53 0d c5 3c f7 04 c7 bd d5 2a 88 3e
       0.026338713 0.024054205 -0.09717744 0.26595178
0001d0 f5 e2 e1 bc 97 60 8f bf 6d 3d cc 3e f7 47 90 3d
       -0.027574042 -1.1201352 0.39890614 0.07044976
0001e0 56 6e 4e 3e 82 1e f6 3d 64 18 99 bd 5f d2 9b bd
       0.20159277 0.12017538 -0.07475355 -0.076084845
0001f0 fd 34 fa 3e 26 3f 01 bf 58 12 4f be 4f 56 96 be
       0.48868552 -0.5048698 -0.20221841 -0.29362723
000200 0b 2f c4 3c eb 5e 8d bd bf d2 29 3e cc b4 2e bd
       0.023948213 -0.0690287 0.165843 -0.04265289
000210 16 67 95 be 61 53 74 be 54 2c 0a 3f 38 61 0a be
       -0.2918021 -0.23859932 0.5397389 -0.13513649
000220 f0 f7 22 3e 0f c7 f3 bd 09 94 7a bd 57 e5 0a 3f
       0.15914893 -0.11903202 -0.061176334 0.54256195
000230 0b bd ca 3d 79 6f c7 bc 24 33 14 bd 79 22 90 be
       0.09899338 -0.024345146 -0.036181584 -0.281513
000240 59 3e b1 3d e2 1a 36 bf 87 f4 4d bd 02 79 d0 3d
       0.0865447 -0.7113477 -0.050282028 0.101793304
000250 db be 40 3e 7c 01 4a bd f0 65 40 bd f7 0b 53 be
       0.18822806 -0.04931782 -0.046972215 -0.20610033
000260 a6 71 ea 3d 6b 38 cf be 82 a4 e1 3d 55 15 31 be
       0.11447458 -0.4047273 0.110177055 -0.17293294
000270 6c 5e 1f 3d f0 49 6c 3c a6 7c 9a 3c ec a0 9e 3d
       0.038908407 0.014421925 0.018858265 0.07745537
000280 7c 4b 44 3d dd a4 5b bc 2b 48 88 3d 19 52 a5 3d
       0.04792355 -0.013406006 0.0665439 0.080722995
000290 51 79 d6 bd c7 c6 42 3d 4e 1d b0 3b d7 64 48 3d
       -0.10472358 0.04755285 0.005374587 0.048924293
0002a0 1b 1f 9c 3d a4 8d 3d bd 72 71 ac bd 17 b4 84 bb
       0.076231204 -0.046277657 -0.084200755 -0.0040497887
0002b0 60 88 15 3c 61 b2 8f 3c 36 9d ac bd 30 07 96 3c
       0.009126753 0.017541112 -0.08428423 0.018313974
0002c0 e4 2a 1b bd c1 e9 df 3d 67 ca b7 3d 07 f5 70 bd
       -0.0378827 0.10933257 0.08974152 -0.058827426
0002d0 4c c1 76 3e 3b be d6 3d 3e 23 ca 3d e6 48 ab 3e
       0.24097174 0.10485502 0.09870003 0.33454055
0002e0 5c b0 32 be 9b 0b 41 be fd b4 a6 bd 12 75 96 3d
       -0.17450088 -0.18852083 -0.081399895 0.07346548
0002f0 35 62 18 3e db 72 41 3e d7 eb ac bd 53 f9 a2 bc
       0.14881213 0.1889147 -0.084434204 -0.019894278
000300 43 55 64 bd 8b 27 28 3d 62 17 bf bc aa 64 93 bc
       -0.055745374 0.041053336 -0.02332658 -0.017992336
000310 06 c9 a3 3d e6 83 c3 3d d9 66 a6 3d 19 5e 94 3d
       0.079973266 0.09546642 0.081250854 0.0724451
000320 1b 07 4c 3d 30 c8 05 bc 3c ce 95 3d 08 ed 01 3d
       0.049811464 -0.008165404 0.07314727 0.03172019
000330 bf f1 2b bd f2 8a 1a 3d a4 da fe 39 b1 87 5d bb
       -0.041978594 0.037730165 0.00048609555 -0.0033802802
000340 a3 4f 76 3d 63 a1 63 bd 1e cf 18 3d 10 44 9d bc
       0.06013454 -0.055573832 0.037306897 -0.019197494
000350 0f 1d aa 3d fd fc af 3c c0 14 b0 3e 63 b1 2f 3d
       0.08306324 0.021482939 0.3439083 0.04289378
000360 a0 88 d2 bd bb 5f f8 3c 5b 58 65 be 3b 5a dc 3c
       -0.102799654 0.030319085 -0.22396986 0.026898494
000370 ed 72 73 be 30 61 f4 bd a5 9c 45 be 5c 0d c1 3c
       -0.2377431 -0.119325995 -0.19298036 0.02356594
000380 26 ff 90 3d b4 2c b1 bd 70 d9 b3 3c e3 5a ab 3f
       0.07079916 -0.086511046 0.021954268 1.3387111
000390 16 63 f5 bd bc 85 bf 3e da e5 a3 bd 28 14 21 3f
       -0.1198179 0.3740672 -0.08002825 0.6292138
0003a0 5c a9 33 3e 36 c9 42 3e dd 3b 88 3d 61 37 98 3e
       0.17545074 0.19022068 0.06652043 0.2972975
0003b0 9c 4d 8f be f0 e7 a2 bd 25 79 7a 3e 48 c5 36 3d
       -0.279889 -0.07954395 0.24460275 0.044621736
0003c0 12 2a 00 3d aa e4 b4 be 31 35 90 3e 33 db 2f be
       0.03129012 -0.35330707 0.28165582 -0.17173462
0003d0 b1 39 a0 bd 28 ec f5 be f8 f8 c1 3e 82 e2 bf bd
       -0.07823504 -0.48031735 0.3788526 -0.09369375
0003e0 31 77 23 3f 71 d3 34 bd ca ed 71 be 27 32 0f 3d
       0.63853747 -0.04414696 -0.23625866 0.03495994
0003f0 70 2c 9e 3e 03 09 3d 3e 1c 67 c5 bd 42 61 05 be
       0.30893278 0.18460469 -0.09638807 -0.13025382

bias f4 [64]
000000 bf df a0 3d 89 3a 93 3c 1e 08 b1 bd be 86 6f bd
       0.07855176 0.017972248 -0.08644126 -0.05847811
000010 3f 06 6b bd 2f 1d e9 3d d5 e5 ee 3c af 32 c6 3d
       -0.057379004 0.113825195 0.029162327 0.09677636
000020 42 17 cf 3d 6d 18 10 bc 51 79 54 3d 6b d4 8d bd
       0.10111858 -0.008794886 0.05187351 -0.06925281
000030 0a d4 aa bd 8c ad 8d 3c 99 e2 a3 bd 22 ee 4f 3c
       -0.083412245 0.017294668 -0.080022044 0.012691053
000040 7e 9d f0 3b 7f b6 43 3d 03 37 20 3e 65 42 b0 bd
       0.0073429933 0.047781464 0.15645985 -0.08606414
000050 c2 d8 db 3c 07 4d f9 bd 26 7e 89 3d d0 5e 11 bd
       0.026836757 -0.12172895 0.06713514 -0.03549081
000060 3f 0d c5 bd 42 4b 34 3d c0 60 2e 3d 13 64 b4 3b
       -0.09621667 0.044017084 0.042572737 0.005505094
000070 d3 aa 4f 3d 43 ac 44 3d 1d cd dd 3b c7 af 93 bd
       0.05070002 0.048015844 0.006768836 -0.07211261
000080 4f 74 70 3c df 01 9e 3d e7 3c da 3d 91 07 62 3d
       0.014676168 0.07715201 0.106561475 0.055182997
000090 a8 c8 52 3d fd 14 78 bc cc 58 8d bc 4a 96 2c bd
       0.051460892 -0.015141723 -0.017254256 -0.042135514
0000a0 38 2a e2 3c ae 01 a3 3c ec e0 b2 bc d8 27 77 3d
       0.027608022 0.019898262 -0.021835767 0.060340732
0000b0 6b 1a 4e 3d 54 a6 42 3d c0 b1 8c 3c cf 7d 4e bd
       0.050318163 0.047521904 0.017174602 -0.05041295
0000c0 c0 93 67 3c 95 7c ac 3d 01 9f 55 3c 61 15 60 bc
       0.014134347 0.084222 0.013038398 -0.013676972
0000d0 f6 6f 98 3b 21 19 a9 3d 32 7e 91 bd 9f 01 aa 3d
       0.0046520187 0.08256746 -0.07104148 0.083010904
0000e0 6c 4f 11 3c e0 db 0b 3d db fd 7a 3d 3d 3b 26 3d
       0.008869033 0.034145236 0.06127725 0.040583838
0000f0 26 b1 83 bd 27 e2 9f 3d 51 53 88 bd 5c 43 2c bc
       -0.06430273 0.07806807 -0.06656516 -0.010514107

weight f4 [64, 64]
000000 21 c9 97 3e 46 29 38 3d 4e 35 f2 3d 23 89 3c bd
       0.29645637 0.044961236 0.11826573 -0.04602922
000010 3d 13 09 bd c7 4d 4d 3b ca 2b ab bd 12 4b f5 3d
       -0.033465613 0.0031326876 -0.083579615 0.11977209
000020 53 3f 93 be 77 44 e3 3e 52 c8 de 3d 66 2f 5b be
       -0.2875925 0.44388172 0.10878052 -0.214048
000030 40 6e 66 be ce a7 23 3e df cf 40 3e 4a c5 12 bf
       -0.22502995 0.15981981 0.18829297 -0.5733229
000040 03 b1 f7 be 29 c3 d7 bd 6a 62 a8 3e d8 e9 22 3e
       -0.48377237 -0.10535271 0.32887584 0.15909517
000050 32 2e 4c 3d 95 d7 18 be 0a df 98 bd c9 01 b5 bc
       0.049848743 -0.14925988 -0.07464416 -0.022095578
000060 8d 19 8f bd da 4a 47 be f4 bf 81 3c 85 eb 87 3d
       -0.06987295 -0.19462147 0.0158386 0.06636719
000070 30 35 37 3e 54 17 74 be 81 ac 61 3e ea 9b f1 bc
       0.17891383 -0.23837024 0.22038461 -0.02949329
000080 ae 3d 05 3f 74 c2 20 bd 41 ed 6f be ca c1 7c 3e
       0.5204724 -0.039247945 -0.23430349 0.246833
000090 0d 00 ef bc 87 ef f9 bd 84 fb 9e be 1d 4a 9a 3e
       -0.029174829 -0.12203889 -0.31051266 0.3013467
0000a0 a7 e9 1c 3e c0 47 33 bf 25 ad b1 3e 2a 4e 2f be
       0.15323506 -0.70031357 0.3470241 -0.17119661
0000b0 b0 88 0e be a1 8e 9a 3d ff 15 53 3e 3e aa a0 be
       -0.1391933 0.075467356 0.2061386 -0.31379884
0000c0 3f 26 5f 3e 08 19 74 3e 23 5a 97 3e 71 b7 65 3d
       0.21791933 0.23837674 0.29560956 0.056083146
0000d0 68 d2 89 3e f1 90 d3 be 04 3e da ba 4a fa 2e 3d
       0.2691834 -0.4132152 -0.0016650562 0.042719163
0000e0 e7 a2 ce 3c 04 c1 50 3e 40 20 82 3d 4c 23 61 be
       0.025224162 0.2038613 0.063538074 -0.21986121
0000f0 96 83 71 be 55 20 59 3e 30 fd 29 be dd f3 5d be
       -0.23585352 0.2120374 -0.1660049 -0.21675058
000100 eb 13 ce 3e a6 77 5a be 37 79 ab 3e 18 96 73 be
       0.4024957 -0.21334705 0.33490917 -0.23787725
000110 7a 2c 24 be 82 ca 02 3d 02 e3 ac 3d e4 b6 b7 be
       -0.16032591 0.031931408 0.08441736 -0.35881722
000120 d4 4c 27 bd a9 78 a0 3e db e4 ed be 34 96 81 be
       -0.040844753 0.31342056 -0.46463665 -0.25309908
000130 8e 41 7c 3e 11 d1 3c bf b2 e4 36 3e 01 cf 3b 3d
       0.24634382 -0.7375651 0.17860678 0.04585171
000140 cd 4d 3d 3d 69 57 30 be 0a 19 54 be c5 37 1e 3e
       0.046216775 -0.17220844 -0.20712677 0.15450962
000150 5d 92 47 3d 84 c6 16 bd 72 45 ea 3d d5 cd b9 3d
       0.048723567 -0.036810413 0.11439027 0.090724625
000160 d9 34 4c bd 79 a5 1a be d7 67 81 be b2 85 ae 3e
       -0.049855087 -0.15102185 -0.25274536 0.34086376
000170 f4 59 03 3e ad d9 32 bc 5f f0 f0 3e 48 f2 c4 bb
       0.12827283 -0.010916156 0.4705839 -0.0060103275
000180 26 42 c4 3e 81 47 05 3f de 4d 13 bf 68 a3 5f 3e
       0.38331717 0.5206223 -0.5754069 0.21839678
000190 bd 81 85 bd 49 7f 23 bf 21 7f 35 3e 65 6d 1d 3f
       -0.06518886 -0.63866097 0.17724277 0.6149505
0001a0 0d 3b 87 bf bb e1 a5 bd e1 cb 9c 3d b6 d1 2c 3d
       -1.0564896 -0.08099695 0.07656074 0.042192183
0001b0 e8 c2 23 bf ab 3f 76 be a2 17 20 be 6a b8 28 be
       -0.6396928 -0.24047725 -0.15634015 -0.16476598
0001c0 1a e0 8d 3d e5 2a e9 be 63 15 15 bf 6d 47 0f 3e
       0.069275096 -0.45540538 -0.5823576 0.1399209
0001d0 c2 91 0b 3e a5 da d4 bd cc 28 61 3e 96 85 44 3f
       0.13629821 -0.10393266 0.21988219 0.76766336
0001e0 97 a2 7d be 28 0a 63 bd 16 47 bc be b3 d4 20 bf
       -0.24769054 -0.055429608 -0.36772984 -0.62824553
0001f0 aa ed 5e 3c 33 8f 83 be 96 d8 94 3e 9a 3c b4 be
       0.013606468 -0.2569519 0.29071492 -0.35202485
000200 62 26 8a 3d 7d f8 15 be a4 d9 91 3e 41 46 b4 bd
       0.06745602 -0.14645572 0.2848636 -0.08802462
000210 e5 ad 58 bd 6d b8 f2 bd df c2 a6 bd c8 10 92 3e
       -0.052900214 -0.11851583 -0.081426375 0.28528428
000220 64 60 43 3e ee 65 ba 3e f5 6f 02 be d4 5c 5a be
       0.19079739 0.3640589 -0.1273802 -0.21324474
000230 c6 88 e7 3d c1 9f 7f 3d 9e 50 98 3e c1 a2 0e be
       0.11305384 0.062408213 0.29749006 -0.13929273
000240 ef 78 4d 3d 8a d1 5b 3d c6 84 9b 3e a9 74 38 bb
       0.05016416 0.05366663 0.30374736 -0.0028145707
000250 f8 4d 4a 3e ca 28 34 3d e5 2c 2a 3d a2 63 10 bd
       0.19756305 0.043984212 0.04154672 -0.035251267
000260 97 52 bd bd 87 c3 4c 3e cd 2d 1a be 2d 54 59 3e
       -0.092442684 0.19996463 -0.15056534 0.21223517
000270 d1 2c 87 bb 0a 12 5c be fd fe dc 3c 07 80 81 bc
       -0.0041252156 -0.21491256 0.026977057 -0.015808119
000280 cc 64 67 be 04 57 98 3d b5 eb 0d 3e 45 3b c9 3c
       -0.22597045 0.07438472 0.13859446 0.024564395
000290 27 6c a9 3d fa 72 16 be 84 55 21 3e 97 09 78 bc
       0.082725815 -0.14692298 0.15755278 -0.015139005
0002a0 e9 7d b4 be ea 4e 1c ba bb 62 52 bc 00 89 09 bd
       -0.35252312 -0.0005962687 -0.012840922 -0.03357792
0002b0 d6 1b e6 bd be 11 0b be e9 45 69 3d 00 25 86 3d
       -0.11235778 -0.13580987 0.056951437 0.06550026
0002c0 24 89 aa 3d c2 35 22 3e 27 db 5b bc a5 47 0a bd
       0.08326939 0.1584082 -0.013418949 -0.03375973
0002d0 ba 3c 20 3e 34 64 26 be 81 66 1d 3e 04 6a 80 be
       0.15648165 -0.16249162 0.15371133 -0.25080884
0002e0 ca 52 bb 3d 34 43 91 3e 22 2e 16 3e a2 a2 56 3e
       0.0914665 0.28371584 0.14666036 0.20960477
0002f0 39 bd a1 3d 3f 6f 5b bd c1 45 6e 3e f1 f9 3a be
       0.078974195 -0.05357289 0.23268797 -0.18259408
000300 fc 7c 21 bd db fa 11 be 0e 28 3c 3e 57 76 40 3e
       -0.039425835 -0.1425585 0.18374655 0.18795143
000310 31 c3 7a 3c eb 8d e8 bd 1c b3 25 be 58 3b a5 be
       0.015305326 -0.11355194 -0.16181606 -0.32271838
000320 30 be c0 bc 18 34 c0 3e 20 55 73 bd 80 99 0d 3e
       -0.023528188 0.37539744 -0.059407353 0.13828087
000330 c0 f4 5b 3e c6 9d fc 3d c9 be 8a bd d2 44 85 3d
       0.21480083 0.123347804 -0.06774671 0.06507267
000340 92 80 e5 bd 1d c9 3e 3e 1d e5 2c bd 1d d3 03 3e
       -0.112061635 0.18631406 -0.042210687 0.12873502
000350 88 38 a0 3d 75 02 87 bc ae 94 d0 bb 6e 9a 8f 39
       0.078232825 -0.016480664 -0.0063653802 0.00027390145
000360 0d dc 5d bd e5 79 dc bd ab 66 41 3e 6d a3 19 be
       -0.054164935 -0.10765437 0.18886821 -0.15003748
000370 bd f7 ac bd 34 ee 62 3d 3b f3 91 bc d3 ad 1e 3e
       -0.0844569 0.05540295 -0.017816177 0.15495996
000380 38 7a 78 3d 6c 00 80 be 43 fa 87 bd a8 af e5 3d
       0.060663432 -0.25000322 -0.066395305 0.112151444
000390 41 8d 60 be 18 cb aa 3d 77 88 63 3d 78 8b 85 3e
       -0.21928884 0.08339518 0.055550065 0.2608297
0003a0 3d 7b 3a 3e d4 57 66 3e 08 b8 a1 be 3d ac 87 3d
       0.18211074 0.22494441 -0.31585717 0.06624649
0003b0 9e f8 7b 3d 77 4c 2c 3d 89 de 38 bd 05 65 9f 3d
       0.061516397 0.04206511 -0.0451341 0.0778294
0003c0 fc 42 c7 bd 03 7e 10 3e 47 f2 bb 3c 7f 51 fc 3a
       -0.09729573 0.1411057 0.022942675 0.0019250362
0003d0 f1 18 04 3a f0 51 3d be 35 47 1e 3e 3c 92 5c bd
       0.0005039117 -0.18488288 0.15456851 -0.053850397
0003e0 d2 cf 00 be 5f 0d fc 3d 6f 9c 75 3d 1a 63 68 be
       -0.12579277 0.12307238 0.05996364 -0.22694054
0003f0 0f 42 2b 3e ae 69 4a 3e dc 9e b6 3d b0 48 b3 3c
       0.16724418 0.19766876 0.08917019 0.021885246

bias f4 [64]
000000 d9 69 c7 bd 6a f5 14 be 56 21 61 3d ae ab cc 3c
       -0.09736986 -0.14546743 0.054963432 0.024984207
000010 cf c5 10 3e 58 71 d5 3d 8d 9f 95 bc bb 43 e5 bd
       0.14137958 0.10422009 -0.018264556 -0.11194559
000020 b6 e3 3a bc cc 9a e0 bd e7 54 c2 3d 27 63 00 3d
       -0.01140683 -0.10967025 0.0948885 0.03134456
000030 62 e1 14 bb 0b f1 77 bd bf eb 52 3b 59 6a a0 bd
       -0.0022717346 -0.06053261 0.0032183973 -0.07832784
000040 ad 9b ff bd a2 28 ef 3d d1 b0 69 3d 4d 31 9d bc
       -0.12480865 0.11677672 0.05705339 -0.019188548
000050 07 8b 0b 3d 57 1a fe 3d bf c9 2e be 01 ed 84 3d
       0.034068134 0.12407368 -0.17069148 0.064905174
000060 f7 94 21 bd f9 5d 77 bd e3 db 13 3d 25 a2 f0 3d
       -0.039448705 -0.060392354 0.036098372 0.117496766
000070 1f 5b 9f bd 5f 9e 34 bc 97 25 8a bc a0 b6 1c 3d
       -0.07781052 -0.011024087 -0.016863627 0.038260102
000080 ac 91 a0 bc c8 a4 38 bd 35 0b 1c 3b c5 92 65 3d
       -0.019600712 -0.045079023 0.002381039 0.056048173
000090 84 1d 0b 3e e7 41 ad bd 51 24 9c bd 7c 11 cc 3d
       0.13585478 -0.084598355 -0.07624114 0.099642724
0000a0 5d 2f 9f bd 1f 1a da bd fd 7c 57 bd 09 85 07 bd
       -0.07772706 -0.106495135 -0.052609432 -0.033085857
0000b0 04 19 9e bc 29 b3 83 bd 71 b6 b4 bd d0 0a af bd
       -0.019299038 -0.064306565 -0.088238604 -0.08546984
0000c0 75 86 56 3c 25 1b ad 3d 3c de a1 3c 9b 7d b1 bd
       0.0130935805 0.08452443 0.01975929 -0.086665355
0000d0 f7 33 2a bd 10 fe e3 bc 52 cc 9c bc 2e 30 82 bd
       -0.041553464 -0.027831107 -0.019140396 -0.06356846
0000e0 36 91 11 bd cb b0 07 bc be 4d 23 bb 32 d4 08 3d
       -0.035538875 -0.008281897 -0.0024918164 0.03340549
0000f0 bf 42 21 3d 37 2f 6c bd 3e 09 5c bd ba 4d f3 3d
       0.039370295 -0.057662215 -0.05371975 0.118800595

weight_ih_l0 f4 [256, 64]
000000 ab e7 62 3e bb 86 f9 3e 7c 51 23 3e e0 9b a8 3e
       0.22158687 0.48735604 0.15949053 0.32931423
000010 db 1d cc 3e b6 2e 53 3e 4c fb a4 3e 8e ac 60 3e
       0.39866528 0.20623288 0.32222974 0.21940824
000020 78 03 4e 3e 4f 67 e6 bd 8d 6f 80 be d8 5b 17 3f
       0.2011851 -0.11250173 -0.25085106 0.5912452
000030 bd 4d 12 bf c6 76 d8 3e 9e 80 98 3e 08 94 09 3f
       -0.5714987 0.42278117 0.29785627 0.537415
000040 fe 34 19 bf d9 b6 f5 bb 04 c1 81 3d 50 df 67 3d
       -0.59846485 -0.007498604 0.06335643 0.05660945
000050 cc d9 c7 3d 3a b0 34 3d 15 34 a0 bc 6d 9b 04 3e
       0.09758338 0.044113375 -0.019556085 0.12949915
000060 1b ec c5 bd cb 73 69 bd 00 96 4f 3e 14 0b ab bd
       -0.09664174 -0.056995194 0.20272064 -0.08351722
000070 db 49 4e be c8 2a 33 3e 57 4e e7 3e ca 55 c3 39
       -0.20145361 0.17496789 0.45176956 0.00037257216
000080 36 2c 92 3e b7 4b 1b be 9c 0f 9e 3d b0 d4 0a 3c
       0.28549355 -0.15165602 0.07717821 0.00847356
000090 6e d7 8e 3e bd 0c b9 3e 96 2a 2b 3d 72 1e e4 3d
       0.27898735 0.3614253 0.04178866 0.111386195
0000a0 68 94 14 3e 57 98 98 be 7c a5 3c bf 69 83 65 3e
       0.14509737 -0.29803726 -0.7369001 0.2241341
0000b0 bd 5f a5 be b0 0b ae bd 66 7e 91 be 07 ad ac 3d
       -0.32299605 -0.08498323 -0.28416747 0.0843144
0000c0 05 68 52 3e 53 7b 94 3d 84 e0 da bc c8 46 32 bc
       0.20547493 0.07250085 -0.026718386 -0.010881133
0000d0 0d 4f cf 3d 1e f9 9e bd 60 50 2d 3e 49 67 92 be
       0.101224996 -0.07762359 0.16925192 -0.28594425
0000e0 3a 3d cb bd 37 e8 a4 bd c4 cc 4d be a5 a7 63 3e
       -0.099237874 -0.08052104 -0.20097643 0.2223192
0000f0 4b 59 c2 3e 28 b7 08 bf 5d e6 86 be aa ab 2b bf
       0.3795875 -0.53404474 -0.26347628 -0.67058814
000100 dc 21 ec 3e e6 3e f5 3e 2f dc 12 3e 2f fd 85 bd
       0.46119583 0.4789955 0.14341806 -0.065424316
000110 cf 16 86 bd 48 7f 3f 3e 08 a2 e9 3d 2a ef ce bd
       -0.06547319 0.18700898 0.11407858 -0.10104211
000120 82 e7 32 3e 71 f9 ea 3e 59 1f 98 bc 20 20 f7 3c
       0.17471126 0.45893434 -0.018569635 0.030166686
000130 32 25 c9 be 24 af 5e 3e ce 09 1c 3e 78 e4 b1 3c
       -0.3928619 0.21746498 0.15238115 0.021715388
000140 f4 28 8c 3e ba 1c 88 3d fa 68 ff bc 9a 5f 53 3e
       0.27374995 0.06646104 -0.031177986 0.20641938
000150 2f 87 90 3c cd 5d d8 3e fe 6a f8 be 38 63 86 3d
       0.017642586 0.42259064 -0.4851913 0.06561893
000160 ba 0f 30 3e d2 00 98 bb 7f 7e 14 3e f1 08 a3 be
       0.17193499 -0.0046387697 0.1450138 -0.3184276
000170 93 45 38 bf fc 11 d1 3e d7 7d 74 3e 77 2a 68 bd
       -0.7198116 0.40834033 0.23876129 -0.056681123
000180 90 a6 b0 bc c0 3b 0a 3f bc 1b 65 bf c5 18 e7 3d
       -0.021563798 0.5399742 -0.89495444 0.11284021
000190 b8 c3 5a be 16 93 22 3d 0c 0a 1f be af 42 cb be
       -0.21363723 0.039691053 -0.15531176 -0.39699313
0001a0 b5 bc b5 3d 20 b2 34 3e 5b c3 78 be 29 b8 c8 3e
       0.08873884 0.17646074 -0.24293272 0.39203003
0001b0 29 1f 6c be c0 a9 f0 bd ec 4f f3 3d c1 76 38 bc
       -0.23058762 -0.11751127 0.11880478 -0.011258782
0001c0 20 1e 12 3e 70 cc f7 3d 3a 6a 21 be 29 35 ce 3c
       0.14269304 0.1209954 -0.15763178 0.025171833
0001d0 89 57 b1 3d e2 37 d0 bc b6 58 d0 3c 3a 94 a0 bd
       0.08659274 -0.025417272 0.025432926 -0.07840772
0001e0 36 8c 3c be 76 fb d4 be 91 29 45 bd ba 6f 40 3e
       -0.18412861 -0.415981 -0.048135344 0.1879262
0001f0 8a 47 c3 ba 58 5a 66 3d a0 dc 3a be 38 31 41 3e
       -0.001489864 0.056238502 -0.18248224 0.18866432
000200 fa df cb bc 43 7f 9b 3f cd 44 0c bd d9 b4 20 be
       -0.024887074 1.2148212 -0.0342453 -0.15693988
000210 87 4c 13 3e ac 9f ba 3e be a6 57 3e f6 92 0b 3e
       0.14384662 0.36449945 0.21059701 0.1363028
000220 d0 a9 12 be c8 20 06 3f 1c 68 85 be 0b 35 1c 3e
       -0.14322591 0.5239377 -0.26055992 0.1525461
000230 2a 13 c0 3e 6f 55 97 bd 16 6f 1f 3e 41 41 b1 3d
       0.3751462 -0.07389342 0.1556972 0.08655024
000240 af 47 d8 bc be 3d fb be ff 2f 75 3e 77 92 8e 3d
       -0.026401369 -0.49070543 0.2394409 0.0696153
000250 63 dd ef bc ba 5f 13 3f 00 3a 25 be 2a f5 ae be
       -0.02928037 0.5756794 -0.16135406 -0.3417142
000260 19 e5 39 be e3 0f 41 3d f4 53 9f 3e 6b db be 3e
       -0.181538 0.04713429 0.3111874 0.37276778
000270 b0 1e 1e bf e6 ad ae be f1 87 d7 be 3b a9 1c be
       -0.61765575 -0.3411705 -0.42095903 -0.15298931
000280 f2 9d d1 3d 42 83 35 be ee 39 60 3e 9d 30 03 bd
       0.10235204 -0.17725852 0.21897098 -0.032028783
000290 67 75 e2 3d 01 0e 9f 3e f4 94 2d be 0b de ec bd
       0.11057549 0.31065372 -0.16951352 -0.11565789
0002a0 88 40 4d be 7f ea 07 3f 99 31 cb bc 3d c3 64 3d
       -0.20044148 0.5309219 -0.024803923 0.055850256
0002b0 90 ef 2c be ee e8 5f bc 09 3d da bb c7 81 51 3e
       -0.16888261 -0.013666375 -0.006660108 0.20459662
0002c0 79 5f ca bc 75 88 89 3e eb cd f6 3e f5 89 50 3e
       -0.024703728 0.2686192 0.48203978 0.20365126
0002d0 08 bd 64 3e a8 f3 2b 3e be c9 25 be c2 21 0e 3e
       0.22337735 0.16792166 -0.1619024 0.13880065
0002e0 65 f3 28 be 41 d4 0a be 35 59 73 3e 58 8a 30 be
       -0.16499098 -0.13557531 0.23764499 -0.17240274
0002f0 9b 6b a1 bc b4 22 04 3e a7 39 a0 3c a1 24 98 be
       -0.01970463 0.12903863 0.01955874 -0.29715446
000300 12 9a e0 3d a6 ec 01 3e 63 d3 5c be 7a 0c ca 3e
       0.109668866 0.1268793 -0.21565013 0.39462644
000310 49 e5 22 3d 16 01 2b bd 8f 24 87 be 2f 5d d6 3e
       0.039769445 -0.041749083 -0.2639508 0.41867968
000320 66 07 20 3c bf 73 7f be 23 d4 47 bf 58 0d 11 3e
       0.009767389 -0.24946497 -0.7805807 0.14165246
000330 f7 6c be 3d f2 75 08 3e ce 5a 44 3e b3 cb 93 3e
       0.09298127 0.13326243 0.19175264 0.28866348
000340 46 e7 c0 be a4 86 ae 3d a6 c9 24 3e 26 ae 91 be
       -0.37676448 0.085217744 0.16092548 -0.28453177
000350 9e c5 11 3d 67 98 2c 3e 76 c0 91 be ea 35 0f be
       0.035588853 0.16855012 -0.2846715 -0.1398541
000360 53 86 d3 bb c6 1b 79 3d 58 a0 04 3e e3 8d 2c 3e
       -0.0064552217 0.060817502 0.12951791 0.16851
000370 b5 e1 e0 be c7 b3 b1 bd ad ea f5 3e a8 8a 88 3e
       -0.439222 -0.08676868 0.48030606 0.26668286
000380 13 74 2d 3e dc 50 d5 bd ea e3 d1 bd 87 85 01 3c
       0.1693881 -0.10415813 -0.10248549 0.007905371
000390 bb 0c 1f 3d 8a e2 60 3e b5 02 06 3e 58 b9 08 be
       0.0388305 0.21961418 0.1308697 -0.13351953
0003a0 17 b2 3c 3e 82 a3 59 bd 47 69 32 3d 5a bb 28 3f
       0.18427311 -0.05313445 0.04355743 0.65910876
0003b0 81 38 ee be 37 df 91 bc 05 db 48 bd 86 72 7b 3e
       -0.46527484 -0.017806632 -0.049037 0.24555406
0003c0 f6 2c 62 3d c4 11 c4 bd 91 64 72 bd 9d 74 5f 3d
       0.05521866 -0.09573701 -0.05917794 0.05455457
0003d0 b9 99 30 3c 90 74 f6 3c 45 6c f6 bc 80 0c f3 3d
       0.010778838 0.030084878 -0.030080924 0.118676186
0003e0 08 43 5d 3e bc 67 d9 bd f9 3c 6b be 2e 37 a0 be
       0.21607602 -0.10615489 -0.22972478 -0.312921
0003f0 92 6b ba bd a5 92 8d 3e 3d 27 83 be 97 df 39 3e
       -0.09102549 0.27650943 -0.25615874 0.18151699

weight_hh_l0 f4 [256, 64]
000000 d0 e7 43 be 88 62 f9 bd 28 3b 20 3e fd 68 24 3e
       -0.19131398 -0.121769965 0.15647566 0.16055675
000010 82 ac 87 3f 35 d9 f2 3e 86 b2 2d be 04 fe 90 be
       1.059952 0.4743134 -0.16962633 -0.283188
000020 ec e2 78 be 55 c6 af bc c8 45 43 be 37 bd b0 be
       -0.24305314 -0.021456877 -0.19069588 -0.3451936
000030 b5 6a e3 be 7e 40 6d be 4d ea 95 be ee c4 9b 3e
       -0.44417349 -0.23169133 -0.2928032 0.30423683
000040 64 22 8f 3e f1 cb 0d 3e cc 2f bd 3e a8 d5 18 be
       0.27955925 0.13847329 0.3695053 -0.14925253
000050 80 34 3a 3d cd 35 8b bd bf 04 45 be cf 80 e7 3e
       0.045460224 -0.06797371 -0.19240092 0.4521546
000060 ea be 27 be 28 c2 ca 3b ce 12 07 be 79 55 af 3e
       -0.16381422 0.006187696 -0.13190767 0.34244898
000070 ae 62 49 be 4b 7a 8c be 39 25 b8 3c c9 b1 ec bd
       -0.1966655 -0.27437052 0.022478687 -0.11557347
000080 7b 22 6f be 3e 9c e1 bd 8e e6 f4 3d b4 73 84 3e
       -0.23352997 -0.11016129 0.11958037 0.25869524
000090 86 77 19 be 79 3e 51 bd 6b db 4f 3d b5 31 b9 be
       -0.14987001 -0.05108497 0.050746363 -0.36170736
0000a0 6e 90 ac 3b c6 22 cf 3e 58 0a 9d be 43 83 91 be
       0.005266241 0.40456218 -0.30671954 -0.28420457
0000b0 c9 69 a6 be 2a 6b 37 3c ca e9 f6 3e 32 42 20 3e
       -0.32502583 0.0111949835 0.48225242 0.15650252
0000c0 95 20 52 be 29 4c e7 3d 20 99 37 3e b7 42 c2 3e
       -0.20520242 0.11293823 0.17929506 0.37941524
0000d0 96 00 b4 be df 39 97 bc 21 c8 c1 3d 94 b6 7e bc
       -0.35156697 -0.018460212 0.09462 -0.01554646
0000e0 07 81 51 be 54 92 6a 3e 1f c6 ff bd 2e dc 39 be
       -0.20459376 0.22907382 -0.124889605 -0.18150398
0000f0 2d d8 d3 be 3d 01 1d 3e 7e fa 3c bd e5 0b c7 be
       -0.41375867 0.15332504 -0.046137325 -0.38876262
000100 18 18 b1 bc 5b 18 80 be d2 aa b4 3d f0 d3 e9 3d
       -0.021617934 -0.25018582 0.08821644 0.11417377
000110 c4 94 20 be 57 4e 90 3d 0d 3d ee bd f9 6c 69 be
       -0.1568175 0.07046192 -0.11632738 -0.22795476
000120 83 f2 c0 bd b4 51 79 bd 46 f5 89 3e a0 26 b4 be
       -0.094212554 -0.060868934 0.2694494 -0.3518572
000130 1f 38 6d be 73 b0 0e be 58 f3 c3 3c e2 96 b3 bd
       -0.2316594 -0.13934498 0.023919746 -0.08769013
000140 62 8c 9e be 94 da 4c bd 36 7e 79 be 8d 01 d0 bc
       -0.3096648 -0.05001314 -0.24364552 -0.025391364
000150 a2 3b 9f 3e 2f 5a 18 be 6c f6 9c bd 55 18 7f be
       0.31100184 -0.14878152 -0.07664189 -0.24911626
000160 3e 6e cb be 62 f0 51 3d b0 13 4e 3e 08 cf 51 3e
       -0.39732546 0.051254638 0.20124698 0.20489132
000170 3c bd eb 3d f1 31 d5 be ab 1e 8d bd 05 38 68 bd
       0.11510703 -0.41639665 -0.06890615 -0.05669405
000180 c5 c6 db bd f5 08 a8 bd ad 0c 80 3d 75 e8 14 3e
       -0.10731272 -0.082048334 0.06252418 0.145418
000190 77 4d 39 be b9 1c d5 be f8 e2 17 bd ac 4d 55 be
       -0.18095957 -0.41623476 -0.03708169 -0.2083041
0001a0 c0 95 66 be 34 42 15 3d b4 19 49 bd 25 26 61 bd
       -0.22518063 0.03644009 -0.049096778 -0.054968018
0001b0 d6 38 06 3e 64 f3 f6 3d 15 c1 78 3e 7b e7 32 3c
       0.13107619 0.12058142 0.24292405 0.010919447
0001c0 7b 83 bb 3d 02 53 f1 bd 50 78 39 3e 48 34 af 3d
       0.09155937 -0.117834106 0.18112302 0.08554894
0001d0 f8 f4 01 bc ff 80 77 3c 2e 39 08 3b 80 27 3d be
       -0.00793194 0.015106439 0.0020786035 -0.184721
0001e0 fe 37 3e bc 59 24 c3 bd 6b e7 0a 3d f8 4f a1 3e
       -0.011610029 -0.09528417 0.033912104 0.31506324
0001f0 7c d6 69 3d a9 a3 ee bd d3 50 65 be c2 1d cb 3d
       0.057089314 -0.116523094 -0.22394113 0.09917785
000200 f2 99 57 3e bb c3 fe 3d fa 7e a9 be 8d 4d 15 be
       0.21054819 0.124396764 -0.33104688 -0.14580365
000210 49 89 14 3e be b3 0b bf dd 9b e1 bc 5d 28 be 3d
       0.14505495 -0.5457114 -0.027540142 0.092850424
000220 58 75 5a 3d de 1c a5 3d d0 e3 7a bb 5d a9 be 3e
       0.053334564 0.080621466 -0.003828276 0.3723859
000230 59 b1 79 3f 85 55 96 3e 2d 16 0e be 49 02 cf 3d
       0.97536236 0.2936212 -0.13875647 0.10107858
000240 23 cc 1e 3d 66 b9 b6 3c 49 a1 05 bd 99 e5 a9 bd
       0.0387689 0.022305202 -0.032624517 -0.082957454
000250 69 f0 c6 bd d5 d7 33 be 83 7c ae bb dd 93 b2 3d
       -0.09713823 -0.17562802 -0.0053249015 0.08719609
000260 b8 49 bb bd 25 21 c3 3d d1 3e ca 3d e6 e5 0b 3d
       -0.0914492 0.09527806 0.098752625 0.034154795
000270 1e 5e 65 3e fb ab 3b 3e c5 9c 77 3e f1 48 37 bb
       0.22399184 0.18327324 0.24180897 -0.002796706
000280 79 55 75 3d bf 36 b5 bd 86 29 a5 be 37 b2 1b be
       0.059895966 -0.088483326 -0.32258242 -0.15204702
000290 d9 f9 10 bf 97 4a 44 3e cf 7b c1 bd dc 02 7d 3e
       -0.5663124 0.19169079 -0.09447443 0.24708122
0002a0 ff 7e 4d 3c da 35 2f be 11 b6 96 bd 48 84 4e be
       0.012542485 -0.17110386 -0.07358945 -0.20167649
0002b0 74 17 d5 3e 55 9b bf bd c0 42 32 be ce 78 78 3d
       0.41619456 -0.09355799 -0.17408276 0.060662083
0002c0 2b 32 f1 bd e0 f4 aa bd 62 b6 9d 3d 23 df 9c ba
       -0.11777147 -0.083474874 0.077008024 -0.0011968355
0002d0 2d a1 a0 3d 2b f6 ec bd ce a6 15 3d 1a 67 35 be
       0.07843242 -0.1157039 0.03653603 -0.17715111
0002e0 cf 2a 42 3c e5 d7 b8 bb 0c a9 d1 3d 7c c3 00 be
       0.011851027 -0.005640971 0.10237321 -0.12574571
0002f0 5d cc 8c ba bd 2e 32 be af 66 3b 3d 5e b2 67 bd
       -0.0010742057 -0.17400642 0.045752224 -0.05656659
000300 46 b1 7b bd 1c 37 26 3c 19 2b 22 bd a0 28 86 3e
       -0.061448358 0.010144975 -0.039591882 0.2620287
000310 8e 14 53 3d bf 5b 44 be 9a 62 7e bd 83 ce d4 be
       0.051533274 -0.19175623 -0.062105753 -0.41563806
000320 72 91 bf 3c b6 1c 25 be 31 93 1c 3d 6a 40 19 3e
       0.023384783 -0.16124234 0.03822631 0.14965978
000330 e1 b9 60 3e ce b6 d1 bd 59 8f 19 be 87 a7 b4 bd
       0.21945907 -0.10239945 -0.14996089 -0.08821016
000340 96 a3 cf 3c 5c 8f 9d bd 45 db 4e 3e f8 cc c1 bd
       0.025346559 -0.07693359 0.20200832 -0.09462923
000350 6a bb ac 3a e5 ce dc bd 8d 70 c5 3e 8d 80 95 3e
       0.0013178412 -0.107816495 0.38562432 0.2919964
000360 0f 97 a4 bd 71 37 2d 3e 39 a2 02 bd 2f 2f 38 be
       -0.08036625 0.1691568 -0.03189299 -0.17986749
000370 b2 d8 e8 3c 8e 2a d3 bd f5 d3 18 be 85 8e 12 3d
       0.02842364 -0.10310851 -0.14924605 0.03578045
000380 40 bd 66 be 09 d6 03 bd 99 06 22 be 9c c6 e6 3b
       -0.2253313 -0.03218654 -0.1582283 0.007042719
000390 bc fb ae be a0 c9 b7 3d 7a 65 3d 3e f2 f8 c2 bd
       -0.34176433 0.08974004 0.18495741 -0.09520139
0003a0 ae 16 29 3d 89 42 62 3e ca d9 25 be 36 d9 14 3e
       0.041281395 0.22095694 -0.16196361 0.14535984
0003b0 6c bd ef bd db ad f5 3d 16 de a5 be 3c ad 1d bc
       -0.11706051 0.11996051 -0.32396 -0.009623822
0003c0 0f cf 29 be 34 fc 2c be de 88 2c 3e ec 5d a9 bd
       -0.16582893 -0.16893083 0.16849086 -0.08269867
0003d0 c5 a4 2b 3d 52 6d aa be 67 14 0b be f1 00 60 3c
       0.041905183 -0.3328653 -0.13582002 0.013672099
0003e0 e2 a1 3e be 34 23 60 be da 8b b0 bd 90 7c 1c bd
       -0.18616441 -0.21888429 -0.086204246 -0.03820473
0003f0 dc a5 77 3e 7b 7e ac 3d 89 9a 73 bd 19 f9 ce 3e
       0.24184364 0.08422562 -0.059473548 0.4042442

bias_ih_l0 f4 [256]
000000 2c 12 f1 3d 9e 77 d9 3d e9 3a 4c 3e b9 34 1b 3c
       0.11771044 0.10618518 0.19944347 0.009473019
000010 96 f3 1f be 02 f8 3b bc 5e dd 99 3d da 8f 7c ba
       -0.15620264 -0.011472704 0.075129256 -0.00096344727
000020 eb 12 50 3d 69 68 1f 3d 15 85 61 bd 33 29 5c bc
       0.05079929 0.038917933 -0.055058558 -0.013437557
000030 b9 1f fd bd 89 05 54 3d 7f 18 1a 3e a2 de 94 3e
       -0.12359566 0.05176309 0.15048407 0.29076105
000040 08 d6 db 3d 25 04 fd 3d 2f 52 8e 3d 1b f7 f6 ba
       0.107341826 0.12354306 0.06949269 -0.0018841954
000050 30 8a cc bd 2c 21 21 3d f0 1c ea 3d 11 8a b6 3d
       -0.09987295 0.039338276 0.11431301 0.08913053
000060 4d 84 40 bd 20 eb 57 3e 40 94 9c 3d b4 f2 62 bd
       -0.04700117 0.21085787 0.07645464 -0.05540724
000070 fb 8b 94 bd be 26 ca 3c a1 f7 0a bd d7 3a 1c 3d
       -0.07253262 0.024676677 -0.033927564 0.03814205
000080 49 34 51 bd 74 b3 35 3c b7 0e 1e be a7 89 e3 bd
       -0.051075254 0.011090148 -0.15435301 -0.111102395
000090 e1 1f a2 bd a7 e6 20 bd 1d 3c 75 3c 53 50 27 3d
       -0.07916237 -0.039282467 0.014967945 0.040848088
0000a0 c5 69 f9 bd 98 20 9b bc 47 23 0e 3e c9 ce 3c be
       -0.12178377 -0.01893644 0.13880645 -0.18438257
0000b0 44 59 1e b8 75 0e 63 3d e9 2b 9a bc b2 5d ef 3c
       -3.775327e-05 0.05543371 -0.018819766 0.029219482
0000c0 81 1a e1 bc ac 31 47 bd 85 a5 0d 3e a1 b5 6b 3d
       -0.027478458 -0.048631355 0.13832672 0.05754626
0000d0 6f 60 11 bd 60 a0 32 3e a5 45 f1 3d e4 44 c8 3c
       -0.035492357 0.1744399 0.11780862 0.024446912
0000e0 f5 9f 83 bb 46 a1 9a bd e4 89 40 3e f7 8d c7 3d
       -0.004016871 -0.07550292 0.18802601 0.097438745
0000f0 5a 71 14 3e a9 62 e7 bc c4 f7 d8 3b a9 66 67 bd
       0.14496365 -0.028245287 0.006621333 -0.05649439
000100 64 7d ca 3d 7f 5c c1 bd ad a8 f4 3d aa 32 7a bd
       0.098871976 -0.0944147 0.11946235 -0.061083473
000110 41 2a e7 bd f1 7b ab bc 00 ec 32 3e 4a 76 89 3d
       -0.11287356 -0.020933123 0.1747284 0.06712015
000120 8a 0f c8 3c 45 cf 3b be 24 b1 12 be 95 b4 d8 bc
       0.024421472 -0.18340786 -0.14325386 -0.026453296
000130 92 66 d8 bd 3d 66 29 3d b5 00 2b 3e b2 00 e7 3d
       -0.10566439 0.041357268 0.16699488 0.112794295
000140 ab b8 d5 bc 9e d8 cc bd fc 3d 26 bd 20 d3 80 3e
       -0.026089033 -0.10002254 -0.040586457 0.25161076
000150 2a ad 0d be 91 15 bb bd 7f 7a 01 be e2 e8 1c be
       -0.13835588 -0.09134973 -0.12644385 -0.15323213
000160 14 79 3d be df 09 fa 3c c3 ac aa bd cc 78 73 3d
       -0.18503219 0.030522285 -0.08333733 0.059441373
000170 f5 14 df 3d 19 9a e1 bc c1 26 7f bd 92 44 b5 3d
       0.10892669 -0.0275393 -0.062292818 0.088509694
000180 7e aa 14 be 01 ed 14 bd 66 a1 48 3d 74 78 c8 3d
       -0.14518163 -0.036358837 0.048982047 0.097885996
000190 58 8b 24 bc 87 2e 2e 3e 3d 44 d1 bd f6 09 89 bc
       -0.010042988 0.17009936 -0.102180935 -0.016728383
0001a0 87 5b 3c be 74 fc 07 be 61 fc 6e 3e e6 b5 1f 3d
       -0.1839429 -0.13279897 0.23338462 0.03899183
0001b0 cd c9 87 3c 43 20 08 bd ce 23 ae bd ef 82 a7 3d
       0.016575718 -0.033233892 -0.08502923 0.081792705
0001c0 4f dd e8 bd a0 7b 41 bc 53 72 2a bd 0c dc 57 bd
       -0.11370336 -0.01180926 -0.041612934 -0.052700087
0001d0 92 d1 d1 bd 2f 21 e5 bd 46 63 34 3d 25 43 5f 3d
       -0.102450505 -0.1118797 0.044039987 0.054507393
0001e0 73 3f cc bc 3c fe 11 be d8 fd e5 3d 19 d3 15 3d
       -0.024932599 -0.14257139 0.112300575 0.03657827
0001f0 0d 69 5d 3c eb cf 11 be bf a6 02 be ff eb 73 3b
       0.013513816 -0.1423947 -0.12758921 0.0037219522
000200 68 f3 7c bd 54 13 ad bd 86 78 61 bd 32 4d 28 3e
       -0.061755568 -0.08450952 -0.05504658 0.16435698
000210 3b f0 ff 3d 16 de 04 3e 39 01 ae 3d 04 28 d1 bd
       0.12496992 0.12975344 0.08496327 -0.102127105
000220 d9 b2 85 3d c6 26 ac 3d c8 cf 05 bc a4 4c 45 bd
       0.06528253 0.08405833 -0.008167215 -0.048168793
000230 72 8e 89 3d 48 c3 1e 3e 61 1d 9f bd f2 f1 51 bd
       0.067166224 0.15504181 -0.077692755 -0.051256128
000240 32 9b 9c bd c6 63 28 be c6 81 92 3c 25 1e 8e bd
       -0.07646789 -0.1644431 0.017884146 -0.06939343
000250 58 eb 95 3d 16 a4 de 3d 7e 72 92 3d e3 08 97 bd
       0.07320279 0.10871141 0.07150744 -0.07374742
000260 0f 43 7c 3b c5 a4 81 bc 2a 2f f5 3b de 51 16 bd
       0.0038492118 -0.015825639 0.007482429 -0.03669917
000270 c0 7f 48 bd b0 a6 a7 bb ae 1d 18 3e 8d d3 11 3e
       -0.048949957 -0.0051163062 0.14855072 0.14240856
000280 3d ab e8 bd a2 b6 2c 3d 0d 7e 2e 3d b7 99 91 bc
       -0.11360786 0.04216636 0.04260068 -0.017773492
000290 28 92 f5 3d eb 3c 28 be f2 2d 42 3d ff d1 8f 3d
       0.11990768 -0.16429488 0.047407098 0.070224755
0002a0 ba 18 75 bd d0 10 02 be e5 f1 42 bd a1 11 9b bd
       -0.059838034 -0.12701726 -0.04759397 -0.07571722
0002b0 23 9c c5 3b 1e cf 18 3e 71 0b 14 bc 53 95 d6 3d
       0.006030576 0.14922759 -0.009035931 0.104777
0002c0 7d ae f0 bd 9d 4a fa bd 91 99 73 bd ac 84 b8 3d
       -0.11752031 -0.122212626 -0.059472624 0.0900968
0002d0 69 96 02 3e 19 23 62 be c7 dc 00 be fc 73 51 3e
       0.1275269 -0.22083701 -0.1258422 0.20454401
0002e0 fb 7e 95 bc fc 3b 82 3d b1 c2 47 be 45 84 4c 3c
       -0.018249026 0.06359097 -0.19507863 0.012482707
0002f0 04 96 79 bd 73 46 8f 3d a6 25 2f 3e 10 5e fc 3d
       -0.06093408 0.06995859 0.17104205 0.123226285
000300 89 d9 05 be 6f 09 b8 bd 3b 98 4c bd 7c f1 92 3d
       -0.13071264 -0.08986174 -0.049949866 0.07174966
000310 52 c2 e5 bd ef a1 48 bc aa 12 e8 bc 36 a7 ee 3d
       -0.11218704 -0.012245639 -0.028329212 0.11652987
000320 bb a6 d5 bd e9 79 fb 3d 5f c1 cf 3d de d8 95 bc
       -0.10432192 0.12279112 0.101443045 -0.018291887
000330 68 b3 a3 bd 86 12 3e be 4b f1 5f 3d db 1f 1a 3e
       -0.079932034 -0.18561754 0.054673474 0.15051214
000340 36 2f 05 bc 95 09 9d 3d 53 9d 2c 3d 3c 5f c2 3c
       -0.008128932 0.07667843 0.042142224 0.023727052
000350 c9 35 e2 3c 9c 50 19 bd 3a f4 e6 bc 79 77 6e 3d
       0.027613537 -0.03743039 -0.028192628 0.058219407
000360 63 18 cf bd 70 a0 c6 bd b4 e8 e5 3d d5 04 06 3e
       -0.10112073 -0.0969857 0.11226025 0.13087781
000370 11 59 b5 bd 69 dc 88 bd c1 f4 e3 bd 02 3c ec 3c
       -0.08854879 -0.06682665 -0.111306675 0.028837208
000380 16 23 3f be 2f 13 fa bc f8 b4 8b bc ce 5a d2 3d
       -0.18665728 -0.030526726 -0.017054066 0.10271226
000390 6e 4a b7 bd 1d 39 8f 3d 54 0f b5 bd 83 fb 50 3e
       -0.08949743 0.06993315 -0.08840814 0.20408444
0003a0 57 41 e9 bd a2 54 c6 bd c9 f8 97 bd 91 35 f6 bd
       -0.11389416 -0.09684111 -0.07420499 -0.12021936
0003b0 ac 20 19 be 43 fc 42 3d 58 8c e2 3c 2a de c0 3d
       -0.1495387 0.047603857 0.027654812 0.094173744
0003c0 72 3c 5e bd 4b 62 8e be 08 2c ab bd d2 8f 6d 3d
       -0.054256864 -0.27809367 -0.08358008 0.057998486
0003d0 15 1e 86 bd 5f 2f 67 3d 3b 72 95 bd 7e 78 bd 3c
       -0.065487064 0.05644166 -0.07297178 0.023128744
0003e0 d3 c0 cf bd d4 19 5a 3d 96 66 84 bd 63 c3 c3 3d
       -0.101442 0.053247288 -0.06464879 0.095587514
0003f0 c3 ff 96 3c a2 38 1a bb 43 03 f3 bd ac ad 01 3e
       0.018432504 -0.002353229 -0.118658565 0.12663907

bias_hh_l0 f4 [256]
000000 0e 9a 05 3e 57 63 de 3d e2 43 10 3e e3 1f 7b 3e
       0.13047048 0.10858791 0.14088395 0.24523883
000010 2d da 8a 3d 19 57 bf 3d 36 c4 15 3e b9 49 f5 3d
       0.06779895 0.093427844 0.1462563 0.11976952
000020 0c f9 76 3c dd 01 a0 3d 7f bd cb bc e9 9e 47 be
       0.015074026 0.078128554 -0.024870632 -0.19494213
000030 f0 e7 9d bd bd 88 a8 3d 31 bd 09 3e a5 50 9a 3e
       -0.07710254 0.08229206 0.13451077 0.30139652
000040 74 8c d5 3c d4 ce e3 3d d9 9f 93 bd 34 ce ea 3d
       0.02606795 0.11123434 -0.07208223 0.114651114
000050 ba bb 25 bc aa b0 a3 bd b5 67 ef 3d f5 4b ca 3b
       -0.010115558 -0.0799268 0.116897024 0.0061736056
000060 da c7 39 3b 4b d7 d0 3d 8f 15 82 bd e1 76 04 bd
       0.002834788 0.10197314 -0.06351768 -0.032339934
000070 35 b3 03 bd 9c 7e 77 bd dd b8 e5 3c 11 0d 19 3e
       -0.032153327 -0.06042348 0.028042251 0.1494639
000080 77 37 37 3d 44 08 ed bd 3f 4f 38 bd f7 b5 74 bd
       0.04473063 -0.11573842 -0.04499745 -0.059743848
000090 dc 47 8b bc 58 8a 86 bc c5 2e 1a be 2d c5 ae bd
       -0.017002039 -0.01642339 -0.15056904 -0.08533702
0000a0 81 d1 10 be f3 70 3d be 6f 06 53 3e cf 85 79 3b
       -0.1414242 -0.18500118 0.20607923 0.003807414
0000b0 a9 e2 96 3d 67 30 16 3e af e9 64 bc 2c 82 35 3d
       0.07367451 0.14666902 -0.01397173 0.044313595
0000c0 6a 7c a3 3a 0d 7f 5d 3d 6c 1d 60 3e e4 62 8d 3d
       0.0012472991 0.054076243 0.21886224 0.069036275
0000d0 e0 05 fc bc 6b 62 0a bd 8a 6b f8 3c 08 95 2a bc
       -0.03076452 -0.033785265 0.030324716 -0.010411508
0000e0 ae bb 47 bd a0 1d 5e be fe 4e ee 3d 30 06 8d 3c
       -0.04876297 -0.21690989 0.1163616 0.017214864
0000f0 f5 7a 81 3e 68 b5 b5 3c 18 91 b6 3d fb 6f 0b be
       0.2528912 0.022181228 0.08914393 -0.13616936
000100 bd b5 22 3e 59 8d e9 3c 04 5d 44 3d 1a bb cd 3d
       0.1588964 0.028509783 0.04794027 0.100454524
000110 2c 2d 01 be d5 31 6b bd 1a 45 15 3e 6c e7 ae bd
       -0.12614888 -0.05742057 0.14577141 -0.08540234
000120 58 bf 45 bd b9 ec 31 be 85 76 fd bd f3 f5 cd bd
       -0.048278183 -0.17375459 -0.123761214 -0.10056677
000130 62 c3 e8 3c a0 73 b1 bd 4a f3 bc 3d 3c 4e 67 3b
       0.028413478 -0.08664632 0.09226091 0.0035294434
000140 a6 70 2e 3d 51 ae ac 3b 1c 2e 21 be c2 b8 81 3e
       0.0425879 0.0052698036 -0.15740246 0.25336272
000150 cc 9a 19 be 24 a8 d6 bb 84 ea a7 bd 52 b2 4b bd
       -0.15000457 -0.0065508056 -0.08199027 -0.049730606
000160 79 7f 56 bc 75 32 a0 3d 5d 4d b8 bd 7e f4 07 bc
       -0.013091915 0.07822124 -0.08999131 -0.008298038
000170 f2 f3 6d bd 09 ac cc bc 4d 5d a0 bd 69 66 a3 bc
       -0.058093973 -0.024984377 -0.07830296 -0.019946294
000180 17 9d 10 bd d8 5e 01 be af 6a 45 bd 64 3c 8e 3d
       -0.035306063 -0.12633836 -0.048197445 0.06945112
000190 3e ea 01 be 96 74 73 3d 80 cd bb 3c 01 77 27 3d
       -0.12687013 0.059437357 0.022925138 0.040884975
0001a0 f1 d2 b8 bd 01 dd fd bd 9b d8 5a 3e d2 4f 1a 3d
       -0.09024609 -0.12395669 0.21371691 0.03767378
0001b0 08 7c 14 3d 89 2c b0 bd 7f 65 eb bd b8 69 02 3c
       0.036251098 -0.086022444 -0.11493968 0.007959776
0001c0 f3 46 d3 bc 57 98 69 3d 1a fc b9 3d 17 ee 70 3d
       -0.025790667 0.05703005 0.09081288 0.05882081
0001d0 0c c2 d2 bd ed 62 92 3d 10 75 a3 bc eb e2 dd bd
       -0.10290918 0.07147775 -0.01995328 -0.10834297
0001e0 73 23 0b be b0 6c a0 bd 3f 80 49 3e 87 6c 38 3d
       -0.13587742 -0.078332305 0.19677828 0.045025375
0001f0 32 8e 1d bd 7f 87 ee bd 45 c0 8c bd 85 6c 86 3b
       -0.038465686 -0.116469376 -0.0687261 0.004102292
000200 11 a3 c1 bd 68 43 4b bd f8 30 40 be ba 43 18 3d
       -0.094549306 -0.04962483 -0.1876868 0.037173964
000210 35 80 8c 3d c6 5c 6c 3c 2a ac 06 3e e7 72 5c 3d
       0.06860391 0.014426416 0.13151613 0.053820517
000220 8a 57 b8 3c 18 2e d5 3d c6 1d 56 3c 45 7a 65 bd
       0.02250268 0.10409182 0.013068622 -0.05602481
000230 22 69 94 bc ee 5b 73 3d 0e 53 be bc 68 6b 84 3c
       -0.018116537 0.059413843 -0.023232963 0.016164497
000240 f7 65 49 be 3e ea 03 bd f2 8e 83 bc 91 fb 07 be
       -0.19667803 -0.032205813 -0.016059373 -0.13279559
000250 50 d8 89 3d ae ff 46 3d e3 cb 13 3e ed 53 13 3e
       0.067307115 0.04858368 0.14433245 0.14387484
000260 b1 5d 2e 3d 2a cf f7 3b ce 54 43 3c 7c 11 f2 3d
       0.04256982 0.0075625377 0.0119220745 0.11819741
000270 73 c8 b1 bd 70 6f c1 bc bb c5 24 3e 2c 0e 0d 3e
       -0.08680811 -0.023612708 0.16091053 0.13774937
000280 db bf b3 3d 5f 71 c5 3d a7 f4 2a bd 17 38 1d be
       0.08776828 0.096407644 -0.041737225 -0.15353428
000290 df 64 29 bd 81 30 69 be c7 de 9c 3d 48 8e 33 bd
       -0.041355964 -0.22772409 0.07659679 -0.04383686
0002a0 af ae a2 bd 42 30 9e bd b6 04 bf 3d 90 9b 8a bd
       -0.079434745 -0.07724048 0.093270704 -0.067679524
0002b0 80 35 c3 3d 54 59 a2 3d 2d de bb bd f5 e9 2f bd
       0.09531689 0.07927194 -0.09173236 -0.04294773
0002c0 95 b6 2c bd e6 9c 93 bd 1c dd 09 bd 5a d0 98 bd
       -0.04216631 -0.072076604 -0.033658132 -0.07461615
0002d0 cd 11 d9 3d 71 43 3d be dd 1b 60 3d 6d f4 89 3d
       0.10599098 -0.18482758 0.054714072 0.06736074
0002e0 3b 63 c0 bd 60 1a 13 bc e7 97 63 be e0 03 47 3d
       -0.09393927 -0.008978456 -0.22225915 0.04858768
0002f0 26 2b 82 3b 31 f4 ef bc a7 28 46 bd 5b 09 d2 3d
       0.003972429 -0.029291244 -0.048378613 0.10255691
000300 77 a2 48 3d 5b bd 0b 3c b4 05 d5 3d 34 ca 54 3b
       0.048983064 0.008529033 0.104014784 0.0032469155
000310 1c b0 8f bd 68 64 fe 3d 06 bc 0f bd cc 1a 02 3d
       -0.07016012 0.12421495 -0.035091422 0.031763837
000320 ea 72 e2 3d 78 58 d9 bc 31 34 c4 3b 5b 7c 15 3d
       0.11057074 -0.026531443 0.005987667 0.036495548
000330 0f b8 53 bd 25 02 23 be 58 40 90 3d 47 f8 49 bd
       -0.051689204 -0.15918787 0.070435226 -0.04930904
000340 91 9a 85 3d 2b de 16 3d fe 26 a2 bd e6 b7 e6 bc
       0.06523622 0.03683297 -0.079175934 -0.028163861
000350 28 43 30 bd 57 0e ca bd 31 07 8b 3c 02 cb e1 3d
       -0.043032795 -0.09866016 0.016971203 0.11025049
000360 83 57 d5 bd cb 0f 06 3d 43 18 01 3a e4 82 c9 3c
       -0.10417082 0.032729905 0.0004924575 0.024598546
000370 16 53 09 be 64 3f ec 3b 1d 78 5b 3d c3 ae f6 bb
       -0.13410601 0.007209705 0.053581346 -0.0075281574
000380 7c dc 0a be 73 79 ba 3d f6 a7 80 3b 04 86 60 3d
       -0.1356067 0.09105196 0.0039262725 0.054815307
000390 2f 9b bb bc 04 8e 7c 3e 80 f7 f0 bd 4a 1d b3 3d
       -0.022901146 0.2466355 -0.11765957 0.08745821
0003a0 29 32 3a 3d 5c d3 7a bc a6 40 eb bd 4d f2 ac 3d
       0.045457993 -0.015309181 -0.1148694 0.08444653
0003b0 f8 86 04 be c4 f4 01 3e 32 da 52 3a 4a 04 fa 3c
       -0.12942111 0.12691027 0.0008043378 0.030519623
0003c0 4c ec 88 bd e1 ff 0b be 96 5d a6 bd 6f 3a 16 3c
       -0.06685695 -0.13671829 -0.08123319 0.009169205
0003d0 d5 e6 a9 bd bb 48 24 3e 07 fa 3b bc f3 60 5b bd
       -0.08295981 0.1604337 -0.011473185 -0.053559255
0003e0 ba cd 4d 3d e9 7d 44 be 02 3b 3f 3d 87 6b 88 3d
       0.050245024 -0.19188656 0.046687134 0.06661134
0003f0 8e d4 68 bd 1e 56 b4 3c 71 01 26 3d 10 42 10 bd
       -0.056843333 0.02201372 0.04052872 -0.035219252
