data/example_dynamics_data/models/office/LSTM_qhat_true.pth (torch, 206163 bytes, 10 tensors)

weight f4 [64, 107]
000000 78 93 16 bc 7f 4c 94 3e c7 8a 99 bd 93 67 11 3d
       -0.009190433 0.28964612 -0.07497173 0.035499167
000010 a6 a4 10 3f b6 9f 95 bd 0d 16 b9 3d b9 4b 06 3f
       0.56501234 -0.07305853 0.09037409 0.52459294
000020 3b 4b 13 be 54 fd bd bd 7b f4 ab 3d 13 b9 cb bd
       -0.14384167 -0.09276834 0.0839624 -0.099474095
000030 21 3e fa 3d 3a 32 bb 3e 1c fb 81 3e 0c 11 36 3c
       0.122188814 0.36561757 0.25386894 0.011112463
000040 c6 cb 85 be bc bc fe 3d f2 3f 88 be 7f f9 73 3d
       -0.2613203 0.12438342 -0.26611286 0.05956411
000050 20 0d aa be 9e 42 c2 be 43 84 6c 3e 35 c4 38 3e
       -0.3321314 -0.3794145 0.23097329 0.18043597
000060 22 8f bb 3e b1 6e 87 3e dc f0 a3 3c b5 d6 5b bc
       0.3663264 0.26451638 0.020012312 -0.013417889
000070 d4 80 40 be 50 64 bc bd 5c d5 b2 3d 4c d0 4c bf
       -0.18799144 -0.091988206 0.08732101 -0.80005336
000080 30 69 26 3e 1f 0c 8b 3d 02 3c 82 3e a4 92 90 3b
       0.16251063 0.06789421 0.25436407 0.004412012
000090 6b d5 fc 3d b4 ff 67 3c 0b eb 1b 3f bb e5 20 3f
       0.12345394 0.0141600855 0.6090552 0.6285054
0000a0 8e 47 34 be 81 89 ef 3d ae 67 93 3e eb d8 1e be
       -0.17605421 0.11696149 0.2879004 -0.15512435
0000b0 54 63 07 bd d9 43 09 bf 42 55 23 3f b3 2b 32 bd
       -0.03305371 -0.5361915 0.6380197 -0.043498706
0000c0 5e ea 2e 3e bf ad b2 bc ba 7f 9c 3d 48 83 ae 3d
       0.17081591 -0.021811364 0.076415494 0.08521134
0000d0 8d 06 a7 bd e9 6b 84 bd bc e7 d4 3b e1 1e 5f 3d
       -0.08155546 -0.06465895 0.0064973515 0.054472808
0000e0 9c bd 9b 3b 92 bc 34 3c 49 8b 28 bd 76 5b 32 bd
       0.004752828 0.011031287 -0.041148458 -0.043544255
0000f0 e8 7e 9d bd 68 8c a1 3b 52 1c 60 bd 19 ce 9c bd
       -0.07690221 0.004930068 -0.05471451 -0.076564975
000100 18 d5 c1 bd 76 d1 6f 3d 3b 44 65 bd 00 00 a4 3d
       -0.094644725 0.058549367 -0.055973273 0.080078125
000110 b8 bb c9 3a 17 39 55 3d 39 93 bc bc cd 3e 84 bc
       0.0015391028 0.0520564 -0.02301942 -0.016143227
000120 03 7f 8e 3a 1b 17 a3 be 38 36 03 be 0b dc eb be
       0.0010871593 -0.31853566 -0.12813652 -0.46066317
000130 65 bd 1e 3d 4d 6d b5 bd f0 6d f1 3e df 49 c9 3d
       0.03875484 -0.08858738 0.47154188 0.09828543
000140 5c 75 05 be d0 f3 fc 3e 65 d0 a2 bd 55 d9 0c 3c
       -0.1303305 0.49404764 -0.07949904 0.008596738
000150 12 ba 54 3c 58 e3 9a 3c 77 00 97 bd be eb 31 3c
       0.012983816 0.018907234 -0.073731355 0.010859428
000160 6e 04 2d 3b fd a9 49 3d ba 36 b2 3d a9 60 3f bd
       0.0026400345 0.04923438 0.087018445 -0.04672304
000170 60 3a 23 bd 43 7e 50 bd d8 9a f0 bc b2 f1 64 bd
       -0.039850593 -0.050901663 -0.02937071 -0.05589456
000180 76 b9 07 3d 6e a5 ec bb 11 75 81 bd e0 92 a6 3b
       0.033135854 -0.007221869 -0.06321157 0.005083427
000190 22 1d 00 bd b5 15 8d 3c 1b cc 33 3a 44 41 99 39
       -0.031277783 0.017222265 0.0006858722 0.0002923106
0001a0 07 2c c4 ba 50 74 95 3d ae 75 01 3d fc 61 a8 3e
       -0.0014966734 0.072975755 0.03160637 0.32887256
0001b0 af 02 06 3e 48 e1 0f 3c 95 69 c7 3e ef ac 39 3e
       0.13086961 0.008781739 0.3894774 0.18132375
0001c0 91 b9 ce bc f5 da 20 3e ca 3f 86 be 87 3c 7e 3e
       -0.02523497 0.15708525 -0.26220542 0.24827777
0001d0 7c f4 a6 3d 22 75 50 bf 14 63 a9 be df a6 62 3d
       0.081521004 -0.8142873 -0.33083403 0.055334922
0001e0 1c 25 f9 3e 49 af 59 bd c4 41 56 bd 20 4b a4 3c
       0.48661125 -0.05314568 -0.052308813 0.020055354
0001f0 ac 38 1b 3f 55 81 55 3e 6d 0f 04 be ec 9d 45 be
       0.6063335 0.20850118 -0.1289651 -0.19298524
000200 c6 ba ed 3b 0d e5 12 bc 13 6e 5a 3d 48 38 dc 3e
       0.007254931 -0.008965743 0.05332763 0.4301169
000210 d7 29 aa 3d dd 30 db bc 0a e2 c8 3e 30 58 34 be
       0.083087616 -0.026756698 0.39234954 -0.17611766
000220 ac 2e 33 3d ec 49 55 bd b3 11 8d be ec ee d6 3d
       0.04374568 -0.05207245 -0.27552566 0.104947895
000230 ed 27 d8 3d a3 f0 12 bd d9 2b cd bd f5 bd c1 be
       0.1055449 -0.03587402 -0.10018129 -0.37840238
000240 23 bb 02 3d b5 7a cd bd c4 f2 23 3e ff 59 17 3e
       0.03191675 -0.1003317 0.16010576 0.14780425
000250 44 69 a9 3e 96 6a 33 3e 33 19 e6 bd 5c 22 f0 bd
       0.33088124 0.17521128 -0.11235275 -0.117253035
000260 cd b0 3c 3d a3 69 eb 3e 95 f7 b4 3d e6 b8 ac 3c
       0.046067048 0.45979032 0.08836285 0.02108426
000270 34 67 c7 3c 5a 77 ed 3c f6 e7 08 3d ec a0 9e 3d
       0.024341203 0.028987575 0.03342434 0.07745537
000280 7c 4b 44 3d 2b 28 e5 bc b3 e5 54 3d 79 7d 87 3d
       0.04792355 -0.027973255 0.05197687 0.06615729
000290 73 a5 b8 bd 20 71 7e 3d 4e 1d b0 3b d7 64 48 3d
       -0.09015932 0.062119603 0.005374587 0.048924293
0002a0 ac 93 7c 3d 90 38 79 bd 18 43 ca bd 17 b4 84 bb
       0.06166427 -0.060844958 -0.09876078 -0.0040497887
0002b0 65 17 c2 3c 61 b2 8f 3c 36 9d ac bd bd 88 75 3b
       0.023692796 0.017541112 -0.08428423 0.0037465536
0002c0 b1 d5 56 bd 12 e9 10 3e 67 ca b7 3d 35 4b 35 bd
       -0.052449886 0.1415141 0.08974152 -0.044261176
0002d0 1b 25 49 3e d6 96 d0 bc b7 4d 63 be f6 7c 80 3e
       0.19643061 -0.02546255 -0.22197615 0.25095338
0002e0 82 64 00 bf a9 05 84 be 80 37 7d bc f4 38 0b 3e
       -0.5015336 -0.25785568 -0.015455127 0.13595945
0002f0 06 90 7f 3d 2d 43 10 3e c6 c0 ca bd 56 94 ae bb
       0.06239321 0.14088126 -0.0990005 -0.0053277416
000300 56 aa 28 bd 8b 27 28 3d 62 17 bf bc 75 5d 05 bd
       -0.04117807 0.041053336 -0.02332658 -0.03255983
000310 06 c9 a3 3d d3 b3 a5 3d a9 3b c4 3d ea 32 b2 3d
       0.079973266 0.080909394 0.09581692 0.08701117
000320 1b 07 4c 3d 30 c8 05 bc c2 f1 6f 3d 98 87 8c 3c
       0.049811464 -0.008165404 0.058580168 0.0171545
000330 9c 5e a6 3d dc 91 c3 3d 71 a7 88 3b 0e 50 e1 3b
       0.08123514 0.09549305 0.004170351 0.0068759983
000340 3c 95 19 bd e6 82 a9 3c 00 9a 93 3c ca c1 9f 3b
       -0.037495837 0.0206923 0.018017769 0.0048753964
000350 bb b1 bf bb eb f8 1f bb 14 86 62 3d 6b 95 8c be
       -0.0058500445 -0.0024409841 0.055303648 -0.27457747
000360 78 aa 8a bc 4d 1f fc 3c 27 42 ef bd 30 b7 8f 3d
       -0.016926989 0.030776644 -0.116825394 0.07017362
000370 ba ff bb bd 19 8d dc 3d 16 d9 d1 3c ca 7a 10 be
       -0.09179635 0.107691 0.02561621 -0.1410934
000380 4d 0f 36 bf d5 2c 06 3f d1 42 1b bd da ac 9b 3e
       -0.711171 0.5241216 -0.037905518 0.30405313
000390 a6 de aa bd 04 a6 91 3e 57 15 8c be 68 90 51 3f
       -0.08343248 0.28446972 -0.2736003 0.8186097
0003a0 51 c0 2f be b5 62 47 3e 09 a2 83 bf be 5d 2b 3e
       -0.17163207 0.19471247 -1.0283824 0.16734979
0003b0 07 17 c7 bd 8e 29 06 be 5b 93 5e 3b 8c b0 6b be
       -0.09721189 -0.1310179 0.0033962342 -0.23016566
0003c0 13 06 43 3d cb 5b 80 be 08 b5 b8 3e 57 2d 51 be
       0.047613215 -0.25070032 0.36075616 -0.20427452
0003d0 4f c3 83 bc c4 66 16 bf e6 9d 12 be 9f 47 8f bd
       -0.016084341 -0.5875056 -0.14318046 -0.069960825
0003e0 31 e2 6e 3f db e2 0a bd 31 8e 7c be 4b ae c9 3d
       0.9331389 -0.033907752 -0.24663617 0.09847697
0003f0 53 c1 38 3f 2d c0 e3 3d 0f 17 0b be 3c bd 29 3f
       0.7216999 0.11120639 -0.13583015 0.66304374

bias f4 [64]
000000 d3 cc c2 3d a2 20 5f 3b 48 85 99 bd 81 f6 1c bd
       0.09511723 0.003404655 -0.074961245 -0.038321022
000010 41 0f 5b bd e0 d0 c8 3d 84 43 e8 3d 0e 55 be 3d
       -0.053481344 0.09805465 0.113410026 0.09293567
000020 92 37 e6 3d cb e8 1e 3d 82 48 38 3d e4 da b0 bd
       0.11241068 0.038796227 0.044991024 -0.086355
000030 67 3d b7 bd fb a0 ad 3b e4 00 97 bd e9 f3 bc 3c
       -0.089472584 0.0052987314 -0.07373217 0.023065524
000040 cd ba 81 3c 16 2d 37 3d 17 78 f9 3d f0 43 aa bd
       0.015836144 0.04472073 0.121811084 -0.08313739
000050 ff ca 14 3d 24 68 8f bd 74 5c a5 3d 87 95 41 bd
       0.036326405 -0.07002285 0.08074275 -0.04726174
000060 33 b4 b3 bd 81 45 f4 3c 14 a1 6e 3d 45 65 22 3c
       -0.08774605 0.029818298 0.058259085 0.00991184
000070 cf 3c 36 3d ed c4 49 3d fb 42 a4 3a 3b 07 d7 3c
       0.044491585 0.04926007 0.0012532169 0.026248565
000080 55 03 2f bd c9 60 77 3d 0e e8 f2 3d 6c 6d c0 3d
       -0.042727787 0.060395036 0.11860667 0.093958706
000090 cb 0b 18 3d 6e 2d 23 bc 9c 37 01 bc 5d 8b 30 bd
       0.03712062 -0.009959562 -0.007886793 -0.043101657
0000a0 80 23 18 3d 10 0d 42 3d d3 b9 ed 3b 10 c2 78 3d
       0.03714323 0.04737574 0.007254818 0.060731947
0000b0 b7 76 5f 3d 68 ed 45 3d 12 5b 3b bd c7 66 3e bd
       0.054556575 0.04832211 -0.04574115 -0.046484735
0000c0 ff d0 0a 3d 5a 37 97 3d 8a 32 75 3c 6a 56 6a bc
       0.03389072 0.07383604 0.014965663 -0.014302829
0000d0 bf a1 07 3d ff 50 9c 3d 99 b9 87 bd 0a 9c a9 3c
       0.033113237 0.07632636 -0.06627197 0.020704288
0000e0 03 84 32 3c 87 02 18 3d a1 85 7d 3d 05 15 28 3c
       0.010895732 0.037111785 0.061895017 0.010258918
0000f0 0f 07 39 bd 49 17 aa 3d cd 97 13 bd 01 f6 89 bb
       -0.045172747 0.083052225 -0.03603344 -0.004210234

weight f4 [64, 64]
000000 5e c0 4e 3e 77 81 98 be 07 a3 59 3e 72 5c 03 be
       0.2019057 -0.29786274 0.21253596 -0.12828234
000010 7d 2e 13 be ed 46 58 3d 49 8a df be 27 e7 43 bd
       -0.14373203 0.052802015 -0.4366019 -0.047827866
000020 be 28 34 3e 9e 54 28 3d aa c9 ea be 4b 9b 3e be
       0.17593667 0.041096322 -0.45856982 -0.18613927
000030 91 38 26 3e af 75 03 3e 3d 0c c0 3d 6d eb 02 bf
       0.16232516 0.12837861 0.09377334 -0.5114048
000040 45 8e 8f be e3 0b 88 3e 2b 6c 4b 3e 86 99 5f be
       -0.2803823 0.2657157 0.19865482 -0.21835908
000050 06 12 8b 3e 8d cc 9d 3d e6 70 2d 3e 95 ee a6 bd
       0.27162188 0.077050306 0.16937599 -0.08150975
000060 1d 83 2e be 9b ba 53 bd 0b e7 e3 be 0f 57 60 3e
       -0.17042203 -0.051691633 -0.4451221 0.2190821
000070 6f b7 66 3e 94 4c fd bd ea 1c 8f 3d ee e8 70 be
       0.22530912 -0.12368122 0.06987937 -0.23526356
000080 09 03 71 be de ec 9e be c9 81 56 3e e7 9b e8 3e
       -0.23536314 -0.3104009 0.20947947 0.45431444
000090 6b 51 f8 3c 4c c2 17 be 8a a7 24 3e 03 54 92 3e
       0.03031226 -0.14820212 0.16079536 0.2857972
0000a0 94 a7 98 3a 02 04 f6 3d 47 b1 ed be f0 0d 98 be
       0.0011646622 0.12012483 -0.46424314 -0.29698133
0000b0 d2 8a 82 3d a0 7a fd 3c 68 fc 3d be 37 ab d0 be
       0.06374134 0.030942261 -0.18553317 -0.40755627
0000c0 47 f9 81 3e 79 03 1e 3d f5 87 80 be 7a 86 81 3d
       0.25385496 0.03857753 -0.25103727 0.063244775
0000d0 15 5c 0f 3f 5d cb 57 be 47 1a 6c be 3f 8a 2d 3e
       0.5599988 -0.2107367 -0.23056899 0.16947268
0000e0 05 2d c1 bc 82 d0 a7 3d 3b 6d 12 bd 71 ce af be
       -0.023581037 0.081940666 -0.0357487 -0.3433719
0000f0 98 e9 8c be f7 9e c6 be 4a 13 8c bd e1 de 57 3d
       -0.27521968 -0.38793156 -0.068396166 0.05270279
000100 5e a7 89 3e 96 03 85 be 4e 95 85 3e b7 9b b9 bd
       0.26885504 -0.25979298 0.26090473 -0.090629034
000110 b3 60 4e 3d 87 6b 6b be 42 6d 34 3e 6e f7 7a be
       0.05038519 -0.22990237 0.17619804 -0.2450845
000120 21 3f d3 be ec c2 95 3e c8 57 9f 3d 22 be 9b be
       -0.412591 0.29250276 0.07780415 -0.30418497
000130 0c e7 b9 be 92 0f 67 3e 15 18 b8 bc 44 7a 8a 3e
       -0.36309087 0.22564533 -0.02247242 0.27046406
000140 4c 4b 70 3e a5 c3 22 be 2d ba ad 3d a1 d5 8e 3d
       0.23466223 -0.15894945 0.08482776 0.0697434
000150 35 fb b5 be 4a 59 d1 bc 6b c8 f4 3d 88 7b 35 3d
       -0.35543218 -0.025555272 0.11952289 0.04430726
000160 04 ee 72 be af 9e 39 be 8a 1f db 3d b1 8e e6 be
       -0.23723608 -0.18126939 0.10699375 -0.4503074
000170 0c bd d6 3c ec 43 25 be 49 7f 3f 3e 39 02 8a be
       0.026213191 -0.16139191 0.18700899 -0.2695482
000180 e5 69 24 bf 40 d9 4d 3e 46 3a 10 be ff b9 75 bf
       -0.6422408 0.20102406 -0.1408473 -0.9598693
000190 e7 35 47 be a4 b9 06 3e 1f d0 b4 3e 5b 1f ad 3d
       -0.19454156 0.13156754 0.35315034 0.08453246
0001a0 0f 91 88 bd df af 82 3d 3a 8d a2 bd 96 ed ba bd
       -0.06668293 0.06381201 -0.07937093 -0.09127347
0001b0 30 2b d5 3d 1e d3 d2 bd c9 50 1b 3f 6f c1 30 bf
       0.10408628 -0.10294174 0.60670143 -0.69045156
0001c0 91 91 02 be f8 48 9c 3e 11 f5 b1 be d8 5c c7 3e
       -0.12750842 0.3052442 -0.34757283 0.38938022
0001d0 d2 d9 2e bf f2 83 b7 bc 2e b1 eb 3d df d4 22 3f
       -0.6830112 -0.022401784 0.11508404 0.63606066
0001e0 96 6b 6a 3e a5 2b a6 be 20 ab 9f be fd fa c9 3e
       0.22892603 -0.32455173 -0.31185246 0.394493
0001f0 d9 84 23 bc 13 a4 3b 3e 75 32 0f bf a9 2e 00 bf
       -0.009980404 0.18324308 -0.55936366 -0.500712
000200 c9 53 1b 3d 19 f0 26 bd 89 fe 56 3e fe 66 dd bc
       0.0379217 -0.04075632 0.20995535 -0.02702665
000210 2b f1 55 3d 4e 5b 2d be 43 fc a4 bd 15 22 86 3d
       0.05223195 -0.16929361 -0.080559276 0.065494694
000220 04 18 1d 3d 68 2e 02 3e c8 24 7e be e4 8c 4e be
       0.03835298 0.12713015 -0.24818718 -0.20170933
000230 1a 0f ae 3d 73 93 1d 3c ef 83 72 3e 9d 94 9b be
       0.08498974 0.009617674 0.23683141 -0.3038682
000240 b4 2e 47 3c a3 96 9f 3e ee 58 bd 3d fd cf 11 3d
       0.012157131 0.31169614 0.092454776 0.035598744
000250 70 4c 9b 3e 08 dc 20 bd b5 c1 96 3e 44 d4 1f 3d
       0.30331755 -0.03927234 0.29444662 0.03902079
000260 0f c6 ae be 82 42 2a bd 8b 1e aa bc cd 4b 4d 3e
       -0.34135482 -0.041567333 -0.020766517 0.20048447
000270 70 b4 93 3e 6f cf 5e be cd 16 bd 3d 9b d5 70 bd
       0.288486 -0.21758817 0.092328645 -0.05879746
000280 86 1b ca 3d 28 5f 94 be e6 b5 55 be 7d 5f 9d 3d
       0.09868531 -0.28978848 -0.2087017 0.076842286
000290 80 41 b5 bc 60 d7 cc be 56 95 0e bb 92 00 8f 3e
       -0.02212596 -0.40008068 -0.0021756492 0.27930123
0002a0 c5 c7 24 bf 21 0c 45 3e 18 13 fb bd a1 f9 3f be
       -0.64367324 0.19242908 -0.12259501 -0.1874757
0002b0 1a d6 47 bd e7 28 b3 bd 72 eb 37 3c d5 01 44 3d
       -0.048788168 -0.08748036 0.011225568 0.04785331
0002c0 e7 48 97 3e e7 21 f3 3d b6 f7 83 be f6 82 c5 bc
       0.29547808 0.11871701 -0.25774926 -0.024110299
0002d0 0a 4f bb 3d d7 1a b7 bd 59 bc da 3d 51 1e 06 bd
       0.09145935 -0.08940666 0.10680456 -0.032743756
0002e0 d2 1b 30 bd 23 06 80 3e 11 e4 ec 3d bf c5 9c bc
       -0.04299528 0.25004682 0.11566938 -0.019137261
0002f0 97 ba 50 3e f4 4f 67 be 07 2e be 3d a9 47 b5 bc
       0.20383678 -0.22589093 0.09286123 -0.022128897
000300 eb 99 70 be c2 f7 5b be 97 44 3d 3e c4 25 28 3d
       -0.23496215 -0.21481231 0.18483196 0.04105164
000310 03 b2 a3 bd 9b 93 19 3e fa 68 3a 3e ad b7 07 be
       -0.079929374 0.14997713 0.18204108 -0.1325366
000320 e7 a8 f1 3d 48 e0 9e bd d9 92 fc bd ff 6f f2 3d
       0.11799794 -0.07757622 -0.123326965 0.11837768
000330 0d 70 ef 3c fc 5e f9 bd 6a ce 04 bd 26 d1 f3 3d
       0.029228235 -0.1217632 -0.032423414 0.11905126
000340 20 f9 03 bd 2e 99 53 3e a4 b8 32 bd 84 8e 3f 3e
       -0.032220006 0.20663902 -0.04363312 0.18706709
000350 a3 49 1d be f0 be 96 3d 8f dc 46 be 40 c3 a5 3d
       -0.15360121 0.07360637 -0.19420074 0.080938816
000360 f9 74 51 bd 69 85 6c be a1 ff ae 3d 13 6d 25 bd
       -0.051136944 -0.23097767 0.08544851 -0.040387224
000370 0c cc 10 be 98 1b a7 3d 42 89 4a 3d 14 6c 97 be
       -0.14140338 0.0815956 0.049447306 -0.29574645
000380 5d 84 73 be e7 f5 12 3f b3 84 ab bd f0 34 8f b9
       -0.23780961 0.5740647 -0.0837492 -0.00027314527
000390 95 9d c4 3d 27 f0 20 3e 7c df 07 3e 90 a6 26 3e
       0.09600369 0.15716611 0.13268846 0.16274476
0003a0 e9 77 67 3e 73 35 34 3e 06 d2 87 bd c8 89 04 3e
       0.22604336 0.17598514 -0.06631856 0.12943184
0003b0 09 1e fd bd 22 23 33 3e 44 51 0a be 94 13 7b 3e
       -0.123592444 0.17493871 -0.13507563 0.24519187
0003c0 09 19 b3 bc 83 99 30 3e f7 da 3d bd e2 25 2a bd
       -0.021862524 0.1724606 -0.0463514 -0.041540034
0003d0 b8 36 85 bd bb b1 3b be e9 5c b1 3e 3d e5 c2 3d
       -0.065045774 -0.18329518 0.34641197 0.0951638
0003e0 ca de 8d be e9 fd 86 3e e5 c8 9a 3d 3f 96 33 3e
       -0.27709037 0.26365593 0.07557849 0.17537783
0003f0 74 61 26 3d 57 f5 dd 3d 3b 66 75 be 92 48 90 be
       0.040620282 0.108378105 -0.23964779 -0.28180367

bias f4 [64]
000000 4d 64 05 be aa b9 01 bd 63 b7 c5 3d 69 84 9d 3d
       -0.13026543 -0.031671204 0.09654119 0.07691271
000010 aa 10 08 3e f4 ac a4 3d 49 74 86 bd 42 ff 06 be
       0.13287607 0.08040801 -0.065651484 -0.1318331
000020 a7 8a 4a bd ee 20 5e bd 85 14 9a 3d dc 3b 71 3d
       -0.049448635 -0.054230623 0.07523445 0.058894977
000030 d2 0f 44 bd fb 90 55 bd 29 22 22 bd 82 d7 ba bd
       -0.04786665 -0.052140217 -0.03958336 -0.09123136
000040 7d 40 17 be 87 08 f7 3d 6e 3f 9a 3d c6 b8 60 bc
       -0.14770694 0.12062173 0.075316295 -0.013715928
000050 a7 4e c0 3d af 3d a0 3d 14 93 f3 bd 8c 93 d0 3d
       0.09390002 0.07824265 -0.11893287 0.10184392
000060 27 e0 c3 bd 10 71 88 bd 02 02 42 3d 64 db c5 3d
       -0.09564238 -0.0666219 0.047365196 0.09660986
000070 20 52 51 bd aa 56 6d bd e6 3b a4 ba e9 57 c2 3d
       -0.05110371 -0.057943977 -0.0012530058 0.09489424
000080 78 96 e2 bb 4b 84 d6 bd da 2c ad bc 9a 23 c3 3d
       -0.00691491 -0.10474452 -0.021139551 0.09528275
000090 5b 80 0e 3e 95 b9 6b bd b0 d8 4b bd 6e 07 23 3e
       0.13916151 -0.05755003 -0.049767196 0.15920803
0000a0 89 eb 8f bd 99 17 c2 bd c9 8b e6 bc 3a 2e 15 bd
       -0.07027347 -0.09477157 -0.028142827 -0.03642104
0000b0 43 61 45 bd 49 a6 44 bd bc 14 c4 bd a5 8d 0b be
       -0.04818846 -0.048010144 -0.09574267 -0.13628252
0000c0 32 35 05 3d 65 0d eb 3d 19 94 ad 3c b2 bf e7 bd
       0.032521434 0.11477164 0.021188783 -0.1131586
0000d0 67 c0 db 3c 25 77 20 3d dd ed 99 bc 9d fb 76 bc
       0.026825143 0.039176125 -0.01879018 -0.015074638
0000e0 cd 8e ab bc d6 07 84 bd 21 1d c6 bc e5 f7 a7 3d
       -0.020942116 -0.06446807 -0.024183812 0.08201579
0000f0 ec aa b9 3d ac 7e d8 bd 24 7f 9a bd c5 d6 b9 3d
       0.09065804 -0.10571036 -0.075437814 0.09074167

weight_ih_l0 f4 [256, 64]
000000 f4 88 6d be 0e 1c b3 bd 1e b4 79 3f 4e ff b6 3d
       -0.23196775 -0.087455854 0.9754046 0.08935414
000010 53 eb 6c 3e 24 b3 21 3d e6 60 ec 3c 78 62 52 3f
       0.23136644 0.039477482 0.028854799 0.821815
000020 70 dc 0b 3f 1e 66 70 3d 81 e3 cb 3d 93 bc 20 3e
       0.54633236 0.058691137 0.09955502 0.15696935
000030 cd 45 b2 3e f0 f7 be 3e d3 d4 11 bb aa 60 9d 3c
       0.3481888 0.37298536 -0.0022252097 0.019211132
000040 76 2a 8c be 28 cb f4 3c ac a2 dd bd d2 4b 0f 3d
       -0.27376145 0.029882029 -0.10822043 0.034984417
000050 ba c9 1d bd 9d 5b 2b 3e 36 5c 07 be f9 fe 86 3e
       -0.03852246 0.16734166 -0.1321877 0.26366404
000060 a8 f1 cb bd a8 5c 25 be 55 ce fe bc a6 ee dd bd
       -0.09958202 -0.16148627 -0.031104246 -0.10836534
000070 4e 6f 8f be 43 88 6c 3e 94 eb 43 3e 4d a2 8f be
       -0.28014606 0.23098855 0.19132835 -0.28053513
000080 f0 79 5f 3e 77 48 a4 be b3 fe be 3d 5e 19 ac 3e
       0.21823859 -0.32086536 0.09325924 0.33613104
000090 4f 13 37 3d 87 ca 1d 3e c8 76 f4 bd 88 1b bb 3e
       0.04469615 0.1540929 -0.11936718 0.36544442
0000a0 ed 12 4c 3e 4e 40 84 3d 61 cd 3e 3e 1b 5c 27 bd
       0.19929095 0.06457578 0.18633033 -0.040859323
0000b0 14 d9 13 3d 99 09 04 be 67 3e e5 3c 00 69 7b bd
       0.036095694 -0.12894286 0.027983857 -0.061379433
0000c0 7f 5f 18 3e a8 11 9c 3d 9b e9 0d 3e 25 f3 a9 be
       0.14880179 0.07620555 0.13858645 -0.33193317
0000d0 17 9d f0 3d 46 68 be bd d4 22 f6 3d ac 6a 45 be
       0.117487125 -0.09297232 0.12018362 -0.19278973
0000e0 2d 47 6a 3e 08 e9 c6 be 6f c2 43 bd 23 f3 24 3e
       0.22878714 -0.38849664 -0.04779285 0.16108374
0000f0 e4 4c a0 3d f2 5a 38 3d b5 93 39 bc 04 00 8c be
       0.07827166 0.045008607 -0.01132672 -0.27343762
000100 2e ce c8 bd a3 a5 20 3e 72 c2 8d 3e 0e ce 37 3d
       -0.09804951 0.15688185 0.27687413 0.044874243
000110 2d f5 ab bc 56 93 0e bd 37 38 80 be 21 05 f4 3d
       -0.020990932 -0.03480848 -0.2504289 0.11915041
000120 f3 f3 45 3e 81 cb e4 3d cb 3e 55 3e 41 22 28 be
       0.1933134 0.11171628 0.20824735 -0.16419317
000130 55 9d d9 3e d7 df ef 3e 5e 7c 68 3d 1d 70 0f be
       0.42502847 0.46850464 0.05675923 -0.14007612
000140 87 52 b2 3e 2f 7b 13 3e 0e c1 c6 bc 37 fc 2a be
       0.34828588 0.1440246 -0.024261978 -0.16697775
000150 72 ee 8f 39 10 62 48 3e fe 7c 6c 3e 07 e2 45 bd
       0.0002745274 0.19568658 0.23094556 -0.04831126
000160 5b 80 fb bd 81 2f 49 be d9 bd 8f 3d 23 ae 9e be
       -0.12280341 -0.19647028 0.070186324 -0.3099223
000170 0a 23 67 3e a1 67 09 3e a8 d2 61 3d 37 ad 85 3d
       0.2257196 0.13418438 0.055132538 0.06527179
000180 de d8 43 bd 10 6a ae 3d 59 92 cc be 55 53 d8 bb
       -0.047814243 0.085163236 -0.39955404 -0.006601731
000190 18 9a dd 3d 99 65 46 be ec ef f7 bd 72 59 b7 3e
       0.10820407 -0.19374694 -0.12106308 0.3581043
0001a0 84 48 1b 3e 46 11 05 3e ec 8e a0 be e6 aa 03 bf
       0.15164381 0.1299487 -0.3135904 -0.51432645
0001b0 63 61 6d 3e 7e b5 5f 3d 9a 2b 42 3e e4 b5 39 bc
       0.23181681 0.054616444 0.18961945 -0.01133487
0001c0 68 16 3b 3d 61 f1 24 bd 77 f4 59 bc 62 7c bd bd
       0.045675665 -0.04026926 -0.013302914 -0.0925224
0001d0 84 0a 89 3c 34 80 84 3d b4 15 2b 3d ea 5b c2 bc
       0.016728647 0.06469765 0.041768745 -0.023725469
0001e0 2f 2e 10 3d 66 a8 ae 3e dc e2 c1 3b 86 03 13 3d
       0.035200294 0.34112853 0.0059169363 0.035892032
0001f0 3e 31 e8 3d c0 2a ba 3e de e2 dd 3c 2c 0a 5b 3d
       0.11337517 0.3636074 0.027085718 0.053476498
000200 c7 d7 90 3e 0c 47 12 3f a0 c0 81 be c7 87 8b 3d
       0.28289625 0.5713966 -0.25342274 0.06813007
000210 49 bd 03 3e 67 62 43 3e 06 c8 d3 3d b1 b5 dc be
       0.12865175 0.19080506 0.10340886 -0.4310737
000220 27 66 be bc d1 61 e6 be 96 09 21 3e bd 58 80 3e
       -0.02324207 -0.44996503 0.15726313 0.25067702
000230 ff 60 21 be b5 da ff be 20 f5 1e be c4 d6 76 bd
       -0.15759657 -0.49971548 -0.15523195 -0.06026341
000240 f0 9d 9e bc 30 03 91 bd 40 54 a1 be d3 8c 97 3d
       -0.01936242 -0.07080686 -0.3150959 0.07399907
000250 c0 7b b5 bd e8 b7 68 3a 19 7b 9e be 40 2f 80 3d
       -0.08861494 0.0008877502 -0.3095329 0.06259012
000260 0d 6a b7 bd 39 4d ca bd 0c de ad 3d 42 3a be 3e
       -0.089557745 -0.0987801 0.08489618 0.37153822
000270 b6 6e 0e bf a3 bd cb be aa 6b be be 2c c8 5b be
       -0.5563768 -0.3979312 -0.37191516 -0.21463078
000280 9a 26 c4 3d fa 66 46 3f f8 e1 b3 bc ac 39 05 be
       0.09577675 0.7750088 -0.021958336 -0.13010281
000290 a8 d7 1a bf 6f b1 f9 3d 92 eb 7e bd ce 8e 29 3f
       -0.60485315 0.12192046 -0.062236376 0.6623353
0002a0 52 95 a7 3b 68 14 ab 3e 9d e3 08 3e a2 44 7b 3e
       0.005114236 0.33414006 0.13368078 0.245379
0002b0 03 8f 16 be 0d a3 c7 3d af 59 3e bc 1a 01 d2 3e
       -0.14702992 0.09747896 -0.011618062 0.41016465
0002c0 da 52 d5 bd 84 a8 73 be 5a d5 ff bb c9 25 1a 3f
       -0.10416193 -0.23794752 -0.007807416 0.60213906
0002d0 60 91 bd bd 6d 0d 5c 3d 76 4b 49 3c 63 70 2c be
       -0.09256244 0.05372374 0.012286058 -0.16839747
0002e0 e6 93 77 3c 8a a1 8a be bb 52 57 be 9d 02 9b bd
       0.015110945 -0.2707637 -0.21027653 -0.07568858
0002f0 ef 0f 02 3e 34 aa a3 be 31 2c f9 3d 48 42 78 be
       0.1270139 -0.31965792 0.12166632 -0.24244034
000300 cc db ba bd fe de 6f bd 9d 65 b1 3e 6b 36 42 3e
       -0.09123954 -0.05856227 0.34647837 0.18966071
000310 eb 0f 9b 3e f1 8c e1 3d c7 51 9f be e9 a4 55 bd
       0.30285582 0.110132106 -0.3111708 -0.052159224
000320 fc 40 66 be fe d9 b7 3e 07 af 0b 3f ff 0f cb 3d
       -0.22485727 0.35908502 0.54563946 0.099151604
000330 5b 03 29 be 79 50 c8 3d 0b ed 05 3f 4f bd 4a 3d
       -0.16505186 0.09780974 0.52314824 0.049496945
000340 5b 80 7a be 0a 5c 04 be b4 43 be 3b b8 4b 06 bd
       -0.24463026 -0.12925735 0.0058064107 -0.032787055
000350 89 6d d3 bd ae ad 0d 3e 86 f3 0e 3e 17 eb 06 be
       -0.103236265 0.13835785 0.13960084 -0.13175617
000360 f3 09 00 3d d9 a8 05 3e 70 b0 7a 3d 84 f9 04 3b
       0.03125949 0.13052692 0.06120342 0.0020290324
000370 ec 3d a1 3e 63 bc 88 3c 56 22 0c 3f e7 d7 a3 3e
       0.31492555 0.016691392 0.5473989 0.32000658
000380 91 46 92 3d 3b 72 03 3f ed d4 08 bf e3 53 d4 bc
       0.07142366 0.51346177 -0.534499 -0.025918907
000390 ca a5 ef bc 7a b0 33 be 75 54 29 3d e1 00 1f 3f
       -0.02925386 -0.17547789 0.04134031 0.62110716
0003a0 34 fc a2 be 81 61 45 be 92 dd 26 3c ad 46 47 3d
       -0.3183304 -0.19275476 0.010184662 0.048651386
0003b0 09 9c d3 bd ba ca 15 3d 0b db 95 3d 35 4d 8d be
       -0.10332496 0.03657029 0.0731717 -0.27597967
0003c0 fa a4 9f 3d e5 a7 7c 3c f2 23 09 3e 14 0c e9 3d
       0.07795139 0.015420889 0.13392618 0.11379257
0003d0 a3 6e 3d 3e ef d1 ba 3d c4 d4 4a bd f7 d6 30 3e
       0.18499236 0.09122073 -0.049519315 0.17269503
0003e0 2d d2 d4 be 67 d6 c1 be 5f da 25 3e b9 53 8f bd
       -0.415666 -0.37858889 0.16196583 -0.06998391
0003f0 09 fa 82 be 94 63 c5 3d c4 13 e1 bd f4 49 c6 bd
       -0.25581387 0.09638134 -0.10990098 -0.09682074

weight_hh_l0 f4 [256, 64]
000000 96 b1 1b 3e 05 d6 ab bc 45 11 20 3b d7 72 72 3d
       0.15204462 -0.020976076 0.0024424356 0.05919155
000010 3b a4 8e 3e 66 0b 4f be 37 ea ec bd db 9e 23 be
       0.27859673 -0.20219192 -0.115681104 -0.15978567
000020 f0 05 96 bd d5 94 52 3d c9 95 6b be 8d 7f 29 be
       -0.07325351 0.05141147 -0.23006357 -0.16552563
000030 28 a9 25 3d 97 c2 34 be 98 1d 8f 3d a6 57 b0 3d
       0.040444523 -0.17652355 0.069880664 0.086104676
000040 6f 6a 50 3d c2 eb 07 bb f6 ed 81 be e9 05 9e 3d
       0.050882753 -0.0020739888 -0.25376862 0.07715971
000050 84 54 0b 3d d7 db 52 bd c4 16 72 be b0 b2 77 3d
       0.034016147 -0.051479187 -0.23641497 0.060473144
000060 b0 a8 58 3d 91 81 25 be 65 d3 62 be 60 c2 d5 bd
       0.052895248 -0.16162707 -0.22150953 -0.10437465
000070 55 9b 5a bd 59 2b 7e bd de 6a 97 be f4 56 4e be
       -0.053370792 -0.06205306 -0.2957372 -0.20150357
000080 19 d7 12 be 14 69 c6 3d bb be 07 be df 32 aa bd
       -0.14339866 0.09688011 -0.13256352 -0.08310484
000090 95 d6 04 be 88 c1 7e be 82 6b fc 3d 4a 96 e1 be
       -0.12972482 -0.24878514 0.12325193 -0.44059974
0000a0 89 2a 6e be 02 47 06 be f1 54 ee bd f2 ea 52 be
       -0.23258413 -0.13113025 -0.11637295 -0.20597437
0000b0 f5 69 ae bd e1 e0 96 bb 1d 2b 88 3e a6 53 e6 3e
       -0.085163034 -0.0046044444 0.26595393 0.44985694
0000c0 17 88 3b bc 37 3f 86 3e fa c5 cc 3c 0a 74 eb bc
       -0.011446021 0.26220104 0.024996746 -0.028741855
0000d0 2e 83 32 bd 10 d3 7e ba ba 42 b6 3d e2 46 8a 3d
       -0.043582134 -0.0009720782 0.08899446 0.06751801
0000e0 64 50 a0 be 79 36 bd 3e 81 e5 d5 3c 40 4c a4 3e
       -0.31311333 0.36955622 0.026110413 0.32089424
0000f0 d4 86 07 3c 84 f4 a9 be 35 50 e5 bd eb 20 72 bd
       0.008271892 -0.33194363 -0.11196939 -0.059113424
000100 01 f7 78 bd 4d 98 db bd f6 df ec bd 31 dd 17 3e
       -0.060782436 -0.107224084 -0.11566155 0.14830472
000110 e6 43 a3 be 0b d6 27 bd 93 8a ad 3b 61 de 79 bc
       -0.3188774 -0.04097561 0.0052960603 -0.015250773
000120 37 bc f8 bc 7c b2 7a be c8 74 25 3e 8a eb bc bc
       -0.030363185 -0.24482149 0.1615783 -0.023061533
000130 2d 84 48 3e 51 dc 33 3d 61 77 f3 bc d8 af fc bd
       0.19581671 0.043911282 -0.02972001 -0.12338227
000140 79 97 a8 3e f3 c3 06 bd 5e 59 55 be b3 b9 cc bd
       0.32928064 -0.032901715 -0.20834872 -0.09996357
000150 87 69 08 3d f1 75 47 be 2c 0f 71 be 66 fa 57 be
       0.033303764 -0.19478585 -0.23540944 -0.21091613
000160 c8 b5 5b be 47 c3 3f 3d fc ed 09 3c c0 af 04 be
       -0.21456063 0.04681709 0.008418556 -0.12957668
000170 c2 d7 a0 bd 78 4e ba bc 81 f4 61 3e bc 98 2f 3d
       -0.078536525 -0.022742495 0.22065927 0.04287027
000180 86 5a 97 3d 14 26 bf 3d 51 73 a7 3e 89 18 b5 3c
       0.07390313 0.09333435 0.32705167 0.022106426
000190 5d 3d 85 bd d8 7e 6f be 57 90 c3 3d 87 a0 c3 be
       -0.06505845 -0.23388231 0.09549015 -0.3820841
0001a0 40 e3 04 be 16 74 e0 bd 05 ba 34 3d 02 f2 21 be
       -0.12977314 -0.10959642 0.044122715 -0.15814975
0001b0 16 21 77 3e 1b 42 30 3e 23 1f 90 bd 40 0d 80 3d
       0.24133715 0.17212717 -0.07037189 0.06252527
0001c0 e4 c7 81 3d 69 c4 9f 3e 26 c7 a9 3b e4 f1 82 bd
       0.06336954 0.31204537 0.005181211 -0.06393793
0001d0 79 dd a1 3d 3d 5c a7 3d c3 e3 c8 3d db 10 1f bd
       0.07903571 0.0817189 0.09809067 -0.038834434
0001e0 98 30 35 be f6 11 09 be 2f 04 bd 3b f1 b3 2f be
       -0.17694318 -0.13385758 0.005768321 -0.17158486
0001f0 83 4e cb 3e 74 c3 37 be 34 22 2e 3d bc 05 1f 3d
       0.39708337 -0.17945653 0.042513087 0.038823828
000200 31 06 16 3e 43 b5 09 3e e7 42 ef ba 24 ae ec bd
       0.146508 0.13448052 -0.0018254191 -0.11556652
000210 49 53 2a bd 9d b9 e9 be 23 da bf 3d fe 23 80 3c
       -0.041583333 -0.45649424 0.09367778 0.015642162
000220 da 8c 42 3e 3d d9 85 3e f6 05 70 bc f4 ed e9 3d
       0.18999043 0.26142302 -0.014649859 0.11422339
000230 63 be ca be e1 7e 5f 3e 49 23 ba bc cf 43 0c 3e
       -0.3959838 0.21825744 -0.022721903 0.13697742
000240 b7 ff 8e be 97 15 d3 bd 66 9f 85 3e 92 9e 22 3e
       -0.2792947 -0.10306852 0.26098174 0.15880802
000250 c0 f0 d6 bc a5 6f 03 3e c5 09 a2 be f5 28 14 be
       -0.026237845 0.12835558 -0.3164808 -0.14468749
000260 ce a1 08 be b3 0e 17 bd 98 f0 f8 3e bc 70 e5 3d
       -0.13342974 -0.036879253 0.48621058 0.11203143
000270 b6 21 d8 3e e6 1a 8f 3d 19 04 88 3e de d2 c0 3c
       0.4221322 0.06987552 0.26565626 0.02353805
000280 0e 7e 16 3e 6e 29 fe 3c 32 c6 95 3e 8b 9d 33 be
       0.14696524 0.031025615 0.29252774 -0.17540567
000290 c1 bf 5a bd b1 1a 61 be 96 c7 98 be 2b 1a b4 3e
       -0.053405527 -0.21982838 -0.29839772 0.35176215
0002a0 ff 5c ef bd 43 25 5c be 50 0b 15 bd 2a 30 b4 bc
       -0.116876595 -0.21498589 -0.03638774 -0.021995623
0002b0 f5 bb dc bd a1 6e 80 bc 8e 5e 3e 3e 5d c8 3b 3e
       -0.107780375 -0.015677752 0.18590757 0.18338151
0002c0 fc c1 21 3e ae 48 40 be ab dc be 3d 3e 16 a4 3c
       0.15796655 -0.18777725 0.09319433 0.020030137
0002d0 c5 8c ba bc b1 ae f6 bd 02 42 13 be 84 0b 0f bd
       -0.022772202 -0.120450385 -0.14380649 -0.03492309
0002e0 5a a7 8b be 29 3c f9 bd ff 18 5d bc 96 a0 0f 3e
       -0.27276117 -0.12169678 -0.013494729 0.14026102
0002f0 54 9f 0a bd 0b 24 9d be d1 13 dc 3d c5 20 9e 3e
       -0.033843353 -0.3069156 0.10745967 0.30884376
000300 93 6b 0e be 56 bb 57 be f5 69 f7 bd 91 5f d2 3e
       -0.13908224 -0.21067557 -0.120807566 0.41088536
000310 c7 f4 09 3e ad b9 82 3e 16 72 e1 bd f7 20 92 be
       0.13472281 0.25532284 -0.11008088 -0.28540775
000320 c6 87 8f 3c c4 38 b6 bd f9 ca 6d 3e 04 68 8c 3e
       0.017520797 -0.08897546 0.23221959 0.27423108
000330 36 78 3b 3e a6 62 c5 bc 7e d2 11 bf a9 42 87 be
       0.18307576 -0.02409489 -0.5696181 -0.26418045
000340 3a 4f 03 3e a9 bb b4 be 7a bf cf 3b bc 53 76 be
       0.12823191 -0.35299423 0.0063399645 -0.2405538
000350 72 d4 35 3e e8 02 13 bd ce f6 ea 3d 08 cd b6 bd
       0.17756823 -0.035891443 0.114728555 -0.08925825
000360 44 46 5c be 46 b7 ba 3e 89 f2 8e bd 76 61 19 bf
       -0.21511179 0.36467952 -0.06979854 -0.5991434
000370 96 41 6e be 70 55 ba bd ab d8 94 3e 06 7d a6 3e
       -0.23267207 -0.09098327 0.29071555 0.3251726
000380 d0 a4 50 be 95 96 a8 ba 59 0b c7 3d 96 79 a6 be
       -0.20375371 -0.001286226 0.09718961 -0.32514638
000390 c9 e4 a8 3e 84 1b 40 3e df 95 0c 3e ca 61 4c be
       0.3298705 0.18760496 0.13729046 -0.19959179
0003a0 a8 b5 9a be aa 48 91 bd b1 fd 9d 3d da b4 cb be
       -0.30216718 -0.07093938 0.077144034 -0.39786416
0003b0 b5 cc c4 3d 9d 86 8c bd 2d 47 83 be c9 e7 6b 3e
       0.09609357 -0.06861613 -0.2564024 0.23037638
0003c0 d4 4f 2d 3c 1f c4 0d be d8 8b a3 3e 03 88 06 3e
       0.010578115 -0.13844346 0.3194263 0.13137822
0003d0 5b 07 ea 3e 14 3f a0 be fd b5 43 3c 9d af 4d 3e
       0.45708737 -0.31298125 0.011945245 0.20086522
0003e0 9d 0b 2a bd 77 dd e2 3b d1 eb 55 bb 71 0e 83 3d
       -0.04151498 0.0069233733 -0.0032641778 0.06399239
0003f0 fd 96 5d 3c 3e 8e 93 be af 24 a5 3d 38 c8 df 3e
       0.013524768 -0.2881946 0.080636375 0.43707442

bias_ih_l0 f4 [256]
000000 14 b0 cf 3d f2 9c 4d 3d bd a8 fc 3d fc ad 8c 3d
       0.10141006 0.050198503 0.12336872 0.068691224
000010 55 13 ab bd 75 9e 51 bd 70 a8 e1 3d 4d f8 e7 bc
       -0.08353297 -0.051176507 0.11018455 -0.028316641
000020 8e 5c 59 3b 1a e1 21 bd 05 ff 87 bd 7f 59 17 3d
       0.003316674 -0.039521314 -0.06640438 0.036950585
000030 ff 3e 2f be d8 c4 d1 3c 2f 38 82 3e 84 62 ef 3d
       -0.17113875 0.025606558 0.2543349 0.11688712
000040 d9 8c ca 3d e9 4a 56 3e 21 38 ae 3b 51 61 9f bd
       0.09890146 0.20927013 0.0053167497 -0.077822335
000050 f7 7c be 3a d7 29 2b 3e aa f3 9c 3d ba f7 dc 3b
       0.0014533092 0.1671518 0.07663663 0.0067433985
000060 30 3f 92 bc b5 ab 53 3e d7 dc a1 bc 27 66 2f be
       -0.017852396 0.2067097 -0.019758625 -0.17128812
000070 f6 4a ea bd e3 63 49 bc b1 cd 7c 3d 00 6f 0a 3e
       -0.11440079 -0.012291881 0.0617196 0.13518906
000080 31 20 ec 3c ef 5d a3 3c 60 2d 05 be fb 6f 64 be
       0.028823944 0.019942252 -0.1300559 -0.22308342
000090 3b d4 fb bd b7 57 a2 bd 79 f6 92 3d cb a6 d6 bb
       -0.12296339 -0.079268865 0.07175917 -0.006550645
0000a0 3b 7c 89 bd 13 2b 62 3d ca d5 ee 3c c4 1f f8 bd
       -0.06713148 0.05521686 0.029154677 -0.12115434
0000b0 ee 66 03 3b 75 23 ee 3d 53 3f cc bd 44 52 fd bb
       0.0020050365 0.11627857 -0.09973016 -0.007730754
0000c0 ec 7b 68 bd 74 4d 8e bc 06 3d 99 3d c4 2a e4 3c
       -0.056758806 -0.017370917 0.074823424 0.027852423
0000d0 9a a5 45 bd 0b e0 e7 3d b7 9c ff 3d ae fb 8f 3b
       -0.048253633 0.1132203 0.12481063 0.004394016
0000e0 ed 0e ae 3d 29 94 c4 bd f7 62 f5 3d 16 e7 40 3d
       0.084989406 -0.09598572 0.11981767 0.04709538
0000f0 da 28 29 bd 9d 21 c4 bc 56 d8 6a 3c f1 fd c4 bd
       -0.041298725 -0.02394181 0.014333805 -0.09618748
000100 ee 74 84 bb 57 6f da bd 18 79 21 3d 19 fb b7 3c
       -0.0040422594 -0.10665768 0.039422125 0.0224586
000110 9b 33 76 bd 14 7e 64 bd 80 dc 14 3e 4e cf 9e 3d
       -0.06010781 -0.0557843 0.14537239 0.07754384
000120 e0 4f 42 3c 9d e7 98 be 24 4a f5 bd 3a 89 7e bc
       0.011859864 -0.29864207 -0.11977032 -0.015535647
000130 08 02 0c be a1 86 23 3d 3e fa 31 3e 0c 18 c5 3c
       -0.1367265 0.039923314 0.17380616 0.024059318
000140 86 46 a7 bc e1 5c a9 bd c2 2a 63 bc 00 c9 c6 3d
       -0.02041937 -0.08269668 -0.013865175 0.097063065
000150 c2 af e0 bd 14 79 f1 bd 40 94 19 be 6c f0 97 bc
       -0.10971023 -0.11790672 -0.14997959 -0.01854726
000160 1e 0e ef bd 91 1c 01 3c 7f 86 ae bd 86 4a 54 bb
       -0.116726145 0.007880346 -0.08521747 -0.0032393052
000170 49 36 f2 3d e5 24 76 bc 27 06 dc bd 66 c2 0c 3d
       0.1182676 -0.015023445 -0.10743361 0.03436508
000180 d3 36 2b be 91 2a ce bc 76 79 ae bc b9 3d 18 3d
       -0.16720133 -0.025166782 -0.021298151 0.03716824
000190 91 1b 44 bd 9a 98 fd 3d 43 16 ed bc fc 28 b5 bc
       -0.047877852 0.12382622 -0.02894128 -0.02211427
0001a0 92 98 09 be 19 9c 36 be 48 c4 fc 3d 67 04 f4 3d
       -0.13437107 -0.17832984 0.12342125 0.11914902
0001b0 8e 06 ed bc 4c e4 f1 bc 31 3e 8f bd 5a cd 22 3d
       -0.02893379 -0.029527806 -0.06994284 0.03974662
0001c0 bb ee 48 be fe 20 7b 3d 52 23 b9 bd 50 fc eb bd
       -0.19622318 0.06131076 -0.0903994 -0.11522734
0001d0 cd 1f ea bd c9 c9 eb bd d6 23 cd b9 3e d4 86 3d
       -0.11431847 -0.11513097 -0.00039127347 0.06583451
0001e0 78 db a7 3c 21 26 2e be 1f c9 29 3c e0 3b d8 3a
       0.020490393 -0.17006733 0.010362892 0.0016497336
0001f0 94 fc f0 bc 32 b2 f9 bd fa 8b 2a be 3d 69 d7 3c
       -0.029417314 -0.12192191 -0.1665496 0.026295299
000200 82 aa a4 bc 0e 7f d7 bd 12 81 18 bc 7c 17 18 3e
       -0.020100836 -0.10522281 -0.0093081165 0.14852709
000210 9f be 36 3e eb b5 1c 3e 22 62 c3 3d 47 42 c5 bd
       0.17846154 0.15303771 0.09540202 -0.09631782
000220 5a e7 53 3c bc 1e 28 3e c2 0c d7 3a 4c 2f 80 3b
       0.0129335765 0.16417974 0.0016407 0.003911888
000230 22 64 12 bd 3f 2b 20 3e ff 17 9a bd a5 d5 30 bd
       -0.035740025 0.15641497 -0.07524108 -0.043172497
000240 78 2c 85 3c 42 87 11 be d5 e4 07 3b 9e a0 00 3c
       0.016256556 -0.14211753 0.002073576 0.007850794
000250 3b 80 94 3d db ea e6 3d fe 36 64 3b 63 11 38 bd
       0.072510205 0.11275264 0.0034822817 -0.044938456
000260 1a 2c 0a 3d 23 48 11 bd 7c 46 fa 3c 00 4a 18 bd
       0.033733465 -0.035469186 0.030551188 -0.037179947
000270 1b cf 41 bd 2a 28 52 bb a7 a2 bd 3d 82 71 0e 3e
       -0.04731665 -0.0032067397 0.09259539 0.13910487
000280 b9 8a 80 bd 1b 5a 73 3d 56 df 0d 3e 4d 39 10 3e
       -0.06276459 0.059412103 0.13854727 0.14084359
000290 3c 5b b1 3d 78 5b e5 bd ff 79 70 3d 84 4c 62 3d
       0.0865998 -0.11199087 0.058710095 0.055248752
0002a0 6f d3 93 bc d0 3e 1b be 66 90 4d bd 14 15 94 bd
       -0.018045155 -0.1516068 -0.050186537 -0.07230583
0002b0 4d c3 cd 3c e0 10 32 3e ce d5 ad bb b1 5b 0f 3e
       0.02511754 0.1738925 -0.0053050285 0.13999821
0002c0 2d 0e c1 bd 8f 16 cd bd f6 54 fe bc b1 cb ff 3d
       -0.09426532 -0.10014068 -0.031046372 0.12490023
0002d0 10 5c f0 3d 7e 5b 2b be 14 3c 14 be fc d9 08 3e
       0.117363095 -0.1673412 -0.14476043 0.13364404
0002e0 9d 07 46 3c ca 65 0d 3e df c3 45 be 86 de 1c ba
       0.012086776 0.1380836 -0.19313 -0.00059840863
0002f0 35 58 d6 3b 57 0b 92 3d 44 42 37 3e 2a eb 0b 3e
       0.006541277 0.07131069 0.17896372 0.13663927
000300 62 d3 00 be e2 c4 97 bd 24 d3 dd bd ed 58 b8 3d
       -0.12580636 -0.07410599 -0.108312875 0.09001336
000310 a2 e2 1a be 0c ab fd bd 45 8e be bc 22 08 db 3d
       -0.15125516 -0.1238614 -0.023261199 0.106949106
000320 c0 b9 17 be c6 1c d5 3c 84 2e f8 3d 57 63 bc bc
       -0.14816952 0.026014697 0.12118247 -0.022996588
000330 f2 df 00 be f7 ad 1e be 11 89 16 3d 31 9b e1 3d
       -0.12585428 -0.1549605 0.03675181 0.110159285
000340 f4 87 96 bd f3 78 a6 3d 2e d2 09 3e ac 34 ea 3c
       -0.0735015 0.08128538 0.13459083 0.028589569
000350 c0 dc c2 3d e2 af 30 bc c8 25 9e bd b5 87 b9 3d
       0.09514761 -0.010784121 -0.0772205 0.09059087
000360 6f 36 cf bc a5 21 90 bd 88 92 40 3d 37 de b1 bc
       -0.02529451 -0.07037667 0.047014743 -0.021712406
000370 15 b0 f9 bc 80 fc 83 bd ed 14 e0 bd 77 0c 46 3d
       -0.03047947 -0.06444645 -0.10941491 0.04835173
000380 cc 5f 2d be db 0b cb bc 79 3f 01 bd 2b a8 07 bd
       -0.16931075 -0.024785927 -0.031554673 -0.03311936
000390 aa a4 b6 bd a2 3f 4d bc dc f3 05 bd f2 a3 22 3e
       -0.08918126 -0.012527378 -0.032703266 0.15882853
0003a0 14 3c cd bd 2a 16 0e be f9 79 a5 bd 06 51 ed bd
       -0.100212246 -0.13875642 -0.08079905 -0.115877196
0003b0 5a 79 1f be ae 40 f5 3b b2 75 6a 3d ff e8 6e 3d
       -0.15573636 0.007484517 0.05724115 0.05832767
0003c0 b5 a7 dd bd 15 8e 02 be 4c b8 88 bd 0a 74 96 3b
       -0.10823003 -0.12749512 -0.06675777 0.0045914697
0003d0 8b a6 e4 bd a9 09 9e bc af a5 91 bd 96 7b d6 3c
       -0.11164578 -0.019291716 -0.0711168 0.026181977
0003e0 75 54 c8 bd 8e 30 c3 3c 6d cb 43 bd c8 b7 a2 bc
       -0.09781734 0.023826864 -0.047801424 -0.019863024
0003f0 d9 42 3d bd 27 85 6b 3c 54 23 05 be 53 5e 68 bc
       -0.04620633 0.014375008 -0.13001758 -0.014182645

bias_hh_l0 f4 [256]
000000 eb d1 e9 3d 13 74 57 3d cc b9 84 3d b9 e1 9b 3e
       0.11416992 0.05260093 0.064807504 0.3044565
000010 34 d7 0f 3e 5e 0d 5c 3d f9 a9 39 3e 2a 44 bd 3d
       0.14046937 0.053723685 0.18131246 0.09241517
000020 a5 be 04 bd ce 0e a3 b9 b2 57 14 bd 86 05 14 be
       -0.032408375 -0.00031100813 -0.036216445 -0.14455232
000030 0e 46 ff bd 61 ee 65 3d 0a 15 74 3e 18 95 02 3e
       -0.12464534 0.05613554 0.23836151 0.12752187
000040 f1 68 90 3c 70 b0 49 3e 56 87 0b be 71 91 1e 3d
       0.017628165 0.19696212 -0.13625845 0.038712922
000050 c2 cc ba 3d 03 25 44 3d 6d 3e a2 3d f8 15 9c bd
       0.09121086 0.04788686 0.07922063 -0.07621378
000060 05 01 03 3d fd 58 c8 3d 9a 90 23 be 2b c7 17 be
       0.031983394 0.09782598 -0.1597313 -0.1482207
000070 68 98 97 bd e1 75 c7 bd e3 50 fd 3d 79 6d 7c 3e
       -0.07402116 -0.097392805 0.123689435 0.24651136
000080 90 3d ff 3d d8 e6 da bd ab 94 a9 bc c4 d8 2f be
       0.12462914 -0.10688561 -0.020700773 -0.17172533
000090 dd 0c 79 bd db 0d 67 bd bb 0e c0 bd a5 eb 07 be
       -0.060803283 -0.056409698 -0.093778096 -0.13273485
0000a0 de b5 b1 bd 7d 04 e3 bd c0 7b c5 3d e5 4a 89 3d
       -0.086772665 -0.110848404 0.09642744 0.06703738
0000b0 1f 11 9b 3d 85 7e 54 3e a8 51 c2 bd 2a 46 f1 3b
       0.07571625 0.20751388 -0.09488231 0.0073631005
0000c0 eb a5 e5 bc 41 c5 ae 3d b0 16 1f 3e b7 25 21 3d
       -0.028033217 0.08533717 0.15535998 0.03934261
0000d0 1f 48 32 bd 96 92 c2 bd 6f e2 18 3d d3 8f f9 bc
       -0.04352581 -0.09500615 0.03732532 -0.030464089
0000e0 87 d5 24 3d ef 16 73 be ac 3c 45 3d 1b b2 07 bd
       0.040242698 -0.23739217 0.048153564 -0.03312884
0000f0 23 74 88 3d 1a f5 d8 3c 8d 5c c6 3d 40 15 34 be
       0.06662776 0.026484061 0.096856214 -0.17586231
000100 e1 4c 65 3d 3f 42 85 3c 81 7b 03 bd 8b 69 3c 3e
       0.05598152 0.01626694 -0.032100204 0.18399636
000110 dc 49 96 bd f4 f8 bc bd af 6a ee 3d 8a 8e 99 bd
       -0.07338306 -0.092271715 0.11641442 -0.0749789
000120 34 33 79 bd 54 f6 93 be 24 5e cd bd 8a 9a b7 bd
       -0.060839847 -0.2889887 -0.100277215 -0.08965023
000130 ff 97 2d bb 8f 63 b4 bd 49 e6 ca 3d b1 7f ae bd
       -0.0026488302 -0.08808052 0.09907205 -0.08520449
000140 5d a9 45 3d 87 18 b9 3c 09 d1 05 be 7c 5f ca 3d
       0.04825722 0.022594703 -0.13068022 0.098814934
000150 01 8b f8 bd 9a 9b 07 bd 7e 1e d8 bd 35 fd ad 3d
       -0.12135888 -0.033107378 -0.10552691 0.08495561
000160 c4 25 62 3d 94 a7 63 3d 15 27 bc bd 74 5d 91 bd
       0.055211797 0.055579737 -0.09187142 -0.07097903
000170 e7 b0 47 bd a7 48 4c bc 01 d0 fc bd f6 bc 97 bd
       -0.04875269 -0.012468494 -0.12344361 -0.07409088
000180 80 cf 6a bd 90 d1 eb bd 4c a4 f2 bd 4e 16 0f 3c
       -0.057326794 -0.1151458 -0.118477434 0.008733345
000190 4c a8 28 be d8 ac 57 3c 13 f2 c4 3d 10 68 11 3d
       -0.1647045 0.013163768 0.096164845 0.035499632
0001a0 11 9b 26 bd 2b 8e 2d be 77 7c d4 3d 5e 51 f1 3d
       -0.040675227 -0.16948764 0.10375302 0.11783098
0001b0 06 b0 17 bc 6e 95 a8 bd aa 7f cc bd fa 9d 0b bd
       -0.009258276 -0.082316265 -0.099852875 -0.034086205
0001c0 75 d1 dd bd 11 46 05 3e 36 24 2c 3d 3a ef 72 bb
       -0.108309664 0.1301501 0.04202672 -0.003706886
0001d0 47 10 eb bd 5d ba 8b 3d 75 dc 83 bd df b0 c6 bd
       -0.11477714 0.06822655 -0.06438533 -0.09701704
0001e0 ef 3f b9 bd c2 bb d8 bd 69 3b c2 3d 28 6e 25 3c
       -0.090453975 -0.10582687 0.09483988 0.010097064
0001f0 77 b3 a6 bd be 99 c4 bd 40 8a dc bd df 86 da 3c
       -0.08139699 -0.095996365 -0.107685566 0.02667564
000200 d4 a7 58 bd 71 0d 90 bd 66 5b 11 be 45 d8 ae 3c
       -0.05289443 -0.07033814 -0.14195022 0.02134336
000210 56 0d fa 3d 30 78 1a 3d cc 5c 11 3e cb 3e 74 3d
       0.12209575 0.037712276 0.14195555 0.059630197
000220 8a 80 f4 bc 72 a2 3c 3e 43 68 bb 3c a1 3f 81 bb
       -0.029846448 0.18421343 0.022876864 -0.0039443527
000230 1e db f7 bd a8 fa 78 3d c2 3d aa bc 13 a5 c6 3c
       -0.1210234 0.06078592 -0.020781402 0.024248635
000240 36 e5 d4 bd 54 de 21 bc 76 8a 02 bd a3 8a 63 bd
       -0.10395281 -0.009879667 -0.031870328 -0.055552136
000250 33 6d 88 3d 93 8d 57 3d 11 47 9c 3d a6 d4 30 3e
       0.06661453 0.05262525 0.07630742 0.17268619
000260 ce 62 94 3d 4a f0 45 bc 9e 52 0f 3d e1 14 f1 3d
       0.07245408 -0.012081215 0.0349909 0.117715605
000270 72 70 ae bd 97 ca b1 bc aa f2 d6 3d 3b ac 09 3e
       -0.08517541 -0.021703048 0.10495503 0.13444607
000280 40 f0 0d 3e 22 c3 e8 3d 95 0b 5e 3d 23 91 a6 3b
       0.1386118 0.11365344 0.054210264 0.0050832196
000290 19 ea 98 bd 1f a1 33 be f0 04 b4 3d ee e6 70 bd
       -0.074665256 -0.17541932 0.08790004 -0.05881398
0002a0 b3 2e 1a bd d3 8b d0 bd 70 b5 b9 3d 0f 9f 83 bd
       -0.037642192 -0.10182919 0.090678096 -0.064268224
0002b0 56 4d ea 3d 2b dd d4 3d 0f 3a b4 bd 83 28 fd bb
       0.11440532 0.10393747 -0.08800136 -0.0077257766
0002c0 d1 e9 9a bc a0 d1 4c bd ee 6d ab bb e7 13 23 bd
       -0.01891032 -0.0500046 -0.0052316105 -0.039813902
0002d0 15 41 c4 3d 78 7b 06 be d6 9e 12 3d 76 d4 67 bb
       0.09582726 -0.13133037 0.03579601 -0.003537444
0002e0 91 42 82 bd 44 2c 86 3d 20 99 61 be 7d 6f 11 3d
       -0.06360353 0.06551412 -0.22031069 0.035506714
0002f0 2f 53 92 3d a2 e0 e4 bc 85 b6 25 bd ee 82 ed 3d
       0.07144772 -0.027939145 -0.040457267 0.115972385
000300 48 bb 5c 3d bc f2 c6 3c e7 fc 3a 3d 53 37 b0 3c
       0.053889543 0.024285667 0.045651343 0.021510756
000310 33 b3 df bd 28 71 4e 3c d2 f3 f5 bc 90 ba b5 3c
       -0.109228514 0.012600221 -0.03002349 0.022183686
000320 95 a6 88 3d e2 88 fc bd 01 c2 d2 3c e9 36 02 3d
       0.06672398 -0.12330796 0.025727274 0.031790648
000330 ef e7 c7 bd 6a 9d 03 be a0 18 57 3d af a0 b7 bd
       -0.09761035 -0.12853017 0.05251372 -0.08966195
000340 47 88 0f b9 92 bd 29 3d 8b 76 59 3c 44 e3 be bc
       -0.0001368831 0.041440554 0.013272892 -0.023301728
000350 75 b6 c8 3c 7f 7b 93 bd 2a 4d 03 bd 46 0b 12 3e
       0.024501065 -0.072012894 -0.03205601 0.14262113
000360 4f 33 e8 bc 27 0d 73 3d dd 9c 84 bd 36 10 03 be
       -0.028344778 0.059338715 -0.06475232 -0.12799153
000370 e4 b9 9b bd 31 22 1d 3c d8 38 63 3d e6 62 44 3c
       -0.07603815 0.009590671 0.055474132 0.01198647
000380 4d 32 f2 bd d9 3b c6 3d 84 43 2d bc 2a ec a5 bd
       -0.11826 0.09679384 -0.010575179 -0.08101685
000390 5d 02 b9 bc 75 1d 28 3e 96 c4 7d bd 03 dc 2c 3d
       -0.022584135 0.16417487 -0.061955057 0.042202007
0003a0 7b 3c 72 3d 34 63 6a bd 44 c2 f8 bd e6 d6 b5 3d
       0.05913971 -0.057223514 -0.12146428 0.08878879
0003b0 af df 0a be f5 bf b1 3d 25 f7 f8 3c a5 8d ae bb
       -0.13561891 0.08679191 0.030391285 -0.005326944
0003c0 a0 75 f7 bd ba 68 63 3c d9 e9 83 bd 01 32 35 bd
       -0.12082982 0.013879949 -0.06441087 -0.04423714
0003d0 bc 37 04 be 75 77 ad 3d c9 94 1d bc 8a df 4e bd
       -0.12911886 0.0847005 -0.009617993 -0.050506152
0003e0 e4 a5 5c 3d 4d 9e 62 be d4 1e 82 3d 38 0b 48 bd
       0.053869143 -0.221307 0.06353536 -0.048838824
0003f0 78 cb f8 bd 0e b0 1e 3d 84 f5 ee 3c 98 43 34 be
       -0.121481836 0.038742118 0.029169805 -0.1760391
