data/example_dynamics_data/models/office/LSTM_qhat_no.pth (torch, 206163 bytes, 10 tensors)

weight f4 [64, 107]
0.07279707 0.29149267 -0.11077752 0.07770647 -0.15464455 -0.04492101 -0.02750483 0.083980665
0.09903139 0.018612742 -0.013291073 -0.36847568 -0.052238207 0.102453776 0.13876139 0.06584151
-0.14079636 -0.2004238 -0.21118332 0.10863794 -0.08269331 -0.14641066 0.014428395 0.025188984
0.08434791 -0.077922046 0.05119338 0.06867128 -0.037563045 -0.072628714 -0.0019272185 0.013095371
-0.13355824 0.10090582 0.16427043 -0.009716943 0.14272755 0.016752742 0.19311538 0.13951494
-0.043944146 0.051676642 0.19763301 -0.04760493 -0.07485639 0.1239099 0.10976895 0.12411846
0.36949667 -0.00101636 0.055621795 0.06441807 -0.08155546 -0.06465895 0.027292348 0.075267054
0.02554541 -0.009760118 -0.061941933 -0.043544255 -0.07690221 0.025725054 -0.033919655 -0.055778723
-0.094644725 0.037755687 -0.055973273 0.080078125 0.022334069 0.072850764 0.02934873 -0.016143227
-0.019706465 0.030782549 -0.07473464 -0.09014408 0.068464756 -0.045838106 -0.08909016 0.11563643
-0.032973822 0.063154526 -0.0018976938 0.029390704 -0.0078100744 -0.0018867101 -0.073731355 0.010859428
0.023435444 0.04923438 0.10780077 -0.06751627 -0.06064408 -0.050901663 -0.02937071 -0.03509915
0.053928565 -0.029381925 0.0014904131 -0.015735531 0.07589436 0.053235423 -0.03226796 -0.038343046
0.06819662 0.065572545 -0.012288956 -0.03659731 0.14590497 -0.0021451958 0.080687396 0.31849518
0.031990603 0.13862228 0.12903397 0.020608583 -0.086103216 0.066429555 0.3422931 -0.10665937
-0.08503461 0.021860808 -0.15441242 0.044154547 -0.083275 -0.0692405 -0.061045114 0.0971742
0.015600841 -0.18053126 0.062031895 0.34174895 0.3301989 -0.3400597 0.2754099 -0.028520804
0.018804478 -0.1331934 0.104141705 0.032772858 0.11012104 0.16406953 0.06275219 -0.12609233
0.025372747 -0.1006779 0.12505771 0.10712853 -0.13386637 0.13143513 -0.12613703 -0.11051429
0.094517216 -0.0521347 0.13709213 0.04941706 0.053973902 -0.0006425876 0.0037935565 0.07745537
0.04792355 0.0016594097 0.081609204 0.09578698 -0.11978733 0.032488298 0.005374587 0.048924293
0.09129651 -0.031212244 -0.06913943 -0.0040497887 -0.0059379884 0.017541112 -0.08428423 0.033379167
-0.022817334 -0.0046921065 0.08974152 -0.07389185 -0.07558279 0.015049561 0.14206451 0.08564149
-0.07943054 0.11989275 0.07679566 0.100163065 -0.08608026 0.07906895 -0.06936912 -0.034959152
-0.07080977 0.041053336 -0.02332658 -0.002926736 0.079973266 0.110525735 0.06618586 0.05738009
0.049811464 -0.008165404 0.088212885 0.04678418 0.015152068 0.01607774 -0.025866672 0.01360105
-0.032701623 -0.033141796 -0.028529868 0.06773997 0.041097075 0.008030193 0.12100786 -0.34065554
-0.0807654 -0.4135847 -0.17915344 0.028840924 0.029853689 0.0036376766 0.053518847 -0.107956775
-0.31480688 0.15711895 -0.024106143 -0.18649088 -0.056474168 0.037841216 -0.10295512 0.45600596
-0.18084018 0.09835669 -0.04034612 0.23389494 -0.08931772 -0.062374294 0.22117974 0.2424589
0.1215864 -0.23585759 -0.0070661865 0.1815359 -0.07696707 0.06164863 -0.2612801 -0.04272465
0.19139399 -0.018378332 -0.06558473 -0.0016965225 -0.02031074 0.04086138 0.013766926 -0.4639821
00000000: a116 953d 873e 953e 53df e2bd 9224 9f3d
00000010: 245b 1ebe 18ff 37bd cf51 e1bc 0efe ab3d
00000020: f8d0 ca3d c079 983c cdc2 59bc d8a8 bcbe
00000030: bbf7 55bd 49d3 d13d 7717 0e3e ead7 863d
00000040: ec2c 10be e63b 4dbe 7140 58be 917d de3d
00000050: 1c5b a9bd adec 15be 1365 6c3c 2159 ce3c
00000060: 99be ac3d 9895 9fbd 26b0 513d 87a3 8c3d
00000070: b5db 19bd 5dbe 94bd b99a fcba f88d 563c
00000080: 7ec3 08be b6a7 ce3d 8236 283e d033 1fbc
00000090: 2c27 123e 0c3d 893c 0ac0 453e 01dd 0e3e
000000a0: c7fe 33bd e3aa 533d 4f60 4a3e 63fd 42bd
000000b0: 4f4e 99bd 79c4 fd3d 8bce e03d d231 fe3d
000000c0: ab2e bd3e 6237 85ba aed3 633d 9fed 833d
000000d0: 8d06 a7bd e96b 84bd 3494 df3c 9d25 9a3d
000000e0: 9c44 d13c e7e8 1fbc d3b6 7dbd 765b 32bd
000000f0: e87e 9dbd 59bd d23c 56ef 0abd 3b78 64bd
00000100: 18d5 c1bd b5a5 1a3d 3b44 65bd 0000 a43d
00000110: f0f5 b63c c832 953d bf6c f03c cd3e 84bc
00000120: 746f a1bc af2b fc3c 7a0e 99bd 769d b8bd
00000130: 4037 8c3d bdc0 3bbd e774 b6bd cbd2 ec3d
00000140: 8f0f 07bd 2957 813d 0abc f8ba c6c4 f03c
00000150: a7eb ffbb 7c4b f7ba 7700 97bd beeb 313c
00000160: b0fb bf3c fda9 493d a6c6 dc3d f845 8abd
00000170: ed65 78bd 437e 50bd d89a f0bc 20c4 0fbd
00000180: 33e4 5c3d 5db2 f0bc f759 c33a cde7 80bc
00000190: 816e 9b3d 630d 5a3d 692b 04bd 990d 1dbd
000001a0: abaa 8b3d e64a 863d 9e57 49bc 10e7 15bd
000001b0: 1d68 153e 6a96 0cbb 6f3f a53d cd11 a33e
000001c0: 9408 033d 00f3 0d3e 7b21 043e 55d3 a83c
000001d0: e256 b0bd 380c 883d 0b41 af3e 3a70 dabd
000001e0: a026 aebd 7015 b33c 4a1e 1ebe 66db 343d
000001f0: 158c aabd f7cd 8dbd 710a 7abd 4403 c73d
00000200: ab9a 7f3c 30dd 38be 2815 7e3d b8f9 ae3e
00000210: d50f a93e 4e1c aebe 8702 8d3e 76a4 e9bc
00000220: d90b 9a3c da63 08be 3f48 d53d d53c 063d
00000230: 2487 e13d d801 283e 3884 803d 591e 01be
00000240: 82da cf3c 3730 cebd 210f 003e 3466 db3d
00000250: 4414 09be ee96 063e 112a 01be 5155 e2bd
00000260: 3e92 c13d 328b 55bd e161 0c3e 8b69 4a3d
00000270: bd13 5d3d 5373 28ba 519d 783b eca0 9e3d
00000280: 7c4b 443d 8d80 d93a ba22 a73d f72b c43d
00000290: 0f53 f5bd 7312 053d 4e1d b03b d764 483d
000002a0: aaf9 ba3d d2b0 ffbc f998 8dbd 17b4 84bb
000002b0: 7593 c2bb 61b2 8f3c 369d acbd 98b8 083d
000002c0: 6beb babc 3ec0 99bb 67ca b73d 9c54 97bd
000002d0: 26cb 9abd 6f92 763c 5c79 113e ce64 af3d
000002e0: 7bac a2bd 558a f53d 0b47 9d3d 4b22 cd3d
000002f0: d94a b0bd e7ee a13d 6611 8ebd 5431 0fbd
00000300: b604 91bd 8b27 283d 6217 bfbc 7bce 3fbb
00000310: 06c9 a33d 515b e23d 748c 873d 6307 6b3d
00000320: 1b07 4c3d 30c8 05bc f5a8 b43d c5a0 3f3d
00000330: 6140 783c 77b5 833c 58e6 d3bc f0d6 5e3c
00000340: 23f2 05bd b1bf 07bd 78b7 e9bc 41bb 8a3d
00000350: 6855 283d 1291 033c f8d2 f73d 676a aebe
00000360: 5468 a5bd 60c1 d3be 0074 37be cd43 ec3c
00000370: b98f f43c 1666 6e3b 9436 5b3d 7118 ddbd
00000380: 5e2e a1be cae3 203e 3f7a c5bc 77f7 3ebe
00000390: 7551 67bd 64ff 1a3d 22da d2bd 9d79 e93e
000003a0: 2b2e 39be 3b6f c93d f941 25bd 2882 6f3e
000003b0: 35ec b6bd 307c 7fbd f17c 623e 2547 783e
000003c0: 4a02 f93d a784 71be 788b e7bb 8ce4 393e
000003d0: e9a0 9dbd 4683 7c3d 81c6 85be 0b00 2fbd
000003e0: c9fc 433e 288e 96bc 4951 86bd d95d deba
000003f0: b662 a6bc 435e 273d ac8e 613c 108f edbe

bias f4 [64]
0.11591146 0.03303977 -0.067336455 0.0012894766 -0.044620384 0.100718044 0.074079834 0.09313237
0.10707728 -0.0029653392 0.04428747 -0.031971008 -0.069134995 -0.042417813 -0.06591929 0.03771993
-0.009535007 0.028937453 0.083373 -0.07264434 0.012833537 -0.11796067 0.08003879 -0.0013442452
-0.07289111 0.048069045 0.08348905 -0.020054156 0.037695684 0.08877277 0.014388451 -0.0052720793
0.012417639 0.045886498 0.114018 0.07024058 0.024523646 -0.018279921 0.0023934275 -0.02555977
0.0353244 0.062816136 -0.018333009 0.06996026 0.031390216 0.04089719 -0.007090163 0.0047967094
0.046753805 0.095860355 0.00916198 0.0039402633 -0.0062010917 0.09855328 -0.05728551 -0.009484585
0.01948283 0.047169816 0.07126824 -0.0022903783 -0.05063464 0.09883046 -0.04530854 0.00083830237
00000000: fd62 ed3d b654 073d b2e7 89bd a803 a93a
00000010: ddc3 36bd 4345 ce3d 2bb7 973d 2fbc be3d
00000020: 554b db3d 2356 42bb c766 353d 08f4 02bd
00000030: a696 8dbd 4dbe 2dbd b100 87bd 3780 1a3d
00000040: b838 1cbc 3d0e ed3c 77bf aa3d 8ec6 94bd
00000050: c143 523c 5d95 f1bd 61eb a33d 6231 b0ba
00000060: ef47 95bd 0ce4 443d 4ffc aa3d 9d48 a4bc
00000070: ca66 1a3d 7fce b53d 8abd 6b3c 68c1 acbb
00000080: 5a73 4b3c 7bf3 3b3d 4582 e93d 4bda 8f3d
00000090: d0e5 c83c c6bf 95bc 0ddb 1c3b b962 d1bc
000000a0: 51b0 103d bfa5 803d 1b2f 96bc 5347 8f3d
000000b0: 0793 003d d083 273d 9954 e8bb b72d 9d3b
000000c0: eb80 3f3d 6f52 c43d 211c 163c 531d 813b
000000d0: 8732 cbbb 4dd6 c93d 36a4 6abd 3c65 1bbc
000000e0: 759a 9f3c 2335 413d 15f5 913d 2c1a 16bb
000000f0: 4566 4fbd a067 ca3d 7395 39bd 85c1 5b3a

weight f4 [64, 64]
0.104894675 -0.044616725 0.060960524 -0.10504772 0.00121222 0.100157045 -0.26906174 -0.08014735
0.12469063 0.040656995 0.049228482 -0.041185677 0.03000733 0.11981809 0.21829522 -0.25883508
-0.18631074 0.10061468 0.044846516 -0.052617174 0.008431547 0.17832598 0.09436731 -0.0621156
0.0103563415 0.14345121 -0.08007256 0.045988765 0.06773392 0.013957504 0.070019186 -0.033490647
0.070958324 0.0018989303 0.0662931 0.043443225 0.04001983 -0.0059688245 -0.019202363 0.10464127
0.13730809 0.0626117 0.0028629843 -0.21464022 -0.0091919275 0.027609667 0.25034368 -0.17952876
0.15571475 0.089095116 0.016759459 -0.05607916 0.12798725 0.03950085 -0.124856144 0.108235784
0.016068697 0.11406836 -0.059125043 -0.041995242 -0.11438131 -0.073347315 0.20908575 0.18753996
0.050181873 -0.05794909 0.0509312 -0.12393867 -0.088789426 0.0016965627 -0.14761917 -0.092314206
-0.048835047 0.16227739 -0.09273127 -0.017947817 -0.06625548 0.16926792 0.02081895 -0.081528425
-0.15382628 -0.18834862 0.110930175 0.088213 0.1088891 0.024934411 0.0036615583 -0.13793056
0.063045256 -0.050348137 -0.07371912 -0.008486492 0.014241276 0.17211635 -0.002773877 -0.16181098
-0.10551348 -0.18696575 -0.056881186 -0.053195275 0.038114097 -0.18897225 0.044347323 0.12784411
-0.15488878 -0.03411959 0.034116816 0.0024108756 0.017246667 0.18609214 0.0003183668 -0.101158835
-0.039782636 -0.093335584 -0.13470891 0.046221785 0.048066214 -0.012587419 -0.033137124 0.14228697
0.13463262 -0.15212907 -0.12783086 -0.06598884 -0.048785005 -0.09004871 0.032277606 -0.10360259
-0.062439594 -0.016756078 0.12425712 -0.05566027 0.08781954 -0.1682256 0.11296869 0.15400335
0.13260576 0.17046352 -0.13129644 -0.18989684 0.038021617 -0.0016024568 0.18641157 -0.13817552
0.02531785 0.009335313 0.044904098 0.009687292 0.32695547 -0.04042861 0.14898166 -0.02049794
-0.092833884 -0.15951453 -0.10755671 0.06693453 0.04557382 -0.21140271 0.09516889 -0.12087637
-0.08212503 -0.00061815244 0.08514028 0.042512268 0.21137041 -0.11859769 -0.03458817 0.043968905
-0.12451765 -0.018437244 0.053500883 0.0019781007 -0.20560382 -0.02424015 -0.005121152 0.070893236
0.07840674 0.09116576 0.0071357656 -0.05714042 0.023465862 -0.112329654 0.23242901 -0.06331435
0.034681533 0.14553371 0.06669924 0.013832828 0.037942085 -0.11004031 0.067125276 0.0029710336
-0.06671736 -0.077060565 0.17336023 0.09160562 0.056166 0.028845018 -0.08323551 -0.08238651
0.02472657 -0.038425665 -0.025123209 0.027944822 0.0895281 -0.01841562 0.078008 0.10342343
-0.116462275 0.113884605 0.076568246 0.13027623 -0.28849843 -0.09759131 0.026735973 0.051021047
-0.011190097 -0.046250224 0.116444655 -0.025459416 -0.02173747 0.044599336 -0.0030762022 -0.23686384
-0.07839238 -0.07519996 -0.0985628 -0.009958441 -0.0046720584 0.13357568 0.09162791 0.08585093
0.1431081 0.103782944 -0.13070932 0.096771605 0.007313207 0.071535476 -0.05493282 0.14564916
-0.09652848 0.13243322 0.0016551897 0.017600553 0.030631438 -0.09525464 0.17625064 0.06829054
-0.07233553 0.14327356 0.07577855 -0.053914845 0.02545948 0.109857336 -0.0698024 0.0030317134
00000000: 05d3 d63d 07c0 36bd beb1 793d 4223 d7bd
00000010: 5be3 9e3a 231f cd3d 76c2 89be 4b24 a4bd
00000020: cd5d ff3d f387 263d cea3 493d 50b2 28bd
00000030: efd1 f53c 3063 f53d c888 5f3e 0886 84be
00000040: 3ec8 3ebe 120f ce3d fbb0 373d 1b85 57bd
00000050: 7924 0a3c 169b 363e a643 c13d ed6c 7ebd
00000060: a5ad 293c e0e4 123e 15fd a3bd b75e 3c3d
00000070: 15b8 8a3d 04ae 643c 3866 8f3d 7d2d 09bd
00000080: 9952 913d 87e5 f83a adc4 873d 86f1 313d
00000090: d5eb 233d 2196 c3bb 464e 9dbc 2a4e d63d
000000a0: 7e9a 0c3e 903a 803d e8a0 3b3b a5ca 5bbe
000000b0: bd99 16bc ab2d e23c 0c2d 803e 63d6 37be
000000c0: b073 1f3e 8077 b63d 224b 893c 43b3 65bd
000000d0: 170f 033e a5cb 213d 94b4 ffbd b9aa dd3d
000000e0: 80a2 833c ac9c e93d 1a2d 72bd 3403 2cbd
000000f0: c040 eabd 1e37 96bd 931a 563e 7a0a 403e
00000100: 828b 4d3d 065c 6dbd 3c9d 503d 8fd3 fdbd
00000110: 3bd7 b5bd 335f de3a 7b29 17be 3b0f bdbd
00000120: 4207 48bd 0b2c 263e e4e9 bdbd 4d07 93bc
00000130: f4b0 87bd 9254 2d3e 818c aa3c 60f8 a6bd
00000140: a384 1dbe 76de 40be 5c2f e33d 04a9 b43d
00000150: 4001 df3d 4043 cc3c c1f6 6f3b ab3d 0dbe
00000160: df1d 813d d939 4ebd 0dfa 96bd ed0a 0bbc
00000170: 3e54 693c 453f 303e efc9 35bb c7b1 25be
00000180: 7417 d8bd f373 3fbe 3ffc 68bd 4ae3 59bd
00000190: 871d 1c3d f181 41be 8aa5 353d 91e9 023e
000001a0: 2a9b 1ebe fcc0 0bbd 13be 0b3d c8ff 1d3b
000001b0: e248 8d3c f08e 3e3e 78ea a639 5d2c cfbd
000001c0: 1ef3 22bd ba26 bfbd 22f1 09be 0e53 3d3d
000001d0: 14e1 443d 763b 4ebc cbba 07bd adb3 113e
000001e0: 22dd 093e b9c7 1bbe 18e6 02be 2825 87bd
000001f0: c9d2 47bd 756b b8bd 8635 043d 982d d4bd
00000200: a9c0 7fbd 0b44 89bc 847a fe3d 06fc 63bd
00000210: bbda b33d 5543 2cbe 215c e73d 0eb3 1d3e
00000220: cec9 073e fd8d 2e3e 9372 06be 5174 42be
00000230: 8ebc 1b3d 8709 d2ba ade2 3e3e e27d 0dbe
00000240: 6167 cf3c 24f3 183c 5ced 373d 73b7 1e3c
00000250: b566 a73e 7898 25bd a68e 183e 4ceb a7bc
00000260: b11f bebd c757 23be b146 dcbd f914 893d
00000270: 9dab 3a3d f479 58be e8e7 c23d 088e f7bd
00000280: 2b31 a8bd 820b 22ba 075e ae3d 5821 2e3d
00000290: 7c71 583e 58e3 f2bd 53ac 0dbd bd18 343d
000002a0: 1c03 ffbd b409 97bc be23 5b3d 06a3 013b
000002b0: cf89 52be 4793 c6bc 56cf a7bb 7930 913d
000002c0: b793 a03d 1db5 ba3d 24d3 e93b 130c 6abd
000002d0: 7b3b c03c 170d e6bd df01 6e3e f4aa 81bd
000002e0: 390e 0e3d ca06 153e 9c99 883d 16a3 623c
000002f0: 2969 1b3d d05c e1bd fa78 893d acb5 423b
00000300: 1ca3 88bd eed1 9dbd 5885 313e ba9b bb3d
00000310: 520e 663d 634c ec3c 6177 aabd 42ba a8bd
00000320: 608f ca3c 3b64 1dbd 30cf cdbc 8aec e43c
00000330: 825a b73d 5bdc 96bc a9c2 9f3d aacf d33d
00000340: c683 eebd 553c e93d d0cf 9c3d 2267 053e
00000350: 11b6 93be f4dd c7bd 6605 db3c 72fb 503d
00000360: ab56 37bc e070 3dbd 897a ee3d 4490 d0bc
00000370: c712 b2bc cbad 363d 1c9a 49bb 6f8c 72be
00000380: 2f8c a0bd 7002 9abd 4bdb c9bd bb28 23bc
00000390: 1118 99bb 10c8 083e 6aa7 bb3d 9dd2 af3d
000003a0: ee8a 123e 278c d43d aad8 05be 3130 c63d
000003b0: a0a3 ef3b 3181 923d 3d01 61bd 0e25 153e
000003c0: b9b0 c5bd 939c 073e f3f2 d83a 092f 903c
000003d0: c8ee fa3c dd14 c3bd 0c7b 343e e9db 8b3d
000003e0: a624 94bd 4eb6 123e c931 9b3d d0d5 5cbd
000003f0: 6690 d03c e2fc e03d 90f4 8ebd b6af 463b

bias f4 [64]
-0.10279621 -0.12852547 0.040933765 0.050773088 0.13788958 0.07127912 -0.04335847 -0.082660295
-0.039190497 -0.07075573 0.03459862 0.018373745 -0.07748339 -0.04510454 0.010642694 -0.11105878
-0.116788365 0.12302982 0.08752981 -0.0070394347 0.090035796 0.07418673 -0.1447528 0.091599934
-0.08887857 -0.06501927 0.018524073 0.11489673 -0.1005241 -0.004185383 0.029001309 0.07088838
-0.05307995 -0.09139864 -0.014290897 0.092693195 0.12023825 -0.06340019 -0.047591418 0.056015387
-0.04902123 -0.05236185 0.01842514 -0.0128726335 -0.032778252 -0.027219 -0.057769857 -0.09251674
0.019101696 0.10929527 0.032001395 -0.103304036 0.0152505 0.062474206 -0.003178703 -0.059927158
-0.0021351576 -0.059773877 -0.051590543 0.09529265 0.03897637 -0.1194899 -0.0773268 0.06923171
00000000: d286 d2bd 2e9c 03be 2aaa 273d 71f7 4f3d
00000010: ed32 0d3e cafa 913d a798 31bd cd49 a9bd
00000020: 3786 20bd 61e8 90bd 48b7 0d3d 8984 963c
00000030: 9daf 9ebd 8abf 38bd b25e 2e3c c972 e3bd
00000040: bd2e efbd 0ff7 fb3d d442 b33d 0fab e6bb
00000050: b064 b83d 36ef 973d 143a 14be bf98 bb3d
00000060: f805 b6bd d328 85bd ccbf 973c fa4e eb3d
00000070: 94df cdbd 8a25 89bb 2794 ed3c ed2d 913d
00000080: 5d6a 59bd 362f bbbd 5e24 6abc eed5 bd3d
00000090: 793f f63d f5d7 81bd 38ef 42bd 6470 653d
000000a0: 7cca 48bd 6179 56bd 52f0 963c bde7 52bc
000000b0: 7d42 06bd 61fa debc 16a0 6cbd 6b79 bdbd
000000c0: 297b 9c3c 33d6 df3d e513 033d 1191 d3bd
000000d0: 3cdd 793c f4e4 7f3d c951 50bb 2e76 75bd
000000e0: 00ee 0bbb 74d5 74bd 9b50 53bd cb28 c33d
000000f0: b0a5 1f3d 1fb7 f4bd 835d 9ebd 5bc9 8d3d

weight_ih_l0 f4 [256, 64]
0.06362155 -0.10551814 0.048759587 0.12075364 0.14591624 -0.037195273 0.10321006 0.022797212
0.23084538 0.06543873 -0.04165549 0.14692914 -0.14300442 -0.00020318001 -0.020880898 0.036861964
-0.12021886 -0.061946418 -0.016254462 -0.07823645 -0.027305802 0.12597382 0.008595154 0.15424387
-0.0061419657 -0.06940627 -0.07659378 0.11440277 -0.098929405 0.10213425 -0.13836157 -0.10192582
0.016274163 0.05956487 -0.1726135 0.1979996 -0.030876145 0.041467723 -0.055526223 0.061599817
0.13767241 -0.034083333 -0.39169303 0.016819736 -0.19280863 0.07462516 -0.13817567 0.10741044
0.052501332 -0.17157716 0.03421413 -0.12019043 0.16132952 -0.01578124 0.04687001 -0.13883963
0.029932117 -0.3311889 0.04635388 0.096599005 0.14406079 -0.10114699 -0.14225139 0.078181006
-0.15433627 -0.08500138 0.22590497 0.13260484 -0.16739823 0.06408875 0.054024313 0.0075420346
0.120688975 -0.14611417 0.09398358 -0.047947712 -0.013785146 0.017938854 0.016942915 -0.120016344
0.037016746 0.16125123 0.03985991 0.0081888 0.1357287 0.15320155 -0.066089004 -0.029768968
-0.14699593 -0.058606412 0.023474954 -0.06373675 -0.009790542 0.08752118 0.10441972 -0.04494255
0.026681975 0.040611256 -0.2012584 -0.0006612613 -0.042896945 0.10942651 -0.03906292 0.008131189
0.062785655 -0.031920694 -0.0020459257 -0.06704417 0.10487182 -0.123510264 0.020117426 -0.044759456
0.078385435 0.034947377 -0.07657315 0.080740154 0.19289194 0.056298003 -0.021698961 -0.06047093
-0.059359208 0.0055639762 -0.046971757 0.07414234 0.15497293 -0.055060808 -0.0041013267 -0.06522819
-0.060016472 0.022020278 -0.089232735 -0.044929784 0.18985663 0.18500021 0.008792536 0.015506156
0.31724072 -0.08503319 -0.010004671 0.16295576 -0.18630654 0.36680415 0.04534122 -0.038329065
0.0066825314 0.10063905 -0.029954055 0.12381447 0.1100206 0.12007239 -0.03219051 -0.010593663
0.0539246 -0.037988074 0.115366116 -0.0029495189 -0.13504982 0.25607184 0.20093611 -0.071653694
0.15509231 0.29153788 -0.016378442 0.09313895 0.0018376563 0.07828472 -0.0345573 0.009114477
0.029044967 0.09246359 0.39130783 0.06725816 0.19678956 -0.046849594 0.36401957 0.13926718
0.08844269 0.14538345 0.035850894 0.09633448 0.12359156 0.0056298473 0.0823571 0.012475818
0.011845158 0.2314315 0.10706666 -0.003988868 0.046968766 -0.17238845 0.02977144 -0.0673453
-0.033550095 0.03758419 0.03684236 0.08143428 0.17728299 0.056948505 0.022192586 -0.0008223738
0.12710753 -0.050271403 -0.11360429 -0.06415995 0.0041167885 0.049508717 0.07457388 -0.0477789
-0.16660471 -0.07601059 0.11952949 0.11217385 0.04287581 0.12764609 0.02421705 0.1362956
-0.04428024 0.09245117 0.05037553 -0.034835894 -0.13639235 0.00973503 0.15227844 0.007380133
0.160254 0.39174703 0.06813563 0.08995021 -0.060187314 0.13307914 0.17315365 0.07819463
-0.013104635 0.06635867 -0.09370924 0.030672483 0.17427246 0.051925782 0.24293213 0.004178065
-0.021098988 0.037472486 0.023163391 0.1559463 0.16068365 0.13974032 0.105787866 -0.026619887
-0.0510399 -0.29921272 0.124424405 0.005029856 -0.04858507 -0.09742373 -0.030092726 0.0667206
00000000: 044c 823d e519 d8bd 22b8 473d af4d f73d
00000010: 116b 153e 125a 18bd cc5f d33d 38c1 ba3c
00000020: bb62 6c3e be04 863d f29e 2abd 9874 163e
00000030: c06f 12be b80c 55b9 6b0e abbc 92fc 163d
00000040: 4e35 f6bd 87bb 7dbd 1428 85bc 6f3a a0bd
00000050: 6bb0 dfbc 48ff 003e b0d2 0c3c 1bf2 1d3e
00000060: 8b42 c9bb e024 8ebd 33dd 9cbd 004c ea3d
00000070: 809b cabd c32b d13d a8ae 0dbe 7cbe d0bd
00000080: 6551 853c 4bfa 733d 98c1 30be 68c0 4a3e
00000090: f8ef fcbc 0fda 293d 776f 63bd 1750 7c3d
000000a0: fff9 0c3e f79a 0bbd fd8b c8be 8bc9 893c
000000b0: a06f 45be 13d5 983d ec7d 0dbe 01fa db3d
000000c0: a30b 573d ecb1 2fbe 1e24 0c3d 6626 f6bd
000000d0: 9133 253e a947 81bc c5fa 3f3d fa2b 0ebe
000000e0: 3334 f53c 9791 a9be 91dd 3d3d b3d5 c53d
000000f0: ac84 133e 2726 cfbd 59aa 11be 5d1d a03d
00000100: 540a 1ebe 3415 aebd a253 673e 90c9 073e
00000110: 716a 2bbe f640 833d 9948 5d3d 2c23 f73b
00000120: c82b f73d f49e 15be 777a c03d d264 44bd
00000130: 18db 61bc 81f4 923c decb 8a3c 21cb f5bd
00000140: df9e 173d 0b1f 253e 2544 233d 512a 063c
00000150: 77fc 0a3e dee0 1c3e ac59 87bd 0dde f3bc
00000160: 1a86 16be 470d 70bd 8c4e c03c 6a88 82bd
00000170: 8268 20bc 4e3e b33d 02da d53d ae15 38bd
00000180: 2894 da3c fd57 263d af16 4ebe 7f58 2dba
00000190: b5b4 2fbd 021b e03d 7100 20bd ae38 053c
000001a0: c495 803d 46bf 02bd f014 06bb 744e 89bd
000001b0: 09c7 d63d f3f2 fcbd 4dcd a43c b155 37bd
000001c0: 8b88 a03d fb24 0f3d 62d2 9cbd 185b a53d
000001d0: 7785 453e bc98 663d 05c2 b1bc 5eb0 77bd
000001e0: a422 73bd 0452 b63b 7565 40bd f0d7 973d
000001f0: 39b1 1e3e 7187 61bd 6c64 86bb 5b96 85bd
00000200: d5d3 75bd df63 b43c a7bf b6bd 4b08 38bd
00000210: c769 423e b270 3d3e 920e 103c 880d 7e3c
00000220: 606d a23e e225 aebd a2ea 23bc e0dd 263e
00000230: 24c7 3ebe c1cd bb3e b7b7 393d f0fe 1cbd
00000240: 23f9 da3b d91b ce3d 3562 f5bc 7192 fd3d
00000250: 7b52 e13d 83e8 f53d 32da 03bd 0b91 2dbc
00000260: 0be0 5c3d 6299 1bbd 1245 ec3d b74c 41bb
00000270: 804a 0abe d91b 833e 32c2 4d3e 2cbf 92bd
00000280: 85d0 1e3e 7444 953e 152c 86bc a2bf be3d
00000290: 83dd f03a bd53 a03d f58b 0dbd e354 153c
000002a0: b6ef ed3c 8d5d bd3d 8059 c83e a5be 893d
000002b0: 3483 493e 5ce5 3fbd c660 ba3e 0e9c 0e3e
000002c0: 7121 b53d 66df 143e 63d8 123d 034b c53d
000002d0: 921d fd3d 957a b83b d7aa a83d 6067 4c3c
000002e0: 3212 423c 61fc 6c3e c445 db3d 0db5 82bb
000002f0: 5262 403d 9986 30be 3ce3 f33c 55ec 89bd
00000300: d36b 09bd e1f1 193d 04e8 163d 04c7 a63d
00000310: ac89 353e d642 693d 3acd b53c 9294 57ba
00000320: 7a28 023e 63e9 4dbd 5ea9 e8bd 4b66 83bd
00000330: 20e6 863b a7c9 4a3d 31ba 983d cfb3 43bd
00000340: 6d9a 2abe 71ab 9bbd e1cb f43d 67bb e53d
00000350: 8c9e 2f3d a8b5 023e d662 c63c 1391 0b3e
00000360: 325f 35bd 0a57 bd3d 9256 4e3d 15b0 0ebd
00000370: 70aa 0bbe ad7f 1f3c e1ee 1b3e 0bd5 f13b
00000380: a019 243e 1193 c83e b18a 8b3d d137 b83d
00000390: f986 76bd e645 083e 314f 313e 8224 a03d
000003a0: d3b4 56bc 0ee7 873d a1ea bfbd dc44 fb3c
000003b0: 7b74 323e 21b0 543d 33c3 783e 26e8 883b
000003c0: c9d7 acbc c07c 193d 27c1 bd3c 63b0 1f3e
000003d0: 418a 243e 1618 0f3e 4fa7 d83d f311 dabc
000003e0: 370f 51bd 6932 99be 39d2 fe3d 7ed1 a43b
000003f0: 2301 47bd 1886 c7bd 0585 f6bc cfa4 883d

weight_hh_l0 f4 [256, 64]
0.10918071 0.06956657 -0.005586046 0.09173892 -0.028318988 -0.061166987 0.04721412 -0.04662344
0.061925903 0.019197822 -0.02241388 -0.06494749 0.08615479 -0.069033384 -0.053411275 0.006052893
0.110302575 -0.06884742 -0.015593244 -0.050530743 0.104801126 0.020931628 0.06180808 0.20255677
0.07385676 -0.07584203 -0.06454727 0.0096223615 0.029949404 -0.0029560071 0.010236329 -0.04206693
-0.018093199 0.07622371 -0.04556449 -0.07982534 -0.09164958 0.03961691 0.106540546 -0.10709682
0.019663053 0.08959798 -0.07405443 -0.11854809 -0.07661025 0.04940764 0.073401816 0.086786725
-0.08343755 0.028040856 0.0052911676 0.05206293 -0.11088694 -0.034916617 0.054760076 0.06588354
0.06028308 0.071824744 0.050761737 0.07915824 -0.02894011 -0.048428718 -0.089613505 0.02124785
0.094079 -0.09651146 0.03990837 0.077037856 0.048651464 0.073423035 -0.06293474 -0.022320036
0.041029375 0.06252337 0.10230071 -0.078178845 0.11389053 0.005915986 0.12215826 -0.04058826
-0.1112653 0.06823613 -0.0694952 -0.06814225 -0.0038442023 -0.120986246 -0.10384638 -0.055105783
-0.047636144 -0.14278029 0.072055385 0.1494056 -0.09427258 -0.092254445 0.077569224 -0.017309275
0.13616076 -0.0029447717 -0.00836058 -0.038840365 0.03404542 -0.1878767 -0.041978158 -0.111807674
0.06852306 -0.1583382 0.004736468 -0.06870356 0.028268427 0.09356719 -0.037787683 0.0563909
0.018517755 0.048568584 -0.07147844 -0.08127333 -0.01841735 0.08800584 0.10262335 -0.11367902
-0.0282259 -0.009308787 0.12661408 -0.097134165 0.06145886 0.020658536 -0.08738268 0.12031541
-0.12215679 -0.052270014 -0.01956668 -0.05781627 0.026946241 -0.10213238 -0.015574101 -0.11818809
0.09962938 0.057742126 0.017489376 0.08121658 0.028491057 0.12678625 0.009571525 0.102334276
-0.1325624 -0.057340674 0.021661878 0.037868064 0.03226861 -0.041370485 0.013895955 0.045287516
-0.07431208 0.06636527 0.035771213 0.023019793 0.052006688 0.09845748 0.14450656 0.034417126
0.05213632 0.009016855 0.0210948 -0.11849776 0.11574557 -0.014730038 -0.051987447 0.09115541
0.104483716 -0.03526133 -0.106247045 -0.10710893 0.03626521 0.018881021 -0.033265598 0.070309006
-0.11235179 -0.09786097 0.04670737 -0.10041312 0.076643206 -0.11809404 -0.08136343 -0.006505213
-0.0046652136 0.005867632 -0.06744901 0.094116 0.041594226 -0.059377592 -0.032497533 0.014607005
0.045166105 -0.044851996 0.0052830335 0.11165458 -0.06898774 -0.025996657 -0.07613099 0.014442596
-0.041108627 0.11439732 0.015386355 0.005909312 0.109983966 0.020394843 0.06254102 -0.096133925
-0.13558182 -0.053645905 0.07696348 0.06612773 0.071364194 -0.092022225 0.046237826 0.12999977
-0.019207025 0.024793342 -0.037756518 0.036277942 0.10554433 -0.07068481 0.03333592 0.042658303
0.09558206 -0.03429658 0.07490077 -0.0005432151 -0.0077629075 0.102750935 0.054808643 0.063780986
-0.08481822 0.014377769 -0.047491338 -0.10796779 0.124852076 -0.04299604 -0.08913313 0.01430023
0.008227949 0.044624332 0.08318617 0.04200859 -0.043644357 -0.11781597 -0.0132166445 0.115607604
0.036817312 -0.06281735 0.02671886 0.067415215 -0.1177938 0.066816226 -0.09983005 0.05951113
00000000: 239a df3d eb78 8e3d 260b b7bb 9de1 bb3d
00000010: 39fd e7bc 3c8a 7abd 9863 413d 38f8 3ebd
00000020: 04a6 7d3d c044 9d3c 509d b7bc 3103 85bd
00000030: ec71 b03d 6061 8dbd c8c5 5abd 5957 c63b
00000040: 51e6 e13d e0ff 8cbd ce7a 7fbc 53f9 4ebd
00000050: f9a1 d63d ce78 ab3c 782a 7d3d 0b6b 4f3e
00000060: 3742 973d 1153 9bbd 5c31 84bd 1ca7 1d3c
00000070: 7458 f53c 92b9 41bb 47b6 273c 604e 2cbd
00000080: 3038 94bc 2d1b 9c3d d5a1 3abd 787b a3bd
00000090: c6b2 bbbd 5745 223d ee31 da3d 9455 dbbd
000000a0: 6914 a13c 257f b73d d9a9 97bd 57c9 f2bd
000000b0: d6e5 9cbd aa5f 4a3d b153 963d 3dbd b13d
000000c0: 4ee1 aabd f0b5 e53c 8861 ad3b f03f 553d
000000d0: b118 e3bd ba04 0fbd 1a4c 603d f3ed 863d
000000e0: 64eb 763d da18 933d 8aeb 4f3d b71d a23d
000000f0: cf13 edbc 315d 46bd 4987 b7bd f90f ae3c
00000100: 7eac c03d cda7 c5bd f576 233d 06c6 9d3d
00000110: c246 473d d15e 963d eee3 80bd 82d8 b6bc
00000120: 6b0e 283d 410c 803d 0983 d13d 3b1c a0bd
00000130: 703f e93d e3da c13b 1c2e fa3d e03f 26bd
00000140: 10df e3bd 62bf 8b3d 8053 8ebd 2a8e 8bbd
00000150: 03ef 7bbb a3c7 f7bd 69ad d4bd 9ab6 61bd
00000160: 1e1e 43bd ff34 12be c691 933d c8fd 183e
00000170: fc11 c1bd e6ef bcbd 9ddc 9e3d 2ecc 8dbc
00000180: ba6d 0b3e 12fd 40bb d0fa 08bc 1317 1fbd
00000190: 3673 0b3d c062 40be 4af1 2bbd 6cfb e4bd
000001a0: d155 8c3d 6923 22be 6034 9b3b 74b4 8cbd
000001b0: 3093 e73c 28a0 bf3d 42c7 1abd 25fa 663d
000001c0: 8cb2 973c daef 463d 4a63 92bd a272 a6bd
000001d0: fbdf 96bc 683c b43d 312c d23d 8cd0 e8bd
000001e0: 013a e7bc e283 18bc 1fa7 013e 47ee c6bd
000001f0: 49bc 7b3d 173c a93c b1f5 b2bd ed67 f63d
00000200: 572d fabd 1519 56bd 4d4a a0bc c1d0 6cbd
00000210: 5dbe dc3c c82a d1bd 842a 7fbc 990c f2bd
00000220: 7d0a cc3d 0283 6c3d e145 8f3c e154 a63d
00000230: 1466 e93c 41d4 013e e3d1 1c3c a294 d13d
00000240: 70be 07be 0ede 6abd 4074 b13c 8b1b 1b3d
00000250: 172c 043d 1974 29bd dcab 633c 677f 393d
00000260: ef30 98bd 84ea 873d d684 123d 0194 bc3c
00000270: f704 553d 13a4 c93d 87f9 133e f9f8 0c3d
00000280: e58c 553d 6ebb 133c 01cf ac3c f4ae f2bd
00000290: 030c ed3d 4256 71bc caf0 54bd b0af ba3d
000002a0: 8ffb d53d 2f6e 10bd 0d98 d9bd ed5b dbbd
000002b0: d48a 143d 5fac 9a3c 8241 08bd 2bfe 8f3d
000002c0: b218 e6bd 556b c8bd 3a50 3f3d 65a5 cdbd
000002d0: 1df7 9c3d 4adb f1bd dfa1 a6bd af29 d5bb
000002e0: a6de 98bb 4445 c03b b522 8abd e4bf c03d
000002f0: b55e 2a3d eb35 73bd 221c 05bd 3852 6f3c
00000300: 1800 393d bab6 37bd 4c1d ad3b 28ab e43d
00000310: 7249 8dbd f1f6 d4bc 91ea 9bbd a3a0 6c3c
00000320: 8561 28bd 2449 ea3d 0d17 7c3c e7a2 c13b
00000330: 463f e13d 1613 a73c 8215 803d dde1 c4bd
00000340: f6d5 0abe cfbb 5bbd 079f 9d3d fa6d 873d
00000350: 6427 923d 2676 bcbd e063 3d3d a91e 053e
00000360: 0d58 9dbc 681b cb3c 94a6 1abd 2e98 143d
00000370: a027 d83d 33c3 90bd 3f8b 083d 79ba 2e3d
00000380: 87c0 c33d 927a 0cbd 9365 993d 8c66 0eba
00000390: fd5f febb 156f d23d 077f 603d 9b9f 823d
000003a0: 2db5 adbd bc90 6b3c 4786 42bd 371e ddbd
000003b0: 72b2 ff3d 9e1c 30bd 6e8b b6bd 834b 6a3c
000003c0: 85ce 063c 01c8 363d 835d aa3d 3311 2c3d
000003d0: 6dc4 32bd 8049 f1bd a08a 58bc aec3 ec3d
000003e0: c0cd 163d 62a6 80bd 83e1 da3c fd10 8a3d
000003f0: e03d f1bd f2d6 883d b273 ccbd f1c1 733d

bias_ih_l0 f4 [256]
0.052203435 0.02747261 0.1261571 -0.08387589 -0.10024842 0.0073613455 -0.012528356 -0.06011701
0.040907234 0.051723298 -0.044323605 0.051582634 -0.017202027 0.009069541 0.1560045 0.06661812
0.10727015 0.16039816 0.054698057 -0.040570077 -0.10081534 0.018821703 0.062172435 0.048658524
-0.04231105 0.12223774 0.10214951 -0.03172413 -0.019536555 0.047898408 0.025493251 -0.0028514673
0.008576981 0.0671347 -0.12286272 -0.06314461 -0.06313493 -0.0977032 0.08718947 0.066285364
-0.090075806 0.043946415 0.06965564 -0.09567461 0.03723112 -0.070384905 -0.041978106 -0.0039515835
-0.013534054 -0.015546129 0.069999635 0.05206376 -0.025910202 0.16318865 0.16343749 -0.031858094
0.080212936 0.064369425 0.037434354 0.13482992 -0.08895856 0.04067783 0.018628728 -0.017549789
0.05400393 -0.0911241 0.09002062 -0.08234853 -0.07099733 -0.057008598 0.12765206 0.087529734
0.059933037 -0.08478977 -0.10491465 0.025570828 -0.07341431 0.031807523 0.1042162 0.018612273
0.01072781 -0.007608134 -0.009319397 0.1438689 -0.11106261 -0.06285274 -0.08528013 -0.10292502
-0.12365521 0.013355454 0.015639128 0.101871066 0.09405605 0.04114588 -0.056244794 0.068819694
-0.123385444 0.038550686 0.063689835 0.1115 -0.0072136945 0.08017522 -0.07784637 -0.015658204
-0.16071443 -0.11905291 0.14893812 0.10005078 0.09427346 -0.045034636 -0.0084249675 0.080486745
-0.08884269 0.012266816 -0.028556392 -0.04947823 -0.0703496 -0.06734269 0.058423255 0.06748999
0.06437847 -0.08487056 0.008868863 0.041649822 -0.009589547 -0.07605669 -0.08956659 0.014795639
-0.0031661657 -0.030219918 0.0199607 0.08518609 0.094219066 0.14035024 0.053294502 -0.09027884
0.037799966 0.08222106 0.014605007 -0.04845936 0.07886597 0.116986856 -0.011054515 0.02708761
0.009659006 -0.14576708 0.016682511 -0.048695125 0.08797971 0.046111368 0.034654565 -0.07529935
0.07577521 -0.09835335 0.02680753 -0.06140377 -0.02970162 -0.03321109 0.09128183 0.11471992
-0.09160423 0.0865325 0.050657213 0.059285004 0.10804562 0.021632208 0.04166056 0.07952615
-0.07212337 -0.1099392 -0.050828822 -0.08194668 0.017646804 0.10565372 0.006028133 0.07767591
-0.13700159 -0.08036696 -0.043241184 0.12337368 0.09329859 -0.15187429 -0.14126132 0.15233515
0.048081826 0.016155517 -0.07666493 -0.049656916 -0.039698586 0.1056151 0.12821311 0.1240223
-0.07030998 -0.060978193 -0.028428651 0.135097 -0.08935889 -0.007640638 0.023348276 0.108902894
-0.0819855 0.17167947 0.1130042 0.023074783 -0.092511296 -0.095507935 0.06716347 0.11882922
-0.010155734 0.10298245 0.14378193 0.13201337 0.07971521 -0.025257617 -0.022811921 0.10138439
-0.05919737 -0.05709466 0.1319854 0.098766126 -0.0615279 -0.016511928 -0.06564302 0.08096412
-0.108499914 0.021938965 0.036574706 0.11880788 -0.04437944 -0.07144537 0.019083798 0.1342573
-0.06397529 -0.03327693 -0.027859267 -0.06978226 -0.08421399 0.03682808 0.111671165 0.08783428
-0.014442035 -0.11135088 -0.057709694 0.08792873 -0.06971473 0.024744477 0.0043003857 0.050921362
-0.04848181 0.16586502 -0.020123798 0.118219435 0.02774603 0.08497931 -0.071997374 0.059103344
00000000: 45d3 553d 3d0e e13c 542f 013e 1fc7 abbd
00000010: 0b4f cdbd 7137 f13b bc43 4dbc 413d 76bd
00000020: 588e 273d cfdb 533d ab8c 35bd 5048 533d
00000030: 44eb 8cbc 6998 143c a5bf 1f3e 156f 883d
00000040: 74b0 db3d 6a3f 243e 120b 603d cf2c 26bd
00000050: 4678 cebd f92f 9a3c 86a8 7e3d 294e 473d
00000060: 5a4e 2dbd c857 fa3d c333 d13d 29f1 01bd
00000070: 200b a0bc 1f31 443d 39d7 d03c afdf 3abb
00000080: 7786 0c3c eb7d 893d 739f fbbd f651 81bd
00000090: e34c 81bd 9e18 c8bd 6590 b23d 9fc0 873d
000000a0: aa79 b8bd 2801 343d 9ea7 8e3d 0df1 c3bd
000000b0: a97f 183d f625 90bd 3cf1 2bbd 497c 81bb
000000c0: f0bd 5dbc 31b5 7ebc f85b 8f3d cf40 553d
000000d0: a241 d4bc ed1a 273e 285c 273e a27d 02bd
000000e0: ae46 a43d 1ed4 833d c454 193d db10 0a3e
000000f0: e82f b6bd cc9d 263d 469b 983c 93c4 8fbc
00000100: 3a33 5d3d 469f babd bb5c b83d 59a6 a8bd
00000110: 0c67 91bd d981 69bd 39b7 023e ca42 b33d
00000120: 587c 753d 42a6 adbd 7edd d6bd ea79 d13c
00000130: 3e5a 96bd 9b48 023d 4e6f d53d c478 983c
00000140: b2c3 2f3c a74d f9bb 62b0 18bc 5e52 133e
00000150: cb74 e3bd f0b8 80bd 59a7 aebd 5aca d2bd
00000160: f13e fdbd d6d0 5a3c a11d 803c c7a1 d03d
00000170: 75a0 c03d 9588 283d f160 66bd 57f1 8c3d
00000180: 82b1 fcbd 53e7 1d3d d16f 823d 1d5a e43d
00000190: db60 ecbb e832 a43d eb6d 9fbd a245 80bc
000001a0: 5392 24be 03d2 f3bd 3c83 183e 6ce7 cc3d
000001b0: 7212 c13d 3d76 38bd e008 0abc 3cd6 a43d
000001c0: 28f3 b5bd c1fa 483c 18ef e9bc afa9 4abd
000001d0: 7313 90bd f7ea 89bd 394d 6f3d 3138 8a3d
000001e0: dcd8 833d 9ed0 adbd b54e 113c 0199 2a3d
000001f0: 7a1d 1dbc 9cc3 9bbd b06e b7bd 6869 723c
00000200: 727f 4fbb c38f f7bc 9f84 a33c 0b76 ae3d
00000210: edf5 c03d f9b7 0f3e 564b 5a3d 1de4 b8bd
00000220: 23d4 1a3d 8463 a83d d749 6f3c 527d 46bd
00000230: 7b84 a13d ce96 ef3d ff1d 35bc d6e6 dd3c
00000240: cf40 1e3c f743 15be c3a9 883c 8a74 47bd
00000250: b52e b43d 46df 3c3d f2f1 0d3d 8c36 9abd
00000260: 0930 9b3d 7b6d c9bd 779b db3c 8582 7bbd
00000270: d050 f3bc 5a08 08bd f8f1 ba3d 47f2 ea3d
00000280: 009b bbbd f437 b13d f07d 4f3d d5d4 723d
00000290: 0647 dd3d 0736 b13c 43a4 2a3d 9bde a23d
000002a0: 6bb5 93bd ce27 e1bd e231 50bd a9d3 a7bd
000002b0: 0890 903c fa60 d83d a587 c53b 8c14 9f3d
000002c0: 254a 0cbe 6f97 a4bd ab1d 31bd 57ab fc3d
000002d0: 5513 bf3d ef84 1bbe cfa6 10be bffd 1b3e
000002e0: 73f1 443d 9358 843c 8102 9dbd 0d65 4bbd
000002f0: fc9a 22bd bb4c d83d 4c4a 033e 67ff fd3d
00000300: aefe 8fbd 45c4 79bd 34e3 e8bc de56 0a3e
00000310: cb01 b7bd 515e fabb e244 bf3c 7b08 df3d
00000320: 04e8 a7bd becc 2f3e bf6e e73d 5407 bd3c
00000330: 9076 bdbd aa99 c3bd 008d 893d bc5c f33d
00000340: 3c64 26bc 76e8 d23d 923b 133e 832e 073e
00000350: ba41 a33d 10e9 cebc 11e0 babc 9ea2 cf3d
00000360: f178 72bd 17dc 69bd 2e27 073e e545 ca3d
00000370: ae04 7cbd 0644 87bc d96f 86bd 84d0 a53d
00000380: 3435 debd 58b9 b33c 5ccf 153d 8c51 f33d
00000390: 37c7 35bd f351 92bd a055 9c3c bf7a 093e
000003a0: 7a05 83bd 644d 08bd 1e39 e4bc 00ea 8ebd
000003b0: 6278 acbd 0ad9 163d dab3 e43d 76e2 b33d
000003c0: 499e 6cbc ee0b e4bd 0061 6cbd fa13 b43d
000003d0: 99c6 8ebd eeb4 ca3c 40ea 8c3b eb92 503d
000003e0: dd94 46bd 85d8 293e aada a4bc 081d f23d
000003f0: a44b e33c a209 ae3d 5c73 93bd 5916 723d

bias_hh_l0 f4 [256]
0.064963065 0.029875185 0.06759784 0.15189068 0.12375406 0.112261906 0.058598552 0.060615808
0.0051822127 0.090933315 -0.014135592 -0.12992153 0.029291034 0.03959861 0.14003114 0.07725341
0.025996534 0.14809015 -0.086876765 0.07596505 -0.011058081 -0.10044343 0.06475644 -0.034298636
0.0075249285 0.01335447 -0.03782323 -0.0086567085 0.020842953 -0.037202097 0.08746318 0.108471096
0.104382165 -0.059693377 -0.013506981 -0.01178614 -0.0009747752 -0.07484385 -0.078347795 -0.05989888
-0.10971704 -0.12211864 0.13692904 0.09251634 0.11094254 0.020850215 -0.03713024 0.011142359
0.015191745 0.08716144 0.15053596 0.063554 -0.0211824 -0.04503666 0.075952515 -0.06671701
0.035466854 -0.077037215 -0.034229744 0.054606143 0.018967198 0.09110363 0.10115091 -0.097225375
0.11402811 0.03180042 0.018498214 0.07918926 -0.084272675 -0.09349615 0.09869429 -0.06499295
-0.012766407 -0.07513611 -0.08542155 -0.048543017 0.060663804 -0.096196264 0.029481985 -0.090652086
0.07940476 0.09768431 -0.12613523 0.14562073 -0.12271116 0.021946548 -0.040827192 0.0005779806
0.04828417 0.06105475 0.008985316 0.03413153 -0.07296445 0.043700848 -0.07225479 -0.03963573
-0.013510359 -0.051428545 -0.033489965 0.08306511 -0.12404052 -0.030487048 0.047260024 0.04195533
-0.0670183 -0.11021087 0.12927042 0.09873277 0.113948755 -0.09782322 -0.03833534 0.0066538337
-0.0009296064 0.08110586 0.10386967 0.06204254 -0.07080828 0.116014756 -0.005570766 -0.095361136
-0.046566304 -0.020631328 0.09334659 0.05009702 -0.06156917 -0.05013101 -0.030703163 0.015175972
-0.035959557 0.0046646735 -0.11267995 -0.041996986 0.03785411 0.025023062 0.099847175 0.065668784
-0.0049797823 0.102254555 0.035840992 -0.056315593 -0.006417136 0.021358225 0.043405592 0.09450834
-0.11055066 -0.0135296 -0.017261326 -0.11209765 0.08208404 -0.014016559 0.10748005 0.14232352
0.114496164 -0.07496529 0.031247273 0.093492724 -0.06756022 -0.05170743 0.10364173 0.11006086
0.10977191 0.14077312 -0.033680398 -0.07647566 -0.053218737 -0.041796725 0.07085039 -0.034536157
-0.09172004 -0.060162164 0.09003533 -0.07390889 0.10693365 0.035698097 -0.07666866 -0.07004896
-0.061646488 -0.030231018 -0.017426565 -0.04133934 0.07176273 -0.115864605 0.039294515 0.015153351
-0.027608866 -0.05641395 -0.103845626 -0.013551892 0.025207885 0.00636447 -0.091207445 0.10335458
0.10938598 0.03741319 0.12553598 0.06659407 -0.047332097 0.1288208 0.016586002 0.024137873
0.13290732 0.022356171 0.017548488 0.07786202 -0.06426811 -0.069077715 0.08292521 -0.080991976
0.063209206 0.063137285 0.022463633 0.08012273 0.009069088 -0.08648696 0.022352068 0.15341523
-0.06224743 0.072620295 0.020218717 -0.0075132316 -0.10708636 0.05752506 0.09924609 0.044598546
-0.057449475 0.14351797 0.057554543 0.070910715 0.0222172 0.10525643 -0.010167872 0.01763057
0.09537671 0.048255082 -0.06852401 0.13488354 -0.06409646 0.11613539 0.08482063 0.024179492
-0.02704211 0.030024689 -0.0553628 0.039100155 -0.08718782 0.1287371 0.06579901 -0.02576654
0.10320482 -0.07926784 0.09121222 0.08924385 -0.047529943 0.10934594 0.087189674 -0.10275392
00000000: 5b0b 853d cebc f43c bd70 8a3d 3b89 1b3e
00000010: c572 fd3d 92e9 e53d 0905 703d 4848 783d
00000020: 8dcf a93b 3f3b ba3d f898 67bc 260a 05be
00000030: c0f3 ef3c 2732 223d 5364 0f3e 0937 9e3d
00000040: aff6 d43c f2a4 173e 72ec b1bd 9093 9b3d
00000050: f42c 35bc 49b5 cdbd 069f 843d ba7c 0cbd
00000060: ad93 f63b b5cc 5a3c 88ec 1abd ded4 0dbc
00000070: d7be aa3c 3a61 18bd e51f b33d 1826 de3d
00000080: 51c6 d53d 0b81 74bd 624c 5dbc a71a 41bc
00000090: 0e88 7fba bc47 99bd cf74 a0bd 8758 75bd
000000a0: 54b3 e0bd 5619 fabd 2037 0c3e 3579 bd3d
000000b0: d835 e33d 12ce aa3c e115 18bd 718e 363c
000000c0: cce6 783c b281 b23d 1926 1a3e 9928 823d
000000d0: b686 adbc 5c78 38bd fe8c 9b3d eea2 88bd
000000e0: b145 113d b0c5 9dbd 7d34 0cbd b1aa 5f3d
000000f0: 1961 9b3c 8a94 ba3d 3528 cf3d 191e c7bd
00000100: 9287 e93d 2841 023d 9189 973c fb2d a23d
00000110: 2797 acbd e97a bfbd 3b20 ca3d 061b 85bd
00000120: 312a 51bc f6e0 99bd 7ef1 aebd 0bd5 46bd
00000130: 9c7a 783d 8c02 c5bd 3484 f13c cda7 b9bd
00000140: f69e a23d b60e c83d 9829 01be 9a1d 153e
00000150: fd4f fbbd 3fc9 b33c 6a3a 27bd 9f83 173a
00000160: 9fc5 453d 8c14 7a3d 2637 133c 81cd 0b3d
00000170: 636e 95bd a9ff 323d 52fa 93bd 1359 22bd
00000180: 8e5a 5dbc bda6 52bd c62c 09bd 0a1e aa3d
00000190: f508 febd f9bf f9bc ba93 413d 5ad9 2b3d
000001a0: e440 89bd 3db6 e1bd 775f 043e 6834 ca3d
000001b0: f75d e93d 8a57 c8bd 8405 1dbd 6708 da3b
000001c0: d4b0 73ba d41a a63d 9fb9 d43d 5220 7e3d
000001d0: ee03 91bd 2599 ed3d f98a b6bb b34c c3bd
000001e0: 4fbc 3ebd 0803 a9bc 7f2c bf3d 8832 4d3d
000001f0: f42f 7cbd 2d56 4dbd 3385 fbbc a4a4 783c
00000200: 544a 13bd 1eda 983b bfc4 e6bd 0805 2cbd
00000210: e90c 1b3d 2afd cc3c ad7c cc3d 5b7d 863d
00000220: 712d a3bb d66a d13d 01ce 123d 2eab 66bd
00000230: d746 d2bb 72f7 ae3c 10ca 313d 978d c13d
00000240: 6268 e2bd 41ab 5dbc a067 8dbc 7493 e5bd
00000250: ad1b a83d b6a5 65bc 801e dc3d 42bd 113e
00000260: f77c ea3d 6787 99bd 48fa ff3c 1d79 bf3d
00000270: 035d 8abd 2ccb 53bd 1e42 d43d 9767 e13d
00000280: 18d0 e03d d426 103e 75f4 09bd 459f 9cbd
00000290: e4fb 59bd 0b33 2bbd 021a 913d c975 0dbd
000002a0: b7d7 bbbd 9a6c 76bd 7164 b83d 8b5d 97bd
000002b0: 0800 db3d 2b38 123d 7504 9dbd d475 8fbd
000002c0: 0781 7cbd 0aa7 f7bc 28c2 8ebc 7153 29bd
000002d0: 57f8 923d 6c4a edbd 49f3 203d c345 783c
000002e0: fd2b e2bc 5012 67bd 04ad d4bd c108 5ebc
000002f0: c480 ce3c 0b8d d03b f8ca babd 91ab d33d
00000300: c205 e03d 933e 193d 818c 003e 7962 883d
00000310: 4ddf 41bd 9ae9 033e 5edf 873c cabc c53c
00000320: db18 083e 4a24 b73c d9c1 8f3c 1f76 9f3d
00000330: 009f 83bd 9e78 8dbd b1d4 a93d 1fdf a5bd
00000340: d473 813d 1f4e 813d a705 b83c 6317 a43d
00000350: 8396 143c 1320 b1bd af1b b73c e218 1d3e
00000360: 29f7 7ebd f3b9 943d b9a1 a53c 8e31 f6bb
00000370: 1850 dbbd 669f 6b3d 8941 cb3d f7ac 363d
00000380: 2450 6bbd 60f6 123e 50be 6b3d a339 913d
00000390: d800 b63c af90 d73d 2597 26bc fc6d 903c
000003a0: dd54 c33d 1fa7 453d 5156 8cbd e91e 0a3e
000003b0: 0145 83bd 64d8 ed3d 70b6 ad3d 1214 c63c
000003c0: 6a87 ddbc 56f6 f53c 1ac4 62bd 7c27 203d
000003d0: 878f b2bd a9d3 033e a2c1 863d 5a14 d3bc
000003e0: 0c5d d33d 2d57 a2bd 79cd ba3d 7bc5 b63d
000003f0: c2ae 42bd c4f0 df3d 8090 b23d a670 d2bd

weight f4 [97, 64]
-0.112557314 0.06398676 -0.007706967 0.09618176 -0.045523975 -0.0954516 -0.072260104 -0.09949627
0.12627065 -0.035456773 0.16287129 -0.100495696 0.040426277 0.15638308 -0.18115346 -0.002098479
-0.05535817 -0.08841291 -0.27059272 -0.13300718 0.11584778 0.08536936 0.09256425 -0.046667773
0.04748574 -0.071644336 0.04063176 -0.045285773 -0.012880512 0.13007511 0.07100053 0.060121413
0.038559746 -0.028599132 0.14557002 0.009218831 -0.0705873 -0.019198213 0.005212847 -0.0819342
-0.029932216 -0.06276081 0.065560654 0.02683293 0.031139053 0.07556514 -0.014723361 0.1399488
-0.039044067 -0.008571042 0.01748406 0.042449515 0.068561465 0.06970595 -0.052104514 -0.09615484
0.10190301 0.03045722 -0.12104141 -0.019488279 -0.15572773 0.13533077 -0.083866164 0.1517596
-0.090289265 -0.08998541 0.103016086 -0.118230425 -0.031365093 0.15310407 -0.13304605 -0.11031628
0.09606698 0.041640725 -0.112782 0.14469841 -0.19594501 -0.10206328 0.08025604 -0.010781552
-0.010870602 0.057851877 0.2821986 0.17643252 0.1778962 -0.12702882 0.090602264 0.01625441
-0.021640567 0.12789884 -0.16952832 -0.1680853 -0.04535335 -0.14467399 -0.22372204 -0.05383329
0.13561355 0.036632046 -0.18152235 -0.15343003 0.036638726 0.18753384 0.09881107 -0.015242793
0.06255468 0.06379411 -0.09519159 0.067847855 0.06425187 0.035367504 -0.10395189 -0.19583249
0.09182105 0.119031906 -0.014137301 0.043613423 -0.11288461 0.09872798 0.058831148 0.0312013
-0.10920947 0.18935253 -0.0785564 0.059581734 0.046646614 0.10114648 -0.05524174 0.010074652
0.10898094 -0.09862588 -0.06548979 -0.021955686 -0.007836407 -0.055794433 -0.03833274 -0.060302354
0.018589573 -0.068120345 0.06071734 -0.095981754 -0.084912494 0.07438247 -0.05608653 0.017837347
0.10735819 0.010671857 0.034630943 -0.043295134 -0.13100512 0.071439475 -0.14659952 0.035473026
-0.05056381 -0.042940717 -0.032370564 0.074934155 0.097690135 0.01006003 -0.0032405574 -0.012349796
0.030329352 -0.007364711 0.075946584 0.002911154 -0.09051159 -0.05520946 0.08833526 0.068869755
0.009228019 -0.03503755 -0.124030784 0.097854584 -0.042673208 -0.10974157 0.038023826 -0.04690439
-0.074627474 -0.054333072 -0.04182635 -0.06804622 -0.11910022 -0.060166825 0.012439616 -0.07317133
0.03844659 0.05384519 0.14232683 0.045259893 -0.047305927 -0.11245281 -0.041530993 -0.09179947
0.054605406 -0.051150277 0.023182116 -0.0030553008 0.047180176 -0.024458598 -0.0052668583 -0.081769235
-0.082288325 -0.12624544 0.08546243 0.060376365 0.01708175 0.006845062 0.06901223 -0.036171682
-0.03739127 0.09446821 0.024470543 0.108600855 -0.047065105 0.101239204 0.051054314 -0.011110597
0.022029415 -0.07497126 0.055134267 0.05845405 0.059426796 0.051743243 0.036862556 0.051101733
0.0778193 0.07507267 0.092801325 -0.08201023 0.07718072 0.092133105 -0.02935441 -0.042777725
-0.07267394 -0.0031428616 0.03685559 0.033301234 -0.013640164 0.00023030357 0.03818953 0.043732345
0.039621964 0.10944445 0.017038636 0.06397375 -0.038207084 0.12783681 -0.034124542 0.054838225
-0.07050679 0.01664091 0.09758022 0.030349702 -0.08310748 0.01593145 0.047282252 0.0031782184
00000000: 7384 e6bd 7e0b 833d ba8a fcbb f1fa c43d
00000010: 5977 3abd 217c c3bd 1bfd 93bd b3c4 cbbd
00000020: 184d 013e 1f3b 11bd bbc7 263e b0d0 cdbd
00000030: 0696 253d e322 203e 4b80 39be a386 09bb
00000040: 40bf 62bd d411 b5bd 218b 8abe 0933 08be
00000050: 9a41 ed3d 22d6 ae3d 5392 bd3d b526 3fbd
00000060: 6880 423d 44ba 92bd 7d6d 263d 937d 39bd
00000070: c808 53bc 6932 053e ba68 913d df41 763d
00000080: d3f0 1d3d ba48 eabc 4f10 153e 940a 173c
00000090: 1390 90bd 9245 9dbc 88d0 aa3b 1ecd a7bd
000000a0: 6834 f5bc bd88 80bd aa44 863d bcd0 db3c
000000b0: 5417 ff3c e5c1 9a3d 403a 71bc bd4e 0f3e
000000c0: acec 1fbd 8e6d 0cbc bb3a 8f3c 8bdf 2d3d
000000d0: f469 8c3d fec1 8e3d 8b6b 55bd d4ec c4bd
000000e0: 86b2 d03d 6b81 f93c 8fe4 f7bd e2a5 9fbc
000000f0: 1777 1fbe 2694 0a3e 06c2 abbd de66 1b3e
00000100: 94e9 b8bd 454a b8bd 19fa d23d cb22 f2bd
00000110: af78 00bd 50c7 1c3e 393d 08be 80ed e1bd
00000120: c4be c43d 778f 2a3d 40fa e6bd d22b 143e
00000130: cfa5 48be 8e06 d1bd 475d a43d 1ba5 30bc
00000140: 9c1a 32bc 17f6 6c3d 567c 903e baaa 343e
00000150: 6c2a 363e d813 02be ae8d b93d f827 853c
00000160: 8f47 b1bc eaf7 023e d598 2dbe 8e1e 2cbe
00000170: 6fc4 39bd 6b25 14be 6417 65be 4c80 5cbd
00000180: 47de 0a3e 7c0b 163d ffe0 39be c31c 1dbe
00000190: 7d12 163d df08 403e 755d ca3d e8bc 79bc
000001a0: ab1c 803d 7da6 823d cff3 c2bd d1f3 8a3d
000001b0: 7c96 833d 84dd 103d bae4 d4bd 5088 48be
000001c0: ad0c bc3d 00c7 f33d 23a0 67bc fda3 323d
000001d0: 0c30 e7bd e531 ca3d eef8 703d de99 ff3c
000001e0: 37a9 dfbd a1e5 413e 2ee2 a0bd fa0b 743d
000001f0: 8510 3f3d e325 cf3d 2a45 62bd 2710 253c
00000200: 6631 df3d 5efc c9bd 831f 86bd 69dc b3bc
00000210: 4664 00bc b488 64bd cb02 1dbd 9aff 76bd
00000220: 2949 983c ae82 8bbd bfb2 783d 1592 c4bd
00000230: 9ae6 adbd d655 983d fdba 65bd a11f 923c
00000240: 9cde db3d 03d9 2e3c 2dd9 0d3d 3d56 31bd
00000250: 3526 06be dc4e 923d 2f1e 16be 2a4c 113d
00000260: ff1b 4fbd 9be2 2fbd ff96 04bd 1477 993d
00000270: c411 c83d d3d2 243c 885f 54bb cc56 4abc
00000280: 4375 f83c ac53 f1bb e289 9b3d 0fc9 3e3b
00000290: 245e b9bd 5123 62bd 1ee9 b43d 960b 8d3d
000002a0: 1e31 173c 8983 0fbd da03 febd fc67 c83d
000002b0: 1aca 2ebd 30c0 e0bd dfbe 1b3d d11e 40bd
000002c0: 4ad6 98bd 5b8c 5ebd 1b52 2bbd d15b 8bbd
000002d0: d1ea f3bd 7d71 76bd 88cf 4b3c dada 95bd
000002e0: 2c7a 1d3d c68c 5c3d 20be 113e 7062 393d
000002f0: dcc3 41bd a94d e6bd 671c 2abd 5c01 bcbd
00000300: eba9 5f3d f482 51bd 6ce8 bd3c 713b 48bb
00000310: 0040 413d 665d c8bc 9c95 acbb a176 a7bd
00000320: c886 a8bd 7c46 01be ed06 af3d 354d 773d
00000330: 07ef 8b3c 8b4c e03b 4956 8d3d c228 14bd
00000340: 9727 19bd 8d78 c13d 7376 c83c 206a de3d
00000350: 57c7 40bd 8056 cf3d 541e 513d 3909 36bc
00000360: 0877 b43c 888a 99bd 78d4 613d 846d 6f3d
00000370: 8369 733d b9f0 533d 31fd 163d 0d50 513d
00000380: ba5f 9f3d b3bf 993d 9f0e be3d fbf4 a7bd
00000390: ed10 9e3d 48b0 bc3d a978 f0bc b237 2fbd
000003a0: 13d6 94bd 78f8 4dbb e3f5 163d e066 083d
000003b0: ff7a 5fbc a57d 7139 a06c 1c3d b020 333d
000003c0: a44a 223d 6924 e03d 9c94 8b3c ab04 833d
000003d0: 087f 1cbd a7e7 023e 2dc6 0bbd 0c9e 603d
000003e0: dd65 90bd 8552 883c 23d8 c73d f09f f83c
000003f0: 4134 aabd ac82 823c 09ab 413d a849 503b

bias f4 [97]
-0.09075959 -0.049532313 0.04982056 0.0018221178 -0.012309868 -0.070274346 -0.0978967 0.15142453
0.101580985 0.03902193 -0.08871507 0.0712964 -0.05813178 0.054844826 0.06225176 0.041458003
0.023631237 -0.085866645 0.0542026 0.04928779 0.021622503 0.010451032 -0.08256085 -0.036745418
0.03424174 0.120704375 0.07246741 -0.09219819 -0.0043715416 -0.10150121 -0.10035756 -0.038873482
-0.042893097 -0.064801514 0.07051603 -0.033176612 0.070939705 -0.14251287 -0.06971387 0.057448532
0.0011034419 -0.06897084 -0.025700534 -0.13703148 -0.09585299 0.04803097 0.12067449 0.14786252
0.04255947 0.0053859805 -0.035665356 -0.08058224 -0.05594072 -0.05287481 0.048705067 0.11722283
0.007596049 -0.031088999 -0.07180615 0.036542974 0.053453155 0.07535994 0.121757545 0.0022091593
-0.094156146 -0.079350546 -0.03314327 -0.07390164 0.02948795 -0.008160947 0.107650645 0.068401285
-0.13359928 0.0903901 0.010843607 0.058667053 0.07789993 0.061019737 -0.05602373 -0.013834452
-0.08956293 0.022153769 0.10161654 -0.0014018255 -0.031051375 0.06571017 -0.101437435 -0.027114702
0.09494474 -0.0008789946 0.1004182 -0.099920936 0.02913545 -0.0311107 0.08608806 0.05345766
0.092096224
00000000: 2ae0 b9bd 65e2 4abd a510 4c3d 21d4 ee3a
00000010: 54af 49bc ffeb 8fbd 117e c8bd 080f 1b3e
00000020: b109 d03d 76d5 1f3d 3fb0 b5bd d903 923d
00000030: 971b 6ebd f8a4 603d b4fb 7e3d decf 293d
00000040: 4c96 c13c dada afbd 8c03 5e3d fee1 493d
00000050: ad21 b13c ce3a 2b3c aa15 a9bd 5d82 16bd
00000060: 1141 0c3d db33 f73d cb69 943d 68d2 bcbd
00000070: 263f 8fbb dedf cfbd 4488 cdbd cd39 1fbd
00000080: acb0 2fbd a8b6 84bd b56a 903d 33e4 07bd
00000090: d648 913d e5ee 11be 25c6 8ebd 274f 6b3d
000000a0: 5ea1 903a 9540 8dbd ed89 d2bc fb51 0cbe
000000b0: 934e c4bd 1fbc 443d 3024 f73d 4669 173e
000000c0: d752 2e3d e17c b03b d615 12bd 4d08 a5bd
000000d0: 1922 65bd 4293 58bd f77e 473d 8612 f03d
000000e0: 47e8 f83b 5bae febc 1a0f 93bd 16ae 153d
000000f0: b2f1 5a3d 5056 9a3d 055c f93d 8bc7 103b
00000100: f0d4 c0bd 8a82 a2bd 3dc1 07bd be59 97bd
00000110: b790 f13c 7eb5 05bc f177 dc3d f915 8c3d
00000120: 40ce 08be 721e b93d 62a9 313c dd4c 703d
00000130: 008a 9f3d d5ef 793d 2479 65bd e6a9 62bc
00000140: c56c b7bd d27b b53c 551c d03d 75bd b7ba
00000150: 745f febc 0e93 863d 6ebe cfbd a71f debc
00000160: 6372 c23d 546c 66ba 0fa8 cd3d 59a3 ccbd
00000170: 78ad ee3c dedb febc f04e b03d 6bf6 5a3d
00000180: f29c bc3d
