data/example_dynamics_data/models/office/MLP_q_only.pth (torch, 740431 bytes, 8 tensors)

weight f4 [256, 107]
000000 96 d9 42 3d bd e0 80 3d 8d 43 81 bd 04 cf 95 3c
       0.047570787 0.062928654 -0.063117124 0.01828719
000010 5e 47 67 3d 5c 53 da bd 27 ed 8b 39 f6 7e 79 3d
       0.056464545 -0.10660431 0.00026688838 0.060912095
000020 d5 3e a5 3d 87 d3 8b 3d c0 1e 94 3b 3c 90 02 3d
       0.08068625 0.06827455 0.0045202672 0.031875834
000030 d4 23 aa bd 57 74 f4 bc 2e 14 50 3d 86 53 7e 3d
       -0.08307615 -0.029840631 0.050800495 0.062091373
000040 d8 8b 91 bd e3 3c 9c bc 50 30 cc bc e3 23 0c 3d
       -0.07106751 -0.019072002 -0.024925381 0.03421391
000050 ae 0e d8 3c 6d 90 d0 bd cf 9b 4c bb d9 b8 3c 3d
       0.026374187 -0.10183797 -0.00312208 0.046074722
000060 dd 38 46 3d ab b3 7b bd 26 0d f3 b9 ee b4 b1 bd
       0.048394073 -0.06145064 -0.00046358368 -0.08677088
000070 c2 92 df bd 11 3b ba 3b bc d9 0e 3d 94 77 af bb
       -0.10916664 0.005683311 0.034875616 -0.005354831
000080 e3 0f c0 bd 2e f0 68 3d ff 06 94 3d 32 cb 71 bd
       -0.0937803 0.05686968 0.07227897 -0.059031673
000090 e0 ac f1 3c 5e a8 70 3d 8d 67 47 3c 92 06 a1 3d
       0.029501379 0.058754317 0.0121706845 0.07862581
0000a0 05 b7 ac bd c0 a0 95 bd 11 f4 92 3d e3 04 68 3d
       -0.08433346 -0.07306051 0.07175458 0.056645285
0000b0 73 ae c2 bc 14 37 36 3d 5e e8 ab 3d fd 03 9f 3d
       -0.023764824 0.04448612 0.0839393 0.077644326
0000c0 eb 0f 9b bd 8d b9 45 bd 9d af d2 3d 0c b4 e4 3d
       -0.075713955 -0.04827266 0.10287402 0.11167154
0000d0 8d 06 a7 bd e9 6b 84 bd 85 8b a3 bc cb 76 e5 3c
       -0.08155546 -0.06465895 -0.019963989 0.028010746
0000e0 46 d0 b1 bc c1 8d 19 3d cb a5 70 bc 76 5b 32 bd
       -0.021705758 0.037488703 -0.014687966 -0.043544255
0000f0 e8 7e 9d bd 4d 62 b0 bc f0 3f a6 bd fa f9 d2 bd
       -0.07690221 -0.021531248 -0.08117664 -0.103015855
000100 18 d5 c1 bd 8a 19 ae 3d 3b 44 65 bd 00 00 a4 3d
       -0.094644725 0.08500965 -0.055973273 0.080078125
000110 a5 29 cc bc 72 ab d1 3c ee b5 50 bd cd 3e 84 bc
       -0.024922201 0.025594447 -0.05095475 -0.016143227
000120 0b aa e1 3c 4a bc 6a bd 1a a1 58 3d 6c 4f 2d 3d
       0.027546903 -0.057308473 0.052888013 0.04231207
000130 f2 44 6e 3d 09 2f 41 3d 60 94 65 3e 87 e5 33 3e
       0.05817122 0.047163997 0.22419882 0.17568026
000140 96 8b f6 bd 39 18 23 3e 50 72 8a be 01 57 92 bc
       -0.12038343 0.15927209 -0.2704034 -0.017863752
000150 dd 8f 21 3d 59 d3 39 3d 77 00 97 bd be eb 31 3c
       0.03944384 0.045367572 -0.073731355 0.010859428
000160 50 26 c3 bc fd a9 49 3d 9a 1a 78 3d 3a fe a5 bc
       -0.02382198 0.04923438 0.060572244 -0.020262826
000170 36 61 5b bc 43 7e 50 bd d8 9a f0 bc 56 aa a8 bd
       -0.013389876 -0.050901663 -0.02937071 -0.08235614
000180 23 cd da 3b f3 fa 9d 3b 29 86 43 bd 53 19 ac 3b
       0.0066772862 0.0048211752 -0.047735367 0.0052520423
000190 c5 2d 56 3c da 78 bd bc 77 7f bf ba b9 ce f4 3c
       0.013072436 -0.023128916 -0.0014610131 0.02988373
0001a0 cd 38 0c 3d 30 69 8d 3d 90 50 56 3c 18 53 61 bd
       0.034233857 0.069048285 0.013080731 -0.055010885
0001b0 32 4b 2b 3c 0c 67 ad 3d d9 f3 b1 3d 90 c5 ad 3d
       0.01045494 0.0846692 0.086890884 0.08484948
0001c0 70 c2 02 bd 9a 9d 14 bd 93 db b8 3c 3a 1b 00 3e
       -0.03192371 -0.036283113 0.022565639 0.12510386
0001d0 50 d1 ee bb 5b a6 a4 bd a9 3d 33 bc 55 79 e6 bd
       -0.0072881356 -0.08039542 -0.010939994 -0.11253611
0001e0 06 c3 15 3d 91 a1 77 bc 76 4f 24 bd b6 e9 c8 3d
       0.036562942 -0.015114204 -0.040114842 0.09810202
0001f0 38 44 37 bd 21 9d b7 3d 59 af 08 be b9 cd 65 bd
       -0.044742793 0.08965517 -0.1334814 -0.056104396
000200 6c 8e 3f bd 68 7c 09 3e 13 b3 6b 3d d7 4b 93 3d
       -0.046766683 0.13426363 0.057543825 0.071922
000210 04 28 bc 3d 2a b7 fe bd b9 98 50 3c 7c fd c4 bd
       0.0918732 -0.124372795 0.012731724 -0.09618661
000220 41 b7 a5 3d 6a f2 f5 bc 12 d6 74 bc 90 f8 6d 3d
       0.080915935 -0.030022819 -0.014943616 0.058098376
000230 45 a1 49 3d 1b f6 b8 3d 6c d8 97 b9 cc e5 8b bd
       0.049226064 0.09031316 -0.0002896221 -0.0683094
000240 6b 03 e0 3d b6 e4 9c bc 2e 42 9e 3d 8c a8 10 3d
       0.10938152 -0.019152027 0.077274665 0.03531699
000250 d7 f0 4f 3d 33 d1 0d 3d 8c 20 35 bd 01 15 16 bd
       0.050766792 0.034623336 -0.044220492 -0.036641125
000260 70 8a db 3c 74 e3 b6 3d e5 f2 9d 3c 6f 09 a1 3d
       0.02679941 0.08930102 0.01928086 0.078631274
000270 55 2b 8b bc 10 16 90 3d 4d 27 99 3d ec a0 9e 3d
       -0.016988436 0.07035458 0.07478199 0.07745537
000280 7c 4b 44 3d 72 ee 8d bd 49 71 2e 3c e7 00 cb 3c
       0.04792355 -0.069302455 0.0106471265 0.024780704
000290 bb b8 47 bd c8 e8 d3 3d 4e 1d b0 3b d7 64 48 3d
       -0.048760157 0.10347134 0.005374587 0.048924293
0002a0 bc 94 a6 3c 85 40 d1 bd 2d 9f 0f be 17 b4 84 bb
       0.020334594 -0.10217384 -0.14025564 -0.0040497887
0002b0 1f 39 85 3d 61 b2 8f 3c 36 9d ac bd ad f0 19 bd
       0.065050356 0.017541112 -0.08428423 -0.037583042
0002c0 4d 0f c0 bd 2d 67 88 bd 67 ca b7 3d f2 56 3e bb
       -0.093779184 -0.06660304 0.08974152 -0.0029043523
0002d0 1e da 05 be 8d d6 66 bc a3 c9 02 3c b9 cf 6c 3d
       -0.13071486 -0.014089239 0.007982644 0.057815287
0002e0 aa 9d aa 3d 5e 30 4a 3e bb 0f 3a bd 0b 07 30 3d
       0.08330853 0.19745013 -0.045425158 0.042975467
0002f0 fa f2 53 3e f4 2f c5 be a3 b7 0f be c1 8c 13 3d
       0.20698157 -0.38513148 -0.14034896 0.036022905
000300 9b 30 32 39 8b 27 28 3d 62 17 bf bc 13 4f 97 bd
       0.0001699351 0.041053336 -0.02332658 -0.07388129
000310 06 c9 a3 3d ee 1d 21 3d 9b 76 0c 3e 60 71 03 3e
       0.079973266 0.039335184 0.1371712 0.12836218
000320 1b 07 4c 3d 30 c8 05 bc 7f 60 8d 3c cd 6e c6 bc
       0.049811464 -0.008165404 0.017257927 -0.024222756
000330 cc 16 86 bd b6 02 e2 bc 82 6b 77 bd 86 78 92 3c
       -0.06547317 -0.027589183 -0.06040526 0.017879736
000340 3e 72 ff bd 02 8b 85 3d 10 18 7a 3c 66 7b bf 3d
       -0.12472962 0.06520654 0.015264526 0.09349708
000350 bb fd cc 3d f5 b2 0e bc f9 47 47 3c 4d c0 b4 bd
       0.10009333 -0.008709659 0.012163156 -0.08825741
000360 12 95 51 bd 41 ae 3c bb 76 00 b5 3d 3e 4d e3 bc
       -0.051167555 -0.0028790387 0.088379785 -0.027746793
000370 6d 19 05 bd 8f a4 01 bd 00 fb 8c 3d 80 4d 78 bd
       -0.03249495 -0.031651076 0.06883812 -0.060620785
000380 a7 02 72 3d 32 b5 c3 3c 06 22 aa bd 1a 0f 68 bd
       0.05908456 0.023890112 -0.08307271 -0.056655027
000390 d7 76 f3 bd d6 81 02 3c 45 c8 56 bd ac b3 78 3c
       -0.11887901 0.007965526 -0.052437086 0.015179556
0003a0 0f c0 bf bd b0 24 49 3d 78 cc 89 bd d0 5a 08 3d
       -0.09362804 0.049107254 -0.067284524 0.03328973
0003b0 84 e0 78 bd 09 e1 07 3d a3 94 56 bd cb 03 93 bd
       -0.06076099 0.033173595 -0.052387845 -0.07178458
0003c0 54 fd 7f 3d 5b 00 fb bc 90 29 42 3d d5 9b e5 3d
       0.062497452 -0.030639818 0.04740292 0.11211363
0003d0 c6 d6 4b bd 0c 7a be 3b 85 af c5 bd 57 b2 b8 bd
       -0.04976537 0.005812889 -0.09652618 -0.090183906
0003e0 65 ba 13 3d 11 2b 4f bd a9 0d f6 bd 94 13 93 3c
       0.03606643 -0.05057818 -0.12014324 0.017953672
0003f0 87 46 f2 3c 30 4f 1d bd 72 17 ab bd a1 c8 c5 bb
       0.029574646 -0.038405597 -0.08354081 -0.0060358797

bias f4 [256]
000000 22 f7 34 3d 03 c2 e6 bd 8a b6 60 bd 12 a6 c1 bd
       0.044180997 -0.112674735 -0.054861583 -0.094555035
000010 11 c5 dd bc fc d0 c8 bc df 05 fe bd 2c 1e 91 bd
       -0.027071508 -0.024513714 -0.124034636 -0.07085833
000020 62 7b c4 bd ab 88 c9 bc 86 17 49 3d 4b a9 ca bd
       -0.09593846 -0.024601301 0.0490947 -0.09895571
000030 8b 84 43 bd 35 a1 8d bd 50 bc e2 bd 01 44 ce bd
       -0.047733825 -0.069155134 -0.11071074 -0.100715645
000040 60 08 bf 39 4c 09 57 bd 4f 41 45 3c d3 70 86 bd
       0.000364366 -0.0524991 0.012039497 -0.06564488
000050 c6 b0 48 3c f4 a0 bf 39 43 c9 ac bd be 0c d1 bc
       0.012249177 0.00036550278 -0.08436825 -0.025518771
000060 d0 83 89 3d bb 86 58 3d 4d d9 81 bd 3d 7b ca bc
       0.06714594 0.052862864 -0.06340275 -0.024716968
000070 69 56 ba bd 8f f6 66 3d fb 3d 8c bb 63 ca 4f bd
       -0.09098513 0.05638748 -0.0042798496 -0.05073012
000080 11 be 1d bd 9d d7 da 3b 0d 78 ed bd 47 b8 0e bd
       -0.03851134 0.006678535 -0.115951635 -0.03484371
000090 9d 98 8a bd 92 e9 cc 3b 9f f9 37 3c e9 0d a9 3d
       -0.0676739 0.0062534297 0.011228948 0.08254606
0000a0 ab c0 9c bd fe dc af 3b a3 95 96 bd 1c a7 46 bd
       -0.07653936 0.0053669205 -0.0735276 -0.04849921
0000b0 75 d3 08 bd 9c db 78 3d 52 76 07 3c 2b 5f a6 3d
       -0.033404786 0.06075631 0.008267956 0.081236206
0000c0 60 30 e9 ba 29 bc 4a bd c3 40 9a bd 56 af dd bc
       -0.0017790906 -0.04949585 -0.075318836 -0.027061146
0000d0 c9 7c 22 3c 0b 7e 3d 3d 17 43 47 3c 24 1d da bc
       0.009917446 0.046262782 0.012161992 -0.026625223
0000e0 dd 4f 11 be 35 8b aa bd 67 34 64 bd 29 32 9b 3d
       -0.14190622 -0.08327333 -0.055714037 0.07577927
0000f0 44 2e 74 3c 28 bb 1b bd 8a 23 d3 bd bd b0 c8 bd
       0.014903609 -0.038020283 -0.10309513 -0.09799335
000100 68 3d b2 3d ab b0 67 3d 42 ac a3 bc 56 8a 29 3d
       0.087031186 0.056564968 -0.0199796 0.041391693
000110 cb 76 74 bd b1 59 d8 bd b4 31 e2 bc 4f 5b 39 bd
       -0.059683602 -0.10563982 -0.02761159 -0.045253094
000120 9d 84 86 3b 08 aa 16 bd e7 66 14 bd a2 2a a2 bd
       0.004105164 -0.03678325 -0.036230948 -0.07918288
000130 e9 91 28 3d 03 3b 90 bd 31 82 3d bd e9 c9 14 bd
       0.041154776 -0.070425056 -0.04626674 -0.03632537
000140 22 b5 50 3d 0b 2a a4 bd bf 0a 5f 3c c5 1e 93 bd
       0.05095399 -0.080158316 0.013613402 -0.07183603
000150 fc 25 85 3d 29 41 f9 b9 34 86 08 3c e3 51 bc 3b
       0.065013856 -0.0004754153 0.008332778 0.0057470663
000160 89 78 6f 3d f2 6f 01 be 10 69 fd bd c0 1b 28 bc
       0.05846456 -0.1264036 -0.12373555 -0.010260522
000170 9c d9 7a bd 72 f0 7a 3b f0 cb 2d bd 15 9d ed bd
       -0.061242685 0.003829029 -0.042430818 -0.11602227
000180 1f 8f 14 3c e8 e1 76 3d 4a b8 c2 bd 94 68 b6 bd
       0.009067326 0.060274035 -0.095078066 -0.089066654
000190 8e bb e1 bd f0 96 a3 3c 82 af 36 3d f7 51 c2 bd
       -0.11022101 0.019969434 0.04460097 -0.0948829
0001a0 57 19 47 bc 2e ed 95 3c d4 d6 97 bd 13 73 f6 bd
       -0.012152038 0.018301573 -0.07414022 -0.120336674
0001b0 cb ea a1 bd aa e9 2e bc 77 19 a9 3d bc e4 00 3d
       -0.07906111 -0.010675827 0.0825681 0.031468138
0001c0 ea 52 05 be 27 58 09 bd 79 d5 87 bd 91 4e af 3c
       -0.1301991 -0.033531334 -0.066325136 0.021399768
0001d0 2b e7 ae bd be 9d 34 bd b0 48 5b bc 8e 27 ec 3c
       -0.085401855 -0.044095747 -0.013384029 0.028827455
0001e0 a6 c6 35 3c c9 5c 57 3d 8b 6a c2 bc 97 ca 20 bd
       0.011094725 0.05257872 -0.023732444 -0.039255705
0001f0 2d 55 54 bd f1 e7 83 bd f5 ce a1 bd b2 0c 0f bc
       -0.051839042 -0.06440724 -0.07900802 -0.008731054
000200 e7 1a 67 3d 4f a7 c1 bd 9f d9 bf 3c 56 11 35 3d
       0.05642214 -0.0945574 0.0234192 0.044205986
000210 53 7f f3 3c 1d 50 b0 3b 94 89 d0 bd 1d 96 3b bd
       0.029723799 0.005380644 -0.10182491 -0.045797456
000220 0d 60 9a 39 53 30 3c bd e8 81 32 3d 1c ae 8c bd
       0.00029444732 -0.045944523 0.04358092 -0.06869146
000230 79 f7 4b 3c 8c 9f 17 bd 5e 17 c7 3d 72 a1 1c be
       0.012449139 -0.03701739 0.09721254 -0.15295961
000240 d4 4f f9 bd fe 26 05 3d a2 bd 53 bd 11 5e dc bd
       -0.12173429 0.03250789 -0.05169452 -0.10760129
000250 9a 3d 4a bd e9 a4 e2 bd c1 c7 17 be 0e 00 d2 bd
       -0.049375154 -0.1106661 -0.14822294 -0.10253917
000260 85 bc d7 bd fd 22 94 bd 7b fa a0 3d a3 8d 90 3d
       -0.10534004 -0.07233236 0.07860275 0.07058265
000270 59 73 c3 bd 43 cf 11 bd a8 1c 5d 3d 2d c4 aa bc
       -0.09543485 -0.03559805 0.053982407 -0.020845497
000280 7d 7d 81 3a a0 fd 06 bd 16 ec 1b bd d1 89 04 bd
       0.0009879317 -0.03295672 -0.038066946 -0.032357994
000290 d4 57 91 bc a3 22 ec bd e2 f1 24 bd b7 25 29 bd
       -0.017742075 -0.11530044 -0.04026974 -0.041295733
0002a0 61 f2 9c 3d 87 8d 87 bd 33 7c 20 bd fa ef 51 bd
       0.076634176 -0.06618791 -0.039180946 -0.05125425
0002b0 c1 13 ff bc 52 19 29 3d e1 92 72 bd 96 f2 2e 3c
       -0.03113735 0.041283913 -0.059222106 0.010677954
0002c0 31 3d d0 bc 77 2c 5b 3d f4 6d dc bd 97 1c 87 bd
       -0.025419803 0.0535092 -0.107631594 -0.0659725
0002d0 71 90 54 3b 87 9f c4 3c c0 8c e9 3c 51 72 02 be
       0.0032434727 0.02400185 0.028509498 -0.12738921
0002e0 86 20 8b bc 2c 70 7e bd 76 a7 7e 3d bb ea cf bd
       -0.016983282 -0.062118694 0.062171422 -0.10152193
0002f0 25 2c 7f 3d d1 33 da 3c d3 d9 a3 bd ae f0 7e ba
       0.06229796 0.026636036 -0.08000531 -0.0009725195
000300 49 47 b0 bd 5e c2 0e bd ea d7 a1 bc 5b c4 8f bd
       -0.086073466 -0.03485333 -0.019756276 -0.07019874
000310 1b 1c 25 bc 0a 04 f5 bd f9 d7 07 bd dd fc e0 bd
       -0.010077502 -0.11963661 -0.033164952 -0.1098573
000320 5b f6 4e 3d 73 95 21 3d 4c c5 a1 bc be 94 29 3d
       0.05052791 0.039449167 -0.019747399 0.041401617
000330 8e 96 ad bc 8d f7 bf 3d 60 b6 e7 bb 38 97 73 3d
       -0.021189954 0.093733884 -0.0070713013 0.059470385
000340 43 df 09 be 63 6e ac bd 3a 7a 67 bc 7f e6 54 bb
       -0.13464074 -0.08419492 -0.014128262 -0.003248602
000350 cd 2b a3 bc 1a a5 7b bd bb 2c bc bc 9c 6c 74 3c
       -0.019918347 -0.06143675 -0.022970548 0.014918473
000360 2f 85 b4 bd e3 bb 67 3d 23 2d 2e 3b b9 b0 0c bd
       -0.08814465 0.056575667 0.0026577197 -0.034348223
000370 45 79 16 3d ad 89 24 3d 0d c2 22 3d 44 be 15 3b
       0.036736745 0.04017036 0.039735842 0.0022849003
000380 50 fd de 3c 71 50 d6 ba c9 e4 37 bb 9d 05 d4 bd
       0.027220398 -0.0016350878 -0.002805995 -0.10352633
000390 1b ba 89 3d 2e ce 78 bd 7d 3e d5 bd 2d 6d 86 3d
       0.0672495 -0.060743503 -0.10412309 0.065637924
0003a0 5a 9d 03 3d fa 7e 93 bd 58 fc f1 bd 17 20 c4 bd
       0.032132484 -0.07201953 -0.11815709 -0.09576433
0003b0 f4 b5 d9 bb aa 2d b8 bc 1f 68 15 bd 1d b7 7c 3d
       -0.006644005 -0.022482712 -0.03647625 0.061698068
0003c0 05 9d e4 bd c5 84 83 bd 46 ff 39 3d c9 04 e6 bd
       -0.111627616 -0.06421808 0.045409463 -0.112313814
0003d0 e4 e5 b0 3c 8d f9 97 bd cb e5 ca bd 31 50 f8 bc
       0.021593995 -0.07420645 -0.09907111 -0.030311676
0003e0 b0 d9 31 bd 8e fb 44 bd c4 7a 81 bd 99 bc fc 3c
       -0.043420494 -0.048091464 -0.06322244 0.03085165
0003f0 ae a7 60 3c a5 23 b1 bd 3d cf 93 bd 9e a6 01 bc
       0.013711853 -0.08649377 -0.07217262 -0.00791326

weight f4 [256, 256]
000000 69 7b 88 bc d4 d3 25 bd c0 c4 9e 3c 1a 20 56 3d
       -0.016660409 -0.04048522 0.019380927 0.05227671
000010 56 44 ef bb a5 ed 35 3d 1e f4 73 bd a0 0b 56 bc
       -0.0073018475 0.04441609 -0.05955898 -0.013064295
000020 30 7c 00 3c b8 12 f8 3c 82 bf 70 3d ec f5 7d bc
       0.007842109 0.030282363 0.058776386 -0.015500527
000030 d7 9c a4 be be 2a 29 3d 92 7e 09 3d 2f 2c dd bc
       -0.3215091 0.041300528 0.033567972 -0.026998607
000040 6f 81 52 bd f1 a6 d3 3a f1 6c 19 3d fd 5b c2 3b
       -0.05139297 0.0016147775 0.03745741 0.005931376
000050 36 5b b1 bd ef 96 83 bc 52 63 93 3c 7e 58 40 3d
       -0.08659975 -0.016063182 0.017991696 0.046959393
000060 e3 e2 a5 bd ff 72 ac 3d ae 7c d5 3c 31 29 0b 3d
       -0.08099916 0.08420371 0.026060428 0.03397483
000070 ec 12 8b bb 15 a5 8b bd ec 1b 1a bb 2f 6e 60 3d
       -0.004244199 -0.06818596 -0.0023515178 0.05479258
000080 15 83 9f 3c 79 fa 6f bc 0c 16 3d 3d 5f 85 ec 3c
       0.019471684 -0.01464712 0.046163604 0.02887219
000090 18 19 a8 3c 2e 08 cd bc 12 d1 1c 3d d1 fb 9f 3c
       0.020519778 -0.025028314 0.038285322 0.019529255
0000a0 51 22 db bd d4 3d 1d bc 31 24 49 bd 2d 35 a5 bd
       -0.10699905 -0.0095972605 -0.04910678 -0.08066783
0000b0 66 ca 2f bd f1 c2 d0 3b 4b 7c 36 bd 08 af ea 3b
       -0.04291763 0.006370895 -0.04455213 0.0071619786
0000c0 5d c0 1b 3c 82 8b 0d bd 31 3f 10 3d bb 94 a9 3d
       0.009506312 -0.034556873 0.035216514 0.08280321
0000d0 ee 14 36 bb 27 2d 28 bd 91 7c 82 3c 2e c9 f7 3c
       -0.002778347 -0.041058686 0.015928539 0.030247297
0000e0 2f 9c 0d bc 4b c7 ff 3a 5b be 8b 3c 79 8d a8 3d
       -0.008643194 0.001951435 0.017058542 0.08230109
0000f0 07 a2 41 bc dc 6a b9 3c c3 13 f9 bd dc 3d 01 bd
       -0.0118184155 0.022633962 -0.121619724 -0.031553134
000100 88 a9 17 3d 99 1f 97 bd d4 29 d9 3b c4 c4 45 3d
       0.037026912 -0.07379074 0.0066273008 0.048283353
000110 c0 eb 68 bd 21 71 c8 bc 26 5a b9 bc 00 fb 37 3d
       -0.056865454 -0.024468007 -0.022625994 0.044917107
000120 e7 61 1a bd e8 1c ef bd 02 df 35 3d fd eb 8c 3d
       -0.037691023 -0.11675435 0.04440213 0.06880949
000130 3a 17 c7 bc b2 4b 91 3c 4d 78 a8 bc b3 00 92 bc
       -0.024303067 0.01773629 -0.020565176 -0.017822599
000140 bb df 44 3d 91 da 16 bd 1d 69 4e 3d c7 eb 93 bc
       0.04806493 -0.036829535 0.050393213 -0.018056763
000150 6c 11 39 3c c5 d7 01 3d 16 1a 45 bb e6 9f 30 bd
       0.011295658 0.031699914 -0.0030075363 -0.04312124
000160 74 b1 61 3d 93 fb cd bc 36 5d 45 3d ca 84 3e bd
       0.055100873 -0.025144374 0.048184596 -0.046513356
000170 10 63 c8 bc ef b5 7a bc 9f ed c3 3c 85 f9 04 3c
       -0.0244613 -0.015302165 0.023917018 0.008116131
000180 dc 1b ca 3c cf f8 a5 bc 86 12 31 bd 44 4d 36 3e
       0.024671488 -0.020260243 -0.043230556 0.17802912
000190 aa 35 9c bd f1 22 a2 bb 6c db df 3d 3b e4 e2 3d
       -0.07627423 -0.004948013 0.10930523 0.11078688
0001a0 b7 c3 06 bd c2 1b 9a 3b 3b fc 11 3d d1 3c 82 bd
       -0.032901492 0.004703016 0.035640936 -0.06359256
0001b0 f1 73 df bc 8f b6 f9 bc 50 12 20 bd 55 0c 0f 3c
       -0.027276965 -0.030482559 -0.039079964 0.0087309675
0001c0 ac 69 24 3d ae 86 d5 bd 2b 12 38 3d 26 3a e3 bc
       0.04013984 -0.10426079 0.0449392 -0.027737688
0001d0 23 88 97 3d 56 b3 b5 3c 24 35 d2 3d 59 ec 8b bd
       0.07399013 0.02218024 0.10264042 -0.06832189
0001e0 f1 06 86 bb d4 ea 46 bd 20 16 75 3d 84 71 89 3b
       -0.004090183 -0.048563793 0.059835553 0.0041944403
0001f0 09 b8 3d 3d 82 bc 2e 3d 1a 0a 3e 3c 6f 11 bb 3d
       0.046318088 0.042660244 0.011599088 0.091341846
000200 6a 0a 89 3c f9 07 8a be 6c 87 ab bc 8c e2 49 3d
       0.016728599 -0.26959208 -0.020938598 0.049288318
000210 3c b3 cc 3c 62 98 8a bc ff c3 e0 bb 81 48 cb 3c
       0.02498781 -0.016918365 -0.006859302 0.024814846
000220 d3 da c9 3c d2 26 3d bc 8b c3 e1 3c 77 48 20 bd
       0.024640476 -0.0115449 0.027559062 -0.039131608
000230 a6 b9 d3 bc 32 5a d1 bc c6 44 01 bc 70 f4 33 bd
       -0.02584536 -0.025555704 -0.007889932 -0.043934286
000240 f1 8b b2 bc 68 cc 04 3c e9 74 cb 3c c6 ab 48 bd
       -0.021795245 0.008105375 0.02483602 -0.04899194
000250 e5 20 a1 3c 32 af 0d bd 0d c8 28 3d c9 1c 4a bd
       0.019669006 -0.034590907 0.04120641 -0.049343858
000260 1a 71 6d 3c f6 d0 28 3c 62 c9 15 3d 68 d0 05 ba
       0.014492298 0.010303726 0.036569007 -0.00051046023
000270 e4 2a 88 3c 69 64 0b bd 59 0a d6 3d cf 87 d2 bb
       0.016622014 -0.034031305 0.104511924 -0.006424881
000280 98 05 28 3d f0 00 af bc 26 b8 50 bd 6d eb 09 3d
       0.04102096 -0.021362752 -0.050956868 0.033671785
000290 fc 8c d2 bd cc f7 08 3d ca b8 7e 3d 7c 21 b4 bd
       -0.10280797 0.033439443 0.062187947 -0.08795449
0002a0 1e 36 09 3d 86 3d 3f bc 55 53 6b bd e3 68 9c 3c
       0.033498876 -0.011672383 -0.05745252 0.019092983
0002b0 92 3c 5f bd 79 33 1f 3d d4 73 04 be 5d f3 2d bd
       -0.054501124 0.038867448 -0.1293481 -0.042468417
0002c0 d2 cc d8 bc 9a a9 d7 bc 7b d3 b4 3d 53 26 97 3d
       -0.026464853 -0.02632599 0.08829399 0.07380357
0002d0 b2 cf 79 bc bb 99 ae bd 0c 89 8d bb ae 89 4e b9
       -0.015247272 -0.085254155 -0.004319316 -0.0001969698
0002e0 ba 14 9f bc aa f1 e5 ba c3 dd 31 bd b3 93 14 3c
       -0.019419063 -0.0017543335 -0.04342438 0.009068417
0002f0 ed 33 99 3e 6c c0 34 bd 77 60 54 3d 3c 83 6f 3d
       0.2992243 -0.04412882 0.05184981 0.058474764
000300 69 6a 01 bd 5b c2 d9 3c 23 89 e6 3c ed 31 01 3d
       -0.03159562 0.026581934 0.028141564 0.031541754
000310 3e 29 99 3c f7 e6 48 bb 07 79 d6 3d 5a 80 69 bd
       0.018696424 -0.0030655244 0.10472303 -0.05700717
000320 9d d9 88 3d 52 c5 d4 bc 01 6f b2 bc 78 ca 65 bd
       0.066821314 -0.025972996 -0.021781446 -0.056101292
000330 00 32 a5 bd 20 5e 59 3c f1 ca 10 3d 57 49 61 bd
       -0.08066177 0.01326707 0.03534979 -0.055001583
000340 08 47 d7 3c 5b c0 14 3d 6e 44 ba ba 5d 2e 9a bc
       0.026278988 0.036316257 -0.0014211067 -0.018820936
000350 27 6f ad 3b 4a 35 9e 3d a0 4d c3 3c 69 71 3c 3b
       0.0052927914 0.07725008 0.023840725 0.002875412
000360 53 33 8f 3d 15 09 8b bd 0b 22 cd bc 7e 5f 29 3d
       0.06992211 -0.06788842 -0.025040647 0.041350834
000370 92 19 c4 3e 3a 47 88 3c bc 42 04 bc 60 8f 2d 3c
       0.3830076 0.016635526 -0.008072551 0.010593265
000380 a9 79 a3 3c d6 eb 46 bd fb 3a e4 bc 6d 89 ca bc
       0.019955473 -0.048564754 -0.027860155 -0.024723733
000390 86 90 b3 3d 30 65 8b 3d ea 97 4a bc bb 5b 8c bb
       0.087678 0.06806409 -0.012365321 -0.004283396
0003a0 7c 47 ee bc d6 c4 33 bc 2f 23 88 3d 3d 23 2c 3d
       -0.02908682 -0.010972222 0.06647336 0.042025793
0003b0 71 bb a7 bd 27 26 74 39 7f d6 6c 3d 8a bd 13 bd
       -0.081900485 0.00023283866 0.057821747 -0.03606943
0003c0 2c 0d 9f bc 2b 0f 57 bd af 7b 46 3d 07 26 0b bb
       -0.01941546 -0.0525047 0.048457798 -0.0021232383
0003d0 8c 9a 4d bd 2a 1f 39 bc f5 b3 04 bd c0 82 cd 3c
       -0.050196216 -0.011298934 -0.032398183 0.02508676
0003e0 6e 19 14 3d a3 a4 d9 bd c0 4e 69 3d ed 54 0a 3d
       0.036157064 -0.10627105 0.056959867 0.033772398
0003f0 5e 6b f1 3d 61 e5 32 bc 08 85 e3 3c a1 5e b6 3c
       0.11788057 -0.010918946 0.027773395 0.02226192

bias f4 [256]
000000 38 21 02 3d cc e7 90 bc 34 b6 76 bd ee 67 81 3b
       0.03176996 -0.017688654 -0.060232356 0.003949157
000010 06 17 1b bd 7c 57 37 3c 9d e6 2d bd b7 3b 15 bd
       -0.037863754 0.0111902915 -0.042456258 -0.0364339
000020 f7 32 1d ba 14 ad 31 3c c4 37 8b bd 58 9f 48 bd
       -0.0005996669 0.010844488 -0.06797746 -0.048980087
000030 07 47 06 3b 69 fa 82 bd 8e 8c 59 3d 6e 5a b5 bc
       0.0020489113 -0.06395418 0.05311256 -0.022137847
000040 1e f7 ca bd b9 2b c9 bd 19 51 4d bd 74 2b 45 bd
       -0.09910415 -0.098227926 -0.05012617 -0.048137143
000050 bf cb 6b 3d 68 ad d6 bc 10 07 2c bd 2b a2 ec bc
       0.057567354 -0.026205733 -0.041998923 -0.028885921
000060 10 56 2b 3d 01 39 9d bd 26 4c c9 3c 65 17 9e bc
       0.041830122 -0.07676888 0.024572443 -0.019298265
000070 e7 0e c1 bc a9 ef 95 3c e1 57 17 bd bd 89 5f bc
       -0.023566676 0.018302755 -0.036949042 -0.013643679
000080 27 3a f8 3c c9 b1 58 bd 9b 68 17 bd 4f 9b da 3d
       0.030301167 -0.052903924 -0.036964994 0.10674154
000090 68 5b a6 bc db eb e3 bd 9b b3 6a bd 68 4c e4 bc
       -0.020307258 -0.1112897 -0.05730019 -0.027868465
0000a0 53 cb 12 bd bc c8 a9 3c fc f6 41 3d 11 ed c7 bd
       -0.035838436 0.0207256 0.047354683 -0.09762014
0000b0 bb 56 30 39 54 90 6a bd 4b 85 31 3a b1 c7 e8 3b
       0.00016816978 -0.05726655 0.00067718764 0.007103883
0000c0 dc 94 8e bd f8 b1 d9 bd 71 33 dc 3c eb 27 46 bb
       -0.069619864 -0.10629648 0.026879998 -0.0030236195
0000d0 40 6c 94 bc 60 7e bb bd 98 da a5 3c cc ff 40 bd
       -0.018118024 -0.091549635 0.020245835 -0.047118947
0000e0 54 c7 37 3d df be 03 3b ee 9e 9b bd 8e 92 fe bc
       0.04486783 0.0020102782 -0.07598673 -0.031075742
0000f0 af f7 a1 bc ec 89 6a 3c 62 2a 65 bd d4 1e f2 3c
       -0.019771425 0.01431511 -0.055948623 0.029555716
000100 e8 58 71 ba 43 1b 1c 3c 6b f4 db bc e7 7a 3f bd
       -0.00092066685 0.009527984 -0.026849946 -0.04674807
000110 71 1d 8b bd 5c c9 71 3c d0 72 5d bd 82 3a b0 bc
       -0.06792725 0.0147574805 -0.05406457 -0.021512274
000120 c6 81 d5 3c 4a 03 e1 bd 93 97 fd bc 8e 59 87 bd
       0.026062857 -0.109869555 -0.030956065 -0.06608878
000130 22 2f 80 bc 64 7c 27 3c ec a8 98 bd aa c1 ce bc
       -0.015647475 0.010222528 -0.07454094 -0.02523883
000140 37 19 b0 bd 45 b0 0d bc db aa 85 3c e2 f3 03 be
       -0.08598559 -0.008647983 0.016316822 -0.12886003
000150 c0 f5 8e bc 84 fb 95 bd 48 6f 45 3d 25 c5 0c bd
       -0.017451167 -0.073233634 0.04820183 -0.0343677
000160 c7 61 a9 bd c8 76 f5 bc a7 07 30 bd b9 54 0e bc
       -0.08270603 -0.029963866 -0.042976048 -0.008687192
000170 02 e2 7d bc 76 29 a0 bd 97 16 d4 3c 63 98 0e be
       -0.015495779 -0.07820408 0.025889678 -0.13925318
000180 ff 30 63 bd c8 20 85 39 28 cc dd bd 84 82 9c 3b
       -0.05546665 0.0002539216 -0.10829955 0.004776301
000190 cf 13 9f 3a a3 bd e5 bc b7 e3 0a be 0c da 2a bd
       0.0012136641 -0.028044527 -0.13563429 -0.041711852
0001a0 c7 62 d0 3a 24 ee 1f bd 5f ff 0a bd 81 77 99 bb
       0.0015898579 -0.039045468 -0.033934947 -0.0046834354
0001b0 44 89 5c 3c 66 83 c4 bd 62 f7 8d 3c 21 c7 94 3c
       0.013460461 -0.09595375 0.017329875 0.018161358
0001c0 24 b6 c2 3c 4a ef 80 3d 36 69 c9 bd ec 71 cf 3d
       0.023768492 0.06295641 -0.098345205 0.10129151
0001d0 6a 58 ce bb cd 08 a0 3c bc c0 5c 3a 7f 4f 8a 3b
       -0.006297161 0.019535447 0.00084210536 0.0042209025
0001e0 76 1a b5 3c 95 77 ed bb ed ab 82 3d 36 de 7f bd
       0.022107344 -0.0072469213 0.063804485 -0.062467776
0001f0 80 27 cc bc 76 af 05 3b ba e6 17 bd fc 6a d2 bc
       -0.024921179 0.0020398772 -0.037085272 -0.02568578
000200 6d c2 ad 3d bd 98 c8 bc 23 1d 8d bd 6f da bb 3d
       0.084843494 -0.024486894 -0.06890323 0.09172522
000210 23 48 08 bc a7 64 f8 bc 99 32 8d bc b6 13 f1 bd
       -0.00831798 -0.030321432 -0.01723604 -0.11771338
000220 fa 25 d6 bc 4c dd d7 bc d5 55 a2 bc be a1 48 bd
       -0.026141156 -0.02635064 -0.019816319 -0.048982374
000230 14 b0 27 bd 9c 14 31 bc 78 ca a4 bd 35 1a 91 bc
       -0.040939406 -0.010808136 -0.0804643 -0.017712692
000240 3f 34 4e bd 7e 67 49 3b ce 53 bd bd 36 c3 00 be
       -0.050342795 0.0030731852 -0.092445 -0.12574467
000250 2c 24 1f 3d 57 cd 20 3d b7 19 77 3c 9e c9 a5 3d
       0.038852856 0.039258327 0.0150818145 0.08095096
000260 69 24 e4 bd ab 6b 8c 3d df 24 0d 3c 20 d6 40 bd
       -0.11139757 0.068564735 0.008614748 -0.047079206
000270 0e 84 6f bd b5 23 cd bd 94 d8 a6 bb 38 4d 7b bd
       -0.058475547 -0.10016576 -0.005091736 -0.06135294
000280 bf d7 bf bb d1 c1 bd bd 51 a2 6c 3c 3e 28 48 3d
       -0.0058545764 -0.09265483 0.014442996 0.048866503
000290 b4 34 d9 3d b5 ea 1a 3d e9 22 f2 3b 0b 43 df 3d
       0.106057554 0.03782149 0.0073894155 0.10901459
0002a0 6a c1 08 bd 4b 65 a8 bc 00 51 b5 bc f8 91 89 bb
       -0.03338758 -0.020556113 -0.02213335 -0.004198309
0002b0 e7 fc cb bc a1 a5 df 3b 90 49 26 3c c4 08 e6 bc
       -0.024900867 0.0068251644 0.010149375 -0.028080352
0002c0 f0 9e d5 bc 46 25 78 bd d3 00 32 3c 87 f2 07 3d
       -0.026076764 -0.06058242 0.010864454 0.033190276
0002d0 b4 11 1f bd 8c 6d 25 bd ba 30 28 3d 53 c1 2d 3c
       -0.038835242 -0.040387675 0.041062094 0.010605174
0002e0 bf 67 a5 bd 3d 80 a3 bb fd 4d 9c 3c c5 bb bd bc
       -0.080764286 -0.0049896524 0.019080156 -0.023160825
0002f0 e9 cf c5 ba f2 c3 03 3d 2d 0f bb bd 68 73 5a bd
       -0.0015091869 0.03216929 -0.09133754 -0.053332716
000300 91 24 2e bd 20 47 4d bd 93 7d 36 3c cb ad 5a bd
       -0.04251534 -0.05011666 0.011138338 -0.0533884
000310 e8 0d 63 bd 80 65 e9 bd e6 c5 0c bd b2 d0 b4 3c
       -0.055433184 -0.11396313 -0.03436842 0.02207217
000320 60 c2 66 bd 13 fb de 3b dc 22 2c bd 48 4c ca bc
       -0.056337714 0.0068048327 -0.042025432 -0.024694577
000330 ad 13 39 bc ba 44 b8 bc e9 c7 2d bd 95 96 46 3d
       -0.011296195 -0.022493709 -0.042426977 0.04848345
000340 58 85 b6 3d 20 d7 9c bd b9 54 1f bd 5f 39 fc 3c
       0.08912152 -0.07658219 -0.038899157 0.030789075
000350 bc a3 61 bd 8e a5 0b 3b 51 e3 95 3a a1 04 43 bd
       -0.05508779 0.0021308395 0.0011435543 -0.047611836
000360 0e dd 75 bd 89 df 8b bd e9 48 48 bd 7c 7c 29 3d
       -0.060025267 -0.06829745 -0.048897658 0.041378483
000370 e3 5b 4d bd 86 68 28 bc d9 15 8b 3b cf ac 3e bd
       -0.050136458 -0.010278827 0.004244548 -0.046551522
000380 22 d9 63 3c 27 89 92 bd 59 44 b4 3d 89 b6 26 bc
       0.013906749 -0.07155066 0.08802099 -0.010175356
000390 a9 a6 b9 3d 0f 1a aa bb ba 1c ef 3c 7e 43 3b bd
       0.09064991 -0.0051910947 0.029188503 -0.045718662
0003a0 87 d6 08 3d 1b 3e 98 bd ec 09 c5 ba 55 7b 85 bd
       0.033407714 -0.07433721 -0.0015032864 -0.06517664
0003b0 70 c0 a1 bc 72 e3 05 3d a2 ce c5 bd 6d 93 f0 bc
       -0.019745082 0.032687612 -0.09658553 -0.029367173
0003c0 8c a3 11 3c af 73 ea 3c 51 22 b0 bd fe 4f c3 3c
       0.00888909 0.028619615 -0.08600295 0.023841854
0003d0 5f ce b3 bd f6 3b 53 3c 3c 84 db 3c be 4a 9d bd
       -0.087795965 0.012892714 0.026796453 -0.076802716
0003e0 a1 ee 1a 3b d9 1d af bd e9 ff fe 3b 99 ee 81 bd
       0.002364077 -0.08550615 0.0077819717 -0.06344337
0003f0 af ca 06 3d 96 d5 a9 bc f8 79 88 bd f2 e3 2c bd
       0.032908138 -0.020731729 -0.06663889 -0.042209573

weight f4 [256, 256]
000000 7f 8b 69 3c cf ac e6 3d 98 f8 53 3d 87 10 26 be
       0.01425445 0.112634294 0.05175075 -0.16217242
000010 1b 42 0d be 5a ab 8e 3c 0d 15 95 3d 7b d9 d4 bc
       -0.13794748 0.017415691 0.07279406 -0.025982609
000020 56 de e3 ba a6 3f 11 3c 31 ec 7b 3d e6 b4 e2 3d
       -0.0017384987 0.008865273 0.061504547 0.1106966
000030 f6 4a b9 3d f3 81 da 3b 06 bc 8f bb 92 ed 1e bd
       0.09047501 0.006668323 -0.004386428 -0.038800783
000040 59 b8 60 bd 87 2d 94 3d 53 d4 e8 3b 76 71 cf 3d
       -0.054863308 0.07235246 0.007105389 0.10129063
000050 6e 77 8b bb 59 b4 82 3c ea fc a8 bd d3 9f ef bb
       -0.0042561805 0.015955137 -0.082513645 -0.0073127537
000060 df 51 9b bc 66 6c 51 3c cf 0c e8 3b 90 6c 17 bd
       -0.018959938 0.012782192 0.007081605 -0.036968768
000070 73 a1 75 bd 3c da 46 bd 2c d2 4a bc 0e 93 db bb
       -0.059968423 -0.04854797 -0.01237921 -0.00670088
000080 3a ed 80 bd 44 23 cd 3c 93 42 43 bc 4c d7 c4 bd
       -0.062952474 0.02504123 -0.011917728 -0.09611377
000090 f7 96 9f bd e7 79 16 bc 97 b0 07 3d 15 cf 5d bd
       -0.07792466 -0.009184337 0.033127394 -0.054152567
0000a0 6b 4e 07 3d 5e da ab 3c 74 88 83 bd c3 84 e2 3d
       0.03303377 0.020978149 -0.06422511 0.110604785
0000b0 e8 ef 2a 3e a6 a3 bb 3d 38 3b d5 bd dd 3b 75 3d
       0.1669308 0.09162073 -0.10411686 0.059871543
0000c0 c9 70 d6 3d 37 98 48 be 30 8a 4a 3a 98 c0 bd bb
       0.10470731 -0.19589315 0.000772628 -0.005790781
0000d0 21 38 c4 3b 4e 7f 1e bd 6c e8 6c bd 6f f0 e7 bc
       0.0059881364 -0.038695626 -0.057838842 -0.02831289
0000e0 f2 c0 1d bc 40 8a c7 bc 09 7f a9 bb c0 0d e7 bb
       -0.009628521 -0.024357915 -0.0051726145 -0.0070511997
0000f0 a8 8a ce 3d be 99 e3 bb 90 31 27 bc 4c 1b 4e bd
       0.1008504 -0.0069458177 -0.010204688 -0.050319
000100 d8 b4 0b 3b a4 62 c0 bd c2 0c 2d bd 64 da 79 3c
       0.0021317508 -0.09393814 -0.042248495 0.015249822
000110 df 11 23 3d 49 aa 9f bd 51 53 96 3d 7e ab 5e bd
       0.039811965 -0.07796151 0.0734011 -0.054362766
000120 31 2d c8 bb 17 9a 42 3d 81 e8 a5 bc 7f 07 b6 bd
       -0.006108903 0.047510233 -0.020252468 -0.088881485
000130 b5 f1 13 bd 83 9a f1 3c 99 95 0e 3d 46 6b bd 3d
       -0.03611918 0.029492622 0.034810636 0.092489764
000140 17 3b 15 3d 28 01 c1 3d bb ca ec bc f5 5a 5b 3d
       0.036433306 0.09424049 -0.028905263 0.05355354
000150 87 48 6b bd d0 7b 82 3d 97 77 29 bd 73 0d d5 b9
       -0.057442214 0.063712716 -0.041373815 -0.00040636546
000160 d9 07 f4 3d c4 bc f4 bd dd 6b 5f 3d e6 63 d5 bb
       0.11915559 -0.11950067 0.054546226 -0.006512153
000170 a3 2d 24 3d 51 e2 b1 3d bb 8b 9e 3d 2f cd 7f 3d
       0.040082585 0.086857446 0.07741495 0.062451538
000180 58 5f f2 3a 7d 9f 06 3d 19 bb 60 bc 91 c0 96 bd
       0.0018491549 0.032866944 -0.013716483 -0.07360948
000190 95 c3 8a bd ea fe b2 bc ac 4d e3 3d ee 54 f7 bd
       -0.067755856 -0.021850068 0.11098799 -0.12076746
0001a0 cf 83 83 3b 1c 2c c7 bd 8b cd 0b bc 92 d2 e6 3b
       0.0040135155 -0.0972521 -0.008532892 0.007044145
0001b0 71 93 83 bd 81 5c 42 bd 73 3b 0b 3d fb b2 1b be
       -0.064246066 -0.0474515 0.033992242 -0.15204994
0001c0 9b e1 4f be 2d 5d 0a be 3d 6f 52 3d d9 d1 0d be
       -0.20300905 -0.13512106 0.051375616 -0.13849582
0001d0 cc 7a ba 3c 0b c2 3a 3c e0 89 f7 bc d2 18 38 bd
       0.022763632 0.0113988025 -0.030217111 -0.044945545
0001e0 d1 8d d1 bd 0b 96 d8 3c a2 da 5d 3b d0 b2 65 bd
       -0.102321275 0.026438734 0.003385224 -0.056078732
0001f0 6c af a2 bc 72 51 e4 3c f2 53 24 be d1 ea 3f 3c
       -0.019859038 0.027870867 -0.16047648 0.011713699
000200 c1 73 20 bd 73 f5 c9 3c a9 e7 2f 3c 58 0c eb 3c
       -0.03917289 0.024653172 0.010736384 0.02869241
000210 8b db 8c 3d c0 54 72 3d dc e4 25 3e 4d 5f c5 3d
       0.06877812 0.059162855 0.16200584 0.09637318
000220 45 d2 ad 3c 66 c5 53 3d 55 33 bd bc 8f ac 29 3e
       0.021218428 0.051701926 -0.023095766 0.16569732
000230 02 52 5d bd 68 94 9a 3d d5 4b fd 3d f6 c8 cb bd
       -0.054033287 0.075478375 0.123679794 -0.0995044
000240 90 85 98 bc ec 34 17 bc fa 26 29 3d 5a 0f 75 3c
       -0.018618375 -0.009228926 0.041296937 0.014957273
000250 c5 d7 b7 bd 4c 1d 52 bc ca 54 0c 3d ec 7a ae bd
       -0.08976702 -0.012824368 0.03426055 -0.08519539
000260 8e b0 99 3c 17 16 24 3d 9a 09 47 bd 96 72 f8 bd
       0.018760946 0.04006013 -0.04859314 -0.121312305
000270 a2 fc 30 be 2f 33 9b 3c ad fe c2 3c a4 e9 93 3d
       -0.17283872 0.018945305 0.02380308 0.07222298
000280 f3 d4 dc 3c 32 f9 69 3c 73 04 02 be 38 42 95 bd
       0.02695701 0.014280604 -0.1269701 -0.07288021
000290 6d de 5b 3d 50 93 29 be fb 8c f6 bc 38 28 9b bd
       0.05367892 -0.16560102 -0.030096522 -0.075760305
0002a0 9d 48 ba 3d 14 ea c1 3c 84 33 b9 bd e1 c6 79 3e
       0.09095881 0.023671187 -0.09043029 0.24392273
0002b0 33 3d 3b ba 02 3a 16 bd 86 6f 93 3d 19 2c de 3b
       -0.0007142603 -0.036676414 0.07199006 0.006780159
0002c0 d3 21 1f bd 82 cb ad 3c f2 98 25 3d 7d cd 37 3d
       -0.038850617 0.021215204 0.040429063 0.044873703
0002d0 2c 64 27 3d fc 05 43 3b a6 3f 7b 3d 84 60 cc bd
       0.040867016 0.0029758206 0.061339997 -0.099793464
0002e0 74 df 81 bd 6e af 15 be ac 96 70 bd b8 2f f5 bc
       -0.063414484 -0.14617702 -0.058737442 -0.02992998
0002f0 ed 21 2f 3e 56 a6 58 3c b6 83 e5 bd eb 50 df bb
       0.17102785 0.013223251 -0.112067625 -0.006815066
000300 c3 d5 83 bc 7e 1e 97 bd dc 75 38 3b 2f 59 01 3e
       -0.01609314 -0.07378863 0.0028146422 0.12631677
000310 4a b8 2f 3c 99 85 e2 3c 9b 31 89 bc ee 03 4b bd
       0.01072509 0.027651595 -0.016747287 -0.049564295
000320 34 af 3f 3d c5 03 4e 3c e6 ac d3 bd 7f 6c c3 3d
       0.046797946 0.012574141 -0.10335712 0.09542178
000330 bf 2e b9 bd 8d c3 21 3d 02 06 d2 bd 31 fa 15 3c
       -0.09042119 0.039493132 -0.10255052 0.009153889
000340 ef 5b 00 be 59 96 88 3d 3f 71 38 bc c4 92 4f bd
       -0.1253507 0.066693015 -0.011257469 -0.050677076
000350 6a 77 12 3d a7 bf 95 bd 51 ab 54 3d 14 0b 14 bd
       0.035758413 -0.073119454 0.051921193 -0.036143377
000360 d5 57 bd bc 28 1a 85 bd aa b0 bf bc b1 92 c9 bd
       -0.02311317 -0.064991295 -0.02339967 -0.09842432
000370 5f 22 be 3c 11 99 0f 3e 36 31 0e 3d 0d bb a5 3d
       0.023209749 0.14023234 0.0347149 0.08092318
000380 b9 22 76 3d db e6 5d 3d 22 bc d9 3d ad 85 0f be
       0.060091708 0.05417524 0.106315866 -0.14015837
000390 60 f8 a4 3b 57 1b 95 3b 62 4b 84 bd 09 47 c9 bc
       0.0050344914 0.0045503783 -0.06459691 -0.024570005
0003a0 69 f2 67 bb 32 a3 70 bc 65 9a 52 bc 5d 18 54 3d
       -0.003539229 -0.014687346 -0.012854193 0.051781047
0003b0 2b 7a fb bb e8 b7 8d bd 4a 9c 75 3d eb e4 a8 bd
       -0.0076744757 -0.06919843 0.059963502 -0.08246788
0003c0 79 d8 93 bd 71 c4 51 3d 60 97 fe bb 10 58 63 bd
       -0.07219023 0.05121273 -0.00776951 -0.055503905
0003d0 c4 a9 67 3d 7f 7a 91 3d c6 02 f3 bd d9 bd 51 bd
       0.056558385 0.071034424 -0.11865763 -0.051206443
0003e0 86 92 9f 3c 02 80 4b bd fb 89 55 3c 70 e5 77 bb
       0.019479048 -0.049682625 0.013033385 -0.0037825964
0003f0 b5 ae 34 3d 64 4e a6 3d ac 89 5b bd e8 71 cd 3b
       0.044111926 0.081204206 -0.05359809 0.006269682

bias f4 [256]
000000 96 84 d0 3b 6f b5 16 3e 6a 9a 70 3b e0 5f 84 3d
       0.0063634617 0.14717649 0.0036713132 0.06463599
000010 18 09 93 3c 93 75 5f 3d b5 66 3b be 22 ff 4f be
       0.017948672 0.054555487 -0.18300898 -0.20312169
000020 55 54 7c bd e1 67 76 bd ef 78 38 bd 45 d4 b9 bd
       -0.061603863 -0.06015766 -0.045037206 -0.0907369
000030 30 36 b4 bc cc 84 09 bd cb 02 93 3d c8 7d b8 3d
       -0.021998495 -0.03357391 0.07178267 0.09008366
000040 e6 dd 4b bd 83 93 76 3d 8c 2d 34 bb cc 45 c1 3c
       -0.049772166 0.060199272 -0.0027492968 0.023592852
000050 74 21 13 be d2 e6 7b bd 59 32 2b 3e 89 81 a8 bd
       -0.1436823 -0.061499424 0.16718425 -0.08227832
000060 68 8c 98 3d 3a 55 8e bd 23 79 aa bd f1 27 d3 bc
       0.07448655 -0.069498494 -0.08323886 -0.025775881
000070 da 79 7c bd e3 eb 8a 3d 16 85 a6 bd dd 0e 87 bd
       -0.061639644 0.06783273 -0.08130853 -0.06594632
000080 91 e0 04 be ae c6 17 3e 1d ff 55 bd ec 9d ba bd
       -0.1297629 0.14821884 -0.052245248 -0.091121525
000090 0d a1 e1 bd e8 fd e2 bc 52 ba 12 3e 80 5a a1 3d
       -0.11017046 -0.027708963 0.14328888 0.0787859
0000a0 24 14 d3 bd 26 bc 01 3e b9 e7 d6 bd f5 00 87 3d
       -0.10306576 0.12669429 -0.10493416 0.065919794
0000b0 7c fb 31 3d 4c 04 0c 3e 01 b3 54 3d cd c1 16 3e
       0.043452725 0.13673514 0.051928524 0.14722367
0000c0 b3 a2 09 3e c2 98 c8 3d 5f fb 81 bd f1 69 d3 bd
       0.13440971 0.09794761 -0.06346773 -0.10322941
0000d0 34 98 9c bd 28 e5 8a 3c a6 88 15 3e 75 b1 1a 3e
       -0.07646218 0.016954973 0.14602908 0.15106757
0000e0 45 22 5a 3c a7 e8 1b 3e a3 b6 73 bd 13 b5 6d bc
       0.013313835 0.15225469 -0.059500348 -0.0145085035
0000f0 67 42 f0 bd db 25 da bd 5a 31 02 bd 95 99 0d 3e
       -0.11731415 -0.106517516 -0.031785347 0.13828118
000100 ae c5 03 bb 47 da 15 be 8c bc 13 be ee 79 15 3e
       -0.002010684 -0.14634047 -0.14427394 0.14597294
000110 b2 bb 0d 3e b3 59 95 3c 5d 48 18 be b3 88 41 bd
       0.13841131 0.018231248 -0.14871354 -0.047249507
000120 a3 7d 28 bd 8e 02 84 bd dd 9d c2 3d 37 68 d0 3c
       -0.04113544 -0.064458 0.09502766 0.025440319
000130 41 08 a8 bd d6 3b ce bd 4b a0 88 3d 9f 5f 3b bd
       -0.08204699 -0.100700065 0.066711985 -0.04574549
000140 7d 0b e7 3d 41 49 01 bb 01 bc 0e 3e 93 fe 4f 3d
       0.11281488 -0.00197275 0.13938905 0.05077989
000150 d0 86 95 3c d5 c6 4f bb 35 77 78 bd 77 0d 72 3b
       0.01825276 -0.0031704206 -0.06066056 0.0036934295
000160 00 18 3c 3c bd a5 12 3e b0 2a c6 3d a5 25 58 3d
       0.011480331 0.14321037 0.09676111 0.052770276
000170 69 55 99 3d ca 7e 06 bd 58 43 16 3d 40 35 16 be
       0.07486994 -0.03283576 0.036685318 -0.14668751
000180 66 1a 1d 3c 6c 2e 25 bd 5f 0b 72 bd 84 7a 3a 3d
       0.009588813 -0.040327474 -0.059092876 0.045526996
000190 7a 45 86 3c 9f 1d 86 bd c3 63 9c 3d 2b d6 3e bc
       0.01639055 -0.065486185 0.076362155 -0.011647741
0001a0 1f fd 08 3e e3 6c d2 bb 68 d3 94 3d b5 76 0d be
       0.13377808 -0.0064216717 0.07266885 -0.13814814
0001b0 5c 4e a4 3d ad c0 e7 bd 02 32 0a be 73 4b 52 3d
       0.08022758 -0.11316047 -0.13495639 0.051341485
0001c0 ad 49 b0 3c f9 88 2a 3e 25 58 f4 3d 8d d0 0f be
       0.021519506 0.16653813 0.11930875 -0.140444
0001d0 9b 6f 7e bd a7 e2 8a 3d 93 a4 f9 bd d4 62 33 3d
       -0.062118154 0.06781512 -0.12189593 0.04379542
0001e0 97 a8 8f 3b 5b 31 19 be a8 c8 8d bc fc aa 29 3e
       0.004384111 -0.14960234 -0.017307594 0.16569132
0001f0 56 ec 02 3e d1 3d d9 3d f1 a8 3b 3d 4f be 61 3c
       0.12785468 0.10607494 0.045815412 0.013778283
000200 b0 96 e6 bc e3 8b 08 be 78 40 f7 3c 92 50 d1 bc
       -0.028148025 -0.13334613 0.030182108 -0.025551114
000210 68 40 cf 3d 95 6e d4 bc 8d 41 fa bd 92 d5 49 3d
       0.101197064 -0.025931636 -0.12219534 0.049275942
000220 81 d0 8d bd c2 61 69 3d 4d eb 13 3d 6b 46 f5 3c
       -0.069245346 0.056977995 0.036113072 0.029940804
000230 77 96 42 bd 0d 7d fe bd 34 02 ad 3c 58 0a f2 3c
       -0.047506776 -0.12426195 0.021119215 0.029545948
000240 13 2d ec bd 4f 0a 38 bd 87 1f 02 bd ab 79 15 3c
       -0.11532035 -0.044931706 -0.031768348 0.009123246
000250 85 03 0b 3e 89 4c ae bb b4 e8 be bd 5a 4c 96 bd
       0.13575561 -0.0053191823 -0.09321728 -0.07338782
000260 6f ce da bd 81 ff 03 bd ae ae 21 3e 2a 33 66 3b
       -0.10683905 -0.03222609 0.15789291 0.003512571
000270 32 17 0b 3c 52 6c 5a bd 2d b7 69 bc 7c 07 37 bd
       0.008489417 -0.05332596 -0.014264864 -0.044684872
000280 52 1d aa 3d f3 fa 51 bc 87 54 0e bd 57 d3 d4 3b
       0.08306374 -0.012816179 -0.03474858 0.0064949202
000290 4b 08 6e 3b 33 9b 9b 3d f2 9f 1d be 1b 79 92 bd
       0.003632086 0.07597961 -0.15393046 -0.07152005
0002a0 28 7b 28 be 99 cd 39 bd 47 18 2b bd a9 4e 45 bd
       -0.1645323 -0.04536209 -0.0417712 -0.04817072
0002b0 52 3a 0d 3d 60 31 85 3d 7e ca 05 be 7e a2 2a be
       0.034479447 0.06503558 -0.13065526 -0.16663548
0002c0 ab 72 ef 3d f1 01 d6 bc 6d 34 fc bd cc ca 10 3c
       0.11691793 -0.026123973 -0.12314687 0.008837413
0002d0 6d da ea 3c ea 6e fd bc 9b de c2 bc 2b 03 01 be
       0.028668607 -0.030936677 -0.023787787 -0.12598865
0002e0 8a 1a 55 bd 42 46 82 bc 30 4f fd bc 40 5e 04 3e
       -0.052027263 -0.015902642 -0.030921549 0.12926579
0002f0 3a 7b 06 3d 80 1b 8c 3d 16 22 4f bd eb d9 82 3c
       0.03283236 0.06841183 -0.050569616 0.015973052
000300 24 8b 87 bd 47 68 06 bb 4b 56 07 bd 4c 6a ab bd
       -0.06618336 -0.0020508931 -0.03304128 -0.08369884
000310 d9 a2 8e 3d b4 2e e6 3d d2 a3 5e 3c 3f e3 b6 bb
       0.069646545 0.11239377 0.0135888625 -0.005581289
000320 cb a8 22 bd b5 77 ed 3d 60 f5 69 3c b3 35 7f 3d
       -0.039711755 0.11595098 0.014279693 0.06230707
000330 93 8c 65 bd 58 bd 30 3e bb 97 96 bd 84 53 a8 bc
       -0.056042265 0.17259729 -0.07353159 -0.020547636
000340 02 51 37 be de 96 84 bd b1 f0 6d 3d 32 07 b8 bb
       -0.17901996 -0.06474088 0.05809087 -0.005616092
000350 73 0a f0 3d cd 71 45 bd 9f ba 06 3e f3 4a 4e 3d
       0.11720743 -0.048204232 0.13157128 0.050364446
000360 8b 87 99 3b 8e e6 b7 bd 5b 95 e5 3c 3e 7c 13 3e
       0.0046853474 -0.08979522 0.02802532 0.14402863
000370 d5 15 1c be 26 82 bc bb 00 22 2a 3e e7 2b fe 3d
       -0.15242703 -0.0057528196 0.16614532 0.124107175
000380 9e 6f 0c be 94 52 89 bd 19 92 03 3d 52 ce e9 bc
       -0.13714454 -0.06705204 0.03212175 -0.028540764
000390 47 05 32 bd d9 09 ba bc 5e c3 19 bd 73 93 db 3d
       -0.043462064 -0.022709774 -0.037539832 0.10721483
0003a0 a7 03 20 3d 02 24 a8 3d 3e f8 03 be be 76 65 3d
       0.039065983 0.08209993 -0.12887666 0.056021444
0003b0 10 6d cf bd b7 f6 eb 3d 08 fc ca 3d 8e 4e 25 be
       -0.10128224 0.115216665 0.099113524 -0.16143247
0003c0 ab 57 27 3e ef 91 8f 3d 14 49 bc bd ff 66 31 be
       0.16342036 0.070102565 -0.09193626 -0.17324446
0003d0 99 33 96 bc b0 be f7 3d 55 93 ff bb 9d cb f4 3d
       -0.01833515 0.12096918 -0.007799546 0.11952899
0003e0 bf 2f d1 3d 5b ed d5 3d f6 d6 02 bd bc c1 3a bd
       0.10214185 0.104456626 -0.031943284 -0.045594916
0003f0 56 bd 67 bd 37 a5 8e bd 62 14 03 3d 9b 3d bf 3d
       -0.05657705 -0.06965106 0.03200186 0.09337922

weight f4 [97, 256]
000000 11 66 34 3d cb fd bb ba 1a c8 8e 3b 61 a2 f6 3b
       0.04404265 -0.0014342604 0.00435735 0.0075266813
000010 04 f4 0b bb 70 a3 37 bc 77 2d 80 bd 89 3d 69 bc
       -0.0021355161 -0.0112084 -0.06258672 -0.0142358625
000020 ba 58 39 3d 42 c8 ed bc 94 67 7b 3d d7 cd e9 3c
       0.045250632 -0.029026154 0.061378077 0.028540535
000030 d2 9a 02 bd 01 e4 0c 3d 61 d4 02 3d 44 00 9d 3c
       -0.03188593 0.03439713 0.03194082 0.019165166
000040 17 33 94 3d 46 97 64 bd 9a 67 19 bd c5 f8 9c bc
       0.07236307 -0.055808328 -0.037452318 -0.019161591
000050 60 ee 39 3d 0b 71 f8 3b c5 b5 44 3c 5c 95 82 bd
       0.045393348 0.007581835 0.012006228 -0.06376144
000060 73 f3 dd bc 9f 93 1c 3d 1a 52 36 bd 8c d2 1f 3d
       -0.027093625 0.03822672 -0.044511892 0.039019153
000070 90 27 5c 3c 57 d3 27 3c fb 69 21 3d 77 ac 4e 3d
       0.013437167 0.010243258 0.03940771 0.050457444
000080 a6 e2 ae 3d 44 30 b2 bc 6e 37 2e 3c ad 73 03 3d
       0.085393235 -0.02175153 0.010633333 0.03209274
000090 fe e2 12 bd 9b f5 58 bd bb 40 22 3d 00 99 03 3b
       -0.035861008 -0.052968603 0.039612513 0.0020080209
0000a0 3d a2 1d bc e3 83 26 bd 96 76 4e 3d 93 59 aa 3b
       -0.0096212 -0.04065312 0.05040606 0.0051986664
0000b0 92 26 ae 3c d1 97 36 3c 60 80 35 3c d4 db e9 bc
       0.021258626 0.011144594 0.01107797 -0.028547205
0000c0 26 ef 95 3c ef 1c da bb ef 4c eb 3b be 7e 8c bc
       0.018302511 -0.006656281 0.007180802 -0.01715028
0000d0 f7 63 23 bd 24 83 19 bc 41 7d 32 3d 2f 19 93 3d
       -0.039890256 -0.009369645 0.043576483 0.07182538
0000e0 3c f1 f7 bc 20 d8 3c 3d 22 21 2b bd 4e 53 ad bc
       -0.030266397 0.04610455 -0.041779645 -0.021157887
0000f0 43 5c 1c 3c 1d ab 01 bd e9 b3 38 3b 33 62 98 bb
       0.009543481 -0.031657327 0.0028183407 -0.004650378
000100 ef fd 44 bc 0d f9 d6 bc ed d4 5f bd 13 f6 2d 3c
       -0.012023433 -0.026241804 -0.05464642 0.010617751
000110 c3 bf fb 3c a6 7c bc 3d a7 40 33 bd 68 c1 9a 3c
       0.030731088 0.09203462 -0.04376283 0.018891051
000120 1b 90 3e bd 88 c1 17 3d 2d ff cc bc 33 55 b2 bc
       -0.04652415 0.0370498 -0.025024021 -0.021769142
000130 5e 3b 69 3d d9 7f d6 bc c7 e3 31 bd 17 05 34 3d
       0.056941383 -0.02618401 -0.043430116 0.043950167
000140 7e d7 11 bd f7 d7 03 3d f3 5b e2 3c bd b7 4f 3d
       -0.0356059 0.032188382 0.027631735 0.050712336
000150 c4 af aa 3d 1d 31 6d bc 92 fa d7 3c 43 88 0e bd
       0.08334306 -0.014477042 0.026364598 -0.034797918
000160 17 7e 9e 3c 3a 96 2e 3d 72 d2 83 3c b7 81 38 3c
       0.019347234 0.042623736 0.01609156 0.011261395
000170 f6 46 4a 3c bb 43 f9 bc a2 a8 0e bc 14 d9 cc bc
       0.01234602 -0.030427804 -0.008707197 -0.025005855
000180 47 bd ce bb 38 a1 12 bd f2 8a 5e 3a 37 0e 0e 3d
       -0.0063091847 -0.03579828 0.00084893324 0.034681525
000190 e2 46 bc 3c 1e eb 38 bd f3 6b 3a 3d d6 f5 0d 3c
       0.022983018 -0.0451461 0.045513105 0.008664569
0001a0 1c 4a f2 3c 16 fe 5b bc 48 47 21 3c 25 21 8c 3c
       0.029576354 -0.013427278 0.009843655 0.017105648
0001b0 64 cb ad 3c f1 e4 20 3d 90 e5 05 bd 09 14 c6 bc
       0.021215148 0.039280836 -0.03268963 -0.024179475
0001c0 46 e7 cc 3c 6b e2 09 3d 10 bc d3 bc d6 87 f2 bc
       0.025012624 0.033663195 -0.025846511 -0.029605787
0001d0 cb 83 2b bb 90 da cc bc cb 37 7c 3c 85 5f 54 bc
       -0.0026171084 -0.025006562 0.015394161 -0.012962227
0001e0 68 d2 72 bc d7 f0 10 bd 65 ee ee 3c 40 81 2c ba
       -0.014820673 -0.035385933 0.02916641 -0.0006580539
0001f0 0e 55 b5 bb 2d 53 6d bc f3 d3 ea bc f4 e3 11 3d
       -0.005533821 -0.014485163 -0.028665518 0.035617784
000200 9b 69 cb bc db 58 18 3a 5a e1 aa bc 37 f4 30 bc
       -0.02483063 0.00058115803 -0.02085941 -0.010800413
000210 31 2e dd 3c b2 8e 51 3c 59 2e 84 bc 7f 24 9f 3d
       0.026999565 0.012790369 -0.016135382 0.07770633
000220 d0 99 7f 3c 86 67 2c 3d d4 a7 9d bc 5b 44 45 bc
       0.015600637 0.042090915 -0.019245066 -0.012040223
000230 70 af 81 3d 39 16 98 bc 3f a2 73 3d fb 92 93 ba
       0.0633229 -0.018565284 0.0594809 -0.0011259014
000240 17 67 87 bd de 2b 04 3d ca 16 b9 b9 93 9d f5 3c
       -0.0661146 0.032268398 -0.0003530293 0.029982364
000250 07 b3 26 3d a0 d3 25 bc 0a f2 f9 3a 3d 16 4c 3d
       0.040698078 -0.010121256 0.0019069326 0.049825896
000260 27 50 cb 3b 34 6a 12 bd 7d 21 91 bc 54 c0 5c bc
       0.0062046233 -0.035745814 -0.017716164 -0.013473589
000270 5e 42 9f 3c c4 d8 0b bd d8 c0 a2 bb 2b e1 c0 bc
       0.019440826 -0.03414227 -0.0049668364 -0.023544868
000280 19 10 11 bd 49 da 68 3d 3f c5 1b bc 6d 37 62 b9
       -0.035415743 0.056848798 -0.009507476 -0.00021573687
000290 06 98 43 bc b3 70 62 3d 8d 4b 7d bb b3 d2 dc 3c
       -0.011938101 0.05528326 -0.0038649768 0.026955938
0002a0 54 f5 e5 3c 60 13 1d 3c 6d 7e c9 bc b8 62 38 3c
       0.028071083 0.009587139 -0.024596417 0.011254005
0002b0 da 2a 2d 3d 67 e5 4b 3d d8 ad d7 3c 79 3f c2 3c
       0.042277195 0.049779322 0.026328012 0.023711907
0002c0 dc 43 d3 bb cb e1 99 bb ca 0b 69 bc a7 84 2a 3d
       -0.0064472985 -0.004696106 -0.014224002 0.041630413
0002d0 0d bf 47 bc 62 73 ff bc 83 13 2f 3d 66 27 1b 3c
       -0.012191546 -0.031182948 0.042743217 0.009469843
0002e0 a5 2a 46 3c 5d 67 67 3c 4f 4f b2 ba 77 16 55 3d
       0.012095128 0.014123765 -0.0013603958 0.052023377
0002f0 f1 3f 58 3d 72 01 f3 bc 17 05 37 3d ce 8e 58 bb
       0.052795354 -0.029663775 0.04468259 -0.0033044103
000300 3c db 72 bd 60 30 63 3d 71 7a 81 3d be 7b 08 bd
       -0.05929111 0.055466056 0.06322182 -0.033321135
000310 d9 5a 41 bd c0 8b ef 3c 07 92 63 bd e3 7b 99 bb
       -0.04720578 0.029241443 -0.055559184 -0.004683958
000320 2f 1a 59 bc cc 0a 55 3c 38 54 02 bd 14 54 b0 bc
       -0.013250872 0.013003062 -0.0318186 -0.021524467
000330 9c 11 5b bc 5c a3 b1 3c a0 ef 25 3c 25 35 ac bc
       -0.013370898 0.021684341 0.010127932 -0.021021435
000340 b5 42 1a 3c 1b e1 74 bc 17 3a 85 bc d4 3e bf bc
       0.009415318 -0.014946247 -0.016263051 -0.023345388
000350 c6 dc 85 3d ac d0 b5 3c 67 c5 75 3d 27 98 1b bd
       0.0653625 0.022194229 0.06000271 -0.0379869
000360 ad 8c 49 bd f9 b7 61 bd 90 75 b5 3c 62 82 0f bd
       -0.049206425 -0.05510709 0.022150785 -0.035036452
000370 24 6d ab bb bc 3e 60 3d ab 8e 34 3d 73 02 56 bc
       -0.0052315164 0.05474733 0.04408137 -0.013062107
000380 04 31 8e bd 79 3f 74 3d 05 04 52 3c fa 8a c8 3c
       -0.06942943 0.059630845 0.012818341 0.024480332
000390 b2 56 10 3c 34 41 b4 3c 74 0e 84 3d 30 54 f0 bc
       0.008809732 0.022003748 0.06448069 -0.029337019
0003a0 3c 3b e1 3c 41 66 87 3c a2 d1 6b 3d 4c 8f 99 bc
       0.027494065 0.01652825 0.05757297 -0.018745087
0003b0 46 ce 7d bd 91 54 7a 3d 53 f3 90 3c ab 33 6c bd
       -0.061964296 0.061115805 0.017694151 -0.057666462
0003c0 ea 72 fa 3c 55 d1 d1 bb 48 73 09 bd 60 d4 c1 ba
       0.030572373 -0.006403128 -0.033557206 -0.0014788024
0003d0 1c b9 82 3c b6 43 74 bc 7c 03 4d bd 28 b9 87 3d
       0.015957408 -0.014908722 -0.05005215 0.066271126
0003e0 6d 8d 4c 3d 3a db 04 3d e0 31 fe bc a7 71 15 3d
       0.04993956 0.032435633 -0.031029642 0.03648534
0003f0 f1 3c a9 3c 86 4e 09 3d 88 3c 46 bc 2c 42 23 bc
       0.020658942 0.03352215 -0.012099393 -0.009964507
