data/example_dynamics_data/models/office/MLP_qhat_true.pth (torch, 740431 bytes, 8 tensors)

weight f4 [256, 107]
00000000: d416 0e3e f6de a83d e0b9 c4bd c521 b33e
00000010: dc37 973e c012 c2bd a9a7 073f 2177 1d3d
00000020: b348 563d e42f d23d 9548 cc3e 72de 25be
00000030: 06bb 77bd dfc7 e7bd aee6 513e 82f0 7a3e
00000040: 2cc4 39be caca 03bf e6a0 023e 2a90 813d
00000050: 6632 bb3d e757 4bbe c976 09be a92b 0b3e
00000060: 921d 823d 044a 07be 4fde 073d 6c70 9f3d
00000070: 8dfa 51be 0063 193d c277 9b3d d14b 74be
00000080: 6433 0dbe adf3 8a3d 45af 09bc fe80 edbc
00000090: 5dc9 423d 1b27 ca3c 99b3 ad3e b583 323f
000000a0: 1866 ccbd 7dd3 143f 3478 793e a9a6 a8bb
000000b0: a214 cfbd 2f30 6b3e dca2 14be c569 e53d
000000c0: a66f edbb 3f7b 24bd 3a12 c23d 2016 d43d
000000d0: 8d06 a7bd e96b 84bd 2c1e 42bc 90f9 133d
000000e0: 08bc 5ebc dead f03c 88ca babc 765b 32bd
000000f0: e87e 9dbd eecb 5bbc 79a0 95bd 2664 c2bd
00000100: 18d5 c1bd 7c7b 9d3d 3b44 65bd 0000 a43d
00000110: 4fad 89bc e413 0a3d 152a 2e3a cd3e 84bc
00000120: 8b33 9f3c 13e7 483c 60e7 b33d bdd4 7ebc
00000130: 83e1 6e3d c71c ce3d 8d66 a93e 51c7 2d3e
00000140: 867e 19be 535a 823e b7e8 e13b a2bc 1fbc
00000150: 1054 003d 1c97 183d 7700 97bd beeb 313c
00000160: b4a7 80bc fda9 493d c79e 8c3d 3375 e8bc
00000170: 8628 b0bc 437e 50bd d89a f0bc 030b 98bd
00000180: 294b 723c 9714 93bb 1362 1abc 32ca 023c
00000190: 7dc0 3b3c 45fd d63b 5a57 08bc a6fe ca3c
000001a0: 8155 0e3c 0592 2fbc 2d57 c1bb e81d 17be
000001b0: 3a15 6c3e 39b1 da3c 3454 c13e 079b 763e
000001c0: 250f d03b 6436 2fbd 6779 043e 2c7d a3b9
000001d0: 3d29 b9bd c35c 883c 3aa0 d4be 24da 6d3d
000001e0: d9e9 2abd dff4 b03c 237a 76be 1876 0c3e
000001f0: 3dab 18be 8d4e 17bd 48eb d8bd 5cab 72be
00000200: 8c95 45bd 3894 463e c82f 363d f059 a3bd
00000210: 73a7 753d 4fe7 e7bc 51be 6cbd 5098 f5bd
00000220: a2c5 813c 1514 19bd c029 123f 0f92 93bd
00000230: 782e a13d ce45 c13e a39a 833d e61e 08bc
00000240: 1e88 d53d 4319 853e 2e14 ffbd ec25 b03d
00000250: 859f b9be 36bb 7e3e 08af 31be 0631 12be
00000260: 785d 8dbd 01c7 8abe dc1c 0e3e 3456 a03e
00000270: 31bc 9d3c c792 0b3d b4be 1d3d eca0 9e3d
00000280: 7c4b 443d 8169 07bd ec0f 403d f723 7a3d
00000290: 6539 aebd cda3 893d 4e1d b03b d764 483d
000002a0: d4bd 673d 0c07 87bd 4cb1 d4bd 17b4 84bb
000002b0: efc4 eb3c 61b2 8f3c 369d acbd d09d afba
000002c0: 7cab 6bbd 6d5d cebd 67ca b73d 5a74 20bd
000002d0: c487 c2be 8229 213d 52cd 203e fcb1 883c
000002e0: b370 18bd cd13 07be b468 113d eb1b ccbd
000002f0: 48dc 65bd de52 d7bd d32b d5bd 3f59 7cb9
00000300: 6ad4 13bd 8b27 283d 6217 bfbc a232 1abd
00000310: 06c9 a33d e543 9b3d b0a6 ce3d 129e bc3d
00000320: 1b07 4c3d 30c8 05bc 561c 5b3d f3b1 453c
00000330: fb0c c7b9 fc37 333d bbb7 e1bd d657 c3bd
00000340: a516 a4bd f68a b3bd ddbc 09be c9c9 82bc
00000350: d432 d43d 31a1 db3d b0d1 bb3d 508c 08bd
00000360: be42 7ebd 773f 0dbf ab77 633e 54e0 33bd
00000370: 9914 5cbe 1c16 ddbc 4232 2f3e 6984 cdbd
00000380: be7d 113d 8334 07be b22e 92bd aee4 99bd
00000390: 588b 43be bda5 ba3d fb02 16bd 53b3 c83d
000003a0: b352 d1be a621 983d 2889 10bf 5cfa 073e
000003b0: e40e cfbd 3e45 24bd fb06 0abe ed11 863e
000003c0: 2099 493d daef 00bf 09b9 8f3d a771 633e
000003d0: a2e7 99bd 85a6 ac3e ecd7 9e3d 7be1 abbd
000003e0: 5f6d 7f3e b533 88bd 2655 01be a3e9 543d
000003f0: 46b0 5fbe 741c c13c 8846 9cbd a236 f43d
0.13875896 0.082456514 -0.09605765 0.34986702 0.29534805 -0.094762325 0.52990204 0.03844369
0.052315425 0.10263041 0.39899126 -0.16198137 -0.060481094 -0.11317419 0.20498154 0.24505809
-0.1814124 -0.51481307 0.1275669 0.06326325 0.09140472 -0.19857751 -0.13424219 0.13590874
0.06353296 -0.13211828 0.033170994 0.07785115 -0.20505734 0.03744793 0.07591201 -0.23857047
-0.13789135 0.06784759 -0.008403604 -0.028992172 0.047555316 0.02467685 0.33926085 0.6973222
-0.0998041 0.58135206 0.2436226 -0.0051468206 -0.10111357 0.229676 -0.14515251 0.112018146
-0.0072459755 -0.0401566 0.09476133 0.103557825 -0.08155546 -0.06465895 -0.011848014 0.036126673
-0.013594635 0.029379781 -0.022801653 -0.043544255 -0.07690221 -0.01341532 -0.07305998 -0.09491758
-0.094644725 0.076895684 -0.055973273 0.080078125 -0.016806273 0.033710375 0.0006643844 -0.016143227
0.019433757 0.012262124 0.08784366 -0.01555365 0.058320533 0.100640826 0.33086053 0.16970564
-0.14989671 0.25459537 0.006894197 -0.009749563 0.03133017 0.037253484 -0.073731355 0.010859428
-0.015704967 0.04923438 0.06866222 -0.028376197 -0.021503698 -0.050901663 -0.02937071 -0.07423975
0.014788427 -0.0044885385 -0.009422797 0.007982777 0.011459467 0.006560954 -0.0083216075 0.024779629
0.008687378 -0.010715966 -0.0059002847 -0.14757502 0.23054972 0.026695834 0.37759554 0.24082576
0.0063494616 -0.04277648 0.12936936 -0.00031183043 -0.09041069 0.016645795 -0.41528493 0.058069363
-0.04172692 0.021601139 -0.24070029 0.13716924 -0.14909072 -0.036940146 -0.10591751 -0.23698181
-0.048238322 0.19392478 0.04447916 -0.079761386 0.059974145 -0.028308539 -0.057798687 -0.11991942
0.015841309 -0.037372667 0.57094955 -0.07205593 0.07870191 0.3774857 0.06425979 -0.008308148
0.10426353 0.25995836 -0.12455021 0.08600983 -0.36254516 0.24876103 -0.17351925 -0.14276513
-0.069025934 -0.27104953 0.13878196 0.31315768 0.019254776 0.034075525 0.038511947 0.07745537
0.04792355 -0.0330596 0.046890184 0.061069455 -0.08507041 0.06720696 0.005374587 0.048924293
0.05657752 -0.06593141 -0.10385379 -0.0040497887 0.028780429 0.017541112 -0.08428423 -0.0013398472
-0.057536587 -0.10076413 0.08974152 -0.03917346 -0.37994206 0.039346226 0.15703323 0.016686432
-0.037216853 -0.13191147 0.035500243 -0.099662624 -0.05611828 -0.105138525 -0.104087494 -0.0002406584
-0.036091246 0.041053336 -0.02332658 -0.037645943 0.079973266 0.07581309 0.10090387 0.09209837
0.049811464 -0.008165404 0.05349382 0.012066352 -0.0003796591 0.043754563 -0.11021372 -0.09538238
-0.080121316 -0.08766739 -0.13450952 -0.01596536 0.10361257 0.10724104 0.09170854 -0.033336937
-0.06207537 -0.55174965 0.22213618 -0.043915108 -0.21492232 -0.026988082 0.17109016 -0.10035021
0.035520308 -0.13203625 -0.07137813 -0.0751432 -0.19096124 0.09113643 -0.036623936 0.097998284
-0.40883407 0.07428293 -0.56459284 0.13279098 -0.10110262 -0.040105097 -0.13479225 0.2618555
0.049218297 -0.50365984 0.070177145 0.22211324 -0.075148836 0.33720794 0.077560276 -0.08392616
0.24944066 -0.06650487 -0.12630138 0.051980626 -0.21844587 0.023573138 -0.0763064 0.11924483

bias f4 [256]
00000000: 3936 563d 628c 9cbd 3acb 32bd f159 b7bd
00000010: b33a 17bd 383b 3d3c 6143 74bc de57 4abd
00000020: afbd a7bd d529 14bc 4d83 6f3d 03b4 92bd
00000030: 1267 c6bc ee1e 8abd 844a e9bd 4f8e 01be
00000040: 3d23 183c 82ee b2bc f089 193d 6450 15bd
00000050: 1e75 19bd 8142 75bc f278 68bd 355d ef3c
00000060: 745d 993d 6d08 953d 6ec6 9bbd 2d3b a4bc
00000070: 4609 7fbd 52a8 843d e352 98bc d987 7fbc
00000080: 0eea 83bb 3d65 e83c 87c5 7fbd 96d7 0abd
00000090: 96fe 86bd 4558 583c fd9f aa3d 1cdd 9d3d
000000a0: 4b84 82bd 7dc6 e43c fb20 6abd 217b 0cbd
000000b0: 0a96 38bd 51f2 803d c737 8b3c d6bd fb3c
000000c0: 7d6a 4d3d f952 0ebd c3c8 89bd af73 82bc
000000d0: 3bda c539 a9d8 663d edf6 9f3c eba1 64bd
000000e0: 85ac bdbd 25f0 6ebd 2bb9 e4bc bbdd a63d
000000f0: ca25 8b3c 66fb b8bc b6eb 79bd 0f06 8dbd
00000100: 5113 cd3d f91a 6c3d 1562 73b8 d13b 3a3d
00000110: 11a1 8c3d e354 cbbd 42b3 913c 69b1 e2bc
00000120: 79a9 b33c 4476 82bc aa76 cbbc 3675 91bd
00000130: ec3a 0b3d c735 47bd 392d 6dbd f385 c43c
00000140: 80df ac3d 8c0a b0bc 826f 12bb 239e 16bd
00000150: c114 8c3d ecb2 b7bb b8a0 04bc 7f4b 453c
00000160: 31ad af3d e5c6 b3bd 8ada acbd ed24 b13b
00000170: 2151 bb3b 783e 0b3d 025e 9fbc 1990 50bd
00000180: cb20 52bc 5b19 273d 2f86 3ebc 35a0 b6bd
00000190: 3c33 b7bd c1cd d93c 638a 823d 79fa 9bbd
000001a0: 6919 d439 4003 be3c ed92 9abd b494 b1bd
000001b0: b00a 94bd 0f64 843b ff7a 9c3d 0501 853d
000001c0: 77b1 dfbd 4238 7cbc bbc7 fbbc 1914 d73b
000001d0: 85d7 c4bd 8d7c a9bc 8362 bf3c 2be4 243d
000001e0: 7c81 4a3c a79f a43d cf82 333d 4b4e d73c
000001f0: cc7f dbbc 6177 49bd bd69 9ebd 0db7 c13c
00000200: 5252 203d 68b8 9cbd 19ee 1d3b 686e 7b3d
00000210: 5576 323d 1456 343c 4c89 89bd 368c 03bd
00000220: cbb2 043b f41a 0ebe 44f4 b73d fba6 91bd
00000230: ba3b 1c3d b54b 12bd adc6 ab3d f4a8 e3bc
00000240: dafd 14be 63a2 1e3d 0b8f 78bd 2ab4 87bd
00000250: bd8d c5bc 742c a0bd b035 80bd a2c8 aebd
00000260: f0c7 9fbd 2617 a4bd 1361 753d aeb6 ac3d
00000270: 9095 46bd e1f9 a1bc 22ff 953d 5484 bcbb
00000280: 37e2 303d d8dc cabc 6505 463c 5cd1 80bd
00000290: 7cd7 1c3c 77f4 c0bd 3687 0fbd 17f3 81bd
000002a0: a0cd 073d 5b28 8cbd 95c4 10bc d318 05bd
000002b0: 4371 bd3a cf3c 9b3d 0dbc 84bc 7381 323d
000002c0: a610 a5bb 5b0d a63d e5a2 b6bd 64bb b2bd
000002d0: 7631 f8bc cdaa 543d 3378 4e3d 8a08 e9bd
000002e0: e06a 56bc 457b 69bd 29e3 9b3d 7872 7dbd
000002f0: efdd b83d 57c0 c73c 8e66 8fbd 43c0 c83c
00000300: d1e9 c3bd 8d02 78bd 23ca af3c 66a0 8bbd
00000310: 5cc8 923c dbf7 a2bd c465 9a3b b34b bfbd
00000320: c8e6 7b3d fb32 133d c999 25bc 1ee9 4b3d
00000330: e367 b83c 51e8 6d3d cac3 57bc 9111 b23d
00000340: 9e5e a3bd 71f6 fbbd 265e 1abc 6e2e 013d
00000350: c32d d13b cb92 7abd a520 9bba 59d0 aa3c
00000360: 7ab7 d3bd 6517 413d ce77 9d3b af9f 953c
00000370: 7170 2b3d 7f58 5d3d 433a a03d 404e 9e3c
00000380: e6e2 df3c ce48 03bd 0e0f e13c d0aa bfbd
00000390: d09c 283d f13a f7bc b455 87bd 0f20 8f3d
000003a0: 929a 623d 79c2 02bd 8272 c8bd 10d2 9ebd
000003b0: f87b d4bb d047 10bb daae a6bc 9b33 1d3d
000003c0: 3cb2 cbbd 756a a1bd ff12 e93c 281c cebd
000003d0: 7df1 083d 23e7 c3bd 6b9e bfbd 1e53 39bb
000003e0: 37d2 30bd c11d a43c 1708 6ebd d868 363d
000003f0: d0b8 dd3c 5744 9abd 56a2 65bd c1f2 42bc
0.052297805 -0.076439634 -0.043650843 -0.08952702 -0.036921214 0.011549763 -0.0149086425 -0.049400203
-0.08190476 -0.009043177 0.058474828 -0.07163241 -0.02421907 -0.067441806 -0.11391166 -0.12651943
0.009285745 -0.021842245 0.037485063 -0.03645362 -0.037465207 -0.014969469 -0.056755967 0.02921925
0.07488528 0.07276998 -0.07606207 -0.020047748 -0.062264703 0.06477417 -0.018594211 -0.015596353
-0.004025704 0.028368587 -0.062444236 -0.033897005 -0.06591527 0.013204639 0.083312966 0.07708189
-0.06372889 0.027926678 -0.05716036 -0.034297112 -0.045064963 0.06296218 0.01699437 0.03073017
0.050150383 -0.034747098 -0.067277454 -0.015924303 0.00037737362 0.056358967 0.019526923 -0.05581848
-0.09261421 -0.05833449 -0.027920326 0.081477605 0.016985793 -0.022580814 -0.061015807 -0.06885921
0.1001345 0.05764291 -5.802706e-05 0.0454672 0.068666585 -0.099283 0.017785672 -0.027672486
0.021931397 -0.015925534 -0.024836857 -0.07102434 0.03399174 -0.04863527 -0.057904456 0.023989653
0.08441067 -0.021489404 -0.0022344296 -0.036771905 0.06839896 -0.005606046 -0.008094959 0.012041925
0.085779555 -0.087781705 -0.084401205 0.005406013 0.0057164584 0.03399512 -0.019454006 -0.050918672
-0.012825201 0.040795665 -0.011628672 -0.08917276 -0.08945319 0.026587369 0.063740514 -0.07616133
0.00040454723 0.02319491 -0.07547555 -0.08670941 -0.07228601 0.004040248 0.07640647 0.06494335
-0.109225206 -0.015394272 -0.030734887 0.006563675 -0.096114196 -0.020689273 0.023362404 0.04025666
0.012359973 0.08038264 0.04382592 0.02628245 -0.026794337 -0.049186114 -0.07735012 0.023646856
0.039141007 -0.0765236 0.0024098216 0.06138459 0.04356988 0.011006851 -0.067156404 -0.032116137
0.002024817 -0.1387747 0.08982137 -0.07111927 0.038142897 -0.03571673 0.08387504 -0.027790524
-0.14549962 0.038729083 -0.06068329 -0.066261604 -0.024115438 -0.07820979 -0.0626024 -0.085343614
-0.07801807 -0.08012228 0.05990703 0.08433281 -0.048482478 -0.019772472 0.07324053 -0.0057530794
0.043184485 -0.02476351 0.012086247 -0.06289932 0.00957286 -0.09421628 -0.035041057 -0.06345194
0.033155084 -0.06843635 -0.008835931 -0.032494377 0.001445331 0.07579958 -0.01620295 0.043580484
-0.005037385 0.08108016 -0.089177884 -0.08727148 -0.030297022 0.0519207 0.0504076 -0.11378582
-0.013087004 -0.057002325 0.07611687 -0.061876744 0.090267055 0.024383707 -0.07001983 0.02450574
-0.09566081 -0.060549308 0.021458691 -0.06817703 0.017917804 -0.07957431 0.0047118384 -0.0934061
0.061499387 0.03593729 -0.010107466 0.049782865 0.022510475 0.058082882 -0.013169238 0.08694757
-0.07977031 -0.12302864 -0.009421861 0.03153842 0.006383629 -0.06117515 -0.001183529 0.020851301
-0.1033773 0.04714145 0.0048055416 0.01826462 0.04185528 0.054039475 0.078236125 0.019324422
0.027329873 -0.032051854 0.027472999 -0.09358752 0.041165173 -0.030179473 -0.066081434 0.069885366
0.05532319 -0.031923745 -0.09787466 -0.0775491 -0.006484505 -0.002201546 -0.020347048 0.038379293
-0.09946105 -0.07881633 0.02845144 -0.10063964 0.033433426 -0.0956557 -0.09356388 -0.0028278301
-0.043169226 0.020033719 -0.058113184 0.04453358 0.027065665 -0.07532566 -0.05606302 -0.011898697

weight f4 [256, 256]
00000000: 81c1 fa3c adf5 9fbd b33d a9bc 18c1 bb3d
00000010: 9601 0dbe f9d1 4fbe c4b7 1dbe c073 e13c
00000020: 9674 6dbd 3166 98bc 3bcb dbbd 595a 60bc
00000030: 3a59 fb3c 125a e63d ce20 21bc 8720 8d3c
00000040: 7b2c b7bd c8ff a63d c63c 763d c4a9 843d
00000050: 95a3 1fbd dd9f 72bd 3af9 00bb 6ab5 423e
00000060: 1e77 24bd 10c7 683c 8217 b7bd 3dfc 3ebd
00000070: fec9 84bc 89da 9abd f08d 1dbe 7639 49bd
00000080: 89b2 093d 0575 d1bd 5985 193c edd8 1a3e
00000090: d0be c5bd c763 8d3d 2ceb 823d 950e 633d
000000a0: 2e5a 9fbd 79bc a0bc 9043 cabd 614f 20bd
000000b0: 7bec 3a3d d5a8 91bd bc94 533c e658 5e3c
000000c0: 1eec bb3c c8b4 5b3c 9e9c 443d 8617 613d
000000d0: 6779 7f3e 1c42 90bd b811 5f3c d7ab b8bb
000000e0: d908 563c f68b dcbc fce0 453c 2481 8e3d
000000f0: 8bb1 62bd c069 31bd ce68 a9bc d669 e8bc
00000100: 1a99 b0bd 2e14 8dbc 2944 1bbd 54a2 733d
00000110: 5bb1 99bd 9045 c63d fbd8 55bd b22c 8c3d
00000120: 9b83 813a 7547 fcbd 699f 82bd e230 873d
00000130: ff8c 8abd 0415 863c ae33 983d 7f3d 6b3c
00000140: b7e5 eebb dbbe 073b 974c f6bd 93cf 10bc
00000150: 4f82 96bc 28a3 073c f986 fbbc 55ba 35be
00000160: 80b5 313c 0584 dabd f315 0bbd 8947 d13b
00000170: 5c7b 633d 596e 193c 5605 cbbc 79f8 8dbd
00000180: 6f1e 703b 302e bebd c44d 1abe 5b59 0b3e
00000190: be9e b5bc 2f72 0f3d 7ec0 253d 1e50 a2bd
000001a0: e11d debd 7b05 e839 756f 79bc 13ae 48bd
000001b0: 2814 8bbc 22e8 aabd f6b4 9d3d a822 0abd
000001c0: 76b1 65bc 663a 51be ff32 96bc 2994 c1b7
000001d0: 8451 7ebd 27c1 0c3d 4594 a0be dced 17bd
000001e0: bf35 a8bd adfe 09bd 5f96 363e 99c7 9b3b
000001f0: c8bd c0bb 4efc 83bc c7ad 21bd 3235 c5bc
00000200: 233c 6a3c 4bcf 713d 7c23 f7bc c6cc 3c3c
00000210: da66 f03d dc04 b73d f8a8 673c 3838 053c
00000220: 1324 6dbd c750 193c 57cf b8bc 130b adbd
00000230: 663a 3ebd 50a8 55ba 641d 2e3d c18b bfbc
00000240: 5c1c b7bd b29d 133d 5d46 09bd c58c d6bd
00000250: b978 b93b 42b9 b9bc d521 f53d c305 ff3d
00000260: 032c 9a3c 7bd9 e53c 2bc4 273d d428 ba3d
00000270: d933 633d 8745 53bd 6ef6 aebc 3339 513d
00000280: 5a6d 2f3c 9210 01be b1bc 2cbc f886 b9bc
00000290: 9e3e 9b3c 55ca 1ebc 4fcd 1a3d c18f bebd
000002a0: c281 6f3c c345 063d 2d5d d0bd 06dc 253d
000002b0: bf2a f3bd 309d 68bb 0e7e 0c3e d24b c8bc
000002c0: 1dd5 e23c 712e b0bb c1d1 1a3e 3e24 163c
000002d0: 79d8 1bbd 835d 9bbd 1970 fa3c 45d8 8dbc
000002e0: 3731 f2bc c6e7 843c ee0c cabd 5afc c83b
000002f0: bebd 783d 3101 023e 55b6 6ebd d943 e83d
00000300: e440 03be 69c9 813c fa4d a9bd efe1 fabc
00000310: 2dfd dabd 56f8 d33d 86cf 0fbc 54fd 92bd
00000320: 87c0 bd3c eb4c a33b ed29 493e 3e9e 39bc
00000330: 749d debc f6e3 343b 7231 b73d 6c34 85bd
00000340: 12c7 6bbc 5c30 0e3d 06d4 a7bc 956b b2bd
00000350: ff6c 8b3c c4b3 f53c 141a e9bc 7670 b6bd
00000360: d761 a0bc 9a57 ac3c 0156 a1bd 7e8a 80bd
00000370: 2b08 2bbc 2059 913c 047b 11bd 99d8 be3b
00000380: b86b 8abd 406d 82bd 10b4 eb3c bb18 8bbd
00000390: fdc5 5bbb 5899 64bd bd85 95bd de26 90bb
000003a0: c8b8 20bb 048a 14bc c82d f1bc 7215 debd
000003b0: b752 efbd d5e6 933d a929 27bd 5a77 723b
000003c0: 93ca d23d f1ac 743c d6e0 9c3c 81b5 7b3d
000003d0: a26b 31be 4ca1 9fbd 4012 99bc a257 873d
000003e0: 5bfe 60bd eef1 f2bd 863a a23c 87dd 44bd
000003f0: 6146 763d 1cfe 7bbc 8b0c 27bd daed aa3d
0.030609848 -0.07810531 -0.020659303 0.09167689 -0.13770136 -0.20294942 -0.15402132 0.027521014
-0.057972513 -0.018603416 -0.107321225 -0.013693416 0.030682195 0.11247648 -0.009834481 0.017227424
-0.08944031 0.08154255 0.06011655 0.06477693 -0.038974363 -0.05923449 -0.00196798 0.19014516
-0.04015266 0.014207616 -0.08940031 -0.046627272 -0.016209599 -0.075612135 -0.15386176 -0.049127065
0.03361753 -0.10227398 0.009370171 0.15121813 -0.09655535 0.06903797 0.06392512 0.05543383
-0.07780872 -0.01962112 -0.09876168 -0.0391382 0.04563568 -0.0711228 0.012913879 0.013571
0.022939738 0.013409801 0.048000924 0.054954074 0.24948655 -0.07043859 0.013615064 -0.0056357193
0.013063633 -0.026922207 0.012077566 0.06958225 -0.0553451 -0.04331374 -0.020679858 -0.028370779
-0.08622952 -0.017221536 -0.0379068 0.05948098 -0.07504531 0.09681237 -0.05220888 0.068444625
0.000988114 -0.12318317 -0.06378061 0.066011205 -0.06765174 0.016367443 0.07431732 0.0143579235
-0.0072905677 0.0020713124 -0.12026327 -0.008838552 -0.018372683 0.008278646 -0.030704008 -0.17746861
0.010846496 -0.10669712 -0.03395648 0.0063867015 0.055537567 0.009364688 -0.024782818 -0.06932158
0.0036639234 -0.09286153 -0.15068728 0.13608305 -0.02217042 0.035021003 0.040466778 -0.079254374
-0.10845543 0.00044254572 -0.015224327 -0.048994135 -0.016977385 -0.08345057 0.07700531 -0.033724457
-0.014019361 -0.20432433 -0.018334864 -2.3076385e-05 -0.062089458 0.034363892 -0.3136312 -0.037092075
-0.08213376 -0.033690143 0.178308 0.0047540185 -0.0058819987 -0.01611152 -0.039472368 -0.024073217
0.014296564 0.05903558 -0.030168287 0.011523431 0.117383674 0.08936474 0.014139406 0.008131079
-0.05789573 0.009357638 -0.022559805 -0.08449378 -0.04644241 -0.00081503857 0.042508498 -0.02338207
-0.08940956 0.03603906 -0.03351437 -0.104760684 0.005660143 -0.022671346 0.119693436 0.12452271
0.018819815 0.028057804 0.040958565 0.090898186 0.055469368 -0.05157998 -0.021357741 0.05107994
0.010707224 -0.12603977 -0.010543034 -0.022647366 0.018950757 -0.009691794 0.037793454 -0.09304763
0.014618339 0.032781374 -0.10174022 0.040493034 -0.118733875 -0.0035494082 0.13719961 -0.024450216
0.027689511 -0.00537663 0.15119077 0.009163914 -0.03804824 -0.07586195 0.03057103 -0.01731504
-0.029564483 0.0162238 -0.098657474 0.0061335983 0.060727827 0.12695767 -0.058279354 0.11341066
-0.12817723 0.01584311 -0.08266826 -0.030625312 -0.10692821 0.10350101 -0.008777505 -0.07177225
0.023163093 0.0049835346 0.196449 -0.011329232 -0.027174689 0.0027601696 0.08944978 -0.06504139
-0.014390724 0.034714088 -0.020486843 -0.08711926 0.017019747 0.029992945 -0.028454818 -0.08908169
-0.019577904 0.021037865 -0.07877732 -0.06276415 -0.010438959 0.017742693 -0.035517707 0.0058241603
-0.06758827 -0.06368494 0.028772384 -0.06791826 -0.0033534758 -0.055810302 -0.07300899 -0.0043991646
-0.00245242 -0.009066109 -0.029440776 -0.10843934 -0.116856985 0.07221762 -0.040811215 0.0036997409
0.10292544 0.014933811 0.019150179 0.061452392 -0.17326215 -0.07794437 -0.01868546 0.066085115
-0.054930072 -0.11862551 0.019803297 -0.048062827 0.060125712 -0.015380409 -0.040783446 0.08346148

bias f4 [256]
00000000: 4284 113d 1c0e 2cbd bc72 15bd 336f bfbb
00000010: bb6c 7bbc a71a 3f3d 38e5 aebd af5c 733c
00000020: e0c1 083d 1c71 37bd 99fc dbbd 2b3e 1abd
00000030: 0b33 c53c e90e c2bc e743 9f3d 9246 32bd
00000040: 3060 6dbc f339 2bbd 14e8 a5bd a96c 073b
00000050: 729b 3b3d b279 303c bb93 96bc 6dc7 283d
00000060: 75bd af3d 4203 cabc 4e6c 0f3d 719d a43c
00000070: 5bfa 89bc 250d 293d 774b 69bd fecf 2ebc
00000080: 2827 af3c c86f ffbc d442 52bd ee81 d13d
00000090: 5c32 6dbc 5d8c f5bd 31d8 e2bd 0ac7 563d
000000a0: 4318 8b3c 6761 353c fc9a 693d 2c43 5fbd
000000b0: 6c20 e63b dc2f d6bd b7d7 233d 9923 c53c
000000c0: 5fbc 84bd c79b c9bd 4543 053d 2318 9cbd
000000d0: b031 bcbc f1b7 d7bd 5fbb 173d e9e2 b4bb
000000e0: d913 753d 1467 35bc 41a2 4abc 8188 adbc
000000f0: 87f7 113b 4c5f 6cbc 85b6 88ba ce95 3b3c
00000100: 3217 833b 3ef5 4e3d 88d1 f43c 340b 54bd
00000110: d9ee abbd a72a 673d 5011 88bd d2d6 5abd
00000120: a7c0 153e 1b40 d2bd 99f1 16be 88a7 43bd
00000130: 5510 693b 843f ab3d eae9 6fbd 2c0b 01bd
00000140: f882 9fbd 40ef 65bb fa9e 3d3d 49c7 d8bc
00000150: ed56 cb3c 6efe 35bd 0d47 723d 2625 6fbd
00000160: e290 a7bd dc8f 0fbd c5a2 a8bc a954 483c
00000170: 47f2 10bd 7147 2fbd a791 17bd d4a6 1cbe
00000180: 3c23 05be de91 66bd 7477 16be 77f4 ba3b
00000190: 9a62 b23c 0214 0bbc 1798 9fbd 578a 9f3d
000001a0: eedc eb3c ec2c 28bd a17c 31bd 4eb8 61bb
000001b0: 36c4 5bbd 11b9 1cbd 7c4d 8bba ba34 e53c
000001c0: 05bc 893c f097 7c3d 3302 8fbd abe2 c33d
000001d0: 2da7 1c3d 2314 8e3d b7d6 973d e604 83bd
000001e0: 387a 12bb 1e5f 473b fa1c bb3d 2a9e e0bc
000001f0: e3fe 3fbd 24cf 3b3d 780f 04bd 3744 3cbd
00000200: 58e5 a33d 92e8 afbd 2d9d 66bd f032 c03d
00000210: 9a11 8fbc fc03 86bd 8813 87bd 8682 16bd
00000220: 258c 2c3d 724e 0d3d 7941 f4bc d6c6 40bd
00000230: 1572 b8bd fd4a a93d 1fbc 11be 2576 343c
00000240: 13ae 8fbc 9d91 aa3c bcb7 a4bd 0623 44be
00000250: 5647 bd3c 0ad1 2a3d 834d c03c 5d79 be3d
00000260: 51fc 15be 5a04 723d f2cd 6e3d fb9d a8bc
00000270: a1d0 1ebd e93e d6bd e5b0 3cbd e90a 33bc
00000280: 9319 843c 91b1 c9bc 0b3e 11bc d889 183d
00000290: 0f8f f73d 556b c73d 65cf 6b3c 119f d73d
000002a0: d841 9ebd 07fd 87bb 0d61 bdbc f994 c43c
000002b0: a335 1f3d e68a 703c aec1 963d a4d1 2d3c
000002c0: 6134 733c 474c 2abd cfa9 e1bb 91b5 c73d
000002d0: 6cf1 87bd e2ee cabc 8008 213d 852d 993d
000002e0: f3ab bebc 3dca 28bc e3ae 753d 0427 fcbc
000002f0: 6ddd 093c d609 353d 322a f9bc b2fa eabd
00000300: 8633 48bd ad9d 24bd 776e 5bbd 74db c4bc
00000310: 6a78 5abd 13ce 0fbe 24fd 40bd 254d 0f3d
00000320: ab0e 583d 4052 23bd c7c8 70bc fae8 dc3b
00000330: 362a 9b3c 25c2 983c 294b ca3c df14 d23c
00000340: e58f d73d a9f5 77bd e549 953c 677b 443b
00000350: df9d ac3c 9fa9 6bbb b9cb 23bd 9456 bebb
00000360: 5ca3 61bb 4106 c6bd 603e e2bd 3982 1c3d
00000370: ca36 dd3c e3bb 61bc 5a15 d8bb d2fe 383b
00000380: 4166 333d 1283 d43c 8d3e 9a3d 239f 6fbc
00000390: bddf e53d 8ade b83b e4c8 5f3d 42ae 5abd
000003a0: 1520 38bd 3adb 9ebd 949e 40bd 86c0 5fbd
000003b0: 5fcc 3bbc 099d 6a3d 76a0 62bd d2eb 243c
000003c0: 8d47 093d 87bc 11bd aaab 61bd 58d0 28bd
000003d0: 7517 d4bd fa33 383c d0d8 e23c 9f89 903b
000003e0: 000f 8c3b ca54 84bd 07eb 043c 80ce f2bd
000003f0: 3248 0d3d cb35 3abd 4adf c1bd 74ee 553c
0.03552652 -0.042005643 -0.036486372 -0.0058421134 -0.015345748 0.046656277 -0.08539814 0.01485364
0.03338802 -0.044785604 -0.107415386 -0.037656944 0.02407219 -0.02368875 0.07776623 -0.043524332
-0.014488265 -0.04180331 -0.08100906 0.0020664132 0.04580254 0.010771202 -0.01838099 0.041205812
0.08581058 -0.024659757 0.035015397 0.020094605 -0.016843012 0.0412723 -0.056956735 -0.010669706
0.021380976 -0.031181231 -0.051333264 0.1022986 -0.014477339 -0.11989663 -0.110763915 0.052435912
0.016979342 0.011070586 0.05703257 -0.05450742 0.007022908 -0.10458347 0.040000644 0.024064826
-0.064812414 -0.09844165 0.032534856 -0.07621791 -0.022972912 -0.10533131 0.037043925 -0.005520214
0.05983338 -0.011071939 -0.012367786 -0.021183254 0.0022272782 -0.014427017 -0.0010430372 0.01144929
0.004000568 0.05052685 0.029885069 -0.051768497 -0.08395166 0.05643716 -0.06643927 -0.053427525
0.14624272 -0.102661334 -0.147406 -0.047767192 0.0035562713 0.08361724 -0.058572687 -0.031504795
-0.07788652 -0.003508523 0.04629419 -0.026462214 0.024821723 -0.044432096 0.05914979 -0.058385037
-0.08181931 -0.035049304 -0.020585427 0.012227216 -0.035387304 -0.04279274 -0.03700414 -0.15298015
-0.13001722 -0.056291454 -0.14694005 0.005705412 0.021775533 -0.008488657 -0.07792681 0.07790058
0.02879187 -0.041058466 -0.043331746 -0.003444213 -0.05365392 -0.03826243 -0.001062795 0.027979244
0.016813288 0.061668336 -0.06982841 0.09564718 0.03824537 0.069374345 0.074140005 -0.06397419
-0.002235068 0.0030421684 0.09136386 -0.027419169 -0.04687394 0.04585184 -0.032241315 -0.045963492
0.08002728 -0.08589281 -0.05630224 0.093847156 -0.017464448 -0.06543729 -0.06595522 -0.03674557
0.04212584 0.03449864 -0.029816376 -0.047064625 -0.090061344 0.08266256 -0.14231919 0.011014496
-0.01753906 0.020821387 -0.08042857 -0.19153985 0.023105305 0.04170326 0.02347446 0.09300492
-0.14647032 0.05908618 0.058301874 -0.020583143 -0.038773183 -0.10461218 -0.046067137 -0.010927894
0.016125476 -0.024620803 -0.00886489 0.037240833 0.12087833 0.09737269 0.014392708 0.105283864
-0.077274024 -0.0041500363 -0.023117566 0.023996817 0.03886951 0.0146815535 0.0736116 0.010609064
0.014844031 -0.04157665 -0.006886698 0.09751428 -0.066378444 -0.024772111 0.039314747 0.07479385
-0.023275351 -0.010302124 0.059981238 -0.030780323 0.008414608 0.044198833 -0.030415628 -0.114735976
-0.04887726 -0.040189434 -0.053572144 -0.024030425 -0.053337492 -0.14043455 -0.047116414 0.03498568
0.052748363 -0.03987336 -0.014696307 0.00674164 0.018941026 0.018647263 0.024694042 0.025644718
0.105254926 -0.060537014 0.018223712 0.002998078 0.021071373 -0.0035959256 -0.039989207 -0.0058086608
-0.0034429645 -0.096691616 -0.11047053 0.038210128 0.027003665 -0.013777706 -0.006594342 0.0028228057
0.04379869 0.025941405 0.07531462 -0.0146253435 0.11224315 0.005641763 0.054634944 -0.05338884
-0.04495247 -0.07756658 -0.047026232 -0.054626964 -0.0114623 0.057278667 -0.05532881 0.01006599
0.0335155 -0.035580184 -0.055095352 -0.041214317 -0.103560366 0.011242861 0.027691275 0.004410937
0.004274249 -0.06461485 0.0081126755 -0.11855793 0.03449268 -0.045461457 -0.09466417 0.01305734

weight f4 [256, 256]
00000000: daf5 333d 514a 37bc 37fd 6d3b 12d9 8abd
00000010: aff9 c7bc 873f f83c b82d ce3c f218 753d
00000020: be39 cb3d 61b5 be3d c5dc 383b 9c98 ff3d
00000030: 6d00 553c 90e9 a03d b089 0ebe 9339 e43d
00000040: b94f a83c 9b2b 813d a931 acbe 6d5d 263d
00000050: 3a69 dcbc 4e57 98bd 89f5 07be 8d72 89bd
00000060: 75aa 6fbc 0555 783d 9a3e 283d 9629 573d
00000070: efee 10bd a05c 38bd 630b 89bd 9213 4abe
00000080: 4003 953c 4380 de3d 7843 5f3c 1e78 2fbe
00000090: 9f4e a4bc 7212 2a3c c4ae 1dbe bf6e 87bd
000000a0: 7a59 173d 9bde 363e 383d f43c f314 2d3d
000000b0: c901 f7bc f7e9 0ebc 5520 5bbd 2d37 7c3c
000000c0: 7d2c 2bbd 46f8 bb3d 77d9 653d 2003 663d
000000d0: 5cca e63a 3af6 8bbd c835 da3d 2c4e bebd
000000e0: 18d7 bfbc bc75 adbc 009d acbd 74ec 2f3d
000000f0: c852 caba 756a 073d 726c 5a3c 7921 a53d
00000100: 0c5d 33bd 211c a4bb 82a8 9ebb c00b 883e
00000110: 9ffc da3c 400c 09bd d758 babc 3aa7 d43c
00000120: 516f 433d e133 ac3c d8fc 32bc 24db f1bc
00000130: 9cfb 153e dbf2 cbbd 0cd8 b13d 6699 013e
00000140: 4746 3abd 3179 6e3d 9c4f cebc a1b2 963d
00000150: 6383 c4bd 623d 0bbd aaa2 8ebd 3c12 8d3c
00000160: 13aa 823d 0b15 2c3c 6bf7 6d3e 8cff 653d
00000170: f36f 32bd 6dfc 953c 37e7 3e3d d430 2fbd
00000180: b142 dd3c 7b2d ce3d bc14 be3d 43f6 a0bd
00000190: cf73 9cbd 9b4a 003d f551 1d3c 1cb0 253e
000001a0: 8b3d b0bd b6bf c6bc 02ae 8ebd af24 8d3d
000001b0: a7a9 69bd 9dfb 213d 821c 683e 2b45 c1bd
000001c0: 09a4 60bd e052 9a3c 7df5 923d 6087 75bd
000001d0: 29d2 e03c 9728 d4bd 3323 0fbd f1f2 ebbd
000001e0: ea72 093d cfea e23d b6aa 733c d750 1fbd
000001f0: 6639 7f3e 46bb 953d 46e3 debb f085 5d3d
00000200: 452d bd3d b456 b5bd 07b4 b9bb 4803 cbbd
00000210: 0eb2 913d 58a8 88bc 224a ae3d 7805 12bd
00000220: c98a 993d eb13 e63a 2ad3 dfbc f55a 3ebd
00000230: ff93 9a3d ab05 61bd aee4 b0bd c8f7 bcbd
00000240: 3416 a73c 751b 693d 0c7c bebc fa47 f8bb
00000250: facc 763d a5fb 8c3c b08b 003e b5ee 65bd
00000260: a0b6 0f3d 6e95 55bd d66b 063d 0a8a e0bd
00000270: 4de8 9cbc dc4e a73d 3834 d8bd 92f7 afbc
00000280: f4db 863c f021 a13d 8f57 8cbd 4fd1 e73b
00000290: 6a73 4a3d af2c f2bd 41e2 24be 3f3b 28be
000002a0: 8a24 733d e620 433d 9ffd 483c 9e33 f9bd
000002b0: 4fd7 323c 242c 00bd afb6 53bd c8d4 e23c
000002c0: d137 0dbd c791 573d 82b5 52bd 5a60 883d
000002d0: 8564 53bc 4369 35bc b55b fc3d 16d4 61bd
000002e0: e94b 2e3c fa0b e1bc ae67 a6ba 6a79 a2bd
000002f0: 5c5a 913c 0c3b bbbc 08a1 463c 9592 e3bc
00000300: 3e96 843c 7ee3 89bd a345 573c 462e 0a3e
00000310: 441c c23a f6d7 603d ec64 09b9 bf62 0ebd
00000320: 7000 bb39 e254 a6bd bb6d 003d 0aa8 813d
00000330: a940 80bd 7d00 88bd ab94 993d 1453 cbbc
00000340: 4414 84bd e1eb 08bb f8c2 393a d102 84bb
00000350: a823 433e 46d4 4bbe 1dad de3d 1318 8abd
00000360: cddf 16be bcff 7c3e 15d4 1cbe 7303 72bd
00000370: 29b4 5c3d f2c8 53be c70e 263b 8331 fc3c
00000380: 98da 5abd 6a23 0ebe dc76 9ebc f2cd d9bd
00000390: eb42 94bc b004 d73c 47ae 4e3d f3ee 143d
000003a0: 9afc acbc 3a7d 8d3d da7a 23bd 881b 3d3e
000003b0: 2171 0d3d d19f a6bd 09ef 1ebd fa76 b93c
000003c0: d8b4 2abe e037 de3d 5f21 ef3e 257e 24bd
000003d0: 3ffb ddbd b9a5 153c 4c1d 53be 35ae ce3d
000003e0: 403d ac3d 4a79 633d e512 2fbd 57db 4d3d
000003f0: 4580 afbc 3a92 523d f035 6abd b729 25bd
0.043935634 -0.011187152 0.0036314258 -0.06779684 -0.02441105 0.03030373 0.025168285 0.059838243
0.09923123 0.09311939 0.002820776 0.1248028 0.01300059 0.078570485 -0.13919711 0.11143794
0.020545827 0.06307145 -0.33631638 0.04061644 -0.026905645 -0.07438527 -0.13277258 -0.06711302
-0.0146280425 0.060627956 0.041075327 0.052529894 -0.035384115 -0.04501021 -0.06691625 -0.19734028
0.018190026 0.10864308 0.013626926 -0.17135665 -0.02005702 0.010380374 -0.15398699 -0.0661292
0.036950566 0.17858355 0.029814348 0.042256307 -0.030152218 -0.008722774 -0.05349763 0.015394014
-0.041790474 0.09178214 0.056115594 0.056155324 0.0017607915 -0.06834073 0.10654789 -0.09292254
-0.023417994 -0.021174304 -0.08428383 0.04295011 -0.0015436048 0.03306051 0.013331519 0.08063025
-0.04378991 -0.005008236 -0.004841865 0.26571465 0.026731787 -0.033458948 -0.02274744 0.025958646
0.04771358 0.021020832 -0.01092454 -0.02952344 0.14646763 -0.099584304 0.08683786 0.12656173
-0.045477178 0.058221046 -0.025184445 0.073582895 -0.095953725 -0.033994086 -0.069646195 0.017220609
0.06380095 0.010503064 0.23238914 0.05615191 -0.043563794 0.018308843 0.046607222 -0.042771176
0.02700934 0.100672685 0.092812985 -0.07859471 -0.07639276 0.03132115 0.00960206 0.16180462
-0.086054884 -0.024261337 -0.06966783 0.068917625 -0.05704656 0.039546598 0.22667125 -0.09437021
-0.054843936 0.018838346 0.071757294 -0.059943557 0.027443962 -0.103593044 -0.034945678 -0.11520947
0.033556856 0.110799424 0.014872244 -0.038895454 0.2492424 0.0731111 -0.0068019954 0.05408281
0.0923715 -0.08854428 -0.005667213 -0.09912735 0.07114039 -0.016681835 0.085102335 -0.035649747
0.07497174 0.0017553543 -0.02732237 -0.046473462 0.07547759 -0.054937046 -0.08637367 -0.09226948
0.02039633 0.05691095 -0.02325251 -0.0075769396 0.060254075 0.017209837 0.12553287 -0.056135852
0.035086274 -0.05214446 0.032817684 -0.10963829 -0.019153738 0.08169338 -0.10556835 -0.021480355
0.016462304 0.07867801 -0.06852638 0.007074512 0.049426474 -0.11824929 -0.16101934 -0.1642885
0.05936102 0.047638796 0.012267499 -0.12168048 0.010915591 -0.031292096 -0.051687893 0.027689353
-0.03447706 0.05262926 -0.05144263 0.066590026 -0.012902384 -0.01107246 0.12322179 -0.0551339
0.010638216 -0.027471531 -0.0012695694 -0.07933314 0.017743282 -0.022855304 0.012123354 -0.027779857
0.016184922 -0.06732844 0.013139161 0.13494214 0.0014809449 0.054893456 -0.00013102934 -0.03476214
0.00035667745 -0.08121659 0.031354647 0.06330879 -0.06262333 -0.06640718 0.07499059 -0.024819888
-0.06449178 -0.0020892548 0.00070862425 -0.004028656 0.1905657 -0.19905195 0.108728625 -0.06742873
-0.1473381 0.2470693 -0.15315278 -0.05908532 0.05388275 -0.20682123 0.0025338398 0.030785328
-0.053431123 -0.13880697 -0.019343786 -0.10634984 -0.018098315 0.026247352 0.050459173 0.036360692
-0.021116544 0.06908651 -0.039912082 0.18467534 0.034531716 -0.08135951 -0.03880218 0.02263974
-0.16670549 0.10850501 0.46705148 -0.040159363 -0.10838937 0.00913375 -0.20616645 0.10091821
0.0841012 0.055535592 -0.04274263 0.050258007 -0.021423468 0.051408984 -0.057180345 -0.040322986

bias f4 [256]
00000000: fe94 033c ede2 3e3e 7d70 1bbc c888 ca3d
00000010: 1012 333d 1911 e03c a9f2 76be d2a9 03be
00000020: f76f b9bd 8262 9bbd ed34 adbc 9ec2 99bd
00000030: 57db 8abc b142 943d e7ba 373d 5d37 1c3e
00000040: 8e2c 2e3b ba78 c83d 7697 20bd e18b 663c
00000050: e56d 7abe 33f3 e53c 8ddf 533e c249 42bd
00000060: d704 c33d 8489 16bd da1a a2bd 2834 00bd
00000070: 0c10 46bc 2135 bb3d 9b0a 88bd e76a a5bc
00000080: b59f 5abe 5a73 363e 6ded e03c b0cd 20bd
00000090: 7d9d 01bd c605 b4bb 29fd 423e 6b44 f03d
000000a0: b013 2cbe dd0a 0a3e 933b 523d 7f06 8f3d
000000b0: c6b0 e73d 79ec 333e bc4c 013e 8674 373e
000000c0: d593 1c3e aaf5 d23d 2b99 c6bc a170 90bd
000000d0: ca86 eebc 8247 013e 936c 3b3e 4138 413e
000000e0: b487 1c3d da37 393e 762e 02be a347 b8bc
000000f0: 35a8 40be 2330 18be 56d8 423d 490d 483e
00000100: bc8f 243d 9697 84be 99ff 5fbe 094c 313e
00000110: fa83 403e 00b5 32bd 8abc 62be e6c3 a6bd
00000120: a843 76bd 4899 83bd 0776 f33d 70ac ca3d
00000130: 24f7 c2bd bd88 a3bd 3eea dc3d 69fe 4bbd
00000140: d9d9 0e3e 1f80 52be 4f62 323e b192 853c
00000150: d1ce 11bc 2c3d 353d 454f c4bd 5ac0 f4ba
00000160: 4857 043d 7b5a 313e 9761 043e ea82 37ba
00000170: 3f0a b43d aaa2 84bd 04a7 2abd 2c8c 59be
00000180: a992 673c c595 e3bd b5a7 3f3e 0805 843d
00000190: a5c7 213b 0d74 9abd 8eaa ab3d 84ed 5c3d
000001a0: 1f09 2a3e 8c2d c23c d5aa 103e d5ca 54be
000001b0: 47a1 8d3d 36c4 55be 6396 24be a44c 0f3d
000001c0: b604 0a3d 3f0b 1c3e 3f5c 063e 80c1 b9bd
000001d0: 6e29 5ebd 3f6b c13d 9185 903c e4db bb3d
000001e0: ca51 7a3d 3afa 5bbe ad11 2cbd 9a19 493e
000001f0: 77fc 203e e8d5 28bc da73 7a3c 14f0 393d
00000200: 4dad dcbc 7e71 55be 1f4b 483e a6fb 903c
00000210: 9044 e73d 487b 9fbd 3895 ad3d 615f e9bd
00000220: 851a 30be a9f9 3d3d cc6a d93d b3b6 443d
00000230: 3493 03bd 97ed bfbd 4808 973d fd6b b73d
00000240: c1b2 d6bd 246d 3abd 5a87 fa3c 7389 333c
00000250: 0da7 083e e503 303e 5978 babd 7839 b7bd
00000260: 0df7 dcbd 61b2 113c c569 473e 224b 053d
00000270: a1cc a3bb da52 e0bb 8dc0 fa3a 5d5a 3bbb
00000280: 74db ec3d 5184 19bc 489f 1fbd a858 b23d
00000290: ebbb dd3d 4005 603e c78b 48be 0933 763d
000002a0: d3d5 78be e00f 31bd c7bb 8cbc 4639 303d
000002b0: c031 a23d 34bc aebd 63c8 53be 70ea 70be
000002c0: 9d8d 053e d426 003d dc0f cfbd e523 6dbc
000002d0: f189 183c 8dca 9fbc cf42 4b3b b69d 59be
000002e0: 1bba 623c e468 eb3d 977b 8a3c 556e 323e
000002f0: 6941 8ebc 5080 1c3e 9131 2c3d 266a 103e
00000300: f6b2 95bd e1c7 4b3e b9a7 b5bd 173d b1bd
00000310: b53d 473d a7b8 153e 4a03 f93c 1caa c7bc
00000320: 9dc8 fbb9 39b9 033e 8d0e f83c 54e1 a63d
00000330: 0090 973d 3889 5f3e f715 06be dbec 743d
00000340: e367 48be fe6f 883d bb37 ab3d 69de 96bc
00000350: dc70 1c3e 97a9 c63d 8775 213e 8a10 943d
00000360: 41ec 2cbc 2e1e 1fbd 0eb2 ed3b c35d 3c3e
00000370: 43b0 64be 2f58 04bd 2d0e 4f3e 6f69 123e
00000380: b8f4 0cbc 456c 1dbd 6736 07bd c441 9e3d
00000390: e13e 4a3d faa4 0b3e 05fa 4ebd cbbc 123e
000003a0: 5b4a d03d edd4 f13d c381 56be 02bc d53d
000003b0: d681 15bd 31a3 043e 2034 053e 63ac 48be
000003c0: f24a 573e f2f9 df3d 136f 0dbd 1eb9 7abe
000003d0: c8fe 1c3e 9f7f 303e 5a2a 333e 5e52 073e
000003e0: 53bd fb3d 2298 0b3e 9e13 80bc 9af3 65bd
000003f0: dcad a2bd 3ac0 2bbd 583a d33c 3f60 0a3e
0.008031128 0.18641253 -0.0094872685 0.0988937 0.043718398 0.027351903 -0.24116005 -0.1285775
-0.09054559 -0.07587148 -0.021143401 -0.075078234 -0.016950293 0.07239283 0.04485598 0.15255494
0.002657685 0.09788652 -0.039206944 0.014071436 -0.24455984 0.028070068 0.20690747 -0.047433622
0.095224075 -0.03675224 -0.07915278 -0.03129974 -0.012088787 0.09140993 -0.06642648 -0.020192577
-0.21349986 0.1781744 0.027456963 -0.03925866 -0.031644333 -0.0054938523 0.19041885 0.117318
-0.16804385 0.13480707 0.051326346 0.06983661 0.11313014 0.17570676 0.12626928 0.17915544
0.15290768 0.10300763 -0.024242958 -0.07052732 -0.029117007 0.12624934 0.18303137 0.18869115
0.038215354 0.18087712 -0.12713036 -0.022495097 -0.18814166 -0.14862113 0.047569595 0.19536318
0.04017614 -0.258969 -0.21874847 0.17314161 0.18800345 -0.043629646 -0.22142234 -0.081428334
-0.060123116 -0.064257205 0.11887746 0.09896171 -0.095197946 -0.07985065 0.10786866 -0.04980317
0.1395029 -0.20556687 0.17420314 0.0163053 -0.0088994065 0.04424779 -0.09585432 -0.0018673048
0.0323098 0.17319672 0.12927853 -0.0007000404 0.08791017 -0.06476338 -0.041663185 -0.21244878
0.014134088 -0.11112551 0.18716319 0.06446272 0.0024685648 -0.07541666 0.0838214 0.05393745
0.16605042 0.023703359 0.14127667 -0.207805 0.06915527 -0.2087563 -0.16072993 0.0349852
0.0336959 0.15238665 0.13121127 -0.0907011 -0.05423873 0.09444284 0.017641814 0.091728
0.061113156 -0.21482173 -0.042009044 0.19638672 0.15721308 -0.0103049055 0.01528641 0.045394972
-0.026938105 -0.20844075 0.19559906 0.01769812 0.11292374 -0.07787186 0.08475727 -0.11395145
-0.17197616 0.046380673 0.10616073 0.048025798 -0.032122806 -0.093714885 0.073746264 0.08956144
-0.10483313 -0.04551424 0.030582119 0.010958063 0.13344975 0.17188986 -0.09104986 -0.08946508
-0.10789309 0.0088926265 0.19473942 0.032542355 -0.004998759 -0.006845814 0.0019130871 -0.0028587796
0.11565295 -0.009369926 -0.03897026 0.08708316 0.10826858 0.21877003 -0.19584571 0.060107265
-0.24300317 -0.04322803 -0.017179383 0.04302337 0.07919645 -0.08531991 -0.2068191 -0.23526931
0.13042302 0.03128703 -0.10110447 -0.01447389 0.009310232 -0.019505763 0.0031015163 -0.21251568
0.013838316 0.11494616 0.016904635 0.17424901 -0.017365174 0.15283322 0.042039458 0.14102992
-0.07309525 0.19900467 -0.08869881 -0.0865423 0.048642833 0.1462122 0.030397076 -0.024373107
-0.0004802392 0.12863626 0.030280376 0.08148447 0.07400513 0.21829689 -0.13094316 0.059796195
-0.1957088 0.06661986 0.08360239 -0.0184166 0.15277427 0.097003154 0.1576749 0.07229717
-0.010554374 -0.03884714 0.007253892 0.18395142 -0.22332864 -0.03231066 0.20220251 0.14298032
-0.008603267 -0.038433332 -0.033010866 0.077273875 0.049376372 0.13637152 -0.050531406 0.14329831
0.10170432 0.118081905 -0.20947938 0.1043625 -0.036500774 0.12952878 0.13008165 -0.1959701
0.21024683 0.10936345 -0.034529757 -0.24484679 0.15331566 0.17236184 0.17496625 0.13215014
0.1229197 0.13632253 -0.015634354 -0.05614052 -0.07943317 -0.04193137 0.025784656 0.13513277

weight f4 [97, 256]
00000000: a200 a53d 5bf3 37bc 8f62 49bd 72f7 8a3c
00000010: 6af6 323d f554 79bd ea2e bcbd 0ab3 143c
00000020: 66b2 bbbc 7f4d 84ba 0541 803c 9c85 c2bc
00000030: 448f 2bb6 5031 1bbd 5168 653d c89c 223d
00000040: 2f38 0dbc c996 68bd 0e17 de3d fe77 11bc
00000050: b772 263d bb79 3abd 1037 623c 10e0 8abc
00000060: 7ccd 02bd 2a51 efbc d044 dcbc 907c 0dbc
00000070: 7947 3a3c aab7 a1bb 6ea1 333d e8b0 cd3c
00000080: 3cb7 353d 073b 9fbc 168a 30bd 3ab6 90bc
00000090: b170 133d c58d 0cbc b448 723d 13c0 703d
000000a0: 32cf 9bbc 2f41 7abd 2873 4d3e eb32 043d
000000b0: f87d 233d 3015 a23b f096 693d aed1 52bd
000000c0: f87a 9e3c cf88 083c 0bda 07bd ea40 733b
000000d0: a6db 7d3c 3e7d df3b dfc1 593d b888 053e
000000e0: af7d e6bb 3e39 9c3d 881c 26bc 43ed 8538
000000f0: 7274 1cbc 1e6c 80bc f62a 0f3d d3e4 9dbd
00000100: 8b75 773d 93f4 70bd da22 6abd 6b12 593c
00000110: a162 e8ba ab34 e53c 50cb 82bd 646e 283a
00000120: e25f b4bd 0182 553c 89b5 27bd 7dda fabc
00000130: 3671 5b3a 7e21 bcbd f426 54bd f76d cd3c
00000140: d2e3 45bd b12e c43d 6b85 153d 72a5 703d
00000150: ec5b ee3d 98df 01bd 29d2 a1bc 6531 54bd
00000160: 92c9 213d 8d9f 753d 8aff b83d 37ee cf3b
00000170: 9381 8d3d 29ee f4bc 5ba2 2f3c f272 62bd
00000180: d3e3 36bd 9bc8 16bd 1d96 61bd b21d 3b3d
00000190: 71ee 7abd 32f6 2bbd d6c4 df3d e8a9 4b3d
000001a0: 0473 a73d 0445 ca3c 7428 1bbe 9687 363c
000001b0: 606a 0b3d 4230 153d 6a50 a03b f0ab c8bc
000001c0: d435 d13c 10f3 313d d499 f7bc b507 943c
000001d0: c40c 4bbd 1c2d 76bc bc49 b1bb bcbe 40be
000001e0: fad9 903c 7c3d 67bd 5c61 703b 1b9a 33bc
000001f0: d550 86bb d693 843d 70ee 99bd ca80 093c
00000200: 4a08 eebc 8b84 04bd 08e4 25bd 5937 d63c
00000210: 6fe3 b53c 93ee 96bd 332f 54bd b99e efbb
00000220: b26b 06be a259 023d 94ad 12bd b7c7 c1bc
00000230: 44b0 96bd 3c19 51bd 6539 473d 5f2f 893d
00000240: b143 51bc 9d7a 2cbd f731 31bd 9bb8 0b3d
00000250: 5898 173d 4bc3 0b3e 4a6f 65bd 9e32 60be
00000260: c9d8 4bbc dc76 54bd d552 5ebd de2e 6fbd
00000270: 569d 243d 668d 11bc 50c8 973c 7585 2a3c
00000280: cfbb 44bc 3e9e 233d f1e2 233d 0d83 8bbb
00000290: acb7 ff3c ba42 15bd 2062 9cbc b07c d13c
000002a0: ff25 9a3c 2c53 a0bc 7b54 edbc d661 593c
000002b0: a623 09bd c60c 553e 5464 b43b 079f 503d
000002c0: b804 2dbc e55f d5bc bae1 ad3d 253e c939
000002d0: 00ad f5bc 14ac c4bc 939a ccbc fb90 1bbd
000002e0: 5f53 093d 41e0 bdbc d5ac 0e3c 7ef9 ab3d
000002f0: b547 263d 4ff5 e73c 8a30 d53b eec2 1bbd
00000300: 49ce 79bc 6a37 013e f68f 913b 7ffb 97bd
00000310: 7c15 b9bb a9c8 213d adcf f5bd 2fea e4bc
00000320: 4577 25bc 0629 7d3c 9d37 bfbc 60fc 7c3a
00000330: 26b2 993d 61be c73c 21e2 60bc 036f 363d
00000340: 8a0d c13c bc3b 2dbd a8cc 5b3b 5b8f 38bd
00000350: bed2 ca3d c41a 033d 7e15 943d 6edb 1dbc
00000360: 42e3 1fbc f633 0ebb 2731 1e3d d003 3ebd
00000370: cc86 03bd 66db 7a3c e861 483d 833c b0bc
00000380: 0a1f ddbb 2d37 55bc 65e4 603c 17f5 68bc
00000390: d79d 41bd d1f4 8d3c b62d c13d ec33 8f3b
000003a0: 6f65 b53d 1f19 9b3d ea2b 853a 9181 b7ba
000003b0: 0223 36bb d3cc 603d cbff 763c d9dc 18bd
000003c0: 2d50 8a3d 2fcf b33c 3656 6dbd 359f 0c3d
000003d0: d278 5b3d b5f7 313d fb49 6cbd 3734 d43d
000003e0: e1f1 303d e308 a03d 0f47 4fbd b783 ffbc
000003f0: 8d31 c8bc 0668 133d 9ca0 5f3d b5ea 46bb
0.08056761 -0.011227454 -0.04916626 0.016963694 0.04369203 -0.060872037 -0.09188636 0.009075889
-0.022912215 -0.0010093896 0.015656004 -0.02374535 -2.5564377e-06 -0.037888825 0.056007687 0.0397003
-0.008619352 -0.056784425 0.10844241 -0.008878706 0.040636744 -0.045526247 0.013807073 -0.016952544
-0.031934246 -0.029213507 -0.026888281 -0.008635655 0.0113695795 -0.0049352245 0.043855123 0.02510877
0.0443642 -0.019437326 -0.04310044 -0.017665017 0.035996143 -0.008578722 0.059151366 0.058776926
-0.019019697 -0.06109732 0.2006346 0.03227512 0.039915055 0.0049463734 0.05702871 -0.051469497
0.019345745 0.008333399 -0.033166926 0.003711755 0.015494263 0.00682035 0.053163406 0.13040435
-0.0070340256 0.076281056 -0.010138638 6.386128e-05 -0.009549247 -0.015676554 0.03495308 -0.077096604
0.060414832 -0.058826994 -0.057162143 0.01324902 -0.0017729589 0.027979216 -0.06386435 0.0006425141
-0.08807351 0.013031484 -0.04094461 -0.030621761 0.0008371057 -0.09186076 -0.05179496 0.02507685
-0.04831297 0.09579218 0.03650419 0.05875153 0.116386265 -0.031707376 -0.019753532 -0.05180492
0.039498873 0.059966613 0.09033115 0.006345536 0.0690948 -0.02989872 0.010719861 -0.0552854
-0.044650864 -0.036812406 -0.0550748 0.045682617 -0.06126255 -0.041982837 0.10926215 0.049722582
0.08176234 0.024691112 -0.1515215 0.011140725 0.034036994 0.036422975 0.0048923986 -0.024496049
0.025538363 0.043444693 -0.030224718 0.018070081 -0.04957272 -0.015025403 -0.005410401 -0.1882276
0.017682064 -0.05645512 0.0036679124 -0.010962035 -0.0040989914 0.0647351 -0.075161815 0.008392522
-0.029056687 -0.032352965 -0.04050067 0.026149439 0.022203175 -0.07369723 -0.051802825 -0.0073126224
-0.1312702 0.03182376 -0.03581007 -0.023654802 -0.07357839 -0.051049456 0.04863872 0.066984884
-0.012772487 -0.04210912 -0.04326054 0.0341116 0.03701052 0.13648717 -0.056014337 -0.21894309
-0.012441822 -0.051871166 -0.054278214 -0.058394305 0.04018911 -0.00888381 0.018528134 0.010407795
-0.012007668 0.039945833 0.04001135 -0.004257566 0.031215511 -0.03644059 -0.019089758 0.025572151
0.018816946 -0.01957091 -0.028970947 0.013267955 -0.033481263 0.20805654 0.005505124 0.05093291
-0.010560207 -0.026046703 0.084903196 0.0003838401 -0.02998972 -0.024007834 -0.02497605 -0.03798006
0.033526774 -0.023178222 0.008708199 0.08397196 0.04059573 0.028315214 0.0065060304 -0.038027696
-0.015246936 0.12618795 0.0044422103 -0.07421016 -0.005648313 0.039498005 -0.12002502 -0.027943699
-0.010099237 0.015451675 -0.023341948 0.0009650644 0.07504682 0.024382772 -0.013725788 0.044539463
0.023566026 -0.042293295 0.0033538733 -0.04505859 0.09903477 0.032007948 0.07230662 -0.009634836
-0.009758772 -0.0021698452 0.038621094 -0.046390355 -0.032110974 0.015311098 0.048921496 -0.02151323
-0.006748085 -0.013013643 0.0137263285 -0.01421859 -0.04726967 0.017328652 0.09432547 0.0043702032
0.088572375 0.07573151 0.0010160182 -0.0014000406 -0.0027791862 0.054882836 0.015075634 -0.03731999
0.067535736 0.021949379 -0.057943545 0.03433152 0.05358202 0.043449122 -0.05768774 0.10361522
0.043199424 0.07814195 -0.050604876 -0.031190736 -0.02443769 0.035987876 0.05459653 -0.0030352299

bias f4 [97]
00000000: be47 013e 159b 6abc c133 10be 9b62 0b3c
00000010: 259e 1fbc 9c26 893e 8aa0 7c3b c173 c13d
00000020: deb5 b1bd 31d7 fcbd b41a 563b 21a4 98bc
00000030: dd71 bb3d 5874 703d f892 0c3e 1853 143c
00000040: af52 13be bad8 863c ae20 15bc 16c4 193e
00000050: 3229 253d 6104 093e a370 aebd 9e0d 05be
00000060: f072 3d3d fe3f 263d 5fe8 283e defc 863c
00000070: fa98 7d3d 5bcc afbd 4f30 a6bd 7350 49bc
00000080: dfe5 be3b 9a47 573e 5526 823c 0088 143e
00000090: 6253 b03c a369 1cbe 81ea 2b3d 1cac a3bb
000000a0: 5e03 303e 921d 2a3d 70d0 d43d 86e3 bebd
000000b0: 9ac3 15be 536e 2f3d c367 d1bc 0599 763e
000000c0: da50 2a3d 6d7f 623e de78 f5bd 9888 2bbe
000000d0: 2c03 8abb 000b cfbb 09a2 683e 6eb2 3b3e
000000e0: 9812 0d3e 041e efbd f548 41be 78df ee3b
000000f0: 6b0f 2fbc e730 333e 7255 473e fc72 a83d
00000100: 7e39 ac3b b911 fbbd 5b83 9c3b 5e51 ff3b
00000110: f261 293e 5fa7 523e f0b3 cc3d f28c 84bb
00000120: 9ab7 0dbe 3b5b 983d eac5 d4bc 97c0 00be
00000130: 2e27 32bd 003a 8f3d e3d3 b33c a240 143e
00000140: 204b 0a3c 7145 dd3b 3707 a93d 2ea3 1b3e
00000150: 5303 1bbe f6d5 e6bd f8d1 8cbc 90d6 71bc
00000160: 4427 8c3e 9505 563c 05e1 563d d882 45be
00000170: 84b8 3ebe 9796 21bc 0775 cbbb 7746 843e
00000180: f1df 243e
0.12625024 -0.014319201 -0.14082243 0.008507396 -0.009742294 0.2678727 0.0038547837 0.094459064
-0.086772665 -0.12345732 0.0032669725 -0.01863295 0.09152577 0.058704704 0.13727939 0.009053014
-0.1438701 0.016460765 -0.00910203 0.15016207 0.04032249 0.13380577 -0.085175775 -0.12993476
0.04625219 0.04058837 0.16494893 0.016477998 0.061913468 -0.085838996 -0.08114683 -0.012287247
0.0058257426 0.21023408 0.015887419 0.14505005 0.021524135 -0.15274672 0.041971687 -0.0049948823
0.17188784 0.041532107 0.10391319 -0.093207404 -0.14625397 0.042829823 -0.025562173 0.2408181
0.041581012 0.22118922 -0.11985944 -0.16751325 -0.004211804 -0.00631845 0.22718062 0.18329784
0.13776624 -0.11675647 -0.18875487 0.007289823 -0.010684828 0.17499124 0.19466189 0.082250565
0.005255877 -0.1225924 0.004776401 0.007791682 0.1654127 0.2057166 0.09995258 -0.0040451223
-0.1383957 0.07439276 -0.025973279 -0.12573467 -0.043494396 0.069934845 0.021951621 0.1447778
0.008440763 0.006752663 0.08253329 0.15198967 -0.15137987 -0.112712786 -0.017189965 -0.014760628
0.27373707 0.013062854 0.05246069 -0.19288194 -0.18625075 -0.009862564 -0.006209019 0.2583501
0.16101052
