data/example_dynamics_data/models/office/MLP_q_true.pth (torch, 740431 bytes, 8 tensors)

weight f4 [256, 107]
00000000: bb73 9e3e 8a90 b93e 48d6 93bd 46e6 573f
00000010: 28d6 01be b177 cfbd 9134 b73e cb74 b53d
00000020: edff 1e3d 0629 893d 1ff9 843e f523 06be
00000030: 1dc6 cebd dd00 b7bd 9c38 873e 1fbd d93e
00000040: 75a8 29be 9633 803d b092 d83d 317b 3b3d
00000050: 8978 c03e baf5 48be 48ae d0bd 0309 c73c
00000060: db32 043e 603b 09be 5d85 233d d610 5fbd
00000070: 4d8c c3be b289 60be 28cc 353e 67d8 193e
00000080: 9012 8ebf ff03 613d b2cd 85be ae78 97bc
00000090: 8728 a43d 1f8c 8f3d 4d9e 213f 5efe e13e
000000a0: 7bc0 c6bd 12b1 043e 2e26 ca3e f9f9 7bbd
000000b0: eef1 30be 5f1c 893e 2e45 ebbe 49f0 463e
000000c0: 3716 c8be c77c 39bd 0193 cc3d cd96 de3d
000000d0: 8d06 a7bd e96b 84bd 3012 8bbc 59f0 fd3c
000000e0: de60 99bc 4858 0d3d 81c7 90bc 765b 32bd
000000f0: e87e 9dbd f8e8 97bc 5521 a0bd 14e5 ccbd
00000100: 18d5 c1bd 0afc a73d 3b44 65bd 0000 a43d
00000110: 6ab0 b3bc fe24 ea3c 1931 ec3d cd3e 84bc
00000120: 4d36 c93c d2d6 e9bd b74b c13d 3390 e1bc
00000130: d871 6d3d 25a5 9cbd beb0 b53e cb0e 4a3e
00000140: 6b70 24be 6b5f b03e c6bc af3c 65c2 73bc
00000150: 7555 153d b398 2d3d 7700 97bd beeb 313c
00000160: a8aa aabc fda9 493d 651e 823d 2772 bebc
00000170: c125 86bc 437e 50bd d89a f0bc 928b a2bd
00000180: 8045 1e3c 0c08 1bbc d74f 593c b285 fa39
00000190: 3b6a 193c 644e c5bb 6efd 8c3c 4579 bf3c
000001a0: 04a3 04bd 3324 f6bb f2c2 e2ba 3198 81bd
000001b0: 1c16 923e 7c2d a93b 957a 9d3f d01f c63c
000001c0: 9df2 233b a718 4fbf a7a3 983d 84ba 8e3e
000001d0: a423 d4bd efe9 2abe 33cd 3ebe c378 23bb
000001e0: cbd9 f83c 5be8 053e 9770 323d ab4d 173d
000001f0: 7767 acbd 876c a43e 8df2 babd bb43 b4be
00000200: 3bed 96bd cac3 6f3e 5c1d 113e 73fd 3b3d
00000210: cc09 8e3e ab31 23be d0fd 813e fbb8 1cbd
00000220: 9509 8e3e 4f30 a7bd 26a7 f9be fac4 1ebf
00000230: e93b aa3d 9f58 183f c3a8 dd3c 8675 59bd
00000240: c9df 633d a2f5 24be 80df 4b3e fe10 c03d
00000250: 8d60 a73d 3887 8f3e 15ab 40be 7e52 bfbd
00000260: 2f24 863e 6e0d 103e 3e31 eb3d cd9c a23e
00000270: c16f 313c 4615 2e3d ee40 403d eca0 9e3d
00000280: 7c4b 443d a4eb 29bd 008e 1d3d 2ea1 573d
00000290: 13f8 9cbd ffe4 9a3d 4e1d b03b d764 483d
000002a0: d93b 453d 3c48 98bd 0cf3 e5bd 17b4 84bb
000002b0: bf64 183d 61b2 8f3c 369d acbd 6dfd 1fbc
000002c0: df16 87bd 3b88 3fbe 67ca b73d aae3 fbbc
000002d0: 84fc f53d 5d69 1a3e fa1f 07bf bf6b 86bb
000002e0: 0d4e 253e 3a91 f23e 8998 743d 1231 8d3d
000002f0: 42fa 893e c938 e33d 2d6d e6bd 9518 063c
00000300: 0ea4 e2bc 8b27 283d 6217 bfbc 08b5 3cbd
00000310: 06c9 a33d 3502 8a3d 25e8 df3d 78df cd3d
00000320: 1b07 4c3d 30c8 05bc 189a 383d 9a9c 6e3b
00000330: 2aef 923c e592 0cbd dc43 aebc 2477 25bd
00000340: 3ea8 923d bc27 6bbd 15ce d9bd 8b31 04bd
00000350: 7a9c a43d e2d9 443d 4605 3a3e 1302 203b
00000360: e9a9 04be 67d1 473f e5a2 743e c256 f33b
00000370: faa2 22bf 4497 013e 4721 413e a6ee cabd
00000380: 455a 5e3e 57ed 263c 6a45 27be 8f66 a4be
00000390: e60a ebbd 2010 a1bd 4807 313d 28d7 203d
000003a0: 1df0 8cbf 855c 9b3d 8e6b 6cbf 2271 143e
000003b0: 6503 1bbd 01a9 02be 24eb d63d b9e0 06bd
000003c0: b5b3 cb3d 5daa 98bf 186a c63c 12bd 8f3e
000003d0: 90db b3bd 02d6 163f 41b2 1c3e ef73 88bd
000003e0: 3f9e 97bd 97fd c4bd 57b9 91be 6588 1d3d
000003f0: 9d21 033e 49f1 b23e cb42 a3bd 7c7f f73c
0.3094767 0.36243087 -0.07218605 0.84335744 -0.1267935 -0.10130251 0.35782292 0.08860167
0.03881829 0.06697278 0.25971314 -0.13099654 -0.10096381 -0.089357115 0.26410377 0.425271
-0.16568168 0.06259839 0.105748534 0.04577178 0.3759196 -0.19624987 -0.101894915 0.02429629
0.12910025 -0.13401556 0.039922107 -0.054459415 -0.38192979 -0.21927527 0.1775366 0.15023957
-1.1099415 0.05493545 -0.26133496 -0.018490162 0.080155425 0.07009148 0.6313217 0.4413938
-0.097046815 0.12958172 0.39482254 -0.06151769 -0.17279789 0.26779458 -0.45951217 0.19427599
-0.3907945 -0.045285013 0.09988976 0.10868607 -0.08155546 -0.06465895 -0.016976446 0.030998396
-0.018722948 0.03450802 -0.017673256 -0.043544255 -0.07690221 -0.018543705 -0.078188576 -0.10004631
-0.094644725 0.082023695 -0.055973273 0.080078125 -0.021934707 0.028582092 0.11532802 -0.016143227
0.024562025 -0.11417927 0.094382696 -0.02753458 0.057969898 -0.07648686 0.35486406 0.19732206
-0.16058509 0.34447798 0.021452319 -0.01487789 0.03645845 0.042381953 -0.073731355 0.010859428
-0.020833328 0.04923438 0.063534535 -0.023247791 -0.016375424 -0.050901663 -0.02937071 -0.07936777
0.009660125 -0.009462368 0.013263664 0.00047783327 0.009363706 -0.006021308 0.017210688 0.023373256
-0.032382026 -0.0075116395 -0.001730053 -0.06327856 0.28532493 0.005162893 1.2303034 0.024185091
0.0025016435 -0.8089699 0.07453089 0.27876675 -0.103583604 -0.16690801 -0.18632965 -0.0024943806
0.03037729 0.13076918 0.043564405 0.036939304 -0.08418172 0.3211405 -0.09128294 -0.35207924
-0.07369467 0.23414531 0.14171356 0.045896005 0.2774185 -0.15936916 0.25388956 -0.03826235
0.27741686 -0.08163511 -0.48760337 -0.6201931 0.08312208 0.59510225 0.02705801 -0.053090595
0.05563334 -0.16109326 0.19909477 0.09378241 0.081727125 0.2803285 -0.18815263 -0.09341906
0.2619948 0.14067623 0.114840016 0.31760255 0.010829867 0.042500757 0.04693692 0.07745537
0.04792355 -0.04148449 0.0384655 0.052643947 -0.07664504 0.07563209 0.005374587 0.048924293
0.04815278 -0.074356526 -0.11227998 -0.0040497887 0.037205454 0.017541112 -0.08428423 -0.009765011
-0.06596159 -0.18704312 0.08974152 -0.030748207 0.12011054 0.15079255 -0.5278317 -0.0041022
0.16143055 0.47376424 0.05971578 0.06894125 0.26948744 0.11094815 -0.112512924 0.008184572
-0.027666118 0.041053336 -0.02332658 -0.046071082 0.079973266 0.06738702 0.1093295 0.10052389
0.049811464 -0.008165404 0.04506883 0.003640926 0.017936308 -0.034319777 -0.021272592 -0.040396824
0.07160996 -0.05741094 -0.1063501 -0.03227381 0.08037658 0.04805935 0.18166074 0.0024415299
-0.1295544 0.780539 0.23890264 0.007426114 -0.6352993 0.1265536 0.1886035 -0.099088
0.21714123 0.010188422 -0.16335073 -0.32109496 -0.11476688 -0.07864404 0.043219835 0.03926769
-1.1010777 0.07586006 -0.92351615 0.14496282 -0.037845034 -0.12759782 0.10494068 -0.032929156
0.09946386 -1.1926991 0.024220511 0.28073937 -0.087821126 0.589203 0.15302373 -0.066627376
-0.0740323 -0.09618681 -0.28461716 0.038460154 0.12805791 0.3494971 -0.07971724 0.030212156

bias f4 [256]
00000000: fb34 413d 9acd adbd b033 13bd 1baa cfbd
00000010: ac2f 62bd f35a 38bc b710 27bd 7978 9fbd
00000020: 6ced bcbd 8f24 09bd 5de2 283d 7609 a1bd
00000030: 9ee7 61bd 6c31 73bd 803c cbbd 1cb8 f2bd
00000040: 4b95 10bd 38c1 efbc cd13 033d 525e 59bd
00000050: 3293 45bd f657 24bd a786 7ebd d71a 743b
00000060: a35a 4e3d f05e 883d fe53 84bd de31 adbc
00000070: 9d2f 62bd f1aa dd3c 82bb 84bb 49be 60bd
00000080: cbcc adbc 8178 0a3d 4568 cbbd 5d01 8abd
00000090: 348a 56bd 67a8 afbb 20a4 693d 4847 903d
000000a0: 5f00 3ebd 4c7f bf3c e6a8 16bd fc64 49bd
000000b0: d9d4 78bd b2a1 733d 87ee f9bb 988c 213c
000000c0: cb22 433d 6dfb 04bd bef4 84bd baef 6fbc
000000d0: a98c 533d 5d9a 123d 1615 0dbc c515 0cbd
000000e0: 505e bcbd e9cf caba fed7 8cbc d2a5 8e3d
000000f0: ecbc d2bc b79d f5bc 34bd f0bd 808d 8abd
00000100: f316 de3d 3f93 563d 7a0c 5bbc 994f 3e3d
00000110: acde 9c3d 0830 b2bd ae02 493c 093e 80bd
00000120: aed1 753c 7d6e a6bc 11bc e5bc 0c2f 13be
00000130: 1555 363d 2ad6 54bd 3af0 5ebd 3a30 403c
00000140: 5988 b93d acf4 65bd f91c 20bc 99ce fcbc
00000150: 40bd 833d 2875 0a3d cf4e 713c 42f8 9b3b
00000160: aada 8f3d 4477 99bd 420e dcbd 58b9 dbbc
00000170: d8ff 46bc 8874 083d b326 27bd 23d9 55bd
00000180: 4283 8bbc d0d7 353d 87b9 1ebd 6d83 91bd
00000190: 2700 babd c2d1 e93c 9a72 5d3d 9da3 a6bd
000001a0: e543 31bd f0eb ee3c afff a2bd 1b2d fcbd
000001b0: df52 e0bd ecd8 34bc 8bb3 a13d a8a8 4f3d
000001c0: 14cb eebd 9ed1 2abc 4525 48bd f402 5eba
000001d0: 6c12 bebd f675 23bc 345a 283c 8d6e 5d3c
000001e0: 84db cc3c fc5d 743d 5844 f63c 2d04 2abd
000001f0: df16 c9bc 95d5 8dbd a8de 8ebd 5ccd 9a3c
00000200: 843d 083d 0230 c9bd f344 5cbc 1d29 563d
00000210: 71dc 563d 4f22 32bb 3ff1 aebd 7736 23bc
00000220: c9c1 1ebc 4966 5dbd d623 a13d 96ce 94bd
00000230: b2ab 113d 7948 32bd 6873 ab3d 4854 48bd
00000240: ede0 2cbe b01c 2f3d d85d cdbc f6ca 59bd
00000250: 9c2f dabc 19fb c0bd 0b07 cdbd 5910 c6bd
00000260: 59f8 cebd 08aa a3bd 8b51 373d f814 6d3d
00000270: 0237 11bd 17cc 87bc d7c8 b23d 2b5e 0dbd
00000280: 1bbc 993c 5d03 06bd f0e4 faba 6b35 16bd
00000290: 1b1b 8bbc 6c51 6dbd 1a4b b7bd 9ead 80bd
000002a0: 0d6b c93c 8748 9dbd 08fe fabc ed84 20bd
000002b0: d8ad 8cba 88f7 863d c8f1 42bc 680c 1a3d
000002c0: acfc 6ebb dec0 9b3d 68fe c2bd 28e7 9ebd
000002d0: 6cf2 21bd eadb 3d3d 2d48 573d 9cf9 09be
000002e0: ffb6 fabc 44af 59bd 286a 9d3d da73 99bd
000002f0: d179 b63d ab2e 193d 0c72 ccbd 27b3 bb3b
00000300: 1681 f0bd 2769 62bd 4eea 3e3c 94c1 a1bd
00000310: 83a2 4e3c 2093 9fbd df74 e93b 2eb2 c5bd
00000320: 2781 093d 60de 5f3d cd33 c0bc 6a31 2b3d
00000330: cece 5c3c b035 493d 72d0 363c 8cff 8c3d
00000340: 0afd 9dbd 9ec0 f1bd b160 86bc 741f 75bb
00000350: a64a 98bc fbe5 7ebd f37e 07bc b8a4 0b3c
00000360: 559c debd 126b 7b3c 9ab1 d6bb 7a40 dc3b
00000370: a25a cf3a da7b 283d 0f45 8a3d 8b5d 753c
00000380: cb65 a53b 386e 7cbd 1dd0 2f3d ba7c 60bd
00000390: ac12 653d 2ce1 06bd 2724 b1bd 0744 a23d
000003a0: 7936 043d 3d29 8fbd 2c4a c5bd 198f d8bd
000003b0: feb3 eabb a4c5 da3a 1a91 21bd 2322 fe3c
000003c0: 24c4 0cbe d654 bcbd 2403 a03b fc3d e0bd
000003d0: af59 e63c 418b f9bd 6a11 dfbd fe6b 34bb
000003e0: a5aa 80bd f931 4f3d 81a5 adbd 3d18 d63c
000003f0: e75b 9eb9 7e12 b8bd 717e 21bd 3596 f9bc
0.047169667 -0.08486481 -0.035937965 -0.10139867 -0.055221245 -0.011252153 -0.040787425 -0.0778665
-0.09224972 -0.03348213 0.0412315 -0.07863133 -0.055152528 -0.059373304 -0.09923649 -0.11851522
-0.035298627 -0.029266939 0.032001305 -0.053068466 -0.04823608 -0.04012295 -0.062140133 0.0037247443
0.050379407 0.06658733 -0.06461333 -0.021141943 -0.05522119 0.02705905 -0.004050673 -0.05486897
-0.021215817 0.033806328 -0.09931997 -0.06738541 -0.052377895 -0.0053606513 0.057041287 0.07044846
-0.046387073 0.02337613 -0.036782168 -0.04916857 -0.060749862 0.059480377 -0.0076273116 0.00986018
0.047640603 -0.03246634 -0.06491993 -0.014644558 0.051647816 0.035791744 -0.008610984 -0.03420045
-0.09197676 -0.0015473339 -0.017192837 0.069652215 -0.02572485 -0.02998243 -0.11754838 -0.0676527
0.10844221 0.05238652 -0.013369674 0.04646263 0.07659659 -0.087005675 0.012268705 -0.06261832
0.015003605 -0.020316357 -0.028043779 -0.14373416 0.044514734 -0.051962055 -0.054428317 0.011730248
0.090592094 -0.05614154 -0.009772533 -0.030860232 0.06432581 0.033803135 0.014728262 0.0047598192
0.07024129 -0.07493451 -0.10744907 -0.026821777 -0.012145959 0.033314258 -0.04080839 -0.05220903
-0.017030362 0.044395268 -0.03875115 -0.071051456 -0.0908206 0.028542403 0.05406437 -0.081366755
-0.04327764 0.029165238 -0.07958924 -0.12313291 -0.109533064 -0.011038046 0.07895573 0.050697953
-0.11659828 -0.010425953 -0.048863668 -0.0008469068 -0.092808574 -0.009976855 0.010275412 0.013515127
0.025007017 0.059659943 0.030061886 -0.04150789 -0.024547039 -0.06925503 -0.06976062 0.018896751
0.03326179 -0.0982361 -0.013444173 0.052285302 0.052456323 -0.0027181094 -0.08542108 -0.009961716
-0.009689757 -0.054052625 0.07868163 -0.07265966 0.035564132 -0.043526147 0.08371621 -0.048908502
-0.16882677 0.042751968 -0.025069162 -0.053172074 -0.02663403 -0.09422893 -0.10011109 -0.09671087
-0.10105962 -0.07991415 0.0447555 0.057881325 -0.03545285 -0.01657681 0.087297134 -0.034513634
0.018766453 -0.03271805 -0.0019141715 -0.036672037 -0.016980698 -0.057938978 -0.08949871 -0.06283115
0.024587179 -0.07679849 -0.03063871 -0.039189268 -0.0010732962 0.065901816 -0.011898465 0.037609488
-0.0036466522 0.07605146 -0.095211804 -0.07758933 -0.039537832 0.046352305 0.052559067 -0.13474125
-0.030604837 -0.053145662 0.07686263 -0.074928 0.089099534 0.03739802 -0.0998269 0.0057281437
-0.11743371 -0.055276062 0.011652542 -0.0789825 0.012611988 -0.07791734 0.007124528 -0.09653126
0.033570435 0.054655433 -0.0234622 0.04179517 0.01347704 0.049123466 0.011158096 0.06884679
-0.07714279 -0.11804317 -0.016403528 -0.003740278 -0.018590283 -0.062231045 -0.008270013 0.008523159
-0.10869662 0.015345352 -0.0065519335 0.0067215534 0.0015819857 0.04113374 0.06751453 0.014975916
0.005047535 -0.06162855 0.04292308 -0.05480645 0.05592601 -0.032929584 -0.08649474 0.079231314
0.03227851 -0.069902875 -0.09633288 -0.10574169 -0.00716257 0.0016690982 -0.03944502 0.031022137
-0.13746697 -0.09195869 0.004883187 -0.109493226 0.028118936 -0.12184764 -0.10891993 -0.0027530189
-0.06282548 0.050584767 -0.08478833 0.026134605 -0.0003020458 -0.08987902 -0.039427225 -0.030467132

weight f4 [256, 256]
00000000: 0f4e a7bc c0bf 163d ec3f 0a3e b61e 7c3d
00000010: 03ae b93b 14c0 1bbd 50de cebc 7330 43bd
00000020: 04ff 21be 8a8b b33d 729a 7abd b4fb e4bc
00000030: f3c6 66bc 7fd0 1cbd 9374 913d b720 12bc
00000040: bb0e 0ebe 790b 6fbd 6be0 bb3c ab7c e0bc
00000050: 76b0 13bd c0f3 c7bc da55 3dbe ce12 733d
00000060: 6c80 24bd a8ef 2cbe 3187 54be d2cc 0bbe
00000070: 47b3 58bd ea61 da3d 32dc eb3d 2fc2 0c3e
00000080: 69e8 8b3d 58b0 763d d5cd ca3d f048 b23c
00000090: 334a 4b3d f531 4ebe 6366 0bbc 7ed9 c5bc
000000a0: f894 6ebd 82f4 9ebe 7213 e53b 2cfd 02be
000000b0: 1518 723d f4d9 87bd d701 52be f136 49bd
000000c0: 8994 543d 1230 fabd ef76 243d 8154 80bd
000000d0: 417b 1f3d 06a9 903d 4525 9bbd 4fa3 63bd
000000e0: f42a f3bc 6166 77bd c3e9 113e 2cbc d6bb
000000f0: 8a95 7b3d 9b08 0d3e 2e13 d6bd 06e0 df3c
00000100: fa23 3ebc 5b70 913d ac88 803d 1e52 0abd
00000110: af7b adbd 8b1a 04bd e73d a7bd ac6a 1a3c
00000120: 4da7 bebd ffe4 153c 5734 04bd 0aed 2cbd
00000130: 5d97 6abd 13b8 a6be 7e25 d8bc 4665 893d
00000140: 6254 bf3b eaef 20bd dd9b 063d cfbc 873d
00000150: dc4a 11be 772d 073e 7f50 8dbd 396a 54bd
00000160: 9d52 693d 54b8 b2bd 42b9 91bd 7be5 d33c
00000170: 5029 22bd c512 49be d96b c53d a4aa fe3b
00000180: 5c49 103d 4212 77bd 210a 16be 58da ed3d
00000190: 7b1d 3dbd 575b 79bc 5c16 14be f45f 943c
000001a0: b1ac 5fbc 5096 c0bc cd12 90bd 17e3 62bd
000001b0: f1e3 26bd 844b 81bd 3dc6 ee3d d259 99bd
000001c0: 131c 9b3c 178e a83d 3989 893d fd8a c63c
000001d0: 1954 f1bd c1db 353d 979d 3fbc a021 dcbc
000001e0: 11f2 d1bc 9c9a 493d 2eee 003e 6131 f03b
000001f0: f7a8 963c c12d 06bd 66c5 4b3d 4a0a f33d
00000200: e200 9abc 87f0 88bd 5d72 353e 5147 693c
00000210: dd87 b43d 2ae0 673c 0d6e 9abd bc04 75bb
00000220: e7d5 83bd 118a ddbc 879e e6bd 39b6 40bd
00000230: 321e 93bc fcf2 b6bc 91ed fdbd d0b1 353c
00000240: 1475 19bd 32c6 a63b 27ca 88bd 377d 2ebc
00000250: 9d12 a8bd 6b64 dcbd 21e9 733d 4719 c93d
00000260: 2517 5fbd 4b45 d3be 5909 ba3d 2ee4 9c3c
00000270: 4331 5f3e 1bef f5bd 53ce 2a3d e085 3dbc
00000280: 7164 bf3d 13f8 2dbe 5fd1 20be 3b55 b7be
00000290: 3b77 0f3d 47b2 b73d 8093 95bd 4d18 d1bd
000002a0: 0207 203d 29e6 b4bd 4dab b53d b9e9 fd3a
000002b0: 4851 99bd a6b3 7f3d a2cd 53bd 9888 063d
000002c0: 7c84 13bc d136 1cbe 0cce 113d 9252 333d
000002d0: c58b 5e3d 4eb0 b3bd 6af6 063e 3475 343d
000002e0: 6119 9ebc 3190 bfbc c986 0abd 1638 44bc
000002f0: 0be3 ee3b 741f a1bd d278 c53d 46e7 15be
00000300: 251e d9bd 7cad a83d 155a 7ebd 5720 873d
00000310: 4a1b f8bd 1adb 0dbc 4c03 323e 1d98 6fbe
00000320: 0c54 513c 99dc 203d 77c4 e63d 86d5 1dbd
00000330: 2386 97bd f051 86bc 08f8 cf3d a32c ddbd
00000340: 08a7 d7bd d8ec 9a3d d36c d2bb b0f0 41bd
00000350: 5abc 29bd d8e9 8f3d 7fa9 a23d f118 80bd
00000360: e7be d23c 54cf 4f3d dede 1a3d a935 e6bc
00000370: 1b9f 3abd d879 f0bd 188c 46bc 90ac 833d
00000380: a01c 383c e0d6 d3bd d395 2e3d 0d24 92bd
00000390: de96 fabc 4634 ee3d c76b 0dbd ce76 123e
000003a0: 6129 3e3d 82d4 d73d bb3d 0cbc 83ae bc3d
000003b0: e496 e63d bd7d cabd 2319 a5bd 23c3 32be
000003c0: d588 bbbc 21d0 a5bd 2cd7 71bd 59eb 9b3c
000003d0: 7e87 583d 33f3 9fbd 7515 07be 0198 1bbc
000003e0: 8b3c 08bc 51e8 393e 1968 febd 4d5b 82bd
000003f0: 778a 313d ce65 9ebb 2760 8fbd 7ee5 70be
-0.020422963 0.03680396 0.13500947 0.061552726 0.0056664958 -0.038024977 -0.025252491 -0.047653627
-0.15819937 0.08766849 -0.061182447 -0.027952053 -0.014085519 -0.038284775 0.07102313 -0.008918933
-0.13872807 -0.05836055 0.02293416 -0.027403196 -0.03605696 -0.024408221 -0.18489781 0.059344105
-0.040161535 -0.16888297 -0.20754696 -0.13652351 -0.052905347 0.10663207 0.11516608 0.1374595
0.06831438 0.06022677 0.099025406 0.021763295 0.04963131 -0.20136245 -0.008508298 -0.02415156
-0.058247536 -0.3104592 0.0069908435 -0.1279189 0.059104998 -0.06633368 -0.20508514 -0.04912466
0.051899467 -0.122162 0.040152486 -0.06266118 0.038935903 0.07063489 -0.07575468 -0.055575665
-0.029683568 -0.06040037 0.1424933 -0.0065531936 0.06142191 0.13772814 -0.10452877 0.027328502
-0.011605257 0.07101508 0.06276068 -0.03376972 -0.084708564 -0.032251876 -0.08166104 0.009424847
-0.09309254 0.009148835 -0.032276478 -0.042218246 -0.057273258 -0.32562312 -0.026385065 0.067087695
0.0058389166 -0.0392913 0.032863487 0.06627809 -0.14188713 0.13200937 -0.06900119 -0.051859114
0.05696355 -0.08726564 -0.07115413 0.02586626 -0.03959018 -0.19636066 0.09639711 0.007771807
0.03522621 -0.060320146 -0.14652301 0.116139114 -0.046170693 -0.015219531 -0.14461654 0.01811216
-0.013652013 -0.023509175 -0.07034836 -0.05539235 -0.040744726 -0.063132316 0.11658905 -0.07487835
0.018934285 0.082302265 0.06715626 0.024236197 -0.117836185 0.044399027 -0.011695287 -0.026871502
-0.025628122 0.049219713 0.12590858 0.007330105 0.018391116 -0.032758478 0.0497488 0.11867197
-0.01879925 -0.06686502 0.17719407 0.014238195 0.08814976 0.014152566 -0.07540522 -0.0037386855
-0.06437283 -0.027043374 -0.112607054 -0.04704878 -0.017958734 -0.02233266 -0.12398828 0.011089757
-0.03746517 0.0050895447 -0.066791825 -0.010649971 -0.08206675 -0.10761341 0.0595485 0.098192744
-0.05446543 -0.41263804 0.09083814 0.019151773 0.21796136 -0.120084964 0.041700672 -0.011567563
0.093453296 -0.16989164 -0.15704869 -0.35807213 0.035025816 0.089695506 -0.07303524 -0.10209713
0.039069183 -0.08832962 0.08870564 0.0019372023 -0.07486206 0.062427185 -0.05170978 0.03284511
-0.009003755 -0.15255286 0.035596892 0.043779917 0.054332513 -0.08773862 0.13179937 0.044057086
-0.019299211 -0.023384186 -0.033819947 -0.011976263 0.007290249 -0.07867327 0.09642185 -0.14639005
-0.10601453 0.082362145 -0.062097628 0.06597965 -0.1211458 -0.008658195 0.1738407 -0.2339787
0.012776386 0.03927288 0.112679414 -0.03853371 -0.073986314 -0.016396493 0.1015473 -0.107995294
-0.105299056 0.075647056 -0.0064216643 -0.047348678 -0.04143939 0.07027024 0.07942485 -0.06254757
0.025725795 0.050734833 0.0378102 -0.028101759 -0.04556189 -0.1174199 -0.012118362 0.06429398
0.0112372935 -0.103437185 0.042623352 -0.071357824 -0.030589517 0.11631064 -0.034526613 0.14303133
0.04642618 0.105385795 -0.00855964 0.09212973 0.11259249 -0.09887264 -0.08061435 -0.17457251
-0.022892395 -0.08096338 -0.059043095 0.019033121 0.05286359 -0.078100584 -0.13191779 -0.00949669
-0.008315216 0.18155028 -0.12422199 -0.063650705 0.04334494 -0.0048339134 -0.070007615 -0.23525044

bias f4 [256]
00000000: 26e7 a53b f0ff 3cbe f784 83be eabd 083d
00000010: bf88 a4bc de99 403d 1acd dcbd ddd2 50bc
00000020: 5d3f 603d 6b96 53bd e558 bebd 073f a0bd
00000030: 9aaa 94bb 61b8 143d 543d 243e e925 c93b
00000040: 3115 053c 9095 97bd 9b64 20bd 8809 36bc
00000050: 3541 a83d 5b5d 31bd d4f6 e0bd 23ac 0c3d
00000060: f552 223d e376 17ba 6cc5 333c 0b9c a3bd
00000070: de53 c4bd 3748 c63d d382 25be dc2e 81bd
00000080: a1a2 f73c 2bbb 4abd 2deb fc3c ecc2 9d3d
00000090: 0880 9dbd f66a 6fbd 3b82 f0bd 697b 2b3d
000000a0: 555e c63c 2059 4c38 5975 ca3d b64d b5bd
000000b0: 41ec 123d b3d1 87be ef58 4b3d dfb5 2d3d
000000c0: 3249 04be f6da 79be c075 393d 9a54 04be
000000d0: 6c79 10be 30f1 40bd 7a7f a73c f62e 22be
000000e0: fc6c a83d 1666 62bd a65b aabc e39f cabd
000000f0: d2e1 2cbe 5f5f 4f3d 8581 e9bc a7c6 2a3c
00000100: 5131 0b3c f3dd 6e3d 96b4 633c baf2 eabd
00000110: 34d3 89be 727a 9f3d 6254 2bbc 3bb1 e6bd
00000120: a488 243e e382 4fbe 68be 64be 9b0e f1bd
00000130: 3aa0 c9bd db51 b53d bfe5 04bd 8456 dabd
00000140: d7e0 93be e51c 24be 71af efba 8ec2 0cbd
00000150: b36b 653c 08bb d3bd 74b3 513d 9014 74bd
00000160: 0ff3 dabd 04da 3dbd 8a2c cbbc 2754 93bc
00000170: 8876 ad3b aeb4 23be 6496 20bd fec7 9ebe
00000180: b6a8 2bbe 8c6f c3bd 68f4 0bbe d58b 483d
00000190: 8524 4e3d ebb3 cd3b 32a4 c3bd 06ca f43c
000001a0: 0c7f 703c 3fdc a0bd 136b 21bd f8c7 bd3c
000001b0: ebba ecbc 96c5 4a3b 23ae 4fbd 9b4d de3c
000001c0: c8d6 6b3d 5fb8 823d ebfe a0bd c88a d73d
000001d0: c1c5 b5bc ab6f 9e3d e01f c83d 82ce afbd
000001e0: e89a c7bd f32d 55bc 4740 273e 7751 fcbd
000001f0: fb8e 37bb b72a 433d d888 82bd 9a86 89bd
00000200: ea5f b23d 1e31 1cbe 8a14 d2bd 4f66 8d3d
00000210: 9ac4 abbb 5296 85bd acf8 6dbc ef23 b6bd
00000220: 3905 2e3d 4141 65bd 42b1 653d 0207 b1bb
00000230: b6b3 cebc f44f 0abe b416 9dbe 987d 0e3c
00000240: bdfc 91b9 47a8 e83c f2ec 12be 44ce 94be
00000250: 55fc 0d3d 4697 993d 3f23 1c3d cd98 ab3d
00000260: 16e6 76be 001d b23d feeb 473d 5bed 3cbc
00000270: 92de 86bd 2d06 72be ddbd cabd 240c 273d
00000280: c0e7 6fbc 6184 adbd 6458 1bbd 905d 323d
00000290: 704e 3e3e f102 753d 2711 063d 1c8f cb3d
000002a0: 266f 2cbd 1641 f9bb 42db 943c d22e 2d3d
000002b0: 796b 78bd aac1 99bd 267a 2f3d fa1b 433b
000002c0: ad4d 673c a793 dcbd f908 b2bd 3ff4 5d3d
000002d0: 41ef 2fbe ff9e 02bd db84 253c 310a 1f3e
000002e0: bce7 66bd 2640 84bd 9cd0 8c3d 85e2 8dbd
000002f0: de82 d5bc 40fc 7d3c 7260 d4bc 1b62 2fbe
00000300: 6565 80bd c346 f5bd 1f91 70bd c04d 11bd
00000310: 46c6 1bbe c229 6cbc 03fa 06bd 641d d33c
00000320: ba74 42bd fe96 acbd 1413 a3bd 1f04 e4b8
00000330: 80b8 8fbd 2e5a ecbc a701 2cbd 46d2 733c
00000340: 87c7 023e 3cf5 46be 910e a8bb caae ba3d
00000350: bb93 57be e35f 32bd 5ce4 89bd 3718 bfbc
00000360: ec38 9ebd f72b 1abe b43d f6bd 226f 6e3d
00000370: 5146 7bbc 581e e93b 5422 51bd 7a1b 6dbc
00000380: c1cc 9c3d d044 023c 97bf 4e3d 3eb7 61bd
00000390: 205b 143e 4431 2abe 830f 38bd 1d2a e3bd
000003a0: 60c1 8d3c 5b2c a6bd feef cebd f1de 0ebe
000003b0: 2785 dbbc 79b9 70bd bf18 15bd 14e3 41bb
000003c0: f10c 973d fe15 d1bd 5ce6 88bb 84a5 10bd
000003d0: 8aed cdbd 3e17 ccbc 49c6 a3bc 6b8f 8abc
000003e0: 40f4 a1bc e3b8 4cbd f4da 00be b54a 64be
000003f0: dc26 783d 478c ed3b e0c3 e8bd c780 7cbd
0.0050629554 -0.18457007 -0.25687382 0.03338424 -0.020084737 0.04702174 -0.107813075 -0.012745586
0.054747928 -0.05165712 -0.09294299 -0.078245215 -0.004536939 0.03630865 0.1603902 0.0061385524
0.008122728 -0.07401574 -0.039158445 -0.011110671 0.08215562 -0.04330192 -0.10984579 0.03434385
0.039629895 -0.00057779084 0.010972362 -0.07988747 -0.09586309 0.09681743 -0.16163187 -0.06307766
0.030228915 -0.049494904 0.03087386 0.07703194 -0.07690436 -0.058451615 -0.117435895 0.04186574
0.024214903 4.8720394e-05 0.098856635 -0.08852713 0.03586984 -0.26527175 0.04964536 0.042409774
-0.12918547 -0.24399933 0.04527831 -0.12922898 -0.14108819 -0.047105014 0.020446528 -0.15838227
0.08223912 -0.055273138 -0.020795655 -0.09893777 -0.16883019 0.050628062 -0.028504143 0.010423339
0.008495645 0.058317136 0.0138980355 -0.11472078 -0.26918948 0.077870265 -0.01045713 -0.11264273
0.1606775 -0.20264773 -0.22338259 -0.11770364 -0.09845014 0.08853503 -0.032445665 -0.10661033
-0.28882477 -0.16026647 -0.0018286539 -0.03436523 0.014002728 -0.10338408 0.05119653 -0.059589922
-0.10690891 -0.046350494 -0.024801511 -0.017984463 0.005293671 -0.15986893 -0.039205924 -0.31011957
-0.16763577 -0.0954276 -0.13667452 0.04896148 0.050327796 0.0062775514 -0.09552802 0.029881489
0.014678728 -0.078545086 -0.039408755 0.023166642 -0.028897723 0.0030940524 -0.05070318 0.027136615
0.05757788 0.06382822 -0.07861122 0.10524517 -0.022189023 0.07736143 0.09771705 -0.0858431
-0.09746343 -0.013011443 0.16333114 -0.12320226 -0.0028008807 0.047648158 -0.06373757 -0.06715126
0.087097004 -0.15253112 -0.10257824 0.069042794 -0.0052419426 -0.06522812 -0.01452462 -0.088935725
0.04248545 -0.055970434 0.05607725 -0.0054024467 -0.025232177 -0.13507062 -0.30681384 0.008696936
-0.0002784486 0.028400553 -0.143482 -0.29063618 0.03466447 0.07499556 0.03811955 0.08378754
-0.24111208 0.086969376 0.048809044 -0.011531199 -0.06585421 -0.23635168 -0.09899495 0.040783063
-0.014642656 -0.08472515 -0.037926093 0.04354626 0.18584609 0.05981726 0.0327312 0.09939405
-0.042098187 -0.007606636 0.018170957 0.04228098 -0.06064937 -0.075076416 0.0428411 0.0029771314
0.01411764 -0.1077035 -0.08693118 0.05418801 -0.17181112 -0.03188991 0.010102476 0.15531231
-0.056373343 -0.06457548 0.068757266 -0.06927971 -0.026063379 0.015502036 -0.025924895 -0.17127268
-0.062693395 -0.11976387 -0.05873215 -0.03547454 -0.15212354 -0.014414253 -0.032953274 0.02577085
-0.0474746 -0.08427237 -0.07962623 -0.00010872655 -0.070176125 -0.028851595 -0.041993763 0.014881676
0.12771426 -0.19429487 -0.0051286896 0.091153696 -0.21052448 -0.043548476 -0.06733009 -0.023326976
-0.07725701 -0.15055834 -0.12023488 0.058211453 -0.015336589 0.007114213 -0.05105813 -0.014471883
0.07656241 0.0079509765 0.050475683 -0.055106394 0.14487886 -0.16620356 -0.044936668 -0.11092017
0.017304122 -0.08113929 -0.101043686 -0.13952233 -0.02679689 -0.05877063 -0.036400553 -0.0029584812
0.07375515 -0.10209273 -0.0041778516 -0.035314098 -0.100550726 -0.024913426 -0.01999201 -0.01691409
-0.019769788 -0.04998101 -0.12583524 -0.22294123 0.060583934 0.0072493884 -0.11365485 -0.06164625

weight f4 [256, 256]
00000000: 018d 533e 1138 053d 245c ed3c 0600 0bbe
00000010: 37c3 a63b ce18 26be 8c9d c23c 96fd 93bd
00000020: 10a3 23be ffa8 0fbe d271 eb3c fe5e e13d
00000030: d21f 3ebd 4e3a 4cbe 5026 b03d fdf8 1ebe
00000040: a8fd 13be 0fc3 213d f375 adbd 7ecb 1e3a
00000050: f961 e0bc 7590 313d 9d4c 00bc bfd8 2e3e
00000060: 58c2 16bc 2282 c2bd 013c 2dbe 257b 87bd
00000070: d907 d8bd d3a9 8cbd 3bc6 7c3d e276 34bc
00000080: 8441 afbd fe27 ff3d 0cf6 e53d 7e31 26be
00000090: dd6e 57bd f589 50be 9a03 3b3d bbfd 22be
000000a0: 8186 d9bd fc44 1cbd e989 75be 2930 c63c
000000b0: 5e13 4c3d 2ae7 0d3e 38c5 26be 6444 2bbf
000000c0: f25b c43d 48b8 533e 57a7 7f3e 5df0 283e
000000d0: 4313 b9bd 4693 183e 0b87 16be 4506 1d3d
000000e0: 9bd9 47be d5ee 5dbd 2f02 0fbe 2c07 a9bd
000000f0: cf69 2abc 0341 31bb b607 b2bd b988 093d
00000100: 1f77 913d 6920 56be 3ed3 9bbd 2965 36bb
00000110: 753e 023e 4317 8ebe edd9 d13d 950a 25be
00000120: c1a1 9bbe 1b0a 643d c33d 2ebd 21c1 9dbd
00000130: 4f7b 15bd 635e 1bbe 4d03 023e 1aad 76bb
00000140: d4a4 ae3d b813 debc 1ef3 ebbd 98de 923d
00000150: 7530 1bbe 8ddf 5b3d 16d1 133b ee94 d6bd
00000160: 4ca1 743d e0ca 81be 4c34 893a aad4 40bd
00000170: 1cce 793c d2f2 923d fdcd 2e3d db73 51bd
00000180: 6fe6 0fbd 4e1e 873d 2165 04be dc16 39be
00000190: 6e86 91bd d940 85bd ffba 56be e5e1 8f3d
000001a0: 8b05 ac3c 7575 fbbd 8953 71be 98d8 cebe
000001b0: 5728 71be 6498 aa3b 0f7b 49bd 8640 623e
000001c0: a01d 22be c53f 9dbe 2d2b b9bd a4c3 8dbe
000001d0: e592 79bc f00e 76be 3c98 58be 35d6 a3bd
000001e0: b3a4 35be 858f 493d 4593 cabe ee6c 3f3c
000001f0: 8cef 2c3d 5057 d1bc bff7 cebd ef38 db3c
00000200: 2123 58be 677d 37bd d1e3 c1bd f2fe 3ebc
00000210: 52f7 91bb 9f81 dfbd cf0e ff3d 6f16 5c3e
00000220: bca5 d2bd 5cfd d9bb 96db 18be 901f 39be
00000230: eac9 c53d 5211 2a3d f6ab 27bd 0ebc f83c
00000240: 88ca 85be c29a 39bc 571c dfba 8c22 9bbd
00000250: db28 d4be 3a18 1e3e 700c 153e fcdf e5bd
00000260: 5741 bb3e 7674 32be b869 dfbd 3847 7bbe
00000270: 0862 2d3d 60b3 4b3d ddb3 04bd 1160 12be
00000280: 3676 4d3d aa9f bebd 4df6 78bd 02fc 253d
00000290: 1ed3 18be 505f 49b9 6d57 48bd 6623 10be
000002a0: df7b 23bd 8afe 12be 2e96 29be 3ff5 45be
000002b0: 4d1f 9e3d 3966 1e3c 1329 263d f691 15bd
000002c0: 3732 d4bd 1cec f53b 2a10 b53d 7df1 953b
000002d0: 1552 233e 83c8 08bd 336c 31bb 0320 51be
000002e0: 541d 66bd 4087 8abc 8a06 28be ea7c 58bd
000002f0: 86b7 47be c34f ad3d d838 d0bd af7e a43c
00000300: fd91 34bc 6bbb 23be ff57 c33c 6a55 933e
00000310: 1ac0 823b b42d 383e c0e2 e1bd 3b82 40be
00000320: ad92 b7be 3c40 0bbe 2032 04be cdaa 2d3d
00000330: a1c7 b93d 6ae7 5e3d 28c1 5c3e 91d3 08be
00000340: 4067 68bd 26ee 4a3d 329c 693d 46c2 b1bd
00000350: 83f6 bdbc f6d4 22be 2de4 39bd 91ed 673b
00000360: ec55 b5bd 6184 7dbe dcbc 34bc 5234 36be
00000370: 3be7 acbd ac6e 8e3d 57a7 383d a7bb 28be
00000380: 206c 87be 605e f0bd e284 203d b95b c8bd
00000390: 1fa2 c7be 1fd4 95bd 7fe6 6f3e 4741 86bd
000003a0: 7237 ef3d cab6 333e 61ef 9fbd 62b4 fabd
000003b0: 9c18 b13d 9962 9b3c 0c76 23be 718d 9b3d
000003c0: 5850 0fbe 90c5 103d cbde dbbd 024d 6bbc
000003d0: 4e31 3d3d c438 84bc 9100 52bd 7dda 393d
000003e0: bd10 603d 67a3 05be 03f9 00bc 2787 f1bd
000003f0: f0e7 a6bd 50a1 fabd 3849 0cbd 5b5c dcbd
0.20659257 0.032524172 0.0289746 -0.13574228 0.0050891894 -0.162204 0.023756765 -0.07226102
-0.15980172 -0.1402931 0.028740797 0.110044464 -0.046417065 -0.19944116 0.086010575 -0.15524669
-0.14452231 0.039492663 -0.08469763 0.00060575444 -0.027390467 0.043350656 -0.007830766 0.1707487
-0.009201609 -0.09497477 -0.16917421 -0.06615285 -0.10548372 -0.06868329 0.061712485 -0.011014672
-0.08557418 0.124588 0.1122857 -0.16229817 -0.05259596 -0.20365126 0.04565773 -0.15917103
-0.10621358 -0.038151726 -0.2397839 0.024192886 0.049823157 0.13857713 -0.1628617 -0.6690123
0.0958785 0.20675766 0.24966179 0.16497941 -0.09036877 0.1489993 -0.14699952 0.038336057
-0.19516604 -0.054182846 -0.13965677 -0.08253321 -0.010401203 -0.0027046807 -0.08692877 0.033577655
0.07102799 -0.20910801 -0.076086506 -0.0027831292 0.12719138 -0.27752122 0.10246644 -0.16117318
-0.30396846 0.0556737 -0.04253937 -0.07702852 -0.03649455 -0.15172724 0.12696572 -0.0037639798
0.08527532 -0.027109012 -0.1152098 0.07171363 -0.15155204 0.05367999 0.0022555045 -0.10477625
0.059724137 -0.25350094 0.0010467856 -0.047077812 0.015246894 0.071752205 0.042676914 -0.05113588
-0.035131868 0.06597577 -0.12929203 -0.18075126 -0.071057186 -0.06506509 -0.20969771 0.07025508
0.020998737 -0.122782625 -0.23567022 -0.40399623 -0.23550545 0.0052061547 -0.049189623 0.22094926
-0.15831614 -0.30712715 -0.09041438 -0.27688324 -0.015232776 -0.24029136 -0.21151823 -0.07999841
-0.17738609 0.049209137 -0.39565483 0.011683686 0.042220637 -0.02555433 -0.101058476 0.026760546
-0.2110715 -0.044797327 -0.09467281 -0.011657463 -0.0044545317 -0.10913395 0.124539964 0.21492933
-0.102855176 -0.0066525172 -0.14927515 -0.18078446 0.09657653 0.041520424 -0.04093548 0.030363109
-0.26131082 -0.011328401 -0.0017021996 -0.07574949 -0.4143742 0.15438929 0.14555526 -0.11224362
0.36573288 -0.17427239 -0.10908836 -0.24538887 0.042329818 0.049731612 -0.032398093 -0.14294459
0.050161563 -0.09307797 -0.060781766 0.040523537 -0.14924285 -0.0001920436 -0.0489115 -0.14076003
-0.039913055 -0.14354911 -0.16561195 -0.19331835 0.07720814 0.0096679265 0.040566515 -0.036516152
-0.1036114 0.007504953 0.08840974 0.004575907 0.1594928 -0.033394348 -0.0027072548 -0.20422368
-0.056180313 -0.016910195 -0.16408744 -0.052853502 -0.19503602 0.08462479 -0.10167092 0.020079939
-0.011021134 -0.15989463 0.02384567 0.28776103 0.0039901854 0.17986184 -0.11029577 -0.18799679
-0.35854092 -0.13598722 -0.12909746 0.042399216 0.09071279 0.054419912 0.21558058 -0.13361956
-0.056739092 0.049543522 0.057033725 -0.08679633 -0.023188835 -0.1590155 -0.04538362 0.0035389403
-0.08854279 -0.2475753 -0.011031356 -0.17793396 -0.08442541 0.06954703 0.045081463 -0.16477834
-0.2644968 -0.117367506 0.039189227 -0.0978312 -0.38990876 -0.073158495 0.23427771 -0.065554194
0.11680497 0.17550197 -0.0780933 -0.122414365 0.08647272 0.018967913 -0.15963 0.07595337
-0.13995492 0.03534466 -0.10735854 -0.014361622 0.0461896 -0.01614035 -0.05127007 0.045374382
0.054703463 -0.13050614 -0.007871869 -0.117933564 -0.08149707 -0.12237799 -0.034249514 -0.10759803

bias f4 [256]
00000000: 7f61 03be 752b 703e 1cdc e7bd 4a03 873d
00000010: 061b 9abb c984 1bbd 8300 afbe d4c2 adbe
00000020: ef19 90bd 4520 38be 23f0 a53c 8d7e e1bd
00000030: 7501 cebc 781b 023e de27 e73d c7a9 2e3e
00000040: 60b1 ab3d eef1 c73c 7e0f c5bd 466f 5a3c
00000050: 2ff4 9fbe bacc 34bc 8ba8 863e 74ab 5cbe
00000060: bc03 153e 82b0 9bbd b6d3 263d f4ed 5ebd
00000070: 10a7 8fbc bd7e a13d f073 e8bd a2bf 8dbd
00000080: a6a9 36be 0f67 523e 2ba6 153c ce3b dfbd
00000090: f9f2 63bd 12cf 52bd ac7f 853e aa30 153e
000000a0: 66ef 21be 7cca 0d3e 66b3 d33d 427c a73c
000000b0: 488f dd3d c36c 613e 6f4b 023e 822b 783e
000000c0: edc6 483e bf55 a33d 4eae cdbd d571 c0bd
000000d0: 4377 67bd 9852 9c3d b962 763e b50f 593e
000000e0: 1f30 f33b 6c9d 5a3e db6b 13be 3e57 abbd
000000f0: 8a4a 37be 4568 50be 334e 623c d9cb 623e
00000100: 5470 393e 70d8 afbe 6618 d7bd bc92 983e
00000110: 179b 783e a16a c9bb 5060 98be 949b 99bd
00000120: 070e 90bd 1a00 40be f70a 0d3e eb97 e93c
00000130: 1453 9c3d 87c4 f3ba 93a8 8a3d 5954 ebbd
00000140: 367e 393e d925 01bd c915 423e 2f98 51bd
00000150: 6b13 a3bd 4a8f 0d3e b4d0 38be a57f 44bd
00000160: 5574 473d 0449 643e 3ee5 b63d b290 31bc
00000170: d5a5 3b3d 9eff 0cbe f858 6ebd a95e 31be
00000180: 4aec 4a3c 7276 283d 13ed 093e 3a4d b23c
00000190: 857b dfbd b6c3 2dbd 563d 433d d302 673d
000001a0: 6500 4a3e 482c 7c3b a020 1c3e 18b6 a8bd
000001b0: 25c4 8e3c a234 35be 4768 96be 8f3d 573d
000001c0: 915a 3ebd 4ad8 853e 7303 cf3d 840b aebe
000001d0: cd3a 8dbd 79ca 563d 6b56 8abe 7bf5 b63d
000001e0: ef0a 863c c6f6 9abe d75b 8cbc f8d5 783e
000001f0: b2d2 1d3e c194 3b3c c9a5 4dbc c5f8 dcbc
00000200: 81e4 e0bd 6da6 e2bd d305 c6b9 9b6d 173e
00000210: 2305 c23d 8de3 15bd 7d9d ddbd 1c87 823b
00000220: 4023 47be ce54 e83c 453a 393e 1f2d 883d
00000230: 4d6d 4abd 94b4 47be 1af2 b23d c37a 863d
00000240: 334a 20be 0189 a1bd 6826 d13c 2722 993d
00000250: 51b7 113d c3ef 353e 895e 22be 1c66 c7bd
00000260: c9c0 9fbe 93fa 86bd 552c 7d3e 073e d7b8
00000270: d063 1f3e ab8c 5cbc 5701 60bc b756 153d
00000280: 0b34 d53d fd9c 97bc db0e ebbd 5ead 253e
00000290: 853c 0bbe 3c5e be3e c79f f13d 2387 b9bd
000002a0: b0c8 bfbe b1c3 8dbd c5cb 81bd cee4 653c
000002b0: b5b9 a23d 01b5 743d 438e 9fbe ecc6 9fbe
000002c0: b825 0b3e 6750 d43c 6571 20be b495 16be
000002d0: 0776 e3ba 9654 d6bb 986a 14bd 78f8 8bbe
000002e0: 52a1 73bd 6534 0e3e 4d8b b8bc b6bf 583e
000002f0: 0efb f9bb 5dee fa3d 9a3e 003d 42a8 923e
00000300: 0598 aabd d733 703e 7b93 12be 2737 9fbd
00000310: 6430 ad3d cbcc 323e dad5 963c aad7 51bd
00000320: 70bf 093d d9d2 533e 1e74 bc3c d5b7 483d
00000330: bf0f e9bc 6414 8b3e 6310 78be f34a 693d
00000340: 4650 51be 8a7a 19bc 3b11 dc3d 2dad dbbd
00000350: 8d30 3a3e 29e7 423e ca36 233e a7fc dc3d
00000360: 275b 78bd 704f e4bd e1ff 46bd 74e5 503e
00000370: fe6e 97be 8f02 35bc 54fd 833e 7750 d53d
00000380: f790 a7be 7683 2abd c6cb a33d 2b78 4e3d
00000390: 5b4b b43c 188f 353e 45d1 2ebd 0096 673e
000003a0: 4fa1 883d 8a8b 803d 9163 9abe 1ce2 433e
000003b0: 119c 9cbe d171 183e 9c05 0d3e a45b 9dbe
000003c0: c184 873e 9511 543e ceb3 89be 80f4 343d
000003d0: 0ef5 823d a769 b73d e4bd 273e d4a2 9e3d
000003e0: 4177 0f3e a0f7 143e 7993 9f3a c4ff 22ba
000003f0: 95c6 06bd bd2d 21be fa98 533d b3d4 063e
-0.1283016 0.23454078 -0.113212794 0.06592424 -0.0047029285 -0.03796843 -0.34180078 -0.33937705
-0.070361964 -0.1798106 0.020256108 -0.11010466 -0.02514718 0.12705791 0.11286901 0.17056952
0.08383441 0.024407353 -0.096220955 0.013332194 -0.31240985 -0.011035139 0.26300463 -0.21549779
0.14552206 -0.076020256 0.040729247 -0.05442615 -0.017535716 0.078855015 -0.11350238 -0.06921317
-0.17838153 0.20547126 0.009133856 -0.10900079 -0.05565164 -0.05146701 0.26073968 0.14569345
-0.1581398 0.13846773 0.10336952 0.020444993 0.10818344 0.22014146 0.12724088 0.24235347
0.19607134 0.07975339 -0.100430116 -0.09396712 -0.05651022 0.07632941 0.24061097 0.21197398
0.007421508 0.21349114 -0.14396612 -0.083662495 -0.17899528 -0.20352276 0.013812589 0.22148074
0.18109256 -0.34344816 -0.105027005 0.2979945 0.24277912 -0.0061467444 -0.2976098 -0.07500377
-0.070339255 -0.18750039 0.13773714 0.028514823 0.076330334 -0.0018597998 0.06770434 -0.114906974
0.18114552 -0.031530235 0.18953623 -0.051170524 -0.07962688 0.13824192 -0.18048364 -0.047973294
0.048694927 0.22293478 0.08930443 -0.010837721 0.045812447 -0.13769385 -0.058190316 -0.17321266
0.012385437 0.041128583 0.13469343 0.02176534 -0.10912231 -0.042422973 0.047665916 0.056399178
0.19726713 0.0038478542 0.1524682 -0.082378566 0.017427513 -0.17695859 -0.29376432 0.05254894
-0.04647309 0.26141578 0.1010808 -0.3399316 -0.06895981 0.052439187 -0.27019057 0.089335404
0.016362635 -0.30266398 -0.017133636 0.24300373 0.15412405 0.01144904 -0.012551733 -0.026974091
-0.10981084 -0.110668994 -0.00037769842 0.14787905 0.09473636 -0.036593962 -0.10821054 0.0039833914
-0.1944704 0.02836075 0.18088634 0.06649231 -0.049420644 -0.19502479 0.087375835 0.06566384
-0.15653305 -0.078874595 0.025531009 0.07477217 0.035575215 0.17767243 -0.15856375 -0.09736273
-0.3120177 -0.06590762 0.24723943 -0.000102635524 0.15565419 -0.013461272 -0.013672194 0.03645965
0.10410317 -0.018507475 -0.11477443 0.16179416 -0.13597305 0.3718127 0.11798053 -0.090589784
-0.374578 -0.06922091 -0.06337694 0.014031602 0.07945577 0.05974293 -0.31163225 -0.31206453
0.13588607 0.025917245 -0.15668257 -0.14705545 -0.00173539 -0.006540845 -0.03623447 -0.27338004
-0.05948002 0.13887174 -0.022527361 0.21166882 -0.007628805 0.122524954 0.0313097 0.28643996
-0.08329777 0.23457275 -0.14314072 -0.07774191 0.084564954 0.17460935 0.01841252 -0.051231064
0.033629835 0.20685901 0.023004588 0.04900344 -0.028449891 0.27163994 -0.24225001 0.056956243
-0.20440778 -0.0093675945 0.10745474 -0.1072639 0.18182583 0.19033493 0.15938869 0.10790377
-0.060633805 -0.11147964 -0.04858387 0.2040003 -0.29576868 -0.011047973 0.25779212 0.10415738
-0.32727787 -0.041629277 0.07997851 0.05040757 0.022008589 0.17730367 -0.042680044 0.22615814
0.06671392 0.06276615 -0.30154088 0.19129223 -0.3058782 0.14887168 0.13771671 -0.3073398
0.2646847 0.20709832 -0.26894993 0.044178486 0.06394397 0.089556985 0.16381031 0.07745901
0.14010336 0.14547586 0.0012174688 -0.00062179216 -0.032904226 -0.15740104 0.05165956 0.13167076

weight f4 [97, 256]
00000000: e8ef 923b d082 053c 2734 743d cf96 993c
00000010: 009a afbc 40cd 0a3c b8af 97bd 31c9 163d
00000020: b9d8 f4bc 1d70 823c 629c 1e3b 9701 d9bb
00000030: bf70 5c3b 6b91 ce3c d595 c63c 346e 843b
00000040: 6be0 4cbc cbe7 0fbc 41bd 27be e204 cbbc
00000050: 9666 ba3d 37bf 0dbc 0aef d43c fe73 ebbc
00000060: 70bb 723c 3339 ef3b 6984 06bc 7570 403b
00000070: 91c4 673c f309 abbc 7d5c 8e3d 0d77 353c
00000080: e8f4 503c 6f3b 9cbb e70b 78bc 1e41 bb3b
00000090: 08a2 653c cc90 21bc c562 083d e87e 96bc
000000a0: c52e 79bc dbc5 03bc 16f3 f7bc be40 24bd
000000b0: 7578 503c 0ffc 2a3c 1f7a 1d3b 9f6b f03b
000000c0: 8183 4b3d 3537 aa3c c7be eb3c f77c 94bc
000000d0: b254 da3c bdf8 4bbc 7ed7 d03c eb1f ad3c
000000e0: 1604 0a3d 1235 a13b 60dc 52bc c29f 163b
000000f0: 5d71 7ebc b7bf 1cbc 694f 923b e04a 96bc
00000100: 0f1f 433c 0176 5cbb 240a 01bc 6f10 0a3c
00000110: 9f9b af3c fad7 313f 4564 75bd c9d5 993c
00000120: 17ec 49bc 0ad2 2e3c 57fe 98bc 3595 3c3c
00000130: 6640 53bb 1f05 fbba 9018 d1bc 0a03 15bd
00000140: e588 893b 70e3 bf3b 0508 b93c 86ba 17be
00000150: 421f 01ba 2a32 76bc 6f3f d43c 07f8 0ebd
00000160: 74d4 b93c ab95 3b3d b897 a43c dcf7 7e3d
00000170: 55da fa3c b858 68bd 6cff 8c3b 9e85 3c3d
00000180: 1c77 d13b 111b 9c3b 8b35 2e3c 6f77 493b
00000190: eedf 7a3d 0097 543c 6c58 58bc aff9 ebbb
000001a0: fa52 d93c e7d0 823b 36d6 17bd 3156 1dbc
000001b0: d694 bb39 c010 4bbc a8d8 57bc 6aee 28bc
000001c0: 4262 0a3d fc93 de3c 48be cebd 7ec6 5ebd
000001d0: e08e ce3c 4eb9 42bb 5673 733d 81e1 26bd
000001e0: 811d a83c 898a 84bc cafb 7bbb a620 0fbb
000001f0: 65d3 853c 2774 57bd a2d6 d03c f37f 3bbb
00000200: 80b1 97bc 61be 8f3c a525 2f3c 0f11 32bc
00000210: 3002 793c 1bcc bebc c728 be3b 3bda 613d
00000220: f0da c63c c114 70bb 8de3 193c 4f4e 2abc
00000230: 0ae8 26bc d921 773d 877a fdbb bf23 603c
00000240: 6047 33bc 383b 063d aa4f fe3b ab28 393c
00000250: 8f5a 04bd c310 823d 5fd1 bdbc d5ab 1abd
00000260: 2406 c03c 3e79 933b 4cad 813c 6bf6 5c3c
00000270: 48f2 a2bc 7b6c d3bc b38b 28bd 5913 f8bb
00000280: 4d8b ccbc 3cf9 913a e7cb 50bc 28d9 9a3c
00000290: 8933 1e3d c57e 153b e52e 3abc b29a c73b
000002a0: 5892 7f3d ddd3 bcbb ad4c 15bb 0bb6 103a
000002b0: f8fa d33a 1b16 34bc 6aa3 e3bc 3639 de3c
000002c0: 0397 dc3c bf29 0fbd 4683 7e3c c893 793c
000002d0: 3616 d63c ab05 7ebc 12e8 9d3c 3628 97bd
000002e0: 52b1 7ebc a9a2 9b3c cbb6 14bc 75ed 433d
000002f0: 23e6 14bc e711 59bb e2ce 133d d599 31bb
00000300: b5af b8bc ad8b 1d3d 6649 f13c c13b c83c
00000310: e365 ce3c 002e ef3c 5342 12bd 1965 bf3c
00000320: 3548 853c f05d b73b 4b7e 8a3b 011b 0dba
00000330: 8b11 89ba 70bf f33c 2202 a5bc 140b 683c
00000340: 1b28 cd3b a674 aaba a64e 403c 224e 853c
00000350: 27f7 2e3d 5f35 c9bb 1cef 8f3c 6b0a 95bc
00000360: de56 a3bd c608 b73c 0eb6 45bc 8be6 84bb
00000370: d4d0 87bd 8c84 d9bc 6ee6 8a3d aa9e a73a
00000380: 96b6 81bd 7717 d7b9 cd0a b63c fdda 74bc
00000390: d280 ecba cb99 d4bc 10fd a33c c593 a23c
000003a0: a04b 0d3c 22eb 293d 0540 373c 4d34 89bb
000003b0: e3f1 6dbd d025 283d 992b 76bb 2cd0 84bc
000003c0: 58a4 2c3d 19e0 1a3c 63bd a23c a576 da3a
000003d0: b065 c3bc 176c d73c 88d2 b33d 2308 f4bb
000003e0: a088 fc3c 04ef 0e3d ab2f 57bd 39ca c73c
000003f0: ff87 0d3b 9380 d53c 5eb5 623c 27e7 043c
0.0044841655 0.008148864 0.05962005 0.018748669 -0.021435738 0.008471787 -0.074065626 0.036812965
-0.029888498 0.0159226 0.0024202098 -0.006622504 0.0033636538 0.025215825 0.024241367 0.0040414575
-0.012504677 -0.008783291 -0.16380788 -0.024782602 0.09101598 -0.008651546 0.025992889 -0.028741833
0.014815196 0.00730052 -0.00821028 0.0029363905 0.014145986 -0.020878768 0.069512345 0.011075747
0.012753703 -0.004767827 -0.0151395565 0.0057145497 0.014015682 -0.009861182 0.03329732 -0.01837106
-0.015208905 -0.008042778 -0.03026728 -0.040100805 0.012724032 0.010436072 0.0024029089 0.007337048
0.04968596 0.020778278 0.028777493 -0.018125994 0.026651714 -0.012449441 0.02549338 0.021133384
0.033695303 0.0049196566 -0.012869924 0.0022983407 -0.015529958 -0.009567193 0.004465033 -0.01834625
0.01190926 -0.0033639672 -0.007875953 0.00842677 0.02143651 0.6947018 -0.059910078 0.018778699
-0.012324355 0.010670194 -0.018675966 0.011510183 -0.003223443 -0.0019151306 -0.025524408 -0.03637985
0.0041972273 0.00585597 0.022586832 -0.14817247 -0.0004925617 -0.0150266085 0.025909154 -0.034904506
0.022684313 0.04579703 0.020091876 0.062248096 0.030621687 -0.056725234 0.0043029096 0.046025865
0.006392373 0.0047639688 0.010632883 0.0030741354 0.061248712 0.012975454 -0.013204675 -0.0072013955
0.026528824 0.0039921883 -0.03706952 -0.009603069 0.0003577831 -0.01239413 -0.0131742135 -0.010310749
0.033785112 0.027170174 -0.10094887 -0.054388516 0.025214612 -0.00297125 0.059436165 -0.0407424
0.020521881 -0.01617934 -0.0038449639 -0.0021839528 0.016336152 -0.052601006 0.02549297 -0.00286102
-0.018517256 0.017546834 0.0106901275 -0.010868325 0.015198275 -0.023290684 0.005803201 0.05513976
0.02427432 -0.0036633464 0.009392631 -0.010394647 -0.010187158 0.060335014 -0.0077355537 0.0136803975
-0.01094231 0.03277132 0.0077609615 0.0113012 -0.032312926 0.06350853 -0.023171125 -0.037761528
0.023440428 0.004500537 0.015829705 0.013486485 -0.01989092 -0.025808563 -0.041148853 -0.007570666
-0.024968768 0.00111369 -0.012743927 0.018902376 0.038623367 0.0022811156 -0.01136372 0.006091439
0.062395424 -0.0057625608 -0.0022781298 0.00055202906 0.0016172817 -0.0109915985 -0.027787883 0.02712689
0.026927477 -0.03495192 0.015534228 0.015232988 0.026133638 -0.015504281 0.019275699 -0.073807165
-0.015545206 0.01899846 -0.009076784 0.04783388 -0.009088072 -0.0033122243 0.03608597 -0.0027099748
-0.022544721 0.038463283 0.029453944 0.024442555 0.025195068 0.02919674 -0.035707783 0.023363637
0.016269783 0.005595915 0.004226481 -0.0005382747 -0.0010457499 0.02975437 -0.020142619 0.0141627975
0.0062608845 -0.0013004735 0.011737501 0.016272608 0.04271617 -0.0061403955 0.01757007 -0.018193444
-0.07975553 0.02234305 -0.012067331 -0.004055803 -0.06631628 -0.026552461 0.06782232 0.0012788374
-0.06333654 -0.00041025478 0.022221947 -0.014944789 -0.0018043763 -0.02595224 0.02001813 0.019845853
0.008623987 0.041484006 0.011184697 -0.004187143 -0.05809201 0.041051686 -0.0037562607 -0.016212545
0.042148918 0.009452843 0.019865697 0.0016667439 -0.0238522 0.026296658 0.0878039 -0.007447259
0.030826867 0.03489591 -0.052535694 0.02438842 0.0021595953 0.026062286 0.013837187 0.008111752

bias f4 [97]
00000000: d3d8 193e 1f96 83bb 2ba4 37be 12b1 063c
00000010: 5a55 33bc 9918 b23e cabc 4bbb f80e 063e
00000020: dd62 bebd 05c7 21be 0aaa 4c3b b9f1 b4bc
00000030: 88d9 f23d fbc9 d23d 3ced 4b3e de07 5abc
00000040: 7d83 32be 63f4 1abc c204 c0bb 4893 913e
00000050: 96ea fd3c 4099 4a3e a667 bfbd e956 22be
00000060: bcc3 4a3d 1e73 253d ac60 613e 0fce f93c
00000070: 5828 ba3d 788b c4bd 22ee e6bd e5a4 3abc
00000080: a33c bc3b b4bd 9e3e 9b14 113c 94fb 353e
00000090: eb63 183d 1962 3ebe a31a 153d dfab 2539
000000a0: ffaf 883e 6436 fe3c a230 083e cbe1 dbbd
000000b0: e214 36be 9624 f83c 6a86 f0bc f3a3 9e3e
000000c0: cb76 f73c 0c0b 9e3e 93f4 28be 4346 5bbe
000000d0: 286c 33bb a97a 4fbb e5f4 9f3e 0a8a 8d3e
000000e0: 204d 313e b02c 17be 1a97 75be aabd 793b
000000f0: c1a5 b8bb 29da 8b3e bfe7 913e f85a b83d
00000100: 0133 ba3a 25cb 35be b422 7f3a e3b9 603b
00000110: eacd 863e c0e6 963e 5d7f da3d 6fa5 51bb
00000120: fe76 43be 3643 c33d 0c3b 3dbd 4a4e 11be
00000130: e3be d6bc fe2b d13d f835 3d3d 5d2e 363e
00000140: 1776 653c d091 a5bb 51c8 113e e9ae 583e
00000150: cf18 57be 2250 34be 6e45 e8bb 0410 41bc
00000160: 3b4e c33e d832 883b 85c0 763d b0f3 74be
00000170: 4e1e 72be e567 bfbb a634 83bb cdb8 bb3e
00000180: 5c6f 463e
0.15024118 -0.0040156986 -0.17933719 0.008220928 -0.010945642 0.34784392 -0.003108787 0.13091648
-0.092962004 -0.15798576 0.003122928 -0.022087919 0.11857897 0.10292431 0.19914716 -0.01330754
-0.17432971 -0.00945768 -0.005859942 0.2843268 0.030995648 0.19785023 -0.09345941 -0.15853466
0.049503073 0.040392987 0.22009534 0.030493764 0.09089726 -0.09596914 -0.11275889 -0.011391853
0.005744533 0.31004107 0.00885501 0.1777175 0.037204664 -0.18592109 0.036402356 0.00015799653
0.26696774 0.031031795 0.13299802 -0.10736426 -0.17781404 0.030290883 -0.029360969 0.30984458
0.030208012 0.30867803 -0.16499548 -0.21413521 -0.0027377699 -0.0031658805 0.31241527 0.27644378
0.17314577 -0.1476314 -0.23983422 0.0038107433 -0.005634994 0.2731488 0.2849712 0.09001726
0.0014205874 -0.17753275 0.0009732649 0.0034290485 0.26328975 0.29472923 0.10668824 -0.0031989475
-0.1908836 0.09534304 -0.04619889 -0.14190021 -0.026214069 0.10213469 0.046194047 0.17791124
0.014005206 -0.0050527826 0.14236571 0.21160473 -0.21005557 -0.17608693 -0.007088355 -0.011783604
0.38145623 0.0041564517 0.060242195 -0.23921084 -0.23644373 -0.0058412426 -0.004004079 0.3666443
0.19378418
