data/example_dynamics_data/models/office/MLP_q_true.pth (torch, 740431 bytes, 8 tensors)

weight f4 [256, 107]
000000 0a ee 56 3e 5d a9 95 3e 82 72 8a bd 92 38 2e 3f
       0.20989242 0.29230776 -0.06760122 0.6805507
000010 c6 a2 ae bd 83 75 c8 bd 5e cc 8f 3e 36 ab b2 3d
       -0.0852714 -0.097880386 0.28085607 0.08724062
000020 b6 a9 54 3d bc b4 6f 3d dd 31 25 3e a3 42 3f bd
       0.05191966 0.05852197 0.16132303 -0.04669441
000030 38 c5 70 bd d7 8e b8 bd f5 b3 38 3e 06 d3 84 3e
       -0.058781832 -0.090116195 0.18037398 0.25942248
000040 85 b5 20 be 77 e0 67 3c ff a8 53 3d a4 13 5d 3d
       -0.15694244 0.014152638 0.05167484 0.05397381
000050 da c1 92 3e 0d d4 3f be c9 7d 76 bc 7b 61 45 3d
       0.28663522 -0.18733235 -0.015044638 0.048188668
000060 57 2e 39 3d 85 7b 05 be fd 38 1e 3d 04 af 8a bd
       0.04521021 -0.130354 0.038628567 -0.06771663
000070 ad a0 88 be 94 98 b6 bc a4 da dd 3d 5f 31 75 3d
       -0.26685086 -0.022289552 0.10832718 0.059861537
000080 ba ce 52 bf 8b ba 85 3d 6a c8 40 be d8 f9 c4 bc
       -0.8234669 0.06529721 -0.18826452 -0.024044916
000090 c2 4d 9b 3d 06 4d 6c 3d 40 19 0b 3f 2f 18 bd 3e
       0.075831905 0.057690643 0.54335403 0.36932513
0000a0 19 03 a0 bd f5 8b 62 3e d9 4e 84 3e b5 83 a5 bc
       -0.07813091 0.22123702 0.25841406 -0.020204404
0000b0 98 db d3 bd ce c0 5d 3e 2d f2 e0 be d8 42 1c 3e
       -0.103446186 0.2165558 -0.43934765 0.15259874
0000c0 a0 11 6b be 45 ab 1d bd 44 aa be 3d 11 ae d0 3d
       -0.22955942 -0.038493413 0.09309819 0.101894505
0000d0 8d 06 a7 bd e9 6b 84 bd 28 de 26 bc ab c9 1a 3d
       -0.08155546 -0.06465895 -0.010184802 0.03778998
0000e0 52 7c 43 bc 18 0e e3 3c 6b 6a c8 bc 76 5b 32 bd
       -0.011931496 0.027716681 -0.024464807 -0.043544255
0000f0 e8 7e 9d bd ca 8b 40 bc 57 38 92 bd 90 fc be bd
       -0.07690221 -0.011752078 -0.07139652 -0.09325516
000100 18 d5 c1 bd 4e 13 9a 3d 3b 44 65 bd 00 00 a4 3d
       -0.094644725 0.07523213 -0.055973273 0.080078125
000110 b3 1a 78 bc ff e3 10 3d 57 0b 67 3d cd 3e 84 bc
       -0.015143084 0.035373684 0.0564073 -0.016143227
000120 92 93 91 3c 82 62 67 bd 08 7d 21 3d 23 e5 d6 3c
       0.017770562 -0.05649043 0.03942588 0.026232308
000130 68 ff 90 3d 99 2f b0 3c 4e 94 8c 3e ed 37 25 3e
       0.07079965 0.021507071 0.27456897 0.16134615
000140 f4 7b f2 bd 42 21 78 3e a9 50 24 bb c9 7c 04 bc
       -0.118400484 0.24231437 -0.0025072491 -0.008086392
000150 23 08 f3 3c 31 c7 11 3d 77 00 97 bd be eb 31 3c
       0.029666966 0.035590354 -0.073731355 0.010859428
000160 60 0f 66 bc fd a9 49 3d ae 06 90 3d 0d 15 f6 bc
       -0.014041752 0.04923438 0.07032524 -0.030039335
000170 8a c8 bd bc 43 7e 50 bd d8 9a f0 bc bf a2 94 bd
       -0.023166914 -0.050901663 -0.02937071 -0.07257604
000180 7b c5 86 3c 8f 2e ea bb 76 b2 51 bb 04 47 eb bb
       0.016451588 -0.0071466635 -0.003199724 -0.0071800966
000190 60 23 85 3b 20 99 1b 3b 13 77 41 3c 8f 81 46 3c
       0.004063055 0.0023742393 0.011808175 0.01211585
0001a0 08 6a cc bb 57 ca 91 3b 07 50 22 ba 42 d3 5e bd
       -0.006238226 0.0044491696 -0.00061917346 -0.05440069
0001b0 1d 78 02 3e 25 f3 5f 3c ef c6 82 3f 31 05 88 3d
       0.12741132 0.01366881 1.021696 0.06641615
0001c0 b4 ac 90 3b b8 a0 fe be 85 6e d2 3d 9d f0 68 3e
       0.004415119 -0.49731994 0.10274986 0.22748037
0001d0 61 5e b6 bd b5 99 1f be a4 24 78 bc 79 43 e3 bc
       -0.0890472 -0.15585978 -0.015145455 -0.027742134
0001e0 0b 08 12 3d 53 cf a1 3d e0 7f 2b bc 53 ce 25 3d
       0.0356522 0.07900872 -0.0104674995 0.04047997
0001f0 6e 64 12 be 94 a1 a7 3e a9 ad c2 bd 31 d4 a6 be
       -0.14296123 0.32740462 -0.09505779 -0.32583764
000200 1f 9e 2e bd e8 61 2d 3e 34 64 ed 3d 4a a1 a2 3d
       -0.042631265 0.1693188 0.11591378 0.0794092
000210 38 3f 63 3e 84 c8 f8 bd 4c b7 4b 3e 7e 86 a4 bd
       0.22192085 -0.1214762 0.19894141 -0.08033465
000220 a8 ad 29 3e fe c3 8d bd 04 03 0f bf 3d 70 1d bf
       0.16570151 -0.06922148 -0.55863976 -0.6149939
000230 8b f2 a2 3d d5 63 eb 3e 93 2b e7 3c ab 21 4e bd
       0.07956418 0.45974603 0.02821902 -0.050325077
000240 c7 6b 7a 3d dc ee 66 be 06 59 ee 3d 13 f0 a0 3d
       0.06113794 -0.22552055 0.116380736 0.078582905
000250 fa f8 23 3d 7f cf 62 3e e2 49 2b be 65 fd b9 bd
       0.040032364 0.22149466 -0.16727403 -0.09081534
000260 67 c2 f8 3d da 7c 04 3e ab 82 af 3d 89 39 61 3e
       0.12146454 0.12938252 0.08569845 0.21994604
000270 5b 82 5b 3c 50 90 23 3d 4a bc 35 3d ec a0 9e 3d
       0.013397778 0.03993255 0.04436902 0.07745537
000280 7c 4b 44 3d 2e 67 1f bd 66 12 28 3d 19 26 62 3d
       0.04792355 -0.03891676 0.04103317 0.055212114
000290 90 3a a2 bd b7 a2 95 3d 4e 1d b0 3b d7 64 48 3d
       -0.07921326 0.07306426 0.005374587 0.048924293
0002a0 4f c0 4f 3d df 05 93 bd 51 b0 e0 bd 17 b4 84 bb
       0.05072051 -0.07178854 -0.1097113 -0.0040497887
0002b0 1f e0 0d 3d 61 b2 8f 3c 36 9d ac bd f5 d5 eb bb
       0.034637567 0.017541112 -0.08428423 -0.0071971365
0002c0 7c d4 81 bd de 1b ca bd 67 ca b7 3d be 76 08 bd
       -0.06339356 -0.098685965 0.08974152 -0.033316366
0002d0 d9 a6 a2 3d 60 7b d2 3c d1 15 c0 be 63 04 c3 bc
       0.0794198 0.025693595 -0.37516645 -0.023805803
0002e0 9a fb f5 3d 86 e3 69 3e df ba 37 3d f4 e5 25 3d
       0.1201088 0.228407 0.04485595 0.040502504
0002f0 ca ec 5e 3e 65 ae 8b 3d d9 2a e1 bd 92 0b b8 3b
       0.21770015 0.068203725 -0.10994501 0.0056166137
000300 73 ad f7 bc 8b 27 28 3d 62 17 bf bc 6b 30 32 bd
       -0.030234074 0.041053336 -0.02332658 -0.043503206
000310 06 c9 a3 3d eb 44 8f 3d e5 a5 da 3d 3a 9d c8 3d
       0.079973266 0.06995567 0.10676173 0.097956136
000320 1b 07 4c 3d 30 c8 05 bc c4 1e 43 3d f0 74 cb 3b
       0.049811464 -0.008165404 0.047636762 0.0062090084
000330 5e 58 96 3c e5 7e db bc 31 7c e7 3b e8 da 0d bd
       0.018352684 -0.026793906 0.0070643653 -0.034632593
000340 ee 1e 5f 3c 83 94 71 bc c5 48 bb bd cb 79 ef bb
       0.013618214 -0.014744881 -0.09144739 -0.00730822
000350 9c 12 e5 3c a3 5b 80 3c b1 8d 00 3e 85 7a 67 bd
       0.027962975 0.015668696 0.12554051 -0.056513328
000360 2b 6a e5 bd 52 f4 24 3f 16 59 87 3d a5 71 0e 3c
       -0.112018906 0.64435303 0.06608789 0.008694087
000370 a6 4e 24 bf 50 55 96 3d 00 eb 48 3e bc a7 eb bd
       -0.6418251 0.07340491 0.19620895 -0.11506602
000380 ce 9d 3f 3e 10 2c 8c 3d b8 bf 16 be 38 f2 87 be
       0.18712541 0.06844342 -0.14721572 -0.26551986
000390 87 98 dc bd e6 c3 6b bd 20 b4 91 bb 72 21 a5 3b
       -0.1077128 -0.05755987 -0.0044465214 0.0050393874
0003a0 f5 4a 3c bf 14 17 a3 3d 2a da 3f bf ec 8a be 3d
       -0.73551875 0.07963386 -0.74942267 0.09303841
0003b0 eb 07 a2 bd 74 85 a6 bd 43 16 5a 3d 8a 8d 2a bd
       -0.079116665 -0.08130923 0.053243887 -0.04163889
0003c0 47 af 8f 3d 3b e0 5c bf 2e 23 71 3d 3e 63 58 3e
       0.070158534 -0.8627965 0.05887144 0.21131608
0003d0 ae 80 7b bd 37 22 93 3e c6 05 a2 bc 7d be 88 bd
       -0.061402015 0.2873704 -0.019778144 -0.06676958
0003e0 68 92 50 3c c2 37 31 bd f6 cf 3b be 8f d3 36 bc
       0.0127302185 -0.043266065 -0.1834105 -0.011158838
0003f0 f3 5a c4 3d 72 fa 84 3e ed c0 6f bd c4 dd 45 3e
       0.0958766 0.25972325 -0.058533598 0.19322878

bias f4 [256]
000000 83 06 5d 3d 57 8b a8 bd e1 aa 04 bd 8a 02 bf bd
       0.05396129 -0.08229702 -0.032389525 -0.09326656
000010 78 11 2a bd a1 ae 69 bc d1 59 56 bd 9f 5b 57 bd
       -0.041520566 -0.014262826 -0.05233175 -0.05257761
000020 c9 ff ac bd c7 b0 fd bc cf 76 7e 3d f0 ec 91 bd
       -0.08447225 -0.030968083 0.062125023 -0.0712527
000030 e3 6c 35 bd a1 4e 83 bd fe 9a bc bd 5d 91 ea bd
       -0.044293296 -0.06411482 -0.0920925 -0.11453507
000040 12 7b 51 bb c4 41 c6 bc 77 d4 ee 3c 4f 2f 27 bd
       -0.0031964225 -0.024201281 0.029154046 -0.0408166
000050 1d c7 fc bc fb 7c a7 bc 6d 84 80 bd 7a 92 2f 3c
       -0.030856663 -0.020445338 -0.06275258 0.010716075
000060 00 b7 80 3d ed 44 95 3d e4 08 79 bd 05 c7 8d bc
       0.062849045 0.07288537 -0.060799494 -0.017306814
000070 a4 ad 4f bd 50 b5 60 3d 27 9a ca bb f7 30 47 bd
       -0.050702706 0.054860413 -0.006182927 -0.04863068
000080 6a ef 66 bc 66 0f 1a 3d c9 3b a5 bd 7f 93 35 bd
       -0.014095167 0.03761234 -0.08068044 -0.044330116
000090 80 b2 4d bd d0 2a 92 3c 27 e4 81 3d 18 f9 a6 3d
       -0.05021906 0.01784268 0.06342345 0.081529796
0000a0 c3 ff 13 bd 5a c7 06 3d df 77 28 bd 86 46 22 bd
       -0.036132585 0.03290496 -0.041129943 -0.039618038
0000b0 7e 1d 2f bd c4 4b 77 3d 66 b7 63 3c 80 aa 27 3d
       -0.042752735 0.06037499 0.013898706 0.040934086
0000c0 88 7b 39 3d af c7 fd bc 7f a0 7b bd 52 3f 69 bc
       0.045283824 -0.030979006 -0.061432358 -0.014236288
0000d0 a9 e2 4e 3d a9 71 7b 3d b2 87 fa bb b8 46 03 bd
       0.05050913 0.06138769 -0.0076455707 -0.032049865
0000e0 b5 ed c2 bd 5f f2 9c bc a0 a2 ca bc 4b c4 9a 3d
       -0.09517995 -0.01915854 -0.024735749 0.07556971
0000f0 8b 8f f8 bb 7b c5 c1 bc 3e b1 d9 bd 6a 39 93 bd
       -0.007585471 -0.023653736 -0.106295094 -0.07188685
000100 87 f9 ea 3d 17 dd 76 3d 10 0e bb bb b8 0b 42 3d
       0.11473375 0.06026944 -0.0057084635 0.047374457
000110 33 65 8a 3d d0 af b5 bd 84 c5 ab 3c 18 3b 5d bd
       0.067575835 -0.08871424 0.020968206 -0.054011434
000120 4f 58 f6 3c 1f 00 6b bc 69 e9 80 bc b6 cf ff bd
       0.030071406 -0.014343291 -0.015736299 -0.124907896
000130 88 f3 4c 3d 64 ea 4c bd ce 07 31 bd 4f 83 9f 3c
       0.050036937 -0.05002822 -0.043220334 0.019471793
000140 8b 97 be 3d 5d b5 38 bd a5 e6 6a bc ab 7d 02 bd
       0.09306248 -0.045094837 -0.0143372165 -0.031858128
000150 5a 25 87 3d 2b d3 08 3d 9c e0 90 3a 81 7a 9a 3c
       0.06598921 0.03340451 0.0011053267 0.018857243
000160 f2 00 b2 3d 20 33 9a bd 28 1e cc bd 63 b7 eb bb
       0.086915866 -0.075292826 -0.09966689 -0.0071934923
000170 3b 89 52 bb d2 5f 06 3d 54 35 fd bc 7f f5 66 bd
       -0.0032125253 0.032806225 -0.030909218 -0.056386467
000180 2d 03 24 bc 97 2a 32 3d c1 00 1e bd 57 fb 75 bd
       -0.010010523 0.043497648 -0.038574938 -0.06005415
000190 6c 72 a9 bd 14 6c ed 3c ac 0d 46 3d 3a 07 ad bd
       -0.08273777 0.0289822 0.048352882 -0.08448644
0001a0 3a 64 c8 bc e4 43 83 3c c4 70 9b bd dc c8 bd bd
       -0.024461854 0.016023584 -0.07589868 -0.092668265
0001b0 74 11 ba bd c8 11 82 3c c4 a5 a0 3d 20 f9 61 3d
       -0.0908536 0.01587762 0.07844117 0.055169225
0001c0 e6 af cc bd 86 e1 2c 3a 47 73 2a bd 5b 19 29 3c
       -0.099944875 0.0006594885 -0.041613843 0.010320987
0001d0 eb a4 b2 bd 0a 24 b3 bc 22 26 bb 3b 03 f9 fa 3c
       -0.08722862 -0.02186777 0.005711333 0.030636316
0001e0 05 01 6c 3b 1b d9 88 3d 2e 6a 24 3d d4 b6 17 bd
       0.003601135 0.066820346 0.040140323 -0.037039593
0001f0 d9 cc de bc 69 b4 78 bd 20 c7 8c bd fe 02 a3 3c
       -0.027197288 -0.060718928 -0.068739176 0.019898888
000200 44 38 c6 3c d6 2a bd bd ab 0a 9d 3a d2 27 83 3d
       0.024196751 -0.09236686 0.0011981329 0.064040795
000210 0a e8 46 3d bf 14 37 3c a3 0b 92 bd 58 0f 67 bc
       0.048561133 0.01117438 -0.07131126 -0.014102779
000220 18 3a 39 bb c8 38 42 bd 07 77 a1 3d 21 24 73 bd
       -0.0028263386 -0.047417432 0.07884031 -0.059360627
000230 d4 11 21 3d 39 91 dd bc a6 d2 b7 3d ed b7 32 bd
       0.039323643 -0.027046787 0.08975725 -0.043632437
000240 ff 7c 11 be 2c 0f 40 3d d7 2a a5 bc d9 3a 57 bd
       -0.14207838 0.04688947 -0.02016203 -0.052546356
000250 4c 0c d2 bc c2 47 9d bd 51 28 c0 bd 91 29 be bd
       -0.02564063 -0.07679702 -0.0938269 -0.09285272
000260 45 cd b0 bd da 06 a3 bd 06 31 61 3d 54 14 7b 3d
       -0.08632902 -0.07960291 0.054978393 0.061298683
000270 c7 a7 22 bd f5 20 4a bc eb ee ae 3d c4 a7 46 bc
       -0.039710786 -0.012336959 0.08541664 -0.012124959
000280 7b e7 e5 3c 3a 37 04 bd 57 7d 40 3a d7 9b d0 bc
       0.02806448 -0.03227923 0.0007342896 -0.025464935
000290 84 95 09 3c e3 84 61 bd 0b 7b 41 bd d8 4b 84 bd
       0.008397464 -0.05505837 -0.047236484 -0.064597785
0002a0 16 3f 13 3d 42 88 6e bd 18 da ab bc 8c 26 08 bd
       0.035948835 -0.058235414 -0.020978019 -0.033239886
0002b0 1c 48 e5 39 36 2a 85 3d fd 8a 96 bc c7 12 16 3d
       0.0004373201 0.06502192 -0.018376822 0.036639
0002c0 d0 f0 79 3b 34 9e a4 3d bb 72 b4 bd b8 19 b1 bd
       0.003813792 0.08037987 -0.088109456 -0.086474836
0002d0 7d 3a 16 bd 6d d5 46 3d 94 d9 5c 3d eb c9 f2 bd
       -0.036676873 0.048543382 0.053918436 -0.11854919
0002e0 f5 b7 a0 bc c3 30 29 bd 6c ce a2 3d 08 af 99 bd
       -0.019618968 -0.04130627 0.07949528 -0.07504088
0002f0 31 dd bd 3d 0b a8 1b 3d 56 0b c5 bd 21 84 12 3d
       0.092707045 0.038002055 -0.09621303 0.03577054
000300 8b 9a dc bd 44 81 62 bd 5d 7f 24 3c 5b c0 8a bd
       -0.10771664 -0.05529906 0.010040131 -0.0677497
000310 e7 22 a2 3c 6c 32 a1 bd 85 f3 7c 3a b8 9f ca bd
       0.019792033 -0.07870945 0.00096493243 -0.09893745
000320 8c 7f 1e 3d 52 37 51 3d b1 07 8e bc 98 66 5b 3d
       0.038695857 0.05107815 -0.017337652 0.053564638
000330 9c 12 8f 3c 62 eb 88 3d 02 78 11 3c b9 45 96 3d
       0.017464928 0.06685521 0.00887871 0.07337517
000340 c0 0f a0 bd e0 b4 f9 bd e3 b2 0c 3c 7c 6c d1 3c
       -0.07815504 -0.12192702 0.008587572 0.025564425
000350 81 19 36 bc fc c3 54 bd f0 01 e0 bb bc e6 b6 3c
       -0.011114479 -0.051944718 -0.0068361685 0.02232682
000360 40 66 af bd 2f e9 31 3d e9 8e 01 3b da c6 67 3c
       -0.085644245 0.04343527 0.001976902 0.014146531
000370 04 97 19 3d 3a fb 7a 3d 8d f5 a4 3d 06 67 86 3c
       0.037497535 0.061274745 0.080546476 0.016406547
000380 97 be 11 3d 71 31 dc bc ca f0 2d 3d ba 38 58 bd
       0.03558215 -0.026879044 0.042465962 -0.052788474
000390 73 a1 85 3d 3f b5 eb bc 73 51 9a bd 62 d2 ab 3d
       0.065249346 -0.028772948 -0.075350665 0.08389737
0003a0 7c ec 5d 3d a5 f4 5f bd 64 d8 ce bd e0 a3 a5 bd
       0.054180607 -0.05467667 -0.10099867 -0.08087897
0003b0 63 0a b0 bb 2b dc b0 3a e5 30 f3 bc fc 6a 1b 3d
       -0.005372332 0.001349335 -0.0296864 0.037943825
0003c0 a9 9d 39 be 0f 6f ab bd c2 54 de 3c 98 d8 cb bd
       -0.18126549 -0.08370792 0.027140025 -0.09953421
0003d0 92 2f 02 3d 85 67 d6 bd 65 e1 ad bd 1f 0d 1a 3a
       0.031783648 -0.104689635 -0.08490256 0.0005876589
0003e0 df eb 24 bd 6f 70 1f 3d 60 63 a7 bd 7d c9 23 3d
       -0.040264007 0.038925584 -0.08173251 0.039987076
0003f0 31 83 48 3c 8a c6 b8 bd da 5d 20 bd 66 04 d5 bc
       0.01223831 -0.09022243 -0.039152004 -0.026003074

weight f4 [256, 256]
000000 f8 d8 f7 bc fd b1 38 bd a8 b5 b5 3d 98 73 8d 3d
       -0.030254826 -0.045091618 0.08872539 0.069068134
000010 ec 3d 94 3d 99 50 fd 3b 2c f3 bf bc 72 7b 05 3d
       0.07238373 0.0077305553 -0.023431383 0.03258843
000020 78 78 0f be 3a 8e dc bc 5f bf a5 bd 9c fa 0e bd
       -0.14010799 -0.026923288 -0.08093142 -0.03490697
000030 71 65 89 3c 16 af fc 3a de d1 80 b7 9b aa 2d 3d
       0.016772004 0.0019278254 -1.5356516e-05 0.04239903
000040 17 99 a3 bd d9 0f ca bb 65 03 21 3d 33 8a aa bc
       -0.07988184 -0.00616644 0.039309878 -0.020817852
000050 f9 ae e2 bc 21 5b c1 bd cf f5 10 bd bd 92 f3 3d
       -0.027671324 -0.094412096 -0.03539067 0.118932225
000060 ed f8 81 bd 7b dc 70 bd 8f 82 b7 bd 49 77 4d bd
       -0.06346307 -0.058804017 -0.08960449 -0.050162587
000070 d1 69 24 3c 6f 7e 0a 3d 2c 76 12 3e d2 ad 01 3e
       0.010034994 0.033811983 0.14302891 0.12663963
000080 00 7a 8e 3d cb 84 97 bd 51 b9 49 3d f9 ea 84 3c
       0.069568634 -0.07398375 0.049248997 0.016225325
000090 72 b9 33 3d b8 62 d8 bc a4 ef 98 3c cb 43 5f 3a
       0.043878026 -0.02641426 0.018668957 0.0008516877
0000a0 4b 12 c5 bc 85 41 ef bd 4c 42 90 bd c1 cd 02 be
       -0.024056574 -0.11682419 -0.07043895 -0.12773801
0000b0 78 1d 54 3d dd 21 5a bd 7f 83 96 bd fe 80 9c 3b
       0.051785916 -0.05325495 -0.073493 0.0047761193
0000c0 1d 45 88 3d 01 9a 02 bd 8a 57 29 3d 24 8d a9 bd
       0.06653807 -0.03188515 0.04134325 -0.082788736
0000d0 73 e0 5c ba 69 a0 d2 bc 0a 67 65 bd e3 c9 58 3c
       -0.00084257795 -0.025711255 -0.05600647 0.013231727
0000e0 66 57 2c bd 86 43 b2 bd cc 0e d7 3d 44 27 42 3d
       -0.042075537 -0.08704285 0.10500869 0.047400728
0000f0 c5 dc 31 3d df 3e 18 bd 68 28 24 bd 18 f7 74 3d
       0.043423433 -0.037169334 -0.040077597 0.05980596
000100 7e 2f 60 bd f8 96 ae 3c 4f 80 41 3d 8e 0e ac 3c
       -0.054732792 0.021312222 0.047241505 0.021003034
000110 62 37 b0 bd 3f a1 4b bc fe 24 75 bd 6a d6 e5 3c
       -0.086043134 -0.012428581 -0.05984973 0.028056342
000120 ce b9 a2 bc b9 93 38 3c 8a 87 dc 3c 6c 7b f1 b9
       -0.01986399 0.011265689 0.026920099 -0.00046059059
000130 85 ae 80 bd 39 d1 f3 bd db 40 f6 bc 65 9b 8e 3d
       -0.06283287 -0.119051404 -0.030060222 0.06963233
000140 77 cc 22 3d 38 92 90 bd be b9 53 3c b8 b8 99 3d
       0.039745774 -0.07059139 0.012922702 0.075059354
000150 3d 8e 4a bc 94 5e f5 3d 1d fc 3f bd 7d 80 85 bd
       -0.012363014 0.1198093 -0.046871293 -0.06518648
000160 44 7d 2b 3d 81 ce 22 be ca 5f a9 3d 7c 1f 04 bd
       0.04186751 -0.15899087 0.082702234 -0.03225659
000170 c6 36 31 bd e6 dc 0b be 8e 70 a2 bc 33 d5 25 bc
       -0.043265127 -0.13658485 -0.01982906 -0.010121631
000180 91 35 2d 3c b3 9e 2a 3c 97 dc a4 bd aa 3c 88 3d
       0.010571853 0.010413813 -0.08049887 0.06652196
000190 61 e0 79 bc 0f 0d ec bc 70 af d6 bd 25 a5 65 3d
       -0.01525125 -0.02881482 -0.10482681 0.056065697
0001a0 ac a9 9c bc a2 16 42 3d 9e f6 9b bd d2 51 ad bd
       -0.019123875 0.047384866 -0.07615398 -0.084628716
0001b0 bd e2 0c 3d 24 78 77 bd 3e c1 05 3e 92 84 77 bd
       0.034395922 -0.06041731 0.13061997 -0.060429163
0001c0 63 b0 09 3d 5c eb ce 3d f6 5f 77 bc df d5 e0 bc
       0.03361548 0.10103485 -0.015098562 -0.027445732
0001d0 fd d8 fd bd 75 e6 64 3d 11 0c b7 bc 3b f0 2b bc
       -0.12394903 0.055883843 -0.02234462 -0.010494287
0001e0 4c d1 82 bc 5d 34 4c 3d a2 9b cd 3d 26 19 35 bb
       -0.015968941 0.049854625 0.1003945 -0.0027633398
0001f0 b4 17 ca 3c e5 f8 46 3c f6 4c 0b 3d 4d 09 76 3d
       0.024669506 0.012144302 0.034008943 0.060067464
000200 45 64 94 bd ad 1e 5b bc e7 57 70 bd 12 3a 24 b9
       -0.072456874 -0.013374013 -0.05867758 -0.00015661892
000210 43 1a bf 3d 9a a4 c6 3c 10 62 25 3c 1d 0d 83 3c
       0.09331181 0.02424841 0.010094181 0.015997464
000220 4f 06 f8 bc 9f b0 39 bc ea 93 26 bd 1e ec 2d 3d
       -0.030276446 -0.011333614 -0.040668406 0.042461507
000230 ad 27 ed 3a 30 22 1b 3b c3 e6 96 bd 0e e1 71 3c
       0.0018093489 0.00236715 -0.07368233 0.01476313
000240 9d 8b 76 bd 3f bb 87 3d 24 34 e9 bd 04 d6 73 bd
       -0.06019174 0.06627511 -0.11386898 -0.059530273
000250 2d 54 99 3c c5 ff 94 bd 8a 0c 58 3d f4 96 52 3d
       0.018716896 -0.07275347 0.052746333 0.05141349
000260 7a 41 3a bd 63 35 dc bd 86 c0 2e 3d bf 31 f1 bc
       -0.0454726 -0.1075237 0.042664073 -0.029442666
000270 4f cd 5c 3e 60 5d 79 bc 1e 42 08 ba ae ca 30 3d
       0.21562694 -0.015220016 -0.00051978405 0.04316204
000280 4e da e2 bc 0c 1c a4 bc e8 51 89 bd 8f 95 8d be
       -0.027691986 -0.020032905 -0.067050755 -0.27653167
000290 17 f1 57 3c 33 67 54 3c 9f ce ad bc 1b 5b 06 be
       0.013180039 0.012964058 -0.021216689 -0.13120691
0002a0 94 bf 6c 3d c2 70 da bb 56 1b 23 bb 31 db da bb
       0.05779989 -0.006666274 -0.002488812 -0.0066789617
0002b0 67 c1 ab bd 45 85 c1 3c 7a 78 d3 bc 56 0f 9f 3c
       -0.08386498 0.023623118 -0.025814284 0.019416492
0002c0 33 22 44 3c d8 2c f7 bd b5 09 98 3c 7f 3c 07 3d
       0.011971044 -0.120691 0.018559316 0.033016678
0002d0 cc 02 75 3a 5d 63 26 bd 72 93 8d 3d 29 a8 34 ba
       0.0009346425 -0.040622104 0.069128886 -0.0006891513
0002e0 ee f9 4f bc 34 5d 42 bd 0c 44 2d bd 9c 5c 60 bc
       -0.012693865 -0.047452167 -0.042301223 -0.013693955
0002f0 00 59 c6 bc 4c 42 a0 3c 4b d1 7d 3d dc ab f1 bd
       -0.02421236 0.019562863 0.061967175 -0.11800358
000300 74 d0 dd bd 1f 0e 04 3d ae 2a aa bd 99 e5 f9 3c
       -0.10830775 0.03224003 -0.08308922 0.030504989
000310 35 2f a3 bd e0 8d 58 bd 7b 7a 1a 3e 74 85 28 be
       -0.079679884 -0.052869678 0.15085785 -0.16457158
000320 97 eb d7 3b b8 cd 14 3d 49 89 e0 3d 72 c9 41 3c
       0.006589364 0.036329 0.10963685 0.011827813
000330 4d df 94 3b 78 d6 f5 bb f5 61 52 bb 64 5a e3 bd
       0.004543221 -0.0075023733 -0.0032101844 -0.11101225
000340 aa 5c 8d bd ce be 61 3d 7f c3 6d 3d 6e 40 49 3c
       -0.0690244 0.055113606 0.058047768 0.012283428
000350 9a 61 13 3c d4 20 0d 3e e0 d5 71 3d 88 04 a1 bc
       0.008995438 0.13782054 0.059041858 -0.019655481
000360 ff 12 55 bc 0a 9a 59 3d c5 9b 8c 3c c6 2e d1 bc
       -0.013005017 0.05312542 0.01716412 -0.025534999
000370 50 3d 38 3d ef f9 b6 3d 98 bd 17 3c f4 cc 24 3d
       0.044980347 0.0893439 0.009261511 0.04023452
000380 6c b3 80 3c 64 cb e2 bd bf d0 82 3d 71 1b 1e bd
       0.015710555 -0.1107395 0.063874714 -0.03860039
000390 0d 10 f8 3d 2c 4d 55 3d 84 b4 3a bd 0e b4 0b 3e
       0.121124364 0.05207555 -0.04558231 0.13642904
0003a0 a4 40 58 ba b0 d5 c6 3d 1a 24 15 3d b9 ae 8a 3a
       -0.00082493783 0.097087264 0.036411382 0.0010580636
0003b0 b1 c0 e9 3c 76 7c c1 3b 4f 19 99 bc 4d 2b 19 bd
       0.028534265 0.0059047295 -0.018688826 -0.03739481
0003c0 30 e9 04 bd 75 08 b6 bd 90 11 88 bc 8d c5 8c 3d
       -0.032448947 -0.08888332 -0.016609937 0.06873617
0003d0 64 aa 48 3b 0f 57 7d bd 72 9d f5 b9 6a d3 69 3d
       0.003061914 -0.061850604 -0.00046847347 0.057086386
0003e0 e8 38 01 3d 50 35 c7 3c 0c 08 e4 bc 75 a2 c4 bd
       0.03154841 0.024317414 -0.027835868 -0.09601299
0003f0 9e 54 98 bd 58 c6 0a 3c ca 1e b8 bd 18 87 3f bd
       -0.074380144 0.00847014 -0.089902475 -0.046759695

bias f4 [256]
000000 69 5d b0 3c 39 c7 af bc 75 69 be bd 95 b5 04 3d
       0.021528916 -0.021457301 -0.09297458 0.032399733
000010 dc d9 a0 bc 1e 7f 46 3d 66 7c 70 bd 1f 98 52 bc
       -0.019635133 0.048461072 -0.058712386 -0.012853651
000020 f3 68 59 3d c1 42 e5 bc 0a 5c 84 bd 0b ab 17 bd
       0.053078603 -0.027985932 -0.064628676 -0.037028354
000030 f6 3e 8d 3c fa 82 82 3c 14 29 ee 3d 68 3c 4d bc
       0.017241936 0.015931595 0.11628929 -0.012526609
000040 5c 84 00 bd 55 fe 5d bd 55 6f 3a bd 4d 91 38 bc
       -0.031376228 -0.054197628 -0.04551633 -0.011265111
000050 69 c6 11 3d 92 a4 b9 bc 03 c5 33 bd c1 d2 c7 3c
       0.03558961 -0.022661481 -0.043889057 0.024392487
000060 ec 15 3a 3d c5 5c 6b bc ef 28 98 3c 7d 25 05 bd
       0.045431063 -0.01436538 0.018574206 -0.032506455
000070 20 c4 9b bc d7 10 95 3d 6f a3 7a bd 19 61 b1 bc
       -0.019014418 0.072786026 -0.06119102 -0.021652745
000080 01 4f 18 3d 96 c7 0d bd dd d5 95 3c 66 30 c9 3d
       0.03718472 -0.034614168 0.018290455 0.098236844
000090 f6 08 22 bd 0b 07 60 bd 46 7c ac bd 15 c9 19 3d
       -0.039559327 -0.054694217 -0.08422141 0.037545282
0000a0 e6 35 b1 3c 47 01 bc 3c ef 94 8b 3d b7 f1 96 bd
       0.021632146 0.022949828 0.06815516 -0.07370322
0000b0 30 60 d8 3c 29 e9 ec bd 65 ae 94 3c 93 4c a8 3c
       0.026413053 -0.11567909 0.018149564 0.020544326
0000c0 c0 82 9c bd e5 f0 f9 bd 96 6c 4e 3d 14 db 98 bd
       -0.07642126 -0.1220415 0.050396524 -0.07463661
0000d0 ea bb 33 bd f2 7c f9 bc 45 9c 18 3c 20 6a eb bc
       -0.04388038 -0.030455086 0.009314601 -0.028737128
0000e0 aa ac 93 3d 78 2e 8e bc 4f ae 36 bd 5f a0 37 bd
       0.072106674 -0.017356142 -0.044599827 -0.044830676
0000f0 50 ec 04 bd ab 5c 17 3d dc 02 b0 bb b4 76 10 3d
       -0.032451928 0.03695361 -0.0053714346 0.035269454
000100 9a 44 0b 3c e2 2c 2a 3d b6 30 aa bb fd 31 c3 bd
       0.008500243 0.04154671 -0.005193795 -0.09531019
000110 4c a2 03 be 77 96 85 3d 6b 9f 4f bd 73 f3 b4 bd
       -0.1285488 0.065228395 -0.050689142 -0.08835497
000120 35 c2 eb 3d 57 05 14 be 13 9b a0 bd 74 67 8e bd
       0.115116514 -0.14455162 -0.07842078 -0.06953326
000130 6e 65 12 bd 62 6b 9f 3d 24 7f b5 bc 2d cc a0 bc
       -0.035741262 0.077841535 -0.022155352 -0.019628609
000140 3b 4a 1f be ab e4 72 bd bc 68 72 3d 83 31 4a bd
       -0.1555566 -0.059300106 0.059181914 -0.049363624
000150 2e 21 36 3c 79 eb 98 bd 5c ee 54 3d 4d 91 39 bd
       0.011116309 -0.07466788 0.05198513 -0.045304585
000160 60 7a df bd dc e8 e7 bc c8 a7 90 bc 6c 6c 9d bc
       -0.10912013 -0.028309278 -0.01765813 -0.019216739
000170 70 88 79 3b 0d e3 b5 bd ff 40 c0 bc 69 71 17 be
       0.0038075708 -0.08881197 -0.023468493 -0.14789356
000180 6d 07 ec bd 7d 74 4c bd 19 35 bd bd 03 41 26 3d
       -0.11524854 -0.04991578 -0.09238643 0.040589344
000190 6f e2 44 3d b5 04 a9 3c 12 2c 9f bd 01 69 c7 3c
       0.048067506 0.020632127 -0.077720776 0.024342062
0001a0 74 2f 15 3d 19 b1 40 bd 53 b0 1f bc f1 e7 d0 3c
       0.036422208 -0.047043893 -0.009746629 0.025501223
0001b0 ec 01 79 3c 95 66 a9 b9 2e 3d 3a bb 1c 34 90 3c
       0.015198212 -0.00032310621 -0.0028417814 0.017602973
0001c0 42 f5 13 3d e7 40 8a 3d 03 25 1b bd 8c 95 be 3d
       0.036122568 0.067506604 -0.037877094 0.093058676
0001d0 ed e6 40 bb 54 1f 8e 3d 76 cc 6a 3d 33 7b 26 bd
       -0.0029434517 0.06939569 0.057323895 -0.040644836
0001e0 4b c0 35 3c 03 ca c8 bc 9a d2 a4 3d 37 97 b3 bd
       0.0110932095 -0.02451039 0.080479816 -0.08769076
0001f0 77 45 0d 3c f7 85 51 3d ca 2d 75 bd 13 bd 61 bd
       0.008622519 0.05115315 -0.05985812 -0.055111956
000200 88 ef b8 3d f2 57 c6 bd 91 c1 79 bd b6 76 9e 3d
       0.09030062 -0.09684743 -0.060975615 0.07737486
000210 ba 9c 9c 3b b7 9a 3d bd c3 0b 45 3c 90 78 a4 bd
       0.0047794254 -0.046290126 0.01202673 -0.08030808
000220 15 e2 3a 3d f3 6a 7d bc cc 07 58 3d 93 a7 83 bc
       0.045625765 -0.015467393 0.05274181 -0.016071117
000230 f5 28 99 bc 76 14 6d bc 84 de 06 be 83 70 b0 3b
       -0.018696288 -0.01447021 -0.1317082 0.005384506
000240 61 74 e8 bb 76 40 1a 3d c0 73 8e bd 87 2e 28 be
       -0.0070939516 0.03765913 -0.06955671 -0.16423999
000250 22 c4 31 3d 81 0e 09 3d 19 a2 48 3d 78 7f bf 3d
       0.043399937 0.033461098 0.048982713 0.093504846
000260 f0 69 1d be ca 55 c3 3d 0f aa 5d 3d 51 36 a3 bc
       -0.15372443 0.09537847 0.05411726 -0.019923361
000270 90 c6 55 bd 54 0c f9 bd 2a e6 7c bd 96 c9 f3 3b
       -0.052191317 -0.121605545 -0.06174294 0.0074398024
000280 72 5c 3d 3c 93 a1 6c bd bb 70 04 bc b6 58 0c 3d
       0.011557685 -0.057771277 -0.008083518 0.03426429
000290 aa 18 f5 3d 6e b8 9a 3d 29 6d 07 3d c3 d9 e4 3d
       0.11967595 0.075547084 0.033063088 0.11174347
0002a0 a0 87 f9 bc 02 5f 56 3b 1b 24 a1 3b b4 4a ee 3c
       -0.030460179 0.0032710438 0.004917634 0.029088356
0002b0 77 0f f4 bc 21 9b 12 bd fe b0 26 3d 7c 35 b2 3a
       -0.02979253 -0.035792474 0.040696137 0.0013596262
0002c0 fb be 7c 3c a1 42 78 bd 5d 42 d1 bb b3 24 8d 3d
       0.015426393 -0.060610417 -0.006386085 0.068917654
0002d0 d4 30 a0 bd 53 ee e5 bc 3c ac bc 3c 9d 9c c1 3d
       -0.07821813 -0.028067743 0.023031346 0.094537
0002e0 09 a6 03 bd 48 f0 d4 bc 31 7b 0f 3d 34 74 36 bd
       -0.032140765 -0.025993481 0.035029594 -0.044544414
0002f0 e6 78 84 bb 2c 12 6c 3d f3 60 d9 bc a5 77 6a bd
       -0.0040427325 0.057634518 -0.026535487 -0.05724301
000300 a2 da 65 bd e9 18 93 bd 03 1d a5 bc d1 05 fc bc
       -0.056116708 -0.071824856 -0.020155435 -0.030764492
000310 14 7c 74 bd 88 ef e4 bc 75 64 e1 3b ef 54 19 3d
       -0.059688643 -0.027946249 0.0068784305 0.037434515
000320 80 d5 81 bb 0d ba 60 bd 95 c3 2e bd b8 92 a6 3b
       -0.0039622188 -0.05486493 -0.04266699 0.005083408
000330 3d 02 ff bc 94 e0 3c bc 94 73 f2 bc 95 dd 16 3d
       -0.031128997 -0.011528153 -0.029596128 0.03683241
000340 34 b6 cb 3d 96 c7 8c bd 36 e4 9b 3c 02 81 84 3d
       0.09946862 -0.068740055 0.019029718 0.06469919
000350 7e 2f 8c bd a2 95 0a bd 21 c4 06 bd 40 d3 40 bc
       -0.06844996 -0.033834107 -0.032901887 -0.011769116
000360 be 7f 31 bd 3b 22 e3 bd 62 c5 8b bd fb 28 3a 3d
       -0.043334715 -0.11090513 -0.06824757 0.04544924
000370 45 79 2c 3c e8 2b b6 3c 3e 1c 69 bc 2b b3 04 3c
       0.01052696 0.022237733 -0.014227925 0.008099358
000380 1d 72 a0 3d c0 c5 50 3c 3d 35 8f 3d 97 29 71 bc
       0.078342654 0.01274246 0.06992576 -0.014719388
000390 85 83 c9 3d db be f2 bc 9a 51 85 b8 c9 ae c6 bc
       0.098395385 -0.029632023 -6.357134e-05 -0.024253266
0003a0 a6 a7 12 3d 91 50 c8 bd 51 56 0f bd 8e b3 8a bd
       0.035804413 -0.09780992 -0.034994427 -0.067725286
0003b0 bf d8 9f bc 16 7a a1 bb eb 07 32 bd c0 a5 d1 3a
       -0.019512532 -0.004927884 -0.043464582 0.0015994832
0003c0 cf 17 36 3d 83 f5 64 bc ba 59 44 3c eb 8a 15 3a
       0.0444563 -0.01397455 0.011984283 0.00057045993
0003d0 01 0c a9 bd 6b 30 4a 3c 63 b9 d5 3c 0e cd f5 3b
       -0.08254243 0.012340645 0.026089376 0.007501251
0003e0 0b ee ba 3b d3 96 7e bd 88 5b 41 bc 8f 97 d2 bd
       0.0057046465 -0.062155556 -0.011801608 -0.10282814
0003f0 a6 48 16 3d 84 d5 13 3c 04 b7 c5 bd 55 73 80 bc
       0.036690377 0.009023074 -0.09654048 -0.015679995

weight f4 [256, 256]
000000 30 0c a1 3d e9 78 ba 3d 2f 4d 3b 3d e5 bd 8e bd
       0.07863653 0.09105093 0.045727905 -0.06969813
000010 0d 7d 81 3d 33 25 c5 bd 60 5a 5c 3d e1 e8 2d bd
       0.0632268 -0.09626236 0.053797126 -0.04245842
000020 83 6c a4 bd 54 20 e3 bd af 12 f5 3b c1 e1 46 3d
       -0.080285095 -0.110901505 0.007479034 0.04855514
000030 a0 0d 3d bd 8c 81 03 be 10 17 d3 3c 59 14 ba bd
       -0.046155572 -0.12842387 0.025767833 -0.09085912
000040 77 ef 92 bd 3c 61 a1 bc 25 16 a1 bd b1 df ff bd
       -0.071745805 -0.019699685 -0.07865552 -0.124938376
000050 75 76 c8 bb e5 21 7f 3d f7 4e f8 bc bf c2 c0 3d
       -0.006117637 0.062288184 -0.03031109 0.09412145
000060 4f 65 c9 bb bb 9d 7f bd b9 e2 00 be ad 90 78 bd
       -0.00614611 -0.062406283 -0.12586488 -0.06068485
000070 b0 88 f9 bd ff e7 06 3c a9 53 dc bb 1c b5 be bc
       -0.12184274 0.008234023 -0.0067238403 -0.023279719
000080 a3 73 20 bd 74 75 4d 3d 4d 26 41 3d ac e7 f9 bd
       -0.03917278 0.05016084 0.047155667 -0.12202391
000090 e2 e8 23 bd 7c 7b 2f be 43 50 d7 3c 83 34 b9 bd
       -0.040017016 -0.1713695 0.026283389 -0.09043219
0000a0 bb d6 b0 bd 54 28 22 bd a5 44 47 be 7d 4c ba 3d
       -0.086347066 -0.03958924 -0.1945978 0.0909662
0000b0 b7 e2 61 3d c0 3e d5 3d 95 18 0a be ab 98 9b be
       0.055147853 0.10412359 -0.1348594 -0.30389914
0000c0 98 21 f0 3d a5 56 31 3e e0 10 97 3e 90 ea bc 3d
       0.117251575 0.17318209 0.29505062 0.09224427
0000d0 16 40 73 bc 29 df 85 bc 88 12 92 bd c3 0f 32 3d
       -0.014846822 -0.016341763 -0.07132441 0.043472063
0000e0 9c 0c 3d be 1d d7 65 bd a6 10 ba bd c1 da 4c bd
       -0.18461841 -0.05611335 -0.09085207 -0.050013307
0000f0 aa cb de 3c ca 2c 26 3d bb 7d 63 3b 98 db 1a 3d
       0.027196724 0.040570058 0.0034712392 0.037807077
000100 ac f1 e5 3d 49 b0 09 be 68 27 95 bd 2a 67 2d 3b
       0.11227736 -0.13446154 -0.07282907 0.0026459196
000110 73 86 48 3e 04 2d 80 be 93 94 f4 3c 62 c0 46 be
       0.19582538 -0.25034344 0.029856002 -0.19409326
000120 23 62 39 be c0 e4 91 3d fb 2f e8 bc a7 60 8a bd
       -0.18103842 0.07123709 -0.028343191 -0.06756716
000130 00 22 c4 3c 00 a1 1d be 76 3d b8 3d e9 7b 36 bd
       0.023941994 -0.15393448 0.08996098 -0.044551764
000140 b1 ba 40 3d 71 36 8a bd 79 d2 04 3c ef 80 36 bc
       0.047053043 -0.06748665 0.008106821 -0.011139139
000150 10 4f 14 bd 86 b1 09 3e 67 27 3a bd ec 5b cd bd
       -0.036208212 0.13446626 -0.045447733 -0.10027298
000160 0f 9e ea 3c f1 d0 35 be a2 bc f7 bc cb c5 b3 bc
       0.028639821 -0.17755486 -0.030241314 -0.021944901
000170 58 63 bb 3b 1b 4d 8f 3d 3b 29 62 3d 3f 2d 8a bd
       0.00571863 0.069971286 0.0552151 -0.06746911
000180 b8 ef 9f bc 41 30 55 3d d8 75 e3 bd 22 ee fd bd
       -0.019523486 0.05204797 -0.11106461 -0.12398936
000190 2b e1 da bd 16 67 02 bd fc a6 34 be 00 92 5e 3d
       -0.10687479 -0.03183659 -0.17641824 0.054338455
0001a0 c4 ca 07 bd 12 b5 a5 bd a9 ba 13 be 45 0b 32 be
       -0.033152357 -0.08091177 -0.14426674 -0.17387111
0001b0 2b d7 2e be 67 65 00 bd 7a 2e 84 3c 38 6b 1b 3d
       -0.17074268 -0.031346705 0.016135443 0.03794405
0001c0 06 3e da bd e6 1e 86 be ba ae 49 be 6a 50 8b be
       -0.10656361 -0.2619545 -0.19695559 -0.2720979
0001d0 71 a6 8c bd d0 0d 2f be 2d c0 1d be fd 88 b6 bc
       -0.06867684 -0.17095113 -0.1540534 -0.022282118
0001e0 cb 99 18 be f3 69 86 3d 98 c7 11 be da e7 98 bd
       -0.14902417 0.06563177 -0.14236295 -0.07466097
0001f0 d7 1e bc 3d ee 84 21 bd 71 98 a2 bd 3b fb 96 3a
       0.0918557 -0.039433412 -0.07939232 0.0011518964
000200 5b a9 61 be 33 05 19 bc ef a3 3d bc 84 1a bf bc
       -0.2203726 -0.0093396185 -0.011574729 -0.023328073
000210 30 82 49 bb 3d 8b 77 bd d6 04 cf bb 14 98 49 3e
       -0.0030747764 -0.060435522 -0.006317715 0.1968692
000220 6a 6d ad 3c 39 35 78 bc 39 f8 be bd 68 67 8d bd
       0.021170337 -0.015149408 -0.093246885 -0.06904489
000230 ba 14 a5 3d 3e 37 b8 3d 8e 43 34 3d 05 46 9c 3c
       0.08060594 0.089949116 0.044009738 0.019076357
000240 00 60 25 be bf d2 3b 3d 31 5b ff 3c b2 40 3e bd
       -0.16149902 0.04585528 0.031171413 -0.046448417
000250 16 3b d7 be 6e 6c b1 3d ac bb b8 3d 03 a2 32 bd
       -0.42037266 0.086632594 0.090201706 -0.043611538
000260 39 dd b2 3e 9c 4a be bd 0f e1 d5 bd 7f 35 48 be
       0.34934404 -0.09291574 -0.10443317 -0.19551657
000270 0e a9 c0 bd 30 ac 6c 3d 94 5f 1f bd 67 07 8f bd
       -0.094072446 0.0577814 -0.03890951 -0.06983834
000280 b1 c4 80 3d 7d 63 6a bd 20 39 cb bd 3f cd cb 3b
       0.06287516 -0.057223786 -0.09923005 0.0062195356
000290 91 fb 99 3c 9f 5e 0d bd 57 71 0e be 55 34 8a bd
       0.018796714 -0.034514066 -0.13910423 -0.06748263
0002a0 56 57 f0 bb 99 f0 d1 bd 6c 89 ff bd e7 15 21 be
       -0.00733463 -0.102509685 -0.12477383 -0.15731011
0002b0 7f ae 12 3d 0d a0 ac bc af a6 51 3d 8a 2c 96 bd
       0.035810944 -0.021072412 0.051184352 -0.07332714
0002c0 5e 0c 48 bd 8b 92 46 bc 40 5a 8e 3c 4d 8f ed 3c
       -0.04883992 -0.0121198995 0.017377019 0.028998995
0002d0 14 50 31 3e 86 94 2a bc 93 5f 50 3d 8a 97 f6 bd
       0.17315704 -0.010411387 0.050872397 -0.120406225
0002e0 73 80 f7 3c 35 f8 0e bd bb d3 f3 bd 96 be c9 bb
       0.030212617 -0.034904677 -0.11905619 -0.006156753
0002f0 7b 1e 20 be ad ed 8b 3d 01 f2 c8 bd 7a 34 0f 3d
       -0.15636627 0.068324424 -0.098117836 0.034962155
000300 6a ba ef 3d 40 1c ea bd d1 ec 41 3d 10 ce 3f 3e
       0.117054775 -0.114311695 0.047344986 0.1873095
000310 17 03 f4 3d f1 59 67 3e 80 df 23 be 46 ac 01 be
       0.11914652 0.22592904 -0.16003227 -0.12663373
000320 e9 80 88 be aa 2f ab bd 3d aa 13 be bd e8 cd 3c
       -0.2666085 -0.083587006 -0.1442041 0.025135392
000330 2a 03 b9 3c 50 71 ab 3c 8c 44 df 3d 02 67 0e bd
       0.022584517 0.020928055 0.10901746 -0.034766205
000340 c7 33 36 bc fb ef ad 3c 5a e5 aa 39 c2 a0 4b bd
       -0.011120743 0.021232596 0.00032595807 -0.049713857
000350 29 1e 00 3c 9f d6 e3 bd 39 b4 23 bd 36 04 68 bd
       0.007819691 -0.1112492 -0.039966796 -0.05664464
000360 f5 25 99 bd 7f 0e 3e be cf 12 21 bc d2 7a 37 be
       -0.07477943 -0.18560217 -0.0098311445 -0.17917946
000370 ba f6 c9 bc 1c 4d 80 bc 2b 3c b3 3c 4f 17 10 be
       -0.024653781 -0.015661769 0.021879276 -0.14071392
000380 7d dd 91 be ba d3 8b bd 5b 4e 57 3d 35 bc 81 bd
       -0.28489295 -0.06827493 0.05256496 -0.06334726
000390 26 2d 22 be b5 14 01 bd 03 44 1b 3e 28 5e 89 bc
       -0.15837535 -0.03151389 0.15162663 -0.01676853
0003a0 47 15 81 3d 7d f3 00 3e 3e d1 b2 bd 96 98 4a 3d
       0.063028865 0.12592883 -0.08731316 0.049461924
0003b0 54 6f 40 3c 29 25 e1 bc 60 51 e3 bd e8 b5 b0 bc
       0.011745293 -0.02748354 -0.110995054 -0.021571115
0003c0 94 b6 e8 bd a6 4a 99 3d 16 7b ef bc 97 e7 fe bc
       -0.11362949 0.07484941 -0.029233497 -0.03111629
0003d0 e5 02 bd 3a 67 ad 72 bd 9d d9 bf bd db 4f 18 b9
       0.0014420418 -0.0592474 -0.09367678 -0.00014525598
0003e0 26 23 3d 3d 08 93 a8 bd 3c 14 0e bd 72 d6 b0 bc
       0.0461761 -0.08231169 -0.034687266 -0.02158663
0003f0 20 37 81 bd 5a e1 af bd 18 0b ce 3a a6 3f 89 bd
       -0.063093424 -0.08587904 0.0015719859 -0.06701593

bias f4 [256]
000000 3e 89 3e bd a2 a2 35 3e cc c5 39 3c 32 eb ea 3d
       -0.046517603 0.1773782 0.011338662 0.11470641
000010 07 c4 4e 3d 13 b9 1e 3d 19 2e 40 be 2e c1 5e be
       0.050479915 0.03875072 -0.18767585 -0.2175338
000020 92 c7 44 bd ed c3 db bd 17 b4 8c bc 09 4e 81 bd
       -0.048041888 -0.10730729 -0.017175717 -0.06313712
000030 29 4e bf bb 6b 14 b6 3d bd 5a 9a 3d 1e 61 0c 3e
       -0.005838175 0.08890613 0.07536838 0.13708922
000040 b5 f8 6f 3d 78 86 82 3d 8b b0 b8 3b d5 52 89 3b
       0.058586795 0.06373304 0.00563628 0.0041907826
000050 84 32 56 be 1e 7f 24 3d 6f d8 42 3e a6 bf bc bd
       -0.20917708 0.04016029 0.19027875 -0.092162415
000060 8f 39 da 3d 24 66 fb bc 85 4e 58 3c 37 3a bd bc
       0.1065551 -0.030688353 0.013202314 -0.023099048
000070 83 a6 7d bc 40 5e bc 3d c4 43 6d bd a6 26 56 bd
       -0.015481594 0.09197664 -0.057925954 -0.05228295
000080 64 ab 1d be c0 7b 2e 3e c2 1a 13 3d 3c 28 60 bd
       -0.15397412 0.17039394 0.03591419 -0.05472587
000090 38 fc e6 bc 6c 7d 91 3b 5a 0e 42 3e 10 46 a3 3d
       -0.02819644 0.0044400003 0.18950787 0.07972348
0000a0 92 8d 16 be 5e e4 11 3e de 7e 03 3d c2 94 ad 3d
       -0.14702442 0.14247271 0.03210341 0.08475639
0000b0 7d 19 fa 3d 68 3e 27 3e 31 65 ec 3d 00 46 30 3e
       0.12211893 0.163324 0.11542738 0.17214203
0000c0 77 62 1e 3e 68 27 d9 3d c0 5e 5b bd 3f 8c 27 bd
       0.15467249 0.10603219 -0.053557158 -0.040905233
0000d0 df 46 4e bd 60 35 f3 3d ac 78 2d 3e 79 9b 2f 3e
       -0.050360557 0.11875415 0.16940564 0.17149152
0000e0 ad d8 23 3d 59 86 34 3e 60 b4 5c bd 01 82 19 bd
       0.04000156 0.17629375 -0.053882957 -0.037477497
0000f0 0d 64 b0 bd 4a 93 d2 bd 26 87 09 3d cd 53 38 3e
       -0.08612833 -0.102819994 0.033576153 0.18000717
000100 60 1c 4f 3d b9 d7 6e be cb f8 99 bd 3f d3 4d 3e
       0.05056417 -0.23324479 -0.075181566 0.20100115
000110 91 0f 37 3e 31 11 8c ba d8 2c 4a be a8 78 b2 bc
       0.17877032 -0.0010686276 -0.19743669 -0.021786049
000120 12 a5 12 bd 66 02 ae bd 1c ca f3 3d a6 e4 8c 3d
       -0.035801955 -0.08496551 0.11903784 0.06879549
000130 79 cf c2 3c 66 e1 28 bc 74 df d6 3d 46 b9 1b bd
       0.023780571 -0.010307645 0.10491839 -0.038018487
000140 38 4d 0d 3e 7e 67 47 bd 07 95 2c 3e 7b 87 3e bc
       0.13798988 -0.048682682 0.16853724 -0.011628981
000150 b0 87 96 3b bd 1e 7c 3d d9 95 9c bd c2 b6 e9 3c
       0.004593812 0.06155275 -0.07645769 0.028529529
000160 f2 51 3c 3d 28 f0 29 3e 0d bd e8 3d b1 00 e2 3c
       0.045976587 0.16595519 0.113641836 0.02758822
000170 ff 09 b7 3d 7d 56 65 bd a7 87 d1 bb 07 81 0d be
       0.089374535 -0.055990685 -0.006394345 -0.13818751
000180 d8 d5 6f 3c 79 f5 70 3d 97 84 9c 3d f3 ab 49 3d
       0.014638387 0.05882785 0.07642477 0.04923625
000190 a8 b5 c4 3c 57 13 42 bd 43 df b0 3d ef 70 27 3d
       0.024012402 -0.047381725 0.08636334 0.040879186
0001a0 62 b6 1b 3e 48 96 fb bb 47 34 1f 3e b8 99 7c bd
       0.15206292 -0.007677827 0.15547286 -0.061670035
0001b0 76 49 5b 3d 25 83 dd bd af a9 52 be 79 18 e6 3d
       0.053536855 -0.108160295 -0.20572542 0.112351365
0001c0 24 df 32 3c 85 4b 47 3e 81 34 03 3e 2f 34 51 be
       0.010917459 0.19462402 0.12812997 -0.20430063
0001d0 f2 8c ac bd 63 5a b1 3d 1a e1 39 be 9f 70 f0 3d
       -0.08425321 0.08659818 -0.18152276 0.11740231
0001e0 41 c8 7c 3d 15 ed 3d be c9 01 c8 bc 96 30 3e 3e
       0.061714415 -0.18547471 -0.024414914 0.18573222
0001f0 d7 7f 19 3e b9 02 99 3c 4f bc 5f bc b4 36 82 3c
       0.14990173 0.018678056 -0.013655736 0.015895225
000200 eb cd 10 bd 9a 4c c9 bd 6c 16 09 3c 3b 0e 8d 3d
       -0.03535263 -0.09829064 0.008367162 0.0688748
000210 38 b4 dd 3d 2c 7f 3c bc 1b f3 8e bd e8 d2 ba 3c
       0.108253896 -0.0115049295 -0.069799624 0.022805646
000220 11 0e d1 bd ff 6a 3f 3d 87 c3 d4 3d 61 dc c3 3d
       -0.10207761 0.0467329 0.103888564 0.09563518
000230 60 f9 24 bd e5 9f 0a be e6 d2 9d 3d ae 7e c1 3d
       -0.040276885 -0.13537557 0.07706241 0.0944799
000240 e4 cf 38 bd 7e 9b 3d bd f9 1d 54 3d 8a 97 52 3d
       -0.045120135 -0.046290867 0.051786397 0.05141405
000250 25 83 c5 3d ae 99 13 3e 03 1e e8 bd 04 06 92 bd
       0.096441545 0.14414093 -0.11333849 -0.07130054
000260 cb 03 3f be 9d a3 c1 3a 9e 65 3a 3e 79 1e 70 3c
       -0.1865379 0.0014773492 0.18202826 0.014655703
000270 5d c0 b6 3d c9 5c 44 3b 6b 82 43 ba 00 e3 3e 3b
       0.08923409 0.002996253 -0.00074580935 0.0029127002
000280 03 be cf 3d c8 13 e1 ba 1d c9 19 bd c5 5d ce 3d
       0.10143664 -0.0017172033 -0.037545312 0.10076479
000290 1d 6d b7 bc a0 65 5f 3e 6f 46 b4 3c 59 1c a5 bd
       -0.022390896 0.2181611 0.022006242 -0.080620475
0002a0 d5 61 5f be 17 98 3a bd c0 0c 8c bc 1d 11 08 3d
       -0.21814664 -0.0455552 -0.017095923 0.033219445
0002b0 61 97 f6 3d 75 ba 59 3d 3f b4 3e be 33 3b 4a be
       0.12040592 0.053156335 -0.18623446 -0.19749145
0002c0 d8 61 0e 3e 29 37 1d 3d ee 96 42 be 08 a4 d7 3b
       0.13904512 0.038382683 -0.19002888 0.0065808333
0002d0 2f f0 83 bb 95 b1 ab 39 4d 63 18 3c ca fc 26 be
       -0.004026435 0.0003274797 0.009301019 -0.16307369
0002e0 8b a0 88 bb 86 85 80 3d d2 80 cd 3c 42 1e 29 3e
       -0.004169529 0.062754676 0.02508584 0.16515449
0002f0 ca 4b 1b 3d 0b 92 13 3e da 39 a4 3c 7b b6 0a 3e
       0.037914075 0.1441118 0.020047117 0.13546173
000300 90 c3 3b bd a8 a0 31 3e f6 24 7a bd 91 97 c5 bd
       -0.0458408 0.17346442 -0.061070405 -0.096480496
000310 28 e5 7c 3d 2c 4d 0c 3e 7c 1f 30 3d 7b 18 1e 3b
       0.061741978 0.13701314 0.042998776 0.0024123478
000320 62 19 2d 3c 7b c7 06 3e 17 04 07 3d 96 0d 8e 3d
       0.010565134 0.13162033 0.032962885 0.06936185
000330 7d 08 66 bd 17 23 4a 3e 14 4a ef bd bb a5 a2 3d
       -0.05616044 0.19739948 -0.11684051 0.07941767
000340 47 f0 23 be 59 a7 91 3c 22 99 a8 3d 8f 84 0b bd
       -0.16009627 0.017779993 0.08232333 -0.034061965
000350 51 f5 12 3e cf 68 a1 3d 7c e4 19 3e 3e bc 8c 3d
       0.14351393 0.07881319 0.15028566 0.06871842
000360 b6 51 84 bc 02 30 87 bd 4c a0 88 3c 40 01 2c 3e
       -0.016152244 -0.06600954 0.016677998 0.16797352
000370 f8 87 53 be 20 98 df 3b 96 b9 3d 3e d1 1a 0d 3e
       -0.20657337 0.0068235546 0.18527827 0.13779761
000380 25 24 49 be 12 c3 2c bd a0 e9 c5 3d a7 fc 35 3d
       -0.19642694 -0.04217822 0.09663701 0.0444304
000390 a1 46 67 3d f2 0f c4 3d 9a 55 05 bd fe 06 1f 3e
       0.05646384 0.09573354 -0.03255234 0.15530011
0003a0 60 bc d6 3d 05 a5 d8 3d 4f 56 44 be a0 77 0c 3e
       0.104851484 0.1057835 -0.19173549 0.13717508
0003b0 76 a7 27 be 13 26 05 3e 27 4e fa 3d b3 5f 4e be
       -0.16372475 0.13002805 0.122219376 -0.20153694
0003c0 00 b4 43 3e 78 1f f9 3d a8 a5 1f be 30 80 e8 3b
       0.19111633 0.12164205 -0.15590537 0.0070953593
0003d0 58 b8 73 3d b4 c5 04 3e 21 c0 b6 3d 74 6b ea 3d
       0.059501976 0.12966043 0.089233644 0.11446276
0003e0 3e 25 f7 3d 4d a4 0d 3e 12 d1 06 bd c9 70 7a bc
       0.1206765 0.13832207 -0.03291423 -0.015285679
0003f0 85 9a d5 bc 0a 7f aa bd 8a 99 10 3d f1 ec 01 3e
       -0.026074657 -0.08325012 0.035302676 0.12688042

weight f4 [97, 256]
000000 86 27 23 bc 15 c6 0c 3c bb 8d 1b 3d 08 26 4a 3d
       -0.009958154 0.008592148 0.03797696 0.049352676
000010 1d df 89 3c bd d5 9a 3b 8b 6f ba bd 58 23 a9 bc
       0.016830022 0.0047251866 -0.091033064 -0.020646736
000020 50 47 0e bd c4 d2 0c bd 6c 89 ae ba f1 d9 9c 3a
       -0.034735978 -0.03438069 -0.0013316101 0.0011966807
000030 3a 3e de bb 71 ab 09 bc 36 8d 3a 3d 63 7a b9 3c
       -0.0067823203 -0.008402691 0.045544825 0.022641366
000040 af 74 cc 3b 3f 35 e5 bc 23 18 81 bd 70 92 3e bd
       0.0062394957 -0.027979491 -0.06303432 -0.046526372
000050 90 a8 75 3d d6 ed 16 bc d3 7e 3a 3c 12 03 85 bd
       0.059975207 -0.009211978 0.011382776 -0.06494726
000060 4e 5e fb ba ce 2c 82 bb ed ba ef bb 10 b4 ea bb
       -0.0019177885 -0.0039726263 -0.0073159845 -0.0071625784
000070 47 8e 32 bd d1 e3 c0 3c 99 96 1b 3d 5f 09 aa 3c
       -0.043592717 0.023546131 0.037985418 0.020756422
000080 e4 17 4a bb 9f 50 01 bc 38 3b b3 ba 0f 49 ab 3b
       -0.0030836994 -0.007892757 -0.0013674265 0.005227215
000090 43 fc 4e 3c 6f 7d 2b 3d c3 48 2b 3d 8e d4 8e bc
       0.012633386 0.04186767 0.041817438 -0.017435338
0000a0 61 95 86 3b 07 09 d1 bc 85 35 ab bb 8e 14 80 bb
       0.004107163 -0.025517 -0.005224886 -0.0039087003
0000b0 73 4d 01 3d a7 3e 96 3c 8b 68 8f bb df 0f 0f bc
       0.031568002 0.018340422 -0.004376476 -0.008731811
0000c0 f1 bf 2a 3d 06 15 c2 3c 05 89 32 3c d8 51 1d 3d
       0.041686956 0.023691665 0.010896926 0.03840813
0000d0 e9 74 ab 3c ef 17 85 bc 1b af fc 3c 18 bd 36 3d
       0.02092977 -0.016246764 0.030845216 0.044613928
0000e0 2d 08 40 3b 6b d2 12 3d e3 f8 27 bd fd ae f7 bb
       0.0029301748 0.0358452 -0.04100884 -0.007558702
0000f0 c8 68 91 bc d9 36 45 bd 30 75 ec 3b c1 37 50 bc
       -0.017750159 -0.04814801 0.0072161183 -0.012708605
000100 8e 90 89 bc dc 3a 75 bd eb 26 da 3b 96 b3 f1 3b
       -0.016792562 -0.059870586 0.0066574714 0.0073761446
000110 93 35 0a 3d 92 30 2f 3f 53 34 3a bd e6 0b 52 bd
       0.0337425 0.6843349 -0.045460057 -0.05128088
000120 ae 19 8b bc fb 88 84 3c fe c0 db bc 77 72 3a bd
       -0.016980018 0.016178599 -0.026825424 -0.04551932
000130 3e 78 df 3b 65 d8 e0 3b 48 33 86 bc c4 f2 21 3d
       0.006819754 0.0068617337 -0.016381875 0.03953816
000140 68 8c 4a bc d3 6a c0 3c cf c7 47 3d 1d b7 ba bd
       -0.012362577 0.023488438 0.048774537 -0.09116957
000150 16 03 0a bd e4 da 48 bc fb ca 3e b9 b8 10 2f 3c
       -0.03369435 -0.012259219 -0.00018195428 0.010685138
000160 54 ca cf 3c a1 a1 20 3d 1a 37 52 3d 1c 67 25 3d
       0.025365032 0.03921664 0.05132208 0.040381536
000170 eb f9 cf 3c c9 2e 4e bd 96 0b 32 3d 41 da 24 3d
       0.025387725 -0.050337587 0.04346808 0.040247206
000180 a5 93 3d bc 8b be 91 bc 08 df 7b 3b 19 2a fd 3c
       -0.011570846 -0.017791053 0.0038432498 0.030903863
000190 7e 26 81 3d b4 50 ac 3b fc bd 1e 3d 30 c6 fa bb
       0.0630617 0.005258644 0.038755402 -0.0076530203
0001a0 36 ba 11 3d d1 4c ad 3b 6c 6e 5c bd 4d 11 80 3a
       0.035577975 0.0052886982 -0.053816244 0.0009770781
0001b0 48 66 d1 3a 2e f1 09 3c f2 09 a4 bc 12 5d 3b bd
       0.0015975917 0.008419318 -0.020024274 -0.045743056
0001c0 9c 55 0a 3c 8c cd 3e 3d 53 90 27 bd 57 ee 43 bd
       0.008443262 0.046582744 -0.040909123 -0.04783472
0001d0 67 82 04 3d ff a2 90 3b f6 7d e9 3c 14 11 d4 bc
       0.032350924 0.004413962 0.028502446 -0.02588705
0001e0 d0 d8 0c 3c 16 2f 98 3a a9 6a ed bc bb c2 3b bb
       0.008596614 0.0011610712 -0.028981524 -0.0028650004
0001f0 36 bc 6a 3c db a8 15 bd ef 30 d0 3a b8 60 3d bd
       0.0143271 -0.036537986 0.0015883724 -0.046234816
000200 df e8 22 bc da 68 91 bc b2 d7 7f 3c 5c 92 4b 3c
       -0.009943216 -0.017750192 0.015615391 0.0124250315
000210 b1 9c 2c 3d 33 99 df bb 46 31 4a 3d 6e 9f d4 bc
       0.04214162 -0.0068236827 0.049363397 -0.025954928
000220 45 18 84 3c af 29 12 3d fc c9 6b bb de 00 ce bb
       0.016124854 0.035684284 -0.0035978546 -0.0062867245
000230 82 08 75 bb c4 ec a2 3c 59 8f 97 3c 19 eb c1 3c
       -0.0037389104 0.01988829 0.01850097 0.023671674
000240 2c 88 28 3c a5 3e 61 3b 54 4c 3b bc 92 a1 08 3d
       0.010286372 0.0034369614 -0.011431772 0.03335721
000250 a7 89 1e bb 23 96 c3 3d e8 48 58 3c 52 2b 0d bd
       -0.0024190934 0.09550121 0.013200976 -0.03446514
000260 a2 75 26 3d 57 58 03 bd 94 45 db ba 12 ab 20 3c
       0.040639527 -0.03206667 -0.001672911 0.009806411
000270 14 fc fb 3b 9d d9 a7 3b 24 bc 07 bd 2c 05 07 bd
       0.007689962 0.005122377 -0.03313841 -0.032963917
000280 d1 c3 81 bc fa c0 26 3b a3 ce 83 3c 1a e9 a5 3b
       -0.015840443 0.0025444613 0.016089743 0.0050631883
000290 53 3b 0a 3d a8 fc 39 3b 1e c2 7e bc 99 cd ac 3c
       0.033747982 0.0028379355 -0.015549211 0.02109413
0002a0 23 c8 03 3d db 1a 5f bd a0 54 56 ba f4 29 0a 3a
       0.032173287 -0.05446897 -0.0008176062 0.0005270534
0002b0 ae db f9 bb 07 b5 63 bc 62 02 b8 b9 0f 7f ab 3c
       -0.007625065 -0.013898141 -0.0003509699 0.02093461
0002c0 9d 1d 66 3c c8 20 3e bd be 17 45 bd 6c 31 20 3d
       0.014045146 -0.04641798 -0.048118345 0.039109632
0002d0 b0 2e 76 bc 69 ba dd bb 2d 82 63 3b 3b ce 84 bd
       -0.01502578 -0.0067666066 0.0034715042 -0.06484648
0002e0 51 1e 7f 3b 4c e0 31 3c f7 ad 81 bc c3 31 36 3d
       0.0038927982 0.010856699 -0.015830023 0.04448105
0002f0 a6 20 13 bc 33 98 38 3c 4a 80 47 bb 5f bc 9d bc
       -0.008979952 0.011266756 -0.0030441456 -0.019254861
000300 af 08 ab bc b2 00 40 3d cd 91 db 3c 81 44 ef 3b
       -0.020878164 0.046875663 0.026802922 0.0073018675
000310 9d f9 ac bc 38 94 3e 3d 40 21 35 bd c1 4c ce bc
       -0.021115119 0.04652807 -0.044221163 -0.025183083
000320 1a ce 41 bb fc 46 67 3c bb 75 b9 3b a0 0e 00 3b
       -0.002957231 0.014116045 0.0056597865 0.0019539967
000330 e4 e2 05 3b 6a d2 01 3d 01 29 3a bd fd c2 5a bc
       0.0020429427 0.031694807 -0.04544926 -0.013352153
000340 3c 10 59 3d 17 af c1 3b f6 85 07 ba ef aa 4f bc
       0.052993998 0.005910765 -0.0005169803 -0.012675031
000350 5c 59 92 3d eb 4e 3f 3c a4 20 4f 3d ff 02 5d bc
       0.0714595 0.01167653 0.050568238 -0.013489484
000360 3c 59 cd bd 7d 97 e4 bc 35 35 cc 3c d4 67 04 bc
       -0.10026786 -0.027904266 0.024927715 -0.008081395
000370 e1 30 01 bd 74 b3 88 bd 66 7c 4e 3d 57 90 49 bb
       -0.031540755 -0.06674853 0.050411604 -0.00307562
000380 69 47 44 bd 8d 43 89 bc 35 35 8a 3d 01 5a 69 3b
       -0.047919665 -0.016755844 0.0674843 0.0035606625
000390 37 18 8e bb 72 60 76 bc 6d ae c0 3c 5a a8 e2 bb
       -0.0043363827 -0.015037643 0.023520673 -0.0069170417
0003a0 97 a3 59 3d 54 91 62 3d 16 2e bd 3c e4 c8 36 3a
       0.053134527 0.055314377 0.023093265 0.0006972684
0003b0 d6 73 93 bd 8a e5 54 3d b9 a8 d9 3b df 42 33 bd
       -0.07199828 0.051976718 0.0066424278 -0.043764945
0003c0 65 7a ef 3c 90 77 57 3c fa 51 7d bc 41 af 18 3d
       0.029233167 0.0131510645 -0.015461439 0.03727651
0003d0 5c bb df bc ed fc 4e 3c 52 25 5b 3d 06 de 23 3d
       -0.02731102 0.012633544 0.05350239 0.04000666
0003e0 95 8e 4b 3d 4b f9 36 3d 3c 28 2e bc cc 1e b4 3b
       0.049696524 0.044671338 -0.01062971 0.0054968353
0003f0 44 c4 d3 bc f1 3b 1c bb 9d f0 21 3d c0 b5 37 bb
       -0.025850423 -0.0023839439 0.039536107 -0.0028031915
