data/example_dynamics_data/models/office/MLP_qhat_no.pth (torch, 740431 bytes, 8 tensors)

weight f4 [256, 107]
00000000: fc45 613d 475d 213d 6dd5 aebd f03b 6fbd
00000010: b2b0 513e daee aebd 97f3 d63d 743e dd3d
00000020: 46d4 383d d348 1e3d 3e6b ab3e da21 5b3d
00000030: dfb2 81bd ceaa 57bd ff9e c43d ae6b 2b3d
00000040: 63e0 e1bd 37ee 6dbd 0bcc 123b ff50 863d
00000050: 7c9d 1a3e 8063 e0bd 7114 08bd e1c5 0a3d
00000060: 9520 223d 5fc3 22be cdf8 b63c b4f5 14be
00000070: cde4 febd d642 243d 5e16 923c 1583 9cbc
00000080: ae51 04be 745f b23d b1d6 2dbe d361 0cbd
00000090: a350 3e3d a8d4 103d 2bc4 683e 2012 d83d
000000a0: 5aa4 90bd 6166 423e 2d76 023e 981a d43c
000000b0: fa82 67bd 62a9 e23d 303d 013d 597b e83d
000000c0: b7bb 17be 203b b8bc cbe3 9d3d 8ce7 af3d
000000d0: 8d06 a7bd e96b 84bd 1ab2 be3b 7457 5c3d
000000e0: 4574 853b c8e5 3f3c 02c3 25bd 765b 32bd
000000f0: e87e 9dbd a856 8b3b 2ae3 62bd e935 9ebd
00000100: 18d5 c1bd 9199 723d 3b44 65bd 0000 a43d
00000110: 6fc8 613a c871 523d 8b63 ab3b cd3e 84bc
00000120: 5481 e73a b170 09bc b606 563d 62ba 94bc
00000130: 3b61 423d 74c1 5f3e f087 4e3e 60a7 c73d
00000140: 7a03 81bd b811 a63d c4a9 dabb 1dba 013c
00000150: 39d9 5f3c d672 a03c 7700 97bd beeb 313c
00000160: f09f 003b fda9 493d fdcc b03d 2e98 3cbd
00000170: 1472 20bd 437e 50bd d89a f0bc feb7 67bd
00000180: 6cf0 043d 6724 753c 9016 383b c0b7 81bd
00000190: 1e0d 963d 070b ba3d 3391 91bc 4fa5 813c
000001a0: 28e2 263d ec54 39bc abe2 53bc 4aab 15bd
000001b0: 3080 083e 2747 e43c e0d3 883e 6771 f83e
000001c0: 614b 933c f357 b7bd 8510 943d 41b3 243d
000001d0: 2cc1 94bd 6f21 2e3e 2bb4 cebd 38b5 66bd
000001e0: 5407 bf3d d98f c63c 699b f4bd 35d7 873d
000001f0: 6e5f 55bd 7e20 8d3e df21 b9bd b04d 32be
00000200: 1611 10bd d927 5e3d 4d54 563d 655f 9a3d
00000210: d28f 343e 6256 a7bd 7f05 723d a012 83bd
00000220: 4791 b03c ee74 a5bd a2ef eb3e d4a3 693e
00000230: d069 c33d cbb8 6b3e a545 5d3d ff65 c1bc
00000240: 58f1 5f3d 0fd6 073c d91c 3d3d 5ca9 af3d
00000250: 50df 053c 057e 0a3e 89cc 08be befc bcbd
00000260: f9b5 8a3d eb3b bfbb 7134 903d b3a9 3d3e
00000270: 6368 023d 5a11 b03c 1869 d43c eca0 9e3d
00000280: 7c4b 443d a8be a7bc 5e9a 733d dfd6 963d
00000290: 36fe c7bd 38bd 5f3d 4e1d b03b d764 483d
000002a0: 25a4 8d3d bc83 5abd c4ec babd 17b4 84bb
000002b0: 96b0 843c 61b2 8f3c 369d acbd f634 383c
000002c0: 0a21 38bd c32c a5bc 67ca b73d 97fe 53bd
000002d0: c26f d3bd 1b71 b6bc 2fe4 c43d 21e8 773d
000002e0: fddb 87be 1d8a 5cbe 0890 5a3d d8e5 003d
000002f0: 8977 23bd 160b 5cbd cd66 bbbd d919 52bc
00000300: ad5e 47bd 8b27 283d 6217 bfbc ea50 cdbc
00000310: 06c9 a33d 6f08 b53d c6e1 b43d 20d9 a23d
00000320: 1b07 4c3d 30c8 05bc 5653 873d 02ed c93c
00000330: 1656 943c 0fbb ef3d 57cd 81bd aaf3 0cbd
00000340: 741b 96bd 30c1 a6bc 006f f1bd f5f6 ee3c
00000350: 3599 d33d fa84 0f3d 869b 713d 7f22 3dbd
00000360: f562 8cbd 5653 49be 1458 7a3d 3bda aebb
00000370: 12e4 543d 9749 57bb 8f4a 073d 6f19 b9bd
00000380: 3a20 203d 52da 5cbd 258f 03bd c2ce cf39
00000390: 295c f7bd c84f d9bc bc57 7abd 0c63 b03c
000003a0: b92d c5bd 25be ac3d 5227 17be d41e df3d
000003b0: b24c 7cbd 1121 59bd 64df 9fbc ad95 553d
000003c0: 692e b83d 43a0 41be f79d 9c3d 1cd9 b03d
000003d0: 7e8e 9fbd 56bc 9f3d 8faa 18be 2515 65bd
000003e0: 4f4c 54bd 7341 91bc c4bf 56bd 5d80 27bc
000003f0: d2e0 723e 53d9 21be cf77 40bd 7754 173e
0.054998383 0.039395597 -0.085368015 -0.05840677 0.2047756 -0.08541651 0.1049568 0.108029276
0.045124315 0.03864367 0.33480257 0.05349908 -0.06332945 -0.052653126 0.096006386 0.04185074
-0.110291265 -0.058088508 0.002239945 0.065584175 0.15099138 -0.10956478 -0.03322262 0.03388012
0.039581854 -0.1589484 0.022335434 -0.14546853 -0.12445984 0.040102802 0.017832931 -0.019105474
-0.12921783 0.087096125 -0.1697643 -0.03427298 0.04646362 0.035359055 0.22731082 0.10550332
-0.070625976 0.18984367 0.12740393 0.025891587 -0.056521393 0.110674635 0.031552494 0.11351652
-0.14817701 -0.02248913 0.07709464 0.08589086 -0.08155546 -0.06465895 0.005819571 0.05379434
0.0040726983 0.011712499 -0.040469177 -0.043544255 -0.07690221 0.0042522736 -0.05539242 -0.07725126
-0.094644725 0.059228484 -0.055973273 0.080078125 0.0008612936 0.05137804 0.0052303723 -0.016143227
0.0017662444 -0.008388684 0.052252494 -0.01815528 0.047456007 0.2185114 0.20169044 0.09748721
-0.06299491 0.08108848 -0.0066730697 0.007917908 0.01366263 0.019586008 -0.073731355 0.010859428
0.001962658 0.04923438 0.086328484 -0.046043567 -0.039171293 -0.050901663 -0.02937071 -0.056571953
0.032455847 0.014962292 0.002808962 -0.06333876 0.07326721 0.090841345 -0.017769432 0.015825896
0.040743023 -0.011311751 -0.01293246 -0.036540307 0.1333015 0.02786596 0.26724148 0.4852402
0.01798028 -0.08952322 0.07229713 0.040210012 -0.07263407 0.17004941 -0.10092958 -0.056325167
0.093275696 0.024238514 -0.11943705 0.06632844 -0.052092962 0.27563852 -0.090396635 -0.17412448
-0.035172544 0.05423722 0.05232649 0.07537726 0.17632988 -0.08170773 0.059087273 -0.06400037
0.021553649 -0.08078943 0.46081263 0.22816402 0.095416665 0.23019712 0.054021496 -0.023608206
0.054673523 0.008290782 0.04617009 0.085772246 0.008170918 0.13524635 -0.13359274 -0.09227894
0.0677299 -0.005836 0.070412524 0.18521766 0.031837832 0.021492649 0.025929019 0.07745537
0.04792355 -0.020476654 0.059473388 0.07365202 -0.09765284 0.054623812 0.005374587 0.048924293
0.06916074 -0.053348288 -0.09127191 -0.0040497887 0.016197484 0.017541112 -0.08428423 0.011243096
-0.044953384 -0.020162946 0.08974152 -0.051756468 -0.103240505 -0.02227073 0.09613835 0.06052411
-0.26535025 -0.21537061 0.053360015 0.031469196 -0.03990892 -0.05372151 -0.09150467 -0.012823545
-0.048674274 0.041053336 -0.02332658 -0.025062997 0.079973266 0.08839499 0.08832125 0.079515696
0.049811464 -0.008165404 0.06607692 0.024649147 0.018107455 0.117056005 -0.063379936 -0.034412064
-0.07329455 -0.02035579 -0.1178875 0.029170493 0.10331956 0.035038926 0.05898621 -0.046175476
-0.06854812 -0.19660696 0.061119154 -0.0053360737 0.051975317 -0.003285026 0.03303009 -0.09038054
0.039093234 -0.053919144 -0.032118935 0.00039636163 -0.12078125 -0.0265273 -0.061118826 0.021531604
-0.096278615 0.08434705 -0.14761093 0.10894552 -0.06159658 -0.05301005 -0.0195157 0.052144695
0.08993227 -0.18908791 0.07647317 0.0863516 -0.0779085 0.07799594 -0.14908813 -0.055928368
-0.051830586 -0.017731404 -0.052428976 -0.010223475 0.23718575 -0.15805559 -0.04698926 0.14778315

bias f4 [256]
00000000: fa49 8f3d 4cc7 82bd 662d e0bc 812c 97bd
00000010: 087f ccbc af47 d63b 51e2 1b3c 9813 0ebd
00000020: 480a 82bd a8ff 1abc 0d6b b33d d62e 93bd
00000030: 7b22 4dbc f35a 7ebd aa63 b6bd 6aa1 b9bd
00000040: 1edc de3a b50f 7ebc be5a f83c cc47 c7bc
00000050: 8ff4 93bc 1260 19ba ec01 57bd 5eff e33c
00000060: 1f4d c13d 4cdd a43d 5d28 cebc d136 cfba
00000070: fa27 65bd df3f a13d b904 b2ba a581 3fbb
00000080: a3a7 c33a df79 c93c c877 5bbd 4781 f1bc
00000090: ba17 03bd 6dc9 db3c 1c33 9e3d 9997 cb3d
000000a0: 13ba 08bd aeb3 463d 649d 03bd 11fb 89bc
000000b0: a984 08bd 3d22 8e3d 1d7e 193d c40d 863d
000000c0: 97a1 363d 15e3 cebc 0aad 6fbd 64f7 52bc
000000d0: c7f6 6b3d d362 a93d c38a d73c cc03 9b3b
000000e0: 6fa1 a5bd bf8c 73bd 16d4 e3bc fa41 be3d
000000f0: 9def e23c 2925 60bc 84e2 a2bd 7573 6dbd
00000100: 21f4 e73d 0356 993d 994f 043c 2ed3 7b3d
00000110: 57df 553d ca2c 8abd cdd4 aa3c 3c83 18bd
00000120: de60 313d 47cf 303c c9c8 a2bc 3452 9cbd
00000130: e621 8e3d 9b27 7ebd 4640 2ebd 9731 bb3c
00000140: 466c c23d f99c 82bc c2d0 c33c 0ef3 b9bc
00000150: b5ca a73d 7a5e f73c 3674 303c abd1 203d
00000160: cf25 d03d 0e0f 7bbd 9c58 a9bd f2e4 243c
00000170: 494a 873b e59c 2b3d fb7e 5b3c 40b7 0ebd
00000180: 59bf 993a 3e1d 5b3d 3b5c e8bc 2595 34bd
00000190: 991e 96bd 9cb0 173d b601 853d 717b 38bd
000001a0: 3656 943c e5cd ca3c f759 8fbd ab9f 9dbd
000001b0: 1c7a 6abd 0071 f73c ec5a 9e3d 132e 733d
000001c0: 7e3d c6bd e24f 233c 9392 ab3b 08fc 0d3d
000001d0: e5f7 48bd 24f7 21bc 7462 a43c 2158 173d
000001e0: cb3d e63c 7742 9f3d a97d 193d 660c 1d3d
000001f0: 6c1d edbc a49d 24bd 824f 6ebd 4662 b33c
00000200: 92e6 723d bc90 75bd 43ab 123d e3f9 813d
00000210: a697 493d 47ca 133d 1edd 52bd b169 03bd
00000220: b527 7b3c 0ab5 d7bc b6e3 bf3d 0cb1 71bd
00000230: 76d7 0d3d 5ce2 29bc e935 c33d d15b c1bc
00000240: fac9 86bd 236a 783d 5956 6cbc ff3c 82bd
00000250: 0f68 34bc 8aa5 8abd 4df0 8bbd 6835 96bd
00000260: 62a9 88bd 4525 83bd a657 963d fc40 c03d
00000270: aae7 72bd c34a 85ba ed1d b33d 3be2 bf3c
00000280: 3644 4d3d d945 133b e016 193c 0f52 1cbd
00000290: 9883 d73c 279c b1bd 498d e8bc 6238 5bbd
000002a0: 7d2c 683d 0303 4cbd 1d2d 08bb a265 cfbc
000002b0: 71eb 423c c3e2 a43d a1b9 82bc 0f90 1a3d
000002c0: d6a1 563c 00ec a73d 9d25 96bd 4d21 94bd
000002d0: 0587 abbc 5c3c 843d 94eb 663d 0bee d0bd
000002e0: b69a 9cbc d11e f5bc 35a0 bc3d f409 a4bd
000002f0: b1bc 973d f3c6 133d e40f 9abd 4bfc 253d
00000300: 9be6 adbd 295f 9cbc f850 473b 97da 5dbd
00000310: 6847 903c 0a93 9cbd b444 d3bc a281 aebd
00000320: 2542 913d 2641 223d ff5c b33a fae8 813d
00000330: b967 e13c 478e bc3d 2306 e23c e98b c13d
00000340: 10f3 afbd 21e7 2dbd d355 b93c 1dbb 283d
00000350: 5d9a 693c f87a 0ebd aa58 393c 40f5 e73c
00000360: 230c 8dbd af96 6f3d dc18 aa3c 3a28 de3c
00000370: 65ee 603d 1c08 853d bdd4 bf3d d0f2 9c3c
00000380: 5baa 333d d02f e7ba 25e8 213d c0c5 8ebd
00000390: dbfc aa3d 131a 03bb fe36 63bd 0536 bc3d
000003a0: c3fa 913d 5607 d8bc 254d afbd cdac 8ebd
000003b0: 9f97 d43c ffd2 bb3b b73e 69bb a9ec 463d
000003c0: b259 adbd 5b93 b1bd fbef 2c3d c7ad b3bd
000003d0: f3a3 4a3d 7a87 8abd 59c4 8fbd 4fa2 5dbb
000003e0: 9f91 8cbc 08f3 773c 43ea 2cbd 19ff 823d
000003f0: 7acd 393d 4caf 84bd b34f 16bd 3fef 283c
0.06996532 -0.06385669 -0.027365398 -0.07381535 -0.024962917 0.006539307 0.009514407 -0.034686655
-0.06349617 -0.009460367 0.08760653 -0.071866676 -0.012520428 -0.062098455 -0.08905728 -0.090639904
0.0017002856 -0.015506675 0.030316707 -0.024326228 -0.01806095 -0.00058508024 -0.052492067 0.02783173
0.09438538 0.080500215 -0.025165731 -0.0015809183 -0.055946328 0.078735106 -0.001358173 -0.0029221561
0.0014927279 0.024594245 -0.05358103 -0.02948059 -0.03200505 0.026829446 0.07724592 0.09941024
-0.03338058 0.0485112 -0.03213252 -0.01684335 -0.03332964 0.06940124 0.037473787 0.06545594
0.044587698 -0.025254766 -0.058514632 -0.012876365 0.057608392 0.08270802 0.026311284 0.004730677
-0.08087432 -0.059460398 -0.027811091 0.09289928 0.027702147 -0.013680735 -0.07953361 -0.057971437
0.11325861 0.074871086 0.008075618 0.061480694 0.052214947 -0.06746824 0.020853424 -0.03723453
0.04330527 0.010791606 -0.019871132 -0.076328665 0.06940059 -0.06204949 -0.042541765 0.022850795
0.09493308 -0.015943991 0.023903254 -0.022698905 0.0819296 0.030196417 0.010769894 0.039262455
0.101634614 -0.061293654 -0.08268854 0.01006435 0.0041287285 0.041897673 0.013396974 -0.03484273
0.001173 0.053494684 -0.028364291 -0.044087548 -0.07330055 0.037033662 0.06494467 -0.045039598
0.018107515 0.024756381 -0.06999581 -0.0769647 -0.05724536 0.03020525 0.07732186 0.05937011
-0.096796975 0.009967776 0.005235979 0.034664184 -0.049064536 -0.009885583 0.020066477 0.03694928
0.028105637 0.07776349 0.037473354 0.038341902 -0.028944694 -0.0401894 -0.058181293 0.021897446
0.05930192 -0.059952483 0.03580786 0.0634649 0.04921689 0.03608158 -0.051480405 -0.032083217
0.015329291 -0.026331443 0.09369604 -0.059006736 0.034629308 -0.01036891 0.09531767 -0.023603352
-0.06581493 0.060648095 -0.014424884 -0.0635929 -0.011011138 -0.06769855 -0.06832943 -0.07334405
-0.06672932 -0.06403593 0.07340936 0.09387395 -0.059302963 -0.0010169375 0.08745942 0.023423305
0.05011388 0.0022472052 0.009343833 -0.038164195 0.026307866 -0.08672362 -0.028387683 -0.053520568
0.056683052 -0.04980756 -0.0020778843 -0.025317017 0.011896954 0.08051064 -0.015957655 0.03773504
0.013100108 0.0819931 -0.07331393 -0.07232914 -0.020938406 0.06456825 0.05637701 -0.10201653
-0.01911674 -0.029921921 0.092102446 -0.08009711 0.07409037 0.036078405 -0.07522562 0.04052381
-0.0849125 -0.019088345 0.0030413251 -0.05416354 0.017612174 -0.07645233 -0.025789596 -0.08520819
0.07092694 0.03961291 0.0013684331 0.06343265 0.02751528 0.09206825 0.027590817 0.09450514
-0.08591282 -0.04245675 0.022623932 0.04119407 0.0142579945 -0.03478524 0.011312643 0.028315187
-0.068870805 0.058493312 0.020763807 0.02711879 0.05491485 0.06495687 0.093667485 0.01915875
0.043863636 -0.0017638151 0.03952803 -0.069713116 0.083490096 -0.0020004555 -0.055472367 0.09189991
0.07127907 -0.026370686 -0.08559636 -0.06966553 0.025951205 0.00573194 -0.003559036 0.04856554
-0.08464374 -0.08670684 0.04222105 -0.0877338 0.04947276 -0.06764121 -0.07019872 -0.0033818667
-0.017159281 0.015133627 -0.042215597 0.06396312 0.045361973 -0.06478748 -0.0366971 0.010310947

weight f4 [256, 256]
00000000: 2542 543d 1f80 52bd ce62 0e39 3174 243d
00000010: c4b4 8ebc 5f6f 17bd 2d48 b7bd 4351 56bc
00000020: 347d 85bd fc23 bd3c 48dd 0c3b 22a2 18bb
00000030: 40e5 043d f0d7 6ebc 6310 a3bb 3407 1fbd
00000040: 04e3 75bd cbd2 acbc e32f da3d 2a53 ec3c
00000050: ecca 11bd 63ea 16bd fbaa 923c 3def 3a3d
00000060: 391d aabc cfb3 da3c 61e7 323c 87e0 863b
00000070: b486 b13d f442 35bd c829 62bc 7525 033d
00000080: 399b 613d 6d28 febc c0d8 bf3d a8ff 113d
00000090: a82b 20bc 619c 1c3d b9b8 d03c a503 cc3c
000000a0: 3c55 60bd 8c87 c63c 2088 21bd 6297 4fbd
000000b0: 46b9 8d3d 43f9 76bd e3b1 28bd 4bd6 483b
000000c0: bbc2 2bbc b318 3b3c 0dc3 713d da77 cc3a
000000d0: a236 51bd 1069 aabd bae8 4cbd 03a5 a53d
000000e0: 884a d43c 6c6c 41bd 865f 203d 3bc8 a33c
000000f0: bf5c 41bc 3355 033d bfea ba3c f840 bc3c
00000100: b3cc 903c 5fe2 4dbc 6909 c23c 61bb b73c
00000110: 3db3 53bd 53f3 8c3b a4a4 a6bd ef52 103d
00000120: 19a4 2cbd 5c14 3bbd 6c46 6e3d 2cf9 243d
00000130: 99b7 bebd a133 aebd 249d 20bd eb2c 12bd
00000140: d72c a9bb 7882 8f3d c64f 1abd b3a4 bc3c
00000150: 505d ae3b 9427 9c3c 7db3 5fbb 248a 7bbd
00000160: 9a5c 833c 43ff 59bb d6cb 713d 689d 9a3c
00000170: 7988 17bc 8316 79bd 330d 30bd 4865 c03d
00000180: 240a 2d3d 2ff6 de3c eb79 babd cc51 643d
00000190: d391 503d 1dd0 1abc 3ae1 253d 3e6b 64bc
000001a0: 0ce9 8cbd da00 6f3a cf03 8f3c d8c9 54bd
000001b0: 643d b2bc 182d 49bd f055 ba3b ffcc 82bc
000001c0: 9d45 09bd 260b 86bc 36f1 113d f493 99bd
000001d0: 5a16 d8bc e08a 9f3c 9f31 14bd 66f0 08bd
000001e0: 3087 593c ed71 d6bc 49c8 393d aed3 b7bc
000001f0: 3355 993d 1a40 28bd e41d 42bc 7e75 333d
00000200: 8e57 27bd 429d 033d 6fc0 d73d 9fc9 76bd
00000210: e87b 4a3d 7c8d 93bc a831 65bd 7b00 003d
00000220: f4a2 4a3d bee3 1b3d 4934 0d3e 5ab9 8ebb
00000230: aacf 9f3b d2e0 01be 3709 c939 ae75 bfbc
00000240: f672 08be 6bc9 633d 38bf 823b ea7b 6fbd
00000250: 2b5e 813d c00a 99bd 5cd0 9c3d 4708 f2bb
00000260: e918 f2bb 2a49 bdbc d071 503d 63fd 59bd
00000270: 032b 7fbc 0876 3a3d b040 2c3d 6dc8 b23d
00000280: 060c 22bc 2a16 89bd 054d d53c e7bc adbd
00000290: ab85 a23c 1966 9fbc 8865 d23d e679 7ebd
000002a0: 3ba8 4d3d c6f8 b8bd 3af8 10bd b224 1cbc
000002b0: 0f6e 16bd 85f7 b43c fe87 cdbc f788 103c
000002c0: a30d 913c 222c af39 878d 413d 9bf4 303d
000002d0: b3a5 03bd a2c4 35bd c7f8 1e3d e3ce 89bc
000002e0: 2d93 99bd 84cc f7bc 12db 553c 290b 8e3c
000002f0: e364 86bd 0235 153e 83c0 5d3d 2dba f33b
00000300: b076 5ebd ef58 d83c 492b 11be f8ff 873d
00000310: 6cab 463d 4ce5 dbbc 64db 903d 49e3 44bd
00000320: 1c64 4c3d 288a b5bd 9b55 86bd 776e 33bb
00000330: 6878 14bd b4c6 4f3c 5e50 98bd ecc7 4fbd
00000340: c683 b5b9 0034 363d d189 1a3d f9db 9bbb
00000350: f969 303c 59d8 783d c34b 1b3d 296c 1e3d
00000360: 6b5b 333d db4c 7a3d 15bf 98bc d0e4 073d
00000370: c023 463d e4e6 0fbc 10ea 83bd 6071 093d
00000380: 462e 6c3d 7cbf febc 192f 8bbb 4809 32bd
00000390: 503f 2d3d ee1d e63c 6cd2 88bd 7d62 943d
000003a0: 9fef 43bd 7ebc a03d 5bb2 8b3d 95ad 423d
000003b0: 758f 92bd d310 8bbc b365 d53c 01ba ddbb
000003c0: cd82 89bd a2af 38bd af2e 2a3d 1205 273d
000003d0: ca1e a4bd 5919 58bc a2cf 6cbd 9a00 893d
000003e0: c60e 38bd 3e72 38bd e2a1 263d 6795 0cbc
000003f0: d66b 673c 6084 5abd 5548 543d f3b5 353d
0.051820893 -0.051391717 0.00013578983 0.04014987 -0.01742018 -0.036971446 -0.08949313 -0.013080898
-0.06518021 0.023088448 0.0021494199 -0.0023289998 0.032445192 -0.014577851 -0.0049763187 -0.03882523
-0.060030952 -0.021096608 0.10653665 0.02884825 -0.035593912 -0.036844622 0.017903795 0.04563831
-0.020765888 0.026697068 0.010919423 0.004116121 0.08668271 -0.044253305 -0.013803907 0.032018144
0.055079672 -0.031025136 0.09367514 0.035644203 -0.009776033 0.038235072 0.025478708 0.024904082
-0.054768786 0.024234556 -0.03943646 -0.05068148 0.06920104 -0.06029631 -0.04118527 0.0030645307
-0.010483439 0.011419463 0.059023906 0.0015599683 -0.051077493 -0.0832082 -0.050026633 0.08088114
0.025914446 -0.04722254 0.0391536 0.019992938 -0.011801898 0.032063674 0.022817014 0.022980198
0.017675733 -0.012566178 0.023686128 0.022428216 -0.051684607 0.0043014674 -0.081368715 0.03523534
-0.042148683 -0.045673713 0.05817263 0.04027669 -0.09312362 -0.08505941 -0.03921236 -0.03568737
-0.005162816 0.07007307 -0.037673734 0.023027753 0.0053211823 0.019061841 -0.0034134083 -0.061411038
0.016035367 -0.003326372 0.059032284 0.018873885 -0.009248846 -0.060812484 -0.042981338 0.09394318
0.042246 0.027216999 -0.09105285 0.05574207 0.05092032 -0.009449032 0.040497996 -0.013941584
-0.06880388 0.00091172534 0.01745787 -0.051950306 -0.021757789 -0.04911527 0.005686514 -0.01596689
-0.033513654 -0.016362738 0.035630427 -0.07498923 -0.026377846 0.0194754 -0.036180135 -0.033432387
0.01327686 -0.02617737 0.045357022 -0.022439804 0.074869536 -0.041076757 -0.011847947 0.04381322
-0.040854983 0.032132395 0.10534751 -0.060250875 0.049434572 -0.018011801 -0.05595556 0.03125046
0.04947181 0.03805899 0.13789476 -0.0043555917 0.0048770504 -0.12683418 0.00038344573 -0.023371544
-0.13325104 0.05561201 0.00399008 -0.058467783 0.06316789 -0.074727535 0.07656929 -0.0073862406
-0.0073882234 -0.023106176 0.05088979 -0.053220164 -0.01557422 0.04552272 0.04205388 0.087296344
-0.009890562 -0.066936806 0.026037702 -0.08483296 0.019839128 -0.019457864 0.10273272 -0.06212797
0.050209265 -0.09031825 -0.035392977 -0.009530233 -0.036726054 0.022090683 -0.02508926 0.008821717
0.017706698 0.00033411483 0.04725411 0.043202024 -0.032140445 -0.044376977 0.03881147 -0.016822284
-0.07498775 -0.030248888 0.013052719 0.017339306 -0.06562211 0.14571002 0.05413867 0.0074379654
-0.054312408 0.026409594 -0.14176668 0.06640619 0.048503324 -0.026842736 0.070730954 -0.04806832
0.04990016 -0.08864242 -0.06559297 -0.0027379075 -0.03624764 0.012681652 -0.07437204 -0.05072777
-0.0003462119 0.044483185 0.03772909 -0.0047564474 0.010767453 0.0607532 0.03791405 0.03867737
0.043788355 0.06110845 -0.018645803 0.033177197 0.048373938 -0.008783076 -0.06441128 0.03355539
0.057661317 -0.031097166 -0.004247558 -0.043465883 0.042296708 0.028090443 -0.0668076 0.07245348
-0.047835942 0.07848452 0.06821128 0.047528822 -0.071562685 -0.016975796 0.02604947 -0.006766558
-0.067144014 -0.04508937 0.041548427 0.04077632 -0.08013685 -0.013189637 -0.0578152 0.06689568
-0.044935964 -0.045030825 0.040681727 -0.008580542 0.014124831 -0.0533489 0.051826794 0.044362973

bias f4 [256]
00000000: b089 153c 4a4f d03c 74af 83bc 691c 21bb
00000010: abe3 80bc 7906 603d b0ad 5bbb b65f 7fbc
00000020: d71c 2d3d 932b 0c3d 7e08 50bd 6c88 22bc
00000030: 19bc 833c c81f 5bbc 114d 833d d19f 553c
00000040: c4f3 66bd 6042 6dbd 84af 4bb9 2610 8abb
00000050: aa63 4e3d 5ea5 8cbc 73d8 f93b aac9 183d
00000060: fcf8 223d 1934 bebc dd3c 863c 5241 693c
00000070: 00c8 8d3c 400d 073d ff08 52bb 464d 5e3c
00000080: fc0e 433c 251d 38bd 0487 9bbc ebf0 7b3d
00000090: 302b 123b 567e 7fbd dede 2fbd 9ef4 da3c
000000a0: e9d8 ebbb 2d94 423d 8b15 4d3d fe0c 3dbd
000000b0: e08c be3c 37e1 c4bc 2adf b23b 4a4b 2bbd
000000c0: ec70 1dbd c075 82bd b43e 7f3d 703c 64bc
000000d0: 02f3 52bc 5b34 39bd 7cf9 083d d3da 8abc
000000e0: 1a2f 2e3d c035 f43c b858 f8bc 925d 78bb
000000f0: f3bd 043d 3155 2e3d a94c bab9 7e6b 3b3d
00000100: 6b20 5b3c 5cbc 423d 59b4 d3ba 4aab 65bc
00000110: 98c4 6bbc 52e9 423d 7823 efbc e45a 82bd
00000120: 1803 cbbb 08fc 9dbc 6071 8b3c 771b 20bd
00000130: 0b7a a8ba 673e 813d 9ad7 c0bc 5c52 fe3b
00000140: 8a4f 54bd 5ef1 e03a 0d51 643d 279c 2cbd
00000150: 2eee 813c 265d 01bb 5b86 d6bb 5707 633b
00000160: 396a 17bd d2cb 96bc 8aa0 2dbc 6458 c4ba
00000170: daaf 433a 57e2 a7bc c82a c43c 6488 21bd
00000180: e594 2cbd acd2 da3c 7d7b 7cbd 7938 da3c
00000190: 9d01 d23c 3720 5a3c 1c2d 1cbd 319c 223d
000001a0: 83dd 303d 8f48 91bc e8bd 9e3c 5147 323c
000001b0: f91a 023d c7e0 87bb 3353 3a3d 9700 173d
000001c0: de8f db3b dd71 6e3d 55dd 6cbd f01c 673d
000001d0: 0be3 e03c 7733 883d b085 c63c 4d63 af3c
000001e0: 76f6 053d eae7 ae3c 970c 863c 0de1 dcbc
000001f0: 1e6d ad3b 0b41 363d 127f f7ba d990 9bbc
00000200: b618 953d 737a 283d 1434 33bd f940 6a3d
00000210: 43c0 983c fed9 0f3c 4a0f 543d adf7 66bd
00000220: 9af3 773c 6a65 af3c 2b54 983c fcf5 8dbc
00000230: 13ec 96ba 6c7c 2e3d f5d8 08bd 3c7f f1bc
00000240: ab06 dbbc 2889 c93c 08ef 03bd 3491 92bd
00000250: bec4 e439 92d9 953a 89bc 443d fc43 743d
00000260: f341 c2bc c76d 963d fa8e 723d 7777 12bd
00000270: 1636 50bc 9646 90bd a73e 0bbc 9ff4 29bc
00000280: f1e3 eb3c cae4 28bd d91f 223c 15a5 a93c
00000290: 3e28 833d 3e3c 973d beb4 3ebb 80db 8e3d
000002a0: 74e0 fbbb 08d4 233b 0e42 f8b9 609b ce3c
000002b0: 6845 573a 5adc 003d b1d0 963d 6548 643b
000002c0: b343 223c 66cd 0bbd 687a 053d c897 573d
000002d0: 07ec ac3a 6e84 e5bc b073 833d 0ac3 4d3d
000002e0: 928b 3ebd f80b 993b 43fa 093d de40 4c3c
000002f0: fe34 81bc c40a 303d 362a 4ebd 0684 29bd
00000300: 021e 15bd d607 20bd 257e 8c3c 2fdc 58bb
00000310: eaac e93c f1e5 c6bc 16b6 913c d72c b93c
00000320: a4ba 523c 4e05 8f3c 021c dfbc 5439 d7bb
00000330: 5b54 3a3c 8192 b63c 8c16 40bc 7c84 683d
00000340: 3988 733d 23d9 53bd 2eb6 943c 2918 2e3d
00000350: 68ca 713b 163d ae3c 7dad ba3b a7d3 2b3c
00000360: ff39 bbbb 10df 0dbd 033a f2bc 686a 52bc
00000370: 0014 e73c 33bd 043d bd92 e83c c72c 043d
00000380: f089 4d3d 9c45 57bc 3f50 7f3d a2f1 2a3c
00000390: 1dda 153d 93e7 0c3d 8eb9 953d 0bf4 3e3b
000003a0: e30f 8a3d 455e 77bc 592f 9c3c 8af3 18bb
000003b0: c92e 03bc 7073 5a3d 4cd3 30bd a4e7 493b
000003c0: 96c3 923b 3bb3 173d ba3c 47bc 998b da3c
000003d0: 5967 2dbd e059 013d 37f5 423d f380 0abd
000003e0: b912 263d 1c4b 88bd 2cdb 7d3d d7d2 febc
000003f0: 6555 97bc 5052 ba3c 6cd6 7ebd 616d 8939
0.009127066 0.025428433 -0.016074874 -0.0024583584 -0.01573356 0.054693673 -0.0033520274 -0.015586784
0.042263832 0.034221243 -0.05078935 -0.009920221 0.016080903 -0.013374276 0.064111836 0.0130385915
-0.056384817 -0.05792463 -0.00019424973 -0.004213351 0.050388016 -0.017168697 0.0076246797 0.037301697
0.03978823 -0.023218201 0.016386444 0.014236765 0.017307281 0.03297162 -0.003204882 0.013568228
0.011905428 -0.04494967 -0.018985279 0.061509054 0.0022303574 -0.062376343 -0.042937152 0.02672797
-0.0071974886 0.047504593 0.050069373 -0.04615497 0.023260534 -0.024033172 0.005458732 -0.041819848
-0.03843777 -0.06370115 0.062315658 -0.013930425 -0.01287532 -0.045215946 0.03344105 -0.016950047
0.04252539 0.029810786 -0.030315742 -0.003789757 0.032407712 0.042561714 -0.000355338 0.04575681
0.013374428 0.047542915 -0.001615177 -0.014017889 -0.014390133 0.047585793 -0.029191718 -0.06364992
-0.006195437 -0.019285217 0.017021835 -0.039088693 -0.0012853754 0.063107304 -0.023540307 0.007761283
-0.051833667 0.0017161777 0.05574136 -0.042141106 0.015860643 -0.0019739359 -0.006546778 0.0034641826
-0.036966536 -0.018407736 -0.0105973575 -0.0014979956 0.00074648636 -0.02049367 0.023946181 -0.039436713
-0.042134184 0.026711784 -0.061641205 0.026638256 0.025635535 0.013313345 -0.038128957 0.039699737
0.04318 -0.017734794 0.019377664 0.010881261 0.031764004 -0.0041466686 0.0454895 0.036865797
0.0067005 0.058214057 -0.057828266 0.05642408 0.027452013 0.06650441 0.024233669 0.021409655
0.032705747 0.02135082 0.016363425 -0.026962781 0.005292549 0.044495624 -0.0018882474 -0.018989967
0.07280104 0.0411324 -0.043750837 0.05719087 0.018646365 0.008780001 0.051772393 -0.056388546
0.015133763 0.021410663 0.018594822 -0.017329209 -0.0011514447 0.042599127 -0.03341003 -0.029479615
-0.026736578 0.024601534 -0.03221038 -0.071566015 0.00043634133 0.0011432639 0.048031364 0.059635147
-0.023713088 0.07345157 0.059218384 -0.03575846 -0.012708208 -0.07044713 -0.008498824 -0.010373264
0.028795214 -0.041233815 0.009895288 0.0207086 0.0640416 0.07384537 -0.002909943 0.0697546
-0.007686669 0.0024998207 -0.0004735146 0.025220573 0.00082119415 0.031460144 0.073640235 0.003483319
0.009903836 -0.03413143 0.03258744 0.052634984 0.00131929 -0.028017249 0.0641855 0.050234832
-0.046519823 0.0046706162 0.033685934 0.012466637 -0.015772339 0.042979017 -0.050333224 -0.041385673
-0.03640557 -0.039069973 0.017149994 -0.0033090224 0.028524835 -0.024279566 0.01778702 0.02260439
0.012861881 0.017458584 -0.027235035 -0.0065681133 0.011372651 0.022286655 -0.011724126 0.056766972
0.059456084 -0.05172075 0.018153276 0.04250351 0.0036894325 0.021269362 0.005696951 0.010487474
-0.005713701 -0.034636557 -0.029568678 -0.012842752 0.028207779 0.032406997 0.028390283 0.032269266
0.050180376 -0.013139155 0.062332388 0.010433586 0.036584962 0.034400534 0.073107824 0.002913716
0.067413114 -0.015098159 0.019065546 -0.002333852 -0.00800676 0.053332746 -0.04317026 0.0030808235
0.004478882 0.037036162 -0.012160474 0.026677893 -0.042334888 0.031579852 0.047597136 -0.03381438
0.0405452 -0.06654951 0.061976597 -0.031106396 -0.018473336 0.022744328 -0.062216207 0.0002621217

weight f4 [256, 256]
00000000: e002 8a3d 99e3 313c 9eb2 743c ca05 00bd
00000010: f99f c6bc cec8 0abe 4fb0 ee3d 94e8 abbb
00000020: 5c47 d1ba fe44 3bbd 39f7 633c 730c c93d
00000030: c33d a23c 6cbe a13d dbc1 653c 9141 6bbd
00000040: b959 e6bd bf41 4c3c cf04 8dbd 528c 323d
00000050: 354f 3bba f433 153c 3edb e33c 78e2 83ba
00000060: 3995 85bc 341d 4ebd 392e d63b c058 debd
00000070: d2b7 133c 39d9 56bc 6d4d 68bd b650 5cbd
00000080: 28db 5c3c bc7d 0abd 72e7 893c a8cd 22bd
00000090: c116 9bbd 8650 a5bd 0e44 d6bc e4da 89bd
000000a0: 3aff c5bb b271 06bd 1c97 8bbc 147d 943d
000000b0: f59f 3c3c d489 febc 78d7 fabb 5bc5 7c3d
000000c0: 54ff e03d 912a 3b3d f2bc 923d ad9b 423d
000000d0: ce25 d13b c80f 753d 2b5e 08bd fa5f 663d
000000e0: 7a93 32bd c9e9 65bd 75c5 a8bc 9dc4 3b3d
000000f0: d847 993c e667 3abc a6dd 163d bb88 3cbc
00000100: 8586 a93c d56e 96bd 708f 41bd 422d e5b8
00000110: b0f8 863d 62a1 1abd 6a1e 073d f115 9bbc
00000120: 55f0 eabd 6926 62bc 789e 6ebc 3a58 97bd
00000130: 0d00 ecbd e439 4abd 4826 bb3d 90d0 2a3d
00000140: ff4e 243d 2493 ec3c 9116 d43c 0d3e ec3d
00000150: 10ec 823d 47e2 4c3d 4b35 d0bc 6d74 993d
00000160: 2da4 a1bd 1ce1 0dbd 9e82 abba afe9 733d
00000170: 7678 023d 7b85 303d 0304 483d 654e edbd
00000180: 1e20 1b3d 6631 be3d c817 e2bd bb92 40bd
00000190: 3225 37bd 8f29 32ba 9091 d3bd 6b2e b83d
000001a0: 0ff6 733c dc21 7abd 576c d73c 136b 6d3b
000001b0: 92e4 87bd 89ab 87bd 81a4 833d 97e1 a8bc
000001c0: a1c3 593d ea75 5cbd e5c0 a83d 05ba 3dbd
000001d0: 2723 543d 2857 f23c 16d2 a0bc 23fb 1fba
000001e0: 04ee 833c c7fc 493d 8a80 fa3c b9b4 bf3c
000001f0: d2a0 bb3d b066 2ebd db71 91bd ba4d 9a3c
00000200: d3d0 083b 62c2 a43d 5205 3c3d b4b2 6b3d
00000210: 391c ba3c b4ca 953c c142 ac3d 4145 e73c
00000220: 379d 4e3d fd97 0d3d 21e8 cebc b388 c13d
00000230: f218 a2bd c02e 433d eb1e 593d e105 30bd
00000240: ae32 a9bd 3bae 763d b5e5 91bc 6455 67bd
00000250: e071 85bd 1c38 263d 683e dd3d ac47 77bc
00000260: 178a 843d d7e4 1fbd 6aef 51bd d4a8 f0bd
00000270: 8b7a 943b 9970 403c 9c5c 19bd deab 1ebd
00000280: 5e96 753d 8522 e1bc a302 78bd 57fb 40bc
00000290: 8062 6b3d bb01 16bd 5146 d6bd 9522 adbd
000002a0: 620b 943c 6f1a 56bd 81af 9dbd 3cf9 83bd
000002b0: 7518 4ebc db3a a1bd c94d 55bd ca90 34bd
000002c0: 87d4 c9bb dad4 163d a076 993d ec39 ad3d
000002d0: 96c2 c13a b422 213d 8f6e 303d ad40 c3bb
000002e0: e0a9 ccbd e32c dd3c ee71 a7bd 7dec e6bd
000002f0: 6b06 f13c a8ca ccbc db9e 973c d103 573e
00000300: f9a5 813d 7977 a2bd 2f95 843c b8e1 b63d
00000310: af04 883d 1770 423d f20d 5ebd 9d13 0b3c
00000320: 4b1d e33d d6d6 42bc 7b38 d3ba 1543 b3bc
00000330: 48b8 30bc 0c6d cc3d 5dda 893c 1ccd 21bd
00000340: fbcf f5bc 375d 143d 55e3 35bd 9f1f 2bbc
00000350: d645 13be 0a26 0abc 2bd9 be3d 3626 90bd
00000360: 8c2b e7bc f224 8abd 2795 98bd e7c8 39bd
00000370: 90fe 3b3d ce85 89bc e015 2bbb fef8 5fbd
00000380: 8421 893d bf23 71bd 9bf2 cd3c dc1c c1bd
00000390: 01b3 4d3c 7451 2abe 2cca acbd 1dd8 01bd
000003a0: 1978 20bd 81a7 7a3e ae84 4bbd 099d 9c3d
000003b0: fe5c 80bd 614b 57bd a03d cd3d 81e3 0bbd
000003c0: 9721 8cbd 43a8 023d c096 36be ebbe 08bd
000003d0: 3959 0a3b 26ee a3bc 8eb7 aebd c5d5 233d
000003e0: 452c 493d 804f a03c a0e3 163d 89aa ca3c
000003f0: cf75 6a3d 9da4 7c3b c6c8 193d 1033 dc3c
0.067388296 0.010857486 0.014935164 -0.03125552 -0.024246203 -0.13553163 0.11654722 -0.0052462313
-0.0015966701 -0.045720093 0.013913923 0.098168276 0.01980484 0.07897648 0.0140232695 -0.057435576
-0.11247582 0.012466847 -0.06885683 0.04359085 -0.00071452867 0.009106625 0.027814504 -0.0010062
-0.016306506 -0.05032082 0.006536272 -0.108567715 0.009015994 -0.013113313 -0.056714464 -0.05378791
0.013479985 -0.033811316 0.016833995 -0.03974691 -0.07572699 -0.08071999 -0.026155498 -0.06731203
-0.0060423883 -0.032823272 -0.017039828 0.07250419 0.011512746 -0.031071581 -0.0076550804 0.06171165
0.109862 0.04569489 0.07164945 0.047511745 0.0063826805 0.059829503 -0.03329293 0.056243874
-0.043597676 -0.056131158 -0.020601967 0.045841802 0.018711016 -0.01137731 0.036832474 -0.011507208
0.020694027 -0.07345358 -0.047255933 -0.00010928001 0.06590402 -0.037751563 0.03298799 -0.01893136
-0.11471621 -0.013803103 -0.014564149 -0.07389875 -0.11523447 -0.049371615 0.09138161 0.041702807
0.0401144 0.028878756 0.025889667 0.11535273 0.063926816 0.050020482 -0.025416037 0.074929096
-0.07892642 -0.03463851 -0.0013085192 0.05954903 0.03185316 0.043096047 0.04883195 -0.11587218
0.037872426 0.09286766 -0.11039692 -0.047014933 -0.044713207 -0.0006796354 -0.10330498 0.089932285
0.014890208 -0.061067447 0.026296778 0.0036227151 -0.06635393 -0.066245146 0.06427861 -0.020615382
0.053165082 -0.05382339 0.08239917 -0.04631998 0.051791336 0.029582575 -0.019631427 -0.0006102791
0.016104706 0.049313333 0.03057887 0.023401605 0.091615334 -0.0425784 -0.07101794 0.018835891
0.0020876422 0.08044888 0.04590351 0.05754347 0.022718536 0.018285133 0.0841117 0.028231265
0.0504429 0.034568775 -0.025257172 0.094499014 -0.07914914 0.047652006 0.053008 -0.042974357
-0.082616195 0.060224753 -0.017809728 -0.05647792 -0.065158606 0.040580854 0.10802919 -0.0150927715
0.06471651 -0.039036598 -0.051253714 -0.117509514 0.00453121 0.011745595 -0.037441835 -0.038738124
0.059957854 -0.02748228 -0.06054939 -0.011778674 0.057466984 -0.036622744 -0.104626305 -0.084538616
0.018071834 -0.052271303 -0.0769949 -0.06444022 -0.012579073 -0.07872554 -0.052076135 -0.044083394
-0.0061593684 0.036824085 0.07493329 0.08458313 0.0014782723 0.039339736 0.043074187 -0.0059586377
-0.099933386 0.026998943 -0.08176027 -0.11275575 0.029422006 -0.024998978 0.018508365 0.2099755
0.06330485 -0.07932944 0.016184418 0.08929771 0.06641518 0.04747018 -0.054212518 0.008488563
0.110895716 -0.011892041 -0.0016114855 -0.021882573 -0.010786124 0.099817365 0.016827757 -0.03950225
-0.0300064 0.03622171 -0.044406254 -0.010444551 -0.14382109 -0.008431921 0.09318765 -0.07038538
-0.028219007 -0.06745328 -0.074503236 -0.04535761 0.045897067 -0.016787436 -0.0026105568 -0.054680817
0.06695846 -0.05887198 0.025140097 -0.094293326 0.012554885 -0.16632634 -0.08436999 -0.031700242
-0.039177034 0.2447796 -0.04968708 0.076471396 -0.06267737 -0.05256212 0.1002152 -0.03415251
-0.06842344 0.031898748 -0.17830944 -0.0333852 0.002111031 -0.020011019 -0.08531104 0.03999879
0.049114484 0.019569159 0.036838174 0.02473952 0.057241257 0.0038550266 0.037544988 0.026879817

bias f4 [256]
00000000: 1129 183d 9ded 813d 365e 3f3d 283a f63c
00000010: bed6 05bd 0840 6c3d cdef 7cbd b1df 5bbd
00000020: 5de1 dbbc 9306 d2bc fc3a babc 7dac 05bd
00000030: 6e60 873c c5fd 67bc 58a8 18bb 8e67 e03c
00000040: 3fe3 333d b2af 7c3b cb31 263d a942 4b3d
00000050: 64c9 7fbd 01ca 9dbc 31ef 9b3d 30c5 b0bc
00000060: ffd8 e93c f96e bdbc 2ac1 d539 59e1 77bd
00000070: 4857 39bd af86 ec3a fc1b 29bd 60a3 08bc
00000080: ebc1 80bd d9d3 7a3d c3a7 87bc 1f71 dd3b
00000090: aad2 7eb9 f29a 3c3d 5102 8d3d 6d5e c73c
000000a0: f4ba 7dbd dde4 4d3d b73f 1fbd 1c06 55b9
000000b0: 78df 963c ed88 423d 5def e33c ba57 4c3d
000000c0: 2f50 323d d891 963c f008 713c 2203 86bc
000000d0: 7494 2fbd 22d1 0d3c 5bc7 533d 7fff 733d
000000e0: 4f8e 25bd fc99 9e3d f1b4 8dbc e7f0 ae3b
000000f0: ef91 35bd b038 84bd d9bd 8dbc 5eaf 963d
00000100: bd5c 55bd 11a8 50bd bd37 0bbd b11a 913d
00000110: f80f 843d 268a a93b 1984 8abd e0fd 0f3b
00000120: 83f9 cb3b 5e9d 5cbc 6edf e53b 9f41 463c
00000130: 5600 36bd 43a8 05bd 5e32 303c b589 15bc
00000140: e65c ba3c 2580 3bbd 09e3 8a3d 8440 693d
00000150: e5bb 4b3d 1497 1bbd d4b4 63bc 953c 483d
00000160: b0ca 80bc e278 493d e1c5 0a3d 41a4 423d
00000170: ad8b b73c ba78 3eba a26d ef3c 2d66 7cbd
00000180: 19eb ef3c fd36 783d b29f 673b ae60 98bc
00000190: 8afb 0a3d 105f 5bbd 2d14 fdba 6339 7a3d
000001a0: 2a46 2b3d ea15 fdbb faa4 523d 6cf6 5abd
000001b0: 870f 8a3c 4f33 b3bc 3f76 7bbd 42fe 443d
000001c0: 7b52 323d 381e 963d b89b eb3c b630 06bd
000001d0: 6c37 a1bc 1a5d 51bc fc6e 3abd 5faf d83c
000001e0: 85b4 89bc a371 73bd e818 8d3b 2600 a03d
000001f0: f4b6 543d fb0d 613d 02bd 4b3d 8dc0 323d
00000200: 9fdd e13c 5648 00bc 8aab 823d f447 13bc
00000210: 5f5a 833c b884 373b 672c 0bbd 6484 5b3d
00000220: 2712 21bd 340d 03bd bb01 0abb a550 073c
00000230: 98b5 1fbc 7b67 52bd eb1b 8ebb ff5f 703b
00000240: 4f08 50bd 5b8b 62bb a6ad 27bd 0635 0dbd
00000250: 88bc 773d 7a8f 1f3b 90a9 f33b 39ba 8bbc
00000260: bbe4 56bd 844b f2bc 09c0 953d f15d 62bc
00000270: 4270 babc 6ed1 2cbd 919d 4f3d 86ea 43bd
00000280: 8111 19bc 1f59 f03c d8a9 02bd ba7f d4bc
00000290: ab04 3c3c 6bf2 783d 5e57 5bbd b852 9fbc
000002a0: d63f 87bd cfcc 2dbc dc63 493b d960 c3bc
000002b0: 6a6c 0d3d 9f07 683d 57d6 45bd e196 8bbd
000002c0: eb81 183d c401 adbc 6741 80bd 4ced 203d
000002d0: 275c be3c 3034 003c b755 353d 857a 60bd
000002e0: f2c6 29bd 6579 2f3d ff2a c2bc e29e 553d
000002f0: 5fb0 333d f756 523d 125b 703c 3f99 95bc
00000300: a59a e53a 0c2c 783d c859 1c3c 0952 51bd
00000310: b501 dfbc 5724 f73c 7fd0 08bd 8c9c d33c
00000320: d03d 1cbd f655 203d e296 36bd b30c 36bc
00000330: 22ff 97bd b04f 943d fca0 06bd 5d30 013c
00000340: c965 32bd a3fa 2fbc f045 c7bc bd02 9f3b
00000350: 0581 433c d45f 073c 0614 363d 0183 18bd
00000360: a26c 843c afde dc3b 8a5a 803d abe6 853d
00000370: 6641 64bd 7203 e03b add3 8b3d 6e60 4d3d
00000380: 85cf 60bd 97b8 b8bc 716f d43b 1ec2 42bc
00000390: ffc2 72bc ce9c b03b ae7b 5e3c f7ea c43c
000003a0: 21f5 653c 95ad 6b3c 8847 2bbd 79e4 6a3d
000003b0: 88cd ae3c bcef d43c 9113 8d3c aab3 7fbd
000003c0: 1767 933d 1b90 993c a95d 71bd 5538 84bd
000003d0: 8f1f 8f3d d7fd 783d fcbe 3b3d d1ab fb3c
000003e0: a06e 623c 50b9 143d e27c 5abb 8826 f93b
000003f0: bd9b cbba 6fbe e6ba bccb 153d 2487 083d
0.03714854 0.06344149 0.046720706 0.030057028 -0.032675497 0.057678252 -0.06175213 -0.053680126
-0.02684086 -0.0256379 -0.022733204 -0.0326352 0.016525473 -0.014159624 -0.00232937 0.027393129
0.04391789 0.003855687 0.04057483 0.04962412 -0.06244792 -0.019261362 0.076139815 -0.021578401
0.028545855 -0.023124205 0.00040770444 -0.060517643 -0.045249254 0.001804551 -0.041286454 -0.008339733
-0.06286987 0.06123719 -0.016559487 0.00675787 -0.00024301806 0.046046205 0.068852074 0.024337018
-0.06194587 0.05026709 -0.038879123 -0.00020315539 0.018417105 0.047493864 0.027824098 0.04988835
0.0435335 0.01838009 0.0147116035 -0.016358916 -0.042866185 0.008655818 0.051703792 0.059569832
-0.04041892 0.07744214 -0.017298194 0.0053387764 -0.044328626 -0.06456125 -0.01730244 0.073576674
-0.052090395 -0.05094153 -0.033988703 0.07085169 0.06448358 0.0051739393 -0.06763477 0.002197139
0.0062248125 -0.013465254 0.0070151603 0.012100606 -0.044433914 -0.03263117 0.010754196 -0.00912707
0.022749376 -0.045776505 0.06781585 0.056946293 0.049739737 -0.037985876 -0.013898093 0.0488859
-0.015721649 0.04918755 0.03388012 0.047519926 0.02240547 -0.00072659145 0.029227082 -0.06162088
0.029286908 0.060599316 0.0035342989 -0.018600788 0.033931293 -0.053557456 -0.0019308381 0.061089884
0.04181496 -0.0077235596 0.051426865 -0.053457662 0.016853107 -0.021875052 -0.061392065 0.04809404
0.04353569 0.073299825 0.028760776 -0.032761298 -0.019679748 -0.012778545 -0.045516 0.026450811
-0.016809711 -0.059434544 0.0043059476 0.07812528 0.05193229 0.054944973 0.0497408 0.043640662
0.027571497 -0.007829746 0.06380375 -0.008989323 0.016034303 0.002800269 -0.033977892 0.053593054
-0.039323952 -0.031995013 -0.002105816 0.008258973 -0.009747885 -0.051368218 -0.004336824 0.0036678312
-0.050789174 -0.0034567926 -0.04093709 -0.034474395 0.06048253 0.0024346993 0.007435985 -0.017056571
-0.052464228 -0.029577024 0.073120184 -0.013816343 -0.022758607 -0.042191915 0.050687376 -0.04783108
-0.009342552 0.029339371 -0.031900257 -0.025939811 0.011475722 0.060778063 -0.053550117 -0.019448623
-0.066039726 -0.010607912 0.0030729687 -0.023849891 0.03452722 0.056647893 -0.048300114 -0.06815887
0.037233274 -0.021119006 -0.062624745 0.039288804 0.023237301 0.0078249425 0.044271197 -0.054804344
-0.041449495 0.04284038 -0.023702143 0.052153476 0.043869372 0.051352467 0.01467015 -0.01826155
0.0017517401 0.06058888 0.00954289 -0.051103625 -0.027222494 0.030168695 -0.033401962 0.025831483
-0.038144886 0.03914448 -0.044577487 -0.011111426 -0.074217096 0.07241762 -0.03286837 0.007885066
-0.0435541 -0.010740909 -0.024325341 0.0048526214 0.011932616 0.008262593 0.04445269 -0.03723431
0.016165081 0.006740413 0.06267269 0.06538137 -0.05572643 0.006836348 0.06827483 0.05014079
-0.054885406 -0.022548957 0.0064830114 -0.011887101 -0.0148169985 0.0053897863 0.013579292 0.024037821
0.014035494 0.014384647 -0.041816264 0.057346795 0.02133824 0.02599322 0.017221244 -0.0624272
0.07197397 0.018745473 -0.058927212 -0.06456057 0.06988441 0.060788956 0.045836434 0.030721577
0.01382032 0.03630954 -0.0033338596 0.0076034702 -0.0015534085 -0.0017604361 0.03657125 0.033332005

weight f4 [97, 256]
00000000: 377e c23d dc91 9fbc 68ac 07bb be2f 633c
00000010: af27 933d 2c10 983c e631 8dbd a6d9 f1bb
00000020: 8e5f 503d 89f3 85bd 8b64 8d3d fc96 043d
00000030: c827 4ebd 91d1 0cbd b000 263d 1a55 fc3c
00000040: 6503 74bc 897a b3bd 1a31 02bd 5a60 15bd
00000050: d231 8bbc 1d4f d7bb 0209 503c 40cb a8bc
00000060: 884e c4bd d4e0 be3c e514 3fbd eea7 443d
00000070: c052 2c3d 4164 013d 300d 413d 6f54 d73c
00000080: d245 9a3c 1c61 32bd 9aea fcbb 7ec6 03bc
00000090: 11d7 bd3c b9f6 57bd 8d10 a33d 8eb9 2e3c
000000a0: 2030 fb3b b56a 21bd 03a2 373d 8f2c 9c3b
000000b0: 7885 ad3d 1a4c 2bba 0853 58bc 00e4 6cbd
000000c0: c5f0 2d3c bcef 71bc b23a 443d 3a17 f4bc
000000d0: 88f7 5abd b3bb 9e3c 0f02 f23c a082 aa3d
000000e0: 1504 dbbb 30ed 593d 2020 19bd c6a0 8bbc
000000f0: 8f36 d63c c445 7fbc eb3a 103d facd 82bd
00000100: ebac b3bd e9eb d9bb dbc1 aebd 05c0 ab3b
00000110: 9b2a 173d ceaa 5b3d 1522 dcbc 2938 da3d
00000120: 43ce b3bc 41e4 e83d b8b7 3abd 81b0 91bd
00000130: 3dc0 b43d 5940 b23c 5b28 a6bd a11a c83d
00000140: abd1 55bd 1926 693d d481 0e3d 5b44 f73d
00000150: abf7 863d d761 ba3a 86e5 de3d 4661 61bd
00000160: d85c 563c 3205 0a3d 953b 873d f689 2d3c
00000170: 7347 203d 649e 213c 5bb6 8abd f59c deba
00000180: 949d 8f3d 9556 9ebc 0873 053b d984 973d
00000190: 18f6 bf3c 940a 21bd 93b5 933d 1865 843d
000001a0: 3583 c63c a84a 603c 6440 82bd 1d5d a43d
000001b0: f8bb bf3d b859 1b3d 0e32 04bd 7683 85bd
000001c0: 41e3 923c ca72 5b3c 030f 1ebd fc85 9fbd
000001d0: e970 1bbc a82b 40bd 15dc 5c3c 1fa7 90bd
000001e0: 6706 243d 9419 73bd 07ad e4bd cb2c 83bb
000001f0: f514 353c 2d63 cebd 8a79 08bd 9f7e 673d
00000200: 1185 30bd 3775 423b 3c59 44bb aaaf e33c
00000210: 3a41 053d 4f97 b6bc b3db 603b b5fd 193d
00000220: 8328 c63c 2431 a43d cd43 0f3a 5440 04bd
00000230: a88c c53c b534 35bb 5b55 a03d 2eea 573d
00000240: 5302 8abd 07f2 8f3c 8947 10bc 5957 fd3c
00000250: 2946 b83d c443 023d 2ff0 95bc 9340 6f3b
00000260: f7d4 0c3d 25aa 1ebd 4eac 31bd 7d54 70bc
00000270: bc0e 973d 28ff 84bb 9ec4 c13c 0b31 80bd
00000280: 786e 5cbd 9db2 8e3d 0324 0fbd 6353 56be
00000290: d450 883c 3dc6 933d 7421 6d3e 1cf3 83bd
000002a0: d581 493d 258b 49bd 52ab 35bd 0868 b03c
000002b0: c264 1bbd 42d3 623d a94b c63d 9904 223d
000002c0: 899a 5ebc dd74 97bc 29c7 04be 9958 de3c
000002d0: dbe3 5dbd 7ebf 4cbc 8aca 7bbd c0b3 a4bb
000002e0: c2d1 653d 7e5b 903d a883 7dbc f852 993d
000002f0: 7941 3d3d 62ac da3c a066 953b 3da8 45bd
00000300: 870a 33bd 64c0 dd3d f6f9 703d 4617 2cbd
00000310: bb19 43bd bb74 e33c 5cda 0dbd d3c0 eebc
00000320: 3dfe 46bc 7d93 1fbe ceaa 02bd d273 36bd
00000330: c303 603d ce96 823b de9b 03bd 57ab fb3c
00000340: 5133 bcbd 0ed8 22bd 20aa f2bc c793 70bd
00000350: 1474 843d bf39 843d ecf8 823d e025 46bd
00000360: 4e7c 77bd 2fc4 21be 298a 2f3c 1e62 7abd
00000370: 19ee 13bd 3e0a 533d 6238 273d d248 0fbd
00000380: 3690 a0bd 4134 5f3d dcc2 9f3d 408c ba3c
00000390: 67fc dcbc 7eb4 88bd e00d 723d f9c4 37bd
000003a0: 91b9 813d a54e 143d 47f8 96bc f734 3ebd
000003b0: 846f 043d 7cf1 523d 42ec 063d 659c 76bd
000003c0: 24d9 033d 56a3 063d e55e 1abd e63e 073c
000003d0: f4e2 a33d d462 f0bb 3ba0 68bd bccf 173d
000003e0: 95cf 4b3d c8b8 653d b210 72bd 4d2e 293d
000003f0: f418 1e3c b969 363d c813 33bb bc85 32bc
0.0949673 -0.01947873 -0.0020702127 0.013866363 0.071853034 0.018562399 -0.06894283 -0.007380682
0.050872378 -0.06540591 0.06903943 0.032370552 -0.050330907 -0.034379546 0.040528 0.030802298
-0.014893387 -0.08763606 -0.03178511 -0.03646884 -0.01699153 -0.0065707103 0.01269746 -0.02060473
-0.09585291 0.023300566 -0.046650786 0.048011713 0.042071104 0.03158975 0.047131717 0.026285378
0.018832121 -0.043549642 -0.0077183964 -0.00804293 0.02317384 -0.052725527 0.07962141 0.010664357
0.007665649 -0.039408404 0.04483224 0.004766054 0.08472723 -0.00065344723 -0.01320339 -0.057834625
0.010616486 -0.01476663 0.04790754 -0.029796232 -0.05345872 0.019376611 0.029541997 0.08325696
-0.006683836 0.053204715 -0.037384152 -0.017044436 0.026149062 -0.015580598 0.03521244 -0.06386943
-0.08773216 -0.006650437 -0.08533069 0.0052413964 0.036905866 0.05362969 -0.02687172 0.10655243
-0.02194894 0.11371661 -0.045585364 -0.071137436 0.08825729 0.021759199 -0.08113166 0.09770704
-0.052201908 0.0569211 0.034791782 0.12073585 0.06590208 0.0014219832 0.10883622 -0.055024408
0.013083659 0.03369636 0.06603161 0.0105919745 0.03913064 0.009864423 -0.06773063 -0.0016984033
0.070124775 -0.019328395 0.0020362753 0.073983856 0.023432776 -0.03931673 0.07212367 0.064645946
0.024232486 0.013689674 -0.06359938 0.080255724 0.09362024 0.03792736 -0.0322743 -0.06519215
0.017930629 0.013394067 -0.038588535 -0.07789227 -0.009487369 -0.046916634 0.013480206 -0.07063126
0.04004517 -0.059350565 -0.11165815 -0.0040031425 0.01105236 -0.1007751 -0.033319034 0.05651724
-0.043095652 0.0029671916 -0.0029960414 0.027793724 0.032532908 -0.022288946 0.0034310638 0.03759547
0.02418924 0.08017185 0.000546512 -0.03228791 0.024114922 -0.0027649824 0.0782878 0.052713566
-0.067387246 0.017571462 -0.008806118 0.03092544 0.08997757 0.031802908 -0.018303005 0.0036506995
0.034382787 -0.03873648 -0.043377213 -0.014668581 0.07375857 -0.0040587373 0.023653325 -0.06259354
-0.05381629 0.069676615 -0.034946453 -0.20930247 0.016640104 0.07215545 0.23157293 -0.06442854
0.049196083 -0.049204964 -0.044352837 0.021533981 -0.037937887 0.055377252 0.096824 0.039555166
-0.013586649 -0.018488342 -0.12966599 0.027141856 -0.054172378 -0.012496827 -0.061472453 -0.0050263107
0.056108244 0.07048701 -0.015473284 0.07486528 0.046205018 0.026693527 0.004559353 -0.048256148
-0.04371121 0.10827711 0.05883213 -0.042014383 -0.04763196 0.027765622 -0.03463207 -0.02914468
-0.012145576 -0.15583606 -0.031901173 -0.04454405 0.054691087 0.0039852625 -0.03213107 0.03072135
-0.09189475 -0.039756827 -0.029622138 -0.05873468 0.06467453 0.06456327 0.06395134 -0.048375964
-0.06042128 -0.15797494 0.010714092 -0.061128728 -0.03611574 0.05152344 0.040825255 -0.034981556
-0.07840006 0.054493193 0.07800838 0.022771955 -0.026975824 -0.06675051 0.059095263 -0.044865582
0.06334222 0.036207814 -0.018428935 -0.04643723 0.032332912 0.05149983 0.032940157 -0.060207743
0.032189503 0.032870613 -0.037688155 0.008254742 0.08002272 -0.007336 -0.056793433 0.037063345
0.049758513 0.056084424 -0.059097953 0.04130392 0.009649504 0.04453442 -0.0027325023 -0.010896143

bias f4 [97]
00000000: 680d 933d 6c5b e8bc 4683 45bd bd59 7d3c
00000010: 3d9d 12bd d445 a43d 55ec c5ba e00f 61ba
00000020: de47 65bd feee 0fbd 19ec 9a3c 1dc6 fdbc
00000030: a504 04bc a344 11bd 24bd d13b 98da 5f3d
00000040: f722 21bd 05d1 11bc 5368 93bc c599 ab3c
00000050: 8a70 173d 4268 843c e6a1 64bd ac33 2fbd
00000060: 8d68 783d 87bb 753d c174 053d 033a 0a3d
00000070: 60fa c8bc af0f 6bbd 8c79 e83c 5e66 5dbc
00000080: 79a0 00bb 13f8 103c 400f 7c3c 8f85 843d
00000090: 72a0 16bd 4453 74bd eb5f 573d a908 563b
000000a0: 2864 0bbc d67d 4d3d 2ad4 f83c c34f 4abd
000000b0: 9094 62bd 5f27 413d d17d 2bbd b1c4 9a3d
000000c0: c1d0 6c3d a009 3c3d 14d8 653c 4db1 30bd
000000d0: 5ac4 f9bc e0d5 c7bc 549f 4c3d 8816 603b
000000e0: 7e2b 043d 7420 2dbd 135f 5dbd 1b63 de3c
000000f0: c7e7 2ebd a1cb c9bb 28f4 893c 4917 233d
00000100: 87fc cfbb cc18 f73b 89ac 903c b8e7 4b3c
00000110: 4056 70bc 28aa f03c 3d19 2e3d 4b09 39bc
00000120: 19bd d0bb 8bcd 0f3d 44d5 d83b 938b 8bbd
00000130: 02b6 babc 6743 5abd 0010 58bb 4b4a a23d
00000140: 8aff 5ebc bba1 d43c f10e 323d 44c7 253b
00000150: 1e7d 6bbc 02a6 153d 9538 3abd 860e 11bd
00000160: 6d24 993d a211 073d 5f2c 423c fe5e a0bd
00000170: a82d 75bd 863f 25bd 094d 133b 7079 763d
00000180: 8249 913d
0.071802914 -0.028363906 -0.048220895 0.01546329 -0.035794485 0.08021131 -0.001510034 -0.00085854344
-0.05597674 -0.03514003 0.018911408 -0.030978257 -0.008057748 -0.035465848 0.006400721 0.054651827
-0.039339986 -0.008899932 -0.017994082 0.020947346 0.03697256 0.016162995 -0.05581846 -0.042773888
0.060646582 0.059993293 0.03258205 0.03374673 -0.02453345 -0.057388004 0.02837827 -0.013513176
-0.00196269 0.008848208 0.015384495 0.06470787 -0.036774106 -0.05964972 0.05258171 0.003265897
-0.008507766 0.050168835 0.030374605 -0.049392473 -0.05531746 0.047156688 -0.041868035 0.07557047
0.05781627 0.045907617 0.014028568 -0.043137837 -0.030489136 -0.024393976 0.049956635 0.0034193117
0.03226804 -0.042267278 -0.054045748 0.027146867 -0.04270151 -0.0061583077 0.016840056 0.03981713
-0.0063472423 0.007540798 0.017660396 0.012445383 -0.014669001 0.029378012 0.042504538 -0.0112937195
-0.0063701984 0.03510813 0.00661722 -0.06813731 -0.022791866 -0.053286936 -0.003296852 0.079243265
-0.01361073 0.025956025 0.04347128 0.0025295774 -0.014373092 0.03653527 -0.045464117 -0.03541424
0.07477651 0.0329758 0.011851399 -0.07830618 -0.059857994 -0.040343784 0.0022476336 0.060174406
0.07094099
