data/example_dynamics_data/kitchen_MLP_qhat.pth (torch, 664463 bytes, 8 tensors)

weight f4 [256, 70]
00000000: 6193 d73d b559 393d c244 dabd aee4 86bd
00000010: 2605 aa3d 564e 84bd fc64 713c 0204 153e
00000020: 07dc 333e b3d7 94be 2bda 433d 0c38 363e
00000030: 08aa 9b3c 5d97 9a3d e3ea 083d 19fc f43d
00000040: ae25 4fbd d801 50be 359d 54be 0abc c63e
00000050: 7dd3 49bc 9f33 fd3c 37f0 65bd aede b73c
00000060: b0e6 883e a802 e0bc 9356 903d 92b1 74be
00000070: af35 5b3d 0a6a c53d 7782 af3c 7518 d9bb
00000080: 8875 edbd c243 bc3d 2f91 b73d 266c 52bd
00000090: 43e4 6d3d 64fd 503d e988 763c b115 c73d
000000a0: a644 a9bd 0650 0fbe b3a2 783d e25a 463d
000000b0: e2dd 50bd 4e48 613d ec89 d43d 503c 8b3d
000000c0: fbab 12be 01ed 1bbd 103a d83d d47f ee3d
000000d0: 4011 1abe 05ad 04be 24b2 3e3d 94d2 d83d
000000e0: 73d9 353d 32b4 ca3c dbe6 22bd 51e3 d3bd
000000f0: 2673 71bc 9f27 8f3c d0f9 19bd 976f d9bd
00000100: 03fd 6bbd 89fe db3c 4b74 a5bd c780 683d
00000110: d223 8f3b 984c 5f3d d600 24bd 03fd 3cbc
00000120: acda fa3a af44 96bb 8d05 df3d be04 9b3c
00000130: 0541 613d 1553 96bc aed5 68bb 6398 953e
00000140: 56e3 153e 38b9 c73d 8e06 c0bc 834f f53c
00000150: 1d8b 8ebc b6b5 20bc 6282 0abe 1d90 1b3e
00000160: 969b 043e 67c5 54bc cace dcbc 1696 08bd
00000170: 3241 c83c 906c 60bd 420f 39bd fd20 bebd
00000180: d222 883c b323 cebc cf2c 853c ed6e 62be
00000190: 86ef d23d b779 dd3d 6b62 b8bc de67 06bd
000001a0: d125 893d 5d6c ab3d b96f 8abb 2df9 28bc
000001b0: 7be6 903d 0afd 3e3d dd03 dc3d d39b f03d
000001c0: 6e04 fc3c 1884 38bd 6eaf af3d e142 c73d
000001d0: f899 88bd 0323 d1bd f8ad c1bc 8743 87bd
000001e0: 6bb5 953d b79f 1f3d 3329 c2bd 8603 9c3d
000001f0: 3f0e 8bbd 3f3f c93d 2eac f5bd 2f0f 8ebd
00000200: 3192 27b9 5a60 f73d c922 cebb 6738 163d
00000210: 017b 103e 624c dbbd fdb4 303c 4e17 c8bd
00000220: 9391 e0bb fd16 ee3c 8df6 083c 4bfc ea3d
00000230: ce1a f33d 66bb f93d f61e 803d daf4 15bb
00000240: 4320 2d3e 8e70 9bbd 3b05 bc3d 1df6 aa3d
00000250: cfd1 c03c 7057 59bd 70ac dabc 9ee4 a4bd
00000260: 59c1 683d b6d6 f53d 8508 33be db28 b03d
00000270: 82cb e03c 508a 073d dae3 203d 0f99 753e
00000280: 6660 633e 8b39 80bd df8f 0b3e 3587 bd3d
00000290: a0b1 febd a1b8 873d 4221 153b 5560 233e
000002a0: 6878 aa3d 387a 3cbe 99a4 ecbd 8711 a4bb
000002b0: cf33 ba3c fda8 b13c 8369 d5bd 6e71 373c
000002c0: 75b9 6ebd 0e1f ebbc f53a e33d 4a06 7bbd
000002d0: 16d5 acbd 1e60 23bd d367 42bd ecf1 963d
000002e0: 161d 9f3d 7a82 cd3d 57bc 833d 1491 7c3d
000002f0: e420 293b c5fc cdbb 843b edbd 2c75 57bc
00000300: 6756 59bd 1cfa 613d f434 08bd 5d13 1cbd
00000310: fc74 c13d 8048 da3d 022c e53d 53ea d73d
00000320: 3e42 383c 95a8 263c 5bf3 823d 0a2b 26bd
00000330: a9a2 793c c489 863d efbf bebd 0eee 28bb
00000340: 982f 8fbd e0bc 53bd f8e1 2ebe e2b3 073e
00000350: e2d9 ba3d dd16 5e3d cb40 b63d faec 27bd
00000360: 041a a9bc ade5 95bd 3e0c 303d 558d 8abe
00000370: 0fb5 083e 5467 81bd d178 563b 843d 0cbd
00000380: 8456 19be c11f cd3c b303 48bd 4c85 32be
00000390: db6d 78be ea38 483e 252b 0f3e 0852 903b
000003a0: 2b37 07be 2316 ba3d 66a6 a4bd 7619 a93d
000003b0: f113 bebd b36d 2dbe 7c11 39be 50e0 aebd
000003c0: 3204 da3d 11c3 1abd efe3 b33d e6ba df3d
000003d0: 80c7 b9bd ad51 eb3b 2e69 f4bd c194 a8bd
000003e0: b0ec 373d 1864 08bd 002b f4bd d185 a1bc
000003f0: 49ad c33c 6e7d 42bd 9dc2 97bd 5788 f4bb
0.10526157 0.045251567 -0.10657646 -0.06586586 0.08301763 -0.06460254 0.014733549 0.1455231
0.17564403 -0.29070815 0.047815483 0.17794818 0.019001976 0.075484015 0.03342713 0.11962146
-0.050573044 -0.20313203 -0.20763095 0.38815337 -0.012318489 0.030908404 -0.05613729 0.02244505
0.267385 -0.027345017 0.07047763 -0.23895863 0.053517994 0.09639366 0.021424515 -0.00662523
-0.11594683 0.09192611 0.089632384 -0.05137267 0.058079015 0.051022902 0.01504729 0.09720934
-0.08265047 -0.1399537 0.060702037 0.048426516 -0.050992854 0.055000596 0.10377869 0.06798613
-0.14323418 -0.03806782 0.105579495 0.11645475 -0.15045643 -0.12956627 0.046556607 0.105870396
0.04439683 0.024744127 -0.039770942 -0.103460915 -0.014736926 0.017474947 -0.037591755 -0.10616987
-0.057614338 0.02685477 -0.08078822 0.056763437 0.004368284 0.054516405 -0.04003986 -0.011534932
0.0019138656 -0.0045858244 0.108897306 0.01892316 0.054993648 -0.018350163 -0.0035527754 0.29217824
0.14637503 0.097521245 -0.023440626 0.02994514 -0.017400319 -0.009808948 -0.135263 0.15191694
0.12949976 -0.0129865175 -0.026954073 -0.033346258 0.02444515 -0.054791033 -0.045180567 -0.09283636
0.016618166 -0.025163507 0.016256718 -0.22112627 0.10299592 0.10814231 -0.022507867 -0.0328139
0.06696666 0.08370278 -0.004224744 -0.010313314 0.07075211 0.046628036 0.10742924 0.11748471
0.030763831 -0.04504785 0.085783824 0.09729553 -0.06669992 -0.10211756 -0.023642525 -0.06604677
0.07309993 0.038970675 -0.094805144 0.076178595 -0.067898266 0.09826516 -0.11995731 -0.0693649
-0.00015980822 0.120789245 -0.006290768 0.036674883 0.14109422 -0.10707928 0.0107853385 -0.0977007
-0.0068532913 0.029063696 0.008359564 0.11473902 0.11870347 0.121939465 0.06255905 -0.0022881539
0.16906838 -0.075898275 0.09180685 0.08347724 0.023537545 -0.053061903 -0.026693553 -0.08051418
0.056825016 0.120038435 -0.17483719 0.086015426 0.02744079 0.03309089 0.039279796 0.23984168
0.22204742 -0.062609755 0.13629101 0.09254304 -0.12436223 0.06627012 0.002275542 0.15954717
0.08323747 -0.18405998 -0.11554832 -0.0050069722 0.022729782 0.021687025 -0.104205154 0.011196477
-0.058282334 -0.028701331 0.110952295 -0.061285295 -0.084390804 -0.039886586 -0.047462296 0.07370362
0.077692196 0.10034652 0.06432407 0.061661795 0.0025806958 -0.006286236 -0.11583617 -0.013150495
-0.053060915 0.055170164 -0.033253625 -0.038104404 0.09446141 0.106583595 0.111900344 0.10542741
0.011246262 0.010172029 0.063940726 -0.04056839 0.015236535 0.065692455 -0.09313952 -0.0025776657
-0.069915 -0.051693797 -0.17078388 0.13252214 0.09123589 0.054221023 0.08899077 -0.040997483
-0.020642288 -0.07319198 0.042980425 -0.27060953 0.13350318 -0.063185364 0.003272582 -0.034238353
-0.1497441 0.025039556 -0.048831653 -0.17433661 -0.24260657 0.19552961 0.13981302 0.00440431
-0.13204639 0.090862535 -0.080395505 0.082568094 -0.09281147 -0.16936378 -0.18073076 -0.08538878
0.106453314 -0.037783686 0.08783709 0.1092432 -0.09071255 0.0071813674 -0.11934124 -0.082314976
0.044903457 -0.03329858 -0.11922264 -0.019717129 0.02388634 -0.0474829 -0.074101664 -0.007462542

bias f4 [256]
00000000: d6d8 cabc 8944 d03c 422b a93d 3fd2 12bd
00000010: 5562 c43d bceb a1bc b413 2f3d 3ffe 3f3d
00000020: 5a97 56bd 408b 93bd 0cd9 b7bc 5780 6b3d
00000030: bf93 ddbd 4673 ff3b 6204 00bd 7baa b23c
00000040: 52e2 923d f5f4 ddbd 2160 e03c 4c31 f83d
00000050: 807e b73d 6ab2 3c3d aaee 01be 42d1 a8bd
00000060: d493 a9bd 25d7 9ebc f8d2 c33d 1097 bcbb
00000070: 9e79 dd3a 7125 d6bd 0f7e 0f3e 3007 56bc
00000080: 0cd3 0b3c 05a0 64bd 35a6 f63d ef4d 01bc
00000090: c9f5 853d 0651 803d b6b2 40bd 417a eabb
000000a0: 3c1e 89bd 8ecb a5bd 1fff 7ebd c225 d63d
000000b0: 981a 793c d90e 1dbd aad1 75bd 12c3 eb3d
000000c0: 7648 5d3d a57c b3bd 626b 4abd b21c 923d
000000d0: c1af e5bd e78e 21bd 6739 1b3c 4108 98bc
000000e0: 30ed 193d 6ee6 863c e137 a3bd 6fe3 cb3d
000000f0: b5ac 09bd b4a9 fc3d 499e 1dbb f89f ce3d
00000100: e3f2 bcbd 02ed 98bd 2550 513d b9a9 11bd
00000110: f35c b2bd c107 bc3d 2b6f 2b3d 2f95 b3bd
00000120: 9dd7 563d a1b5 b4bd b7ad b8bd 1446 f43d
00000130: f883 93ba f760 dabd 9475 63bd 0cde 9ebd
00000140: 4aba b8bd d531 1bbd 4b8a 0c3d 0495 a03d
00000150: e175 d73d 139f 753c 8c77 abbd 61be a03d
00000160: e9ef 73bd 7c10 903d 2f05 f6bd bf01 e43d
00000170: 5fb6 f0bd d3e8 203b ed77 81bc 09e6 07ba
00000180: 54c0 78bd e414 883d c7e1 083e 34d1 e1bc
00000190: 2d95 a93d ddf0 62bc 7193 b43d 1850 623d
000001a0: f613 07bd ed0f cc3d b9a9 563c 09d4 8ebd
000001b0: 8ca9 b73d 6c76 a33d c5b3 d53d 10ea 0fbd
000001c0: 567b 043e 2df3 363d cc1c b63c 33e3 8a3d
000001d0: 7218 6fbd 87a3 9fbd ef00 c63b bfe6 0c3d
000001e0: becb b0bc 22d7 5e3d 38ed d83b 189a 37bc
000001f0: 9a1e 153d 32e8 b23c d7e6 e83d 9a3e 78bd
00000200: d752 5a3d 3a87 f9bd 6f80 743d d4ff b63d
00000210: 2007 fc3d d11d de3d 24a0 07bc 7816 82bc
00000220: 0e57 a1bd 8360 c7bd bc72 f1bc f9bc a13c
00000230: 9699 8a3c 257a 7abd 2483 8dbd 7541 c8bd
00000240: 51e2 193e ebc5 2c3d 0d38 9dbd c1d3 3ebd
00000250: ec85 8c3d e391 df3d 7fdf c8bc 6eb4 123c
00000260: 4763 91bd 045e 00be 2d09 ec3d 1ed4 3dbd
00000270: e3d1 893d fc26 0e3d 4a09 9a3d ec07 a73c
00000280: 70ad b23d 0f40 d63c 69b4 d2bd 180d b33d
00000290: 3367 a93c 548b 9abc e7e2 f0bc aa7f dc3b
000002a0: 1f0d 033b 5d12 1dbd de1a 273d 67ab b7bb
000002b0: 98e7 b9bd 1852 f43c 0c48 9cbc 7133 e23d
000002c0: 7255 1d3d 4138 98bd 91e6 c83d fb78 b9bd
000002d0: 2390 c6bd 017a 2fbd 111d eb3d 2446 dcbc
000002e0: 8f6a 223d 89a5 b73d 136e 6e3d 55ca e13c
000002f0: fd6f 49bd 5b66 cbbc 7605 27bd 17df 513d
00000300: 90f2 31bd 155f e43d b437 423d 860e a1bd
00000310: fed8 373d 2f15 3f3d f1bb d5bd 7740 c3bd
00000320: 2fc0 293d cecc 3fbd bef4 9ebd be72 c93c
00000330: 345c 94bb 96fa 303c 3fe8 543d 6ced aebd
00000340: 53d3 2e3c aaa9 24bd 6d04 2c3d acaf f1bd
00000350: 4420 a4bd 7278 29bd 3213 b53d 28c1 3b3d
00000360: 12d6 eabd de49 94ba 1cac 323c e6f5 003e
00000370: fba0 dd3d a14a bdbd 3652 973d e157 68bc
00000380: d2db 31bd 510d 963d f95b f33d 696a 9e3d
00000390: 14a8 df3d 4297 bc3a 20ea 403d 9cb4 8ebd
000003a0: 72e4 e83b 2ad0 9e3b 13e1 c33d 1e39 d8bc
000003b0: 2588 13bd 84dc e7bd 510e fb3c d5f4 143d
000003c0: 8301 e03c ddab 483c 69c1 b9bc acef abbd
000003d0: 8034 47bd 78e4 cf3d a5b3 b8bc 7bbe ee3d
000003e0: 811b aabd 250d 4b3d 3d05 ef3d 47dc 823d
000003f0: ebb4 c13d 9cf5 023d a301 9e3d 66c1 9b3b
-0.024761599 0.025423305 0.08260204 -0.035845038 0.09589068 -0.019765727 0.0427434 0.046873327
-0.052390434 -0.07204294 -0.022442363 0.05749544 -0.10819196 0.007795724 -0.03125418 0.021809807
0.071720734 -0.108377375 0.027389588 0.12118778 0.08959675 0.046068586 -0.126887 -0.08243038
-0.08280149 -0.019389698 0.095617235 -0.0057553127 0.0016897207 -0.1045636 0.14012931 -0.013063237
0.008534204 -0.05581667 0.1204342 -0.007892116 0.065410204 0.06265454 -0.047045432 -0.007155687
-0.0669522 -0.080954656 -0.06225502 0.104564205 0.015204094 -0.038344238 -0.060014404 0.11511816
0.054024182 -0.087640084 -0.049418814 0.071343794 -0.11215163 -0.039442923 0.009474135 -0.018558623
0.037579715 0.0164673 -0.079696424 0.09955489 -0.033611972 0.12337056 -0.0024050644 0.10089105
-0.092260145 -0.07467081 0.051101822 -0.03556225 -0.08709135 0.091811664 0.041854065 -0.08768689
0.05245172 -0.088237055 -0.090175085 0.11927429 -0.001125454 -0.10663026 -0.055532053 -0.07757196
-0.09019907 -0.03788932 0.034311574 0.078409225 0.105205305 0.0149915395 -0.08372411 0.07848812
-0.059554968 0.07034394 -0.120127074 0.111331455 -0.117535345 0.0024552837 -0.015804255 -0.0005184119
-0.060730293 0.066446096 0.13367377 -0.027565576 0.08280406 -0.013851372 0.08817185 0.055252165
-0.03297802 0.09963975 0.0131019885 -0.06974036 0.089678854 0.079815716 0.10434679 -0.03513533
0.12937674 0.044665504 0.022230528 0.06781616 -0.058372922 -0.07794862 0.0060425918 0.034399744
-0.021581527 0.054404385 0.0066200756 -0.011206172 0.036406137 0.021839235 0.11372154 -0.060606577
0.05330166 -0.121839955 0.059692796 0.08935514 0.123060465 0.10845531 -0.008277927 -0.015879855
-0.078779325 -0.09735205 -0.029473655 0.01974343 0.016918939 -0.061151642 -0.06909779 -0.0977811
0.15027739 0.042180937 -0.076767065 -0.046588663 0.06861481 0.109164976 -0.024520634 0.008954151
-0.07099014 -0.12535864 0.11525188 -0.04634487 0.06729486 0.034705147 0.07521303 0.02038952
0.08724487 0.026153592 -0.10288317 0.08742732 0.020679092 -0.018865265 -0.02940507 0.006729086
0.0019996834 -0.03834759 0.040797107 -0.0056051495 -0.09077376 0.029824302 -0.019077323 0.11044968
0.038411565 -0.074326046 0.09809602 -0.09056278 -0.09695461 -0.04284096 0.11480153 -0.026888914
0.039652403 0.0896712 0.058210444 0.0275623 -0.049179066 -0.02482908 -0.040776692 0.051238146
-0.043444216 0.11150948 0.047416404 -0.07864098 0.044884674 0.04665106 -0.104362376 -0.0953378
0.041443046 -0.046826176 -0.077615246 0.024590846 -0.004527593 0.010801932 0.0519793 -0.085413784
0.010670501 -0.040200867 0.04199641 -0.11801085 -0.08013967 -0.04137463 0.08841552 0.045838505
-0.11466612 -0.0011313518 0.010905292 0.12593803 0.1082172 -0.0924275 0.07388727 -0.014181108
-0.043422528 0.07326759 0.11882777 0.0773514 0.1092073 0.001438834 0.04709828 -0.06968042
0.007107311 0.0048465924 0.09564414 -0.026394423 -0.03601851 -0.11321357 0.030646475 0.036366303
0.02734447 0.012248007 -0.022675233 -0.08395323 -0.048634052 0.10150999 -0.022546599 0.11657425
-0.08306027 0.049573082 0.11670921 0.06389671 0.094583355 0.031972513 0.07715156 0.0047532795

weight f4 [256, 256]
00000000: a188 5b3d 5c09 3e3d aebb febc 722c 1fbd
00000010: eb6b d9bd 1daa 5ebd bb7f 5dbd 0121 ab3c
00000020: 6899 183d 7c82 243d d945 68bc 7951 56bd
00000030: 6d9f cdbc 1746 0fbe feb8 9b3c fccc 723c
00000040: eadb bebd a2b9 70bd 6dd4 253d 8d70 5f3c
00000050: e7e4 bf3b 3479 323d 436d 5e3c 2923 77bd
00000060: 1d24 a53b b789 8f3d 9668 353c 5242 223d
00000070: b19c c33a bf3c 98bc 1fef ef3c 1394 9d3b
00000080: 5836 86bd fab8 b83c 60d2 08bb 155a a7bd
00000090: 79ac 92bd acb6 703d d490 693d 6418 33bd
000000a0: e81a bc3c d5c1 40bd f9b4 8bbb 47b5 953a
000000b0: d2e2 77bd 5604 443d cee3 fbbc 35a3 13bb
000000c0: 3d56 d53c abec 76bc 7fe4 42bd d07d 1e3d
000000d0: 2db8 bcbd bc7b f83b 8243 f4bb 29c9 31bd
000000e0: a1b7 723d fba9 1a3d aef6 24bd 04a4 1bbd
000000f0: cb8a 12bd a8cd a93d 75e3 d13c 6df6 a5bc
00000100: abc2 cdbc b923 2c3d ad02 df3c 4c61 01bc
00000110: f1b9 a939 7502 f2bc 4c8e 853c a591 5c3b
00000120: 1708 9cbd 8962 403d 9c47 53bc 349b 50bc
00000130: be8c 1abc 039e a53d 2be2 133d e56f cd3d
00000140: f7e6 a5bd 4ac9 bdbc a647 003d c2ce ee3c
00000150: 401c cdbc 49bc 97bc 29ac 8abc 7f7f 1a3d
00000160: 6484 6bbd dcf8 0b3d a32d 49bc 32d0 a8bc
00000170: 0484 413c 8e3a 06bd 2222 633c db79 dd3c
00000180: 09e3 7abd fdc9 7aba f998 bbbd c43e 113e
00000190: 248b 26bd bded 0a3b 7ecd cabc 74a4 303d
000001a0: df63 3b3d cd8e 7cbd 1ae8 973d 4db0 193d
000001b0: 4c18 643d 8e6e 383d 7c7b be3b d4f4 b1bd
000001c0: 2cad d13b 6cf0 1f3d 8b93 b6bb 1371 1bbc
000001d0: 439c 383d 1746 40bd ca13 c2bb 7182 6d3d
000001e0: 6692 183d e11a c6bd e038 41bd 4e22 603c
000001f0: 8b67 7fbd 9895 2c3c 61c5 7e3d 1f12 ae3c
00000200: 1379 023d 789c 02bb 9523 7e3d 7b91 993a
00000210: 0a62 cbbc c459 35bd bdf5 0abe 7b9a a33c
00000220: 8a77 e93c 42b3 683d 47c3 d73b a16d 7dbc
00000230: 51a4 a93b 942a fd3b 84c5 6d3d 1d98 8a3d
00000240: e9ac 633b 4f1c 83bd 7eb9 53ba dd59 1f3d
00000250: ddee 533c 5615 c33c 2e65 43bd 4b9c 093d
00000260: f185 273c 3943 543a 7954 493d ce29 923b
00000270: 54a8 e2bc d412 2dbc adaf a33c dd4e 843c
00000280: 5cb3 97bd 93e9 82bc 5cc0 d7bc 6cfd 6c3d
00000290: 84e9 de3c 99d6 943b c0c2 fbbc ddcc 5bbd
000002a0: 092f 8abd 84dd f73b cbe8 eebc 8797 813b
000002b0: af37 e0ba addb 293d fb9c db3c 0dab a8bd
000002c0: f2e1 c7bb 05b4 46bd 6826 1d3d 1355 1fbd
000002d0: 86e8 97bd 7aa4 c43c 1a8f 5a3c fdb9 afbc
000002e0: 2342 723d 3167 f03c bc0e 66bd 649f 50bd
000002f0: 57f3 41bd a566 70bc d743 123d 627a 173d
00000300: 8bdf 8a3d 8f6a 99bc ad4b 163d 808c 70bd
00000310: 869c 843c be69 30bd de2d 543d f4dc 42ba
00000320: 5084 dabc 4839 6cbd 54e8 8cbd 326e 0bbc
00000330: 8253 abbd a3dd 1f39 70c9 bd3c 93ef 3a3b
00000340: c5cb b53c 048a b23c 72ac b33c 75e3 b6bd
00000350: d30e 463c df1b b03b 4944 883c ffbc 3dbc
00000360: 359c 893d f708 213d 718e 92bb d0cf 02bd
00000370: 8d36 3ebc 4a83 193d 740a 623d 18c0 433c
00000380: b2ef 483d a574 debd 8bc8 d23c 0306 23bc
00000390: c673 843d 6b83 e23b 234f 43bd 112c b53d
000003a0: 89d6 70bd 6de8 4d3d 238f d63c 5d11 89bc
000003b0: 0e47 ebbc cba5 e2bb 1d67 d8bc 96dc ebbc
000003c0: 5030 6a3d 1c3d 553c f894 cc3d 0ee1 84bd
000003d0: d1bb fa3c 0985 663b a155 7bbd 66ec bfbc
000003e0: 882b 96bd 0888 8abd bef9 90bc 6002 6c3d
000003f0: b7d2 813c 335a ff3d 27a9 763d c449 03bc
0.053597096 0.046395645 -0.031095352 -0.038860746 -0.10616287 -0.05436145 -0.05407689 0.02088976
0.037255675 0.040163502 -0.014176809 -0.052323792 -0.025100434 -0.13991581 0.01900911 0.01481938
-0.09319289 -0.058770783 0.040485788 0.013637674 0.0058561447 0.04357262 0.013575855 -0.060336266
0.0050397054 0.07008689 0.0110722985 0.03961403 0.0014924017 -0.018583653 0.029288827 0.0048089116
-0.06553334 0.022549141 -0.0020877346 -0.08171479 -0.07161803 0.05876796 0.057022884 -0.043724433
0.022962049 -0.047059853 -0.004263517 0.0011421823 -0.060519047 0.047855698 -0.030748274 -0.00225277
0.026042098 -0.0150710745 -0.047581192 0.038694203 -0.09214816 0.0075831097 -0.0074543366 -0.043404732
0.059257153 0.037759762 -0.040274315 -0.037998214 -0.035776895 0.08291179 0.025621155 -0.020259107
-0.025117239 0.042026255 0.027222956 -0.007896733 0.0003237273 -0.029542187 0.016303204 0.0033656147
-0.076187305 0.04696897 -0.012895491 -0.012732316 -0.00943297 0.08086779 0.036104362 0.10031108
-0.08100694 -0.023167271 0.03131833 0.029151324 -0.025037885 -0.018522399 -0.016927795 0.037719246
-0.057499304 0.034172878 -0.012278947 -0.020607088 0.01181126 -0.032770686 0.013863118 0.027035644
-0.061251674 -0.0009566842 -0.091600366 0.141841 -0.04066004 0.0021198832 -0.02475619 0.043125585
0.04574954 -0.061659623 0.07417317 0.03752165 0.055687234 0.04502731 0.0058130603 -0.086892754
0.0063988175 0.039047644 -0.0055717877 -0.009487408 0.045070898 -0.046941843 -0.005922769 0.057985727
0.03724899 -0.096730955 -0.04717338 0.013680054 -0.062354606 0.010533713 0.062199954 0.021248875
0.031853747 -0.0019929688 0.062045652 0.001171633 -0.024827022 -0.04427506 -0.13570304 0.019971123
0.028499383 0.05681158 0.006584558 -0.015468032 0.0051770587 0.007726023 0.058049694 0.067672946
0.0034740514 -0.06401884 -0.0008076652 0.03890406 0.012935367 0.023813885 -0.047703914 0.03359632
0.010224805 0.0008097175 0.049152825 0.00446055 -0.027668156 -0.010563571 0.01998123 0.016150886
-0.07407257 -0.015980517 -0.026336841 0.05785887 0.027210958 0.0045421836 -0.030732512 -0.05366217
-0.067472525 0.0075642485 -0.029163739 0.003954831 -0.0017106439 0.041469265 0.026808253 -0.0823575
-0.006099933 -0.048511524 0.038366705 -0.038899492 -0.07417397 0.02400421 0.013339782 -0.02145099
0.059145104 0.02934608 -0.056166396 -0.050933257 -0.047351208 -0.01467291 0.03570923 0.036981948
0.06780919 -0.018727569 0.036693264 -0.05872774 0.016187917 -0.043069594 0.051801555 -0.0007433437
-0.02667442 -0.057671815 -0.068802506 -0.008510159 -0.08365537 0.00015245988 0.023167342 0.0028524145
0.022191891 0.021794327 0.021932814 -0.08930103 0.012088495 0.0053744162 0.016634123 -0.011580705
0.06719247 0.03931519 -0.0044725467 -0.031936467 -0.011609686 0.037478723 0.05518575 0.011947654
0.049056716 -0.10862092 0.025730392 -0.009950164 0.064673945 0.006912639 -0.047682893 0.088462956
-0.058798347 0.050270487 0.0261913 -0.016731912 -0.028720405 -0.0069167367 -0.026416356 -0.028791707
0.05717498 0.013015058 0.09989351 -0.06488238 0.030607136 0.003517451 -0.06136096 -0.023428153
-0.07332522 -0.06764227 -0.017697211 0.057619452 0.015847547 0.12468376 0.06021991 -0.008013193

bias f4 [256]
00000000: 5a73 2ebc 8e77 003d e902 3cbd 2b8b c33c
00000010: a873 68bd 3879 353d 8f1c d93c cd47 dabc
00000020: 208e 813c 386b c2bc 1f30 41bd 3b78 9bbd
00000030: f93c c8bc a67e 853d 1d25 333d 4a25 05bd
00000040: acd5 463d 6d06 28bd 7f13 4b3d 8bb8 833c
00000050: 4ddf 3ebd 98df 0cbc 06e3 a03c bce2 f83c
00000060: c30c 363c a9b7 07bd 21c4 c03c 4f6d 27bd
00000070: f06c cb3c 8d81 343d 4779 16bd ff1d 37bd
00000080: 0f50 8f3c ae7d 0b3d 2a1e 0bbd a791 13bd
00000090: e807 273d 5a65 923d 21d6 e33c 75ad 563d
000000a0: 0c3e 843d cb74 e83c 5d8f 31bd 0047 3e3d
000000b0: 44bd 223d 63e3 973c 983b ff3c 82d9 863d
000000c0: f4ba 863c 7ba5 903d af84 093d 05b5 f83c
000000d0: fa41 943d f48a ac3c e424 3d3d f383 b03d
000000e0: 8cab 523d 7c35 54bc 215f 283d b554 46bd
000000f0: 3362 b23c 91e1 cebb 0239 a3bc 2466 67bd
00000100: fc68 7a3d 00fa 3cbd e9ab c5bc 9ae8 ebbc
00000110: c1ad 57bd ad59 693d 410f 053d cebf dbbc
00000120: 9498 33bd 1075 913c 00a7 65bd 7aac 993c
00000130: efd1 10bb 612a 8f3b e270 863c c0ad 7c3c
00000140: d047 71bc cfc9 94bc 453a c0bc 70a0 3f3c
00000150: c133 a0bc 7c42 30bd 7ba0 323d abed 3c3d
00000160: 117c cfbc f732 1abc 44ea 4bbd ab4e 113c
00000170: 658b a8bc 992b 0b3d 4d26 653d c6c5 853d
00000180: e433 4f3d 4019 193d 14d1 cf3b 96db 283d
00000190: f197 8f3d 6ace 283d 2e7b 403d 3875 4bbd
000001a0: 4a33 4ebd 96c2 1b3d 7a11 4d3d 3a69 3dbd
000001b0: b827 503d a1c2 34bc 50f3 cb3c 2f45 8f3c
000001c0: e8ef 31bd b41b d13c a38c ecbc 0138 003d
000001d0: e835 12bd 3025 673a 399d b9bc 53c0 a33c
000001e0: 9feb 08bc 85cc 213c 0f27 fabc 5b49 9e3c
000001f0: 5b4f 96bc 07fe 4d3b 7265 113d 8c71 c13c
00000200: 2d95 913d 1bf9 313d 92a2 c73c 859f 16bd
00000210: 8033 1bbd dbe5 883c 61c4 2c3c 5ba7 283c
00000220: f8e9 5fbd 0146 65bd 2463 19bc cbd8 3dbd
00000230: 8006 7e3d 6601 21bd 68e5 8c3d 3870 4c3d
00000240: 2477 313d 7922 95bb cbe4 783d 3b57 51bc
00000250: 9307 253d f7a0 273c 9010 e3bb 5ed6 15bd
00000260: 7202 e7bc cee1 773c 7f26 c6bc 587a 413d
00000270: 9cdf b6bc a7cf 343d 73af 823c 1e19 a7bc
00000280: d7e5 213d c307 fd3c 3d69 00bd 4cc8 133d
00000290: 635b 4f3d 8e0a 7c3b e3a8 8a3c f270 c63c
000002a0: 7c6d c23c 5a8e d53c 8a90 d0bc b61c 573d
000002b0: 859f 8abc cb5a 0e3c ba3e 593c 0b91 8d3d
000002c0: 63bb 023d 307c cebc a522 8a3c 1525 5d3d
000002d0: b064 e83b 0cc7 823d 84af 4a39 634a 19bd
000002e0: daac 48bd bde7 4fbd c967 1a3d 1678 d63c
000002f0: 58b4 2fbd 7b3c 373d 039d 29bd bc0c 813d
00000300: 4a39 c83c 7227 42bc 0521 1a3d 4e8f 25bd
00000310: 592b ae3c 3927 703d 3d5f 1a3c dd3f 32bd
00000320: 1497 fc3b af43 103d 1a15 27ba 46f9 1a3d
00000330: c890 dd3c 33b4 30bd e83d a13c 789b 573d
00000340: 0e95 61bc c227 eabb 0eec 8c3d 3cb6 113d
00000350: 05b8 4ebd b781 323d b86b 1fbb a536 053d
00000360: 38b2 7c3c 7518 5a3d 4353 893c f2a9 8f3d
00000370: fe21 6ebd a952 b6bc 9e7d e5bb b9f6 193d
00000380: 6ad9 81bc f9dd 73bd 76d8 24bd bbca e6bb
00000390: 5462 e83c 4f8d 223d 1a3a 6c3b 2130 f53b
000003a0: 386f ee3b 0eec 583d 6321 0339 791e 1bbd
000003b0: 40af 46bd c60f 073d 0aa3 0f3d cf9c 113d
000003c0: a173 29bd f5c6 52bd 57c6 663d 1438 c53c
000003d0: 10dc 66bc fd96 7a3d 7ff9 ab3c 16db e9bb
000003e0: 86f9 833d 74d5 41bc 0aaa 733c 8b2b bb3b
000003f0: b1ae b93c ee04 76bd 2f75 1abb 2fde 813c
-0.010647619 0.031364016 -0.045901213 0.023870071 -0.056750923 0.044305056 0.026502876 -0.026645565
0.01581484 -0.023732767 -0.047165032 -0.075912915 -0.024443137 0.06518297 0.043736566 -0.032506265
0.048543617 -0.041021753 0.04957914 0.016079208 -0.046599675 -0.008598231 0.019639503 0.030381553
0.011111441 -0.033134136 0.023531022 -0.04087573 0.024832219 0.04406886 -0.036736753 -0.04470634
0.01749423 0.034055404 -0.033964314 -0.036027577 0.040779024 0.071482375 0.027812066 0.052411515
0.06457147 0.028376004 -0.043349613 0.04645443 0.03973128 0.018541044 0.031156346 0.06584455
0.016446568 0.07062813 0.033573803 0.030359754 0.072391465 0.021062352 0.04617776 0.08618917
0.05143313 -0.012952205 0.041106347 -0.048420627 0.02177534 -0.0063135107 -0.019924644 -0.056493893
0.061135277 -0.046136856 -0.024129825 -0.028797437 -0.05265594 0.056970287 0.03248525 -0.026824858
-0.04384668 0.017756015 -0.056067467 0.018759001 -0.0022097786 0.0043690656 0.016411249 0.015422285
-0.014726594 -0.018162636 -0.023465285 0.011695966 -0.019555928 -0.043032154 0.043610077 0.046125095
-0.025327714 -0.009411565 -0.04978396 0.008868854 -0.020574281 0.033977125 0.05594473 0.06531863
0.050586596 0.037377596 0.0063420627 0.04122504 0.070114024 0.041212477 0.046992473 -0.049672335
-0.05034188 0.03802737 0.050065495 -0.04624293 0.05081913 -0.011032731 0.024896294 0.017489044
-0.043441683 0.025525905 -0.028875655 0.03130341 -0.03569594 0.0008817492 -0.022657977 0.019989168
-0.008356958 0.009875421 -0.030536203 0.019322088 -0.018348387 0.003143193 0.035497136 0.023613714
0.07108531 0.043450456 0.024369512 -0.036773223 -0.03789091 0.016711166 0.010544867 0.010293807
-0.05466649 -0.055974964 -0.009362016 -0.046349328 0.062017918 -0.039307974 0.06879693 0.049911708
0.043326512 -0.0045512286 0.06076507 -0.012777145 0.040290426 0.010231248 -0.0069294646 -0.03658139
-0.028199408 0.01512952 -0.024188278 0.047235817 -0.022323422 0.044143345 0.015952801 -0.020397719
0.039525833 0.03088749 -0.031350363 0.03607969 0.050624263 0.003845844 0.016926235 0.024223778
0.023733847 0.026068855 -0.025459547 0.052517615 -0.016921768 0.008688639 0.013259584 0.069124304
0.031916987 -0.025205702 0.016862223 0.053990442 0.007092081 0.063856214 0.00019329606 -0.037424456
-0.04899297 -0.050758112 0.037696633 0.026180308 -0.0428966 0.044735413 -0.041409504 0.06301257
0.02444138 -0.011850225 0.037629146 -0.04041987 0.021260904 0.058631156 0.009422121 -0.043517936
0.0077084396 0.035220798 -0.0006373689 0.037835382 0.027046576 -0.0431406 0.01968284 0.0526385
-0.013768448 -0.007145853 0.06880961 0.035574183 -0.050468463 0.043580737 -0.002432568 0.032522816
0.01542335 0.05324598 0.016763335 0.07014836 -0.058137886 -0.022256212 -0.0070035 0.03758881
-0.015850741 -0.05953786 -0.040245496 -0.0070432103 0.028367199 0.039685544 0.0036045373 0.007482544
0.007276442 0.052959494 0.00012505571 -0.037870858 -0.048506975 0.032974027 0.035067596 0.035549935
-0.041370038 -0.05145927 0.056341495 0.024074592 -0.014090553 0.06117915 0.020992992 -0.007136713
0.06444077 -0.011830676 0.014872083 0.005711978 0.022666307 -0.060063295 -0.0023568382 0.015853016

weight f4 [256, 256]
00000000: ecf5 92bc eceb dc3c 2171 b9bc 62fb 743c
00000010: b196 9cbc 3529 4ebd b26c 8ebc bc63 1fbd
00000020: 6b2c 363c 6955 0a3c f740 803c 6aa0 4c3c
00000030: d3be 6bbc 3890 633c c172 4dba fd5f 553d
00000040: ae92 623d ffd5 05bc ed6a 7bbd e089 dfbc
00000050: 07dc d93c 2d8f 79bd 785e 103c eb34 06bd
00000060: b88f 943b d9f7 c3bc ca81 8abd 8357 84bd
00000070: 2ee4 85bd 58be 4f3d 3add 41bd 2d45 103b
00000080: d2e4 6dbd 0147 22bd 2ad8 593c 4151 5cbc
00000090: abe4 603d 2078 653c 5b58 8b3d 71c1 8bbd
000000a0: 4bb2 15bd b50e 0f3c 788e ca3c 4389 73bc
000000b0: 5c48 163d 8a08 06bd 5728 3ebd 990e 76bd
000000c0: 6948 6ebc 7ed0 85bc ea3d 21bc e9e3 2bbd
000000d0: cfb8 a8bc 852b 503c fec0 71bd a95b 573b
000000e0: e465 9f3c 904e 90bc 93a4 9abc 932d a33c
000000f0: 8399 0dbd d562 a3bc bd82 4bbc 7864 05bd
00000100: 0e86 59bc 0ce1 383d a029 8cbb 0daf 7dbc
00000110: e167 8f3c 8d5f 133d 1ae1 9cbc 7564 c2bb
00000120: 8773 203c 6ced 41bd ce28 d83c 7056 1d3d
00000130: 752f 6f3d eb28 23bd 8162 5cbd b36e 183d
00000140: acd2 54bc c32e 7d3c 0b33 19bd 5a87 e43c
00000150: c105 863c 0d5a 15bd 530f 6bbd 8e17 92bc
00000160: db21 91bd 082c 89bd fd56 1bbd 7e39 86bd
00000170: 165a aa3c 77ce 47bd 41ec 13bc 5c14 583d
00000180: 76aa 8dbd 08a7 a03b 707e f8bc 00b2 11bd
00000190: abf5 0bbd 51d7 833c bd2f b3bd 4a6b 3f3d
000001a0: d77b b23c 690b 5dbc a5e0 b4bc 07e0 5abd
000001b0: 04de 1f3d e776 fdbc 4a43 40bd 8899 ac3c
000001c0: af94 31bc 73c0 253b cb99 0bbd 2931 d6bc
000001d0: b776 53bd a4ea e83c 48c0 9cbc 6db8 3dbd
000001e0: b4f4 07ba 7e8e 053d 6dd4 2a3d 2225 bbbd
000001f0: d213 cabb 73f5 c43c 7a80 8cbd 65a5 493d
00000200: fff0 77bd 0cad 203d b1d1 f7bb 869c 87bd
00000210: 3c16 233d 8656 913c eb53 293c 45cd 77bb
00000220: c66b 093d efeb 5dbd 0ca0 473d 34ee 253d
00000230: 4123 d63c c7c5 38bd e769 6ebd 9f22 4ebd
00000240: c4af 7cbc 0462 6b3d 679a 6cbd e60b 76bc
00000250: 13cd 20bd 0b98 83bd a674 8e3c 0863 c1bc
00000260: d83d 69bd 5c59 013d 9dae 893c 5e7f 06bd
00000270: 0d43 20bd 41af d8bc 3167 7abc a278 493d
00000280: 6e1d 853d ab7f a2bc 7175 49bd 5d55 4a3d
00000290: 255d acbc a4c5 1dbd 2a3e 693d 8a73 703d
000002a0: d927 5bbc 6351 8cbc b328 683d e098 eebb
000002b0: 3865 2b3b 7f5d 983b e577 bf3c cbfc 46bb
000002c0: 7759 323d fc0e abbc c89b 0c3d 3218 623d
000002d0: f876 233d aca2 b6bc 8eae d0bc 6935 62bd
000002e0: a37a 9a3c bfcb b93d 3767 123d cbee 5f3d
000002f0: dddf 48bd 605c 253d 6fb1 3a3d 05d4 7dbd
00000300: 8081 413c f573 073c 327c 833c 6e39 88bd
00000310: 0589 f43c 7e7d f93c dd87 d9bc 165a cf3c
00000320: c90b 5fbd 64db 013d 2992 333c ecd3 453c
00000330: 1c82 4a3d 68e4 22bd 1514 84bc 364d 52bd
00000340: 4701 3d3c ebfe 54bd d06f 43bd d08f 30bd
00000350: a9e7 3a3d 541d debc 7468 063d 2fcd e2bc
00000360: 52e5 923b 2b75 213d 28f8 48bd 169c 523c
00000370: 7b62 1b3d 6a45 36bd b526 0d3d 3fac b73c
00000380: 62c9 fd3c 3d04 2f3d 7dc2 75bd 4f22 da3b
00000390: e139 1ebd 5555 0f3d 7a41 9cbb dd34 80ba
000003a0: 6f76 3a3d 4fba 01bd 8a82 203d 3bd1 4e3d
000003b0: df24 e23b 7a8b 523d b7e8 c63c c9e0 a1bc
000003c0: e9a1 f6bc d2db 47bd 32d7 33bb a430 3f3d
000003d0: 47e3 ee3c d85e 093d 11fd 263d c3b4 b0bb
000003e0: 6f01 a83b 17fd 453d 6d66 9e3c 3068 523c
000003f0: f791 05bd f8f3 3b3d e5fb 783d 722e bbbc
-0.01793953 0.026967965 -0.022636952 0.014952512 -0.019114824 -0.050332267 -0.017385814 -0.038913473
0.0111189885 0.008443215 0.015655978 0.012489418 -0.014388758 0.013889365 -0.0007837229 0.052093495
0.055315666 -0.008168696 -0.06138127 -0.027287424 0.026594175 -0.06092756 0.008811586 -0.03276531
0.004533734 -0.023921894 -0.067630365 -0.06462004 -0.065376624 0.050718635 -0.04733012 0.0022013888
-0.05807955 -0.039618496 0.013296166 -0.013447107 0.054905575 0.014005691 0.06803962 -0.068240054
-0.036546987 0.008731534 0.024726138 -0.014864269 0.0366901 -0.032722987 -0.04642519 -0.060072515
-0.014543631 -0.016334768 -0.009841422 -0.0419654 -0.020595936 0.012705688 -0.059021942 0.003286103
0.019457765 -0.017615587 -0.018877303 0.019919192 -0.03457023 -0.019944588 -0.012421307 -0.032566518
-0.01327659 0.045136496 -0.004277423 -0.01548363 0.017505588 0.035979796 -0.019150306 -0.0059323856
0.009793169 -0.047345564 0.026386645 0.03841251 0.058394868 -0.039833944 -0.05380488 0.037214946
-0.012989681 0.015453043 -0.037402194 0.027896572 0.016360166 -0.036462832 -0.05738766 -0.017833497
-0.070865355 -0.066978514 -0.037924755 -0.065539345 0.02079491 -0.048780885 -0.009028495 0.05275379
-0.069172785 0.004902724 -0.030333728 -0.035570145 -0.034169834 0.016093882 -0.0874934 0.04673318
0.021787567 -0.01349149 -0.022079775 -0.053436305 0.03903009 -0.030940486 -0.04693917 0.021069303
-0.010838672 0.002529171 -0.034082215 -0.026146488 -0.051626887 0.028432198 -0.019134656 -0.04631846
-0.0005186305 0.032606594 0.04170649 -0.09137942 -0.0061669135 0.02404282 -0.068604425 0.04923
-0.060532566 0.03922753 -0.007562839 -0.06621651 0.039816126 0.017741453 0.010334949 -0.003781156
0.033550046 -0.054180082 0.048736617 0.04051037 0.026139857 -0.04511049 -0.058206465 -0.050325986
-0.015422765 0.05746652 -0.057764437 -0.015017485 -0.039258074 -0.06425484 0.017389607 -0.023606792
-0.056943744 0.03157936 0.016806895 -0.03283631 -0.039126445 -0.026450755 -0.015283392 0.04918731
0.06499754 -0.019836267 -0.049184266 0.049397815 -0.021040509 -0.038518563 0.05694405 0.058703937
-0.0133762 -0.017128652 0.05667944 -0.0072814077 0.002615286 0.0046498175 0.0233726 -0.0030363079
0.04354235 -0.020881169 0.034328252 0.055198856 0.03990838 -0.022294365 -0.02547386 -0.055226717
0.018857306 0.090720646 0.035742965 0.05467109 -0.049041618 0.0403713 0.04557937 -0.061969776
0.01181066 0.008267392 0.016050432 -0.06651579 0.029850492 0.030455347 -0.026554042 0.025311511
-0.0544546 0.031703368 0.01096014 0.012074452 0.04944049 -0.039768606 -0.016122857 -0.051343165
0.011535949 -0.05200092 -0.047714055 -0.0431059 0.045631085 -0.027113594 0.032814458 -0.02768573
0.0044829035 0.03941838 -0.049064785 0.012854597 0.037935715 -0.044499792 0.034460742 0.022421
0.030979816 0.04272865 -0.05999993 0.006656922 -0.038629416 0.03499349 -0.0047685476 -0.000978138
0.045523103 -0.03167182 0.03918699 0.050492506 0.006901368 0.051402546 0.024280889 -0.019760506
-0.030106502 -0.04879362 -0.0027441499 0.046677247 0.029161109 0.033537716 0.040768687 -0.005392642
0.005127124 0.04833707 0.01933595 0.012842223 -0.032609906 0.045886964 0.0607871 -0.022849295

bias f4 [256]
00000000: 24dd 4f3a d747 36bd 85c0 22bc 4cd8 57bd
00000010: 7232 883d 13d3 82bd e639 90bc 310a b1bc
00000020: fb8b fd3c d87e d33c 83d3 42bd 936c ddbc
00000030: 727c 8cbc ba70 96bd 79b8 053d a0cf c3bc
00000040: e049 65bc cb22 ff3c e7c5 45bd 6869 0bbc
00000050: b1c1 a63c 7b19 bf3c 342d 383d 6238 b3bd
00000060: 6b9f 06bd d111 923d 8893 1b3d 5d11 483d
00000070: 20b9 81bd 5451 593d 4492 143c 369a bcbc
00000080: 053b 0abd 3494 9a3d c7ba a0bd 8845 6cbc
00000090: 232a 0dbd e6d6 833d 6e77 b43c b841 aebb
000000a0: d3c0 d13b cf78 323c e3af b8b9 9550 92bd
000000b0: dfd0 7c3d d02f 2fbc 3af2 46bc b3cd f73c
000000c0: ecc5 d53b 7938 17bc 7042 933d 39ff 553d
000000d0: f3e5 773d 8ee8 0ebd 7f8e ba3c 98b2 f13c
000000e0: 445b 23bd eec3 92bc 6b6a 7abc d40d 0abb
000000f0: 5982 bebc 7ec8 2ebc 5840 5b3d da08 c2bc
00000100: b34e 99bc 54c1 533d 1a64 bfbc 3c39 d9bc
00000110: 2cb6 363d dcd1 d1bc 0929 a03d 5ae5 0dbd
00000120: 114b 22bb ef80 b3bc 012e 083a 19e4 343b
00000130: 67f9 febb 1a46 03bd c548 003d e6c6 503c
00000140: 2fe3 063d f36f 473d c168 19bd a64f 163d
00000150: d40d ffbc 265e 55bb bf07 d73c 0aa4 d13c
00000160: 619f 30bd 88fb 9e3d 5ea7 ff3c 81a6 0dbd
00000170: 36cd e9ba 4112 053c 4c9d 253d 9685 543c
00000180: 7b02 bb3c 2973 b43c 7693 df3c b166 b23c
00000190: 73c5 94bd 48a2 613d acc8 58bc fb32 76bd
000001a0: db82 9ebd edb7 4c3c 6823 03bd 42ef 2bbd
000001b0: 5294 6e3d 986a f3bb e4ed 1fbb 7115 15bd
000001c0: e86c b63c ab00 03bd 12d0 493d 9183 de3c
000001d0: 0b4f 7c3c f3e1 803b 2544 873d d5c0 f8bc
000001e0: 0639 553c 3d75 823d d532 943d 3bc7 40bc
000001f0: fa38 643d e9ef 9fbd e4c5 973c b2a6 bcbc
00000200: 67e0 9abb 4599 813d 9989 313d 299b 03bd
00000210: f80c a93d d745 9a3c 0312 143d 32e1 adbc
00000220: ab9b 153c fefe f5bc 6c32 333c b365 9ebb
00000230: 75e5 3f3d f213 39bd ef1f 863a b35b 6d3c
00000240: e5d2 41bd cd2c b8bd 88f8 80bd b61b e0bc
00000250: a5a1 80bc c95e 2a3d 399c 833d 1bfd 2dbd
00000260: 98bb c7bc be38 41bd bda0 9b3c 026a 033d
00000270: f8f6 0dbd f50b 583c f045 043d 5077 1e3d
00000280: 4915 ae3c ef72 80bd 6444 643b b52f 47bb
00000290: e114 143d fed0 5dbd 1831 773d 1398 45bd
000002a0: 92c9 05bd 5037 46bd b4d7 5cbd 6fd7 9e3d
000002b0: 0843 05bc e261 6cbd b1d2 853c 3eb4 f839
000002c0: b64d be3d f9fe 9b3b 9a83 9a3c 8dfd b83b
000002d0: c394 8e3d 21b0 263d caa1 913d aa29 16bc
000002e0: ea1b e43c 38b7 72bd 4df2 3c3d 8d35 80bc
000002f0: 63b5 323d 15a2 90bc 4668 983d ce00 4b3d
00000300: 0b65 973b b766 973d ff71 42bd 5f6b 80bd
00000310: 5a63 db3b 39fa 91bc cda9 e93b 5e5a 49bd
00000320: 4368 a23b 3525 023d 5b57 bfbc e6bb 393d
00000330: 02e9 1abd ad3b 26bd 459c 0abd f1db 023b
00000340: 217b 2fbd 90d7 4b3d a97d 1c3b 9266 0abd
00000350: adb5 f23c ec89 bb3c 02b4 a4bc 6ce8 9e3d
00000360: 1e22 c0bc 8f26 e9bc 7a6e 88bc a38c aa3c
00000370: f909 683d afa9 66bd 3755 173c 0c02 5c3d
00000380: 16cc 1bbc 22a8 503d 2317 39bd 12a8 21bd
00000390: 1844 52bd 30eb b23b 62fd f83c eb13 b1bd
000003a0: f0ae 863d c972 163d a6eb 48bd 3fac d93c
000003b0: 1641 fe38 976c 953d b26e ef3c 7d9f b6bc
000003c0: 068d 933d 7ad3 75bb 558f e33c a610 15bd
000003d0: 4bd0 35bd 2e06 babc e5f4 cdbc d1f0 1c3d
000003e0: 9a49 d0bb 47f6 6a3d fbb0 a1bc a2ee a7bc
000003f0: 53f3 8f3d 1ce3 0b3d ed0e 293a 01e7 e13c
0.0007929376 -0.044502106 -0.009933596 -0.05269651 0.06650247 -0.063879155 -0.017605733 -0.021611305
0.030950537 0.02581732 -0.047564995 -0.027029311 -0.017149184 -0.0734572 0.03264663 -0.023902714
-0.013994664 0.03114452 -0.048284438 -0.0085090175 0.020356031 0.02332758 0.044964984 -0.087509885
-0.032866877 0.071323045 0.037982494 0.048844684 -0.06334138 0.053056076 0.009068076 -0.023022752
-0.03374769 0.07547799 -0.07848125 -0.014420874 -0.034464013 0.06437473 0.022029605 -0.005317893
0.0064011603 0.010893061 -0.0003522626 -0.07144276 0.061722632 -0.010692552 -0.012142712 0.030249452
0.0065238383 -0.009229773 0.07190406 0.052245352 0.06052203 -0.03488975 0.022773026 0.029504105
-0.03988196 -0.017915692 -0.015284161 -0.002106537 -0.023255514 -0.010667918 0.05352816 -0.023685861
-0.018714285 0.051698044 -0.023363162 -0.02651655 0.044607326 -0.025612764 0.07820327 -0.034642555
-0.0024763981 -0.021912066 0.00051948434 0.0027601777 -0.007781196 -0.032049276 0.0313194 0.012742734
0.032931503 0.048690747 -0.037453417 0.036697052 -0.031134523 -0.0032557338 0.02624881 0.025590915
-0.043120746 0.077628195 0.031207737 -0.03458262 -0.0017837647 0.008122028 0.040433213 0.0129713025
0.022828331 0.022027569 0.027291995 0.021777483 -0.07264223 0.055086404 -0.013231438 -0.060107213
-0.077398024 0.012495023 -0.032016188 -0.04197622 0.058246918 -0.0074284784 -0.0024403268 -0.0363974
0.022268727 -0.03198306 0.049270697 0.027162345 0.015399705 0.0039331852 0.066047944 -0.030365387
0.013014084 0.06370018 0.07236258 -0.01176625 0.0557184 -0.07809431 0.018526979 -0.023028705
-0.004726458 0.06328062 0.043344114 -0.032130394 0.08254427 0.01883213 0.03614999 -0.021225546
0.009131352 -0.030028816 0.0109373145 -0.004833901 0.046849687 -0.045185037 0.0010232906 0.014487195
-0.047320265 -0.0899292 -0.062974036 -0.027356964 -0.015702078 0.0415943 0.064262815 -0.04247771
-0.024381444 -0.047173254 0.018997544 0.03208352 -0.034659356 0.0131864445 0.03229326 0.038688004
0.021250384 -0.06271922 0.0034830803 -0.0030393426 0.036152724 -0.05415439 0.060349554 -0.048240732
-0.032662936 -0.048392594 -0.053916648 0.077559344 -0.008133657 -0.057710536 0.016335817 0.00047436537
0.09292166 0.0047606197 0.01886158 0.00564546 0.06961968 0.040695313 0.07110937 -0.009165207
0.027845342 -0.059256762 0.046129514 -0.015650535 0.043630015 -0.017655412 0.074417636 0.049561314
0.0046201996 0.07392638 -0.047471996 -0.062704794 0.0066951932 -0.01781951 0.0071308375 -0.049158446
0.0049562766 0.031773765 -0.023357084 0.04534521 -0.03781987 -0.040584255 -0.033840436 0.001996752
-0.042842034 0.049766123 0.002387861 -0.033789225 0.029627645 0.022892915 -0.020105366 0.07759175
-0.023453768 -0.028460769 -0.016654242 0.020819014 0.056650136 -0.056314167 0.009236625 0.05371289
-0.009509107 0.050941594 -0.04518808 -0.039466925 -0.05133447 0.0054601654 0.03039426 -0.08646377
0.065763354 0.03673056 -0.049052857 0.026571391 0.00012123787 0.072961025 0.029227588 -0.022292847
0.072046325 -0.0037510083 0.027778307 -0.03639283 -0.044388097 -0.022708025 -0.025141189 0.038315598
-0.0063564302 0.057363775 -0.019737711 -0.020499531 0.07028832 0.034152135 0.00064490625 0.027575972

weight f4 [60, 256]
00000000: ed6b 75bd d7c9 a13c 9eec a03d 3c77 95bc
00000010: 9faf fe3c 2fa1 11bc 5e54 cebd 8194 1f3c
00000020: 1d97 963c 9f23 b43c 36eb 113c 3b84 ba3d
00000030: 2f3a 39ba db67 f13c f47c 333c 351b 283d
00000040: 6dd5 85bc 2cdf 143d 8d4e 5f3d b27d 25bd
00000050: b34d 09bd 87a6 fabc ea82 993c 938f 483c
00000060: b83c 713b 76c0 9f3c edf6 30bd 09cb fcbc
00000070: 99e1 2a3d 6949 473d 5008 2fbd 04c9 c7bc
00000080: f49d 0ebd be71 503b 022a 993d 7401 1cbd
00000090: 5710 96bd ab83 67bd 543d 9a3c d06b 463d
000000a0: 4573 e0bb 8ca6 36bc 98c1 393c 7d6b 8b3d
000000b0: ca70 9cbd 099d 85bd a350 243b 3894 46bd
000000c0: a906 60bd 1a17 01bd 67a4 80bd feb6 71bd
000000d0: 8275 a9bd 7633 2b3d eec0 5abc 5794 2dbd
000000e0: e8d9 da3b 2870 ba3c 5196 203d 25ce 7cbd
000000f0: 087e 883d 622e aebd b4c5 2ebd 3744 bb3d
00000100: eb5f 423d f0db 06bb 6850 3b3d 723e bf3c
00000110: 0bba 88bd 532a eb3a 5fb8 4b3c e09a 68bd
00000120: 8c8e 9cbd 2da5 6c3d fbd5 073d 7a16 053d
00000130: 9755 7239 2b93 7fbc 01e7 4e3d 0dde 1f3d
00000140: eb87 73bd b003 b2bb 4e95 78bc a311 3cbd
00000150: 3f14 f8bc c115 603d 9a25 9dbd d837 783d
00000160: 0a4a b2bb 438a a4bc a58f 9ebd bde3 8fbd
00000170: 9940 9e3c a8c7 e2bc 3bab 173d 008c 4a3d
00000180: b19d 353d 3d59 073c 4296 263d 98aa b4ba
00000190: 2a02 993d 404f d33c 12dc bc3c c660 9ebd
000001a0: 9cd2 7b3d e8ea 8dbd da05 c1bc 80a8 36bd
000001b0: 7226 6cbc d4d1 543d c14c 8c3c 8243 883d
000001c0: 7a26 05bc a82f 86bc 3919 2a3c 630d f8bc
000001d0: 70dd 7ebd 6c0e 9dbd aab5 e4bd 3984 28bc
000001e0: ce27 05bd cbb5 94bd 4ca3 e8bc 94e7 963d
000001f0: b4a2 03bd fd4a cc3b e191 d5bd 2ecc 153d
00000200: d1d4 303d 078f 2a3d afec b83c fdc5 a1bc
00000210: 5243 5fbd 018d 003d f7e8 5cbd bdcc f43d
00000220: e5b8 7cbc 7237 303d 3765 7ebb 281d b73c
00000230: 132e 9ebd 7ef0 8b3c 1bd6 4bbd 715a e7bb
00000240: a5fa 9a3d 94b2 0bbd a1d6 933c 9f29 693c
00000250: fd1a fabc 9201 333d bfa7 82bd 6225 ffbc
00000260: 3a4d 453d 4286 8ebc 1bd6 5fbd 6375 0a3c
00000270: 22e2 fb3d 6de4 f83c ad91 0ebd 1aa0 003d
00000280: 5011 8ebd b657 fa3b f194 273d 0adf aebc
00000290: 0f63 e9bb 854d 693d 45b1 44bc 8b9e 9abd
000002a0: cab4 bf3b 4851 27bc 4154 afbd 112d 3cbd
000002b0: 9871 86bd c811 173d 73b5 4bbd cec6 4d3b
000002c0: 6522 3c3d 1b15 3abd f69d 983c 147d 3b3d
000002d0: 13e9 773c de76 1bbb 91d0 233d bf4d b43b
000002e0: da29 c2bc ba52 3fbd 65ff 8abd 2d72 e33b
000002f0: bf1c dbbc bec7 ddbc a1a0 f93a 2001 463c
00000300: 9d7d 51bd 7160 8a3d 1406 cbbc 615a 873d
00000310: 39d7 433d ce51 f3bc b6fd 46bd 4c66 443d
00000320: 5dd8 65bd 2186 39bd 135f 1fbd 0787 0f3a
00000330: 9275 373d 11ef 51bc 7833 823e b6bb 56bd
00000340: e1b1 efbc 2a17 62bd a8ac abbc ccad 83bd
00000350: 6ada ecbc c489 9bbc 7e60 95bc 549a 06bd
00000360: 6272 8abc 72fa 68bd b1e7 1c3d 411d 0b3d
00000370: 71d2 98bd 3233 203d a94b b23c 6e25 89bd
00000380: a300 083d 40e4 4bbd aaf7 a739 3fed ddbc
00000390: 497a dabc f012 563d 089b 07bd d5fb 8bbc
000003a0: d3b5 8cbc 7cae 163d 27f6 88bd ca6e 2e3d
000003b0: b8af 033d 7078 f23c c540 c83c 06f7 22bd
000003c0: 7ab2 9d3b c025 3dbc ad22 3abd b5a1 15bd
000003d0: 1745 973b b221 4abd 837f 213d 47c5 d4bc
000003e0: 6c32 173d 5ae7 823d 882a 96bc 2242 3d3d
000003f0: 5792 8dbd 1b86 e6bc 2a6f 9e3d 5ec7 b5bd
-0.05991738 0.019749565 0.07857631 -0.018245332 0.031089602 -0.008888527 -0.100746855 0.009739996
0.018382603 0.021989642 0.008906176 0.09107252 -0.000706586 0.029468467 0.010955084 0.04104157
-0.01633712 0.036345646 0.05451827 -0.040403076 -0.033521365 -0.030596985 0.018739183 0.012241262
0.0036809873 0.019500952 -0.043204237 -0.030858533 0.041719053 0.048653994 -0.042732537 -0.024387844
-0.034818605 0.0031806077 0.074787155 -0.038087323 -0.07327335 -0.056522053 0.018828072 0.04844266
-0.0068496787 -0.011148106 0.01133766 0.06807611 -0.076387 -0.06524093 0.0025072477 -0.048481196
-0.05469385 -0.031516172 -0.06281357 -0.059012406 -0.08274366 0.041797124 -0.013351662 -0.042377796
0.0066788085 0.022758558 0.039205853 -0.061720032 0.066646636 -0.085049406 -0.042669013 0.0914387
0.047454756 -0.002057787 0.04573098 0.023345206 -0.0667611 0.0017941691 0.012434094 -0.056788325
-0.07644376 0.05777471 0.033163052 0.03249214 0.00023110803 -0.015599052 0.05051327 0.039030124
-0.059455793 -0.0054325685 -0.015172316 -0.045915257 -0.030283092 0.054708246 -0.076731876 0.06060013
-0.005440955 -0.02008546 -0.07742242 -0.070258595 0.019317912 -0.027683094 0.037028532 0.04944992
0.04433984 0.008261022 0.04067064 -0.0013783751 0.07471116 0.025794625 0.023054156 -0.07733302
0.06148015 -0.069295704 -0.02356236 -0.044594288 -0.014413463 0.05195792 0.017126443 0.06653501
-0.008126849 -0.016380146 0.01038199 -0.03027982 -0.062222898 -0.076687664 -0.11167462 -0.010285431
-0.032508664 -0.07261237 -0.028398179 0.07368389 -0.032137588 0.0062345252 -0.10428215 0.036571674
0.043171708 0.041640308 0.022573797 -0.019747728 -0.05450756 0.03138447 -0.05393311 0.11953113
-0.015424942 0.043021627 -0.0038817653 0.02235277 -0.07723632 0.017082449 -0.049764734 -0.007060342
0.07567338 -0.034105852 0.018046679 0.014231115 -0.030530447 0.04370267 -0.06379651 -0.031145755
0.048169352 -0.017398003 -0.054647546 0.008450839 0.12298991 0.03038236 -0.034806896 0.031402685
-0.06936896 0.0076398505 0.040913526 -0.021346588 -0.0071224044 0.056958694 -0.012005155 -0.07549771
0.005850409 -0.01021225 -0.08560992 -0.045941416 -0.06564635 0.036882192 -0.04973359 0.0031399014
0.04593124 -0.045430284 0.01863001 0.04577358 0.015131253 -0.0023721973 0.039993826 0.005502432
-0.023701597 -0.046709754 -0.06786994 0.006941101 -0.026747106 -0.027072784 0.0019045064 0.012085229
-0.051145185 0.06756676 -0.024783172 0.06609035 0.047812674 -0.029702093 -0.0485818 0.04794912
-0.056114543 -0.04529393 -0.03890903 0.0005475138 0.04478986 -0.0128133455 0.25429893 -0.05242511
-0.029259624 -0.055197872 -0.020956352 -0.064296335 -0.028912742 -0.01898659 -0.018234488 -0.032862023
-0.016900245 -0.05687947 0.038306896 0.033963446 -0.074620135 0.039111324 0.021764593 -0.06696592
0.033203732 -0.049778223 0.00032037246 -0.027090667 -0.026669638 0.052264154 -0.033106834 -0.017087856
-0.017176544 0.036787495 -0.06687575 0.042586125 0.03215 0.029598445 0.024444947 -0.03978636
0.004812536 -0.011544645 -0.045443226 -0.03653117 0.0046163904 -0.04934854 0.039428245 -0.025972975
0.03691332 0.06391783 -0.018330827 0.046205647 -0.06912678 -0.028140118 0.077360466 -0.08875917

bias f4 [60]
00000000: 1cc2 7bbd b960 96bd 9ac7 413d e1ae 6f3a
00000010: 00f7 933d 0243 903d e777 2e3d 2534 6b3d
00000020: 8819 03bd a99d e2bc b2ee 613d 721a 0bbd
00000030: 28db 7b3d 77ab c8bc 6b69 063d fc2d f43c
00000040: 8925 663d 9c77 b33c f807 833c 9da0 9339
00000050: 91d5 4fbc 9354 65bc bfc2 1bbd c2a7 1839
00000060: 4ef8 9abc 5570 ec3c 19fd 813d 3219 c2bc
00000070: 5935 6abd 9d04 32bc a283 aabc acc7 9a3a
00000080: 37a1 02bb 9067 ef3c dbdb 653c 8c47 8c3c
00000090: 1fc1 cfbc 9235 3a3c 2048 193d eec7 c23c
000000a0: d480 163c 37d6 a0bd 545c 223d c1ba 59bc
000000b0: 7c46 73bd 9713 f83a 5845 8bbc 50d5 46bd
000000c0: 9785 a43c af29 cc3b 40ae 833d 6c2e 013d
000000d0: 5af1 e3ba 9b2d abba aa0f ad3d bfdf 573c
000000e0: 40b7 a73d b9ed 06bd db79 593c 2779 e1bc
-0.061464414 -0.07342667 0.047309496 0.00091431855 0.07224846 0.07044031 0.042594817 0.057422776
-0.03200677 -0.027663069 0.05515928 -0.033960767 0.0614883 -0.024495823 0.03281538 0.029807083
0.05618814 0.02190762 0.01599501 0.0002815769 -0.012685196 -0.013997215 -0.03802752 0.00014558344
-0.018917229 0.028862158 0.06347103 -0.023693655 -0.057179783 -0.010865358 -0.02081472 0.0011808774
-0.0019932517 0.029224187 0.014029468 0.01712396 -0.025360642 0.011365311 0.0374223 0.023776975
0.009185988 -0.07853358 0.039638832 -0.0132891545 -0.05939339 0.0018926737 -0.01700084 -0.048543274
0.020083232 0.006230555 0.0642972 0.031538412 -0.0017390654 -0.0013059856 0.08450253 0.013175904
0.08189249 -0.032941554 0.0132736815 -0.02752359
