data/example_dynamics_data/kitchen_MLP_qhat3.pth (torch, 664463 bytes, 8 tensors)

weight f4 [256, 70]
0	0x3e30fb21	0.17283298
1	0x3dccd04b	0.10000666
2	0xbddfbb70	-0.10924423
3	0xbd49e594	-0.04929121
4	0x3d5cb0fb	0.05387972
5	0xbdf7a224	-0.12091473
6	0xbd608068	-0.054809958
7	0xbce12497	-0.027483268
8	0x3c816479	0.01579498
9	0x3cf60caf	0.030035345
10	0xbc43c135	-0.01194792
11	0x3de7cb77	0.11318105
12	0xbd57c11d	-0.0526744
13	0xbd3848eb	-0.044991415
14	0xbc8dae3f	-0.017295001
15	0x3d9975a2	0.0749314
16	0xbda85611	-0.08219541
17	0xbc875810	-0.016521484
18	0xbd00639e	-0.031345002
19	0x3d4c0ba4	0.04981579
20	0x3ce5c384	0.02804733
21	0xbd336c2e	-0.04380434
22	0x3d9bcebd	0.076077916
23	0x3d4c1669	0.04982606
24	0xbd24e548	-0.040257722
25	0xbe4a892a	-0.19778886
26	0xbdded4ca	-0.1088043
27	0xbe13323a	-0.14374629
28	0xbe2b4ef1	-0.16729333
29	0xbd98f26b	-0.074681126
30	0x3caf8277	0.021424515
31	0xbbd91875	-0.00662523
32	0xbded7588	-0.11594683
33	0x3dbc43c2	0.09192611
34	0x3db7912f	0.089632384
35	0xbd526c26	-0.05137267
36	0x3d6de443	0.058079015
37	0x3d50fd64	0.051022902
38	0x3c7688e9	0.01504729
39	0x3dc715b1	0.09720934
40	0xbda944a6	-0.08265047
41	0xbd9b39d7	-0.075793914
42	0x3dffb32e	0.12485348
43	0x3d465ae2	0.048426516
44	0xbd50dde2	-0.050992854
45	0x3d61484e	0.055000596
46	0x3dd489ec	0.10377869
47	0x3e07514b	0.13214605
48	0xbda1f281	-0.07907582
49	0xbd1bed01	-0.03806782
50	0x3dd83a10	0.105579495
51	0x3dee7fd4	0.11645475
52	0xbdb0bc49	-0.086296625
53	0xbd85f40b	-0.06540688
54	0xbc90342c	-0.017603002
55	0x3d2ad8dc	0.04171072
56	0xbca1e597	-0.019762797
57	0x3ccab432	0.024744127
58	0xbd22e6db	-0.039770942
59	0xbd20fbc5	-0.039302606
60	0xbd84a0e0	-0.06475997
61	0xbd4bd6a5	-0.049765248
62	0xbd5ef96a	-0.05443708
63	0xbda79697	-0.081830196
64	0xbd2f7db3	-0.042844485
65	0x3d57dc2e	0.052700214
66	0xbcd45612	-0.025919948
67	0x3d92f950	0.07176459
68	0xbacaffb2	-0.001548758
69	0x3cef8b2b	0.029241165
70	0xbbfc8671	-0.0077064564
71	0xbc44f6c8	-0.012021728
72	0xbce6689d	-0.028126055
73	0x3ab50de3	0.0013813343
74	0x3d61c49d	0.055119146
75	0x3cd0575a	0.025432277
76	0x3d87bcf1	0.066278346
77	0xbca795e0	-0.020457208
78	0xbc91bd39	-0.017790424
79	0x3d025820	0.031822324
80	0xbe647740	-0.22311115
81	0x3e0d4005	0.13793953
82	0x3c70036a	0.0146492515
83	0x3e51f10f	0.20502113
84	0xbe18b046	-0.14910993
85	0x3d294d05	0.041333217
86	0xbda3bec8	-0.07995373
87	0x3d8a219b	0.06744691
88	0x3d3d072e	0.046149425
89	0x3d57b88c	0.052666232
90	0x3d09380c	0.033500716
91	0x3e2dca69	0.16971745
92	0x3d960fa2	0.073272005
93	0xbd7f3ed0	-0.062315762
94	0x3b4320c0	0.002977416
95	0xbdac5f47	-0.0841661
96	0x3ced46b2	0.028964374
97	0xbd908346	-0.070562884
98	0x3da3b1f1	0.07992924
99	0xbed0379a	-0.4066742
100	0x3dd2ef86	0.10299592
101	0x3ddd79b7	0.10814231
102	0xbcb8626b	-0.022507867
103	0xbd0667de	-0.0328139
104	0x3d8925d1	0.06696666
105	0x3dab6c5d	0.08370278
106	0xbb8a6fb9	-0.004224744
107	0xbc28f92d	-0.010313314
108	0x3d90e67b	0.07075211
109	0x3d3efd0a	0.046628036
110	0x3ddc03dd	0.10742924
111	0x3ddeba08	0.108753264
112	0x3cb47c29	0.02203186
113	0xbd388418	-0.04504785
114	0x3dafaf6e	0.085783824
115	0x3dc742e1	0.09729553
116	0xbd8899f8	-0.06669992
117	0xbde304d3	-0.110849045
118	0xbd049abf	-0.03237414
119	0xbd874387	-0.06604677
120	0x3d95b56b	0.07309993
121	0x3d1f9fb7	0.038970675
122	0xbdd40afe	-0.10353659
123	0x3d8a21ab	0.06744703
124	0xbd7258ec	-0.059166834
125	0x3ddb210f	0.10699665
126	0xbde3ca63	-0.111225866
127	0xbd8e0f2f	-0.0693649
128	0xb9279231	-0.00015980822
129	0x3de57e79	0.11205763
130	0x3c8f6ed4	0.017508902
131	0x3d6c51c2	0.057695158
132	0x3ded830c	0.11597261
133	0xbe204613	-0.15651731
134	0x3d820069	0.063477345
135	0xbd17de7e	-0.03707742
136	0x3b033f8e	0.0020026895
137	0xbd337130	-0.043809116
138	0xbb5d4f15	-0.003376906
139	0x3dccac1f	0.09993767
140	0x3df66b2d	0.12032161
141	0x3df6876d	0.12037549
142	0x3d5db82b	0.054130714
143	0xbbce6161	-0.0062982296
144	0x3e87fdee	0.2656092
145	0xbd9a3e45	-0.07531408
146	0x3daa5832	0.08317603
147	0x3d8fc9ec	0.070209354
148	0x3d3c8cb6	0.04603263
149	0xbd737f58	-0.059447616
150	0xbdb6f1a1	-0.08932806
151	0xbd12d80f	-0.03585058
152	0x3dd3a654	0.10334459
153	0x3e582d17	0.2111095
154	0x3cc53557	0.024073286
155	0x3e42c524	0.19020516
156	0x3e01e82d	0.12686224
157	0x3d9ee03e	0.077576146
158	0x3da9b025	0.0828555
159	0x3eaa0192	0.33204323
160	0x3d24afe1	0.040206794
161	0xbe85ec31	-0.26156762
162	0x3de34467	0.11097031
163	0x3da40195	0.08008114
164	0xbe27c4db	-0.16383688
165	0x3d8d5659	0.06901235
166	0x3ba23e21	0.004951254
167	0x3dc7a34a	0.09747942
168	0x3ddaa6b9	0.10676331
169	0xbe0945c9	-0.13405527
170	0xbdeca499	-0.11554832
171	0xbba41187	-0.0050069722
172	0x3cba33cf	0.022729782
173	0x3cb1a8fd	0.021687025
174	0xbdd56983	-0.104205154
175	0x3c37716e	0.011196477
176	0xbd6eb975	-0.058282334
177	0xbceb1f0e	-0.028701331
178	0x3de33af5	0.110952295
179	0xbd7b064a	-0.061285295
180	0xbdacd516	-0.084390804
181	0xbd2715af	-0.040792163
182	0xbd461ee1	-0.048369292
183	0x3d96f1ec	0.07370362
184	0x3d9f1d16	0.077692196
185	0x3dcd827a	0.10034652
186	0x3d83bc57	0.06432407
187	0x3d78db79	0.06075618
188	0x3adb8656	0.0016748409
189	0xbbcdfcc5	-0.006286236
190	0xbded3b84	-0.11583617
191	0xbc57752c	-0.013150495
192	0xbd5d0be4	-0.053966418
193	0x3d5e4494	0.05426462
194	0xbd047f70	-0.032348096
195	0xbd185de0	-0.0371989
196	0x3dc34fd1	0.09536708
197	0x3dda4880	0.106583595
198	0x3de52c02	0.111900344
199	0x3dd60f5d	0.10452149
200	0x3d313681	0.04326487
201	0xbb91cae5	-0.0044492357
202	0x3daea28f	0.08527099
203	0xbe1d3fc8	-0.15356362
204	0x3d735aa4	0.059412614
205	0x3d2a90bd	0.04164194
206	0xbdcc903c	-0.09988448
207	0x3bd54f0d	0.0065096677
208	0xbd3ef746	-0.046622537
209	0xbd00f7d9	-0.031486366
210	0xbe6f73b8	-0.23383987
211	0x3e17ef02	0.14837268
212	0x3dd4d461	0.103920706
213	0x3d7ff2a4	0.06248726
214	0x3e10c620	0.14138079
215	0xbc9a9bb9	-0.018873082
216	0xbc5b85f6	-0.013398638
217	0xbe01d3c0	-0.12678432
218	0xbdcfa886	-0.10139565
219	0xbb591c5e	-0.003312848
220	0x3e32da95	0.17466195
221	0xbd7bc85d	-0.06147038
222	0x3bf76e21	0.00755097
223	0x3c85f85e	0.016353782
224	0x3ddb7b70	0.10716903
225	0x3cd6847d	0.026186222
226	0xbd55da76	-0.052210294
227	0xbe3598e9	-0.17734112
228	0xbe794677	-0.24343286
229	0x3eae5814	0.34051573
230	0xbdef9e3a	-0.11700101
231	0xbe9b958b	-0.3038753
232	0xbd80c3b8	-0.062873304
233	0x3db03500	0.08603859
234	0xbe0601fa	-0.13086691
235	0x3d9b8a6e	0.07594763
236	0xbdbe9102	-0.09305002
237	0x3dce32d2	0.10068287
238	0x3aaa1724	0.0012976867
239	0xbd410480	-0.047123432
240	0x3dda0432	0.106453314
241	0xbd1ac311	-0.037783686
242	0x3db3e3ef	0.08783709
243	0x3ddfbae6	0.1092432
244	0xbdb9c780	-0.09071255
245	0x3beb51ad	0.0071813674
246	0xbdf4692e	-0.11934124
247	0xbda894c1	-0.082314976
248	0x3d37ecb0	0.044903457
249	0xbd086418	-0.03329858
250	0xbdf42b00	-0.11922264
251	0xbbb8e7a0	-0.005642846
252	0x3d1b7cc3	0.03796078
253	0xbd427d6e	-0.0474829
254	0xbd97c29d	-0.074101664
255	0xbbf48857	-0.007462542

bias f4 [256]
0	0xbdb61c61	-0.088921316
1	0x3d0be5c5	0.034154672
2	0x3dab0616	0.0835077
3	0xbd4c7844	-0.04991938
4	0x3d4fda6b	0.05074541
5	0x3cae4ef3	0.02127788
6	0x3d89cca5	0.06728486
7	0x3d543230	0.051805675
8	0xbd82540c	-0.06363687
9	0xbd99b59d	-0.07505343
10	0x3bbe3402	0.0058045397
11	0x3d6df24f	0.05809241
12	0xbe026784	-0.127348
13	0x3caac6fb	0.020846834
14	0xbcffc9ff	-0.031224249
15	0x3cbad52a	0.022806723
16	0x3d9fa796	0.07795636
17	0xbdd17a8e	-0.102284536
18	0x3cddeec4	0.027091391
19	0x3e0a2179	0.13489331
20	0x3dfe7703	0.124250434
21	0x3d219b5f	0.039454814
22	0xbe099dc0	-0.13439083
23	0xbd8c82ef	-0.06860911
24	0xbdea6fbf	-0.11447095
25	0xbd4e79de	-0.05040919
26	0x3dc98928	0.098406136
27	0xbb0f0006	-0.0021820082
28	0xba5c8ef8	-0.0008413638
29	0xbdcfa337	-0.10138553
30	0x3da7ab04	0.081869155
31	0x3c0c6f08	0.008571394
32	0x3c7382e1	0.014862747
33	0xbd5d6e01	-0.054059986
34	0x3e0282ef	0.1274526
35	0xbc2db63f	-0.010602533
36	0x3db700fb	0.08935734
37	0x3d77e0c8	0.060517102
38	0xbd290df4	-0.041273072
39	0x3c13a7e9	0.009012201
40	0xbda36af0	-0.07979381
41	0xbdb2c56e	-0.08729063
42	0xbd8e545f	-0.06949686
43	0x3dc288ef	0.09498774
44	0x3d15df63	0.03658999
45	0xbd79e782	-0.0610118
46	0xbd7c1000	-0.061538696
47	0x3dd8747a	0.10569091
48	0x3d567d3e	0.052365534
49	0xbd9af2a8	-0.07565814
50	0xbd9909d7	-0.0747258
51	0x3db30129	0.08740456
52	0xbdad899a	-0.08473511
53	0xbd4434f9	-0.04790208
54	0x3ca9988a	0.02070262
55	0xbbb801ac	-0.0056154337
56	0x3d3ee585	0.046605606
57	0x3c68cc03	0.014208796
58	0xbdb1d4ce	-0.086831674
59	0x3dcfcae3	0.101461194
60	0xbcae5205	-0.021279344
61	0x3d30dd83	0.04318
62	0xbc58077a	-0.013185376
63	0x3ddf2f57	0.10897701
64	0xbd406f84	-0.04698135
65	0xbd535a06	-0.051599525
66	0x3d3e9f02	0.04653836
67	0xbce922e9	-0.02845903
68	0xbdad9a5a	-0.08476706
69	0x3db8474e	0.08997975
70	0x3d38e7fe	0.04514312
71	0xbda61388	-0.08109194
72	0x3d7e2aeb	0.06205265
73	0xbd9d2f2e	-0.076750144
74	0xbdac08b1	-0.08400095
75	0x3df65f0e	0.12029849
76	0x3c0eab44	0.008707825
77	0xbdc32b39	-0.095297284
78	0xbd74f727	-0.059806015
79	0xbe0f3199	-0.13983764
80	0xbd949283	-0.072545074
81	0xbd0378fa	-0.032097794
82	0x3d2b86ad	0.041876484
83	0x3c9180f0	0.017761678
84	0x3dcd8f7f	0.10037135
85	0x3cd4ed17	0.02599196
86	0xbda7ec46	-0.081993625
87	0x3d9db638	0.07700771
88	0xbd62f210	-0.05540663
89	0x3da036e7	0.07822972
90	0xbdea7c37	-0.11449473
91	0x3de97580	0.113993645
92	0xbe172381	-0.14759637
93	0x3ac11066	0.0014729619
94	0xbbafeea1	-0.005369023
95	0x3ca1036d	0.019654954
96	0xbd48d22b	-0.049028557
97	0x3d9bf17a	0.076144174
98	0x3e10ba55	0.1413358
99	0xbdac90cd	-0.08426056
100	0x3e043a04	0.12912756
101	0x3bb8c695	0.005638907
102	0x3db1b95c	0.086779326
103	0x3d8fd2e8	0.07022649
104	0xbc7b5dc7	-0.0153421825
105	0x3dd65ea3	0.10467269
106	0x3b15aadb	0.0022837433
107	0xbd8290fc	-0.0637531
108	0x3de41b9c	0.111380786
109	0x3da60dfe	0.081081375
110	0x3dcba129	0.09942848
111	0xbd88f4dc	-0.06687328
112	0x3dfc55cc	0.12321052
113	0x3d734d39	0.059399817
114	0x3d4018f3	0.046898793
115	0x3d95a2a2	0.0730641
116	0xbd837f07	-0.06420713
117	0xbda1c248	-0.07898384
118	0x3c486088	0.012230046
119	0x3c73d9b2	0.014883446
120	0x3d13e014	0.03610237
121	0x3d9d35b9	0.076762624
122	0x3c8803df	0.016603408
123	0xbced4a15	-0.02896599
124	0x3d63fb4a	0.05565957
125	0x3cc5d1f6	0.024147969
126	0x3dec98cf	0.115525834
127	0xbd5d8a42	-0.05408693
128	0x3d41a9b6	0.04728099
129	0xbdf5cf15	-0.120023884
130	0x3d6b8487	0.057499435
131	0x3dc5667b	0.09638687
132	0x3e132a6e	0.14371654
133	0x3dd04a2d	0.10170398
134	0xbcbac071	-0.022796841
135	0xba922f16	-0.0011152949
136	0xbd8243c8	-0.063605845
137	0xbdaf26fc	-0.085523576
138	0xbd040b72	-0.032237478
139	0x3d080293	0.03320558
140	0x3caf9fd2	0.021438513
141	0xbd638767	-0.05554905
142	0xbd81bba4	-0.06334618
143	0xbd88c351	-0.06677879
144	0x3d7d3ddf	0.061826583
145	0x3cfc3b99	0.030790137
146	0xbd3d9629	-0.046285782
147	0xbd5133a1	-0.051074628
148	0x3da08824	0.07838467
149	0x3df8f7e2	0.12156655
150	0xbcaacca9	-0.020849543
151	0xbc1efb80	-0.009703517
152	0xbd8364ca	-0.06415708
153	0xbe26c6d5	-0.16286786
154	0x3df26648	0.11835915
155	0xbdca584f	-0.09880125
156	0x3d8d9682	0.06913473
157	0x3d3623c9	0.04446772
158	0x3db0d463	0.086342596
159	0x3ccfd035	0.025367836
160	0x3db54746	0.08851485
161	0x3cbf987e	0.023388144
162	0xbdbf2ac6	-0.0933433
163	0x3d80ae6f	0.062832706
164	0xbbb58488	-0.0055394806
165	0xbc77eea2	-0.015132578
166	0xbce7ce05	-0.02829648
167	0xbb57adbb	-0.0032909948
168	0x3b93aedd	0.0045069293
169	0xbd3f147e	-0.046650402
170	0x3d3cd338	0.04609987
171	0xbc0a5f57	-0.008445582
172	0xbdc34aeb	-0.09535774
173	0x3d3ba8d5	0.045815308
174	0xbc026bf5	-0.007960309
175	0x3d942023	0.07232692
176	0x3d54dce3	0.051968466
177	0xbd9a1e22	-0.07525279
178	0x3dc2f1f5	0.09518806
179	0xbdc02abb	-0.0938315
180	0xbdce1920	-0.10063386
181	0xbd453144	-0.048142686
182	0x3e05ee5f	0.13079213
183	0xbc70b796	-0.014692208
184	0x3d1d1fe7	0.038360503
185	0x3dc63dad	0.096797325
186	0x3d631bb1	0.05544633
187	0x3d4b0f6b	0.04957525
188	0xbe060005	-0.13085945
189	0xbd059569	-0.03261319
190	0xbce77147	-0.028252257
191	0x3c8a68b0	0.016895622
192	0xbd56693d	-0.052346457
193	0x3df53a20	0.11973977
194	0x3d67e1e0	0.056611896
195	0xbda27f8f	-0.07934486
196	0x3d4014f4	0.046894982
197	0x3d3c441a	0.045963384
198	0xbdda1449	-0.106484
199	0xbdb5b11f	-0.08871674
200	0x3d2646e6	0.040594958
201	0xbd06bafb	-0.032893162
202	0xbde74f86	-0.11294465
203	0xbc157d71	-0.009124146
204	0xbc052d04	-0.008128408
205	0x3b929fdc	0.004474623
206	0x3d44822e	0.04797571
207	0xbe00edfc	-0.12590784
208	0xbb9ba457	-0.0047498154
209	0xbdee9952	-0.11650337
210	0x3d2c59d9	0.042077873
211	0xbdbdf5f0	-0.092754245
212	0xbd999c50	-0.07500517
213	0xbc910f7a	-0.017707575
214	0x3db9343d	0.09043167
215	0x3d1fea39	0.03904173
216	0xbddc2033	-0.10748329
217	0x3d0af76a	0.03392736
218	0x3d0e186a	0.03469125
219	0x3e070ccc	0.13188475
220	0x3dd20b3c	0.10256049
221	0xbd8e9f50	-0.0696398
222	0x3db98882	0.0905924
223	0xbbffbd5c	-0.007804556
224	0xbd15748a	-0.036488093
225	0x3d67d861	0.05660284
226	0x3dfed6fc	0.12443349
227	0x3da5f3e9	0.08103163
228	0x3df5f9fb	0.120105706
229	0x3ada7916	0.0016668166
230	0x3d7e0f65	0.0620264
231	0xbd3cc230	-0.04608363
232	0x3d21016a	0.03930799
233	0xbcdfea90	-0.027333528
234	0x3dc5304a	0.09628351
235	0xbd6b535e	-0.057452552
236	0xbcf39512	-0.029734168
237	0xbdc23c0c	-0.09484109
238	0x3d1cf7b0	0.03832215
239	0x3d64aab1	0.055826847
240	0x3ca9bfd3	0.020721352
241	0xbd351d27	-0.044217255
242	0x3cc56672	0.024096701
243	0xbd5fa74c	-0.054602906
244	0xbd429616	-0.047506414
245	0x3df89fec	0.12139878
246	0x3a599175	0.0008299568
247	0x3df042e4	0.117315084
248	0xbdac19de	-0.08403371
249	0x3db7bf0d	0.08971987
250	0x3dfac38a	0.12244327
251	0x3db07ea8	0.08617908
252	0x3dcbc650	0.099499345
253	0xbd7ee41f	-0.062229272
254	0x3d8f46d0	0.06995928
255	0x3c4994df	0.01230356

weight f4 [256, 256]
0	0x3c8e876b	0.017398557
1	0x3d25b690	0.04045731
2	0x3bcd08ae	0.006257138
3	0xbce0e4c7	-0.02745284
4	0xbcb7678f	-0.022388248
5	0xbc636d98	-0.01388111
6	0xbd4d9d96	-0.050199114
7	0x3c8cae65	0.017173002
8	0x3cb17462	0.021661941
9	0x3cb1d5dc	0.021708421
10	0x3cfabb43	0.030606871
11	0xbd3c62a2	-0.0459925
12	0xbcab2826	-0.020893168
13	0xbd945137	-0.07242053
14	0x3cba77a0	0.02276212
15	0x3cc48a67	0.023991777
16	0xbd1708bc	-0.036873564
17	0xbdaa0d9f	-0.08303379
18	0x3d5c6308	0.05380538
19	0x3cfc6ab7	0.030812604
20	0x3b09a249	0.002100127
21	0xbcbf6a48	-0.023366109
22	0x3dc020b4	0.093812376
23	0xbdad2b76	-0.08455555
24	0x3c9e2857	0.019306345
25	0x3a29f901	0.0006483943
26	0x3bddcadb	0.006768567
27	0x3c2157cf	0.009847595
28	0xbd59d7a6	-0.053184174
29	0xbcedba38	-0.02901946
30	0xbd49f63d	-0.049307097
31	0x3d6bc229	0.057558212
32	0xbdcfa112	-0.101381436
33	0x3c83cdc4	0.016089328
34	0xbe7142a2	-0.23560575
35	0xbdd7ddd1	-0.10540355
36	0xbd21e070	-0.03952068
37	0x3d95d33a	0.07315679
38	0x3d9abc8d	0.075554945
39	0xbcd716bd	-0.02625596
40	0xbd1cf9cc	-0.038324162
41	0xbd602be5	-0.05472936
42	0xbc239ea3	-0.009986552
43	0xbd37e28b	-0.044893783
44	0xbd51f276	-0.05125662
45	0x3d214cd0	0.039379895
46	0xbc166449	-0.009179183
47	0xbcf5d71f	-0.030009804
48	0x3cbb03ac	0.0228289
49	0xbca412ca	-0.02002849
50	0x3cf633b6	0.030053955
51	0x3c6e3c06	0.014540678
52	0xbd406fc0	-0.046981573
53	0xbbacd85f	-0.005274817
54	0xbcac7123	-0.021050042
55	0xbd07bc69	-0.033138666
56	0x3d8f64ac	0.070016235
57	0x3d3be77b	0.045875054
58	0xbd20adea	-0.039228357
59	0xbd0c6496	-0.034275614
60	0xbc4c16b1	-0.012456582
61	0xbd7b1947	-0.061303403
62	0xbd952c41	-0.072838314
63	0x3beef995	0.007292936
64	0xbdb0f901	-0.08641244
65	0x3e06b2ad	0.13154097
66	0x3ccc0814	0.024906196
67	0xbc44287d	-0.011972544
68	0x3c38dd02	0.011283161
69	0xbcf5c2ac	-0.030000053
70	0x3d159bba	0.036525466
71	0xbd11e97b	-0.035623055
72	0xbdec2fa5	-0.11532525
73	0x3d5272e3	0.051379096
74	0xbcd29ba2	-0.025708977
75	0xbc5212e9	-0.012821891
76	0xbd393fd7	-0.045226898
77	0x3de44148	0.11145264
78	0xbcae48fa	-0.021275032
79	0xbd2639fb	-0.04058264
80	0xbde6b943	-0.112658046
81	0xba7a3e60	-0.0009546038
82	0x3db808a0	0.0898602
83	0xba1ad240	-0.00059059635
84	0xbd0ed4e7	-0.03487101
85	0xbcad540b	-0.021158239
86	0xbc72009b	-0.014770652
87	0x3d283fdb	0.041076522
88	0xbc9f03c1	-0.01941097
89	0x3c90a1bb	0.017655244
90	0x3b64ec03	0.0034930713
91	0xbd292c42	-0.041301973
92	0x3cac0f5e	0.021003421
93	0xbcdf9da3	-0.027296847
94	0x3d0fd0ad	0.035111118
95	0x3db71597	0.08939665
96	0xbda31850	-0.079636216
97	0x3c384d16	0.0112488475
98	0xbdd3c778	-0.1034078
99	0xbcfa8003	-0.030578619
100	0xbe21041a	-0.15724221
101	0x3c643dbd	0.013930735
102	0xbc8b30c4	-0.016991027
103	0x3d7719ca	0.06032733
104	0x3e20ef6f	0.15716337
105	0xbd9018e9	-0.07036001
106	0x3d0898bb	0.03334878
107	0x3cbc5603	0.022990232
108	0x3d331fc4	0.043731466
109	0x3d1386ad	0.03601711
110	0x3dad2e77	0.08456128
111	0xbe116a6b	-0.14200751
112	0x3b8e7fbe	0.004348724
113	0x3db8892c	0.090105385
114	0xbc40f4dd	-0.01177713
115	0xbb7d3a43	-0.0038639463
116	0x3d715a4c	0.058924004
117	0xbd791405	-0.060810108
118	0xbc3bbf84	-0.011459235
119	0xbd372eda	-0.044722416
120	0xbd18745d	-0.037220348
121	0xbcbff1a3	-0.023430651
122	0xbd943fe1	-0.072387464
123	0xbcc9b1ce	-0.024620917
124	0xbcc625b4	-0.0241879
125	0x3d2355c5	0.039876718
126	0x3d9a946b	0.0754784
127	0x3d1d1876	0.038353406
128	0x3d3ec028	0.046569973
129	0xbc5646c5	-0.013078396
130	0x3d8bf357	0.06833523
131	0xba3f072f	-0.0007287142
132	0xbd3890cf	-0.045059975
133	0xbd9d28f6	-0.07673828
134	0xbd8a05ce	-0.067393884
135	0x3c85def7	0.01634167
136	0x3d0b9d29	0.034085426
137	0x3d916067	0.070984654
138	0x3b9d3685	0.004797759
139	0xbcb531af	-0.022118418
140	0x3c651a1f	0.013983279
141	0x3c0a828d	0.008453977
142	0x3d923557	0.0713908
143	0x3d31867c	0.043341145
144	0xbc70fc25	-0.014708553
145	0xbde20176	-0.11035435
146	0xbd8fb9c4	-0.07017854
147	0x3cafd1fa	0.02146243
148	0xbd6a920c	-0.057268187
149	0x3cf01da6	0.029311012
150	0xbd9c43ff	-0.07630157
151	0x3d4939ef	0.049127515
152	0x3d224879	0.039619897
153	0xbd1d6532	-0.038426585
154	0x3d73d72e	0.059531383
155	0xbd986dc0	-0.07442808
156	0xbcda5302	-0.02665091
157	0xbd0bae7d	-0.034101952
158	0x3d4287ad	0.04749267
159	0x3cb6fdc3	0.0223378
160	0xbdc51bdc	-0.096244544
161	0xbc8fb9cd	-0.017544651
162	0xbc0bce93	-0.008533138
163	0xbcda86ff	-0.0266757
164	0x3c90681e	0.017627772
165	0x3d12e8fa	0.035866715
166	0xbc2c7d15	-0.010527869
167	0xbd92ccea	-0.071679905
168	0xbdb05b80	-0.08611202
169	0xb9efdf53	-0.00045752022
170	0xbd25742f	-0.040394004
171	0x3c501035	0.012699177
172	0xbb94d255	-0.004541675
173	0x3d704f28	0.05866924
174	0x3cfd6441	0.030931594
175	0xbd4da633	-0.050207328
176	0x3d419dcc	0.047269627
177	0xbd0c3e1f	-0.03423893
178	0x3d4995dc	0.049215183
179	0xbc58cc90	-0.013232365
180	0xbd92cc34	-0.07167855
181	0x3c0bf02a	0.008541146
182	0x3d46858a	0.048467197
183	0xbd51a159	-0.051179264
184	0x3d4966ee	0.049170427
185	0x3d15b09f	0.036545392
186	0xbda9b505	-0.0828648
187	0xbc363fcc	-0.011123609
188	0xbda8294a	-0.08211
189	0xbc456c07	-0.0120496815
190	0x396c4611	0.00022532816
191	0x3ca93885	0.020656833
192	0x3dd17e31	0.10229147
193	0x3d71c060	0.059021354
194	0x3c84b387	0.016198887
195	0x3d55f59d	0.05223619
196	0x3ca03505	0.019556532
197	0xbcf53537	-0.029932601
198	0x3d59ffc4	0.053222433
199	0x3b1445b5	0.0022624556
200	0xbcd421ac	-0.025894962
201	0xbd86b6ed	-0.06577859
202	0xbd62a756	-0.055335365
203	0x3ce4b49d	0.027918154
204	0xbe179223	-0.1480184
205	0x3c05743f	0.008145391
206	0x3d3a0d07	0.04542258
207	0xbca28252	-0.019837532
208	0xbc45d7b0	-0.01207535
209	0xbd8e3826	-0.06944303
210	0x3c01bc31	0.0079184035
211	0x3df31c05	0.11870579
212	0x3cd5a4a3	0.026079481
213	0x3c48c91b	0.0122549785
214	0xb9a3f922	-0.000312754
215	0x3afd233a	0.0019312866
216	0x3d74fcb4	0.05981131
217	0x3d6244c9	0.05524138
218	0xbc1efd7f	-0.009703993
219	0xbc961143	-0.018318778
220	0xbc8d9219	-0.017281579
221	0x3d7b08f2	0.061287828
222	0x3d7e5016	0.062088095
223	0xbd442959	-0.047890995
224	0x3d53c19b	0.05169831
225	0xbd9a20e2	-0.07525803
226	0xbc531717	-0.012883923
227	0xbb850e7e	-0.0040605655
228	0x3da9d17f	0.08291911
229	0x3cbeb477	0.023279412
230	0xbd1ac662	-0.03778685
231	0x3e00b69c	0.1256966
232	0xbda57731	-0.080793746
233	0xbb58b298	-0.0033065435
234	0x3d23398d	0.039849807
235	0xbce132db	-0.02749007
236	0xbcf1b3ed	-0.02950474
237	0xbd522158	-0.05130133
238	0xbce8868f	-0.028384475
239	0x3cb34821	0.02188498
240	0x3d4e27e9	0.05033103
241	0x3c4cc14d	0.012497258
242	0x3e150e8a	0.14556327
243	0x3c0246ed	0.00795148
244	0x3d2bf83d	0.041984785
245	0xbc09e4f1	-0.0084164
246	0xbd95e887	-0.07319742
247	0xbca4c952	-0.020115528
248	0xbdbd06d3	-0.09229817
249	0xbdfefe08	-0.12450796
250	0x3dbb85e7	0.09156399
251	0x3d47715e	0.0486921
252	0x3cc4060a	0.02392866
253	0xbce96a2c	-0.02849301
254	0x3d74c898	0.059761614
255	0x3c3dde3b	0.011588628

bias f4 [256]
0	0x3b0ae997	0.002119636
1	0x3d17b334	0.037036136
2	0xbcac961e	-0.021067675
3	0x3d8b4b48	0.06801468
4	0xbd54da23	-0.051965844
5	0x3d46f3a3	0.048572194
6	0x3d30cc54	0.043163612
7	0xbcce01ce	-0.025147345
8	0x3cb73e45	0.02236856
9	0xbbc70d09	-0.006074552
10	0xbd4a4b9f	-0.049388524
11	0xbd88e5d0	-0.06684458
12	0xbd78235b	-0.060580593
13	0x3d8e6baa	0.06954129
14	0x3d61bb1f	0.055110093
15	0xbd28bf47	-0.04119804
16	0x3d3eb2b4	0.046557143
17	0xbd1c4053	-0.03814728
18	0x3d5780a8	0.05261293
19	0x3c9ba0bf	0.018997548
20	0xbd6e4e72	-0.05818028
21	0x3cf232de	0.029565271
22	0x3cd9f23c	0.026604764
23	0x3d1a9eed	0.03774922
24	0x3c9373c7	0.017999543
25	0xbd18501d	-0.037185777
26	0x3d4a6e28	0.04942146
27	0xbd1ac68d	-0.03778701
28	0x3ce094fe	0.027414795
29	0x3d6a71f5	0.057237584
30	0xbcc39dcf	-0.02387896
31	0xbd1f713c	-0.038926348
32	0x3cc317ae	0.023815002
33	0x3d0cb6d1	0.034354035
34	0xbd2e1313	-0.04249866
35	0xbd212f59	-0.039351795
36	0x3d735e45	0.059416074
37	0x3da70492	0.081551686
38	0xbc611741	-0.013738454
39	0x3bd4f52b	0.006498953
40	0x3d5563de	0.052097194
41	0x3c6fa907	0.014627702
42	0xbd69412f	-0.05694693
43	0x3d67a00b	0.056549113
44	0x3d69040b	0.05688862
45	0x3cb43660	0.021998584
46	0x3d397438	0.04527685
47	0x3db56d6f	0.088587634
48	0x3ca54874	0.02017615
49	0x3da2c119	0.07946987
50	0x3d485413	0.048908304
51	0x3cb63b12	0.022244964
52	0x3da7a4df	0.081857435
53	0x3ca1aa39	0.019734489
54	0x3d58fbe3	0.052974593
55	0x3ddbfe47	0.10741859
56	0x3db0fa50	0.08641493
57	0xbcd86be8	-0.026418641
58	0x3d3aad9d	0.045575727
59	0xbd2cf56e	-0.042226247
60	0x3cd6cea1	0.026221575
61	0xbb8c269e	-0.0042770645
62	0xbc04dcfd	-0.008109328
63	0xbd46c9e5	-0.048532385
64	0x3d6bde50	0.05758506
65	0xbd100114	-0.03515728
66	0xbd5d8d2e	-0.054089718
67	0xbc416346	-0.011803454
68	0xbd25537e	-0.040362827
69	0x3d7b99ce	0.061425976
70	0x3d31198c	0.043237254
71	0xbc8ab7f2	-0.016933415
72	0xbd0ee63a	-0.03488753
73	0x3c438e6d	0.011935812
74	0xbd5f012e	-0.054444484
75	0x3c4ae26c	0.012383085
76	0xbcc33d66	-0.023832988
77	0x3c097bca	0.00839133
78	0x3ca386c0	0.019961715
79	0x3cd7c468	0.026338771
80	0xbccc0161	-0.024903001
81	0xbd130b69	-0.035899553
82	0xbc6024f0	-0.013680682
83	0x3cae51ab	0.021279177
84	0xbc7d72e8	-0.01546929
85	0xbd233497	-0.039845075
86	0x3d5409b2	0.05176706
87	0x3d52ea08	0.05149272
88	0xbc5cd11e	-0.013477592
89	0xbc1b79ef	-0.00948952
90	0xbd34e867	-0.04416695
91	0x3c909485	0.017648945
92	0xbd1aa131	-0.03775138
93	0x3d09d259	0.03364787
94	0xbbb3533f	-0.00547257
95	0x3d7db458	0.061939567
96	0x3d1f268c	0.03885512
97	0x3d160d3d	0.03663372
98	0x3c89f9cb	0.016842743
99	0x3d40bbd3	0.047054123
100	0x3dae8a94	0.085225254
101	0x3d32c9b2	0.043649383
102	0x3ce05372	0.02738354
103	0xbd18311e	-0.037156217
104	0xbd52438b	-0.051333945
105	0x3d43446a	0.047672667
106	0x3d655fc6	0.05599954
107	0xbd2f7234	-0.042833522
108	0x3d8936c9	0.066999026
109	0x3cbf10d8	0.023323461
110	0x3d00cd07	0.03144553
111	0x3c3edbd3	0.01164909
112	0xbd070129	-0.03296009
113	0x3d0f3b76	0.034968816
114	0xbcfd15b8	-0.030894145
115	0x3db5b334	0.08872071
116	0xbcb20064	-0.021728702
117	0x3caaf7b6	0.02087007
118	0xbccb6e30	-0.024832815
119	0x3c798de4	0.015231583
120	0x3b7d41e5	0.0038644013
121	0x3c65d82f	0.014028593
122	0xbcc0c74c	-0.023532532
123	0x3cfddfaf	0.03099045
124	0xbd1eb5c1	-0.038747553
125	0x3c5fc475	0.013657679
126	0x3d491282	0.049089916
127	0x3d410266	0.047121428
128	0x3da9ca05	0.08290485
129	0x3d54c9eb	0.051950376
130	0x3d225cfc	0.039639458
131	0xbd12354f	-0.03569537
132	0xbc75282e	-0.014963193
133	0x3cce73f0	0.025201768
134	0x3cfa288e	0.030536916
135	0x3c498139	0.0122988755
136	0xbd50d62f	-0.05098551
137	0xbd0a7d25	-0.033810753
138	0x3d289196	0.041154467
139	0xbd231f21	-0.03982461
140	0x3daac7ff	0.083389275
141	0xbcbf567a	-0.023356665
142	0x3d9ce65d	0.07661126
143	0x3d5043b6	0.050845824
144	0x3d564a0c	0.05231671
145	0x39bed62f	0.00036399203
146	0x3d92966a	0.071575955
147	0xbcd79d3a	-0.026320089
148	0x3d6e48c5	0.058174867
149	0x3c78bff3	0.015182483
150	0x3c9acdaa	0.018896896
151	0xbc9fd997	-0.019512935
152	0xbcd00c91	-0.025396617
153	0x3c6a38f1	0.014295802
154	0xbca50536	-0.020144086
155	0x3dad344f	0.08457243
156	0xbca05104	-0.019569881
157	0x3d2f6717	0.042822924
158	0x3c98fa52	0.01867405
159	0xbc3abbb3	-0.01139729
160	0x3cc547c1	0.024082066
161	0x3d0f77c4	0.035026327
162	0xbd0b859e	-0.034062974
163	0x3d5ca4d7	0.05386814
164	0x3d6049f8	0.054758042
165	0x3c822f0b	0.015891572
166	0x3ce823d8	0.028337404
167	0x3cca12dc	0.024667196
168	0x3cd39711	0.02582887
169	0xbd03f708	-0.03221801
170	0xbca54c3a	-0.02017795
171	0x3d499aa1	0.04921973
172	0xbcccd333	-0.025003051
173	0x3d12415e	0.03570687
174	0x3cc17d39	0.023619281
175	0x3d91fdc9	0.07128484
176	0x3cef1691	0.029185565
177	0xbd33193c	-0.043725237
178	0x3c48c646	0.012254303
179	0x3d709a6a	0.05874101
180	0x3c148e19	0.009067082
181	0x3d98988d	0.07450972
182	0x3b7a29c3	0.0038171865
183	0xbcd12f3e	-0.025535222
184	0xbd8323af	-0.064032905
185	0xbceae34e	-0.02867284
186	0x3d0e47ca	0.034736432
187	0x3d031c38	0.032009333
188	0xbcc606f7	-0.024173243
189	0x3d35baa1	0.044367436
190	0xbccc5263	-0.024941629
191	0x3d8adde7	0.06780606
192	0x3d723687	0.059134033
193	0x3c823824	0.01589591
194	0x3d110b9d	0.035411466
195	0xbd32af74	-0.043624356
196	0x3c98cfc0	0.01865375
197	0x3d94c300	0.07263756
198	0x3cc7e9ae	0.02440342
199	0x3b4304f3	0.0029757589
200	0x3bf332d4	0.0074218307
201	0x3d157300	0.036486626
202	0xbb02e860	-0.0019974932
203	0x3cadb3b1	0.021203848
204	0x3d0d9ee1	0.034575347
205	0x3bd7e004	0.006587984
206	0x3ccb4aff	0.024816034
207	0x3d5165e2	0.051122554
208	0xbbd082df	-0.0063632573
209	0xba225c3c	-0.00061935536
210	0x3d9032f6	0.0704097
211	0x3d37aabf	0.04484057
212	0xbd4d40e5	-0.050110716
213	0x3d4b797b	0.0496764
214	0x3bb24457	0.0054402757
215	0x3d42cdfc	0.047559723
216	0x3c88c90d	0.016697431
217	0x3d5b4520	0.05353272
218	0x3ca540ef	0.020172564
219	0x3d95e6de	0.07319425
220	0xbd5fdf30	-0.054656208
221	0xbc9b195b	-0.018932989
222	0x3c547660	0.012967676
223	0x3d2648e4	0.040596858
224	0xbc11763e	-0.008878289
225	0xbd75cabd	-0.0600078
226	0xbd187f3f	-0.037230726
227	0x3c13b5a7	0.009015477
228	0x3cfb7c3c	0.030698888
229	0x3d441242	0.047868975
230	0x3a7bcdf3	0.0009605579
231	0x3d10043c	0.03516029
232	0x3c100765	0.0087908255
233	0x3d4880a7	0.048950817
234	0x3c999a18	0.018750235
235	0xbd047360	-0.032336593
236	0xbd7d6d16	-0.06187161
237	0x3cdda0b1	0.027054163
238	0x3d0de6e7	0.034644034
239	0x3ccc35a7	0.024927927
240	0xbd421e8a	-0.047392406
241	0xbd391424	-0.045185223
242	0x3d9b994a	0.07597597
243	0xbcadd790	-0.021220952
244	0x3c6b0991	0.0143455425
245	0x3d992471	0.07477654
246	0x3d0ca313	0.034335207
247	0x3c3b78a9	0.011442342
248	0x3d6b3225	0.05742087
249	0xbca3aed0	-0.019980818
250	0x3d1aeb6b	0.03782217
251	0x3ca2a15f	0.019852338
252	0x3ceb3b0a	0.028714675
253	0xbd88949d	-0.06668971
254	0xbb70d399	-0.0036747216
255	0x3d96e027	0.073669724

weight f4 [256, 256]
0	0xbc95d096	-0.018287938
1	0x3cfb866f	0.030703751
2	0xbd0ca5be	-0.03433775
3	0x3c85145f	0.016245065
4	0xbba62e48	-0.005071435
5	0xbd43a5ed	-0.04776566
6	0xbc91e7b7	-0.017810686
7	0xbd20b462	-0.039234526
8	0x3c33a1e6	0.010963893
9	0x3a0a9b69	0.000528744
10	0x3c755b90	0.0149754435
11	0xbbe20b0f	-0.006898291
12	0xbcc54c1d	-0.024084145
13	0x3c0959a4	0.008383188
14	0x3a95d554	0.0011431375
15	0x3d4b1a9d	0.049585927
16	0x3d5b0fa1	0.0534817
17	0xbccf2648	-0.025286809
18	0xbd589307	-0.05287459
19	0xbcedbf15	-0.02902178
20	0x3d25055d	0.040288318
21	0xbd90e6ca	-0.070752695
22	0x3c61042e	0.013733907
23	0xbce2e066	-0.027694892
24	0xbb994a20	-0.004678026
25	0xbd437f46	-0.0477288
26	0xbd7770cd	-0.06041031
27	0xbd8e26b5	-0.069409765
28	0xbd6d4d40	-0.057935
29	0x3d2e3bea	0.042537607
30	0xbd62f2a7	-0.055407193
31	0xbbe4e1e7	-0.0069849375
32	0xbd878452	-0.06617035
33	0xbd31f672	-0.04344792
34	0x3c8daee8	0.017295316
35	0xba96fd1f	-0.0011519528
36	0x3d523be9	0.051326666
37	0x3c56ad00	0.01310277
38	0x3cd986f7	0.026553614
39	0xbc60625f	-0.0136953285
40	0xbcceb440	-0.025232434
41	0x3ba8f431	0.005156063
42	0x3d96bf5c	0.07360718
43	0xbc81dc6f	-0.015852181
44	0x3ccd42bb	0.025056234
45	0xbd2ab0d0	-0.041672528
46	0xbd812a0c	-0.06306848
47	0xbd8203b3	-0.06348362
48	0xbc631b0f	-0.013861432
49	0xbc93d144	-0.018044122
50	0xbc19ca99	-0.009386682
51	0xbd587450	-0.0528453
52	0xbca26d8d	-0.019827629
53	0x3c69fecf	0.0142819425
54	0xbd7f66c8	-0.06235388
55	0xbce10421	-0.02746779
56	0x3becfbba	0.0072321566
57	0xbc21b253	-0.009869176
58	0xbcc7bed2	-0.024382982
59	0x3cc18f2b	0.023627838
60	0xbd20aa9b	-0.039225202
61	0xbcd1ec1b	-0.02562528
62	0xbd68cea6	-0.0568377
63	0xbd67e238	-0.056612223
64	0xbc5a8bf5	-0.013339032
65	0x3cc24bdb	0.023717811
66	0x3cfb16b9	0.030650483
67	0xbc8f4312	-0.017488036
68	0xbcd4d030	-0.025978178
69	0x3d3d87c6	0.04627206
70	0xbcfb0b1a	-0.030644942
71	0xbcbd2008	-0.023086563
72	0x3c36dccc	0.0111610405
73	0xbd0c8195	-0.034303267
74	0x3cb1394a	0.021633763
75	0x3d0c8b0a	0.034312285
76	0x3d48a9bc	0.048989996
77	0xbcca17b5	-0.024669508
78	0xbd59a2e8	-0.053133875
79	0x3cdf572a	0.027263243
80	0xbca36d72	-0.019949649
81	0x3a609b76	0.00085680874
82	0xbd3a35bb	-0.045461398
83	0x3d3cb1a3	0.046067845
84	0x3bf14cc9	0.00736389
85	0xbd02eb2d	-0.031962562
86	0xbd841ffa	-0.064514115
87	0xbb1439db	-0.0022617492
88	0xbd915fdb	-0.07098361
89	0xbd8be99a	-0.06831665
90	0xbd3c9585	-0.04604103
91	0xbd9240ca	-0.07141264
92	0x3c9c83e1	0.019105854
93	0xbd46ce44	-0.048536554
94	0xbc9cb667	-0.019129945
95	0x3d4d9099	0.050186727
96	0xbd508627	-0.050909188
97	0x3cbcf4d2	0.023065958
98	0xbce650a6	-0.028114628
99	0xbd181a43	-0.03713442
100	0xbd33e486	-0.04391911
101	0x3c85c990	0.016331464
102	0xbcc3345a	-0.023828674
103	0x3d56e419	0.052463625
104	0x3ccd9462	0.025095169
105	0xbcc090aa	-0.023506481
106	0xbd0bbc3c	-0.03411506
107	0xbd51ce42	-0.051222093
108	0x3cda75c2	0.02666748
109	0xbd008d3d	-0.031384695
110	0xbd089903	-0.03334905
111	0x3cefa5b6	0.029253822
112	0xbc582133	-0.013191509
113	0xbbceca53	-0.00631074
114	0xbd498857	-0.04920229
115	0xbd11be5f	-0.035581943
116	0xbd815b1b	-0.06316205
117	0x3c264b6e	0.01014982
118	0xbd03838e	-0.032107882
119	0xbd5b3aea	-0.05352298
120	0xbb0097f9	-0.0019621833
121	0x3d05d831	0.03267688
122	0x3d0e1cd8	0.034695476
123	0x3c845c17	0.016157193
124	0x3bf1fa78	0.0073845945
125	0x3d234bdc	0.039867267
126	0xbd99112e	-0.0747398
127	0x3d1f1802	0.038841255
128	0xbd860795	-0.06544415
129	0x3d114c07	0.035472896
130	0xbb9eef91	-0.004850336
131	0xbd6833c0	-0.056689978
132	0x3cd6154e	0.026133206
133	0x3c5cf43a	0.0134859625
134	0xbb990d31	-0.004670762
135	0xbb3fc4bb	-0.0029261548
136	0x3c32bb38	0.010908894
137	0xbd2f53b1	-0.042804424
138	0x3d14f256	0.036363922
139	0x3d5e7bde	0.054317348
140	0x3c89c81b	0.01681905
141	0xbd72105d	-0.059097636
142	0xbd854508	-0.06507307
143	0xbd48cbbe	-0.04902243
144	0x3af003ea	0.0018311713
145	0x3d6fc800	0.058540344
146	0xbd6f2308	-0.058383018
147	0xbce511e2	-0.027962629
148	0xbd3aa556	-0.045567833
149	0xbd82af12	-0.06381048
150	0xbc36f64f	-0.011167123
151	0xbcf96c87	-0.030447258
152	0xbd5ec594	-0.054387644
153	0x3ce78b5e	0.028264698
154	0x3cb8cf00	0.022559643
155	0xbd368a5e	-0.04456555
156	0xbd3b4ff1	-0.045730535
157	0xbcd6fa0e	-0.026242282
158	0xbc6b8466	-0.014374828
159	0x3d22ba51	0.039728466
160	0x3d416674	0.047216848
161	0xbcfd80e1	-0.030945243
162	0xbd4b8568	-0.049687773
163	0x3d22be23	0.03973211
164	0xbc61293a	-0.013742739
165	0xbd26d646	-0.04073169
166	0x3d6dfee9	0.05810443
167	0x3d6b4913	0.057442736
168	0xbc9d5300	-0.019204617
169	0x3dc48d63	0.0959728
170	0x3d64bc07	0.05584338
171	0x3c5b8724	0.013398919
172	0xbc3cb117	-0.011516831
173	0xbb817fb6	-0.003951992
174	0x3c2cfaed	0.010557872
175	0x3b1d04ab	0.002395908
176	0x3d1ae0da	0.03781209
177	0xbd8963b7	-0.06708472
178	0x3c8c7d3c	0.01714956
179	0x3d69dc69	0.057094965
180	0x3d0d8f1d	0.03456031
181	0xbb8e4e67	-0.0043428424
182	0xbcf40fba	-0.029792655
183	0xbd89dd48	-0.06731659
184	0xba978e34	-0.0011562766
185	0x3d1d5f45	0.038420934
186	0x3c8ab067	0.016929818
187	0x3db8850d	0.090097524
188	0xbd6ec9c5	-0.05829789
189	0x3aceb16d	0.001576943
190	0x3cdea848	0.027179852
191	0xbd5296e8	-0.051413447
192	0x3d005b55	0.0313371
193	0xba707e88	-0.0009174128
194	0x3bcf2731	0.0063218107
195	0xbd6d985e	-0.058006637
196	0x3cf9edb5	0.030508855
197	0xbd0a87bc	-0.033820853
198	0xbd1aba8b	-0.037775557
199	0xbcb05dd5	-0.021529118
200	0xbd5f87c5	-0.05457284
201	0x3cfc5128	0.030800417
202	0x3c2fe206	0.0107350405
203	0x3cfb321b	0.03066354
204	0x3d21e9a2	0.03952945
205	0xbcf92fae	-0.030418243
206	0xbd1e8310	-0.03869921
207	0xbd4506dc	-0.048102245
208	0xbb31005f	-0.0027008278
209	0xbd5d594d	-0.054040242
210	0xbd578c3c	-0.052623972
211	0xbd6c24cd	-0.057652283
212	0x3d31c962	0.043404944
213	0xbcf90c64	-0.030401416
214	0x3ce6269c	0.028094582
215	0xbd4ee636	-0.050512515
216	0x3b90fbf8	0.0044245683
217	0x3d2dd8c3	0.04244305
218	0xbd693619	-0.056936357
219	0x3c87895b	0.016544988
220	0x3cfd2bd5	0.03090469
221	0xbced747d	-0.02898621
222	0x3d51602e	0.051117115
223	0x3cec4c2a	0.028844912
224	0x3c528262	0.0128484685
225	0x3cb8205d	0.02247637
226	0xbd9616d5	-0.073285736
227	0xbc3d4821	-0.011552841
228	0xbd0a15cd	-0.033712197
229	0x3cfc94db	0.030832699
230	0xbb9f32b2	-0.0048583383
231	0x3bd3de09	0.0064656776
232	0x3d22a714	0.03971012
233	0xbc1c0de3	-0.009524795
234	0x3d0e3098	0.03471431
235	0x3d29f62e	0.04149454
236	0x3cb03ebe	0.021514293
237	0x3cf34868	0.029697612
238	0x3cc9bf2d	0.024627293
239	0xbd86826f	-0.06567847
240	0xbcf0a677	-0.029376252
241	0xbd004168	-0.031312376
242	0xbc873bd8	-0.016508028
243	0x3cb15905	0.021648893
244	0x3c8684a0	0.016420662
245	0x3d1186c7	0.035528924
246	0x3d1d7b43	0.03844763
247	0xbbf2c788	-0.00740904
248	0x3c15ecf1	0.0091507295
249	0x3d16e699	0.03684101
250	0xbc868367	-0.01642008
251	0x3cd9985f	0.026561914
252	0xbccea99e	-0.025227364
253	0x3d453d13	0.048153948
254	0x3d5647a9	0.052314434
255	0xbd0e6f6d	-0.034774233

bias f4 [256]
0	0xbbcce7a8	-0.0062532015
1	0xbd26cd46	-0.040723108
2	0x3bc6b716	0.006064306
3	0xbd36519e	-0.04451143
4	0x3da32584	0.0796614
5	0xbd6bfee8	-0.057616144
6	0xbadd371c	-0.0016877386
7	0xbcca6bc7	-0.024709595
8	0x3d224011	0.03961188
9	0x3cf062c8	0.029343978
10	0xbd32a032	-0.043609805
11	0xbc15ff09	-0.009155043
12	0xbca40237	-0.020020587
13	0xbd74fbb3	-0.05981035
14	0x3d01499e	0.031564347
15	0xbccd479d	-0.025058562
16	0xbb7677eb	-0.0037608098
17	0x3d174e06	0.036939643
18	0xbd14dcd6	-0.036343418
19	0xbc8f393a	-0.017483342
20	0x3cdf76c1	0.027278306
21	0x3d0f788a	0.035027064
22	0x3d02fb93	0.0319782
23	0xbdaf1c43	-0.08550312
24	0xbd3926ff	-0.045203205
25	0x3da1a148	0.0789209
26	0x3d3955ce	0.045247845
27	0x3d61c805	0.055122394
28	0xbd16e3da	-0.03683839
29	0x3d4f71bd	0.05064558
30	0x3cc94e37	0.024573429
31	0xbcf61f7f	-0.030044315
32	0xbd0c6f38	-0.034285754
33	0x3d9b2b43	0.07576611
34	0xbd18bbce	-0.03728848
35	0xbc1181e6	-0.008881068
36	0xbceca364	-0.028886504
37	0x3da3ae57	0.07992237
38	0x3cb39228	0.021920279
39	0xbba958fc	-0.0051680785
40	0x3c22507a	0.009906882
41	0x3cb4f225	0.02208812
42	0xb9ec9638	-0.0004512535
43	0xbd918ca0	-0.071069
44	0x3dae5368	0.08512002
45	0xbbc5957e	-0.0060297837
46	0x3c9f8be2	0.019475881
47	0x3d4f3471	0.05058712
48	0x3bf075c2	0.0073382566
49	0xbd79aa19	-0.060953233
50	0x3da9966f	0.08280646
51	0x3d5644d1	0.052311722
52	0x3d8928f1	0.06697262
53	0xbd0ec7fd	-0.034858692
54	0x3ccc9e27	0.024977757
55	0x3cf5f82b	0.030025562
56	0xbce8825a	-0.028382469
57	0xbc809d85	-0.015700111
58	0xbca3e84b	-0.020008227
59	0x3b432e1d	0.0029782124
60	0xbb76c133	-0.0037651777
61	0xbc4f03d1	-0.012635187
62	0x3d60afb9	0.054855082
63	0xbd689966	-0.056786917
64	0xbc52b1a5	-0.012859737
65	0x3d5613f8	0.052265137
66	0xbcca7aa1	-0.024716677
67	0xbbe52e75	-0.0069940635
68	0x3d5ab1d6	0.053392254
69	0xbcc20bd1	-0.023687275
70	0x3dc05427	0.09391051
71	0xbce1c0d5	-0.02755777
72	0xbb0307f6	-0.0019993759
73	0x3c4b10bc	0.0123941265
74	0xbc005f6c	-0.00783525
75	0x3dac923a	0.08426328
76	0xbc997f9c	-0.018737607
77	0xbd081d86	-0.03323128
78	0x3d03bbcc	0.03216152
79	0x3cdc84f0	0.026918858
80	0x3d2311e8	0.039812
81	0x3d5d7477	0.054066148
82	0xbcda52f1	-0.026650878
83	0x3d44b954	0.048028305
84	0xbcf79602	-0.030222896
85	0x3c39231d	0.011299876
86	0x3cfaec07	0.030630125
87	0x3d07c29a	0.03314457
88	0xbd0881f6	-0.033327065
89	0x3da2c013	0.079467915
90	0x3d1ba806	0.038002037
91	0xbc265c6d	-0.010153872
92	0x3d6526e4	0.055945292
93	0x3c0951ad	0.008381289
94	0x3d4f48e8	0.05060664
95	0x3c51c7da	0.012803996
96	0x3cef7d83	0.029234653
97	0x3cb6947d	0.022287602
98	0x3d769501	0.060200695
99	0x3cde442b	0.027132114
100	0xbd8fab3d	-0.07015083
101	0x3d57e530	0.052708805
102	0xbbe5ce0a	-0.007013087
103	0xbd7a930b	-0.061175387
104	0xbd91559d	-0.070964076
105	0x3cb70825	0.02234275
106	0xbcac24d5	-0.021013657
107	0xbd8cbf09	-0.068723746
108	0x3d82dc5a	0.06389685
109	0xbb644cbc	-0.0034835776
110	0x3b5bda68	0.0033546928
111	0xbc94f5aa	-0.018183548
112	0x3cb2155a	0.021738697
113	0xbb89779b	-0.0041951663
114	0x3d806287	0.062687926
115	0x3cfad79d	0.03062039
116	0x3c7887b6	0.015169075
117	0x3c60aa03	0.013712409
118	0x3d81841b	0.06324025
119	0xbcbc72af	-0.023003904
120	0x3cdda8fa	0.027058113
121	0x3d93d32b	0.072180115
122	0x3d9bbb7f	0.076041214
123	0x3ba72c75	0.0051017352
124	0x3d89185b	0.066940986
125	0xbd8dc3b1	-0.06922091
126	0x3d583a74	0.05279012
127	0xbcbbe8f8	-0.022938237
128	0xbb24cdbe	-0.0025147046
129	0x3da40621	0.080089815
130	0x3d33899b	0.043832403
131	0xbd0f8da0	-0.035047174
132	0x3dbfffc8	0.09374958
133	0x3c9ab46d	0.018884862
134	0x3d8e16a8	0.06937915
135	0xbc3bf45b	-0.011471833
136	0x3d3c635f	0.045993205
137	0x3ba6dcf6	0.0050922586
138	0x3c71243a	0.01471811
139	0x39f9f0ef	0.0004767249
140	0x3d3d2971	0.0461821
141	0xbd423561	-0.047414187
142	0x38d80f59	0.00010302541
143	0x3c98f83e	0.018673059
144	0xbaf42023	-0.00186253
145	0xbdbf0747	-0.0932756
146	0xbd344f2f	-0.044020828
147	0xbc85bc53	-0.016325152
148	0x3c8363e5	0.016038844
149	0x3d29e958	0.0414823
150	0x3da7fec0	0.082028866
151	0xbd29a22f	-0.041414436
152	0xbcd6df43	-0.026229506
153	0xbd5016e0	-0.050803065
154	0x3cf216c6	0.029551875
155	0x3d27359e	0.040822618
156	0xbdd4468d	-0.10365019
157	0x3d22cd5a	0.03974662
158	0x3d8bcdbc	0.0682635
159	0x3d30245a	0.043003418
160	0x3cac6368	0.021043494
161	0xbd850a05	-0.06496052
162	0x3c168bd6	0.009188613
163	0xbb390398	-0.0028230902
164	0x3d3bf5d3	0.045888733
165	0xbd77ce53	-0.0604995
166	0x3d82d221	0.06387735
167	0xbcf17736	-0.02947579
168	0xbd0d1699	-0.03444538
169	0xbd0ed2b8	-0.034868926
170	0xbd7139c4	-0.05889298
171	0x3db7e297	0.089787655
172	0xbc863a39	-0.016385185
173	0xbcf61e5c	-0.030043773
174	0x3cd4cd63	0.025976842
175	0x39ce056b	0.00039295419
176	0x3dc9fea9	0.09863026
177	0x39059856	0.00012740618
178	0x3cc6054e	0.024172451
179	0x3c189ea3	0.009315166
180	0x3db947c4	0.09046891
181	0x3d66ed42	0.05637861
182	0x3da209eb	0.07912048
183	0x3cb45238	0.022011861
184	0x3ce81ef4	0.028335072
185	0xbda8341e	-0.082130656
186	0x3d42c209	0.047548328
187	0x3c68c6c5	0.014207547
188	0x3d608795	0.0548168
189	0x3c99c4a1	0.018770518
190	0x3db8d3fe	0.09024809
191	0x3d86f107	0.06588941
192	0x3b774db7	0.003773553
193	0x3d9f2536	0.07770769
194	0xbd167d8a	-0.036740817
195	0xbd8b7893	-0.06810107
196	0x3c135dcf	0.008994534
197	0xbc9320a6	-0.017959904
198	0xbb54300b	-0.0032377269
199	0xbd56c082	-0.052429684
200	0x3bc724d7	0.0060773897
201	0x3d1aa207	0.037752178
202	0xbccba883	-0.024860626
203	0x3d2b9764	0.041892424
204	0xbcf58868	-0.02997227
205	0xbd46e399	-0.048556898
206	0x3c309b6a	0.010779241
207	0x3bc4f0f3	0.0060101687
208	0xbd31b40a	-0.04338459
209	0x3db30777	0.08741658
210	0x3b651def	0.0034960469
211	0xbbbb95a3	-0.005724625
212	0x3d010732	0.031501003
213	0x3d3e20dd	0.04641806
214	0x3beac5d6	0.007164697
215	0x3db3b19a	0.08774109
216	0xbcc3b173	-0.023888325
217	0x3d1b1453	0.03786118
218	0xbc2e4d80	-0.010638595
219	0x3c9eeb76	0.019399386
220	0x3d79ed70	0.061017454
221	0xbd2f7784	-0.04283859
222	0x3cae3e65	0.021269986
223	0x3d8369f9	0.06416697
224	0x3c25e3fe	0.010125158
225	0xbc166dab	-0.00918142
226	0xbc104ace	-0.008806897
227	0xbc82551d	-0.015909726
228	0xbd3aec6d	-0.04563563
229	0x3bba34a0	0.005682543
230	0x3d1249bf	0.03571486
231	0xbd9262f6	-0.071477816
232	0x3da42197	0.08014219
233	0x3d18f148	0.03733948
234	0xbd51fa31	-0.05126399
235	0x3d024f22	0.03181375
236	0x3ba17662	0.0049274424
237	0x3da36aea	0.079793766
238	0x3cf31ac5	0.02967585
239	0xbcbe5435	-0.023233512
240	0x3d9e30b4	0.07724133
241	0x3c1735ca	0.009229133
242	0x3c87c876	0.01657508
243	0xbcb9e745	-0.022693286
244	0xbd04e2e3	-0.03244294
245	0xbcb5868f	-0.02215889
246	0xbccf366a	-0.025294501
247	0x3d2585f9	0.04041097
248	0xbbc03f2b	-0.005866905
249	0x3daf04f4	0.085458666
250	0xbcb6d4c1	-0.022318246
251	0xbbfa1e65	-0.007633018
252	0x3d9afe91	0.07568086
253	0x3d0b31a1	0.033982877
254	0xbc4eee88	-0.0126301125
255	0x3d231134	0.039811328

weight f4 [60, 256]
0	0xbd3501ea	-0.04419128
1	0x3cb84e99	0.022498416
2	0x3e004bb2	0.12528875
3	0xbc7ee50f	-0.0155575415
4	0x3cef2da6	0.029196572
5	0xbc9022a7	-0.017594649
6	0xbd42b1a5	-0.047532696
7	0x3d05cbfe	0.032665245
8	0x3ca48a1a	0.020085383
9	0x3cf9b4b8	0.030481681
10	0xbccf00a2	-0.025268856
11	0x3d4ef6de	0.0505284
12	0xb9c00f14	-0.00036632328
13	0x3d74d93a	0.059777476
14	0xbb08017d	-0.002075284
15	0x3d59cb2b	0.05317227
16	0xbc96d7f2	-0.018413518
17	0x3c8d2e8c	0.01723411
18	0x3debdd0f	0.11516773
19	0xbd026589	-0.031835113
20	0xbc96553a	-0.018351186
21	0xbc9ec728	-0.019382074
22	0xbcad8dba	-0.021185745
23	0xbc92bb06	-0.017911445
24	0xbdc99ee2	-0.098447576
25	0x3c885111	0.016640218
26	0xbdc13eea	-0.09435828
27	0xbd3d0398	-0.046146005
28	0x3daf1a76	0.08549969
29	0xbbc59c8c	-0.0060306247
30	0xbd406f8f	-0.04698139
31	0xbcec931d	-0.028878743
32	0xbcfe36d9	-0.031032013
33	0x3c7ddff3	0.015495288
34	0x3d8d7e77	0.06908887
35	0xbd4ed510	-0.05049616
36	0xbd86ba9f	-0.06578564
37	0xbca56bc1	-0.020192983
38	0x3c8ec194	0.01742629
39	0x3d22c61f	0.039739724
40	0xbc9f40ba	-0.019440044
41	0xbc963001	-0.018333437
42	0x3c13d4c0	0.0090228915
43	0x3d96afc5	0.07357744
44	0xbd953ca0	-0.07286954
45	0xbd9a16b4	-0.075238615
46	0x3d1b7c21	0.037960175
47	0xbd53bf73	-0.051696252
48	0xbd65d9d7	-0.05611595
49	0xbcb5e343	-0.022203093
50	0xbd8e5617	-0.06950014
51	0xbd83ad13	-0.06429496
52	0xbda33ac2	-0.079701915
53	0x3c7e7c23	0.015532526
54	0xbcafa599	-0.021441268
55	0xbd530db4	-0.05152674
56	0x3b20e19d	0.0024548538
57	0x3c223df9	0.009902471
58	0x3b7f7126	0.0038977354
59	0xbd8055a1	-0.062663324
60	0x3dc19052	0.09451355
61	0xbcad7706	-0.021174919
62	0xbd29bcca	-0.04143981
63	0x3d82fb42	0.0639558
64	0x3d8e342e	0.06943546
65	0xbb08389d	-0.0020785697
66	0x3d221a0d	0.039575625
67	0xbd002650	-0.031286538
68	0xbd86516c	-0.06558499
69	0xbb95d5cd	-0.004572606
70	0x3cb44f66	0.022010516
71	0xbd4d0898	-0.050057024
72	0xbda08efa	-0.078397706
73	0x3da36f3e	0.07980202
74	0x3d2cfe13	0.04223449
75	0x3daf797f	0.085680954
76	0xbc5afe44	-0.013366286
77	0xbcd5243e	-0.026018258
78	0x3cfcfd50	0.030882508
79	0x3d9268b5	0.071488775
80	0xbd6ad20f	-0.057329234
81	0xbbd29551	-0.0064264913
82	0xbb420a5f	-0.0029608232
83	0xbd8007a5	-0.06251458
84	0xbcaf345a	-0.021387268
85	0x3dcc1429	0.09964783
86	0xbda04302	-0.07825281
87	0x3d947129	0.07248146
88	0xbc34de47	-0.011039323
89	0xbcf0aa87	-0.029378189
90	0xbd81278f	-0.06306373
91	0xbdb15649	-0.08659036
92	0x3d44bc56	0.048031174
93	0xbcdd2b63	-0.026998227
94	0x3d7747d7	0.060371246
95	0x3d5729be	0.052530043
96	0x3d6a315b	0.057175975
97	0x3c0de8f0	0.008661494
98	0x3dc53084	0.09628394
99	0xbc109d22	-0.008826526
100	0x3d8acba6	0.06777124
101	0x3d06daaf	0.032923397
102	0x3d0c0d59	0.034192417
103	0xbc15a5b6	-0.009133747
104	0x3ccc531b	0.024941972
105	0xbd9aca43	-0.075581096
106	0xbc57505e	-0.01314172
107	0xbe9550f4	-0.29163325
108	0xbbf9cfab	-0.007623633
109	0x3d27fa1b	0.041010004
110	0x3ccf1055	0.025276342
111	0x3dabd661	0.08390499
112	0xbc203e19	-0.00978043
113	0x3cae46f1	0.021274062
114	0x3ba82311	0.0051311334
115	0xbcf9b63a	-0.0304824
116	0xbd88c373	-0.06677904
117	0xbdae3f2a	-0.08508141
118	0xbe128dea	-0.14311948
119	0xbc7ccf7c	-0.0154303275
120	0xbd440c46	-0.047863267
121	0xbd7e2857	-0.06205019
122	0xbd0b6f47	-0.03404167
123	0x3decd371	0.11563767
124	0xbccf4d52	-0.025305424
125	0xbcb49969	-0.022045808
126	0x3df98c5e	0.12184976
127	0x3d62fd5b	0.0554174
128	0x3d6b13ea	0.05739204
129	0x3d34e0a2	0.04415954
130	0x3d2b0caf	0.041760143
131	0xbcbde922	-0.023182455
132	0xbd63c845	-0.055610914
133	0x3d00fd59	0.03149161
134	0xbd6da7a3	-0.0580212
135	0x3d807bf0	0.06273639
136	0x3c92df52	0.017928753
137	0x3d8854ed	0.06656823
138	0xbbb39bc3	-0.0054812147
139	0x3b739a69	0.0037170893
140	0xbdb70da3	-0.08938148
141	0xbd748c71	-0.059704248
142	0xbd724917	-0.059151735
143	0xbc5a25e3	-0.013314697
144	0x3db4f5bd	0.08835933
145	0xbd023fc4	-0.031799093
146	0x3cbbe12d	0.02293452
147	0xba7fce49	-0.0009758217
148	0x3cb9e702	0.02269316
149	0x3d3ea80a	0.046546973
150	0xbd94114a	-0.0722986
151	0xbc9f6ea6	-0.019461941
152	0x3d8e31a7	0.06943064
153	0xbc78f970	-0.015196189
154	0xbd59001d	-0.052978624
155	0x3b9d2e23	0.0047967597
156	0x3d761395	0.06007727
157	0x3d45326f	0.0481438
158	0x3da2c22c	0.079471916
159	0x3cf6592d	0.03007182
160	0xbdc84fc6	-0.097808406
161	0xba370df3	-0.00069829746
162	0x3d518531	0.05115241
163	0xbd0b5739	-0.03401873
164	0x3c1a1b41	0.009405912
165	0x3d43d691	0.04781205
166	0xbc9e9244	-0.019356854
167	0x3d8a4432	0.067512885
168	0xbc9c112f	-0.019051163
169	0xba831c03	-0.0010002855
170	0xbd97fce7	-0.07421284
171	0xbd61aa42	-0.05509401
172	0xbd40a3ea	-0.04703132
173	0x3dae6f9e	0.08517383
174	0xbca9bb92	-0.020719323
175	0x3afa3fd7	0.0019092512
176	0x3d6f8b8c	0.05848269
177	0xbda000c5	-0.07812647
178	0x3c65b5e7	0.01402042
179	0x3d500d76	0.050794087
180	0x3c4e7e9e	0.01260343
181	0x39247f5e	0.00015687707
182	0x3d1c60ec	0.03817837
183	0xbdd8e101	-0.10589791
184	0xbcd0e22f	-0.025498478
185	0xbc27a957	-0.010233245
186	0xbd839808	-0.06425482
187	0x3d11156c	0.03542082
188	0xbcb24e96	-0.021765988
189	0xbd6ba7b9	-0.057533
190	0x3bdc9db5	0.0067326673
191	0x3c9393fc	0.0180149
192	0xbd59c24f	-0.053163823
193	0x3db64ef2	0.089017764
194	0xbc1f0919	-0.009706759
195	0x3d9b4f54	0.0758349
196	0x3d4b7c9a	0.049679376
197	0xbce747ed	-0.02823254
198	0xbc8660e4	-0.016403623
199	0x3d3f676d	0.046729494
200	0xbd0e0099	-0.03466854
201	0xbd3b526f	-0.04573291
202	0xbd1a124d	-0.03761511
203	0xbb45a52c	-0.0030158265
204	0x3d0f57f7	0.034996
205	0xbc55b4a9	-0.013043561
206	0x3decd75c	0.11564514
207	0xbd78b208	-0.06071666
208	0xbc2dfce9	-0.0106193805
209	0xbd5b9db9	-0.053617213
210	0xbc1322b0	-0.008980438
211	0xbd390d0a	-0.04517845
212	0xbd3e7807	-0.046501186
213	0xbcc87634	-0.024470426
214	0xbc25ee6a	-0.010127643
215	0xbd0961f2	-0.033540674
216	0xbbe1bb9a	-0.006888819
217	0x3c6df399	0.01452341
218	0x3ce8ca63	0.028416818
219	0x3d01c905	0.031685848
220	0xbda8fb31	-0.08251036
221	0x3da1111c	0.078645915
222	0x3ce9b509	0.028528707
223	0xbda04695	-0.078259625
224	0x3da55aa5	0.0807393
225	0xbd46e781	-0.048560623
226	0x3ce2be62	0.027678672
227	0x3b9f1ac8	0.0048554875
228	0xbc9951bf	-0.018715737
229	0x3e132e73	0.14373188
230	0xbd0a25f2	-0.033727594
231	0xbbd8bc4b	-0.006614243
232	0xbca5493d	-0.020176524
233	0x3d148903	0.036263477
234	0xbd4db3f9	-0.050220463
235	0x3cf3cf9b	0.02976208
236	0x3d451b3c	0.048121676
237	0x3ce4cc9f	0.027929602
238	0x3cbd6063	0.02311725
239	0xbd0365d7	-0.032079544
240	0x3bb6f4f7	0.0055834013
241	0x3d485e45	0.048918027
242	0xbd296b89	-0.04136232
243	0xbcf088e8	-0.029362157
244	0x3b246965	0.0025087234
245	0xbd285a9f	-0.041102048
246	0x3d26c407	0.04071429
247	0xbcf282fe	-0.029603478
248	0x3d1a5f56	0.037688576
249	0x3d7a035b	0.061038356
250	0xbd950d51	-0.072779305
251	0x3d101f9a	0.035186388
252	0xbd932ee0	-0.07186675
253	0xbcee2f5b	-0.029075315
254	0x3d86ae5f	0.065762274
255	0xbd064993	-0.03278501

bias f4 [60]
0	0xbd6f9005	-0.058486957
1	0xbd8a7283	-0.067601226
2	0x3d50229e	0.050814264
3	0xbb32c0ab	-0.0027275484
4	0x3d44d1bd	0.048051585
5	0x3da2cd19	0.079492755
6	0x3d4a75b5	0.04942866
7	0x3d532700	0.051550865
8	0xbcddd7c1	-0.027080419
9	0xbced932a	-0.029000837
10	0x3d3d87d3	0.04627211
11	0xbd17dca9	-0.037075672
12	0x3d680a43	0.05665041
13	0xbc94da08	-0.018170372
14	0x3d057573	0.03258271
15	0x3cd1a2c5	0.02559031
16	0x3d616410	0.055027068
17	0x3cd857d4	0.026409067
18	0x3c17f7a6	0.009275353
19	0x3bc65ff0	0.006053917
20	0xbbdf787a	-0.006819782
21	0xbbfaf0b5	-0.007658089
22	0xbd119f4b	-0.035552304
23	0xbc5db2e0	-0.013531417
24	0xbca09ed4	-0.019606985
25	0x3d10ca59	0.035349224
26	0x3d8a1204	0.067417175
27	0xbd2a5821	-0.041587953
28	0xbd62a2e0	-0.05533111
29	0xb90b97c4	-0.0001331261
30	0xbc76faf0	-0.015074477
31	0x3b4a70b1	0.0030889923
32	0xbb761a35	-0.0037552242
33	0x3cae9a63	0.021313852
34	0x3cb5e4aa	0.022203762
35	0x3c63bae8	0.013899542
36	0xbc9c338f	-0.019067554
37	0x3bfc7f46	0.007705602
38	0x3caab42d	0.020837868
39	0x3cc3df21	0.023910107
40	0x3c288ead	0.010287923
41	0xbdc2c97b	-0.095110856
42	0x3d085822	0.033287175
43	0xbc2d7c9b	-0.01058879
44	0xbd4a9a02	-0.04946328
45	0xba98e879	-0.0011665962
46	0xbc823dca	-0.015898604
47	0xbd82c24d	-0.06384716
48	0x3c263ebe	0.010146795
49	0x3bb6d3ad	0.005579433
50	0x3d793c13	0.060848307
51	0x3cd9cb2c	0.026586138
52	0xbcb2667d	-0.021777386
53	0xbc85e1b1	-0.01634297
54	0x3dcdd336	0.10050051
55	0x3cdfa142	0.027298573
56	0x3dce60eb	0.100770794
57	0xbd0eb53a	-0.0348408
58	0x3c830e2c	0.015997969
59	0xbceb00b7	-0.028686864
