data/example_dynamics_data/kitchen_MLP.pth (torch, 664463 bytes, 8 tensors)

weight f4 [256, 70]
0	0xbe76f543	-0.24116997
1	0x3e45f95e	0.19333407
2	0x3e1f92ea	0.15583387
3	0x3de8c80e	0.113662824
4	0xbec46354	-0.3835703
5	0xbe196180	-0.149786
6	0xbdc794cf	-0.0974518
7	0xbe506a18	-0.20352972
8	0xbea20ed3	-0.31651935
9	0x3e02708f	0.1273825
10	0x3cc374ec	0.023859464
11	0xbdd99d05	-0.10625652
12	0x3d7364ec	0.05942242
13	0x3dd78d02	0.10524942
14	0x3d437001	0.047714237
15	0xbdac255a	-0.08405562
16	0x3d7f1bc4	0.06228234
17	0xbe48f7d0	-0.19625783
18	0xbdb990eb	-0.09060844
19	0x3ce2be95	0.027678767
20	0x3e199ebb	0.15001957
21	0xbe5e69a6	-0.21719989
22	0x3cb3f3cd	0.02196684
23	0xbd9e987b	-0.07743927
24	0x3e025288	0.12726796
25	0x3d0d5fe1	0.034515265
26	0x3ddafb25	0.10692433
27	0xbe81e092	-0.25366646
28	0x3e13e7de	0.14443919
29	0x3d9e11bd	0.07718227
30	0x3d99e58f	0.07514488
31	0xbddd42ca	-0.10803755
32	0xbd8ef02a	-0.069794014
33	0x3c27dbe0	0.010245293
34	0xbda99ee1	-0.08282257
35	0xbd3cda81	-0.04610682
36	0x3dbb8641	0.09156466
37	0x3d43c78d	0.04779773
38	0xbc1e3967	-0.0096572405
39	0xbc72d2d3	-0.014820772
40	0x3d88d758	0.066816986
41	0x3d95608a	0.07293804
42	0xbc6e14ba	-0.014531309
43	0x3ddaeabf	0.106893055
44	0xbdc25b09	-0.0949002
45	0x3d334e88	0.043776065
46	0xba780e05	-0.00094625383
47	0x3d36a9af	0.044595417
48	0xbdb17712	-0.08665289
49	0x3d9445c2	0.07239868
50	0xbdbfc8ea	-0.09364493
51	0x3b1a47da	0.0023541362
52	0x3d4464a7	0.047947552
53	0x3dec627a	0.115422204
54	0x3c63e74b	0.013910125
55	0x3dd6be76	0.10485546
56	0x3ca214ff	0.019785402
57	0xbc05bd44	-0.0081628
58	0x3dc4faa8	0.096181214
59	0xbd60e125	-0.054902215
60	0x3b8eeb6d	0.004361561
61	0x3c4f51f9	0.012653821
62	0x3cb4adbd	0.022055501
63	0x3c9e64e0	0.01933521
64	0xbbee88c2	-0.0072794864
65	0xbb9d34f2	-0.0047975713
66	0x3c82146f	0.015878884
67	0xbc908483	-0.017641312
68	0x3c86f183	0.016472584
69	0xbc977887	-0.01849009
70	0xbd143aa9	-0.036188755
71	0xbe36eac7	-0.17862998
72	0x3de5f5ef	0.11228549
73	0x3d0fe1b0	0.03512734
74	0xbd3db980	-0.046319485
75	0xbdae1bf1	-0.08501423
76	0x3c2eeb32	0.010676192
77	0x3e538bd1	0.20658804
78	0x3ec1dc6b	0.37863478
79	0x3d8cfec8	0.06884533
80	0x3d711eec	0.05886738
81	0x3e3ccdc5	0.1843787
82	0x3e1a715f	0.1508231
83	0xbe23acc3	-0.15983872
84	0xbc9f0c2b	-0.019414982
85	0xbdb4cc91	-0.088280804
86	0xbd8ccb24	-0.068746835
87	0xbe81dbb9	-0.25362948
88	0xbe1c8506	-0.1528512
89	0x3ea9bfba	0.33154088
90	0xbd425e62	-0.04745329
91	0xbea708cf	-0.32623908
92	0x3dffc1fc	0.124881715
93	0xbd98be07	-0.0745812
94	0xbdb2e0d4	-0.08734289
95	0xbcff70b1	-0.031181665
96	0xbd98b367	-0.07456093
97	0x3f259a97	0.6468901
98	0x3e70fd5e	0.23534152
99	0xbe82ff36	-0.25585335
100	0xbd766f14	-0.060164526
101	0x3cb255d9	0.021769451
102	0x3d4954d0	0.04915315
103	0xbd624e77	-0.05525061
104	0xbd868f5d	-0.06570313
105	0x3df4241e	0.11920951
106	0xbd466da6	-0.048444413
107	0xbd2eca57	-0.042673435
108	0x3cb864c7	0.022508992
109	0x3da6ac03	0.081382774
110	0xbd9bd9dc	-0.07609913
111	0x3cc44848	0.023960248
112	0xbde356e4	-0.111005574
113	0xbdcff6da	-0.10154505
114	0x3db0d0ec	0.08633599
115	0xbb93850b	-0.004501944
116	0x3dd8606a	0.105652645
117	0xbc9c20d9	-0.019058632
118	0x3d6f56ea	0.058432497
119	0xbcc62df5	-0.024191836
120	0x3c8f02b8	0.017457351
121	0x3def9c02	0.11699678
122	0xbd3a46fb	-0.04547785
123	0xbd59012c	-0.052979633
124	0xbda7b0b1	-0.08187998
125	0x3dcbfa23	0.09959819
126	0xbcf659d1	-0.030072125
127	0xbd9480f7	-0.072511606
128	0x3de7fb1f	0.113271944
129	0xbd285aa0	-0.04110205
130	0x3bbe8c63	0.0058150752
131	0xbc5a0a1c	-0.013308074
132	0x3d04f8f0	0.032463968
133	0xbc1eee88	-0.009700425
134	0x3d156af0	0.036478937
135	0xbca88c36	-0.02057467
136	0xbd080589	-0.033208404
137	0x3d6ffc44	0.05859019
138	0xbd8003e7	-0.06250744
139	0xbc6b152a	-0.014348308
140	0xbdb7a0cf	-0.08966219
141	0x3cfdb713	0.030971086
142	0x3ddeac2b	0.10872682
143	0xbd99d9ad	-0.075122215
144	0xbe0ee66c	-0.13955086
145	0xbd28a4ec	-0.041172907
146	0x3c81ab5a	0.015828777
147	0xbde6d8f5	-0.1127185
148	0xbcc3547a	-0.023843993
149	0xbd77ee53	-0.060530018
150	0x3cab4d27	0.020910813
151	0x3db4a36b	0.08820232
152	0xbd5ab0e2	-0.053391345
153	0x3c6d7e1a	0.014495397
154	0xbd6e87bc	-0.058234915
155	0xbdf7cba8	-0.12099391
156	0xbde40a82	-0.11134817
157	0x3c72dd4e	0.014823271
158	0xbc8ff29d	-0.017571742
159	0xbe22d203	-0.15900426
160	0x3d6a31a5	0.05717625
161	0xbe1c0fb9	-0.15240373
162	0xbbad9d03	-0.0052982583
163	0xbda54d5f	-0.08071398
164	0x3cfef588	0.031122938
165	0x3dac3c07	0.08409887
166	0x3c0bfac6	0.008543676
167	0x3d08abf1	0.0333671
168	0xbe709ce9	-0.23497356
169	0x3bd2f648	0.0064380504
170	0xbd996813	-0.07490554
171	0x3d8a6e9c	0.06759378
172	0x3ced3553	0.028956091
173	0xbd56b7d5	-0.05242141
174	0x3c656304	0.014000658
175	0xbd993801	-0.07481385
176	0xbd518022	-0.051147588
177	0x3da7d37d	0.08194635
178	0x3d974644	0.07386449
179	0xbd6902c8	-0.056887418
180	0xbde3d95a	-0.11125441
181	0xbd90c4c5	-0.07068781
182	0x3cb1a452	0.0216848
183	0xbde92a73	-0.1138505
184	0xbd03b1b6	-0.0321519
185	0xbc87165b	-0.016490152
186	0x3da3c8fb	0.07997318
187	0xbc8ecb21	-0.017430844
188	0xbd9a0a32	-0.07521476
189	0xbdc37d19	-0.09545345
190	0xbc2b361c	-0.010449912
191	0xbce89b8b	-0.028394481
192	0xbdc63fb1	-0.09680117
193	0x3c9d3df8	0.019194588
194	0x3d3096e9	0.04311267
195	0x3b3ae264	0.0028516287
196	0xbd89d26b	-0.06729587
197	0x3d2fee71	0.042952005
198	0x3ddb2626	0.107006356
199	0xbd4cb7fb	-0.049980145
200	0x3ce6cdf0	0.02817437
201	0xbd68c156	-0.056825005
202	0x3cb9cb6e	0.02268001
203	0x3d7f3aa9	0.062311802
204	0x3d39aa54	0.045328453
205	0xbc8e7d05	-0.017393598
206	0x3c92b42d	0.01790818
207	0x3d944583	0.07239821
208	0x3d10d254	0.035356835
209	0xbd51ffb0	-0.051269233
210	0xbc89697a	-0.016773928
211	0x3db1f22d	0.086887695
212	0xbe3903f6	-0.18067917
213	0x3e0b6a12	0.13614681
214	0xbe5b5c0c	-0.21421832
215	0x3df9b9b4	0.12193623
216	0xbd6b1869	-0.057396326
217	0x3d4f7b2f	0.050654586
218	0xbd563541	-0.05229688
219	0x3e34dda6	0.17662677
220	0x3c2e658b	0.010644327
221	0x3d738629	0.059454117
222	0xbc8519ac	-0.016247593
223	0xbd899b60	-0.067190886
224	0xbd90625e	-0.07050012
225	0x3dd04499	0.10169334
226	0xbd6c171d	-0.05763923
227	0x3d5be83e	0.05368828
228	0x3e148b3c	0.14506239
229	0x3e3a99e3	0.18222766
230	0xbe7da36e	-0.24769375
231	0xbee229a1	-0.44172385
232	0xbcaf46f7	-0.021396143
233	0x3e01fa35	0.12693103
234	0x3e03c2bc	0.12867254
235	0xbd906d0d	-0.0705205
236	0x3d6d46e3	0.05792893
237	0x3e0ef39f	0.13960122
238	0xbec6babb	-0.3881434
239	0x3d9e2b26	0.07723074
240	0xbcf251bd	-0.029579991
241	0xbbefc440	-0.007317096
242	0xbd3fdce7	-0.04684153
243	0xbdd397f8	-0.1033172
244	0x3d02e85f	0.031959888
245	0x3db6ce5d	0.089260794
246	0xbd06349c	-0.032765016
247	0x3d27ddf8	0.04098317
248	0xbc5487c3	-0.012971821
249	0xbdebff33	-0.11523285
250	0x3d2af090	0.041733325
251	0xbc854e6e	-0.01627275
252	0x3e00985d	0.12558122
253	0xbcd63e0e	-0.026152637
254	0xbde9c6b8	-0.11414856
255	0xbc915d9f	-0.017744837

bias f4 [256]
0	0x3c8566ea	0.016284425
1	0x3d70e807	0.05881503
2	0x3d068ddb	0.032850128
3	0x3d4b0e16	0.04957398
4	0x3bb2046a	0.005432655
5	0x3cb78ffa	0.02240752
6	0xbd8aa133	-0.067690276
7	0x3c07f945	0.008299177
8	0x3d802449	0.06256921
9	0xbd77ca5c	-0.06049572
10	0xbd01cc09	-0.031688724
11	0xbd125eb6	-0.035734855
12	0x3d8db350	0.06918967
13	0x3d07264a	0.0329955
14	0x3d919a6e	0.07109533
15	0xbcd022f5	-0.025407294
16	0xbd04c337	-0.032412734
17	0xbd6deef1	-0.0580892
18	0x3c96537e	0.018350359
19	0xbd92a453	-0.071602486
20	0x3d85b47f	0.065285675
21	0xbd9f8d9b	-0.07790681
22	0xb96f1a08	-0.00022802514
23	0x3db68444	0.089119464
24	0xbd31cf80	-0.043410778
25	0xbcf4f5ca	-0.029902358
26	0x3d26ac8f	0.04069191
27	0x3ca8785e	0.020565208
28	0xbc348900	-0.0110189915
29	0x3c994126	0.018707823
30	0x3e05adf0	0.13054633
31	0xbce45e90	-0.027877122
32	0x3e0f7935	0.1401108
33	0x3d42e68f	0.04758316
34	0x3d5da037	0.05410787
35	0x3d84671d	0.0646498
36	0x3d309892	0.043114252
37	0x3da49512	0.080362454
38	0xbcb7df21	-0.022445263
39	0x3db504cd	0.08838806
40	0x3cf1adfc	0.029501908
41	0x3b6f8706	0.0036548986
42	0xbcfe65f3	-0.031054473
43	0x3dfa24d8	0.12214059
44	0x3dd219c5	0.102588214
45	0x3c337b1f	0.010954647
46	0x3d9818b8	0.0742659
47	0x3cc6e8cc	0.024280928
48	0x3e199c8a	0.15001121
49	0x3dd92c25	0.10604123
50	0x3d5e0b4b	0.05420999
51	0x3d9e2569	0.07721979
52	0xbdb062b7	-0.08612578
53	0xbca0eb40	-0.019643426
54	0xbc9ef910	-0.019405872
55	0x3d5ca9d8	0.053872913
56	0x3c02feaf	0.007995292
57	0x3dc6d982	0.09709455
58	0xbceeba76	-0.029141646
59	0x3ad4efde	0.0016245802
60	0xbdbe7567	-0.092997365
61	0x3dab0c50	0.08351958
62	0x3dd94c08	0.10610205
63	0x3dcf4a7a	0.10121627
64	0xbdaaf966	-0.0834835
65	0xbc17e651	-0.00927122
66	0x3db7dfec	0.089782566
67	0xbaec9377	-0.0018049319
68	0xbdcd873a	-0.10035558
69	0xbdadbc9a	-0.084832385
70	0x3d7b98df	0.061425086
71	0x3c05660a	0.008142004
72	0x3cc4d775	0.02402852
73	0xbdb17b82	-0.08666135
74	0x3dc2e72c	0.09516749
75	0xbde906a3	-0.11378219
76	0x3b940593	0.004517266
77	0x3d292f18	0.041304678
78	0x3dc6a955	0.09700266
79	0x3d602cc7	0.054730203
80	0xbcf151e1	-0.029457988
81	0xbc1077fc	-0.008817669
82	0xbd00557a	-0.031331517
83	0xbd8d545c	-0.06900856
84	0x3d91ad4a	0.071131304
85	0x3e0b81e2	0.13623765
86	0xbdd2811a	-0.102785304
87	0x3cad2df8	0.021140084
88	0xbd239cae	-0.039944343
89	0x3c338dd6	0.010959109
90	0x3df3e176	0.11908238
91	0x3c7fd727	0.015615261
92	0x3d3ad346	0.045611642
93	0x3d5abad1	0.05340082
94	0xbc8d6fc4	-0.017265208
95	0xbd9f54ee	-0.07779871
96	0x3b7a2e62	0.003817462
97	0x3da2efdc	0.07955906
98	0xbddb48cd	-0.10707245
99	0xbd930583	-0.07178786
100	0x3d2139a3	0.039361607
101	0x3dbee173	0.09320345
102	0xbda2e9ce	-0.07954751
103	0x3cb1958f	0.02167776
104	0x3d897a36	0.06712763
105	0xbd52f19d	-0.05149995
106	0x3d9364e7	0.0719698
107	0xbd3632d1	-0.044482056
108	0xbd993741	-0.07481242
109	0xbd6da0d4	-0.058014706
110	0xbbe1b7db	-0.0068883724
111	0x3ce62eae	0.02809843
112	0xbd42a325	-0.047518868
113	0x3d337c47	0.043819692
114	0xbd332e86	-0.04374554
115	0x3cca8b21	0.024724545
116	0x3cf6d016	0.03012852
117	0x3d0026a5	0.031286854
118	0xbc84ab34	-0.016194917
119	0xbdc94e7c	-0.09829423
120	0x3dc73b5a	0.09728117
121	0x3d820f19	0.06350536
122	0x3e1251a7	0.1428896
123	0xbdcd8870	-0.10035789
124	0xbcf82d95	-0.030295173
125	0xbc9bff03	-0.019042498
126	0x3d53f017	0.05174264
127	0xbd45ed29	-0.048321877
128	0xbd048578	-0.03235385
129	0x3dd2f300	0.10300255
130	0xbd439b7a	-0.047755696
131	0xbd9535ba	-0.07285638
132	0x3dc76b4c	0.09737262
133	0x3da7b977	0.081896715
134	0x3d914233	0.070927046
135	0x3df6899c	0.12037966
136	0xbd684756	-0.056708656
137	0x3dbcd48a	0.09220226
138	0xbddf7893	-0.109116696
139	0xbc27d318	-0.0102432
140	0x3b2122d0	0.00245874
141	0xbc951da1	-0.018202605
142	0xbdef4a9d	-0.11684153
143	0x3d34ff71	0.04418892
144	0xbe026d5a	-0.12737027
145	0x3d418a17	0.047250833
146	0x3d1ee90d	0.038796473
147	0xbd0c93c1	-0.034320597
148	0xbc6bac52	-0.014384346
149	0xbd534fdf	-0.051589843
150	0xbd050f1e	-0.03248512
151	0xbc1a006a	-0.009399513
152	0x3d307b23	0.043086182
153	0xbd5e30c4	-0.054245725
154	0x3dea1f18	0.11431712
155	0x3d8d448c	0.0689784
156	0xbda9993f	-0.082811825
157	0xbddca8e5	-0.107744016
158	0x3d62b52b	0.055348556
159	0xbd02b9fb	-0.031915646
160	0xbd916e00	-0.07101059
161	0xbda866ba	-0.082227185
162	0xbbdbf8e2	-0.0067130188
163	0x3c462cc2	0.012095632
164	0x3d7f8313	0.06238086
165	0x3db4bdd8	0.08825272
166	0x3c5c38a1	0.013441236
167	0xbd2f218f	-0.042756613
168	0xbd9c5e65	-0.07635192
169	0xbd975ba3	-0.07390525
170	0xbda7fade	-0.08202146
171	0x3d3b07c7	0.045661714
172	0xbdd89b63	-0.10576513
173	0xbd89fec6	-0.06738047
174	0xbaf2f288	-0.0018535415
175	0x3ccee1e3	0.025254196
176	0xbc088793	-0.008333105
177	0x3d9ad107	0.075594
178	0xbdabf490	-0.08396256
179	0xbd02b9d8	-0.031915516
180	0xbd83c47d	-0.064339615
181	0x3dcd0138	0.10009998
182	0xbcd950e2	-0.026527826
183	0xbdacd380	-0.08438778
184	0x3df9409d	0.12170527
185	0xbd74c1ad	-0.059755016
186	0xbd545f1b	-0.051848512
187	0x3cab9238	0.020943746
188	0xbd038562	-0.032109626
189	0xbcb930bb	-0.022606244
190	0xbd719bbd	-0.058986414
191	0x3c1c0463	0.00952253
192	0x3b30b03f	0.002696052
193	0x3cfe3a9a	0.031033803
194	0xbc87719b	-0.016533663
195	0xbde11efa	-0.109922364
196	0xbc08e3cb	-0.008355091
197	0xbd96fe84	-0.07372764
198	0x3d2907c3	0.041267168
199	0xbd6c5cde	-0.057705753
200	0xbde98dfd	-0.11404035
201	0x3dbfa0d0	0.093568444
202	0x3d9bc758	0.07606381
203	0xbd09d145	-0.03364684
204	0x3daaa0a8	0.08331424
205	0xbdc78b62	-0.09743382
206	0x3d0e8823	0.0347978
207	0xbcdd07a8	-0.02698119
208	0xbd9a3298	-0.07529181
209	0xbdbf672d	-0.09345851
210	0xbd453c92	-0.048153467
211	0x3d862041	0.06549121
212	0xbc84b123	-0.016197747
213	0x3b94c9ac	0.0045406427
214	0x3e0d1dad	0.13780852
215	0xbcdeb630	-0.027186483
216	0xbd08c529	-0.03339115
217	0x3d926b91	0.07149423
218	0xbcbc01ee	-0.022950139
219	0x3de5435e	0.1119449
220	0xbab730f1	-0.0013976378
221	0xbc1ecb92	-0.00969209
222	0xbbbe77cd	-0.005812621
223	0xbd0740f2	-0.03302092
224	0x3e00d874	0.1258257
225	0xbd57cfe3	-0.05268849
226	0x3dc6facc	0.097158045
227	0xbdbe41b0	-0.09289873
228	0x3da906da	0.0825326
229	0xbc829e84	-0.015944727
230	0xbc46ac05	-0.012125974
231	0xbdb5e409	-0.08881385
232	0x3d59104d	0.05299406
233	0xbd0195e4	-0.031637087
234	0x3cbe8588	0.023257032
235	0x3d216e5e	0.039411895
236	0xbdc9a2e4	-0.09845522
237	0x3e04e3ea	0.12977567
238	0xbd2e985a	-0.042625763
239	0x3c3cc74a	0.011522124
240	0xbdba9923	-0.0911124
241	0xbd86a488	-0.065743506
242	0x3b09e28a	0.0021039569
243	0x3db4df4d	0.08831654
244	0x3a8621a9	0.001023342
245	0x3de60978	0.11232275
246	0x3d3f99fc	0.04677771
247	0x3ca5cb5b	0.020238569
248	0xbb271925	-0.0025497165
249	0x3dd9d045	0.106354274
250	0x3da7fe13	0.08202758
251	0x3dd0065f	0.10157465
252	0xbdc1e84a	-0.09468134
253	0xbd516f94	-0.0511318
254	0x3d0cceaa	0.034376778
255	0x3db2cbba	0.08730264

weight f4 [256, 256]
0	0xbc346a85	-0.011011724
1	0x3cc7d15e	0.024391826
2	0x3d9af9a3	0.07567146
3	0x3ddde54b	0.1083475
4	0xbcc84a96	-0.024449628
5	0x3d187d5c	0.037228927
6	0x3e0fab48	0.14030182
7	0xbd2dea51	-0.04245979
8	0xbdbf2225	-0.093326844
9	0x3ca431bc	0.020043246
10	0x3baa10dc	0.005189998
11	0x3d8d745d	0.0690696
12	0x3d398994	0.04529722
13	0x3ba7f030	0.005125068
14	0x3d16fa8d	0.036860038
15	0xbc119973	-0.008886683
16	0xbd81de10	-0.06341183
17	0x3d7cc855	0.06171449
18	0xbd83edf9	-0.06441874
19	0xbe19b5a2	-0.15010694
20	0x3cbb0439	0.022829162
21	0x3c8043a4	0.015657254
22	0xbba1c4bb	-0.004936782
23	0xbde787fc	-0.11305234
24	0x3db7de2f	0.08977925
25	0x3cacabf5	0.02107809
26	0xbd301cef	-0.042996343
27	0x3d4ce8ed	0.050026823
28	0xbd188038	-0.037231654
29	0x3b400d13	0.0029304668
30	0xbd33edf5	-0.043928105
31	0xbd1e65d3	-0.038671326
32	0xbb7168bf	-0.0036836115
33	0xbce15fd3	-0.027511513
34	0x3dc05daf	0.09392869
35	0xbc0fcb01	-0.008776427
36	0xbcf324a0	-0.02968055
37	0x3cc283be	0.02374446
38	0x3ca011e5	0.019539783
39	0xbdec367f	-0.11533832
40	0xbd03baab	-0.032160442
41	0x3caf20c0	0.021377921
42	0xbc18f8a2	-0.009336622
43	0xbc003fea	-0.007827738
44	0x3aa96ad9	0.001292552
45	0xbd326eb7	-0.043562617
46	0x3d8ef168	0.06979638
47	0xbd822f61	-0.06356693
48	0x3cef6906	0.029224884
49	0xbd11dad2	-0.035609074
50	0x3d984863	0.07435682
51	0xbcafd5f0	-0.021464318
52	0xbc323d40	-0.010878861
53	0x3d8fbbe9	0.07018263
54	0xbc3ed325	-0.0116470205
55	0xbcd417dc	-0.025890283
56	0xbd081d00	-0.03323078
57	0xbbabadf6	-0.0052392436
58	0x3cf65759	0.030070947
59	0x3c5c2417	0.013436339
60	0xbd1b77ed	-0.037956167
61	0xbb1feabf	-0.0024401394
62	0xbd92ffdf	-0.0717771
63	0xbcdc5506	-0.026896011
64	0xbd25c363	-0.04046954
65	0x3c75ed20	0.015010148
66	0xbd2af9e8	-0.041742235
67	0x3cbb5c2f	0.022871105
68	0xbb91a9db	-0.004445297
69	0x3c6a19a7	0.014288343
70	0x3c9c43ea	0.019075353
71	0x3d9312d3	0.07181325
72	0xbd08b5ea	-0.03337661
73	0x3d5485df	0.051885482
74	0xbcb31ae3	-0.021863407
75	0xbdcfbff0	-0.10144031
76	0xbd558033	-0.052124213
77	0x3d7b5f4a	0.06137017
78	0x3d85de81	0.0653658
79	0x3d8acfb6	0.06777899
80	0xbd2c43e5	-0.042056937
81	0xbbe77deb	-0.007064571
82	0x3ca70302	0.020387176
83	0xbd03970b	-0.032126468
84	0xbd2d2ee7	-0.042281058
85	0x3daa5c8e	0.08318435
86	0x3ca69236	0.02033339
87	0xbc42034e	-0.011841608
88	0xbc14b764	-0.009076927
89	0xbc76d0e6	-0.015064454
90	0x3c9d15f2	0.019175503
91	0x392c308f	0.00016421288
92	0xbcd77c34	-0.026304342
93	0xbdd423a8	-0.103583634
94	0xbda1793a	-0.0788445
95	0x3ae5babb	0.0017526963
96	0xbad9ed5d	-0.0016626526
97	0x3c1dc65d	0.009629813
98	0xbc1e76ec	-0.009671908
99	0xbc917344	-0.017755158
100	0xbca85895	-0.020550052
101	0x3c29dd18	0.010367654
102	0x3d5066cf	0.050879296
103	0x3bd0057f	0.0063483114
104	0x3d758654	0.05994256
105	0x3d523fa8	0.05133024
106	0xbe2cbf8d	-0.16869946
107	0x3d80cb80	0.062888145
108	0x3dfcc192	0.12341608
109	0xbc1741e6	-0.00923202
110	0x3b8353a7	0.004007775
111	0xbc7c51b1	-0.015400336
112	0xbcdd0043	-0.026977664
113	0xbc768258	-0.015045725
114	0x3cb92526	0.022600722
115	0x3a4ddc94	0.0007852998
116	0x3d209d72	0.03921265
117	0x3ca19e70	0.01972887
118	0xbe075285	-0.13215072
119	0x3d334daa	0.043775238
120	0xbc175895	-0.009237428
121	0x3d4b0932	0.049569316
122	0xbb602cf0	-0.0034206472
123	0x3d5fdc13	0.05465324
124	0x3d97a42e	0.07404362
125	0xbaaea7f5	-0.0013325202
126	0x3d851e66	0.06499939
127	0xbd67e235	-0.056612212
128	0xbc6d241c	-0.014473941
129	0x3d438dc2	0.047742613
130	0xbe8bb7b9	-0.27288607
131	0xbceebd0b	-0.029142877
132	0x3c0e19fe	0.008673189
133	0xbbcc82c8	-0.0062411763
134	0x3c90f5f5	0.017695406
135	0xbc8f3dab	-0.01748546
136	0x3e16c633	0.14724045
137	0x3ac37586	0.0014912344
138	0xbc245707	-0.010030515
139	0x3d75cc48	0.06000927
140	0x3d5cc46a	0.053898253
141	0x3bcd7d85	0.0062710666
142	0xbd19ec72	-0.037579007
143	0x3d3f9aa6	0.046778344
144	0xbdfa46f2	-0.12220563
145	0xbd78ea4d	-0.06077032
146	0xbcfda5b8	-0.03096281
147	0xbc3ce790	-0.011529818
148	0xbd599910	-0.053124487
149	0xbce714e5	-0.028208205
150	0x3c2f9d6a	0.010718683
151	0x3ce86753	0.028369581
152	0xbd90463c	-0.07044646
153	0xbc0eed9e	-0.008723645
154	0x3d2566b7	0.04038116
155	0xbdb5e035	-0.08880655
156	0xbd70c67c	-0.05878304
157	0xbddb706b	-0.107148014
158	0xbb74562e	-0.0037282812
159	0x3c6d9c28	0.014502563
160	0x3d8c10ef	0.06839167
161	0x3c774403	0.015091899
162	0xbd2f0176	-0.042726003
163	0xbcbcb6c5	-0.02303637
164	0xbbccecee	-0.00625383
165	0xbd1688a1	-0.036751393
166	0x3d37e13b	0.04489253
167	0x3e125b57	0.14292656
168	0x3c8e8932	0.017399404
169	0xbdc66030	-0.09686315
170	0xbc732ee7	-0.014842725
171	0xba7a1741	-0.0009540208
172	0xbdec1287	-0.11526971
173	0x3db6f4b9	0.08933396
174	0xbc87ae08	-0.016562477
175	0xbdba64ee	-0.09101282
176	0x3d9d36e5	0.07676486
177	0xbe0950f3	-0.13409786
178	0x3c82adba	0.01595198
179	0x3d5ca695	0.053869803
180	0x3c948840	0.018131375
181	0xbc0b9bee	-0.008521063
182	0x3cac9043	0.021064883
183	0x3a864c0a	0.001024605
184	0x3c587c03	0.01321316
185	0xbd24c7b6	-0.04022952
186	0x3d50c54a	0.0509694
187	0x3d5cc598	0.053899378
188	0x3e084f47	0.13311492
189	0xbc4e1a93	-0.012579578
190	0xbe035daa	-0.12828699
191	0xbd7f38f4	-0.062310174
192	0x3be6f191	0.00704784
193	0x3d487bf9	0.048946355
194	0x3b33699f	0.0027376187
195	0xb90e4e77	-0.00013571406
196	0x3ae2208d	0.0017252133
197	0xbcf4531f	-0.029824791
198	0x3d80f780	0.06297207
199	0xba9d09e3	-0.0011981096
200	0xbd2799a4	-0.040918007
201	0xbd2edc78	-0.042690724
202	0xbc08ca77	-0.008349053
203	0xbcc7bbf6	-0.024381619
204	0x3db5fc11	0.088859685
205	0x3bda7efc	0.0066679697
206	0xbbbd43ae	-0.0057758903
207	0xbc084ea4	-0.008319531
208	0x3d12500d	0.035720874
209	0xbd3cae28	-0.046064526
210	0x3c52cf35	0.012866785
211	0xbd10ae70	-0.035322607
212	0xbcfa91d4	-0.030587114
213	0x3d67364b	0.056448262
214	0x3c9e893f	0.019352553
215	0x3d5db1cc	0.05412464
216	0xbcf8dd9d	-0.030379111
217	0xbd21bbce	-0.039485745
218	0x3cb90fc9	0.022590535
219	0x3b1771ad	0.0023108528
220	0xbd635cc4	-0.05550839
221	0x3de97e70	0.11401069
222	0xbc76d45a	-0.015065277
223	0xbd48436f	-0.048892435
224	0xbc6731d3	-0.014111
225	0xbc5eaa35	-0.013590385
226	0x3cba45e5	0.022738406
227	0x3cd4e697	0.02598886
228	0x3c380862	0.011232467
229	0x3c63a08b	0.013893257
230	0xbd9cb5cf	-0.07651865
231	0x3d9d3a74	0.07677165
232	0xbd09e67d	-0.033667076
233	0xbab7b4cb	-0.0014015672
234	0x3d4cd6b4	0.050009444
235	0xbcee598a	-0.02909543
236	0xbd3cc111	-0.04608256
237	0xbc2c8d09	-0.010531672
238	0x3da5efe7	0.08102398
239	0x3cfb7f61	0.030700387
240	0x3d4768e8	0.04868403
241	0x3cc548c9	0.024082558
242	0x3bfe4e8a	0.0077608274
243	0x3b7acf6d	0.0038270608
244	0x3dc1a9ab	0.0945619
245	0xbd12f5aa	-0.035878815
246	0xbd51daaa	-0.051233925
247	0x3cefe82c	0.029285513
248	0x3cc01c0d	0.023450876
249	0x3d49e25b	0.049288135
250	0xbcd9bd70	-0.026579589
251	0x3c28a27f	0.010292648
252	0xbd64db17	-0.055873003
253	0x3cfd7077	0.030937416
254	0xbd262b04	-0.040568367
255	0x3cb1c7d9	0.02170174

bias f4 [256]
0	0xbcc2b8c2	-0.02376974
1	0x3d3eeb35	0.04661103
2	0x3d30102e	0.04298418
3	0x3d5b392c	0.05352132
4	0xbd670281	-0.056398872
5	0xbd2fefa8	-0.042953163
6	0xbd213a52	-0.03936226
7	0xbd2cced3	-0.04218943
8	0xbd911681	-0.070843704
9	0xbd9074ce	-0.07053529
10	0x3a6e0927	0.00090803433
11	0xbc80273b	-0.015643707
12	0x3d2a03c0	0.041507483
13	0x3d7b7172	0.061387487
14	0xbbaf3c14	-0.005347738
15	0xbd87115e	-0.065951094
16	0x3d469454	0.0484813
17	0x3c3a7138	0.0113795325
18	0xbcba5020	-0.022743285
19	0xbcb9ad93	-0.022665774
20	0x3b9c1a22	0.0047638575
21	0xbcd37b01	-0.025815489
22	0xbc9b76c7	-0.018977536
23	0x3cc19343	0.02362979
24	0xbc6decba	-0.014521772
25	0xbdac29f2	-0.08406438
26	0x3cdf996d	0.027294839
27	0xbcdf44f7	-0.027254565
28	0xbcb78bd4	-0.022405542
29	0x3c1bf5e4	0.009519074
30	0x3bdc11ef	0.006716005
31	0x3cd89871	0.026439877
32	0xbc0c365d	-0.008557883
33	0x3ccfbc39	0.025358306
34	0xbb181cad	-0.0023210451
35	0xbd4ef962	-0.0505308
36	0xbca63444	-0.020288594
37	0x3d2d901d	0.042373765
38	0xbbd20e98	-0.006410431
39	0x3cbbb163	0.022911733
40	0xbc8acd2e	-0.01694354
41	0xbcc87faa	-0.024474937
42	0xbca383b1	-0.019960256
43	0x3d7a55af	0.06111687
44	0x3c0ccdde	0.008594004
45	0xbcc9db9d	-0.024640853
46	0xbd259c5b	-0.040432315
47	0xbd11400c	-0.03546147
48	0x3bfbdad2	0.0076859975
49	0xbcab1912	-0.020885978
50	0x3ca57779	0.02019857
51	0xbcb4bda5	-0.022063086
52	0x3d8621d0	0.06549418
53	0x3c0244d2	0.007950978
54	0x3d848f7a	0.064726785
55	0x3d290b1b	0.041270357
56	0xbc0b2174	-0.008491863
57	0x3d494141	0.049134497
58	0x3c8b0208	0.016968742
59	0xbd3c4551	-0.045964543
60	0xbbfa6792	-0.007641741
61	0xbbbdf724	-0.0057972837
62	0x3cd6b014	0.026207007
63	0x3be1c26c	0.006889632
64	0xbd82154e	-0.0635172
65	0xbcdef3d4	-0.027215876
66	0xbd9055f2	-0.07047643
67	0x3c900e9c	0.017585091
68	0x3d04f313	0.032458376
69	0x3d86f52b	0.06589731
70	0x3a9fca13	0.001219096
71	0x3d8b7a91	0.06810487
72	0xbbed65a1	-0.007244781
73	0x3d499b37	0.04922029
74	0x3cc6047f	0.024172066
75	0x3d61ca28	0.05512443
76	0x3c6cdbfa	0.014456743
77	0xbaca0527	-0.0015412912
78	0x3d472db3	0.048627567
79	0xbc9d73b4	-0.01922021
80	0xbbbd4508	-0.0057760514
81	0xbd768bad	-0.0601918
82	0x3cce1cbc	0.025160186
83	0xbd69839b	-0.057010274
84	0xba5ac5b0	-0.0008345498
85	0x3d606675	0.05478521
86	0x3ce89f16	0.02839617
87	0x3c85000f	0.01623538
88	0x3d7799bb	0.060449343
89	0x3b416e85	0.0029515338
90	0x3d92b3f4	0.071632296
91	0x3d9a7f11	0.07543767
92	0x3b681953	0.0035415485
93	0xbcbcf1e1	-0.023064556
94	0x3d420e60	0.04737699
95	0xbc2bea63	-0.010492894
96	0x3d3c1a2d	0.0459234
97	0xbd8aeaa3	-0.06783035
98	0x3cf415a8	0.029795483
99	0x3d8a6a0d	0.06758509
100	0x3d2310b4	0.03981085
101	0x3d4a52ee	0.049395494
102	0xbd5157d2	-0.051109143
103	0xbd3ba326	-0.045809887
104	0xbcfb39be	-0.030667182
105	0x3c3d7689	0.0115639055
106	0x3ce3f0e2	0.027824823
107	0xbb128db0	-0.0022362284
108	0xbd4a895d	-0.049447406
109	0xbb9fdfdd	-0.0048789815
110	0x3d1575fe	0.03648948
111	0x3d4ae5f0	0.04953569
112	0xbcdc0ad8	-0.02686064
113	0xbd5a3462	-0.053272612
114	0xbce57f7d	-0.028014893
115	0xbd94cd5f	-0.07265734
116	0xbd33f9f6	-0.043939553
117	0xbd4cb3c4	-0.049976125
118	0x3bccd2b1	0.0062507023
119	0x3d35326c	0.04423754
120	0x3d7dcfe5	0.06196584
121	0x3d19564d	0.03743582
122	0x3cf5407a	0.029937971
123	0xbc76f8a0	-0.015073925
124	0xbc964c90	-0.018347055
125	0x3d275da9	0.040860806
126	0xbc0e2ed8	-0.008678161
127	0xbce42824	-0.027851172
128	0x3bc3f39c	0.0059799682
129	0xbdab73e2	-0.08371712
130	0x3d28c70b	0.041205447
131	0x3d5dd638	0.054159373
132	0xbd317a7b	-0.043329697
133	0xbc025bbc	-0.0079564415
134	0x3c8edcbe	0.017439242
135	0xbc9e4715	-0.019321004
136	0x3c333da2	0.010939987
137	0xbd97a64a	-0.07404764
138	0xbccd8fda	-0.025093008
139	0x3ca6d243	0.020363932
140	0xbcb00924	-0.021488734
141	0x3d29d5e5	0.04146375
142	0x3d02cc93	0.03193338
143	0x3cb7bbd3	0.022428429
144	0x3d9fddd9	0.07805986
145	0x3d344e71	0.04402012
146	0xbcca1f4e	-0.02467313
147	0x3c8e1dee	0.017348256
148	0xbd3a1310	-0.045428336
149	0xbd1fc47a	-0.039005734
150	0x3d644de7	0.055738356
151	0xbccafba5	-0.024778197
152	0xbc7082ca	-0.01467962
153	0x3c99c73f	0.018771766
154	0x3d2ac509	0.041691814
155	0xbcc61299	-0.02417879
156	0x3a89cf9f	0.0010514146
157	0x3cdf2206	0.027237903
158	0xbd291327	-0.04127803
159	0x3d71a3d6	0.058994137
160	0x3d3d1718	0.046164602
161	0xbd7650fc	-0.060135826
162	0x3cbe7d34	0.02325306
163	0xbc6e480c	-0.0145435445
164	0xbd8a660a	-0.06757744
165	0xbd382322	-0.04495538
166	0xbc3bc7c7	-0.011461205
167	0x3d1b7928	0.03795734
168	0x3d0c8394	0.03430517
169	0x3c3fe0d3	0.011711317
170	0xbc1a0422	-0.009400399
171	0x3c9a0805	0.018802652
172	0xbd798c45	-0.060924787
173	0xbcc164b0	-0.023607582
174	0xbb1e7cdb	-0.0024183306
175	0xbd4de1bc	-0.050264105
176	0xbd080ac5	-0.033213396
177	0xbc41199e	-0.011785893
178	0x3a28abb4	0.0006434277
179	0xbd94d0fd	-0.07266424
180	0xbd74fd1b	-0.059811693
181	0xbc452468	-0.012032606
182	0x3d775cd4	0.060391262
183	0xbc90eca7	-0.01769097
184	0xbcd3336c	-0.025781356
185	0xbc1c3252	-0.009533482
186	0x3cf5514d	0.029945994
187	0x3d1c5432	0.038166232
188	0xbca45180	-0.020058393
189	0xbc1b3014	-0.009471912
190	0xbce27fa6	-0.027648758
191	0x3c081778	0.008306377
192	0x3d0286b7	0.031866755
193	0xbd836b83	-0.064169906
194	0xbbcd017c	-0.0062562805
195	0xbc6cc250	-0.014450625
196	0xba9fe539	-0.0012199051
197	0x3d6dfe7a	0.058104016
198	0x3ccb19d0	0.024792582
199	0x3d480815	0.048835833
200	0xbc27f7c4	-0.010251943
201	0xbd1ed282	-0.038774975
202	0xbd5b4277	-0.053530183
203	0x3d3a3766	0.04546299
204	0xbc507027	-0.012722052
205	0xbd27f0af	-0.041001018
206	0x3d24f453	0.04027207
207	0xbc51d423	-0.012806925
208	0xbd112b30	-0.035441577
209	0xbc34f4e1	-0.011044712
210	0xbbf5668c	-0.007489031
211	0xbd447eaa	-0.04797236
212	0x3a417fc3	0.00073814037
213	0x390990b8	0.0001311925
214	0x3c9f302c	0.01943215
215	0xbca82b76	-0.020528536
216	0x3cc81874	0.024425723
217	0x3c7cc40f	0.015427603
218	0x3c815dfc	0.015791886
219	0xbd073642	-0.03301073
220	0x3d201023	0.03907789
221	0x3c81a490	0.01582554
222	0x3bc39a03	0.0059692874
223	0xbd83eaae	-0.06441246
224	0xbbd9f7cd	-0.0066518546
225	0xbce1fd79	-0.027586685
226	0x3d34ce5f	0.044142123
227	0xbd869454	-0.0657126
228	0x3c9124ef	0.017717807
229	0x3d8fa789	0.07014377
230	0x3d8c25fa	0.06843181
231	0x3dbdc2fb	0.09265705
232	0xbd5973f2	-0.05308909
233	0x3d5e71b5	0.05430766
234	0xbd30f574	-0.043202832
235	0x3d25185e	0.04030644
236	0x3d356b7f	0.04429197
237	0x3c956afc	0.01823949
238	0xbc35fa6a	-0.011107067
239	0xbcb0c05d	-0.021576101
240	0x3d814e2e	0.0631374
241	0x3cf229f5	0.029561022
242	0xbd178448	-0.036991388
243	0x3d160f90	0.036635935
244	0xbd2a7da3	-0.041623723
245	0xbb55a83f	-0.0032601503
246	0x3c89414d	0.01675477
247	0xbd1d0bca	-0.03834132
248	0x3d65138b	0.05592684
249	0x3cd60577	0.026125653
250	0xbd1cdef7	-0.038298573
251	0x3d1d35d9	0.03838143
252	0xbd1abd95	-0.037778456
253	0xbd59b632	-0.05315227
254	0x3d20d0e4	0.039261714
255	0xbca17d8c	-0.019713186

weight f4 [256, 256]
0	0xbd2e9153	-0.04261906
1	0xbcaad182	-0.020851854
2	0xbd2e2880	-0.042519093
3	0xba0f04d6	-0.00054557377
4	0xbc1a024c	-0.009399962
5	0xbd699f76	-0.05703684
6	0xbd4e9121	-0.050431374
7	0x3a449e76	0.0007500419
8	0xbc8f6002	-0.017501835
9	0x3d47c683	0.0487733
10	0x3c081905	0.008306746
11	0x3d0b2c9c	0.03397809
12	0x3d47ccfd	0.048779476
13	0x3cb7ab9f	0.022420703
14	0xbc8e82fe	-0.017396446
15	0x3d0954cc	0.033528134
16	0x3ba2cdde	0.004968389
17	0xbc4651ae	-0.012104435
18	0xbcd2b3f6	-0.025720578
19	0xbcbe351a	-0.02321868
20	0x3dbeb0fa	0.09311099
21	0x3cfeabc1	0.031087758
22	0x3bde0a3a	0.0067761214
23	0xbd3f8d44	-0.04676558
24	0xbbf012fa	-0.007326481
25	0xbc1189d0	-0.008882955
26	0x3cf6b99b	0.0301178
27	0xbc8a9d03	-0.016920572
28	0x3c1065ec	0.008813363
29	0x3d0c9697	0.0343233
30	0x3d7c1427	0.061542656
31	0xbc12d54c	-0.008961987
32	0xbc6ebc04	-0.014571194
33	0xbd836a48	-0.06416756
34	0xbd05a852	-0.032631226
35	0x3b8fdc9c	0.0043903124
36	0x3ca73379	0.020410286
37	0xbd887f4e	-0.066649064
38	0x3c4f0275	0.012634863
39	0xbb504abf	-0.0031782833
40	0x3b773758	0.0037722196
41	0xbc9af131	-0.018913837
42	0xbc345c28	-0.0110083
43	0x3d0a372d	0.033744026
44	0x3d03c496	0.0321699
45	0xbd89e033	-0.06732216
46	0x3d91b1fb	0.07114025
47	0x3c8d4b5b	0.017247846
48	0x3d283e0f	0.04107481
49	0x3c8f9e69	0.01753159
50	0xbd75b977	-0.059991326
51	0xbc9c0986	-0.01904751
52	0x3c876caf	0.016531317
53	0x3d0df2de	0.034655444
54	0xbd54f173	-0.051988076
55	0x3bde3341	0.0067810123
56	0x3d8f7114	0.0700399
57	0x3c5b034e	0.013367487
58	0xbd52cbd2	-0.05146391
59	0x3b067c77	0.0020520964
60	0x3d3f0bb3	0.046642017
61	0xba03c59d	-0.00050267
62	0xbd7f5617	-0.06233796
63	0xbcbdd355	-0.02317206
64	0x3a8748c2	0.0010321366
65	0x3c3cfc09	0.011534699
66	0xbd209182	-0.039201267
67	0xbd40c893	-0.047066282
68	0xbd917c52	-0.0710379
69	0xbd0213d2	-0.031757183
70	0x3d32ead3	0.043680977
71	0xbcff61f4	-0.031174637
72	0xbd2973a6	-0.041370057
73	0x3d4331ac	0.047654793
74	0x3d1abce1	0.037777785
75	0xbd07248c	-0.03299384
76	0x3c89a7fe	0.016803738
77	0x3d342e9a	0.043989755
78	0x3d50fefe	0.05102443
79	0x3c72ca92	0.014818804
80	0xbc0dcca4	-0.008654747
81	0x3d8a9f2c	0.06768641
82	0xbd1fa75b	-0.038977962
83	0x3d3a6bc2	0.045512922
84	0xbbe94211	-0.0071184714
85	0xbd78ce53	-0.06074364
86	0xbd7e0cc2	-0.062023886
87	0xbd90cf7d	-0.07070825
88	0xbc552710	-0.0130098015
89	0x3b9dd2ca	0.004816388
90	0xbd0e232e	-0.03470152
91	0x3d32d493	0.043659758
92	0xbd34933b	-0.044085722
93	0xba4ffd39	-0.00079341565
94	0xbc8cbd71	-0.017180176
95	0x3b4882b4	0.0030595483
96	0xbccf5520	-0.025309145
97	0x3d894b36	0.067037985
98	0x3cee395b	0.029080084
99	0x3d151f1b	0.036406618
100	0xbd2ccbe8	-0.042186648
101	0x3b350410	0.002762083
102	0xbd812093	-0.06305041
103	0x3b794481	0.0038035216
104	0x3d2149c7	0.039377
105	0x3d4f5210	0.05061537
106	0xbccd30ed	-0.025047744
107	0x3c79c43a	0.015244538
108	0xbd21af07	-0.03947356
109	0x3d41bca7	0.047299054
110	0xbc357816	-0.011075994
111	0x3d065b82	0.032802112
112	0x3cbaf338	0.022821054
113	0xbd4fbedb	-0.050719123
114	0xbd873642	-0.06602146
115	0x3d0e4aaf	0.034739193
116	0xbd5181ee	-0.0511493
117	0xbaf214c4	-0.0018469323
118	0xbd0d47cb	-0.034492295
119	0x3d565603	0.05232812
120	0xbd0b5e92	-0.034025736
121	0xbc01c33f	-0.007920085
122	0x3d08eab4	0.033426955
123	0xbc966128	-0.018356875
124	0x3cc6bdc7	0.024260415
125	0x3ca310c2	0.019905452
126	0xbbee72dc	-0.007276876
127	0x3d1b2b17	0.03788289
128	0xbb362f51	-0.00277992
129	0xbd05475e	-0.032538764
130	0x3d219713	0.039450716
131	0x395c0730	0.00020983513
132	0x3b3952b4	0.0028278055
133	0xbcd8cf85	-0.02646614
134	0xbc451ae7	-0.01203034
135	0xbd446eb8	-0.047957152
136	0xbcfdd436	-0.03098498
137	0xbcc95cf9	-0.024580466
138	0xbcae94f9	-0.02131127
139	0x3d26987c	0.040672764
140	0x3c823eee	0.015899148
141	0x3d37702d	0.044784714
142	0x3d42a26c	0.04751818
143	0xbb2c7eac	-0.002632062
144	0xbcb52204	-0.022110946
145	0x3a2f6368	0.0006690533
146	0x3bc1744b	0.005903756
147	0xbb47a499	-0.0030463098
148	0xbcfe2152	-0.031021748
149	0x3d9284e3	0.071542524
150	0x3d2b3961	0.041802768
151	0x3ce02ee7	0.027366115
152	0x3c018df3	0.0079073785
153	0xbd15f7ad	-0.036613155
154	0x3c8597a4	0.01630766
155	0x3b44e58a	0.0030044043
156	0xbd7450a1	-0.059647206
157	0xbcd983ce	-0.026552107
158	0xbd8ce68d	-0.068799116
159	0xbcd16601	-0.025561335
160	0xbd0bf29b	-0.034166913
161	0xbd644b35	-0.055735786
162	0xbd0cde00	-0.034391403
163	0xbd72c7a7	-0.059272435
164	0xbce2d8ca	-0.027691264
165	0x3cefd05e	0.029274162
166	0x3d006de6	0.031354807
167	0xbd1d560b	-0.038412135
168	0x3c8fb481	0.017542126
169	0x3d91c742	0.071180835
170	0x3c6f274d	0.014596772
171	0x3ce1dc93	0.027570998
172	0xbc8bb2c1	-0.01705301
173	0xbc09c9e6	-0.008409953
174	0xbb42e5d1	-0.0029739032
175	0xbcd9742c	-0.026544653
176	0xbcb3a456	-0.021928947
177	0x3d54e37f	0.05197477
178	0xbd8245ab	-0.06360944
179	0xbc896514	-0.01677183
180	0x3cb46b96	0.022023957
181	0x3ce96610	0.02849105
182	0xba622deb	-0.0008628058
183	0xbca92e7c	-0.020652048
184	0x3c956962	0.018238727
185	0x3ca09f63	0.019607252
186	0x3cda15b5	0.026621679
187	0xbd266d80	-0.04063177
188	0xbd939bf3	-0.07207479
189	0xbd1228e9	-0.035683546
190	0xbd3f82a0	-0.046755433
191	0x3cba8548	0.022768632
192	0x3d3be3b7	0.045871463
193	0x3cf6ac57	0.030111475
194	0xbd83936d	-0.064246036
195	0x3bdf1442	0.006807835
196	0xbcb7b22f	-0.022423832
197	0xbd5aa4be	-0.053379767
198	0xbd3b0751	-0.045661274
199	0xbd4f5fba	-0.0506284
200	0xbcc850bf	-0.024452565
201	0x3b3cd1d5	0.0028811593
202	0x3d429007	0.047500636
203	0xbb96fa9b	-0.004607511
204	0x3beac972	0.0071651274
205	0x3c396a57	0.011316857
206	0xbd5e1067	-0.05421486
207	0x3d1c94d7	0.038227882
208	0x3bcde414	0.0062832925
209	0xbd948dac	-0.07253584
210	0xba85ac30	-0.0010198411
211	0xbce7b602	-0.02828503
212	0x3c904bb1	0.017614217
213	0x3d8097e6	0.06278972
214	0x3bcda167	0.006275344
215	0xbd31a201	-0.04336739
216	0xbd41fac6	-0.047358297
217	0x3ce274bf	0.02764356
218	0xbbf56a06	-0.0074894456
219	0xbcaade73	-0.020858025
220	0xbc8c5d85	-0.017134437
221	0x3c14e336	0.009087374
222	0x3d2e74f9	0.042592023
223	0xbd135b39	-0.03597567
224	0xbbbbd749	-0.005732451
225	0xbd41c144	-0.047303453
226	0x3d16fe76	0.036863767
227	0xbd353d8b	-0.044248145
228	0x3d5680d3	0.05236895
229	0x3cadafc3	0.021201974
230	0xbc8d6a60	-0.017262638
231	0xbd48a723	-0.04898752
232	0x3c2b8eef	0.01047109
233	0xbcc5e23a	-0.024155725
234	0xbbce965a	-0.0063045444
235	0xbb02764f	-0.0019906943
236	0x3c8bbad8	0.017056867
237	0x3be2128f	0.006899185
238	0x3d2e823e	0.042604677
239	0x3d327daa	0.043576874
240	0xbc28ef10	-0.010310903
241	0xb9bc9e10	-0.0003597592
242	0xbd7ac0b2	-0.061218925
243	0x3cdb5edc	0.02677863
244	0xbcdde8b4	-0.0270885
245	0xbd6c49b3	-0.057687473
246	0x3dd4b955	0.10386912
247	0x3d576baa	0.05259291
248	0xbce21f16	-0.027602714
249	0xbd8b8039	-0.06811566
250	0xbd2249c5	-0.039621133
251	0x39d92315	0.00041415603
252	0xbbefbbd0	-0.00731609
253	0x3d3fdb34	0.046839908
254	0xbd33f413	-0.04393394
255	0xbc8c81cc	-0.017151736

bias f4 [256]
0	0x3c830a46	0.01599611
1	0xbceaa474	-0.02864287
2	0x3cc1e467	0.023668481
3	0x3d82a461	0.06379009
4	0xbc24f732	-0.010068702
5	0xbbaf1ca5	-0.005343991
6	0x3cc536cb	0.024073979
7	0x3ca0f864	0.019649692
8	0x3c0ed901	0.00871873
9	0x3d571244	0.052507654
10	0x3cf964d8	0.030443594
11	0xbd0fff72	-0.03515572
12	0x3d1161e2	0.03549374
13	0x3c1b8237	0.009491495
14	0x3d3c4d70	0.045972288
15	0xbdb5a00b	-0.088684164
16	0x3d261ae0	0.040552974
17	0xbc0d7665	-0.0086341845
18	0x3c93ee90	0.018058091
19	0xbc0401ff	-0.0080571165
20	0x3d85fe28	0.06542617
21	0x3cbe005e	0.023193534
22	0x3d87f988	0.06639391
23	0x3c2af1c4	0.010433618
24	0xbd0dcc58	-0.034618706
25	0x3d42f367	0.047595408
26	0xbcf51785	-0.029918442
27	0xbd31c027	-0.04339614
28	0x3c8fa9b7	0.017536981
29	0x3c614d86	0.013751393
30	0xbd40e86d	-0.04709666
31	0xbd395685	-0.045248527
32	0x3ce45ee4	0.027877279
33	0x3cc47aa9	0.02398427
34	0x3d319b79	0.04336116
35	0xbdb2882f	-0.08717381
36	0x3c6318ed	0.013860923
37	0x3c97e5d8	0.018542215
38	0x3d6cceb4	0.057814315
39	0xbc1c0264	-0.009522054
40	0x3d2df2f0	0.04246801
41	0x3d9fa754	0.07795587
42	0xbdacd39b	-0.08438798
43	0xbd1ebb04	-0.03875257
44	0xbc75182a	-0.014959374
45	0x3c13dfbf	0.009025513
46	0x3cfe0c81	0.031011822
47	0xbc91e671	-0.017810078
48	0x3c81d754	0.015849747
49	0xbd02d449	-0.031940732
50	0xbd0d0259	-0.034426067
51	0xbd942f0e	-0.072355375
52	0xbd37b9f5	-0.044855077
53	0x3cc31704	0.023814686
54	0x3d433e67	0.047666933
55	0x3d813060	0.06308055
56	0x3d0462d1	0.0323208
57	0x3d586971	0.05283493
58	0xbd3f53b9	-0.046710704
59	0xbcf8fcd0	-0.030393988
60	0xbcbebf32	-0.023284528
61	0xbc20c174	-0.009811748
62	0xbc51769b	-0.012784625
63	0xbd3d4cf1	-0.046215955
64	0xbdb64fd8	-0.08901948
65	0x3da180f1	0.07885922
66	0xbd1961b0	-0.037446678
67	0x3cb917bf	0.02259433
68	0xba8633b2	-0.0010238795
69	0x3c5accce	0.013354493
70	0x3b0873e4	0.002082103
71	0x3bf9b3c6	0.0076203076
72	0xbb264114	-0.002536838
73	0x3d2e8e08	0.04261592
74	0xbd1e2e0f	-0.038618144
75	0x3cbd01d3	0.023072159
76	0xbc63eaf0	-0.013910994
77	0xbc628b3f	-0.013827144
78	0x3cb7247e	0.022356268
79	0x3d88afdd	0.06674168
80	0xbcc48385	-0.023988495
81	0xbcf0e7dc	-0.029407434
82	0x3cea80ba	0.028625835
83	0xbd592cb8	-0.053021163
84	0xbd5affda	-0.053466655
85	0x3c67cf3d	0.014148531
86	0xbd60e31a	-0.05490408
87	0xba94d810	-0.0011355896
88	0xbd6032c9	-0.054735932
89	0xbb085375	-0.0020801697
90	0x3de6624d	0.11249218
91	0xbd5322f9	-0.051547024
92	0xbd6a8e50	-0.057264626
93	0xbcd4bdd8	-0.02596943
94	0x3cb5da6b	0.022198876
95	0xbc54c95d	-0.012987462
96	0x3d936455	0.07196871
97	0x3d20ca24	0.039255276
98	0xbcdf7459	-0.027277159
99	0x3d6532bb	0.055956583
100	0xbcc38eb8	-0.023871765
101	0x3c774343	0.01509172
102	0xbc122691	-0.008920328
103	0x3d603cae	0.05474537
104	0xbdb18076	-0.0866708
105	0x3d5c651f	0.053807374
106	0xbd44e5ee	-0.04807084
107	0x3cf97e0b	0.03045561
108	0xbd8bcf30	-0.06826627
109	0xbd8f5cde	-0.07000135
110	0xbd52fe58	-0.051512092
111	0xbc594dff	-0.013263225
112	0xbd500523	-0.05078615
113	0xbd34ed2e	-0.044171505
114	0xbce9e5a1	-0.028551878
115	0xbc670256	-0.014099678
116	0x3d7f09db	0.06226526
117	0x3d8376af	0.064191215
118	0xbd0a52df	-0.03377044
119	0x3d44bdf3	0.048032712
120	0x3d8ddb14	0.069265515
121	0xbd844879	-0.064591356
122	0xbd598111	-0.053101603
123	0xbd665cec	-0.05624096
124	0xbd4e386b	-0.050346773
125	0x3ca19eb6	0.019729
126	0x3d9a4c62	0.075341
127	0xbdbc02d9	-0.09180231
128	0x3cc37683	0.023860222
129	0xbcd41cd9	-0.025892662
130	0xbc9d76a8	-0.019221619
131	0x3d0000f0	0.031250894
132	0xbcc55e4f	-0.024092821
133	0x3c15f598	0.009152792
134	0xbc146f90	-0.009059802
135	0x3d91df83	0.071227096
136	0xbc147546	-0.009061163
137	0x3a1bcd90	0.0005943412
138	0x3a646602	0.000871271
139	0x3b1c0fb7	0.0023813078
140	0x3b9d355b	0.0047976202
141	0x3c97a37b	0.01851057
142	0xbb90f0d0	-0.0044232383
143	0x3d6ceadb	0.057841163
144	0x3db4185e	0.0879371
145	0x3dcb327d	0.09921739
146	0xbd74b2bd	-0.05974077
147	0xbc133e6c	-0.0089870505
148	0x3d33a955	0.04386266
149	0x3db89782	0.09013273
150	0xbcfbee81	-0.030753376
151	0x3d42d56c	0.047566816
152	0x3d28b3f4	0.04118724
153	0xbd60e83b	-0.054908972
154	0xbda76d7f	-0.081751816
155	0x3db1ca09	0.08681113
156	0x3c8626a9	0.016375856
157	0x3d80677d	0.06269739
158	0xbd7fdb2f	-0.06246489
159	0xbc9805d3	-0.018557465
160	0x3da583c9	0.08081777
161	0xbd7436d5	-0.059622604
162	0xbda2468e	-0.079236135
163	0x3d013534	0.03154488
164	0xbd9d9d92	-0.0769607
165	0x3d90bc92	0.07067217
166	0x3c85641d	0.01628309
167	0xbce4ccfd	-0.027929777
168	0x3da17a2e	0.07884632
169	0xbd9d119b	-0.076693736
170	0xbd199dda	-0.037504055
171	0xbd6c1f29	-0.057646904
172	0x3cee0c97	0.029058738
173	0x3c77fc87	0.015135891
174	0xbd9ea6f2	-0.07746686
175	0x3dbd47b2	0.092421904
176	0x3d5e5423	0.054279458
177	0x3d877854	0.06614748
178	0xbc51229e	-0.012764601
179	0xbd49c2b2	-0.04925794
180	0xbce8a029	-0.028396683
181	0x3d8f8026	0.07006864
182	0xbdcda28d	-0.1004077
183	0x3a12ab8b	0.000559502
184	0xbda1588e	-0.078782186
185	0x3ce066a0	0.027392685
186	0x3ada1a27	0.0016639874
187	0x3aed68eb	0.0018112933
188	0x3d640f95	0.055678923
189	0x3c982b2a	0.01857527
190	0x3da4ed3c	0.08053061
191	0x3d73017b	0.059327584
192	0x3c9a2ece	0.018821146
193	0xbd458c3d	-0.048229445
194	0x3d88fea1	0.066891916
195	0x3d3b261c	0.04569064
196	0x3d81abc5	0.063315906
197	0x3c7f9896	0.015600344
198	0x3da13d3e	0.07873009
199	0xbbf106f1	-0.007355564
200	0xbd890346	-0.066900775
201	0xbc166b1d	-0.009180811
202	0x3d4c6453	0.049900364
203	0x3c7ef273	0.015560734
204	0x3d953af3	0.07286634
205	0x3d240972	0.04004807
206	0x3ae1d6ae	0.0017230117
207	0x3a31e8eb	0.00067867216
208	0x3cf9bc9a	0.03048544
209	0xbd2e9028	-0.042617947
210	0xbd953ca1	-0.07286955
211	0x3cd92ea4	0.026511498
212	0x3b78ddfb	0.0037974108
213	0xbd4a47a1	-0.049384717
214	0x3c08ab2d	0.008341593
215	0x3d318e10	0.043348372
216	0x3d2ac0de	0.04168784
217	0xbceba003	-0.028762823
218	0xbd99b6cb	-0.07505568
219	0xbd3bcf6c	-0.04585211
220	0x3c137e57	0.00900229
221	0x3c35d233	0.011097479
222	0x3a217133	0.00061585306
223	0xbd07cccd	-0.033154298
224	0x3d4635f7	0.04839131
225	0x3cf6d660	0.030131519
226	0xbc2d68e2	-0.010584088
227	0xbd1e3354	-0.03862317
228	0xbd1fe93e	-0.039040796
229	0x3b0b011b	0.0021210376
230	0x3bcbea66	0.006223011
231	0xbcb90b6a	-0.02258845
232	0xbcbef51f	-0.023310242
233	0x3ce81a4f	0.028332857
234	0xbd43c07b	-0.047790986
235	0xbd30f0ff	-0.04319858
236	0x3d95c331	0.073126204
237	0x3d09e9d3	0.033670258
238	0xbb5d400e	-0.0033760103
239	0x3c9e87ce	0.019351866
240	0xbd3869a5	-0.045022625
241	0x3c3eb80f	0.011640563
242	0x3d06bf58	0.032897323
243	0xbcfd97a9	-0.030956106
244	0x3cc07753	0.023494398
245	0xbd36eea9	-0.044661198
246	0x3c2181d0	0.00985761
247	0x3c6251fd	0.013813493
248	0x3d0c3ee4	0.034239665
249	0xbd0dee35	-0.034651
250	0x3aa856f5	0.0012843298
251	0x3d485d55	0.048917133
252	0x3d8a48d9	0.06752176
253	0x3c431e45	0.011909072
254	0xbc2de729	-0.010614195
255	0x3cdca270	0.026932925

weight f4 [60, 256]
0	0xbb92f942	-0.0044852803
1	0xbd00ba57	-0.031427708
2	0x3c9c4601	0.01907635
3	0xbe4a1132	-0.19733122
4	0xbd18a6a3	-0.037268292
5	0xbe759c2b	-0.23985355
6	0xbcb9af3a	-0.022666562
7	0x3d1f95f0	0.03896135
8	0xbc247f41	-0.010040105
9	0xbd889594	-0.06669155
10	0xbcc95bb6	-0.024579864
11	0x3dcb8130	0.0993675
12	0x3da444b1	0.08020914
13	0xbdf01af7	-0.11723893
14	0x3ccfbc23	0.025358265
15	0x3d727e71	0.059202615
16	0xbc8491f6	-0.01618288
17	0xbc1f7ea1	-0.0097347805
18	0xbc819261	-0.01581687
19	0x3c5eb1d1	0.013592199
20	0x3c9147fd	0.017734522
21	0xbba1a655	-0.0049331584
22	0x3cfccd0b	0.03085949
23	0xbd83b5fd	-0.06431196
24	0x3d2ed0c7	0.042679574
25	0xbd30381a	-0.043022253
26	0x3d0043d9	0.031314705
27	0xbe067dc1	-0.13133909
28	0xb8d83894	-0.00010310221
29	0xbce7a804	-0.028278358
30	0x3d89e756	0.06733577
31	0x3e7f9ddf	0.24962567
32	0xbc804f55	-0.015662828
33	0xbd8679b9	-0.065661855
34	0x3c814300	0.015779018
35	0xbd0c5646	-0.034261964
36	0xbd8fa2c7	-0.07013469
37	0x3cfee4bb	0.031114927
38	0xbbc26a2e	-0.0059330678
39	0xbd4dda03	-0.05025674
40	0x3d567e15	0.052366335
41	0xbd1f20a6	-0.038849495
42	0xbd0bf404	-0.03416826
43	0xbd4682fa	-0.048464753
44	0xbc5ca90a	-0.013468036
45	0xbd47c28c	-0.04876952
46	0x3e0cdacb	0.13755338
47	0x3e65ae05	0.22429664
48	0xbcda2b25	-0.026631901
49	0x3d3cf9b2	0.046136566
50	0xbd9f1b68	-0.07768899
51	0xbd1a29ff	-0.037637707
52	0xbd866618	-0.065624416
53	0x3e4c1906	0.1993142
54	0x3c91caaf	0.017796842
55	0x3d2ddf64	0.04244937
56	0x3d676100	0.05648899
57	0x3b7dc15d	0.003871999
58	0x3c29fd4f	0.010375335
59	0x3d7706ad	0.0603091
60	0x3b2dd730	0.0026525967
61	0x3d93ab63	0.07210424
62	0xbd290c80	-0.041271687
63	0xbd62d55b	-0.055379253
64	0xbd393204	-0.045213714
65	0x3e01548f	0.12629913
66	0x3d0aee94	0.033918932
67	0xbd1456e4	-0.036215678
68	0xbb2df12a	-0.002654145
69	0xbd656010	-0.055999815
70	0xbd3bf8eb	-0.045891684
71	0xbcbb08e1	-0.022831382
72	0xbd001268	-0.031267554
73	0x3d0e2e74	0.03471227
74	0xbcef4ef0	-0.029212445
75	0xbc79706d	-0.015224558
76	0xbcb41587	-0.021982921
77	0xbc0a7379	-0.008450382
78	0x3c5e61e9	0.013573148
79	0xbb8b9aab	-0.004260381
80	0xbda3b14e	-0.079928026
81	0xbe147bf7	-0.14500414
82	0xbdc752be	-0.09732579
83	0xbce27327	-0.0276428
84	0xbc9d90fe	-0.019234177
85	0xbd40e3fc	-0.047092423
86	0x3ceef25e	0.029168304
87	0xbcf20117	-0.029541535
88	0x3c522256	0.012825569
89	0xbbc101b9	-0.005890098
90	0x3c37bebe	0.01121491
91	0x3b9902d9	0.004669529
92	0xbd7bd07c	-0.061478123
93	0xbd639c95	-0.05556925
94	0xbe2009ae	-0.15628693
95	0xbd94ceaf	-0.07265984
96	0xbd91000e	-0.070800886
97	0xbb4b7d79	-0.003105013
98	0x3d7f1a5b	0.062280994
99	0xbce1bffd	-0.027557367
100	0xbd8bb5b6	-0.06821768
101	0x3d44db50	0.048060715
102	0xbb8fad23	-0.004384653
103	0xbd923f1c	-0.071409434
104	0x3d8c9d4e	0.06865941
105	0xbd74be2e	-0.059751682
106	0xbd47c754	-0.04877408
107	0xbd27836a	-0.04089681
108	0x3e1e109b	0.15436022
109	0xbd0f2bd5	-0.03495391
110	0x3cff988a	0.031200666
111	0x3c2687b3	0.010164189
112	0xbdfef80f	-0.12449657
113	0x3d092457	0.033481922
114	0x3c08d80f	0.008352294
115	0x3cce00d9	0.025146889
116	0x3d1477a9	0.03624693
117	0x3c437684	0.011930112
118	0x3c20f983	0.009825113
119	0x3c702e45	0.014659469
120	0xbd3e3daa	-0.046445526
121	0xbdfd407c	-0.12365815
122	0x3e416fdb	0.18890326
123	0x3d1e1954	0.038598374
124	0x3d6ae6bc	0.05734895
125	0xbe0f4483	-0.13990979
126	0xbd07339d	-0.033008207
127	0x3d2152ce	0.03938561
128	0xbd4387ce	-0.047736935
129	0x3d46b89a	0.048515894
130	0x3c8636da	0.016383577
131	0xbd831960	-0.06401324
132	0x3d613f4e	0.054992013
133	0x3d4672f2	0.048449464
134	0xbce7facb	-0.02831783
135	0x3cdf7b90	0.027280599
136	0x3d57b8ec	0.05266659
137	0xbd04a500	-0.03238392
138	0x3d650aaf	0.05591839
139	0xbcd6cc4c	-0.026220463
140	0x3d35e4ec	0.04440777
141	0x3dd21313	0.10257544
142	0xbd8c3ff2	-0.06848134
143	0xbd00b9f8	-0.031427354
144	0xbb438484	-0.0029833624
145	0xbcd04ec1	-0.025428178
146	0x3d09a030	0.033600032
147	0x3d803d96	0.062617466
148	0xbdc31aca	-0.09526594
149	0x3d54b00f	0.051925715
150	0xbdbb6563	-0.09150197
151	0xbc9cba76	-0.01913188
152	0xbd6c583f	-0.057701346
153	0x3e52658c	0.2054655
154	0x3d5272c3	0.051378977
155	0xbd970a94	-0.073750645
156	0xba7c16cb	-0.00096164335
157	0x3a899a87	0.0010498323
158	0xbb98acd3	-0.004659274
159	0xbc7d21ed	-0.015449983
160	0x3b918323	0.0044406815
161	0xbc14fb76	-0.009093156
162	0x3d095ca8	0.03353563
163	0xbd4e1940	-0.05031705
164	0x3d990f75	0.07473651
165	0xbd9d304a	-0.07675226
166	0x3b83b085	0.0040188455
167	0xbcec3f14	-0.028838672
168	0x3cf2edeb	0.029654464
169	0x3ed2758c	0.41105306
170	0x3d51f487	0.05125859
171	0x3cbc63f2	0.022996876
172	0x3c5a0ca9	0.0133086825
173	0xbbcbd75a	-0.0062207403
174	0x3bca79f9	0.006179091
175	0xbd7f54ae	-0.062336616
176	0xbd06d6ce	-0.032919697
177	0xbdbb994b	-0.09160098
178	0xbd7b863b	-0.06140731
179	0xbcfd2353	-0.030900633
180	0xbcbca534	-0.023027994
181	0x3bdb4922	0.0066920677
182	0x3d37ebfb	0.044902783
183	0xbcdc21ba	-0.02687155
184	0xbd16b405	-0.036792774
185	0x3d03d765	0.032187838
186	0xbd3eee51	-0.046613995
187	0xbd162d0b	-0.03666405
188	0xbd7e611e	-0.062104337
189	0x3bd753a2	0.006571249
190	0xba265c80	-0.0006346181
191	0xbe17a782	-0.14809993
192	0x3d96afbb	0.07357737
193	0xbcca808e	-0.024719503
194	0xbce7be89	-0.028289096
195	0x3e3e6fc7	0.18597327
196	0xbc88534d	-0.016641283
197	0xbdb73dbb	-0.08947321
198	0xbba5e3ce	-0.005062557
199	0xbd8b6388	-0.068060935
200	0x3d8d23c4	0.068915874
201	0x3d717ce3	0.058956992
202	0x3d0ac57c	0.033879742
203	0x3eacecfb	0.33774552
204	0x3d477e14	0.04870422
205	0x3c4b7673	0.012418377
206	0x3c1f4e07	0.009723193
207	0x3b704fe3	0.003666871
208	0xbd787871	-0.060661737
209	0xbddc351c	-0.10752317
210	0xbd376e1e	-0.04478275
211	0x3c057db8	0.0081476495
212	0xbbfad981	-0.007655323
213	0x3d8ed02f	0.069733016
214	0x3ae156f0	0.0017192047
215	0x3c3084f8	0.01077389
216	0xbe032af9	-0.12809362
217	0x3d0988de	0.033577792
218	0xbe3bcb90	-0.18339372
219	0xbbadc44b	-0.005302941
220	0x3b68f4bf	0.003554627
221	0xbd056655	-0.032568295
222	0xbc8b4efb	-0.017005434
223	0x3c7738d7	0.015089235
224	0xbc298bed	-0.010348302
225	0xbc8f20c0	-0.017471671
226	0xbd59a473	-0.053135347
227	0xbd25d326	-0.04048457
228	0xbd3d4d32	-0.046216197
229	0x3dcd7757	0.10032528
230	0x3dbce490	0.09223282
231	0x3d4b26f2	0.049597688
232	0x3d596c91	0.053082053
233	0xbcebc4e7	-0.028780414
234	0xbc49623b	-0.012291486
235	0xbd45017e	-0.048097126
236	0xbd439b40	-0.04775548
237	0x3ae18423	0.0017205518
238	0x3cdbe11b	0.026840737
239	0xbda47bd6	-0.08031432
240	0xbd07eb20	-0.033183217
241	0x3d49378b	0.049125236
242	0xbd63d790	-0.0556255
243	0x3d182f19	0.03715429
244	0xbd819ce6	-0.06328754
245	0xbd3db111	-0.04631144
246	0xbc33aaa5	-0.010965978
247	0xbdb7506d	-0.08950887
248	0x3c85d53d	0.016337031
249	0xbd5fb83e	-0.054619066
250	0x3cf9db29	0.030500012
251	0xbd53d5d2	-0.051717587
252	0xbe0a4c0b	-0.1350557
253	0xbbc5b918	-0.006034028
254	0xbdabc19a	-0.08386536
255	0xbd833bd7	-0.06407898

bias f4 [60]
0	0xbd722bbe	-0.059123747
1	0xbd8fb48a	-0.07016857
2	0x3d55ca98	0.05219516
3	0xbdbd0c83	-0.09230902
4	0x3c24faa5	0.010069524
5	0xbca8b07b	-0.020591965
6	0xbc3e9627	-0.011632479
7	0xbc4bd4c6	-0.012440866
8	0xbc29584f	-0.010335996
9	0x3b9d14cc	0.004793739
10	0x3ca234ed	0.019800628
11	0x3b8511f5	0.0040609785
12	0x3cfb0878	0.030643687
13	0x3d7132a2	0.058886178
14	0x3d374b63	0.04474963
15	0x3b00c8f9	0.001965104
16	0xbcbc6914	-0.022999324
17	0x3c9959a5	0.018719504
18	0x3d218beb	0.039440077
19	0xbce48b6e	-0.027898517
20	0xbd5bf6b5	-0.053702075
21	0x3cb1011e	0.021606978
22	0xbd1ae872	-0.037819333
23	0xbcac63d7	-0.021043701
24	0xbc0bcb87	-0.008532411
25	0x3dc6a578	0.096995294
26	0x3d8b167d	0.06791399
27	0x3d0b0964	0.033944502
28	0x3b23f162	0.0025015702
29	0x3d5e6835	0.0542986
30	0x3d03e691	0.032202307
31	0x3ce63be6	0.028104734
32	0x3cdfd4f1	0.027323218
33	0xbbdcb0ef	-0.0067349593
34	0x3d262344	0.040560976
35	0x3958f2b0	0.00020689773
36	0xbcfa104b	-0.030525347
37	0xbcf52be2	-0.029928152
38	0x3d2fe532	0.042943187
39	0xbd1deb83	-0.03855468
40	0xbd2a454b	-0.04156999
41	0xbd79d9f6	-0.06099888
42	0xbd085317	-0.033282366
43	0x3cef4d87	0.029211773
44	0xbc935f13	-0.01798967
45	0xbcec3e69	-0.028838353
46	0xbd2d126a	-0.04225389
47	0xbd7ab430	-0.061206996
48	0x3d072fd3	0.033004593
49	0x3cd0be8c	0.025481485
50	0x3d0a63bf	0.03378653
51	0xbccb5126	-0.024818968
52	0x3c756c36	0.014979413
53	0x39f5b3eb	0.0004686409
54	0x3da1d8fa	0.07902713
55	0x3d9d2fd9	0.07675142
56	0x3d2f2b93	0.042766165
57	0x3c3d9b6c	0.0115727
58	0x3cbe6892	0.023243222
59	0xbc493749	-0.012281247
