data/example_dynamics_data/kitchen_MLP.pth (torch, 664463 bytes, 8 tensors)

weight f4 [256, 70]
00000000: ab49 0b3c c026 f0bd e6d1 733d b4cf b13d
00000010: a423 aebc 594d 163d 45b8 1e3d afe4 d9bd
00000020: 0be0 81be 53fa 4dbe a2e8 d53d 6eb4 ffbd
00000030: 9edc 0fbe 1f0e 27bd 798e b33d 2f20 22bc
00000040: 4f78 45bc 5485 d4bc 3cc2 afbd 75bf 523d
00000050: 45a4 8f3d 5156 03bd da08 b7bd 8ae6 503d
00000060: d597 fdbd 02ea edbd ac50 2abd 1093 3ebe
00000070: b435 c7bd 41ce 763e 61bc ff3c 814d c6bd
00000080: ae5f 4f3d 21b3 d93d f585 0a3b cd68 8bbd
00000090: 2df4 91bd 4a9f 093d 4e57 be3d 7333 d5bd
000000a0: faad 5c3d f7e1 cab9 4935 a4bd 975b af3b
000000b0: 2b41 85bc 3f9e 053b 5d88 b33c 6aed 693d
000000c0: ea8e ea3d 4da8 acbc 5e8d d2bd dd20 b53c
000000d0: ee83 b1bd 5a8c f3bc 5939 8a3d ac4a f13d
000000e0: afd4 cf3d f78b 55bd 5561 dfbd ab2e 91bd
000000f0: 07d4 873d 1c61 c5bc 0306 8f3c 9194 833d
00000100: f971 ddbc dedc 593a 9463 003c 41ab 8ebd
00000110: 1615 973d 3304 bebc 08db 97bb 5c6e 243c
00000120: 6cdb 9d3c 68a1 c7bd 2134 cf3d 79b3 833d
00000130: 1d00 e9bd 3b15 023e 6d19 cb3c dc98 f2bd
00000140: 190f b1bd 14dd fc3b 05fe c0bc 6ad2 28bc
00000150: de07 8b3d b564 edbd 1aaf 053c 8963 e43d
00000160: 2e0e 85bd 523a eabd 42c8 0abe 21e1 45bb
00000170: 8b6b 08be da77 d8bd 8f04 80bc d184 6c3c
00000180: 46c0 4b3d 496a c1bb 75fb 9a3c 5922 63be
00000190: 3a03 adbb 6de6 cf3d cca2 a5bd 3fea c63d
000001a0: 969c 09bd 88ef aa3d bb0c d0bd fc24 c73d
000001b0: 3d1f b63c 8c97 e3bd 678b eabd 3298 d23c
000001c0: 9471 e4bd fc31 263d 17c7 833b a34c 173c
000001d0: 1e0e de3c 4344 e13c 58a3 ddbc a598 d1bd
000001e0: 672d aebd 983c 62bc d13b 2abd 3d2d 22bb
000001f0: b0b7 da3d 6c1c b13d 20d6 a23d 9713 b0bd
00000200: 0c58 893d dac3 e93c a0d4 8b3c ea92 783c
00000210: 97de 61bd 12e3 cfbb 3af8 2d3d e433 56bd
00000220: f040 db3c d704 8e3d 6537 b23c 3004 c53d
00000230: 9fa1 b83d 766e b33c c877 323d 8f2d 3dbd
00000240: 8482 0fbd 02f7 2e3d 1c89 5d3d 786b f2bd
00000250: f202 1a3e 2e09 21bd 5071 8dbd 74d9 283e
00000260: c04d fc3c f98c b8bd 2d48 663c 0f39 30be
00000270: ff29 0dbe 4e63 abbc 73d0 93bd f9bc 9bbe
00000280: 0b96 59bd 9272 47be 231f df3e 8a64 4abd
00000290: c3dc 37be ce5a a83d 0f28 9abd 9597 3a3e
000002a0: 37b5 993e 8632 93bc 585d e93d bb17 a23d
000002b0: 6c14 143d eafb e03b 6a97 973d 5424 a1bc
000002c0: 116d c83d 034f 0dbd a984 5bbc 6501 e03d
000002d0: 744f 97bd d422 aa3d c25f 633c 4971 d1bd
000002e0: 2d20 083d 5f86 09bd 6845 dc3d 9a45 ed3d
000002f0: 91bd eb3d bd6e a3b9 d578 a1bc 72c6 11bd
00000300: 5bc5 77bd 9199 ee3d cd2c afbd 5f0a 9b3d
00000310: 9dc1 a0bd ef9b f73c fd64 393d 9725 b53d
00000320: 8c9e 90bd e9f9 1c3d ce7a 76bc 8e66 55bd
00000330: 2197 9cbd 7f81 3f3d 1bd7 593d a8d3 bfbc
00000340: 5906 a23b b3a0 0a3b 421b 0f3e 00da dabd
00000350: b097 193e 08d7 6ebd b024 29be 3daf 343e
00000360: 99de 963c 4dbf 23bd 0e3c 80bd 80b3 04be
00000370: aee9 d9bb 5390 063e f754 80bd fd6b d63c
00000380: 4521 143e 86a4 823d 9af3 8d3d 2b43 df3d
00000390: 6b39 183d f3e9 bf3e 564e f33d 12ca 26be
000003a0: 02fc 843d 9c45 a73d 23d4 cebd d6bc 633c
000003b0: c002 863d 9590 ccbd 3346 873d 11d4 a9bd
000003c0: 2108 d43d 55ab 61bd 2543 3cbd f846 1a3d
000003d0: d824 923d 1a3d 2b3d be39 1dbd 2af4 debd
000003e0: b749 983d d635 eabc 5c4e f33d 7a08 bf3d
000003f0: 5056 a83d 9b53 85bd ad94 013d af2c cebd
0.0085014505 -0.11726141 0.059526347 0.08682194 -0.02125723 0.03669486 0.038749952 -0.10639321
-0.25366244 -0.20115022 0.10444762 -0.12485586 -0.14049003 -0.04078495 0.08767409 -0.0098953685
-0.01205261 -0.025942482 -0.08581969 0.05145212 0.07013754 -0.03206474 -0.08937235 0.05100111
-0.12382475 -0.11616899 -0.04158084 -0.18610787 -0.0972704 0.24102117 0.031217756 -0.096827514
0.050628357 0.10629869 0.0021136974 -0.068070985 -0.07126651 0.033599176 0.09293996 -0.10410204
0.053876854 -0.000386968 -0.08017976 0.0053514945 -0.016266426 0.0020388511 0.021915609 0.05711118
0.1145304 -0.021076346 -0.1028087 0.022110397 -0.08667742 -0.02973001 0.067492194 0.11781821
0.10147988 -0.052135434 -0.109072365 -0.07088979 0.06632238 -0.024094157 0.017458921 0.06424821
-0.027031885 0.0008310805 0.007836241 -0.06966258 0.07377069 -0.023195362 -0.004634265 0.010036077
0.019269668 -0.09747583 0.10117365 0.06430716 -0.11376975 0.12703411 0.024792397 -0.11845562
-0.08645458 0.0077167843 -0.023558626 -0.010304073 0.0678861 -0.11591474 0.008159423 0.11151797
-0.06496845 -0.11436905 -0.13552955 -0.0030194002 -0.13322274 -0.10569735 -0.015627174 0.014435963
0.049743913 -0.0059025628 0.018918732 -0.22181071 -0.0052799257 0.10151372 -0.08087692 0.09712648
-0.033596598 0.08346468 -0.10158678 0.09723851 0.022231692 -0.1111289 -0.1145237 0.025707338
-0.11154476 0.040575013 0.004021536 0.00923458 0.027106341 0.02749837 -0.027055427 -0.10234193
-0.085047536 -0.013808392 -0.04156095 -0.0024746202 0.10679567 0.08647999 0.07950997 -0.085974865
0.06706247 0.028535772 0.017069161 0.015171746 -0.05514392 -0.0063442076 0.042473055 -0.05229558
0.026764363 0.06934517 0.02175493 0.09619939 0.09015202 0.021903258 0.043571264 -0.046186026
-0.03503658 0.042716034 0.054085836 -0.11836904 0.15040186 -0.039315395 -0.06906378 0.16489202
0.030798793 -0.090112634 0.014055294 -0.17209266 -0.13785551 -0.020921376 -0.07217493 -0.30417612
-0.053121608 -0.19477299 0.43578443 -0.049412288 -0.17955308 0.082204446 -0.07527172 0.18221886
0.30021068 -0.017968427 0.11394757 0.079146825 0.03615229 0.006865968 0.07401927 -0.019670643
0.09786428 -0.03449918 -0.013398328 0.10937766 -0.07388201 0.08307424 0.013877811 -0.102266856
0.03323381 -0.033575412 0.10755426 0.11585541 0.11510766 -0.0003117229 -0.019710938 -0.035589643
-0.060490947 0.11650384 -0.08553467 0.075703375 -0.07849429 0.030225722 0.045262326 0.0884506
-0.070614904 0.03832427 -0.015043927 -0.052099757 -0.07646013 0.046754356 0.053183656 -0.023416355
0.0049446044 0.0021152913 0.13975242 -0.106861115 0.1499927 -0.05831054 -0.16517901 0.17644973
0.01841669 -0.03997736 -0.062614545 -0.12959099 -0.0066501712 0.13140993 -0.06266206 0.02617454
0.14465816 0.063790366 0.06931229 0.10901483 0.037164133 0.37483177 0.11880176 -0.16288021
0.06493379 0.08167574 -0.100990556 0.013900002 0.06543493 -0.09988514 0.06605186 -0.082924016
0.10353113 -0.055095036 -0.04596247 0.037665337 0.07135934 0.041806318 -0.038385145 -0.10886414
0.07435935 -0.028590124 0.1188018 0.09327789 0.08219588 -0.06510087 0.03163593 -0.100671165

bias f4 [256]
00000000: 99b7 6dbd 1fed 8b3c 02cd 15bc ca38 e8bd
00000010: f7bd e1bd a87e 16bd 2645 8c3d 2632 efbd
00000020: f2e0 0e3d 7b08 023d 6b25 d93c 730a 1abd
00000030: 0f95 bd3d 7786 123c 65b1 293d 004b 393d
00000040: 8610 993c 21a7 593d a4ff 893c 5cb9 363d
00000050: af10 6fbb fd32 3bbd 1ba6 653c 8fb3 8ebd
00000060: 1701 883a 136a 8dbd 2608 b8bc ad74 fb3c
00000070: 69d3 dd3d bd7f b1bc 2223 e3bd fd8d d63d
00000080: 3208 023e 1d4b 543d 2dfd cfbb 9cb4 b33d
00000090: 233f b13d f07c b6bb dcde a53c e6c3 25bd
000000a0: be2f 78bc b436 793d 2ab3 cabd b5ed dabd
000000b0: 40c5 babd 3d47 48bd b113 dabb 7afa 28bd
000000c0: 33b1 9dbc de68 0cbd 445d b5bd e3de db3d
000000d0: c685 b2bb 0076 98bd 2ef1 93b8 7205 3fbd
000000e0: 691e d3bd bbf9 893b 769d c6bd a1d6 cb3d
000000f0: 46b8 ca3d 644f a7bd 9569 2cbd 82b8 c73d
00000100: 4a54 5b3b f122 01bd 233a 8cbd ddc0 f03c
00000110: bdf5 a1bd f7b7 61bd 88fd 0abd 618a 74bb
00000120: 3069 70bd 4893 f63c 40a9 9bbd 26ea d03d
00000130: 0f06 7ebd ce10 cd3b 1866 cf3d a8e1 e1bc
00000140: de3c 2c3b 1f3b c5bd 09ea 60bc 9348 413b
00000150: e91c f53c e2c2 d7bd 77e7 d03d b308 d73d
00000160: d100 57bd 105c f63d 3bde ec3d db95 743d
00000170: ec16 723d 6375 673d 7d7b 9bbd 0f59 883d
00000180: 9b0b debd 5bc0 ac3d c412 a2bc 0cff 923d
00000190: f3e5 b13d 3f03 b03c 1aa6 e23c 90ab e5bd
000001a0: 142c f03d 79be 623d aa9f e33d 58f7 0e3d
000001b0: 86c9 053e 5f54 f8ba 927c a7bb 1750 013e
000001c0: 9d42 043d 423f d73d a2e1 4e3c 2438 65bd
000001d0: 1d69 c33d 01b3 a13d 1392 b13d e6db cfbd
000001e0: c1ae 753d b877 43bd ac05 a9bc cd58 a63d
000001f0: b6f6 093c e4d7 da3d cadc a73d db88 523d
00000200: 88c9 5dbd ecee edbd 4807 1fbd 51d9 e0bd
00000210: 21f7 f0bd 298f d73d 7026 86bd 87e2 afbc
00000220: e144 28bd 863d 04bd cc98 88bd b329 f3bc
00000230: 59fd f13c df10 d5bd bf09 b8bd a5f6 86bc
00000240: a5c5 b33d 9501 a5bd bbe3 fb3d cdd9 b73c
00000250: 2951 c93d f014 013d 6c52 5b3d 6ed2 363d
00000260: 13e6 30bd 52f1 ec3b 663a 02be 7f4b e23b
00000270: be01 db3d a5c5 57bd dae9 ef3a 1c28 60bd
00000280: 796e 8fbd 030c aabd 3150 54bd 2065 19bd
00000290: d25a 973b 78bc fcbb a7cf 22bd c19a 25bd
000002a0: 1103 b23c 7ee5 c7bc 380b 56bd 3b49 80bd
000002b0: 1057 b8bb 7e18 cdbb e531 443d 228f 71bd
000002c0: a327 f3bc 0adb 91bd f4d9 a33d c438 9cbd
000002d0: d0be 1dbd ebec 353d f80b 423d 5837 dfbd
000002e0: 54f3 00bb 588d e73c fe01 d5bd 471e 2fbd
000002f0: e1b5 aa3d 84ae b33d e116 9cbc 5b4a 40bd
00000300: 7593 04be bdc6 f43c 3c77 53bc 3ffe 0f3e
00000310: 94c1 12bd feb8 cf3d 9848 353d e018 083e
00000320: f94c 98bc f8fc 913d 1a4d ca3c 1d87 103b
00000330: 87e2 e53d c925 563d 504d acbd fede e43d
00000340: b878 293d 3395 92bc f461 d2bd a7bc 2b3c
00000350: e46b 3ebd f14b e0bd c701 78bd 93be ca3d
00000360: 0f78 56bd fc13 7f3c 6861 27bd 9d7e 9bbc
00000370: cdaf aabc 3980 c73d fbbc bb3d 53f1 183e
00000380: 9a6b 333d 4121 153d 5e71 b1bd 4240 babd
00000390: 7845 c43c 2290 7a3d b304 6c3d 3e72 57bd
000003a0: a1ea 06bd 9ca0 8abc 2cab 1fbc 4482 563b
000003b0: 0e86 58bc 7325 c13c ca49 44bd 28bd 553d
000003c0: 7508 86bd c2b6 b53d 8fff cdbc e8df 86bd
000003d0: 2f3d 963d 317e 793d 7082 a53d 215e 87bc
000003e0: 821e d0bd e7ff b9bd f1ca 6b3c 3cc6 b73d
000003f0: a161 04bc 1a8f aa3b 9ee7 8ebb 3e07 043e
-0.05803642 0.017080842 -0.009143116 -0.11338957 -0.11022561 -0.036741883 0.068491265 -0.11679487
0.034882493 0.03174637 0.0265071 -0.03760762 0.09256946 0.008943192 0.041428942 0.04523754
0.018684637 0.053137902 0.016845532 0.044610366 -0.003647845 -0.045702923 0.014016653 -0.06967842
0.0010376301 -0.06904998 -0.022464823 0.030695284 0.10831339 -0.021667356 -0.110906854 0.10476301
0.12698439 0.051829446 -0.0063473196 0.08774683 0.086546205 -0.005569093 0.02024787 -0.040470026
-0.015148101 0.060843185 -0.09897454 -0.1068987 -0.09119654 -0.048896063 -0.0066551794 -0.041254498
-0.019249534 -0.034279697 -0.0885568 0.10735872 -0.005448076 -0.07444382 -7.0544294e-05 -0.046636052
-0.10308535 0.0042106784 -0.09698002 0.099530466 0.098984286 -0.081694394 -0.04209288 0.09751989
0.0033466988 -0.031527463 -0.06847026 0.02938884 -0.07908199 -0.055107083 -0.033933192 -0.0037313926
-0.058694065 0.030099526 -0.07600641 0.1020091 -0.062017497 0.006258107 0.10126895 -0.027573422
0.0026281397 -0.09630417 -0.013727673 0.002949272 0.029921012 -0.10535218 0.102003984 0.10499706
-0.052491013 0.12029278 0.115658246 0.059713226 0.05910389 0.056508433 -0.07591913 0.066576116
-0.10842057 0.084351264 -0.019784339 0.071775526 0.086864375 0.021485923 0.027667094 -0.112143636
0.11727157 0.05535743 0.11114438 0.034903854 0.13065156 -0.0018946043 -0.0051112855 0.12628208
0.03229009 0.10510112 0.012627037 -0.055961743 0.09541533 0.078954704 0.086704396 -0.10149364
0.05998111 -0.047721595 -0.020632587 0.08122406 0.008420637 0.10685709 0.08196409 0.051400047
-0.054147273 -0.11617836 -0.038825303 -0.1097895 -0.11765886 0.105253525 -0.065503 -0.021470321
-0.041081313 -0.032285236 -0.06669769 -0.02968297 0.02953975 -0.104036085 -0.08986234 -0.016475031
0.08777932 -0.080569424 0.122992955 0.022442723 0.09829933 0.03151411 0.0535454 0.044634275
-0.043188166 0.007230916 -0.1271759 0.0069059725 0.10693692 -0.052678723 0.0018303946 -0.05472575
-0.07003493 -0.08303072 -0.05183429 -0.037449956 0.004618981 -0.007712897 -0.039748814 -0.040430788
0.021729978 -0.024401423 -0.052256793 -0.062639676 -0.005625613 -0.006259023 0.047899146 -0.058974393
-0.029681986 -0.071218565 0.08000556 -0.07628015 -0.03851205 0.044415396 0.047374696 -0.10899228
-0.0019676285 0.02826564 -0.104007706 -0.042753484 0.08335472 0.087735206 -0.019053878 -0.04694591
-0.12946875 0.029879922 -0.012906846 0.14061831 -0.03582914 0.10142706 0.044258684 0.13290739
-0.01859139 0.07128328 0.024694968 0.002205319 0.11224847 0.05228213 -0.08413184 0.11175345
0.041374892 -0.01789341 -0.10272589 0.01048199 -0.04648961 -0.10951985 -0.06054857 0.098996304
-0.05236059 0.0155687295 -0.04086438 -0.018981272 -0.020835781 0.097412534 0.091669045 0.14935808
0.04380379 0.036408667 -0.08664201 -0.090942875 0.023958907 0.061172612 0.05762167 -0.052599184
-0.032938603 -0.016922288 -0.0097454 0.0032731453 -0.013215555 0.023577427 -0.047921933 0.052182347
-0.06544582 0.08872749 -0.025146274 -0.065856755 0.073358886 0.06091136 0.080815196 -0.016524376
-0.10162069 -0.090820126 0.014391647 0.08973357 -0.008079917 0.0052050473 -0.004361107 0.12893388

weight f4 [256, 256]
00000000: 1b3d 53bc dafa 7b3d 98c1 95bd fca0 bcbd
00000010: 7aa9 b4bc d2bc 0fbd 927d 8ebd 9b9c 17bd
00000020: 82c5 403d b673 a6bc bad3 89bd 87f5 b4bd
00000030: a5f6 8a3c a4c2 bfbd 0d89 873d 94b5 9a3d
00000040: 2715 69bc bd48 a13c 7b4c ffbb 77a7 90bc
00000050: c1d3 7b3d eeb5 c23c fbec 51bd a946 833d
00000060: e23c bc39 46be 3c3c 9edd 10bd 935a 153e
00000070: e464 3bbc c643 89bb 91f1 c4bd 51c4 5cbd
00000080: e4e2 49bd 0888 aa3d f485 d3b9 bd00 593c
00000090: 8ec3 033c b8f5 e23d 5e00 643c d1f9 f13b
000000a0: 786f 953c 3a0b ec3c 8881 b0be 443d 8cbd
000000b0: f1ea efbb e226 5c3d 77a0 9dbc 8c71 073e
000000c0: 46f4 473d 838f 833d 1d63 ca3c 2c65 d3bb
000000d0: d76e b53b 5563 6e3c 2067 9abd fd19 3ebd
000000e0: bbc6 113c 41b2 a6bc ecd0 7abd 1104 61bd
000000f0: d2be ea3b 4785 83bd 5765 6cbc b75a debc
00000100: 5080 57bc 390b c63d 3518 2a3d e45d 83bd
00000110: 2c82 863d 3b2d 453d a33d 683e 02c5 db3c
00000120: 31c2 95bc eedc 60bd f4f8 e7ba 8267 3f3d
00000130: 277a ecbc c50c c83c dab7 c43c faab bebd
00000140: d26f e5bc 6110 6c3c 92aa 4bbb edf9 1b3e
00000150: 737c 8bbd 8dd0 a63c d83b 04bd 203d 863c
00000160: e010 833b 11a9 a9bb 0820 273d 9e25 a93d
00000170: b1e9 9e3d 1f7a d23d ef14 9a3d 9cb5 65bc
00000180: 6553 be3d 3b61 a7bb d212 47bd 3c3c 043d
00000190: a279 68bd 8e26 b3bd 6a7c f0bd 6eeb d8bd
000001a0: f2c3 8c3b 488b 59bd 75dc eebc 40e2 8abd
000001b0: d1f8 1c3d a818 b7bd 31f2 843d 6ae7 563d
000001c0: d76a 253d 343e a03d 2e52 f0bc c47c 623c
000001d0: a676 e6bc 9eab 0e3c 3f48 a03d 80ea bcbb
000001e0: 64c8 8b3c c5d6 7c3d 8351 73bd 5c95 32b9
000001f0: 1aea 693d f68f 09bb c06a 0fbd 9e2e 143d
00000200: 0b43 15bd e438 3e3d ce20 253e f5eb 76bd
00000210: 2b6f 37bb 4462 7abc d729 8fbd 7b20 c7bb
00000220: 6351 febc 7d3e 933d a008 b2bc 7897 7bbd
00000230: 1789 403d ba03 6ebd a05e 94bc 843a 84bd
00000240: 8613 a4ba 7a83 38bd ad69 1c3d 77d7 0b3c
00000250: 1f20 7c3b b701 a03c b954 083e 8ac0 6cbd
00000260: 4899 c23d 3568 9abd edc5 c23d fdf7 133d
00000270: 087d 7f3b c6ec 01bd d4b8 9cbd 7024 1ebd
00000280: 3b25 a53c ff5d 78bb b748 8a3d dbbd 8e3c
00000290: 2599 87bd 68c3 b7bd 8efb 51bd 41a0 cebd
000002a0: 4a8f 57bd f3a8 cabd 8b8c b63d 136c 823d
000002b0: 1536 e6bc fa92 e9bc 7364 8fbd 352d e73c
000002c0: 309e 3b3d d2b3 f03b 8be0 85bb 3149 cb3c
000002d0: 9937 a0bc 6844 373d 3d6a da3d b06d 293c
000002e0: c649 88bc 8c0b 53bc 8f8e 1a3d 90cd 23bd
000002f0: 6094 6f3d e520 783d 56ec 51bd 2e76 4a3d
00000300: 709d 3dbd dcf4 9c3d a88b b2bc 64d4 2cbd
00000310: ac4e 683e 0fb8 45bd e75d a53d 2b0a b03c
00000320: 6492 873d 0a53 3abc c3e2 e63d d0c7 873b
00000330: cdb4 bd3d fd2a 9bbb e4c4 e23d d63c 1d3b
00000340: 3128 47bd 1c38 983c 1cdc 5a3d 2f14 863d
00000350: a3e7 1b3e 369c bfbd a7be dbbd e708 aabc
00000360: b588 1f3d ce94 babc 4847 1ebb 3e1c 183d
00000370: 08cf d7bc b5df c83c 8e48 753c 7878 22bb
00000380: bd69 853d d67b 883d f629 943c 6d27 49bd
00000390: 06f2 89bb a6b0 763d 8f5f c43d 0dc7 67bd
000003a0: d5d6 c13d 4d08 983c 8b12 d9bd 2603 e5bb
000003b0: 4c99 113d 7f52 da3b 1b3d 383d 538f 6c3d
000003c0: 97f1 d4bc accf 9ebb 4d8c b53b 6483 933d
000003d0: 7d6a 00bd 1418 033e 85c3 8b3d a01f 8b3b
000003e0: 9752 7ebb 30bc 6b3b fc93 e7bd e3ff 9d3c
000003f0: 388d ec3c 1410 f03c 7e05 a1bd 0764 4dbc
-0.012892987 0.061518528 -0.07312316 -0.09210393 -0.022053469 -0.035092182 -0.069575444 -0.037014585
0.047063358 -0.020318847 -0.06729837 -0.08835893 0.016963312 -0.09363297 0.06617937 0.075541645
-0.0142262345 0.019688005 -0.0077910996 -0.017657978 0.06148124 0.023768391 -0.051251393 0.06409962
0.00035903516 0.011519974 -0.0353676 0.14585333 -0.011437628 -0.0041889874 -0.09616388 -0.05389816
-0.049288645 0.08326727 -0.0004034486 0.013244805 0.008042229 0.110820234 0.013916103 0.0073845168
0.018241629 0.028813947 -0.34473825 -0.06847623 -0.0073217084 0.05374802 -0.019241555 0.13226908
0.04881694 0.06423857 0.024705464 -0.0064512696 0.005536895 0.01455005 -0.07539201 -0.046411503
0.008897479 -0.02034867 -0.0612344 -0.05493552 0.007163861 -0.06421905 -0.014428458 -0.027142866
-0.013153151 0.09670109 0.041526992 -0.064143926 0.06567797 0.04813884 0.22679763 0.02682734
-0.018281074 -0.054898195 -0.0017698095 0.046729572 -0.02886684 0.024420151 0.024013449 -0.09310146
-0.028007422 0.014408202 -0.003107701 0.15232058 -0.06810846 0.020363117 -0.032283634 0.016386569
0.0039998144 -0.005177625 0.04080203 0.08259128 0.07759417 0.10277199 0.07523524 -0.01402035
0.0929325 -0.0051080263 -0.048601933 0.032284006 -0.056756623 -0.08747588 -0.1174248 -0.1059178
0.0042958194 -0.053111345 -0.029157856 -0.06781435 0.038323227 -0.0894025 0.06491507 0.052466787
0.040385094 0.07824364 -0.029336061 0.013823692 -0.028132748 0.008707909 0.0782628 -0.0057652593
0.017063327 0.061728258 -0.059403908 -0.00017031044 0.057108022 -0.0020990348 -0.035013914 0.03617727
-0.03644089 0.046440974 0.16125795 -0.06028362 -0.0027989845 -0.015282217 -0.06990402 -0.00607687
-0.031044668 0.07189653 -0.021732628 -0.06142375 0.04700574 -0.058109023 -0.018111527 -0.064564735
-0.0012518025 -0.04504726 0.038186718 0.008535258 0.0038471294 0.019532068 0.13313569 -0.057800807
0.09501892 -0.07539407 0.095104076 0.036125172 0.0038984437 -0.031719945 -0.07652441 -0.03860897
0.020159354 -0.0037897823 0.067521505 0.017424515 -0.06621007 -0.08972818 -0.051265292 -0.1008916
-0.052626885 -0.09895506 0.08913525 0.0636827 -0.02810196 -0.028512467 -0.07001581 0.028219799
0.045805156 0.007345655 -0.0040856055 0.024815174 -0.019557761 0.04474297 0.106647946 0.010341093
-0.01663674 -0.012881171 0.03773361 -0.03999096 0.05849111 0.060578246 -0.05125078 0.04942911
-0.046292722 0.07663891 -0.021795109 -0.04219474 0.22686261 -0.048271235 0.08074551 0.021489223
0.06619719 -0.011372337 0.1127372 0.0041436926 0.09263001 -0.004735349 0.1107271 0.002399256
-0.048622314 0.018581443 0.05343257 0.065468185 0.15225081 -0.09355967 -0.107297234 -0.020756198
0.038948733 -0.022776034 -0.0024151374 0.03713631 -0.026343837 0.024520734 0.014970912 -0.0024791043
0.065143086 0.06664245 0.018086415 -0.049109865 -0.0042097596 0.06022706 0.09588539 -0.056586314
0.09464804 0.018558646 -0.1059924 -0.0069889007 0.035546586 0.0066626663 0.04498015 0.057753872
-0.025994105 -0.0048465338 0.005540407 0.07202795 -0.031351555 0.12802154 0.06824402 0.0042457134
-0.0038806552 0.0035970323 -0.11307523 0.019287055 0.028875932 0.029304542 -0.07862376 -0.012536055

bias f4 [256]
00000000: 7d5f 163d a7e4 7f3c 7259 b03c e076 f4bc
00000010: 9640 b8bd 293b c63b 592f 84bc 9d20 02bd
00000020: 6d5b 84bd c025 f3bc dbb9 8cbc 6a5e b03c
00000030: b779 e93c 72ca f43b 03c2 2fbd 96af 0fbd
00000040: e7cb 99bd 4f0e 3c3c f305 09bc 8214 dabc
00000050: 78bf 823d 8e6b ca3b 72c5 393d a0e4 42bc
00000060: 34e6 6fbd 166c 5f3b 46dc 873d 3a29 df3c
00000070: c24b d1bc 8cb2 c1bb 35cc 6c3c ae55 193d
00000080: 9213 7b3d ea22 1f3c d151 dbbc 3eff 383c
00000090: 835d 83bc 1503 fb3b c38e 7a3d 17e4 793b
000000a0: 011a 5fbd 39b8 153d 7aba 433d a127 453d
000000b0: b6a3 68bd b5c5 d23c 6519 1cbd f472 23bd
000000c0: f45a 643d 4741 7e3d 1162 3c3c dd8d 64bb
000000d0: 68be 633d 9843 813d 4a03 efbc ab7c ea3c
000000e0: 0a6a 14bd 7bad 2abd 80a3 913d 4ec9 9cbc
000000f0: 1327 8f3d aae9 6a3d 68d1 433d 75fe 103d
00000100: c32e b3bc 984d b93c 26bc cebc 7f93 f53c
00000110: 054e 123c 1397 1cbd d6bd 1abd 16fc babb
00000120: 33e8 c13c cfb4 f63c 4592 bdbb df05 a1bc
00000130: 7442 dcbc c063 f23b 560b 363d d97a 0c3d
00000140: 1bc9 57bd bdc4 393d 1bd7 2d3d c241 653d
00000150: 45c8 523d 0ced f13c b706 18bd d793 d9bc
00000160: 4577 77bc eef7 373d a80e 0dbd 4820 873d
00000170: e229 85bd f033 f13c 86c9 d13c f1ff 3fbd
00000180: fd62 3dbd d1cf e6bc ea08 823d ecb2 863d
00000190: a105 d5bc ec22 58bd f711 9fbc 834a eb3c
000001a0: 1dec 1c3c c024 22bd 17ac c7bb d588 833d
000001b0: ab62 3abc 99d4 68bd 7d23 12bd 57bd dcbc
000001c0: 8e9d 18bd 1844 83bc 5b00 90bb 36dc 93bc
000001d0: 31a2 cfbd 8199 5cbc 5f03 7fbd 8637 76bc
000001e0: def8 033d e997 65bd 316c 74bd 7d79 6a3d
000001f0: bdf8 4e3d 5d19 29bd adef f23c c708 d5bc
00000200: e2d0 10bb 0f42 bf3c 3078 19bd 5902 8e3d
00000210: c6ef 493c 1c4a 06bd 2e84 c5bc 56b5 a03c
00000220: 937b 873d ff56 e7bc 893c dfbc 8572 b6bc
00000230: ecf7 403c fee1 f3bc a7a9 293b f08a 9bbb
00000240: 743d 813d ed4e 91bb af9e 98b8 11c3 333d
00000250: 59dc 4dbd 6dd6 9739 00bf 023c 247e f6bb
00000260: 7660 923c bbdf 053d dd33 6b3d 7c46 443d
00000270: a949 42bd 817d 383d 4b52 64bd 7abd cc3b
00000280: b0fe 3f3d 7807 803c 1305 f53c 04c4 93ba
00000290: bdfb 963c bb99 763c 0e97 403d 9f26 1ebd
000002a0: bc5d 883b 1273 c13c 6966 333d caf0 423d
000002b0: 388a 03bc 5218 4fbd 68dd b13c d3fd 18bb
000002c0: bbeb 1c3d 6336 843d 21fe a93b 5b3e 953c
000002d0: 8f2a 1d3d 6ae3 223a b3fd 36bd 0921 5a3d
000002e0: 1ced ffbc d999 15bb 1cb8 763d d5bb 9e3c
000002f0: 9fea 2c3d 4713 503c 6d8f 47bd 5b1e 13bd
00000300: 3c6e 9cbc e1bb e7bb b138 49bd fab3 533d
00000310: c4ec a53c 527b c43c 7760 33bd 2703 59bc
00000320: 6df2 63bd bf59 41bd 5b06 863d 4d63 5a3d
00000330: 2734 5e3a 0595 22bd 579c 393d 11cf 9f3c
00000340: 40b6 113d b322 373d a941 03bd 5e6d 7b3d
00000350: ae79 47bd e4b8 7e3d 94ae a23c 8e80 323b
00000360: 5789 1dbd a191 29bc 9129 553d b93a 003d
00000370: 398a 613d 1aef acbc 1f8a 76bc 5858 35bc
00000380: 62b3 6b3a 6d0d 423c babd 483d a699 5fbc
00000390: 94d6 ddbc 5085 65bd 3968 5cbd 5e5b 2c3d
000003a0: f824 0cbd ca5d 193c 1dc0 08bd 4dbb 65bd
000003b0: 286c d1bc 9ee5 97bc a7f2 0ebd 9d2e 12bd
000003c0: fc62 e0bc 41e3 26bd 1315 a23d f5ac 733d
000003d0: 2fbb 1c3d 7b66 44bd 5f09 9aba afea 613d
000003e0: 7efe 423d 58ab ff3b 3403 d93c 2a87 46bd
000003f0: e6d6 f7bc 8a42 333d f5ee 703d 9824 e63c
0.03671216 0.01561848 0.021527026 -0.02984184 -0.08996694 0.006049533 -0.016135858 -0.031769384
-0.064627506 -0.029681087 -0.017178467 0.021529395 0.028500421 0.0074704224 -0.042909633 -0.03507956
-0.075095944 0.011478021 -0.008363235 -0.026621107 0.06384176 0.0061773723 0.045354314 -0.011895329
-0.05856915 0.0034091524 0.06633811 0.027241338 -0.02554882 -0.005911177 0.014452984 0.037435226
0.06129796 0.009712914 -0.026772412 0.011291323 -0.0160358 0.0076602795 0.061171304 0.0038130337
-0.05446816 0.03655264 0.04778526 0.048133496 -0.056796752 0.02572904 -0.038110156 -0.03990455
0.055750802 0.062073972 0.01149799 -0.0034874596 0.055601507 0.063117206 -0.029176373 0.0286239
-0.03623394 -0.04166935 0.07111263 -0.019138958 0.06989875 0.057351746 0.047807127 0.03539892
-0.021872884 0.022620007 -0.0252362 0.029977558 0.008929734 -0.038230013 -0.037778698 -0.0057063205
0.023670292 0.030115513 -0.005785259 -0.01965612 -0.026887156 0.007397145 0.044444405 0.034296844
-0.052682023 0.04535364 0.04244147 0.055970915 0.051460523 0.029531978 -0.03711578 -0.026559753
-0.01510412 0.04491418 -0.034437805 0.06597954 -0.06502129 0.029443711 0.02560879 -0.046874944
-0.04623698 -0.028175266 0.063493565 0.065770954 -0.02600366 -0.05276768 -0.019417746 0.028722053
0.009577778 -0.03958583 -0.0060935128 0.06422583 -0.011376063 -0.056843374 -0.035678376 -0.026945753
-0.03725963 -0.01602368 -0.0043945736 -0.01804934 -0.101383574 -0.013464333 -0.062259074 -0.015027886
0.03221976 -0.056053076 -0.059673492 0.057244767 0.050530184 -0.041283954 0.029655302 -0.026005162
-0.002209716 0.023346929 -0.037468135 0.069340415 0.012325233 -0.03278552 -0.02411088 0.019617718
0.06615367 -0.028239725 -0.027250545 -0.022271404 0.011777859 -0.029770847 0.0025888474 -0.0047467873
0.063105494 -0.0044344575 -7.277482e-05 0.0438872 -0.050258968 0.00028960724 0.007980108 -0.0075223614
0.017868262 0.03268407 0.057422508 0.04791878 -0.04743353 0.045041565 -0.055742543 0.0062481733
0.04687375 0.015628561 0.029909646 -0.0011273627 0.018430585 0.015051301 0.047019057 -0.03861105
0.0041615646 0.02361444 0.043798838 0.047592916 -0.008028559 -0.050560303 0.02171202 -0.002334465
0.038310748 0.06455686 0.005187765 0.01821821 0.038370665 0.0006213697 -0.04467554 0.05325416
-0.031240992 -0.0022827296 0.060234174 0.019376675 0.04221594 0.012699909 -0.048720766 -0.03591762
-0.019095533 -0.0070719575 -0.04912633 0.05168531 0.0202545 0.023984585 -0.043793168 -0.0132453805
-0.055651117 -0.04720473 0.06544181 0.053317357 0.0008476399 -0.039692897 0.045315113 0.019507917
0.035574198 0.044710826 -0.03204504 0.061383598 -0.048700027 0.062188044 0.019858636 0.002723727
-0.038461056 -0.010349662 0.052041594 0.031306002 0.05506346 -0.021110106 -0.015047579 -0.011068426
0.00089912687 0.011844021 0.049009062 -0.0136474725 -0.027079858 -0.05603534 -0.053810332 0.042079322
-0.034214944 0.00936074 -0.03338634 -0.056086827 -0.025564268 -0.018542107 -0.03489938 -0.035688985
-0.02739095 -0.04074407 0.07914176 0.059491117 0.03826445 -0.047949295 -0.001175206 0.055155452
0.047605984 0.007802408 0.026490785 -0.048468746 -0.030253839 0.04376463 0.058821637 0.028093621

weight f4 [256, 256]
00000000: ccc7 5bbd 8621 8dbd 6c11 48bd 5437 e0bc
00000010: ac74 2ebc 5dda c7bc 7a9e 34bd 507f 9f3b
00000020: 2837 123c ff3f 273d 96f0 f1bc b042 3a3d
00000030: 32d3 773d 78bf 89bd 7236 383d 2f17 9e3c
00000040: 77b8 5d3d 3144 18bd c93b 793c e385 943c
00000050: 9f66 68bd 4a1c 2b3c d992 4f3b f93a c5b9
00000060: acf8 91bc 009b 9e3c 3049 843c 27c5 5d3c
00000070: cf76 1cbd fe3d aa3b 48c7 ddbb cbf4 88bd
00000080: a098 5fbb 27e9 a93c 8ef0 f0bc 5158 143c
00000090: 79f7 4c3b 27a2 c83d 31c4 183d da19 173b
000000a0: ad52 463c 07d9 503c f7c8 2c3d c76c 95bd
000000b0: 37e5 23bd b941 a93c f514 a43c 05a1 a7bc
000000c0: 9c08 b7bc 7733 b43b 9287 88bd e4bf 83bd
000000d0: e6d1 a2bc 904b 433d e8ef 873d 37f4 6e3c
000000e0: 705a 38bd 67b9 5fbb 573d 3cbd 5b81 c43a
000000f0: 2a5f e5bc 3c9d 293d 6632 7fbc e6cd 87bc
00000100: 71c5 d8bc 4a4a 4c3d 4c81 27bd a833 593d
00000110: 4eca 433d 5f1c 49bd 71c3 bd3c ff76 1e3d
00000120: 7d7f babc 68e0 443d 5a36 cf3c 1987 65bc
00000130: e78b bebc c956 b2bb d31d 073d e092 2bbd
00000140: f98b 46bc df60 e23b 9856 7bbc 089d 483d
00000150: f205 cb3c 9b20 413c 4c9e 0a3b 0511 103d
00000160: 4de8 95bc 43c1 8d3c 70ac 1f3d 21b9 d33b
00000170: 3b57 543d 237d 343d dddc 1dbb 8a1f 33bd
00000180: 05d5 12bd b3db 10bc 6669 48bd e2ab 913c
00000190: 42b5 44bd c300 f23c 6b77 6f3b a9fd 6f3d
000001a0: cc43 98bd bcf5 b73c ea23 213d ff08 debc
000001b0: 6ca3 4e3d 71ac 6f3c a499 c03c 7e7f 84bd
000001c0: 3eee 50bd a0e1 d8bc 1b56 a3bb d3e1 dbbc
000001d0: 7edf 223d b5d4 7ebd b2eb 07bd 3bd4 82bc
000001e0: 1243 2b3d 11a1 6ebd 0e6d 313d 75ad 293b
000001f0: 8c86 213d 1ecd c4bc 5c05 d63b 4575 e73c
00000200: 9147 8bbd c974 803c 7553 f93b 29f8 adbc
00000210: 5507 7bbd f5cf f53b e9a9 58bd 312f 82bb
00000220: 9bd3 82bd 6891 163d 0d10 c8bc 7a7c 22bd
00000230: 364b 74bd 8cf6 d13c 6d2a 473b 33b9 01bd
00000240: d688 f63c 41df 85bc 7697 393d d031 24bd
00000250: fdfb 9fba 58d9 1b3d 724b 39bd d15f 69bc
00000260: 6756 583d 32b6 01bd d36c 25bd f139 a8bc
00000270: 43f2 92bc ba7a a7bc 561e 79bd 0e29 443d
00000280: 8166 85bd 500e ddbc 1431 09bd ef32 293d
00000290: be81 0d3d c90d 00bd 2734 57bd 1f70 51ba
000002a0: e429 34bd a970 9e3c 9802 d5bb 9204 8ebc
000002b0: b1a5 35bd 4f60 cebc d26a 39bd 0f8b 72bd
000002c0: 1927 523d 2f03 0c3c 73e1 153d 3774 113b
000002d0: 4b51 31bd 1d0f 103d d1e3 edbc 5090 35bd
000002e0: 49a1 7bbd 00ff 6f3b c48a c7bb 5855 2ebc
000002f0: 9b26 9d3c 4df4 d9bb 7499 173d 1ce5 583b
00000300: 078e 263c 4fdb 9dbc 53a7 9bbc af5b 3a3d
00000310: 7fa4 efbc 4e90 043d a06e 3abd 60f4 d73c
00000320: d406 4c3d 70ba 50bd e9aa 1fbc 6fc7 80bd
00000330: b0b8 113d 6f80 843c 842d 3fbd a80a 8dbd
00000340: b448 1f3c e8fa 3fbd 8ee0 38bd fea0 d73b
00000350: 5a03 3dbd 31a3 e33c 5568 61bd 913a 32bd
00000360: 9b43 e3bb 1c63 a73c 728c 09bd 616b 683c
00000370: d419 81bd fdd1 30bd aa65 0d3c 5640 ce3b
00000380: 4263 4dbd 43ac f3bb f8c5 5abd 0dc4 49bb
00000390: 0402 23bc 8387 36bd 441d 043c 3e6e a83c
000003a0: f001 70bc bcb4 a73c fa93 013b ddfc 89bd
000003b0: 521f 2dbd fd30 1bbb b487 993c 625d 883d
000003c0: e24d cebc da2b 1b3d 21fc aebc c7a1 93bd
000003d0: df54 8dbd 13aa f7bc 974b 893c e2b2 86bd
000003e0: da63 4b3d 2a60 fb3c c796 5dbd 2739 06bd
000003f0: e150 0cbd a8b9 f9bc 91c9 713c 15e8 86bc
-0.053657338 -0.0689116 -0.04884474 -0.027370133 -0.010647934 -0.024396116 -0.044096448 0.0048674718
0.008924283 0.040832516 -0.029533666 0.045473754 0.060504146 -0.06725973 0.044973798 0.019298164
0.054130998 -0.037174407 0.015212008 0.018130248 -0.056738492 0.010443756 0.0031673221 -0.00037618706
-0.017818771 0.01936102 0.01614818 0.013535774 -0.038199242 0.0051953783 -0.006768141 -0.066873156
-0.0034118071 0.020741059 -0.02941158 0.009054259 0.0031275435 0.09796553 0.037296478 0.002305618
0.012104672 0.012747056 0.042183843 -0.07296138 -0.04001352 0.020661222 0.020029524 -0.020462522
-0.022342972 0.005499299 -0.06666483 -0.064330846 -0.019875478 0.047679484 0.06637555 0.014584593
-0.045008123 -0.0034137608 -0.045956936 0.0014992164 -0.02799948 0.041409716 -0.015575981 -0.016577672
-0.026461335 0.049875535 -0.04089479 0.05302778 0.047800355 -0.049099322 0.023164483 0.038687702
-0.02276587 0.048065573 0.025294472 -0.014009261 -0.02326007 -0.0054424745 0.032987427 -0.041888118
-0.012118333 0.0069085206 -0.01534047 0.04897788 0.024783108 0.011787559 0.0021151481 0.03517248
-0.018299246 0.017304068 0.03898281 0.006461278 0.051841002 0.044064652 -0.0024087944 -0.04373125
-0.035847683 -0.008841443 -0.04892864 0.017782155 -0.048024423 0.029541379 0.0036539685 0.05859152
-0.07434806 0.022456042 0.03934089 -0.027103899 0.05044882 0.014628516 0.023510762 -0.0646963
-0.051008455 -0.026474774 -0.00498463 -0.02684108 0.03976392 -0.062214572 -0.03318376 -0.01597034
0.04181201 -0.058259074 0.043316893 0.0025890742 0.039434955 -0.024023589 0.0065314006 0.02825416
-0.068007596 0.015680688 0.007608826 -0.021236496 -0.06128629 0.007501597 -0.052896414 -0.003972911
-0.06388017 0.036759764 -0.024421716 -0.03966949 -0.05964204 0.025630258 0.0030390278 -0.03167076
0.030094545 -0.016341807 0.04531046 -0.040086567 -0.0012205836 0.038049072 -0.045237966 -0.014244036
0.052816775 -0.031667896 -0.040386986 -0.020535441 -0.017937785 -0.020444263 -0.060819946 0.047890715
-0.06513692 -0.026984364 -0.03349407 0.04130834 0.03454756 -0.031263147 -0.05253997 -0.00079894246
-0.043985263 0.01934083 -0.0065005533 -0.017336164 -0.04434747 -0.025192408 -0.045267887 -0.059214648
0.051306818 0.008545681 0.03659196 0.0022194514 -0.043290418 0.035170663 -0.029039295 -0.04432708
-0.06143311 0.0036620498 -0.00608954 -0.010640465 0.019183448 -0.0066514374 0.03701158 0.0033095544
0.010165698 -0.019269614 -0.019000685 0.045497593 -0.029253243 0.032364182 -0.045515656 0.026361644
0.0498112 -0.05095905 -0.009745338 -0.06288039 0.035576522 0.016174523 -0.046674266 -0.06886798
0.009721924 -0.046870142 -0.045136027 0.006580471 -0.046145774 0.027787777 -0.05503114 -0.043512885
-0.0069355494 0.020433001 -0.033581205 0.014185757 -0.063037544 -0.04316901 0.008630196 0.0062942905
-0.050143488 -0.0074363067 -0.053411454 -0.0030787021 -0.009949211 -0.044562828 0.008063618 0.02056038
-0.014648899 0.020471923 0.0019772039 -0.06737683 -0.042266198 -0.0023680322 0.018741466 0.06658436
-0.025183622 0.037883617 -0.021360459 -0.07208591 -0.069009535 -0.030232465 0.016759677 -0.06577088
0.049655773 0.030685503 -0.05409887 -0.03276935 -0.03425682 -0.030484036 0.01475753 -0.016468087

bias f4 [256]
00000000: 484c 183d 8849 e2bc 311c 1ebd 9c4f 883c
00000010: ace2 743c f8b1 323d 712b 763c 52dc adbb
00000020: 4e89 9d3d baae 64bd ea4c 02bd 12b2 803c
00000030: 56df 913a deeb f5bc 9174 edbc bdae 0f3d
00000040: a00b d9bc 1e2f 76bc 68f2 40bc cfad de3c
00000050: c827 a4bb 5006 d7bb 894d 84bd dd41 6fbd
00000060: 5285 c43c a796 8abb 8088 963c 0b7b 4b3d
00000070: cb4a 6ebd 8838 c5bc a594 15bd 99da 5f3d
00000080: 1fd7 94bc 4187 27bd aa00 7c3d ca32 8fbd
00000090: 6718 00bd 871c 23bd 54c6 7a3c 4656 683a
000000a0: 70f3 3f3d b2a8 1c3c 8572 913c fe6b e53c
000000b0: 0e74 673c 8d05 8e3d 6ee1 c0bc a85c 303d
000000c0: 6a3c 97bd 58e3 abbc fedd c13a 409b 943d
000000d0: ae48 373d 878e 60bc 2009 0a3d 1783 693d
000000e0: 7b4e c63c 34f4 ab3c d0eb 953d aae6 29bc
000000f0: 617a 69bd 23f3 5b3c cc12 e13c 8008 53bc
00000100: 9f4d 343d 8864 3a3d b78c 7b3d 8259 693d
00000110: 9491 a83c c609 1c3d 1f44 923d 4d1d 8bbd
00000120: 76e3 20bd 94cd fc3a f69a c6bc 7f51 ff3c
00000130: ac87 753d 8bbd 3f3d 6305 14bd a9bf 2d3d
00000140: 5553 cc3c 24ae 8fba b957 9c3c 227e 173b
00000150: e80c 46bc 0875 91bd 3dce abbc ba23 8f3c
00000160: 6155 80bd 93e2 d93c 11db 9a3d 0003 4dbd
00000170: d010 1a3d 66c3 273d ff4a 6dbb 8f84 143d
00000180: 0bfd 2abd 3bce 3f3c e74a 85bd b0a6 7b3d
00000190: 9f85 b23c db94 6a3d f199 a83c 61f9 2bbc
000001a0: 1e04 0f3d 8dc6 1ebc 19e0 05bb ada7 303c
000001b0: d50f 87bd deec a63d 4415 8f3d 9954 7a3d
000001c0: eb2c 283d 4f1d 37bd 049e 6fbb 0757 d7bc
000001d0: c659 893c c27a a43d e409 76bd aff9 6cbd
000001e0: 5de9 e43c 0f3e 893d ed84 8f3c 9fa6 d13c
000001f0: 1168 e03c 6952 553d 4185 4ebb 2f9c 4cbc
00000200: 1d2e f43c 0946 9a3d a941 043d 51e6 a1bb
00000210: 5b11 44bd a29f 503d 95fe e5bb 2962 4fbd
00000220: a34a ddbc 3f06 3a3c 8e70 17bd 6438 0fbd
00000230: b6a0 a2bc 0e4c 34bd cc94 933d 64c7 db3c
00000240: 69ed 9cbc 005d de3c 0988 15bd 6f7f 513d
00000250: b117 12bd bd74 88bc e7b9 353b 7300 e83b
00000260: 1d36 5fbc b05d 4d3c 1780 92bb 9cea 043d
00000270: d8de 35bd 628a 58bd 2819 873d 36b3 353c
00000280: 6129 11bd de44 823c f11c b53b 876e 58bd
00000290: 2f98 193d 8ed7 ccbc d96d 6a3c 9776 ef3b
000002a0: 6403 7a3b 5d91 9d3d 4fa4 303c 3b8a 8e3c
000002b0: 0796 e4bb 09df d8bc ea16 c4bb 2930 013d
000002c0: 3c5f 9e3d 5f67 abbb 2b1a f6bc 52d7 323d
000002d0: 2328 8b3d 1487 25bd 1b58 c0bc 851a 5f3d
000002e0: c9f7 d53c 1e42 9e3c 3a23 2c3d 3c48 13bd
000002f0: fa0e f7bb 8362 8cbd 51f5 473d 9f39 6ebc
00000300: 1f13 73bd f7b6 27bd e9b3 4d3c 14b7 c6bc
00000310: 5b7e 2cbc 2518 8fbc f8e1 7dbd b7ad 62bb
00000320: 2216 02bd d1ab 0fbd 0019 163d 0d6c 4c3d
00000330: 7a16 3a3b 4b44 833d 84fa df3c 9ca9 5fbc
00000340: 0970 fc3b af42 3bbc ee43 723c a8cc edbc
00000350: 25ee 33bd 7fc8 cebc fe74 a23d 4ed5 9dbd
00000360: abfd 19bd 1763 a13d 97f2 d7bc 02ad 60bb
00000370: eea7 2c3d 82d9 86bd ad9e 9fbc aebc be3b
00000380: 1dae 9f3a c888 11bd af2e 7c3c e4b7 8e3c
00000390: 07ec 81bd e970 8dbd 58b8 073c 9586 f2bc
000003a0: 7a9e 6cbd 6512 2cbc 8bf6 6b3c 814d d9bc
000003b0: c895 093d f145 1abd 65bf 5d3d 52b1 c3bc
000003c0: bb79 713d e2b5 90bc 338f abbc 8f0e 98bc
000003d0: b308 c3bd 4f89 1dbd 004e 8a3c f4eb 083d
000003e0: 5ca5 173d 0ea1 63bc 2983 383d 4979 48bd
000003f0: bcbf 6cbd 4915 373d 868b 233d 5ed0 733c
0.037182122 -0.027622953 -0.038601104 0.016639523 0.014946621 0.043626755 0.015025006 -0.0053058052
0.076922044 -0.055830695 -0.031811632 0.01570991 0.0011129181 -0.030019697 -0.028986247 0.035078753
-0.026494801 -0.015025882 -0.011776544 0.027182488 -0.005009625 -0.006562032 -0.06460101 -0.05841242
0.023989353 -0.004229385 0.018375635 0.04967789 -0.058176797 -0.024074808 -0.03651871 0.05465183
-0.018168984 -0.040900473 0.06152407 -0.06992109 -0.031273272 -0.039822128 0.015306074 0.00088629534
0.04686302 0.0095617045 0.017754802 0.028005596 0.014126791 0.069346525 -0.023544993 0.043057114
-0.0738457 -0.02098243 0.001479089 0.07256174 0.044747047 -0.013705856 0.03370011 0.057009783
0.024207344 0.020990469 0.07320368 -0.010369936 -0.057001475 0.0134246675 0.027474783 -0.0128804445
0.044019338 0.04550603 0.061413493 0.056970127 0.02057723 0.03809526 0.07141899 -0.06792698
-0.039279424 0.0019287341 -0.024243813 0.03116679 0.05994384 0.04681162 -0.03613795 0.04241911
0.02494208 -0.0010961932 0.019084798 0.0023115952 -0.012088038 -0.071024 -0.020972366 0.01747309
-0.06266285 0.026597297 0.07561315 -0.05005169 0.03761369 0.04095783 -0.0036208031 0.03625923
-0.041745227 0.011706884 -0.06508427 0.061438262 0.021792231 0.057270866 0.020581217 -0.010496468
0.034916036 -0.009690893 -0.0020427762 0.0107821645 -0.065948166 0.081506476 0.06986478 0.061115835
0.041058462 -0.044705685 -0.003656269 -0.026286615 0.01676644 0.08031227 -0.060068026 -0.057855304
0.027943308 0.0670129 0.017519439 0.025592146 0.027393373 0.052080546 -0.003151253 -0.012488409
0.029807145 0.075328894 0.03228918 -0.004940786 -0.047868114 0.050933488 -0.007018874 -0.050630722
-0.027013129 0.011354028 -0.036972575 -0.034965888 -0.019852024 -0.044017844 0.07206115 0.026828475
-0.019156175 0.027143955 -0.036506686 0.05114692 -0.035667125 -0.016657228 0.0027729215 0.0070801317
-0.013623741 0.012534544 -0.004470836 0.032450303 -0.044401973 -0.052866347 0.06596595 0.0110900905
-0.035439853 0.015901979 0.0055271317 -0.052839782 0.03749865 -0.025005128 0.014308416 0.007307838
0.0038148994 0.076937415 0.010781362 0.017399898 -0.0069758925 -0.026473539 -0.005984177 0.03154007
0.07733008 -0.0052308287 -0.030041775 0.043662377 0.06794765 -0.040412024 -0.023479512 0.05446865
0.02611913 0.019318637 0.042025782 -0.03595756 -0.007539627 -0.06854727 0.048817936 -0.014540105
-0.059344407 -0.040945973 0.012555101 -0.02425722 -0.010528172 -0.017467568 -0.06198308 -0.0034588405
-0.03175939 -0.035075966 0.036644936 0.049907733 0.0028394745 0.0640951 0.027341135 -0.013651278
0.0077037853 -0.011429473 0.0147867035 -0.029028252 -0.043928284 -0.025242088 0.07932471 -0.077067
-0.037595432 0.07880228 -0.026360793 -0.0034282808 0.042152338 -0.06584455 -0.019484842 0.005820832
0.0012182627 -0.035530835 0.01539199 0.01742167 -0.06343847 -0.069063015 0.008283697 -0.02960519
-0.057768323 -0.0105024325 0.014402042 -0.026526215 0.03359011 -0.037664358 0.054137606 -0.023888264
0.05895398 -0.017664853 -0.020942306 -0.01856163 -0.095231436 -0.038461026 0.016882896 0.033428147
0.037022933 -0.013893379 0.04504696 -0.04894379 -0.05780004 0.044698033 0.03992798 0.014881222

weight f4 [60, 256]
00000000: ac36 183c 2937 4d3e 585d 7ebd 8ad7 7abc
00000010: a60b ccbe 5610 323d 422e 13be ddcc 40bd
00000020: 811a 6bbd 1db6 543d 6539 2cbd 5beb 993b
00000030: 8be1 323d 4285 9dba 9bbc 98ba 3f5f e23b
00000040: c7b6 5abd e17d b33c c29d aebd c257 b63c
00000050: 9d7d 0a3b d5a8 94bc 39dd ecbc 3946 20bd
00000060: 93f5 f5bd 9340 58be 9d72 04bd 22c5 0bbd
00000070: 2bd9 d9bb c0a5 143e 5172 60be 8034 673a
00000080: c3b9 b83c a9c3 b4bc 76e8 aabd ff5d dfbd
00000090: 91b5 823d 3879 a73d 74fa 39bd b237 643d
000000a0: aa51 05bd ca3c 78bc 3621 32bd 3638 5a3a
000000b0: 7d3b 80bd deac 473d f7e4 d43c 6807 bdbc
000000c0: 4a3d 613d b17c ea3c f4a4 443d 2d1b 1dbd
000000d0: 36a7 713c 2301 743d a056 16bd e258 acbc
000000e0: 9f35 24bd 10d1 81bd 1261 0cbd a06b e7bc
000000f0: 1acb 1dbc 0280 39bd f9d8 4e3a 5d37 6b3d
00000100: c248 92bd 4c0c 813d 9777 4bbd 6631 8abd
00000110: 9d56 0fbd de48 7bbd 4eda 95bd acdd 80bd
00000120: 1c69 f83b 8e9d 17ba bea3 0b3d f96f 26bd
00000130: 0eea bcbc 980a c2bb 2e5d 09bf 5934 5f3d
00000140: ab26 01bd c424 09bc 5392 283d 09c6 5abd
00000150: 462f 8d3a 749b 893d b146 2e3c cb0c bdbc
00000160: 2b33 13bd e55d 21be 82f2 643c ccbe febb
00000170: 00ed 62bd 8fab f13b 47c2 8c3e 26c0 d0bd
00000180: bb4f f73c b3c8 e3bb 2194 5f3c 7679 18be
00000190: dcdc 41bd 6392 88bd d3f5 583d 635c 03bd
000001a0: 3c63 93bd d01a 62bc 0593 5fbe 4b03 45bc
000001b0: 82fc 42bd 8275 98bd d383 7fbd 14a8 9e3b
000001c0: 6afd 71bd ec9a 303d 8248 a13d 17b0 503c
000001d0: f234 f93c d758 96bc 0790 d33c 5f0c 95bc
000001e0: 9656 a2bc 442b 6f3c 409c 6d3d e715 8abd
000001f0: 53f7 85bd 1d0b 2c3e fc3a 073e e7e4 f5bd
00000200: 58ef 2dbc a259 b43c 09a0 c4bc fe0b b4bc
00000210: 363e 75bd 1fc3 84bd 5742 373d 34ba fe3c
00000220: 328c bfbc 2b6b d6bd f5f4 9f3e b435 523d
00000230: e64a e2bc b41b 263d 0bc6 7bbd 3ae8 51bd
00000240: 3ca8 db3c 5b78 393c b6b9 af3d 9a9e 29bd
00000250: 264e 953d 4dd3 63bd 2da9 543c 9687 133c
00000260: c8a5 1c3d 6d66 9cbd c11b 5bbd 4b71 9f3d
00000270: bd55 733d 2fb8 c33c ba61 0ebd bc95 cfbc
00000280: 8a36 3fbc aec6 893d 484b 4b3d 8ce9 aebc
00000290: 2e6d 61bd df4d 4b3d f16b c4bc 24df 51bb
000002a0: 68b0 9ebd 9a1c 87bd 408d 81bd 4a2b 773d
000002b0: b0a8 7abd aea6 8d3d 134f 5abd d1f3 14be
000002c0: 5867 56b8 8142 803c a0d6 b3bc d6ad d8bc
000002d0: e2a7 26bd ed16 01bd d9f1 10bd 517e 203d
000002e0: 1837 7d3c 002b 523d dbe2 69be 8d11 15bd
000002f0: 8aa6 4dbd ad63 073e 3d43 eb39 a5e9 c03c
00000300: 684a 84bd 6f9b 89bd a181 24bd 6a2f 803d
00000310: 9189 093c 53ab 603d ca9f ebbc 170a c3bb
00000320: e07b 2a3d 4a30 133d 9154 71bd 38b0 2cbd
00000330: 160a b4bb 550f 8bbc febe 12bc 98ec dd3c
00000340: 2150 1a3d c290 793d 2be3 163d 87ea 7f3c
00000350: 69b2 573d 41c7 a1bd 9815 bd3c 9360 99bc
00000360: b8cc a1bb def7 92ba 9f36 233c 538a 303d
00000370: 5ebe 32bd d17b a13d aeff 2dbd 7e10 83bc
00000380: 3486 1f3e e69f 6b3c 695e d53b e5c9 00bc
00000390: 7dba cdbc ef38 0abc 5c18 c83c dbbf 1fbd
000003a0: d2c4 533e 3b4e 75bd 505b 85bd 2f75 ab3d
000003b0: 1d5b 173d ff50 44bc d370 d83c 08d3 143d
000003c0: 9084 c8bd b241 a9bd d0ae 4bbd 7506 943c
000003d0: 04fa ed3c e232 bcbc 9292 a13c 0ec4 6a3d
000003e0: 9bc3 8dbd 86ac fc3c 36a6 98bd 2da9 a1bc
000003f0: 0877 f93b a222 d53c c961 8b3d 29d3 ed3c
0.009290379 0.20040573 -0.06210074 -0.015310178 -0.39852637 0.04347261 -0.14373115 -0.047070373
-0.057398323 0.05193149 -0.042046923 0.004697246 0.043672126 -0.0012017863 -0.0011652888 0.006908327
-0.053396966 0.02191061 -0.08526184 0.022258643 0.0021132 -0.018146912 -0.028914081 -0.03912947
-0.1200973 -0.21118383 -0.032335866 -0.034123547 -0.006648203 0.14516354 -0.21918608 0.0008819774
0.022549516 -0.022065954 -0.0834512 -0.109066 0.06382287 0.081774175 -0.045404866 0.055717178
-0.032548584 -0.015151212 -0.043488704 0.0008324416 -0.062613465 0.048748843 0.025988085 -0.02307482
0.05499009 0.02862391 0.048008874 -0.038355995 0.014749339 0.059571397 -0.036703706 -0.021038476
-0.0400902 -0.06338704 -0.03427226 -0.028249562 -0.009630943 -0.045288093 0.0007890608 0.057425845
-0.07142784 0.063011736 -0.049674597 -0.06747703 -0.03499471 -0.06134879 -0.07317029 -0.062922806
0.0075808894 -0.00057836703 0.034091704 -0.04063413 -0.023060825 -0.005921673 -0.53657806 0.054493282
-0.031531017 -0.008370582 0.04115517 -0.053411517 0.0010771535 0.067191035 0.010636971 -0.02307739
-0.03593747 -0.15758474 0.013973834 -0.0077742096 -0.055401802 0.0073751877 0.27491972 -0.101928994
0.030189386 -0.0069514154 0.0136461565 -0.14890084 -0.04732977 -0.06668546 0.05296881 -0.03207053
-0.07196662 -0.013800338 -0.21833427 -0.012024711 -0.04760409 -0.07444288 -0.062381577 0.004841814
-0.059079565 0.043116495 0.07875158 0.012737296 0.030420754 -0.018352909 0.025825514 -0.018194376
-0.019816678 0.014597718 0.05801034 -0.06742459 -0.06541314 0.16801114 0.13206095 -0.1200655
-0.010616146 0.022015397 -0.024002092 -0.021978375 -0.059873782 -0.06482529 0.044741 0.031094648
-0.02338228 -0.104696594 0.31241575 0.051320747 -0.027623605 0.040553764 -0.061468165 -0.05124686
0.026813619 0.011320199 0.085803434 -0.04141102 0.07290296 -0.055621434 0.012979788 0.009004494
0.03824404 -0.07636724 -0.053493265 0.07785281 0.05940794 0.023891537 -0.034761168 -0.025339954
-0.011670718 0.06727348 0.04963234 -0.021351598 -0.055035762 0.04963481 -0.023977252 -0.0032023871
-0.077484906 -0.06597252 -0.063257694 0.060344018 -0.06119603 0.06916557 -0.053298067 -0.14546134
-5.1117822e-05 0.015656712 -0.021952927 -0.026450079 -0.04068745 -0.031516004 -0.035386894 0.039182965
0.01545503 0.05131054 -0.22840445 -0.03639369 -0.050207652 0.13221617 0.0004487279 0.02354891
-0.06459504 -0.067191 -0.040162686 0.062590435 0.008394615 0.054850888 -0.028762717 -0.0059521305
0.041622043 0.035934724 -0.05891854 -0.042160243 -0.0054943664 -0.016975084 -0.008956669 0.027090356
0.037674073 0.060929067 0.036837738 0.0156198805 0.05266038 -0.07899333 0.023081586 -0.018722808
-0.0049377345 -0.0011212786 0.009961753 0.043100666 -0.04363858 0.07884944 -0.042480163 -0.015999075
0.15578538 0.0143813845 0.0065114987 -0.007860635 -0.025113339 -0.008436426 0.024425678 -0.039001327
0.2068055 -0.05988906 -0.06511557 0.0837196 0.036952127 -0.011982202 0.026420986 0.036334068
-0.09790909 -0.082644835 -0.04972726 0.018069485 0.02904988 -0.022973482 0.01972321 0.05731588
-0.069220744 0.030843984 -0.07453577 -0.01973399 0.0076130666 0.02601749 0.068057604 0.029031353

bias f4 [60]
00000000: 09ef 51bc ac9d 57bc 64b0 72bc 29dd 89bd
00000010: 91ab 343c be99 39bc 9f99 613d 6442 b43a
00000020: 4e65 09bd 5b61 c9bc c6e6 ee3b 1de7 91bd
00000030: ea76 503d fed5 eabc 3642 533c 06e3 21bd
00000040: 7c9e e03c bd43 87bd b1e5 113d 15fb ea3c
00000050: 8413 87bd d7dc 043c 0d5d 6f3c 0778 d1bc
00000060: 4ed5 4b3d 6aa9 643d 367d 00bb efea adbc
00000070: b8b1 73bd b7df 6339 57a0 613c 36c1 e73c
00000080: 395b ccbc e765 773d 468f 30bd 8f05 463d
00000090: e208 343c 1203 933b 474c ef3b cd53 393d
000000a0: 2c09 133d 673b a6bb 36c6 4bbd dbe5 53bd
000000b0: ea02 923b 5be3 30bd ec6a dc3c 03e5 98bd
000000c0: cff2 fabc bd84 bdbb 68be d0bc b04c b5bc
000000d0: 606d 4ebd 0494 ea3c dd6f df3c 6fd5 1d39
000000e0: b317 04bd 8927 153c 66dc d7bb 3df5 47bd
-0.012813338 -0.0131601505 -0.014812563 -0.06731636 0.011027233 -0.011328159 0.055078145 0.0013752696
-0.033543877 -0.024582556 0.007290694 -0.071241595 0.050894655 -0.028666493 0.012894204 -0.039523147
0.027419321 -0.06604717 0.03561944 0.028684178 -0.06595519 0.008109293 0.014609587 -0.025569929
0.04976397 0.05582563 -0.0019605882 -0.02123019 -0.059495658 0.00021731747 0.013771138 0.028290372
-0.024945842 0.060399916 -0.043105386 0.048345145 0.010988446 0.00448645 0.007302794 0.045245934
0.03589742 -0.0050729993 -0.049749576 -0.05173288 0.004455914 -0.043185573 0.026906453 -0.074655555
-0.030633358 -0.005783646 -0.025481418 -0.022131294 -0.050397277 0.028635032 0.02727502 0.00015052197
-0.032249164 0.009103664 -0.006587553 -0.04881786
