data/example_dynamics_data/kitchen_MLP_prior_endless.pth (torch, 664463 bytes, 8 tensors)

weight f4 [256, 70]
00000000: a5f5 023f c34c a53e 854c 67bf a95e 953e
00000010: 9142 a43e f76e 33bf d718 423e fae3 ce3d
00000020: 7fe6 87be bfc9 aa3f b4f9 793f 0a27 283f
00000030: c11c 18bf 72d3 3640 4b6e a43e 1de7 9f3f
00000040: 8d26 1d3f 53fc f6bf 224d 993f da3a 5140
00000050: 4fe1 613f c64e b6be 7379 8abe 60c3 41bd
00000060: 387f c1bc 0301 d73d bf4d e43d 50b5 3fbf
00000070: 73e3 e4be 67d4 c7bd 7782 af3c 7518 d9bb
00000080: 8875 edbd c243 bc3d 2f91 b73d 266c 52bd
00000090: 43e4 6d3d 64fd 503d e988 763c b115 c73d
000000a0: a644 a9bd b102 34be a91a cc3c e25a 463d
000000b0: e2dd 50bd 4e48 613d ec89 d43d 54ab 033d
000000c0: 965c 37be 01ed 1bbd 103a d83d d47f ee3d
000000d0: fec3 3ebe 8760 29be 58c0 a83d 771c 113e
000000e0: 6554 a43d 32b4 ca3c dbe6 22bd 50a2 0ebe
000000f0: 2ec6 42bd 3f80 dbbd 3a34 4e3c c237 0dbd
00000100: 3971 6cbd 4722 de3d f086 0dbe 5251 2ebd
00000110: 4116 84bc 2a67 e03d 1f8a 8839 d3e0 a1bd
00000120: 68f7 1abd 31c5 b53d 519b 343d 9b7e 6d3d
00000130: da77 323d 1a3c 903c 47a9 013e 0d4c 593f
00000140: 8c24 0740 be7c 08c0 11f0 44c0 bf09 8d3e
00000150: 86bf 5f40 a551 0abf ee1f 843f e297 9bbf
00000160: 0233 fe3e 161a d23e 9eff 053e 8a91 e3be
00000170: 817f a5bd 82fe 60be 0e52 24be a4d7 353f
00000180: 78b7 233e f0f3 c13e fc29 123f 86f3 64be
00000190: 86ef d23d b779 dd3d 6b62 b8bc de67 06bd
000001a0: d125 893d 5d6c ab3d b96f 8abb 2df9 28bc
000001b0: 7be6 903d 0afd 3e3d dd03 dc3d 56f6 31bd
000001c0: 9142 05be 1884 38bd 6eaf af3d e142 c73d
000001d0: f899 88bd ceae 86be e9ff 3cbe 8743 87bd
000001e0: 6bb5 953d b79f 1f3d 88f0 82be 2a93 adbd
000001f0: 2988 be3d f5b5 843e 7ad5 273d 2f0f 8ebd
00000200: 3192 27b9 4668 24bd 32dc 163e d005 b43c
00000210: 42d2 323d 3f1b 93be 4074 23bd fa57 09be
00000220: 6ae3 5c3e d745 70be 5c7a d5bd 23e3 54be
00000230: 90bf cc3e f24f 47be 9764 1abf aa21 783e
00000240: c3c6 b13e 9972 83be d669 be3e 052b ca3e
00000250: 23d5 063e 30f5 7d3f 26e7 573e fe1d afbe
00000260: 3976 74be 3417 f23f f41e 513f 743e 86bf
00000270: 6b7e a3be 2e11 3abe a454 343f 9529 003f
00000280: 6c16 2f3e 18b9 3abf 2d77 683e 48d2 1d3c
00000290: 768d 3bbe 1761 033f 0e55 1d3d 093b a83f
000002a0: 839c 353f 898e 13be 99a4 ecbd 8711 a4bb
000002b0: cf33 ba3c fda8 b13c 8369 d5bd 6e71 373c
000002c0: 75b9 6ebd 0e1f ebbc f53a e33d 4a06 7bbd
000002d0: 16d5 acbd a897 ffbd fd7a 07be ecf1 963d
000002e0: 161d 9f3d 7a82 cd3d 57bc 833d 077f bebc
000002f0: b897 a8bd c5fc cdbb 843b edbd 2c75 57bc
00000300: a049 0dbe aea6 f3bc e79b 533d 67bd 3f3d
00000310: 57ae 373e 8048 da3d 022c e53d 7e1f a83c
00000320: 8ac1 7a3c 3bde 9ebc 66bf 293c 0311 103d
00000330: 769d e03d 5dc7 b1bb ac90 a1bd 6ed8 803b
00000340: fe6f 19be 54a7 fb3d 46b1 57bf 3fe2 6b3e
00000350: 796a f63f 65e4 333f 7407 40bd f0f4 2bbd
00000360: 1c70 f2bd d4d5 9b3d 6721 5c3e d351 78bf
00000370: 2982 9dbf d462 01bf d6f1 9c3f 8f21 dbbf
00000380: 9ed9 b53f 2712 bcbe 249a 97bf 0eed 453e
00000390: 9477 42bf d2b8 663f f292 fd3e 0a1d babe
000003a0: 3e58 e5be 2a4a 69be 7b73 e7be f50e f9be
000003b0: 5122 353e a2ab 79be ca5c f9be c8a1 e0be
000003c0: 3204 da3d 11c3 1abd efe3 b33d e6ba df3d
000003d0: 80c7 b9bd ad51 eb3b 2e69 f4bd c194 a8bd
000003e0: b0ec 373d 1864 08bd 002b f4bd 843a aabe
000003f0: 8bd5 93be 6e7d 42bd 9dc2 97bd 5788 f4bb
0.51156074 0.32285127 -0.90351135 0.29173782 0.32082036 -0.70091194 0.18954788 0.10102077
-0.26543042 1.3342818 0.9764664 0.6568457 -0.59418875 2.8566556 0.32115397 1.2492405
0.6138695 -1.9295753 1.1976664 3.269217 0.8823442 -0.35606974 -0.27045783 -0.047305465
-0.023620233 0.1049824 0.111476414 -0.74886036 -0.4470478 -0.097573094 0.021424515 -0.00662523
-0.11594683 0.09192611 0.089632384 -0.05137267 0.058079015 0.051022902 0.01504729 0.09720934
-0.08265047 -0.17579152 0.024915056 0.048426516 -0.050992854 0.055000596 0.10377869 0.032145813
-0.17906412 -0.03806782 0.105579495 0.11645475 -0.18629453 -0.16540729 0.08239812 0.14171015
0.080239095 0.024744127 -0.039770942 -0.13929105 -0.04755228 -0.107178204 0.012585694 -0.034477003
-0.057725165 0.10846382 -0.13821006 -0.04255802 -0.016123893 0.10957177 0.0002604285 -0.0790421
-0.0378336 0.08875502 0.044093434 0.05798207 0.04357133 0.017606784 0.1266223 0.8488167
2.1116056 -2.1326137 -3.0771525 0.27546498 3.4960647 -0.5403083 1.0322244 -1.2155726
0.4964829 0.41035527 0.13085791 -0.44446975 -0.0808096 -0.21972087 -0.16046926 0.71032166
0.15987957 0.37881422 0.57095313 -0.22358522 0.10299592 0.10814231 -0.022507867 -0.0328139
0.06696666 0.08370278 -0.004224744 -0.010313314 0.07075211 0.046628036 0.10742924 -0.043447815
-0.13013674 -0.04504785 0.085783824 0.09729553 -0.06669992 -0.2630524 -0.18456997 -0.06604677
0.07309993 0.038970675 -0.25574136 -0.08475335 0.09303314 0.25920072 0.04097507 -0.0693649
-0.00015980822 -0.040138505 0.14732435 0.021975428 0.04365755 -0.28731725 -0.039905787 -0.13412467
0.21571127 -0.23464142 -0.10423729 -0.20789771 0.399899 -0.1946409 -0.6030974 0.24231592
0.34721956 -0.2567337 0.3719012 0.39485946 0.13167243 0.9920225 0.2108427 -0.3420257
-0.23873223 1.8913331 0.81687856 -1.0487809 -0.31932387 -0.18170616 0.7044165 0.5006345
0.17098397 -0.7293868 0.22701712 0.0096326545 -0.18315682 0.5132002 0.038411193 1.3143016
0.7094194 -0.14409842 -0.11554832 -0.0050069722 0.022729782 0.021687025 -0.104205154 0.011196477
-0.058282334 -0.028701331 0.110952295 -0.061285295 -0.084390804 -0.12480098 -0.1323051 0.07370362
0.077692196 0.10034652 0.06432407 -0.02325393 -0.08232063 -0.006286236 -0.11583617 -0.013150495
-0.13797617 -0.029742565 0.051662352 0.046811488 0.17937599 0.106583595 0.111900344 0.02052283
0.015304932 -0.019393077 0.010360574 0.035172474 0.10967533 -0.0054253773 -0.07888922 0.0039320504
-0.14984128 0.12287775 -0.8425487 0.23035525 1.9251243 0.7027038 -0.046882108 -0.041981637
-0.118377894 0.07609144 0.21497117 -0.96999854 -1.2305347 -0.50541425 1.2261302 -1.7119616
1.4207036 -0.367326 -1.1843915 0.1932871 -0.7596371 0.90125763 0.49526173 -0.3635028
-0.44793886 -0.22782198 -0.45205292 -0.48644224 0.17688872 -0.24381879 -0.48703605 -0.4387343
0.106453314 -0.037783686 0.08783709 0.1092432 -0.09071255 0.0071813674 -0.11934124 -0.082314976
0.044903457 -0.03329858 -0.11922264 -0.3324777 -0.28873858 -0.0474829 -0.074101664 -0.007462542

bias f4 [256]
00000000: 0b84 353c 7fd4 3e3e 8789 2b3e 02c8 8d3e
00000010: 90c7 53bd ca5c b13e f6cd 44be dcc4 543d
00000020: dc47 11be 1096 c03d 410e b53d 0875 ae3d
00000030: 835c 943c c47c 5abe 5677 593e 1ae2 1fbe
00000040: 3d17 a73e dae6 9fbe 1eb0 3f3d 319f 9a3e
00000050: c96c febc a9e3 4c3e d45d dabe f152 bc3d
00000060: e73f 10bf fe2c 5a3e be3a dcbb 1855 acbe
00000070: aaac 1abe ea06 123e a687 8c3e bfc7 71bd
00000080: a60f 98be 149f 04be 2a10 3bbe 0a67 55be
00000090: d06b a63b 85bd 3b3d bccb 7dbe c5eb 143f
000000a0: 9f3e 68bd 4dac 7bbe 13bf 16be ed73 883d
000000b0: 6cd1 a93e fd17 b3be cbf9 eabd 1dfd 103e
000000c0: 61cf b2bd d6f1 a3be c916 08bf e46a ccbe
000000d0: 2943 19be 017d 13bd b950 e8bd 0720 09bf
000000e0: 4a50 12be 1bb9 05be 5a97 5cbe b2ed 0f3d
000000f0: 98e6 b2bd 1656 c8be 8765 133d 6fa5 773d
00000100: d336 bfbd 6f25 21be fdcc 8b3d c17b 3abe
00000110: fb82 f3bd cfdf 2a3d 3b63 933c 9186 1bbe
00000120: 81a4 a7be d081 a7be e55e 98bd 5d18 68be
00000130: dce6 b2bd d602 ffbd 15aa 26bd f4f9 82be
00000140: 00d8 08bf 21ca d13e 3b42 893d 5c5c 073e
00000150: 7662 903e 7315 11bf 5907 d03c 1d49 5f3e
00000160: 4bbc 82be 306f 393e 1dcf 0ebe 34cc 18bd
00000170: 6d97 d7be 57ed 04bc a82d 08bd 63c7 b5bd
00000180: 498c ec3e 9fa7 ca3d 2fc1 62bd e4f4 08be
00000190: 8b4f 4e3d 2c49 5ebc 00fa df3d f601 09bd
000001a0: 3ae9 24be 821e 59be e970 c6bd 75c9 c7be
000001b0: 3dba 29be aad3 fa3e fc95 743e fce9 80be
000001c0: a390 483e 53bb aa3c e771 883c 2797 c73e
000001d0: 3b97 c4be e9af babe f365 14be e7c6 20be
000001e0: a846 8c3b a6c0 b03d 7c2c 853e 9cc4 5bbe
000001f0: edff 0fbe 7ee7 4dbd c86c cbbd 318d 0bbe
00000200: 01f7 013e 9475 9dbe a443 4b3c 44f7 91bd
00000210: 138a b23b c7a9 843d 8dd3 31be 7c93 51bd
00000220: c284 613e 8666 4fbe 4b92 1abe e8e9 32bb
00000230: 8aba a4be c907 43bd 48b8 15be 13e7 f8bd
00000240: d47a 67be 964d 163d 724b 70be abf9 8dbe
00000250: 61fb 0b3d 14e1 c5bc dba1 89bc 98fc 3c3d
00000260: 28bd 7ebd e0d6 24bf f1df 253f 5ae2 9cbe
00000270: 331b 283e e47a 39be 4fdf 16be a525 dd3b
00000280: 19a8 99bd f4da 05be e002 c93c baa9 60bd
00000290: f804 adbd 4008 68be 0452 e3bd a4cf 00bd
000002a0: 5af7 9f3d 734c 7ebe 546c b33c 5d6a 2fbd
000002b0: 41d2 9fbd 2c9e a63e 7f35 f43d 8aab 263d
000002c0: af39 cd3d 61cc 15bd 1208 143e 0b63 26be
000002d0: 8b64 e33d 9a24 123f d594 063f ab1b 6abd
000002e0: 4122 af3e d81b 863d 0845 083f dd6e 463d
000002f0: 41eb d1bd 2d8f 033c 52d6 24be 3207 2dbe
00000300: 600d 3cbe 52c3 8f3d 017e 9ebe 762c b8bd
00000310: e0e1 64bd a92f d03e ccb5 91be 5736 4ebe
00000320: 942c 38bd 2d2a 093c 39ab bcbd 91f2 4dbe
00000330: 1479 e6bd 189d 9f3a 9ae1 d13d 71a6 e4bd
00000340: 832e 6bbd fb4c b4bd a88e c43d de55 c1be
00000350: 6092 04bf bd4c 83be 99cc 8a3e a9d2 f23d
00000360: 697f 4ebd 145c 37be ca84 823c 22fd 9d3d
00000370: 47dd 803d a653 603d 9b4a e1be ae9a a6be
00000380: 680e a4bd 2433 503e fdad cc3d 789b a2bd
00000390: 5084 4d3e 8a6f c83c 31e4 90be 9020 16be
000003a0: e21b cc3d 56ef 86bc f606 43bd 850b 56be
000003b0: ceb0 d9bd ad89 26be a4d6 aabe 47ea 05be
000003c0: a7b2 01bf 25c6 23be ba35 7e3d fc90 edbe
000003d0: 53b2 15be 8f15 8fbd ddc8 a6be 93ea 73bb
000003e0: 24fe 3ebe 7c98 9a3e aa6e e43e bbfb 29bd
000003f0: 006c e93e 1a0c ccbe 5f97 f3bd c813 863d
0.011078845 0.18635748 0.16751681 0.27691656 -0.05170399 0.34641105 -0.19219193 0.051945552
-0.14187568 0.09403622 0.08840609 0.08518416 0.01811052 -0.21336657 0.2123693 -0.15613595
0.32634917 -0.31230813 0.046798818 0.30199578 -0.031057732 0.2000872 -0.4264971 0.09195507
-0.5634751 0.21306226 -0.00672087 -0.3365867 -0.15104929 0.1426045 0.27447242 -0.059028383
-0.2969944 -0.12951308 -0.18267885 -0.20840088 0.00507877 0.045835037 -0.2478475 0.58172256
-0.056700345 -0.24577446 -0.14721327 0.06662736 0.3316759 -0.3497924 -0.114734255 0.14159055
-0.08730961 -0.32020444 -0.5315977 -0.399253 -0.14967026 -0.036007885 -0.113435216 -0.53564495
-0.1428844 -0.13058893 -0.21542111 0.035138793 -0.087353885 -0.39128178 0.035985496 0.060460504
-0.09336629 -0.15736936 0.06826208 -0.18211271 -0.11890217 0.041717347 0.017991653 -0.15188052
-0.32742694 -0.32716227 -0.07439975 -0.22665544 -0.08735439 -0.12451713 -0.040689547 -0.25581324
-0.5345459 0.40974525 0.067020856 0.13218826 0.2820012 -0.56673354 0.025394129 0.21805234
-0.2553428 0.18108821 -0.13946195 -0.03730412 -0.42107716 -0.008113227 -0.033246666 -0.088759206
0.4620078 0.098952524 -0.055360015 -0.13374668 0.050368827 -0.01356725 0.109363556 -0.033449136
-0.16104594 -0.21203044 -0.09689505 -0.39020887 -0.1657495 0.48989612 0.2388534 -0.25178516
0.19586425 0.020841276 0.016655875 0.38982508 -0.3839663 -0.36462334 -0.14492016 -0.15700875
0.004280884 0.08630495 0.260105 -0.2146172 -0.14062472 -0.050269596 -0.09932858 -0.13628079
0.12691881 -0.30753767 0.0124062635 -0.0712724 0.0054485886 0.06477695 -0.17365856 -0.051166043
0.220233 -0.20253953 -0.15094869 -0.0027300064 -0.32173568 -0.047614846 -0.14621079 -0.12153449
-0.22605449 0.036695085 -0.2346628 -0.27729544 0.03417528 -0.024155177 -0.016800812 0.04613933
-0.062192112 -0.64390373 0.6479483 -0.30641443 0.16416626 -0.18113285 -0.14733623 0.0067488723
-0.07502765 -0.13071805 0.024537504 -0.054849364 -0.08448213 -0.22659397 -0.110996276 -0.03144802
0.078108504 -0.2483385 0.02190224 -0.042826045 -0.078037746 0.3254255 0.11924266 0.040690936
0.10020768 -0.036571864 0.14456204 -0.1624872 0.111031614 0.570871 0.5257085 -0.057155292
0.3420582 0.065482795 0.53230333 0.04844557 -0.10249949 0.008029741 -0.16097382 -0.16897276
-0.18364477 0.07019676 -0.30955508 -0.08992855 -0.055879474 0.40661362 -0.28459013 -0.20137917
-0.044964388 0.008371872 -0.09212346 -0.20112063 -0.112535626 0.0012177555 0.10248108 -0.11164559
-0.057417404 -0.08803745 0.09597522 -0.37760824 -0.5178585 -0.25644484 0.2710922 0.118565865
-0.050414477 -0.17906219 0.01593246 0.07714297 0.06292205 0.054767273 -0.44002232 -0.32539886
-0.0801056 0.20332009 0.09994123 -0.079398096 0.20070004 0.024467248 -0.28299096 -0.14660859
0.09966256 -0.016471546 -0.04761406 -0.20902832 -0.10629426 -0.16263457 -0.33366883 -0.13077651
-0.50663227 -0.15993555 0.062062956 -0.46399677 -0.14618807 -0.06986534 -0.32575122 -0.0037218675
-0.18651634 0.3019446 0.4461568 -0.041499835 0.4559021 -0.39852983 -0.11894106 0.06546742

weight f4 [256, 256]
00000000: 04a7 17be eef8 e5bc 13ea e03e 4ec4 ebbd
00000010: dbee a93e 70fa 423d b438 18bd 1723 44be
00000020: 89f1 32be 8833 0e3b cdf5 833d 5769 9f3e
00000030: a8e5 933b 6e3c bd3e a77b f9bc 140f 9d3e
00000040: 4b79 8abd bbac 76bc 8361 c1be 76df aabe
00000050: 08c1 74be 6bdc 64be d316 4b3e ef70 413e
00000060: 40c8 2f3e 04b9 713e e116 ed3c c0e6 06be
00000070: 43f4 823e 2c7a 2fbb fcac ad3d 9dbe 2f3c
00000080: 1eb5 303e 682d a0c0 538e 003d 8357 25bf
00000090: 55aa 733e 94df cc3c cd1d 1bbe cc29 3b3c
000000a0: c90b 60bc f2d9 f3bd 5c09 343e a5a2 cf3c
000000b0: 3ee8 003d d0ae 88be bdcd 763e 3d46 353f
000000c0: d11c e3be 2f88 d4be c782 82be 8643 34bf
000000d0: 337f 4cbe deaf 04be c153 aabe 7861 bdbd
000000e0: 43f9 613e 39a4 7a3d 24a5 843e a097 d33e
000000f0: e529 923d 5e7f 833e 1862 30be c09d e33d
00000100: 4986 85be f9fd a93c d07b 31bf db79 f03d
00000110: efff 28be f720 43be de18 4dbd aaa7 a9be
00000120: 8b42 773e 3d26 1ebe 9eb5 893d f01e a0be
00000130: 07dc 363e 4ebe 11bb cfd5 003e 14e6 75be
00000140: 7ede f93d b99d fcbd 1f07 96bc 88ad 8abb
00000150: d64d 74be 0297 653e f934 ecbd 962e 583c
00000160: 64a6 02be 7e56 a1bb 0a69 1bbf f732 adbd
00000170: 3cef 1dbc 8e36 7e3e 6cfe 00bf 0367 303e
00000180: 9ea0 a1bd 7073 623d f41a 03bd 03fb 373c
00000190: c011 08c0 dddc 3cbd 695d 5bbe 5e54 643c
000001a0: fe14 bebd 89c5 52bf 6eb7 5b3f 0f10 22bd
000001b0: 4e0c ad3d 9cd8 5c3e 6fb6 33bd 9207 c9bd
000001c0: d966 02bb 8ff7 79bd 4fb0 8d3d 576c ac3d
000001d0: 6b39 773d 21f8 1cbe de10 ba3d 3b3f 0cbc
000001e0: 66b1 37be 63fc c23e 8ded 293b 65b3 22be
000001f0: 89bd 9e3e b03e d83d 90dc 5dbe c7ff 683e
00000200: c1da 24bd 6f38 05be 16a4 db3d 6987 89be
00000210: 444a e0bd 8b47 bdbd 13a3 b13e b377 7fbe
00000220: e17d af3d 2c23 803d 560f 9e3e f4c6 97bd
00000230: f386 bd3c 01eb 49bd 790c 6dbe 2f52 9f3c
00000240: 941d e33d aeb2 18be 1553 7dbe 48e9 333e
00000250: 0d79 1b3d 6be2 8b3e 73a6 81be 907f efbe
00000260: 9d57 babe 191b db3e 8141 6f3e 2425 073e
00000270: 5fdf c73e 1ad0 a43e b299 95be e380 4fbd
00000280: ab04 d9bd b7ae 99be 2289 f9be 7692 5d3e
00000290: 833b 09be b987 fd3c 6995 2e3e 8160 7ebd
000002a0: 80cb c83d 1cb4 3f3d 8313 2dbe 90c3 bc3b
000002b0: 8a13 71bd 0a4a 9ebb c15a 7f3d 0708 8cbe
000002c0: 5c56 253e 6656 42be 5762 51be a6b5 32bf
000002d0: 3f99 dabc 588b 0dbd 5d17 043d c154 86be
000002e0: 30c8 953b e2c5 b2bc 293f 833d c686 783d
000002f0: e25d a8be 2a0b 7bbe 3bdd 1c3e d3b0 d2bc
00000300: 7439 05be eb48 bc3d 8949 fdbc c681 693e
00000310: 52e9 e3bc a82f 933c 69fa c63e fead 29bd
00000320: ea0b 673c fe73 853d c1fd 083e 7d0c 5fbc
00000330: e3e7 7fbc 63cc 233e 9eae 323d a82f ca3d
00000340: 4dca f1bd 6fa5 47be ec21 3a3e 4af4 f23c
00000350: dc55 023e 6b6a 823e 29fb 2d3e 7e49 ae3e
00000360: 679d 1abd 50b6 25be 1cbb 653e adc4 9bbe
00000370: 6435 a23b e9bc fabd 59b8 5c3d 0176 3fbf
00000380: af36 2a3c 0401 7a3e 6c5c 91bd 41e9 3b3d
00000390: d614 1d3d d3cc b63c a004 eebc 48be 03be
000003a0: e05e 02bf 96be 04be 5da5 8e3d b1d4 50be
000003b0: b7a8 3a3e 6750 bb3d 1644 8a3e 4fd9 02bd
000003c0: 1603 abbd 8dfe febd e5bf e5be 12bc a83d
000003d0: c171 fcbe af57 173e f035 76be de59 1fbd
000003e0: 22a8 a8bc 4be6 723e 1e47 2abe 5896 3fbe
000003f0: 813d f0bd 42d1 80be 3668 9cbd cd30 893d
-0.14809805 -0.0280728 0.43928584 -0.115120515 0.33190045 0.047602117 -0.03716345 -0.1915401
-0.17474951 0.0021698195 0.06443367 0.31135055 0.004513461 0.36960167 -0.03045447 0.30675566
-0.06761416 -0.015055831 -0.37769708 -0.33373612 -0.2390176 -0.22349708 0.19832925 0.18890737
0.17166233 0.23605734 0.028941574 -0.13173962 0.25576982 -0.00267757 0.0848026 0.010726598
0.1725659 -5.0055428 0.03138573 -0.6458666 0.23795445 0.025008954 -0.15148087 0.011423539
-0.013674685 -0.11906804 0.17581695 0.02534611 0.031471483 -0.2669587 0.2410192 0.708103
-0.44357923 -0.4151015 -0.254904 -0.7041553 -0.19970398 -0.12957713 -0.33267024 -0.09247106
0.22067742 0.06119177 0.25907242 0.41326618 0.07136897 0.2568311 -0.1722492 0.11114073
-0.26079014 0.020750986 -0.6932955 0.11741992 -0.16503881 -0.19055544 -0.050072543 -0.3313573
0.24146478 -0.15444274 0.06724094 -0.31273603 0.17857371 -0.0022238675 0.12581562 -0.24013549
0.1220064 -0.12334771 -0.018313942 -0.0042321123 -0.23857817 0.22420886 -0.11533541 0.013194701
-0.12758785 -0.0049236408 -0.6070715 -0.084569864 -0.009639557 0.24825498 -0.50388217 0.17226796
-0.078919634 0.05528587 -0.032008126 0.011229279 -2.1260834 -0.04610907 -0.21422352 0.01393613
-0.09281348 -0.82332665 0.85826766 -0.039566096 0.084496126 0.21567005 -0.043875154 -0.09815897
-0.0019897728 -0.061027106 0.06918394 0.08419102 0.060357492 -0.15329029 0.090852484 -0.008559997
-0.17938766 0.3808318 0.0025928945 -0.15888746 0.3100398 0.10558832 -0.21666169 0.22753821
-0.040247682 -0.13009809 0.10724656 -0.26861122 -0.10951665 -0.09242161 0.34694728 -0.24948005
0.08568931 0.062567085 0.30871075 -0.07410994 0.023135638 -0.049296383 -0.23149289 0.019448368
0.11089626 -0.14911911 -0.24738725 0.17569458 0.03795724 0.2732118 -0.25322303 -0.4677701
-0.3639497 0.4279411 0.23364832 0.13197762 0.39037606 0.3219002 -0.29218823 -0.050660025
-0.105965935 -0.3001611 -0.48737437 0.21637902 -0.13401608 0.030948507 0.17049183 -0.062103752
0.098044395 0.046802625 -0.16901974 0.0057606176 -0.058856525 -0.0048306035 0.06234241 -0.27349874
0.16146225 -0.18978271 -0.2044767 -0.69808424 -0.026684402 -0.034556717 0.032248843 -0.26236537
0.0045709834 -0.021822874 0.06408531 0.060675405 -0.32884127 -0.24515978 0.15318768 -0.025719082
-0.13010198 0.091935955 -0.030918853 0.22803411 -0.027821217 0.01796706 0.38862923 -0.041425698
0.014101962 0.065162644 0.1337805 -0.013613817 -0.015619251 0.15995936 0.04362356 0.09872371
-0.11806164 -0.19496702 0.18177003 0.029657502 0.12728065 0.25471815 0.16990341 0.34040445
-0.037747767 -0.16182828 0.22434658 -0.3042349 0.0049502123 -0.12243063 0.053886745 -0.74789435
0.010389014 0.2441445 -0.07097706 0.045876745 0.03834995 0.022314465 -0.02905494 -0.12865555
-0.5092602 -0.12963328 0.06965134 -0.20393635 0.18228422 0.09146195 0.2700507 -0.031945523
-0.08350198 -0.124508955 -0.44872966 0.082389966 -0.49305537 0.14779542 -0.24044013 -0.038904063
-0.020587984 0.23720662 -0.16628692 -0.18709695 -0.11730481 -0.2515965 -0.07637064 0.06698761

bias f4 [256]
00000000: 9c16 8e3b 65f3 013e 2f9b ef3c a859 02be
00000010: 8a9f 973c 070e 2ebe 7795 883e 774e 9abe
00000020: a1ce 7cbe 1594 9a3d 9895 383d 923c 02bf
00000030: fb16 a1bd 800e 263e ef42 d7bd 499a 14bf
00000040: b6d2 4b3e cb3e 863c 27f7 f0be ba44 3cbd
00000050: 429d 3b3d 95d5 513d 1b98 063e 716e 073e
00000060: a8d1 f9bd d2a6 c4be ac0a 2f3e 1e70 72bd
00000070: 62b2 70bd 23aa 5e3e 112d 653c 7066 1abe
00000080: 69e4 863d 8f82 f13d 0012 1cbe 8e64 19be
00000090: e3bc 483e b8cc eb3e bae1 04bf 6947 253d
000000a0: 6fed 8bbe 0a7d c9bd 559e c6be 64f0 27bd
000000b0: b133 b43d f47a a9be 49fb 36be 5f0b 9c3b
000000c0: 4583 c8bd a3a7 81bd bed4 073f 5c78 293e
000000d0: 76bd f8be a10a 113e 5874 263e 56c0 983e
000000e0: cbb4 b63d e513 6c3e ccde 82be 4d35 6dba
000000f0: 3c9a d43d 838b 273d 9229 c5be e5fa eabb
00000100: 49ca 783d b54e 7b3c b206 82be 2516 31bd
00000110: 6ac9 eabe 97e5 1c3d 8b5f ff3d eaff 2e3d
00000120: aed1 f9be 9f88 f5bd 9cd1 b2be 8743 a0be
00000130: ea2c 373d 98fc a4bd e2a4 eebe 56e6 bf3d
00000140: 4ca8 86be 16b7 183d 6cc1 cfbd f73e 243e
00000150: ca9d d9bd d084 5ebe 5f88 b53d 7c7d e6bd
00000160: a396 943d 0708 c5bd ff32 babb 5777 bb3d
00000170: bd41 69bd bc20 27bd 4d60 1b3d 00ae 203e
00000180: bb6d 1cbe e7cf 9cbd 1851 1dbf c077 523e
00000190: 8170 3e3e 3f38 84be 09a2 353e adf3 8ebd
000001a0: a51b 493e 0c54 403d 00ab 913d 7feb 35be
000001b0: 1ba5 b23d d572 153e f52a 353d 7eab a2be
000001c0: 8071 0abf 1857 523c 5b43 45bc 0549 593e
000001d0: 87af 523b a73c 313d 9383 2ebd 2b73 debe
000001e0: 9ad2 9cbe b828 8cbc 8906 dbbb 1d19 a5bd
000001f0: 27be d5be f2a5 b8bd 4ac4 293d e73e e23d
00000200: fdc5 383e 65c7 0cbf efc6 bcbe 161a 72bd
00000210: 3dfc 77be 7f45 c03d 5434 5cbe c677 e7be
00000220: 97c5 bbbe 29f5 0bbe e4f6 55bc e1bb bebe
00000230: 3097 58be cc49 ee3d e7ab 123e ff1b 863d
00000240: 378d 203f d541 9dbe 2f00 363e acad 593c
00000250: e8af 8bbe b04b 21be 8fc1 7abe a050 753d
00000260: 76cb 4ebe 9c5d 4cbe 7aa5 513e b232 9b3d
00000270: d34a afbe c0e6 1bbf 25bb 033e da18 6bbd
00000280: c843 223c 8307 0f3e 344c aabe c847 0e3e
00000290: 7224 e6bd e4d3 973d 4bfe 36bd 49c2 283d
000002a0: 39f9 61be 0d8d 39bf 0b41 afbe bf1b bb3e
000002b0: 3310 92bd b243 1dbf 10ca 86ba dbdc 113d
000002c0: 828b 16be 10fd 35be 6681 583e fc73 bebc
000002d0: 8844 f33d 099c 02bd be65 40be dda7 bdbe
000002e0: 20c3 683d 127f 07bf 14c0 dd3d f0db 34be
000002f0: d0ec cb3d 17d7 213e 1941 23bb d16c 2c3d
00000300: 073e a7be a0a5 a7bd 74a9 1d3d 463a b1bd
00000310: 4def 81bc 0117 59be 9321 b3be e776 52be
00000320: 4af1 98be 8a0b 10be d997 aa3e 0531 df3e
00000330: 8278 ba3d ce30 61bc 4668 0fbe bfa0 a13d
00000340: e2d6 9d3e fd68 073e 392b af3d 65ae d0be
00000350: 6694 adbd 3c31 3e3e 077e a5bd 1b19 8cbe
00000360: ea0e f5bd c8bc 6ebe 2804 0d3e 6e5c de3e
00000370: b4a0 cdbd 588f 6d3d 3370 6dbe 1c53 0d3d
00000380: 5289 20be 644b 53bf d75e 043d a139 253d
00000390: 7597 85be a008 473e fc78 39be 9625 393d
000003a0: 95c5 53be 8c9c 803e e0bf f5be 9ee6 64be
000003b0: 50a1 fabd 75fa 013e 704e 613d 502c 0fbd
000003c0: f06d 98be 9543 34bf 69d4 403e 8afc df3d
000003d0: 6d1a 4e3e dbdb babd ab99 0a3e 4bd1 993d
000003e0: d8a6 e23d 572b 1ebd 3d53 1bbd 5b66 dbbb
000003f0: 8705 7f3d 2f48 ecbd c198 97bd dd6a 913d
0.0043361913 0.12690504 0.029248802 -0.12729514 0.018508691 -0.16997539 0.26676533 -0.3013799
-0.24688198 0.07547776 0.04506454 -0.5087367 -0.07865711 0.16216469 -0.105108134 -0.5804792
0.19904599 0.016387364 -0.47063562 -0.04596398 0.04580427 0.05122908 0.13143961 0.13225724
-0.12198192 -0.38408524 0.17093915 -0.059188955 -0.05876387 0.2174459 0.013987795 -0.1507814
0.065865345 0.1179248 -0.15241241 -0.14979765 0.19603305 0.46054626 -0.5190693 0.040351305
-0.27329585 -0.098383024 -0.38792673 -0.04100074 0.08798922 -0.33101618 -0.17869295 0.0047620977
-0.09790663 -0.06330802 0.53058994 0.1654982 -0.48582047 0.14164211 0.16255319 0.2983424
0.08921202 0.23054464 -0.25560606 -0.0009048775 0.1038098 0.040904533 -0.38508278 -0.0071710222
0.06073979 0.015338589 -0.25395733 -0.04323401 -0.45856792 0.03830489 0.12469395 0.042724527
-0.48792785 -0.11988949 -0.34925544 -0.3130152 0.044720568 -0.08055991 -0.4661017 0.09370105
-0.26300275 0.03728398 -0.10144314 0.16039644 -0.10625799 -0.21730351 0.08863901 -0.11254403
0.07255294 -0.09620672 -0.0056823487 0.09153622 -0.05694746 -0.040802702 0.037933636 0.15691376
-0.15276234 -0.07656842 -0.61451864 0.20553493 0.18597604 -0.25824162 0.17737593 -0.06980071
0.19639452 0.046955153 0.07112694 -0.17765616 0.087228976 0.14594586 0.04423042 -0.31771463
-0.5407944 0.012838148 -0.012039985 0.21219261 0.003214808 0.043270733 -0.042605948 -0.4344724
-0.30629426 -0.01710926 -0.0066841287 -0.080614306 -0.41746637 -0.090160266 0.04144696 0.11047154
0.18044277 -0.5499175 -0.36870524 -0.05910691 -0.24217315 0.09388255 -0.21504337 -0.45208567
-0.36674187 -0.1366774 -0.013059352 -0.37252715 -0.21151423 0.116351694 0.14323388 0.065483086
0.62715477 -0.30714288 0.17773508 0.0132860355 -0.27282643 -0.15751529 -0.24487899 0.059891343
-0.20194802 -0.19957584 0.2047328 0.07578029 -0.34236774 -0.6089897 0.12864359 -0.057396747
0.009903856 0.13967709 -0.33261263 0.1389457 -0.1123742 0.07413462 -0.044676106 0.04120091
-0.22067727 -0.7248085 -0.3422931 0.36544606 -0.07131996 -0.6143142 -0.0010283608 0.035611015
-0.14701656 -0.17772317 0.21143112 -0.023248665 0.11878306 -0.031887088 -0.18788812 -0.37042132
0.05682671 -0.5292827 0.108276516 -0.17662024 0.09957278 0.15804707 -0.0024910627 0.042095963
-0.3266451 -0.08185887 0.03849168 -0.08653693 -0.015861178 -0.21200182 -0.34986553 -0.2055317
-0.2987159 -0.14066902 0.33318976 0.43592086 0.09105016 -0.013744546 -0.14004621 0.07891988
0.30828005 0.13223644 0.08553166 -0.40758052 -0.084755704 0.18573469 -0.080806784 -0.27362904
-0.11965735 -0.23314202 0.13771117 0.43429893 -0.10040417 0.05799803 -0.23187332 0.034503087
-0.15677384 -0.8253691 0.03231701 0.040338162 -0.26092115 0.19436884 -0.18112558 0.04520186
-0.2068084 0.25119436 -0.47997952 -0.22353598 -0.12237799 0.12693198 0.055006444 -0.03495437
-0.29771376 -0.7041562 0.18831028 0.1093684 0.20127268 -0.09123965 0.13535182 0.075106226
0.11066979 -0.03861555 -0.03792118 -0.0066955513 0.06226113 -0.115372054 -0.07402182 0.07100461

weight f4 [256, 256]
00000000: 2615 6cbd 55c0 ad3d 1f51 963c fc6c 443d
00000010: a3f0 553e ba20 42bd 5de0 fe3c 35c7 343c
00000020: 423d 96bd d668 3b3d ceaa adbc e46c 053e
00000030: 8ba3 843d 3d69 6abc 89f8 6f3d 5865 5f3e
00000040: 0537 04bd eeaf fb3d 0d9a 723d ce4e 023e
00000050: 9b12 6fbd 0c2b 983d 43c7 163c 12ce 633d
00000060: 4dc7 163e dc7b 433e a98b 7bbb 72c3 473e
00000070: 67c6 a73c 3b67 3ebd cbf8 003d 9961 6dbd
00000080: 7188 0f3d 7d91 a83d ba9d 4f3d 24d5 c4bd
00000090: 7c6b 843c 7795 1ebd fd57 bf3d d9a5 d53d
000000a0: c8b2 c43d ead1 123d 92f7 5e3e 8ac4 533e
000000b0: 25e5 be3d 53ec 303d 0b4d f23d 00b6 153e
000000c0: 365a fb3d 27f4 fd3c 5e2e 03ba 2293 6d3d
000000d0: 6518 e83d 1f98 723e 97bc ee3b d661 bebc
000000e0: 0002 cbbd 391c d33c 13ca 6a3d 084f 093d
000000f0: a7ed b6bc 8ec1 693c 981b cbbd 1ddd fc3b
00000100: c8c1 343e 737d a6bd 08da da3d 9f1a 82bd
00000110: e540 06bd b57e dbbd bcba 373d 391a 5d3c
00000120: 310f ed3d 81af dcbd 9126 33bc f6e7 753e
00000130: 3150 25bb 3023 333e ac04 3c3e 6443 25bd
00000140: aaf2 353c 3e26 9ebd 9207 9abd 93f2 543c
00000150: e5d7 f93d 926f a63d 9a48 c93d 02b0 aabd
00000160: 8d22 6ebd d289 ea3c 85a2 053d 64cf 0f3d
00000170: a44e 63bd ed71 43be 698a 20be f732 9a3d
00000180: f564 3d3d d7f6 753d 0b66 9c3e 96a1 3fbd
00000190: 7458 b33c 74b6 fa3d 1065 303c 716b 123e
000001a0: 1e6c d93c 13c5 033e e5b9 923d 5306 4e3d
000001b0: 9bfc ab3d 2ee0 0fbc 27ac 7b3d 2429 17bd
000001c0: dd91 6d3e bfbf d93c eb4f 093e 5114 013c
000001d0: dceb 6b3d 6287 af3b 9359 94bd 3dd0 c43c
000001e0: cff0 523d 636e 0d3e cbaf 3e3e d965 f23d
000001f0: bb5a 5e3e 7763 e23c aa92 6cbd a7bb 7abd
00000200: ff47 953d f115 b13e d61e 063e 244f 8c3d
00000210: b2c4 d4bd 0f4c c93d 9bd9 25bc 4b4d 903d
00000220: 2e2a 2b3e 35ec 9d3d 5561 99bd 78e2 a13d
00000230: 56db 853d 5d29 b13d 501f 2f3d 8800 913e
00000240: a079 afbd 3ccf 443d 3a86 69bd 15b6 b13d
00000250: 949a d53d 9420 d83d 5ee9 733d 3732 0d3e
00000260: 964c 70bd ac8f 73bd d3f8 46bd 4144 1c3e
00000270: cbbf ce3d 8029 213e 9c26 b6bd 7cb0 593e
00000280: 7ba7 b33d 4022 07be 0232 0f3e 992c ae3d
00000290: 07ae 5e3c 9bf8 b43b cf12 073e 0f7c 0e3d
000002a0: 2ccc d13c f0eb 6c3e 36ec 193e d21b 24bd
000002b0: 747b b13d 7772 1a3e 3485 b63c 776b fc3d
000002c0: 0dc1 403e 95c7 03bb 8afd afbc f0fa 1e3e
000002d0: dae7 503d ed85 323e 3b51 473d ecea 60be
000002e0: 48bf 85bd 3043 a13e 5b78 df3a a048 183b
000002f0: 574c d23d 8165 08bd 8864 a33d 356d ed3b
00000300: 8eb7 183e 21d1 17be d64b 593d 0888 613e
00000310: f312 33be ee27 733e 2b15 d93b 1475 5cbc
00000320: d035 95bd 8bc0 373d 77fd f3bc f2eb 92bd
00000330: 71f8 a23d 59ba d93d 24d1 243e a0a7 063d
00000340: 7d1e b1bd 7091 3ebd f252 d83d f233 da3d
00000350: 0091 913d 5b86 353e e07c 953b 21fd 543c
00000360: caef c03d 2775 063d 27f4 9b3d 7b2c 023d
00000370: 7b4b 833d f138 cfbd 5ebd fcbd b230 f53c
00000380: eead 613e 8cf9 f83d bb84 d33d 17a5 f13d
00000390: 3e44 9fba fa09 ac3d ada2 8b3d da55 e6bb
000003a0: c85e 2c3d ea0b 46bd b293 4d3e cd24 d23c
000003b0: 95dc 1a3d 08ea c83d b517 e13d ad70 c43d
000003c0: 6d8b c73c 63f7 5f3e ffc4 ce3c 49c5 d03d
000003d0: e06d a0bd 6c64 103e 08f1 74bd fd15 a53d
000003e0: 1de2 6dbd c4c4 a93d 1cf6 e03c 1e39 fa3d
000003f0: 4316 193e 01aa af3b dc97 0f3e b79f e63d
-0.057637356 0.0848395 0.018349228 0.047955498 0.20892577 -0.04739449 0.031112844 0.011033823
-0.07335903 0.045754276 -0.02119961 0.1302982 0.06476506 -0.014307317 0.05858663 0.21816003
-0.032279033 0.12289415 0.059228946 0.12725374 -0.058367353 0.074300855 0.009202781 0.055616446
0.14724465 0.19090217 -0.0038382804 0.1950815 0.020480348 -0.046485167 0.031487267 -0.057954405
0.03504223 0.08230875 0.05068753 -0.09610966 0.016164534 -0.03871676 0.09342954 0.104320236
0.09604412 0.03584472 0.21774128 0.20680442 0.093210496 0.043194126 0.11831101 0.14620209
0.12273066 0.03100021 -0.00050041627 0.058001645 0.11332778 0.23690842 0.0072856653 -0.023240011
-0.09912491 0.025770294 0.05732162 0.033522636 -0.022330118 0.014267338 -0.099173725 0.0077167884
0.17652047 -0.08129396 0.106861174 -0.06352734 -0.032776732 -0.10717527 0.04485582 0.0134950215
0.11575163 -0.10775662 -0.010934488 0.24014267 -0.00252248 0.17493892 0.18361157 -0.04034747
0.011105219 -0.07722138 -0.07520975 0.012997287 0.12199382 0.08126749 0.09828301 -0.08334352
-0.05813842 0.028630171 0.032625694 0.035109892 -0.05549492 -0.19086428 -0.156778 0.07529252
0.04623886 0.060049858 0.30546603 -0.04678496 0.021892764 0.122418314 0.010766283 0.14298798
0.026540812 0.12868147 0.07164363 0.050299 0.0839779 -0.008781476 0.061443474 -0.03690447
0.23200174 0.02658069 0.13409393 0.007878379 0.05759798 0.005356715 -0.072436474 0.024025077
0.051499184 0.1381164 0.18621747 0.11835832 0.21714298 0.02763532 -0.057757057 -0.061214115
0.07289123 0.34587052 0.130977 0.068510324 -0.10389079 0.0982896 -0.010122682 0.070459925
0.16715309 0.077110685 -0.07489268 0.079045236 0.06535976 0.086504675 0.04275447 0.28320718
-0.0856812 0.048049197 -0.057012774 0.086773075 0.10429874 0.10553089 0.05954873 0.13788687
-0.058666788 -0.059463188 -0.04857714 0.15260412 0.10095175 0.15738487 -0.08894083 0.2125873
0.08772179 -0.13196659 0.1398392 0.085046 0.013591296 0.0055228 0.13190769 0.03478628
0.025610052 0.23136878 0.15031514 -0.040065594 0.08666125 0.15082727 0.022280313 0.12325185
0.18823643 -0.0020107974 -0.021483202 0.15525413 0.05100236 0.17433901 0.04866145 -0.21964616
-0.06530625 0.31496572 0.0017049419 0.0023236647 0.10268467 -0.033299927 0.07978159 0.0072456845
0.1491377 -0.1482587 0.05305084 0.22024548 -0.17487697 0.237457 0.006624838 -0.013455648
-0.072856545 0.044861358 -0.029783947 -0.07173909 0.07957543 0.10631246 0.16095406 0.032874703
-0.08648393 -0.04652542 0.105626956 0.10654439 0.07107735 0.17727034 0.0045620054 0.012999804
0.09420736 0.03282657 0.07614928 0.0317807 0.06410881 -0.101182826 -0.123408064 0.029930446
0.22039005 0.12156972 0.10328051 0.117990665 -0.0012151075 0.084003404 0.06818137 -0.0070292773
0.042082578 -0.048351206 0.20075873 0.025652314 0.03780802 0.09810263 0.1099085 0.09591804
0.024358476 0.21871714 0.02524042 0.10193879 -0.07833457 0.14100808 -0.059800178 0.080608346
-0.058076967 0.08289483 0.027461104 0.122179255 0.14949898 0.005360842 0.14022774 0.11260932

bias f4 [256]
00000000: c3dd 0bbf c1b9 6ebd 59b9 2abf 5e54 dbbe
00000010: f98e 6b3e bde2 58bf 1c61 90bd c061 83be
00000020: 7123 8a3d 71c1 063e afaa 15be 78a3 833d
00000030: 7277 fabe 92eb 78bd 3b74 abbd 281f 07bc
00000040: 69b4 333e 9c6d 903c 8bdf 3dbe f25d eebe
00000050: 3abe 0ebf 400e 093f 9eb7 46be ac5f 24bf
00000060: a1f0 acbe c89f d2be 79a0 2b3b 3715 0d3e
00000070: efca 3f3e 22ec 0bbe 104f 26bf cfee c0be
00000080: dbd2 c6be c5b4 f0bd 7674 71be 16aa dabd
00000090: 087c 2fbe 8140 fbbc 571f c1be 59be 8fbe
000000a0: c086 fcbc a812 6dbe 1fc2 ddbd 4cf2 b8be
000000b0: 3e06 863d 6e5e adbe 16ac 163e 1623 9ebe
000000c0: 958c 36be 2a25 67bf 1848 60be bc3f 3abf
000000d0: d604 a73e 3b28 333d 5709 1ebf 9c9b 8ebe
000000e0: 1c1e 1cbf 13de 50bd 4cc4 4b3d 7bf6 6b3d
000000f0: e3af a6bd c055 9fbe 4fc7 3b3d d573 b3bc
00000100: eebf cebe d020 bbbc 3669 953e 8e9f 9ebe
00000110: f27d 9ebe a581 99be 0dab 103e 9a14 b8be
00000120: 58e4 aabd b860 d53d e98e 03bf b226 133c
00000130: 235d 2cbf e9ab 7dbf f9d2 92be 96b7 3cbd
00000140: 99f6 603d 1f1b 993d ce5c d8bd a8e2 a6be
00000150: 7e68 c5be acca c9bd 9c0c c0be 2933 a03e
00000160: 6fd7 09bf 9c75 21be eaeb 583e 03a8 bbbd
00000170: ded4 1cbe 61fc c3be 1323 dcbd 8835 a6be
00000180: 61fc cf3b 6d14 d0be 05b7 2a3e 09ee efbe
00000190: 0f72 61bf ba03 eabe 3551 88bf c88c 6cbe
000001a0: abb9 9f3e 5a4c 8fbe f38f aebd eed8 26be
000001b0: 7f30 5dbe 061d 16be e247 623e c86e eb3e
000001c0: d00c 19be 35bc 56be df64 63be 8317 88be
000001d0: 1c2b 84be c3c0 07bd 274a e5bd 3a47 113f
000001e0: 4160 8cbe 67be a53d c824 e7be 1d03 873e
000001f0: b9f9 873d 55f2 483d fee9 0bbd 6908 cdbe
00000200: 1b50 ccbd ab84 613f 66c3 e0bd c9a0 29bb
00000210: ecbc 5fbe 66cd 3cbd 80bb 93be 93c2 90be
00000220: 518b 99be 8d2a c3be e762 4dbe ae9d 833e
00000230: 4792 cf3d d0d0 02bf a9c0 35bf a6e3 cf3d
00000240: 0876 1bbf 7f1e f1be 5648 13bf 6054 7dbe
00000250: 163e d2be 7872 633e 737a afbe 7f92 9fbe
00000260: 2c96 67bc 2f84 c5be 38a2 69be 6586 3dbc
00000270: e13e 35bf 3fc5 49bd acf0 4fbd bbcc 9cbe
00000280: be36 78bd 64af 61bf f27d 933d 4a9a 7dbe
00000290: 6233 823d a3ff 16bf 75b8 23bf e374 313c
000002a0: bec1 9abf f34b 843b 01ed 0fbf 07b5 143f
000002b0: cdc8 54bf e11b 993c b1e7 17be e3b7 e63d
000002c0: c851 5d3f 173f 97be f34e 813e 488b ad3c
000002d0: 0387 c23e 2dd6 153d 71f2 553e 6967 03bf
000002e0: 15b1 92be 15d7 38be 2199 8abd 7021 c2be
000002f0: 5002 92be 8278 323e ad19 1d3f c35c 09bf
00000300: 66ff 28bf b382 863e 4d32 8ebe 5cb0 713e
00000310: 7048 f13d a87d 2bbf 524f 8dbe d15c cebe
00000320: 06ce aebe 51e4 03bf 63f8 18bf e925 54bf
00000330: e5e0 a1bd 9ee3 fcbe 9fef 063e b1a1 bdbe
00000340: 35df e6be 46eb 393d 6e10 9abd de60 4e3d
00000350: 3e23 403b 7875 b0be 3ecd 87bf ee76 063f
00000360: c8cf 83be f517 18bf 7a3d 18be faf2 54bf
00000370: 916d 65be 0881 c6bd c6bf 8ebd a87f 38be
00000380: 4d4c 5ebd ba3f d6be 0d71 983d 176e 5ebe
00000390: 4565 adbf 9d6f 823d 9372 84bc 15f4 2ebf
000003a0: c8cd 4a3e a2d4 42be f6b7 94bf 0b7f 753e
000003b0: 60bd 3fbd 0b74 173f 132f 7ebe e82b ea3d
000003c0: b0b1 7ebc 4bad 4c3e 141e f7be 2f05 e7be
000003d0: 8860 be3e 3f58 1cbf facc 70be 4c34 163f
000003e0: b77c 02bf 40cd 823e 0551 d0be 56fb 3abf
000003f0: c4c5 b1be c1d7 cfbe bb27 2fbe 9941 eebe
-0.54635257 -0.058282617 -0.6668907 -0.42837805 0.23003758 -0.84720975 -0.07049772 -0.25660515
0.06745041 0.1315973 -0.14615892 0.064276636 -0.48919255 -0.060771532 -0.083717786 -0.008247174
0.1754929 0.01763039 -0.18542306 -0.4655605 -0.5575901 0.5353737 -0.19405982 -0.64208484
-0.33777335 -0.41137528 0.0026188178 0.13777624 0.18729757 -0.13664296 -0.6496439 -0.37682196
-0.38832745 -0.11753229 -0.23579583 -0.106769726 -0.17137158 -0.030670406 -0.37719223 -0.2807491
-0.030825973 -0.23151648 -0.10828041 -0.36122358 0.06544159 -0.33861107 0.14714083 -0.30886143
-0.17827065 -0.9029108 -0.21902502 -0.727535 0.32620877 0.04373954 -0.61733 -0.27853096
-0.60983443 -0.050993036 0.04974775 0.05760811 -0.081390165 -0.3112011 0.045844372 -0.021905819
-0.40380806 -0.022842795 0.29181832 -0.30981106 -0.30955464 -0.29981723 0.1412775 -0.35953218
-0.08344334 0.10418838 -0.5138994 0.008981394 -0.67329615 -0.9909044 -0.28676584 -0.04607352
0.054922674 0.07475876 -0.10564576 -0.325948 -0.38556284 -0.0985311 -0.3750962 0.31289032
-0.5384435 -0.1576752 0.21183744 -0.09162905 -0.15315577 -0.38278487 -0.107488774 -0.32462716
0.0063472246 -0.40640584 0.16671379 -0.46861294 -0.88064665 -0.45705968 -1.0649782 -0.23100579
0.3119634 -0.2798794 -0.0852355 -0.1629369 -0.21600531 -0.14659509 0.22097734 0.45982957
-0.14946294 -0.20970233 -0.22206448 -0.26580438 -0.2581414 -0.033142816 -0.11195784 0.5674931
-0.27417186 0.08092957 -0.4514525 0.26369563 0.06639428 0.04905923 -0.0341587 -0.4004548
-0.099762164 0.8809306 -0.10974769 -0.002588319 -0.21849412 -0.04609432 -0.2885399 -0.28273448
-0.29989102 -0.381184 -0.2005726 0.25706238 0.10135322 -0.5109987 -0.709971 0.10150842
-0.60726976 -0.4709358 -0.5753225 -0.24739218 -0.41062993 0.22211635 -0.3427311 -0.31166455
-0.014134925 -0.3857741 -0.22815788 -0.011567687 -0.7079907 -0.049260374 -0.050766632 -0.30624947
-0.06059908 -0.8815825 0.072017565 -0.24765888 0.06357457 -0.5898382 -0.63953334 0.010831091
-1.2090375 0.004037374 -0.56221014 0.58088726 -0.831189 0.018690052 -0.14834477 0.11265542
0.86452913 -0.2954032 0.25255546 0.021184579 0.3799363 0.036581207 0.20893265 -0.51329666
-0.28650728 -0.18050797 -0.06767488 -0.37916136 -0.2851739 0.17428783 0.61367303 -0.5365717
-0.6601471 0.2627159 -0.2777275 0.23602432 0.117813945 -0.6698861 -0.2759958 -0.40305188
-0.34141558 -0.5152026 -0.5975401 -0.82870346 -0.07904223 -0.49392408 0.13177346 -0.37037423
-0.45092168 0.04539039 -0.07522665 0.05038535 0.002931788 -0.34464622 -1.060951 0.5252522
-0.25744462 -0.59411556 -0.14867201 -0.8318325 -0.22405078 -0.096925795 -0.06970172 -0.18017447
-0.054271985 -0.41845495 0.07443438 -0.21721683 -1.354653 0.06368945 -0.016167914 -0.6834119
0.19805062 -0.19026425 -1.161864 0.23974244 -0.04681146 0.5916144 -0.24822645 0.11434156
-0.015545294 0.19987981 -0.48265135 -0.45121142 0.37183022 -0.6107215 -0.23515692 0.5867355
-0.5097155 0.25547218 -0.40686813 -0.7303976 -0.34721196 -0.40594295 -0.17105 -0.46534422

weight f4 [60, 256]
00000000: 0493 1a3c 1f58 89b9 a4ee 12bd ee77 8cbb
00000010: 2157 373b ae68 3fbe 60bc 14bd 7afe 9e3b
00000020: 9388 ad3b 7b67 c53a ca39 c1bc 68b3 11bb
00000030: 9c55 0cba 475c 10b9 404b 823c 7b1f 05ba
00000040: 58d6 28bc 9149 0bbb ed2a 043a 2e78 7a3b
00000050: 3a3b a9bd 9a5b eabb 2cef 273c 22af 113d
00000060: f3f2 593b 3a01 4b3a c2d2 84bb 3641 d0bb
00000070: ad13 24bc f321 cb3c b51c b6bc 9e97 253c
00000080: 210e 323c d42d f7ba 9e2d dc3c 6963 9eba
00000090: 24a2 313b 618c 5d3b 2bc2 72bc 913f 56b9
000000a0: 4e52 39bc 4918 45bb f1d4 b8bb 45d8 76bb
000000b0: 1974 2aba 49db 3bbc 69af 23bc 342a 86bb
000000c0: 3200 2abb cd58 d1bc 0858 2c3c b84b 7b3c
000000d0: 5bf2 71bc 684c 1abc 66a6 a9bc cbd0 5a3a
000000e0: 5ac3 87bb f6d9 2d3b be27 683b 099d dc39
000000f0: a977 973b 3b7e baba 7e0a 07bd 5a2c a13b
00000100: 8eea 8d3c 15ae 4bbb 992f 31bb f08a 26bc
00000110: 73d0 153b 4b30 eebb f3f3 8dbc 1d10 4e3c
00000120: 0726 aabc e672 b93b 7c3d 303c 1877 c03b
00000130: 037b fcbc 069a 25bd cb5b c33a 3022 753c
00000140: 6a92 28bd 6a0f 043b 4b25 7ebb edd6 3fbd
00000150: 48c7 60bb 4e6b ddbc d6d9 abbc ea53 e73b
00000160: 0b3b f3bd 2232 88bb 0e23 653c 31b0 1e3c
00000170: 2b62 d13b 29ae adbc 2580 1dbc 9559 05bb
00000180: b850 173b 9f07 c33c aa1c a4bb d75f 4d3a
00000190: 5616 063d 51a8 f2bb 6269 eebd 503b 533c
000001a0: 3ed1 a1ba 61bc 98bb b983 e4bc d335 43b9
000001b0: 1470 483c f7c0 b73b 50ed c7ba d969 d43c
000001c0: 0e43 8aba 9866 f93c 2560 383c 20c0 13bb
000001d0: 00f9 d9bb af71 d93c f35e 0ebe f18c 25bb
000001e0: 0b66 bc3c 9d45 953c b72f 9e3b af6b c53c
000001f0: 6f91 653b 9dae 1d3b c883 9a3b 705c 02bc
00000200: 1f06 193c b2fa 883d 20d1 413b 4431 bb39
00000210: 7e81 183b 6ea8 ff3a 91b1 8ebc bc74 4e3c
00000220: 1583 063d d9b5 75bb 8d19 543c 435b 3b3c
00000230: 775e 83bb ff5e cd3c 5d69 00be 3899 34bc
00000240: 72cb 0bbd 5f2a 8e3b 6f87 03be 0139 da3c
00000250: b7e1 ae3b 3544 693b a478 0c3c 85e4 96bc
00000260: 2086 d0bc 28dc c1bb d2a0 8cbb 80b1 d3ba
00000270: 5a86 5cbd a52d cb3b 7925 39bd ff3d acb8
00000280: c09c 92bb 12cf 33be 2a08 b93b 2ed4 99bc
00000290: f55d 943c a6d0 4a3d 27c8 1bbd add6 c8b8
000002a0: 13cb 3bbe 0cf1 99bc ceef 053d 186e b4bc
000002b0: 2153 763b 6850 8d3c 5510 083d 384b 52bb
000002c0: 99d0 6a3d c3f9 9f3c db71 013c b3cc 7e3b
000002d0: 649d ee3b 907c d03a ae65 3639 63b7 8dbc
000002e0: 2417 82bb c06a 84bc 2205 6c3c 2344 13bc
000002f0: 5382 fcbb b303 e63a 72f0 c839 df44 99bc
00000300: 1039 41bc 3b6e 953c a9a1 76bb 7742 093b
00000310: c967 5db9 3eee 9ebd 7ab7 e33b 3b13 8cbb
00000320: f1a7 9abc fcd3 1cbb ba5c 153c e941 febd
00000330: 8045 443c 3f87 55bc 55c2 e5bb b1f3 033c
00000340: 4101 b33b a53b 253b ca3c 65bc e940 acba
00000350: 0fa1 2b3a c59e a53a 5ed9 2ebe a8dc 393c
00000360: de70 86bb 63a1 51bc 40f9 033c 71ac 833b
00000370: 4e8f b33c bba2 55bb 3c17 04bb 5b0b 8dbb
00000380: 556f 30bb 31ba a9bc 08b6 eb3b 1e41 7e3b
00000390: f218 8cbe ad34 ba3b 5b2e 0bbc 3d78 4b3c
000003a0: 4d5f de3a 2022 593c 576b a6be 2c04 d43c
000003b0: 3a56 d1bb 87cd 523d 04ec cd3b d051 663c
000003c0: 40a5 92bc e27a 88bb 7f6e 1d3b ff13 d03a
000003d0: 18fa a1bc 1b22 b0bc 7a7a 9ebc d83a d6bb
000003e0: 6e87 e6bc 5d6d 4e3c 5d30 c5bb 9305 4ebd
000003f0: f7bd 9b3a f5a3 793c 24d1 d53b 0088 9c3c
0.009434465 -0.00026196332 -0.035872117 -0.0042867577 0.0027975517 -0.18692276 -0.03631246 0.0048521133
0.005295822 0.0015060747 -0.023587126 -0.0022232179 -0.0005353333 -0.00013767286 0.015905023 -0.00050782383
-0.01030501 -0.0021253566 0.0005041797 0.0038218605 -0.0826325 -0.007152033 0.010249894 0.03556741
0.0033256381 0.0007744018 -0.0040534446 -0.00635543 -0.010014457 0.024796462 -0.022230485 0.010106949
0.010867626 -0.0018858262 0.02687722 -0.001208407 0.00271047 0.0033805596 -0.014816801 -0.0002043231
-0.011311127 -0.003007429 -0.005640619 -0.0037665528 -0.0006502285 -0.011465856 -0.0099905515 -0.0040943865
-0.0025940058 -0.025555039 0.010519035 0.015337877 -0.014767255 -0.009417631 -0.020709228 0.00083471526
-0.004143161 0.002652762 0.0035424079 0.0004207867 0.004622419 -0.0014228293 -0.03296899 0.004918617
0.017323758 -0.0031079103 -0.0027036427 -0.010164961 0.002285984 -0.0072689406 -0.017328238 0.012577084
-0.020770086 0.005659449 0.0107568465 0.005873572 -0.030820375 -0.04043009 0.0014904676 0.014961764
-0.041155256 0.002015079 -0.0038779553 -0.04683583 -0.0034298468 -0.027028706 -0.020977896 0.007059564
-0.11876496 -0.004156367 0.0139854085 0.009685562 0.0063898764 -0.02120121 -0.009613072 -0.0020347585
0.0023088884 0.023807345 -0.0050083 0.00078344106 0.032736145 -0.007405319 -0.11641194 0.012892559
-0.0012345684 -0.0046611284 -0.027894842 -0.000186167 0.012233753 0.00560772 -0.001525322 0.025929378
-0.0010548548 0.030444428 0.011253391 -0.0022544935 -0.0066519976 0.026543466 -0.13903408 -0.002526101
0.022997877 0.01822167 0.0048274654 0.0240992 0.0035029312 0.0024060376 0.0047154166 -0.007956609
0.009339838 0.06688441 0.002957411 0.00035704125 0.0023270543 0.0019505152 -0.017418655 0.012601074
0.032839853 -0.0037492423 0.012945545 0.011435333 -0.004009064 0.025069712 -0.12540193 -0.011022858
-0.034129567 0.004338547 -0.12844633 0.02663851 0.005336966 0.0035593633 0.008573685 -0.018419513
-0.02545458 -0.0059161372 -0.004291632 -0.0016150922 -0.053839065 0.0062005096 -0.045201752 -8.213147e-05
-0.0044742525 -0.1755946 0.005646725 -0.018777933 0.018111208 0.04951539 -0.038032677 -9.57673e-05
-0.18339185 -0.018791698 0.0326994 -0.022025153 0.003758617 0.017250255 0.0332187 -0.003208829
0.05732784 0.019528275 0.00790068 0.0038879334 0.007281946 0.0015906263 0.00017394751 -0.01729936
-0.0039700437 -0.016164184 0.014405521 -0.008988413 -0.0077059655 0.001754871 0.00038326118 -0.018709598
-0.01179339 0.018241039 -0.0037632978 0.0020944157 -0.00021114865 -0.07760285 0.0069493623 -0.0042747534
-0.018878909 -0.0023930063 0.009116346 -0.12414915 0.011979461 -0.013032733 -0.0070116916 0.008053706
0.005462796 0.0025212553 -0.013991544 -0.0013141903 0.0006547132 0.0012635818 -0.17075107 0.011344112
-0.0041028103 -0.012794825 0.008055031 0.0040183594 0.021918919 -0.0032598216 -0.002015545 -0.004304332
-0.0026921828 -0.020718666 0.0071933307 0.0038796137 -0.27362782 0.005682549 -0.008494939 0.012418804
0.0016965658 0.013252765 -0.3250377 0.025880896 -0.006388453 0.051465537 0.006284239 0.014057592
-0.017901063 -0.0041650394 0.002402216 0.00158751 -0.019772574 -0.021500638 -0.01934551 -0.0065377764
-0.02814075 0.012599316 -0.0060177282 -0.050298285 0.0011882175 0.015236844 0.0065251756 0.019107819

bias f4 [60]
00000000: 81bb 893f 7eac 563f a850 583d fbc8 05bf
00000010: 091c 16bf 3821 843f 5d75 7fbe cf1e b03c
00000020: e734 da3c 93f1 03bb 96e5 2e3b 98db 4bb8
00000030: d445 103b 5be3 d3b9 f356 4f3a 1469 cd3a
00000040: 1ca0 253b 8f7b dc3a fffe 0ab9 23aa 6138
00000050: 6b01 acbb fc7a ffba b4b3 f33a 5a9a 4ebe
00000060: ba1c fcbe 4356 373b 66d0 c43e a9ed 27bb
00000070: b26d 26bc 0623 49bf 46b1 e139 070e a33a
00000080: 8039 0e3a 52d4 573a fae2 c33a 8efb f139
00000090: 2e97 84b8 a046 033a 47ee bf3a cfa7 ed3a
000000a0: b8fa e138 bc2a 4ebf fec0 16bc a2ec 90b8
000000b0: 5e9c a6ba 31da 91b8 bfe5 7cba 6864 25bf
000000c0: 011d 43bd b466 b63a 2f40 d93a 92e7 713b
000000d0: e705 2fbf 2aa2 65be 24bf 343f 6cb8 8d3f
000000e0: 5c82 623f a922 feba b4c7 a73a 0487 6fbd
1.0760347 0.8385695 0.052811295 -0.52259797 -0.5863653 1.0322638 -0.24947114 0.021499066
0.026636554 -0.0020133003 0.0026687137 -4.8603484e-05 0.0022014277 -0.0004041445 0.000790938 0.0015671575
0.0025272435 0.0016821491 -0.00013255699 5.3802632e-05 -0.0052491925 -0.0019491608 0.0018592984 -0.20176068
-0.49240667 0.0027975 0.38440245 -0.0025623834 -0.010157989 -0.78569067 0.00043047423 0.0012440094
0.0005425438 0.00082332373 0.0014944964 0.00046154525 -6.32241e-05 0.00050077774 0.0014643156 0.0018131676
0.00010775536 -0.8053396 -0.009201286 -6.9105314e-05 -0.0012711396 -6.95478e-05 -0.0009647272 -0.6460633
-0.047635082 0.0013916106 0.0016574914 0.0036911708 -0.6836838 -0.22425142 0.7060416 1.1071906
0.8848016 -0.0019388992 0.0012800605 -0.05847837
