data/example_dynamics_data/kitchen_MLP.pth (torch, 664463 bytes, 8 tensors)

weight f4 [256, 70]
00000000: 4a58 213c cb56 97bd 8341 01bd 5618 d8bd
00000010: 2733 f4bd 04be dc3d e0b5 23bd ee43 75bd
00000020: 72b0 523e 61b9 493d f11a 7b3d e8ee 53bd
00000030: b697 5f3d e187 293d 75f9 2e3d 4c9a 03be
00000040: 9923 d7bd c4d1 ce3d 117f 20bc d51a 2b3e
00000050: d7b7 12be 74fa 62bd 4f43 8e3d bebc b93d
00000060: 1119 6c3b aa88 a9bb bd09 d9bd 321b b63e
00000070: 783a 0f3e b4cb 3fbd e10c 14bd b132 bbbd
00000080: 458d e8bd 0e40 bb3d 57e4 f43c dc86 f43d
00000090: d819 bdbd 14f8 a1bd 7f4d 83bd f524 dcbd
000000a0: 7efc 3b3d 6ca6 20bc 22e8 ee3d 226d b93c
000000b0: 2dc3 213d eb85 4cbd 7abe dabd 5a8f 74bd
000000c0: 6678 a8bc 6c8c 933c fe3e ee3c 618d 9dbd
000000d0: eb89 aa3d aeb6 8cbc 2718 29bc 2580 c13d
000000e0: e6ce c2bc e624 da3d 5ffd c43d e44e c53d
000000f0: e137 01bd 42aa 123d d293 04bc 7cbc 91bc
00000100: eb68 353d 0a01 0b3d e04c 7dbc 5a84 fbbc
00000110: 38a2 ff3c 10ed 16bc 31e8 bdbd 3546 c13d
00000120: 852c 88bd b40d 33bd 6949 343e 20d9 6c3e
00000130: 497e 71be b233 a53e dad1 f93e 75e7 5b3e
00000140: 2343 6abd 039c 0c3e af71 a2bc 161b fbbc
00000150: 9da6 d2bd fb92 4b3c d60f 8b3c a7ab 633e
00000160: 7adc e03d 12aa 323f 9493 ac3b e077 81be
00000170: d9d8 f9ba 90c8 16be b442 89bd 0693 e33d
00000180: 0bd6 19bd e121 b7be 5352 80be 3743 543d
00000190: 253a 3abc 7e02 303d 19c7 88bd 16f4 eabd
000001a0: 8aa9 cb3d ec8f f2bc 5a4d 16bd aebd 76bc
000001b0: e515 e03c 171d 8abd e4d1 6a3d 3b32 00bd
000001c0: 7898 933c a736 803b 888c 32bd cd06 d7bd
000001d0: 07d2 9f3d acd4 afbd 909c 0ebd b169 9c3d
000001e0: 8847 913d 1b9b 833c 15c4 49bc 25ad 23bd
000001f0: aeb6 2139 0d2c c4bc 2873 5f3d 2b44 f53c
00000200: d3c8 2bbc 4ed7 07be f0e3 4c3c ad43 babb
00000210: db31 d03b 0f3b f3bb 38e7 e0bb e056 d63b
00000220: 063d 0c3b 3b97 24bc fae9 563b 6ff2 4fbc
00000230: b0e9 7cbd 6659 d7bd b81d 1ebc d047 8d3d
00000240: 6b88 573d 245b 8cbd 9d04 f63c 33a6 2abd
00000250: 1e57 adbd 9b08 8dbd 2336 4abd 28e3 4dbd
00000260: e704 983c 2633 8bbb eaa6 9c3d 64b5 ac3c
00000270: 4e1a 033e d826 7cbd cedd cabd c230 ca3d
00000280: 2f11 833d 2990 783e b3ec dbbd 19f1 15bc
00000290: 0d25 17be 89d0 1dbd e7dd d13c e16b d23d
000002a0: de83 4bbe 0b1c 35be 53b5 6abd 41cc 0bbd
000002b0: d67e 7e3d 7412 9fbd 938f 3f3d 4322 47bd
000002c0: 605d a23d 3b09 db3d a159 ba3d 489d 463d
000002d0: f8ac 2e3c 9bc7 7b3d 7cd7 cb3d f276 dabd
000002e0: cf0a ea3d 77da b43d 3c62 ba3d cf32 4a3d
000002f0: c844 90bd ea1c da3d 4dbc edbd 5a23 503c
00000300: 4284 b7bd 63ae 8fbd d068 013e e9fe 6e3c
00000310: bd30 bc3d a82a debc f766 8e3d 1114 96bd
00000320: 5ffe 753d 057d 123b f37d 093b dd4d 83bc
00000330: 2509 153d 7c43 6e3c 509c 7e3b dded 39bd
00000340: d30e 323c 979c 0eba f3af cabd ecd5 6a3c
00000350: a5d7 e6bd 83fd 05be 8d16 4bbe da2b 9fbc
00000360: 4a9a 1c3d 13fd 923d f33e 023f 3798 353e
00000370: b8fa 293e 2253 2dbe eaf4 f7bd e2ab e03d
00000380: fe6d 043e 9816 2c3e 5102 743d 6dfb 403d
00000390: 3026 143a 848e f43e 060d 013e c156 823c
000003a0: b073 423d 50b4 a6bd a20e 243e 69f4 88bd
000003b0: 5237 84bd e918 50bf 5e41 ad3d 2c3f 1bbe
000003c0: 2176 533d 8230 213d 8772 573d 7eef 1dbd
000003d0: 7d5f 1fbc fe1e 0c3d 0da4 29bd 42a6 dcbd
000003e0: 191b d23d 184f b43d 3928 b73d 8e0a b33c
000003f0: 624c 8bbb ac02 e5bd d104 aabc 289d 193d
0.00984771 -0.07389601 -0.031556617 -0.10551517 -0.11923819 0.1077843 -0.03996837 -0.059879236
0.20575121 0.049249057 0.06130499 -0.05174151 0.054588042 0.04138935 0.04271837 -0.12851828
-0.105048366 0.10098603 -0.00979592 0.16709454 -0.14327942 -0.055414632 0.06946432 0.09069203
0.0036025683 -0.0051737623 -0.105975606 0.35567623 0.13987148 -0.046825126 -0.036145095 -0.09140528
-0.1135507 0.09143077 0.029894037 0.11939785 -0.09233445 -0.07908645 -0.064112656 -0.107492365
0.045895092 -0.009805303 0.116653696 0.022635046 0.039492775 -0.0499324 -0.10680862 -0.059707023
-0.020565223 0.018011294 0.029082771 -0.076929815 0.08327087 -0.017176952 -0.0103207 0.0944827
-0.023780297 0.10651569 0.09618639 0.09634188 -0.03154743 0.0358069 -0.008091884 -0.017790072
0.04428951 0.033936538 -0.015460223 -0.030702759 0.031205282 -0.009211794 -0.092728026 0.09437219
-0.066491164 -0.04371424 0.17606129 0.23129702 -0.2358333 0.32266003 0.48792917 0.21475013
-0.057192933 0.13731389 -0.0198296 -0.030652564 -0.10285685 0.01242518 0.016975325 0.22233449
0.109795526 0.69790757 0.005266616 -0.2528677 -0.0019061818 -0.14724946 -0.06702176 0.11112027
-0.037557643 -0.35768035 -0.25062808 0.051821914 -0.011366402 0.042971127 -0.066786 -0.11472337
0.099444464 -0.029609643 -0.036694862 -0.015059872 0.02735419 -0.0674383 0.057329074 -0.031297904
0.018017039 0.003912765 -0.043591052 -0.10499344 0.078037314 -0.08585486 -0.03481728 0.076373465
0.07093722 0.016065171 -0.012314816 -0.039960045 0.0001542221 -0.023946786 0.05455318 0.029939732
-0.010484892 -0.13265726 0.012505516 -0.005684337 0.0063535995 -0.007422812 -0.006863501 0.006541118
0.0021398677 -0.010045822 0.003279327 -0.012692078 -0.0617463 -0.10515098 -0.00965064 0.06898463
0.052620333 -0.06853321 0.030031497 -0.041662406 -0.08463882 -0.06886407 -0.049368035 -0.05026546
0.018557025 -0.0042480407 0.07649024 0.021082588 0.12803003 -0.06156048 -0.09905587 0.09872581
0.06399762 0.24273743 -0.10738506 -0.00915172 -0.14760228 -0.038528953 0.025618507 0.102744825
-0.19874522 -0.17686479 -0.05730183 -0.03413034 0.06213268 -0.077671915 0.046767782 -0.04861666
0.07927966 0.1069512 0.090991266 0.04848984 0.010661356 0.061469655 0.0995321 -0.10667218
0.11427843 0.08830731 0.09100768 0.04936486 -0.07044369 0.10650046 -0.11608181 0.012703741
-0.08960773 -0.070156835 0.12637639 0.0145871425 0.091889836 -0.02711995 0.06953233 -0.07328046
0.06005704 0.002235235 0.0020979613 -0.016028339 0.036385674 0.014542457 0.0038850494 -0.04539286
0.010867792 -0.0005440204 -0.09896841 0.0143332295 -0.112716 -0.13084988 -0.19832821 -0.01943009
0.03823308 0.07177176 0.508773 0.17733847 0.16599548 -0.16926244 -0.121072605 0.10970284
0.12932584 0.16805494 0.05957252 0.04711478 0.00056514423 0.4776498 0.12602624 0.015910508
0.04747361 -0.08139861 0.16021207 -0.066872425 -0.06455864 -0.8128801 0.084597334 -0.15160817
0.05162633 0.0393529 0.052599456 -0.038558476 -0.009727356 0.034209244 -0.041416217 -0.10773899
0.10259075 0.088041484 0.08943219 0.021855619 -0.004251049 -0.1118215 -0.02075425 0.03750339

bias f4 [256]
00000000: d276 80bd aac7 44bd 1b63 8cbc 2200 83ba
00000010: 746b f43c 91c3 0e3c 23ab 8cbd 3a63 dcbd
00000020: 5017 c03d b36e 2cbd 19e3 83bd 1174 85bd
00000030: 419f c43d 3112 ffbc a272 a73c d2d3 97bc
00000040: 1cf7 6bbd f06d 453c 0a16 86bd 715f af3d
00000050: 0cb6 75bd 0c6c d63b ca9c bb3d 42ae 493d
00000060: 8b7d b53d 20fc 863d 1f76 6abc 72c4 70bd
00000070: 52c9 e1bc 5dec d5bc a8ca 10bd 866e afbd
00000080: 6aa3 8b3d eac5 9d3d 8c6a ebbd 6488 a53d
00000090: 147c b23d e09b 5fbd ea82 65bd e643 6cbb
000000a0: db2f e03c 874f f0bd 0274 1bbd c042 073e
000000b0: 7db3 e83d cd1e 543d 4611 3f3d 544e dbbd
000000c0: 1952 1e3d e83d afbd 81a2 1b3d 9159 2c3d
000000d0: 0fcd cebc 7076 3b3d b25a c6bd 139b 8f3d
000000e0: b809 d13c 2e29 b03d facd 87bc 95a6 c73d
000000f0: b617 7ebd a61b aebd ee60 f23d 8967 bcbc
00000100: 436d a53b 44fc 793d 94f3 97bc 4f80 863d
00000110: aac8 ec39 0c65 163d ed8c 573d a20b ee3d
00000120: 3cd9 55bb d92f 2c3e b465 603d 00fb 4a3d
00000130: 910c 783d feb7 c73a 1f1d da3d 72f6 943d
00000140: 999e 0d3d 54fc 353d 0343 7fbd da8f bd3d
00000150: b621 cebd 9b43 263d 64fa e4bc 1c74 febc
00000160: d330 423d 4fe2 d73d 1575 a5bd ffa1 ac3d
00000170: 0d79 f3bb 2b47 9c3d a21d e0bd 3387 d5bd
00000180: bd3a 573d a8a5 a6bd c513 773d ef2a debb
00000190: 56b1 1bbd 0521 8ebd 246c 96bd ecdf 2dbd
000001a0: 5a71 a0bd a8b3 ed3d cd31 17bd 59fa 98bd
000001b0: d942 4dbd 70cf adbd 0aa6 cebd aa38 e43d
000001c0: 0039 9d3d 493b de3c c474 c93d b805 cbbd
000001d0: 6fd9 8c3d 01cd 92bd 7ec0 14bd bfa9 abbb
000001e0: 197c 973c b178 85b9 ac8f b43b af7c 103e
000001f0: 3a44 e73d b4c7 c03a 8f72 ff3d 45f3 033d
00000200: 8e52 dbbd 54bc 54bd 8084 b6bd 0f7f f3bd
00000210: b93f d4bc 7935 323c 9bbf 103d 3d41 473d
00000220: 221f b63d 21df 7b3d d0d4 ae3d b3f3 86bc
00000230: 83d0 47bd 4e99 313c 19a3 813d 67b1 8f3d
00000240: 429c 3e3d 19e3 7d3c ef57 c13c 271a cb3b
00000250: 4b3f f03c 1a92 57bd 4dad db3d 2759 11bd
00000260: 4bb8 69bd dcd9 803d 6dc6 4e3d ddce 983d
00000270: 1900 8f3d d50c e4bc b967 923d 5797 9fbc
00000280: 9c7c 71bd 4e9f c93d e264 d73c 35e8 173c
00000290: 16ad 523d 7a6d b6bc f2f0 a23d 7b32 9abd
000002a0: c083 a23d 7f5c d13d 51b8 713d 8570 f3bc
000002b0: 4ac3 a03b f53a 293d 29b0 efbd 67ed 4cbd
000002c0: e823 73bd 1544 813d 8d37 493d 781b edbc
000002d0: 09fc 92bd bb29 2fbc b0f3 ca3c ec1e 19bb
000002e0: 3463 cfbd 47b9 9bbd dec7 393d 1cc6 363d
000002f0: e01d 88bd 1c03 adbd e38d 9fbc 90f2 dc3d
00000300: 0a0f 3f3b d40e e1bc 5675 1ebd 22d3 ce3d
00000310: 661f 53bc b355 d03d eca0 93bc f2f6 203e
00000320: a40d 24bc 87da 9c3c e42e a6bd 1221 d43d
00000330: a09f f9bd d05e 9ebd 8450 afbd bd4d 993c
00000340: 1afd 263b fefb d23d ea91 2c3d c99c 233d
00000350: f87a c13b 0a43 ea3c 6237 263d 441d a33d
00000360: ab1e 263e 918b 523d c7d3 5f3d 5340 173e
00000370: f054 debc 50df 8bbd aaf9 25bd bed4 f2bc
00000380: 174d 143e 42fb bb3d c84f 783d 4347 d43d
00000390: 85d5 b6bd e10f c93c 073f 00bc 67a4 de3d
000003a0: 23bb 6a3d 06b2 443d 960f b43d a355 a3bd
000003b0: f15b 1dbd dd63 25bc 75c9 faba dc69 cbbd
000003c0: 1fb2 383d d4e1 9ebd 9568 e8ba d766 a53c
000003d0: de5c 8cbd eef8 103e 1eda 9d3d 5e04 d13d
000003e0: 3de5 bd3d cce1 933d 63d1 463d 4fc2 02bd
000003f0: e1a3 c8bd 2b02 873d bb90 99bd 44d2 e33d
-0.06272663 -0.048041977 -0.0171371 -0.0009994546 0.029836394 0.008713619 -0.06868579 -0.107611135
0.093794465 -0.04209776 -0.064398 -0.065162785 0.09600688 -0.031136604 0.020440403 -0.018533621
-0.05760871 0.012050137 -0.06547172 0.08563126 -0.059988067 0.006543642 0.091607645 0.04923845
0.08861836 0.06591058 -0.014310389 -0.058781095 -0.027561817 -0.026113683 -0.035349518 -0.085660025
0.06818278 0.07703765 -0.114949316 0.08082655 0.08715072 -0.054592013 -0.056033053 -0.0036051213
0.02736657 -0.11733919 -0.03795243 0.13209057 0.1136236 0.051787186 0.046647333 -0.10708299
0.038652513 -0.085567296 0.037996773 0.042077605 -0.025244264 0.045767248 -0.096852675 0.07012
0.02551733 0.086016044 -0.01657771 0.0974857 -0.06203433 -0.08501367 0.11834894 -0.022998588
0.0050484254 0.061031595 -0.018548764 0.06567442 0.00045162934 0.03671746 0.05262463 0.116233125
-0.0032630702 0.16815127 0.05478449 0.04955578 0.06055886 0.0015237329 0.10650086 0.07273568
0.03457508 0.044430092 -0.062319767 0.09255953 -0.100650236 0.040591817 -0.027951427 -0.031061225
0.047409844 0.10541212 -0.08078972 0.08429336 -0.007430202 0.07630762 -0.10943152 -0.10426178
0.05254625 -0.08137065 0.060321588 -0.0067800204 -0.038010918 -0.06939892 -0.07344845 -0.042449877
-0.0783412 0.11606532 -0.036912728 -0.07469625 -0.05011258 -0.08486831 -0.10090263 0.1114362
0.076768875 0.027127879 0.098367244 -0.099132 0.0687741 -0.07168008 -0.036316387 -0.005238741
0.018491792 -0.0002545766 0.005510291 0.14110063 0.1129231 0.0014707954 0.12473022 0.03221442
-0.107091054 -0.051937416 -0.08911991 -0.11889469 -0.025909292 0.010877007 0.03533898 0.0486462
0.08892657 0.06149209 0.085366845 -0.016473627 -0.048782837 0.010839773 0.063299365 0.07016259
0.046535738 0.015496039 0.0236015 0.006198186 0.029327055 -0.052629568 0.10726414 -0.035485413
-0.05706052 0.062915534 0.050482202 0.07461331 0.069824405 -0.02783815 0.0714869 -0.019481344
-0.058956727 0.09844838 0.026293222 0.009271671 0.0514346 -0.022269 0.07956113 -0.0752916
0.079352856 0.1022272 0.05901367 -0.02971674 0.004906093 0.04131599 -0.11703522 -0.050031092
-0.059360415 0.06311814 0.049125243 -0.028943762 -0.07176978 -0.010691102 0.024774402 -0.0023364378
-0.10126343 -0.07603698 0.045356624 0.044622526 -0.06646323 -0.08447859 -0.019476837 0.107884526
0.002915325 -0.02747289 -0.03868612 0.10098864 -0.012885904 0.10172596 -0.01802107 0.15719202
-0.010013018 0.01914717 -0.081144124 0.1035787 -0.12188649 -0.07732928 -0.08560279 0.018713826
0.002548045 0.1030197 0.042131342 0.039944444 0.0059045516 0.02859642 0.04058016 0.07964566
0.16222636 0.051402632 0.054645326 0.14770631 -0.02714011 -0.06829703 -0.0405213 -0.029642459
0.14482532 0.09178783 0.06062296 0.103651546 -0.08927444 0.024543704 -0.007827527 0.10871201
0.057307374 0.04802134 0.08792035 -0.07975318 -0.03841776 -0.01009461 -0.0019133525 -0.099323004
0.045091745 -0.07757917 -0.0017731363 0.02019064 -0.068536505 0.14157459 0.07707618 0.10205911
0.09272239 0.07220802 0.04853953 -0.03192359 -0.097968824 0.065922104 -0.07498308 0.11124089

weight f4 [256, 256]
00000000: cec4 6fbc bea6 983d f5f8 633d 4fb3 49bd
00000010: 4cf0 06bd c1e7 a03c be1b c3bc 3f99 82bc
00000020: 9839 403d 452e 9e3b 77ff 17bd c730 3cbd
00000030: d56e 3c3d 3cb3 49bd 1d0e 333c 0ca8 9a3c
00000040: 76da 2cba 912d 8c3d c05c 32bd 7771 5f3d
00000050: 5ef9 1abc e812 3fbd 0ed3 0bbd a232 9b3c
00000060: d8aa 63bd ed5d f8bb 183d f43b f67e 8bbd
00000070: 05ad 24bd 6bee d53b 345f 3fbb b67a 463b
00000080: f70a 933b c714 c1bc 4786 623d 42c4 9e3c
00000090: f569 0e3d 8cd3 483d 96d0 013d 21c6 2d3d
000000a0: a588 1bbd 7d80 023c c0a5 f4ba f367 0bbd
000000b0: e6ef 7a3d f0fd 873d 4314 5b3d d53a 97bc
000000c0: cb29 10bd 847b b1bb ddea 9dbc f1fc 3b3c
000000d0: 12ed 1a3c ed23 123d 5e97 34bd 752d ff3c
000000e0: a7b5 22bd a3a4 873d 53dd 41bd 228a d93c
000000f0: 15ac 043d 0b8a 443c 7625 d3bc ab3a 2dbd
00000100: 2687 83bd 8756 0bbd 6b5c 20be f4cf d5bc
00000110: d759 c5bc 57d0 93bd af3d 3e3d 6b65 4cbd
00000120: 05ad febc 55bb 8e3d 5567 913d 6d91 15bb
00000130: f6f4 41bd ac70 a339 baee fa3c ad15 093d
00000140: 4646 4dba dcf5 193b 9a7e 343d 662b 8f3c
00000150: f47f 75bd 07dc 883b 43ea d7bb 40f3 49bc
00000160: e30d 953d 0cbf 753d 6912 003d c31c 873c
00000170: b5e0 323d 5172 dd3c 054e c7bc d3e8 9fbc
00000180: 4dbb e6bc fc62 013d 6c95 6b3d 11cf 8abd
00000190: 3451 9d3c 01ab d53c 872b 81bd b81e a93c
000001a0: 9bba 8fbb d9da 8e3c f4e9 173d e6f4 5abd
000001b0: 8d69 6bba 8e41 3dbd bf0f 8f3b 0647 863d
000001c0: 5c1e 353c 8350 9d3c 1def 5a3d 35a7 963d
000001d0: 4d3c 92bd 32cb b5bc 91f0 26bd 1bc2 0cbd
000001e0: 6a94 f6bc 4516 07bc f8cb 32bd d93f 5fbd
000001f0: c0cb cdbc 395d 8f3c 40dd ad3c f457 acbc
00000200: 0376 cc3d 478d 22bd f4c9 a8bc 0e10 603d
00000210: 9052 9c3b b3c7 aa3c 8e25 6a3c 37b7 703d
00000220: 425f 523d 9dc0 0fbc 7d48 aeba d691 2abd
00000230: 027d 01bd d334 593c ca5d 693b 166b 9dbc
00000240: 5f6b 023d 6002 5a3d 2c0f 7b3d 5e14 f53a
00000250: 3697 b13b d5d8 033d 4296 1d3c 65ad 1b3d
00000260: 20e0 41bd 1081 823c be28 7f3d 44dc 16bb
00000270: d956 1e3c 3874 e5bc 1026 6cbd 2db2 973d
00000280: 9489 3ebd 0b38 b73d 7778 17bd 7108 2ebd
00000290: dcd0 1e3c c77f d839 f268 6d3d 1b7c 7e3c
000002a0: e254 2e3d e40c a1bc d27f 823d a235 bdbc
000002b0: aa5f 583d 322e bb3b 1c98 aa3c 3c61 a8bd
000002c0: 33a9 86bc 03ca 33bd 7f88 9bbc 07a8 14bc
000002d0: 8115 033d c983 4cbd 6c1e a53c 82b4 e0bc
000002e0: 2b94 0fbd c682 81bb 140d 21bd 970a 99bd
000002f0: 7e12 a33c 0a46 28bd e416 f4bc c77f 213d
00000300: f95b 8b3d 2942 7b3c c974 96bb 7561 123d
00000310: 9174 ac3c 0c80 853d f4f4 7b3d 84be be3b
00000320: d0c6 adbc 73b8 89bc f520 44bd 8ea5 5cbc
00000330: aaa0 523c a92a aebd 0d4d d5bb bb8e 113d
00000340: 36b7 f63c 2476 553d 47a8 2d3d 7549 043d
00000350: 27ac 0dbd 00fa 1a3d 1f00 d43c 0d03 133d
00000360: 0481 60bd e17d 473d bd05 6bbc 236b ebbd
00000370: e3b3 03bc 5107 9d3c 0207 a93c 520c 1c3c
00000380: 4eec 8e3d afcc 23bd ab69 8a3c 5446 d8bc
00000390: 56a7 5c3d 56cf f73d c497 093c 6879 4c3b
000003a0: 04e7 6dbd 855c a33b 727f f93c b80c 573d
000003b0: e8ef bd3c cc13 35ba 3dcc 403d 7479 463d
000003c0: 6ee3 d2bc 1cf4 2dbb 14dc f33b d9b4 683d
000003d0: 34b9 b93c 5acf f43c 6964 213c 4551 0fbd
000003e0: a009 503c 692a 16bd 3443 2bbd 9f46 d13c
000003f0: 2a6c 693d 2f36 c13c 6364 cd3c 8e1b c2bc
-0.014634324 0.074536785 0.055657346 -0.049243268 -0.03294401 0.019641759 -0.02381694 -0.015942214
0.046929926 0.004827293 -0.037108865 -0.045944955 0.046004135 -0.049243197 0.010928658 0.01887896
-0.00065938325 0.068446286 -0.043545485 0.054551568 -0.009458868 -0.04664889 -0.034136824 0.018945042
-0.05558285 -0.007579556 0.007453572 -0.06811325 -0.040204067 0.006528666 -0.0029201033 0.0030285544
0.004487391 -0.023569478 0.055303838 0.019380692 0.034769017 0.04902987 0.031693064 0.04242528
-0.03797211 0.007965204 -0.001866512 -0.03403468 0.06126394 0.066402316 0.05348612 -0.01846067
-0.035196107 -0.0054163355 -0.01927703 0.01147388 0.009455936 0.035678793 -0.044089667 0.031149605
-0.03972402 0.06623199 -0.04733021 0.026555125 0.032390673 0.011995803 -0.025774699 -0.04229228
-0.06422262 -0.034018066 -0.15660255 -0.026100136 -0.02409069 -0.07217472 0.046445545 -0.049901407
-0.031088362 0.069693245 0.07099787 -0.0022822276 -0.047352754 0.0003117373 0.030631412 0.033467937
-0.0007830601 0.002349249 0.04406605 0.017476749 -0.05993648 0.00417662 -0.0065892055 -0.012326062
0.07278039 0.05999665 0.031267557 0.016493207 0.04367133 0.02703205 -0.024329195 -0.019520199
-0.028165484 0.03158854 0.057515547 -0.06777776 0.01920376 0.026082518 -0.0630713 0.02064453
-0.004386259 0.01743834 0.03708835 -0.05345621 -0.0008980267 -0.046205096 0.0043658908 0.065565154
0.0110546015 0.01920343 0.053450692 0.07356111 -0.07140408 -0.022191618 -0.040756766 -0.0343648
-0.030100066 -0.008245056 -0.04365155 -0.05450425 -0.02512157 0.017500507 0.021223664 -0.021038033
0.099834464 -0.039685514 -0.020604111 0.05470281 0.0047705844 0.020847177 0.01429118 0.058768477
0.051360376 -0.00877395 -0.001329675 -0.041642986 -0.031613357 0.013257223 0.003560888 -0.019216102
0.03184068 0.05322492 0.061293766 0.0018698086 0.005419637 0.03218921 0.009618344 0.03800716
-0.047332883 0.015930682 0.062294714 -0.0023019472 0.009664261 -0.028009519 -0.057653487 0.07407031
-0.046517923 0.08946236 -0.03698012 -0.04248852 0.009693351 0.00041293932 0.05796141 0.015532519
0.04256142 -0.019659467 0.06372036 -0.023096863 0.052825607 0.005712294 0.020824485 -0.08221671
-0.016438102 -0.043893825 -0.018985985 -0.009073264 0.03200293 -0.049930368 0.020156108 -0.027429823
-0.035053413 -0.003952357 -0.039319113 -0.07472723 0.019906279 -0.04108242 -0.029796071 0.0394285
0.06804652 0.015335598 -0.0045915586 0.035737474 0.021051677 0.06518564 0.061512902 0.005821051
-0.021212965 -0.016811585 -0.047882993 -0.013467206 0.012855688 -0.085042305 -0.0065094293 0.03553651
0.030116659 0.05211462 0.04239681 0.032296617 -0.034588005 0.037836075 0.025878964 0.03589158
-0.05481054 0.04870403 -0.01434463 -0.11495044 -0.008038494 0.019168528 0.020633224 0.009524422
0.06978665 -0.039990123 0.01689609 -0.026400723 0.05387052 0.12100093 0.008398 0.0031200293
-0.05808164 0.0049853944 0.030456278 0.052502364 0.023185685 -0.0006907552 0.047069777 0.04845567
-0.025743213 -0.0026543206 0.007442007 0.056813095 0.02267132 0.02988403 0.0098506 -0.034989614
0.012697607 -0.03666154 -0.041812137 0.02554637 0.05698792 0.023585407 0.025072282 -0.02369478

bias f4 [256]
00000000: 6fe7 6e3d 923e a7bb 65f2 1fbd 7c44 19bc
00000010: a8b9 bf3c d402 293d 0b0f eb3c 89d6 ae3c
00000020: 57e1 e5bb f802 f4bc aa77 cebc 277a 89bc
00000030: d306 843d 10f7 1e3d ae56 2fbd 573c 67bd
00000040: b350 0dbc 3355 113d 7632 39bd f49e e0bc
00000050: 2cf7 1ebd 7e00 dbbc ad34 d13c 15bc 07bd
00000060: 60b2 263d ad81 93bc a75a 1fbd 2627 a4bc
00000070: cfc9 cabc 344f f93c 6143 44bd f55e c4bc
00000080: b7c1 2bbc 4831 ee38 be09 b2bb fafe 87bd
00000090: aa9d 7bbb dd78 adbc cc27 913d faf8 0d3d
000000a0: 7cdf bfbb a2b4 0e3d fd0c 83bd dba2 0b3c
000000b0: b7cc 3ebd a47f 893d 83be 19bd b814 fe3c
000000c0: 2f1c 7f3d 7ba3 01bd fd9d 0bbb f4be 573d
000000d0: 57e3 4e3c 9452 413b 6e13 633d 74f4 cf3c
000000e0: b19e faba 803b 1cbd 97fe 8f3d 8f98 273d
000000f0: 26f9 e2bc 95af 9c3c 1d6f 8238 1e9c c9bc
00000100: c628 1f3c 1171 d2bc 07f6 303d 6547 783d
00000110: 98d3 ddbb d5d4 84bc e39e 153b 76cf 8cbd
00000120: 080d 2b3d 591f 0c3d c433 35bc 1c2c 063d
00000130: e976 9ebc c735 c73c 79bf d8bc 2119 be3c
00000140: ab6a 723d cb46 fcbb fc3b a9bc 48c6 0ebd
00000150: be4c babc e83c fabc b27f 263c 0ff7 3cbd
00000160: b1cd 56bc eec2 763d 1334 66bb cdee 8dbd
00000170: 90a5 733d 9bb3 133d 1e55 133c 7ab7 3b3d
00000180: 209c 2b3c 55a1 193d d635 c4bb 152e 86bb
00000190: 71b3 583d 45e2 00bc 373e 0f3d 1502 9c3c
000001a0: 90bf 003d e846 d0bc 2931 16bc 23ef 123d
000001b0: 71c1 50bb 6c45 23bd b18c d2bc 1c87 05bd
000001c0: 575d 94bc 5a25 563b 8f87 603d 2926 b2bc
000001d0: ef44 e93c ba30 d83c 2435 203c bffe 853a
000001e0: 446a 64bb eac1 50bd 0fd3 1b3d d41c 01bd
000001f0: 5715 57bd 9078 d7bb 52b6 63bc 2e95 123d
00000200: 9631 8c3b 69f8 3fbc c9c0 b83c 795b 3b3d
00000210: e3a3 00bd c544 0a3d 3d72 7b3c a844 fcbc
00000220: 6d9c 693d dc33 93bd a7d9 773d 65bb 54bd
00000230: e6b5 203b e1e6 2fbd 48bc 793b a561 51bd
00000240: 05c2 573d 6574 233b b6c8 37bd 0e15 21bd
00000250: 0ff9 503d 465d 6dbc c09a 65bd bb23 5dbd
00000260: 1f5f 1b3c a48f 8d3d 39e3 06bd 6133 9f38
00000270: a2a4 1fbd 2267 273c 3afe 9b3c 86b5 05bd
00000280: c621 a73c 8466 1b3a f21e b5bb fcb0 783d
00000290: 64f3 7f3d fb2a 8e3d 6493 e63c fa6e 78bd
000002a0: cde0 bcbb 025c 46bd 4d96 04bc 6ea2 753d
000002b0: 458e fabb 8d91 89bc 6505 9ebc bb2d b13c
000002c0: 9eef fbbc 0647 92bc d6e2 903c 29f5 89bc
000002d0: 2211 47bd 0084 c23c 50c2 8b3d ef0f a33c
000002e0: 7ec2 8e3a 66ea 22bd dfb2 21bc 398d 283c
000002f0: 5094 a4bc f45f 2bbc 47b0 2ebb 0403 573d
00000300: 02fd 213d cee6 00bd 2e03 803d c22f 223d
00000310: 01b6 e4bc b51e cd3b e65a 3dbd de59 c1bc
00000320: 0fb8 e63a 7b63 1fbc 755a b43c e872 b43c
00000330: 9cb9 27bd 2559 803d 8aeb a8bc 73af 853d
00000340: b2d5 203d 2764 733c 4ca1 793c 29fd 863b
00000350: 4a0e bfbc 55f4 ee3c 4f65 fb3a 9bcc 01bd
00000360: f2c2 fb3c a31a 0dbd 2888 433d f81e 8d3c
00000370: e448 663d c458 7bbd f9d0 89bc c3e6 aabc
00000380: 719b cabc 7347 95ba f7b1 49bb 8033 c73c
00000390: c124 2cbd 7079 54bc c81c d7bc 2604 8cbd
000003a0: 28c7 e13c 0500 8ebd 7f37 28bd 8ebd f93b
000003b0: fcc3 913c 14e0 163d 0335 4ebd cef9 2dbb
000003c0: fb1c 7a3d a898 3d3c 7888 75bc 0384 21bd
000003d0: 070c f6bc 4c0d 4bbd 2e23 063d 2d98 13bd
000003e0: 53f4 10bd 0316 24bb b8da 1b3c fdf5 26bd
000003f0: 50bc 963c 2963 4f3d 0f0f 0f3d 6b98 263d
0.05832618 -0.0051038945 -0.039049525 -0.009354707 0.023403957 0.041262463 0.028693696 0.021342533
-0.007015388 -0.029786572 -0.025203545 -0.01678188 0.06446614 0.038809836 -0.042807274 -0.05645403
-0.008625197 0.035481643 -0.04521414 -0.027419545 -0.03880994 -0.026733633 0.025537813 -0.033138353
0.040697455 -0.01800617 -0.038904812 -0.020038199 -0.024754433 0.030433275 -0.04791582 -0.02397106
-0.010483197 0.00011357904 -0.0054332903 -0.0664043 -0.0038393536 -0.021175796 0.07087669 0.03466127
-0.005855499 0.034840234 -0.06398962 0.0085227145 -0.04658195 0.06713799 -0.0375352 0.031015739
0.062282737 -0.031650048 -0.0021303885 0.05267234 0.012627444 0.0029498683 0.05543845 0.025385119
-0.001912078 -0.03814268 0.07030981 0.040916976 -0.027706694 0.019126693 6.2195795e-05 -0.024610575
0.009714311 -0.02568868 0.04320338 0.060614962 -0.0067696087 -0.016214767 0.00228303 -0.068755075
0.041760474 0.034209583 -0.011059705 0.03275691 -0.01934381 0.024317635 -0.026458489 0.023205342
0.059183758 -0.007698869 -0.020658486 -0.034857064 -0.022741672 -0.03054662 0.010162281 -0.04613405
-0.013110564 0.060244493 -0.0035126253 -0.06930313 0.059484065 0.036059957 0.0089924615 0.045829274
0.010474235 0.037507374 -0.005987863 -0.004094849 0.052905504 -0.007866447 0.034971442 0.019043962
0.03143269 -0.025424436 -0.009166994 0.03587259 -0.0031853581 -0.039861128 -0.025701853 -0.032599553
-0.018110914 0.0032676072 0.05481678 -0.021746712 0.028475253 0.026390422 0.009778295 0.0010223015
-0.0034853378 -0.05096618 0.038043078 -0.031521633 -0.052510586 -0.0065756515 -0.013898449 0.0357868
0.004278372 -0.01171694 0.022552865 0.045741532 -0.031406295 0.03375699 0.015347061 -0.030794457
0.057033945 -0.07187626 0.060510304 -0.051936526 0.0024522482 -0.042944793 0.003810661 -0.05111851
0.052675266 0.0024941203 -0.044869147 -0.03932672 0.05101877 -0.01448757 -0.056055784 -0.053989153
0.009483128 0.06912163 -0.03293154 7.591281e-05 -0.038975365 0.01021746 0.019042123 -0.032643817
0.020401847 0.0005928057 -0.0055273706 0.06071566 0.062487975 0.069417916 0.028146453 -0.06065271
-0.005764103 -0.04842759 -0.008092475 0.05996936 -0.0076463544 -0.016793037 -0.019289682 0.021628251
-0.030753907 -0.017856132 0.017686289 -0.016840534 -0.048600323 0.023744583 0.068241715 0.019905059
0.0010891703 -0.03977432 -0.009869306 0.010287576 -0.020090252 -0.010459889 -0.0026655362 0.05249311
0.039547928 -0.031470113 0.062506065 0.039596327 -0.027918817 0.006259764 -0.046229266 -0.023602422
0.0017602461 -0.009728308 0.02201579 0.022027448 -0.040948495 0.06267003 -0.020620126 0.06527605
0.039266296 0.014855421 0.01523621 0.0041195345 -0.023322243 0.029169241 0.0019179973 -0.031689268
0.030732606 -0.03444923 0.04773727 0.017226681 0.056221858 -0.06136395 -0.016823279 -0.020861989
-0.024732323 -0.0011389091 -0.0030776241 0.02431655 -0.04202724 -0.012968406 -0.026258841 -0.06836729
0.027560785 -0.069335975 -0.04106855 0.0076214736 0.017793648 0.03683479 -0.050343525 -0.00265466
0.061062794 0.011572041 -0.01498615 -0.039432537 -0.030035032 -0.049573228 0.032748394 -0.036033798
-0.035389256 -0.0025037534 0.009512596 -0.040761936 0.018400341 0.050631676 0.03492647 0.0406727

weight f4 [256, 256]
00000000: 9f5d 91bd c3bc eabc 9e2e 083e 1a03 8fbc
00000010: ebcf 8ebd 1379 e23c 70a3 09bc d940 5f3c
00000020: fb54 0b3b 6b63 0e3c 44ab c9bc 334c 04bc
00000030: e385 923c 440f 583d e46d babc 6641 91bd
00000040: b560 c23c cd45 e7bc d52a 1fbc d1df b9bb
00000050: a8db 1b3d b456 bcbc 9893 a83c 6cb0 30bd
00000060: 5606 5bbd 1ac3 ab3c e6ca 993c 0090 0a3d
00000070: 4b30 e6bc 83ad b83b b223 163d fa17 0cbc
00000080: 1089 67bd 313c dbbc b2e9 f9bc 86cf ee3c
00000090: b434 d63c 92cd 943b 5ec9 51bd f894 8cbd
000000a0: 91c2 9abc 7e51 483d f38f 7a39 e628 03bc
000000b0: 6128 4fbd 37a0 f1bc 90a7 703c af7c cbbc
000000c0: b376 333c 1c1b 81bd 7220 92bc 44ba 0a3c
000000d0: 4ebc 6f3d 4a67 81bc d96c 14bd d602 c6bc
000000e0: f314 803c 39a7 87bb ae65 bebc c5d3 dc3c
000000f0: 3e76 e33c f58d c8bc 7c6f e33c e8fe 9a3c
00000100: 7b02 dd3c fa11 d73c 1287 92bd 234e dd3c
00000110: 28f7 50bd d9c7 54bc 101b 6abc 47e7 2d3d
00000120: c36d 43bc 876f a9bc 8c2f b1bc e3ba 463c
00000130: abd1 8f3b 1fed 813d b988 08b8 8888 2d3b
00000140: 25c2 663d 8f3c f53c 6dd2 84bc 4bcf d73c
00000150: ba9a 5cbd 91c5 683d ce19 5339 2702 3d3d
00000160: edc8 c73c 1539 b7bc bdcc fd38 e35b 4bbc
00000170: 0817 5c3d b865 24bd be96 ff39 e5e8 1dbc
00000180: 3e16 85bc b3cf 0e3d 2674 133d 859d 3cbd
00000190: c3aa 8d3c 47fa 933d 6190 41bc e18c 35bd
000001a0: c3a9 47bd 2d92 86bd 0796 a73c 5071 273d
000001b0: aff7 82bd 8412 813c 2368 54bd 5994 763d
000001c0: e23f a2bd 4c7b 313c 183d be3c 27be 54bd
000001d0: d850 a9bb c8c6 1b3d 7834 4dbd 2b1d 78bd
000001e0: aa79 04bc ee6c 84bd c343 c23d 699f a0bd
000001f0: 2a33 4e3d 18a8 ee3c 4948 45bd 1a53 85bc
00000200: 6666 dfbc bf4f a0bc 91d9 543d 34f9 313d
00000210: 5a47 d53c e4e8 2dbd 8ff9 753c 7f2b 99bd
00000220: 2973 9cbd a1a4 1fbd 1ab4 0abc 34cb 81bd
00000230: f5f6 cf3c 31c2 a53c 6f63 80bd 6fcf 5f3d
00000240: 8d0e 08bd 742b 5cbd 3807 813d c7c6 8bbd
00000250: 156d 5fbd 4e6b 4fbd 11f0 85bd cc08 f0ba
00000260: 1110 e6bc 5508 aa3c f7ce 283d 0ed5 903c
00000270: db21 5b3d 8829 3fbd 2fcb dabc 56f6 54bd
00000280: 0ad1 00bc 939c a73b 1245 d83c 3f01 aa3c
00000290: 9f24 d5bb 0cd3 d93b 0e31 763b f210 c93c
000002a0: 48f0 ef3c 4e8a 6a3d b78c 173b 07d3 92bd
000002b0: 185e 16bc d931 433d 125c 01bd 5c75 33bc
000002c0: b082 0cbd 8741 5f3d 858b 30bd 734a 2c3d
000002d0: ceec f93c 6387 27bd 4be1 b83c c864 1fbc
000002e0: d653 ae3d e27b fe3c d981 0ebd c8a7 c4bc
000002f0: 128c 18bd 20a7 053c aae2 08bd 87ed a7bc
00000300: f6a2 e6bc ee9e 9abc 1d60 e2bc 3353 12bc
00000310: b8ba c7bc 6131 76bd 4b80 5f3c 398f 9f3d
00000320: 78ad 6bbd f8dc 4b3d e162 60bd cd7c 76bd
00000330: f67e 78bd 0b6e 4e3b b585 eb3a 51c1 75bd
00000340: 3838 08bd d99e b03c 81c8 5cbd 40ad a83c
00000350: e681 44ba 10f8 7ebd 0906 7fbd d5fc fc3c
00000360: 6afe f8bb 2509 ca3c 235e 053c 7350 b23c
00000370: ccfd 3e3c 8bf3 86bb 4c18 64bd d8f4 e6bc
00000380: 60ce 80ba c974 27bd 16d9 603a e5c7 85bd
00000390: e47f 8ebc 2237 34bd a8be 1a3d 905f 6dbc
000003a0: ae64 17bd 9ed6 5cbc e480 003d e665 d8bc
000003b0: 16ea abbc 3d0c 88bd 8f1b 2c3c 6bd8 fe3c
000003c0: 204c 873b cfad 89bd c62c 17bd 6e7a 15bd
000003d0: d365 b13c f21a 05bd ad4c 223c c4d7 b43c
000003e0: 69cd f6bc 49cc b4bc 69d8 553b 0941 e63c
000003f0: d17f 88bd 7c31 aa3b 8302 ec3c b8db 423c
-0.07097935 -0.028654462 0.13299033 -0.017457534 -0.06973251 0.027645623 -0.008400783 0.013626301
0.002126037 0.008690695 -0.024617799 -0.008074808 0.017886108 0.052748933 -0.022757478 -0.07092552
0.023727754 -0.028231526 -0.009714802 -0.005672433 0.038051277 -0.022990562 0.02057819 -0.043137
-0.05347284 0.020967055 0.018773507 0.033828735 -0.0280992 0.0056359186 0.036655135 -0.008550638
-0.056527197 -0.0267621 -0.030506942 0.02915169 0.026148178 0.0045411075 -0.05121743 -0.06864351
-0.018891605 0.048905842 0.00023895483 -0.008005356 -0.050575618 -0.029495342 0.0146883875 -0.024839727
0.010953593 -0.06303999 -0.017837737 0.008467261 0.05852919 -0.015796322 -0.036236618 -0.024171274
0.01563499 -0.0041398075 -0.023241844 0.026956448 0.027766343 -0.024481753 0.02776312 0.018920377
0.026978722 0.02625369 -0.07154669 0.027014798 -0.051016957 -0.0129871005 -0.014288679 0.04245689
-0.011928025 -0.020683063 -0.021629117 0.012129518 0.004389008 0.063440554 -3.255226e-05 0.0026479084
0.056337494 0.029936103 -0.01621362 0.026343962 -0.053858496 0.05682904 0.00020132141 0.04614463
0.024387801 -0.022366086 0.000121021156 -0.012412044 0.0537329 -0.04013607 0.00048749702 -0.009638046
-0.016245957 0.034866046 0.03599944 -0.04604866 0.01729334 0.07225471 -0.011814208 -0.044323806
-0.04874588 -0.065708496 0.02045728 0.040879548 -0.06394898 0.0157559 -0.051857125 0.06020007
-0.07922341 0.010832619 0.023222491 -0.051939156 -0.005167108 0.03803137 -0.050098866 -0.06057469
-0.008085648 -0.06466089 0.09485581 -0.07842905 0.050341763 0.029132888 -0.04816464 -0.016274977
-0.027270507 -0.019569276 0.0519653 0.04345055 0.026035 -0.04245843 0.015013113 -0.07478999
-0.076391526 -0.03897536 -0.008465791 -0.06337586 0.025386313 0.0202342 -0.062689655 0.054641183
-0.033217 -0.053752378 0.06300205 -0.06825023 -0.054547388 -0.050639443 -0.0653993 -0.0018313169
-0.028083833 0.020755926 0.041213002 0.017679717 0.053499084 -0.046670467 -0.026708214 -0.051992737
-0.007862339 0.0051151006 0.026400123 0.020752547 -0.0065046097 0.006647473 0.003756586 0.024544213
0.02928938 0.057260804 0.0023124644 -0.071691565 -0.009177707 0.04765496 -0.031581946 -0.010953274
-0.03430432 0.05450585 -0.043101806 0.042063188 0.030508425 -0.0409006 0.022568366 -0.009728618
0.08512084 0.031064931 -0.0347918 -0.024005786 -0.037242956 0.0081575215 -0.03341929 -0.020499004
-0.028153878 -0.018874612 -0.027633721 -0.008930969 -0.024381027 -0.060105685 0.013641427 0.077909894
-0.05753848 0.04977128 -0.0547818 -0.060177613 -0.060667954 0.0031498696 0.0017968925 -0.059998814
-0.03325674 0.02156012 -0.053902153 0.020590425 -0.0007496163 -0.06224829 -0.062261615 0.030882278
-0.007598688 0.024662564 0.00814012 0.021766877 0.01165719 -0.004118388 -0.055687234 -0.028192922
-0.000982713 -0.04088286 0.000857727 -0.065322675 -0.017394967 -0.04399789 0.03777948 -0.014488116
-0.03696125 -0.013478903 0.03137292 -0.026415776 -0.020985644 -0.06642959 0.010504617 0.031109056
0.004128948 -0.067226045 -0.036907934 -0.03649371 0.021654999 -0.0324964 0.009905976 0.022075541
-0.030127244 -0.022070067 0.0032630211 0.028107183 -0.06665004 0.0051938873 0.028809791 0.011893205

bias f4 [256]
00000000: d349 a93c bc2c a5bc 10d3 86bc a8b6 0fbb
00000010: 3f47 a63c 4cc4 0a3d e85c d03c c9a3 923d
00000020: 65c3 ce3c 1c7d 803b bd04 d0bc 241c e73c
00000030: aa03 00bd b87d 333d ae3a 163d a481 84bc
00000040: 9fd0 873c ee76 4c3d 8dcf 0fbd b956 2f3d
00000050: 8b4a aabd 081d 463d 9958 edbb dae6 243d
00000060: 89f7 213c b796 b43c fc49 d63b 652e c83c
00000070: b711 5c3d 6e6e 7a3d fe0e 0c3d c4fb 8cbd
00000080: 1d1d 1a3d cb14 f4bc 9e43 5f3d 2fb2 163d
00000090: 38f8 523d c8a9 03bd 2ef5 89bd 5bdd 0cbd
000000a0: 6d0e 80bd c318 073c 2c80 783d c4ff 683d
000000b0: f0bf bd3c 6c34 96bd 129c 393c 8c75 78bd
000000c0: e44c 8a3c 763f 013c 33fd 563d c788 0e3d
000000d0: fd82 273d bd95 1a3d 92f6 1ebd e5cc dc3c
000000e0: 3060 4b3d 5ce8 77bc e66e a63d 516f a13d
000000f0: 9ea4 53bd 24a5 2d3d 8bb1 f2ba ca96 bf3b
00000100: 300c 323d 764e a83d 06d1 09bd 9049 a5bb
00000110: b0ce bebc e6e8 393d 27d5 43bd 3746 00bd
00000120: 8b57 263c 2d3f 4f3d 1cdb 9a3c c3bc dd3b
00000130: aff3 663d 7a59 643d 0f9f 993d 3434 d8bc
00000140: f147 15bc c929 1fbc 0884 5d3c eeaf 0fbd
00000150: bd9f 3fbd 1065 f83c beba b3bd d431 1c3d
00000160: a32d 2dbb 52fc 1aba a96f 943d 1ecc 6abc
00000170: 0295 99bc 26d6 d73c 5770 fbbc 02d0 bc3c
00000180: e05f 563d c471 803d 570a e83c 4eaf 443d
00000190: 8404 2f3c 1dac 693c 755c 743d 9614 103d
000001a0: f37d 9fbc 9c01 2dbd 0819 ccbc 8b1e 3fbd
000001b0: 23d3 e43c 987f 953d ef52 ecbc 7add 08bd
000001c0: a104 aa3c 5516 483d 9a87 55bb 29db 1dbd
000001d0: 0936 e53c dc8b 433d 8527 6c3d 6b6e 6d3d
000001e0: 5023 93bc ec27 123c aa60 17bc ebeb 293c
000001f0: 40d2 0d3d 3a1e 4d3c dfcc 1cbd e083 3ebd
00000200: 6be9 973d e297 513c 7569 ae3d 2820 7a3c
00000210: 5712 ca3c 47b0 5a3d 0c52 02bc 1815 123d
00000220: 4bf3 ccbc 2268 0f3d cfb7 e0bc 965d ab3b
00000230: bb77 b03c c07e c2bc c5bd 603c f791 cbbc
00000240: 3257 96bb 6282 a7bc 6d08 5ebd 5a08 b43c
00000250: 05fb ed3c d3a8 983d 84cc 383d c220 843d
00000260: d762 843c 0f2d 0bbd 3b2e cdbb b95c 7c3b
00000270: 9f0e 97bc 3e8e ffbc 45b8 40bd 31b0 383c
00000280: 448c 39bd 7b67 67bd 6094 02bc 78c0 d23c
00000290: ef1b 54bd c5aa b83d dc64 2f3d 56f5 83bd
000002a0: eb92 2dbc 5b23 f73c d2e6 093d 0a6e 48bd
000002b0: dbab 933c 6a4b e2bb 6e11 a43c 2b96 5cbd
000002c0: a63d 2c3d 4b64 5e3d fd38 93bc 9ea1 2b3d
000002d0: 2b02 6e39 97ef a4bd a32d 2abb e69e 17bc
000002e0: f043 643c f027 4e3d 2035 46bd 36d9 40bd
000002f0: ace9 21bc 01e2 41ba 69cd 8e3d 8d0c 38bd
00000300: 7bab 1dbc ecac 41bd aa97 cbbb b0f0 4d3d
00000310: feac d3bc 5ee6 1f3d d548 ec3c f405 5a3d
00000320: 5dfb 873c 75d3 8e3c 376f 2dbd 8fdc e63b
00000330: c1ff fc3c cbad 2d3d 6057 8b3c bd6c a13a
00000340: 2eeb b9bc ab88 93bc cc01 29bc 462c 38bd
00000350: d216 133d 6714 adb9 2b37 6cbc 0bfb 6a3c
00000360: 9c0e 0f3d 4ee0 0e3d b18a 023d bdf4 143d
00000370: 41e2 3e3c 54df a63c b306 473c 0735 4bbc
00000380: 430a 46bd 329b 253c 07d1 a13d 3cad 17bd
00000390: eaae 3c3c 9d5f 493d 7162 a73c 2488 6c3d
000003a0: 8039 44bd 0ea2 87bc 0986 65bc 3d7e 0c3d
000003b0: ab13 41bd d6d5 65bd 3433 f0bc 7656 e43b
000003c0: 64c3 853d ae7b 9a3b c4b0 2bbd 3141 35bc
000003d0: cf7a 8e3d 78d4 473d 9022 f7bb 16b2 c03c
000003e0: b39a 2fbc d8b5 983d fcd4 813d 09b1 73bd
000003f0: 499d 1fbd 2033 063d ad1c 61bd d852 1f3d
0.020665085 -0.020162933 -0.016458064 -0.002192894 0.020297645 0.03387861 0.025434926 0.07160146
0.025239656 0.003921164 -0.025392884 0.02821166 -0.031253494 0.043821067 0.036677055 -0.016175099
0.01657897 0.049918108 -0.035110045 0.042807315 -0.08314999 0.04836753 -0.0072432277 0.04025922
0.009885677 0.022044523 0.0065395813 0.024436185 0.05372783 0.06114047 0.034193985 -0.06883958
0.03762542 -0.029795071 0.054507844 0.036791023 0.05150625 -0.032144338 -0.067362174 -0.03439079
-0.062527515 0.00824565 0.06066911 0.056884542 0.023162812 -0.073342174 0.011328714 -0.060658976
0.016882367 0.007888665 0.052487563 0.03479841 0.040896405 0.037740458 -0.038809367 0.02695317
0.04965228 -0.015131082 0.08126621 0.0788256 -0.051670663 0.04239382 -0.0018516047 0.005846833
0.043468654 0.0821809 -0.033646606 -0.0050441697 -0.023291916 0.045388125 -0.0478107 -0.031316962
0.010152708 0.05059736 0.018903308 0.006766887 0.05638474 0.055749394 0.07501041 -0.02639208
-0.00911139 -0.009714552 0.013520248 -0.03507989 -0.046783198 0.030321628 -0.087758526 0.038133457
-0.0026424907 -0.00059122324 0.0724786 -0.014330892 -0.01874781 0.026347231 -0.030693216 0.023048405
0.052337527 0.06271699 0.028325243 0.048018746 0.010682229 0.014262226 0.059658486 0.035175882
-0.019469237 -0.042237863 -0.02491428 -0.046659987 0.02793271 0.07299727 -0.02884814 -0.03341434
0.02075416 0.048849422 -0.0032582046 -0.038539086 0.027979868 0.047740802 0.057654876 0.05796663
-0.017961174 0.008920651 -0.009239355 0.010371189 0.03462434 0.012519414 -0.038281318 -0.046512485
0.07417568 0.012792559 0.08516208 0.015266456 0.024666948 0.053390767 -0.007954132 0.035664648
-0.025018355 0.03501142 -0.027431397 0.005229662 0.021541467 -0.02374208 0.01371712 -0.024849875
-0.004588031 -0.020447914 -0.054207254 0.021976639 0.02905036 0.07454076 0.045116916 0.064515606
0.016160412 -0.033978518 -0.0062616146 0.0038507415 -0.018439589 -0.031195756 -0.047050733 0.011272476
-0.045299783 -0.05649517 -0.007969946 0.025726542 -0.051784452 0.09016947 0.042820796 -0.064432785
-0.01059411 0.030168226 0.033667393 -0.048933066 0.018026283 -0.0069059627 0.020027842 -0.05385415
0.04205098 0.054294866 -0.01797151 0.041902177 0.00022698256 -0.08053511 -0.0025967143 -0.009254193
0.013932213 0.050331056 -0.048390508 -0.04708215 -0.009882372 -0.0007396043 0.06972773 -0.044933844
-0.009623404 -0.04728405 -0.006213148 0.050278366 -0.025839325 0.039038055 0.028843323 0.053228334
0.016599352 0.017434815 -0.04234239 0.0070453356 0.030883672 0.04240207 0.017009437 0.0012315732
-0.02269515 -0.018009504 -0.01031537 -0.044964097 0.035910435 -0.00033012332 -0.01441745 0.01434208
0.034926042 0.034881882 0.031870548 0.036366213 0.011650623 0.020370163 0.012147593 -0.012402779
-0.04834963 0.010107802 0.07901197 -0.037030444 0.011516312 0.04916345 0.020432683 0.05774702
-0.0479064 -0.016556766 -0.014009007 0.034300078 -0.047137897 -0.056112133 -0.02932129 0.0069683148
0.065314084 0.004714451 -0.041916624 -0.011062906 0.06957018 0.04878661 -0.007541962 0.023522418
-0.0107180355 0.07456559 0.06339452 -0.059495006 -0.03896836 0.0327636 -0.054958988 0.038897365

weight f4 [60, 256]
00000000: 6394 363d dc7e 84bd 9bb8 473d 52e6 603c
00000010: a810 fcbc f158 aebd 2291 85bd f953 0abd
00000020: ee2e 9f3c 5953 083c 32ae 573c 837f f8bc
00000030: c5cc 1e3d 96df 8f3c 5c55 b3bc e57d 683c
00000040: 7a41 fbbb a513 d4ba 4af6 993d 7c1f 053d
00000050: e90e 5a3c 4979 b6bc 58fb 84bd 77cd 163d
00000060: 5c3e 2abc e09f bf3c 2500 51bd bf81 253c
00000070: eb5c 213d 95e8 66bd cafa 093d 8afc cd3c
00000080: fd84 d43c 31d1 bbbd d8d0 a5bd 668e 16bd
00000090: 4331 973c 57e8 a73c f197 a73c dc7c 1dbd
000000a0: ae0c 3b3e 49e6 8bbc eefe 8abd 131d 433d
000000b0: 1e36 f7bc 9079 b93c 2c50 c5bd 2046 4ebd
000000c0: e9f0 94be 7d00 10bd a073 b5bc 2e4a 2f3d
000000d0: fa6f b63c 4c5e bbbd 7436 943d 693b 093d
000000e0: 6175 68bd 7c3f 84bd 3914 3b3d 9586 a7bc
000000f0: 771a 4a3d 722f 92bd 198c 90bc 69ef 043c
00000100: daef 9eba 7254 bd3c 6960 9fb9 19cc 4a3e
00000110: c29f 8ebd d31e 573d d7dc 3ebb 46ca 20bd
00000120: d42b 133c 9adf 1bbc b703 09bd 777a 7dbd
00000130: 0534 2b3d a030 5dbd 7c40 8e3c a1bd ee3c
00000140: f12c f2bc f319 593d e874 3d3d 587d d03c
00000150: 49ea 2f3d 0fc6 9c3c 4831 903c 5359 86bd
00000160: 0b12 94be fd5e c33a e7bf 6a3c a4e6 433d
00000170: d52a 91bc a6aa 613b 3ddb edbc a5f5 3e3d
00000180: bf82 0fbd 9484 0fbd aa61 4bbd f9d6 3a3d
00000190: 4902 f93c f6a7 d5bc 7250 9ebd d429 26bd
000001a0: 8b82 e53c 73a1 50ba bc0c fe3c 4e00 e03e
000001b0: a114 68bd af50 b8bb 1a8d 913d cd2d 083d
000001c0: 5e94 463d 1379 f1bd b46e b0bc 32a0 183d
000001d0: d8b7 04bd 147e e33c 4847 dc3c 2bf5 e4bc
000001e0: b8f5 10bd 77a4 ec3c f29a 54bd bce6 a3bd
000001f0: 8b01 a9bc e3f3 2cbd 9dc0 07bc 63b6 d9bc
00000200: 88d1 fcbc 959b 1c3d 9ff7 16bd 1aa4 8ebd
00000210: 9a0a 5a3d 86f0 02bd c303 24bd 4a10 183d
00000220: c9f0 333d 3481 29bd b728 cbbd a37f 20bd
00000230: feba a5bd 0bf7 dabd 787c d63c a143 c7bc
00000240: 2095 0bbd 1641 d93c a158 85bc 8e74 18bd
00000250: 85dd eebc 6230 9f3c 0e4e e83c f35a 543d
00000260: 7db3 253d 2c5d 2a3d d7cd b9bd 7e81 47bd
00000270: 9502 093d 0466 e43c f763 79bc 0579 25bd
00000280: 5acc 72bd 6059 293e b26d 46bd e925 6c3d
00000290: 8875 42bc 001e 013a 4fba edbc 291d 713d
000002a0: 8a80 24bd 5767 d93c e21e 9dbd 56eb 413d
000002b0: 172a 45be 0fa2 fc3b f9bc 52bd 9039 10bd
000002c0: fa4b b0bd cff0 d7bb 4c23 05bd 2d38 b7be
000002d0: 4925 993b 1008 653d 4cf7 eabd 3fbd b23b
000002e0: 982e 2a3d 2dd1 8fbd 273c 353d 9029 e7bd
000002f0: c50e d63c edc9 afbd 3195 9dbd 4d0a c53c
00000300: 9ec3 52bd 9587 933c 344c 7cbd ccfa abbd
00000310: e295 13bd a29e 033d 96f9 72bd 622d 6dbb
00000320: 5366 f33d 1574 27bd c21b dcbb eee5 25bd
00000330: 2e67 2a3d 2be5 92bc a69b 1d3d f3e3 2cbd
00000340: 2cb2 37bd b641 a2bc 4ef4 263d a855 99bc
00000350: b226 56bd 68f3 753c 0256 543b 6320 94bd
00000360: 8a23 b43c b369 f7ba 6fa1 2abd b7b5 823c
00000370: 7be1 5fbd 3933 313d f876 3cbd 273c 77bd
00000380: 51b9 213e fc89 5bbc 7529 133d 7079 51be
00000390: cf68 763d 6711 d43c cf06 2dbd ec24 dfbb
000003a0: 48f6 d63c 185d a93c 2f35 363d ed62 69bc
000003b0: 2b88 6cbe cf25 6a3d 08b1 f0bc d7d0 103d
000003c0: 5f9b 253d e47b 513d fd62 8fbd 05ce c83c
000003d0: 481f 64bd 086c 4abc 2b62 213c 4ecf 9c3c
000003e0: d419 1bbd a177 8ebd e258 f03c f59e 053d
000003f0: cabb 423e 33c2 59bd 4051 7dbd dfb4 70bd
0.044575106 -0.06469509 0.048760038 0.013726788 -0.030769661 -0.08513058 -0.065218225 -0.03377149
0.019431558 0.008320653 0.01316409 -0.03033424 0.038769502 0.017562669 -0.021891288 0.014190172
-0.0076677175 -0.0016180171 0.07517679 0.03250073 0.013309219 -0.02227463 -0.064932525 0.03681704
-0.010390844 0.023391664 -0.05102553 0.010101735 0.039395254 -0.05637415 0.033686437 0.025144834
0.02594232 -0.091707595 -0.080964744 -0.036756895 0.018456107 0.02049653 0.020458193 -0.038449153
0.18266556 -0.017077582 -0.06786905 0.04763515 -0.030177172 0.022640973 -0.09634432 -0.050359845
-0.2909005 -0.035156716 -0.02214986 0.042795353 0.022270191 -0.09148845 0.072369486 0.033503924
-0.056752566 -0.06457421 0.045673583 -0.020449916 0.049341645 -0.07137956 -0.017644929 0.00811372
-0.0012125925 0.023111556 -0.00030398674 0.1980442 -0.06964065 0.05251963 -0.002912333 -0.039255403
0.008982617 -0.00951376 -0.03345081 -0.06188437 0.041797657 -0.05400145 0.017364733 0.029143156
-0.029562445 0.053003263 0.04625407 0.025450394 0.04294804 0.01913741 0.017601624 -0.06560006
-0.28920016 0.0014905628 0.01432798 0.047827378 -0.01772062 0.003443399 -0.029035205 0.046620984
-0.0350368 -0.035038546 -0.049653687 0.04561517 0.030396597 -0.026081067 -0.077301875 -0.040567234
0.02801635 -0.0007958628 0.031011932 0.43750232 -0.0566603 -0.0056248526 0.07106991 0.033246804
0.048481338 -0.11790671 -0.021537162 0.03726215 -0.03240189 0.02777008 0.026889458 -0.027948936
-0.035390586 0.028887017 -0.05190558 -0.080029935 -0.020630619 -0.042224776 -0.008285669 -0.026576227
-0.030861631 0.038234312 -0.036857244 -0.06964894 0.053232767 -0.031967662 -0.04004265 0.03712491
0.043930802 -0.041382983 -0.09919875 -0.039184224 -0.080923066 -0.10691651 0.026182398 -0.02432424
-0.034077764 0.026520293 -0.016277613 -0.03722053 -0.029158363 0.01943225 0.028357532 0.05184455
0.040454376 0.041592762 -0.09072464 -0.048707478 0.033449728 0.027880676 -0.015221587 -0.040398616
-0.059276916 0.16538 -0.048444457 0.05765334 -0.011868842 0.000492543 -0.029019503 0.0588657
-0.040161647 0.026538534 -0.07671906 0.047343574 -0.19254337 0.0077097486 -0.05144975 -0.035211146
-0.086082414 -0.006589986 -0.032504365 -0.35785046 0.004673634 0.055915892 -0.114729494 0.005454689
0.04154834 -0.07022319 0.04424682 -0.11287224 0.02613009 -0.08583436 -0.07694472 0.024052763
-0.051456086 0.018008986 -0.06159611 -0.08397445 -0.03603161 0.032133706 -0.059320055 -0.003619038
0.11884751 -0.04088219 -0.006717176 -0.04050248 0.041602306 -0.017931541 0.038478516 -0.042209577
-0.044847652 -0.019806724 0.04076033 -0.018717602 -0.052282996 0.015011646 0.0032399897 -0.0723274
0.021989603 -0.0018876105 -0.04165786 0.015955789 -0.054658394 0.04326174 -0.046011895 -0.0603601
0.15793349 -0.013399597 0.03592821 -0.20456481 0.060158547 0.025887204 -0.04224282 -0.0068098214
0.026240483 0.020674273 0.044484314 -0.014244777 -0.23098819 0.057164963 -0.02938129 0.035355415
0.040431377 0.051143542 -0.070013024 0.0245123 -0.055693895 -0.012354858 0.009850065 0.01914182
-0.03786643 -0.06956411 0.029339258 0.032622296 0.19016948 -0.05316372 -0.061845064 -0.058766242

bias f4 [60]
00000000: 8dfa 19bd e57c a63c b77d 563d d4b1 5ebd
00000010: d681 31bc e0c2 1c3d 3279 f5bc f7ee 1e3d
00000020: 5a63 403d 76ec e13c 68b4 d43c bd90 e33c
00000030: ce6c ff3c bb09 df3c 0e5d 323d e9a9 dc3c
00000040: 114f b9bc 1d80 813c 6380 d3bc 1d60 f13b
00000050: 7fc7 c83c f8e5 2bbd 92a1 00bd afb0 2c3d
00000060: 9eee 25bd 6d93 87bc 1457 753d a411 46bd
00000070: 6dd1 283d c998 033d 53ec 41bd b6d4 dfbb
00000080: 6cc9 34bd fcaf d2bc 8f08 2a3d f60d f13c
00000090: 4296 3ebd 6465 573d b63a 2e3d 8014 f43c
000000a0: 4546 22bc 021b eebc 8e4a ecbb c24f bf3c
000000b0: c25f 18bd 7cc4 a43c eefa 3cbd ff87 883c
000000c0: 013d 48bd 5743 623d 230d 2d3d 2631 11bd
000000d0: 5fab 9cbd 321c 6ebc 8341 c1bc 990b 5f3d
000000e0: c911 2c3d 1ec3 493b 840f cdbc d80f 26bd
-0.03759246 0.020323226 0.052365985 -0.05436881 -0.010834178 0.038271785 -0.029965017 0.038802113
0.04696975 0.027578574 0.02596493 0.027778978 0.031179812 0.02722632 0.043545775 0.026936488
-0.02262071 0.01580816 -0.025818055 0.007366194 0.02450919 -0.041967362 -0.031404085 0.042160686
-0.040510766 -0.01654979 0.059897497 -0.048356667 0.04121535 0.03212813 -0.047344517 -0.006830777
-0.044137403 -0.025718682 0.04151207 0.029425602 -0.046530016 0.052586928 0.04253646 0.029794931
-0.009904449 -0.029065613 -0.007211036 0.023353461 -0.037200697 0.020113222 -0.046137743 0.01666641
-0.048886303 0.05524 0.042248856 -0.035447262 -0.07649874 -0.0145330895 -0.023590809 0.05445442
0.04200915 0.0030786465 -0.025031812 -0.040542454
