data/example_dynamics_data/kitchen_LSTM_qhat.pth (torch, 187027 bytes, 10 tensors)

weight f4 [64, 70]
00000000: 7bb1 f73d 6501 de3d 7f62 17be 4729 6f3d
00000010: cadb 95ba bb79 14be 712e 563b 6379 673e
00000020: 9623 4c3e 78cc 7e3e 92bf cabd 65df f43d
00000030: 63b2 15bd 9fb7 c0bc b148 78bd 61f6 243e
00000040: 4927 45bc cd48 933d 1f8d 853d ad46 913e
00000050: 8e86 f53b 2fd4 a9bd b81d 523c cef4 fd3c
00000060: 109b d3bc 572b 9dbd fb2f 843c 8a62 a13d
00000070: e069 75bd b59a ee3c 7782 af3c 7518 d9bb
00000080: 8875 edbd c243 bc3d 2f91 b73d 266c 52bd
00000090: 43e4 6d3d 64fd 503d e988 763c b115 c73d
000000a0: a644 a9bd 1b19 b1bd fed7 e93d e25a 463d
000000b0: e2dd 50bd 4e48 613d ec89 d43d 08c3 f83d
000000c0: 04d1 b7bd 01ed 1bbd 103a d83d d47f ee3d
000000d0: 8b9b c6bd 1fd3 9bbd d6db e2bb 8997 563d
000000e0: 6ed0 14bc 32b4 ca3c dbe6 22bd 04b9 4cbd
000000f0: 5fa2 d5bd cdce 943d 7085 39bd b03e 7ebd
00000100: b43a 88bd 5b7c 563d eba2 8bbd a154 a33d
00000110: ab5b c13d 9bea 30bd e820 5cbe 7842 633c
00000120: ba57 b63d 0e37 ae3c dfc1 813d 5c14 653d
00000130: cd0f bc3d 5678 c1bc 7fbb aabe ee8e f0bc
00000140: c9fb 69be 394b c33e 183f 843e c97c 88bd
00000150: 61ae a0bd 6f6c 6f3e 195f cd3d 4e9e 17bf
00000160: fac6 1dbf 47e8 06be 3fad c5bc 02c4 0e3e
00000170: 4188 f1be aa06 c9bd 8c05 75be 730f 53bd
00000180: 15a7 4a3d ef95 b53e 22f9 853c 6691 5ebc
00000190: 86ef d23d b779 dd3d 6b62 b8bc de67 06bd
000001a0: d125 893d 5d6c ab3d b96f 8abb 2df9 28bc
000001b0: 7be6 903d 0afd 3e3d dd03 dc3d 8973 ad3d
000001c0: 99e4 04bb 1884 38bd 6eaf af3d e142 c73d
000001d0: f899 88bd 9f25 0abe 8f27 67bd 8743 87bd
000001e0: 6bb5 953d b79f 1f3d b8a8 02be 8eb6 313d
000001f0: facb 0fbd c533 063e d483 b2bd 2f0f 8ebd
00000200: 3192 27b9 0238 b43d 658d 76bc 33bc 9f3c
00000210: 39a2 1a3b 6d8a 70bb 4c70 28bd 78ae c73b
00000220: 0cb3 06bd 6612 07bc 1900 913b 7f16 c93b
00000230: c9f6 0d3e 49ed b13d 8724 373e 185a dabd
00000240: eec9 403d 5741 e23c 1c0d fb3d 2626 33be
00000250: d496 b1be ab26 a8be 1bf7 86be d7fb 93be
00000260: dc00 17be 073f 393e 7a4f bb3e 8d5c 66bd
00000270: 8a83 d7bd 5fa9 b23d ef54 c03d 4300 273e
00000280: 25a2 043e 564f 43be 1649 edbb 4d08 483d
00000290: bd9f f7bd 2a6e 9e3d 4405 a53c 17b7 e3be
000002a0: bfdb a43e d6ea 05be 99a4 ecbd 8711 a4bb
000002b0: cf33 ba3c fda8 b13c 8369 d5bd 6e71 373c
000002c0: 75b9 6ebd 0e1f ebbc f53a e33d 4a06 7bbd
000002d0: 16d5 acbd 682b 68bd a099 83bd ecf1 963d
000002e0: 161d 9f3d 7a82 cd3d 57bc 833d d9c5 373d
000002f0: 02e5 68bc c5fc cdbb 843b edbd 2c75 57bc
00000300: e810 8fbd ee2e 1d3d 6dd3 86bc 4a90 aebc
00000310: d4da e33d 8048 da3d 022c e53d 9184 b53d
00000320: dd45 2b3d 8950 f13c 4ec9 413d 5428 193d
00000330: 6c33 1b3d bf95 aa3c 5228 64bd 7af7 2e3d
00000340: 001a 33bd 5a91 6dbd 93bb 9bbe 686a 8d3d
00000350: ec46 03be 310b 483c f9a5 2f3e 14d4 073e
00000360: c9a5 36be 82b6 b13e a058 203d e1d2 573e
00000370: a3f1 a53e 6cfe c63d 829c 253e 104b b7bd
00000380: 3de0 963e e6aa 17bd ae10 f6bd e1cc aebe
00000390: a640 cfbe e6e0 1b3f e7cd e8bd 3aae 3d3d
000003a0: 195c 10bf dcff 47bd a93e adbd 1563 2d3e
000003b0: 953d 833b 600a 81be 03fd 5bbe cb9d 173e
000003c0: 3204 da3d 11c3 1abd efe3 b33d e6ba df3d
000003d0: 80c7 b9bd ad51 eb3b 2e69 f4bd c194 a8bd
000003e0: b0ec 373d 1864 08bd 002b f4bd b1e1 eabd
000003f0: fd94 91bd 6e7d 42bd 9dc2 97bd 5788 f4bb
0.120943986 0.1084011 -0.14783667 0.058388975 -0.00114333 -0.14499561 0.003268149 0.22604899
0.1993545 0.24882686 -0.098998204 0.119566716 -0.036547076 -0.023525057 -0.0606162 0.16109611
-0.012033292 0.0719162 0.06521057 0.28374234 0.007492847 -0.08292424 0.012824468 0.031000521
-0.025830775 -0.07674282 0.01613616 0.07880123 -0.059915423 0.029126504 0.021424515 -0.00662523
-0.11594683 0.09192611 0.089632384 -0.05137267 0.058079015 0.051022902 0.01504729 0.09720934
-0.08265047 -0.086473666 0.1141815 0.048426516 -0.050992854 0.055000596 0.10377869 0.12146574
-0.089754134 -0.03806782 0.105579495 0.11645475 -0.09697636 -0.076086275 -0.006923179 0.05239061
-0.009082897 0.024744127 -0.039770942 -0.049981132 -0.104313605 0.072660066 -0.04529327 -0.062071502
-0.06651822 0.05236469 -0.068181835 0.07975126 0.094413124 -0.043192487 -0.21496928 0.013870828
0.08903451 0.021266486 0.06335806 0.05592762 0.09182701 -0.023616951 -0.33346173 -0.02936503
-0.22849955 0.38143328 0.25829387 -0.06664426 -0.0784576 0.23381208 0.10027904 -0.5922593
-0.6163174 -0.13174544 -0.024130462 0.13941959 -0.47174266 -0.09815724 -0.23927897 -0.051528405
0.049475748 0.35465953 0.016354147 -0.01358447 0.10299592 0.10814231 -0.022507867 -0.0328139
0.06696666 0.08370278 -0.004224744 -0.010313314 0.07075211 0.046628036 0.10742924 0.08469302
-0.0020277856 -0.04504785 0.085783824 0.09729553 -0.06669992 -0.13490914 -0.05643421 -0.06604677
0.07309993 0.038970675 -0.12759674 0.04338699 -0.035106637 0.13105686 -0.087165505 -0.0693649
-0.00015980822 0.08799745 -0.0150483595 0.01949892 0.0023595227 -0.0036703602 -0.04112272 0.0060937963
-0.032885596 -0.008244133 0.0044250605 0.006136715 0.13863672 0.08687837 0.17885028 -0.10661715
0.047067575 0.027619047 0.1225836 -0.17495021 -0.34685385 -0.32842 -0.26360402 -0.28903076
-0.14746422 0.1809045 0.36584073 -0.056240607 -0.10523136 0.08723711 0.093912 0.16308694
0.12952478 -0.19073233 -0.0072413785 0.04883604 -0.120910145 0.07735856 0.020144112 -0.44475624
0.32198903 -0.13077864 -0.11554832 -0.0050069722 0.022729782 0.021687025 -0.104205154 0.011196477
-0.058282334 -0.028701331 0.110952295 -0.061285295 -0.084390804 -0.05668202 -0.06425786 0.07370362
0.077692196 0.10034652 0.06432407 0.044866417 -0.014214756 -0.006286236 -0.11583617 -0.013150495
-0.069856465 0.038374834 -0.016458238 -0.021309037 0.111257225 0.106583595 0.111900344 0.08863176
0.041814674 0.029457347 0.04731112 0.037391976 0.037890837 0.020823358 -0.055702515 0.04271648
-0.043725967 -0.057999946 -0.30416545 0.06905061 -0.12820023 0.0122096995 0.17153157 0.13264495
-0.1783668 0.34709555 0.03914702 0.21076538 0.32410917 0.09716496 0.16172984 -0.08949864
0.29467955 -0.037028216 -0.120149 -0.34140685 -0.4047901 0.6089004 -0.11367398 0.046308734
-0.5639053 -0.04882799 -0.08459217 0.16932328 0.004005144 -0.25203228 -0.21483235 0.14806287
0.106453314 -0.037783686 0.08783709 0.1092432 -0.09071255 0.0071813674 -0.11934124 -0.082314976
0.044903457 -0.03329858 -0.11922264 -0.114688285 -0.071084954 -0.0474829 -0.074101664 -0.007462542

bias f4 [64]
00000000: 7b6e a33d ed82 953d 1624 9abd c986 ec3d
00000010: 3d52 02be 15af 36bd 6f45 cd3c ff85 7c3d
00000020: 57b8 a83d 8de9 81bd f334 783d aaab 5f3d
00000030: f3cf 2f3d 19ff 9dbd 7fe4 d3bd 752c de3d
00000040: 8922 f43d 053d 233d e171 443d d959 8fbd
00000050: bcc6 113e 89ed 753d 065f a0bd f56f 7dbd
00000060: 813e 0b3e 448f eb3d 6c6a 1bbd 5074 0abe
00000070: 5841 0dba 9b2e d53d e149 573e 3e8b 2a3d
00000080: 44b2 9a3c 7a50 37bd 3f47 afbc 2ec8 10be
00000090: 7446 4bbd ef06 173e 05ad 81bd 62c7 64bd
000000a0: d2db 8dbc fa76 82bc 4193 823d bf89 debd
000000b0: 2153 a83d 92a7 2cbd c19d 1bbc f679 10be
000000c0: 3140 f73d fb89 b23d dc25 903d 5f9f 043d
000000d0: 2e1b 33bc 8526 9b3d c290 20bd bbfe 99bd
000000e0: 0c33 d1bd 4f67 4fbd 1d49 f33b 4c1c adbd
000000f0: ee11 e4bd 53cb ab3d 3e88 c9bb 6a43 efbd
0.07980057 0.07300363 -0.07526414 0.11549146 -0.12726684 -0.044600565 0.025057523 0.061651226
0.08238285 -0.063433744 0.06059737 0.05460707 0.042922925 -0.07714672 -0.103463165 0.10848323
0.119206496 0.039853115 0.047960166 -0.06999559 0.14235967 0.060040984 -0.07830624 -0.06187435
0.13598062 0.11501935 -0.03794329 -0.13520932 -0.000538846 0.1040928 0.21024276 0.041636698
0.018883832 -0.044754483 -0.021396277 -0.14138862 -0.049627736 0.14748739 -0.06331829 -0.05585421
-0.017316733 -0.015925873 0.06375743 -0.10866117 0.082189806 -0.042151995 -0.009498061 -0.14109024
0.120727904 0.08717724 0.07038471 0.03237855 -0.010931773 0.075757064 -0.03920055 -0.07519289
-0.102148145 -0.050635632 0.0074244873 -0.08452663 -0.11136232 0.083883904 -0.0061502745 -0.1168278

weight f4 [64, 64]
00000000: 03c3 f33d b513 163c 76e8 383e f5f7 b8bb
00000010: ebf8 0bbe c60f 293e 2402 dcbc 1dc4 a73d
00000020: da2e a8bc 4f24 1e3e 83b3 ccbc bb61 583e
00000030: a279 00bd 9442 553c e4fc 7e3d 1e46 c53c
00000040: 82d5 923d ee02 c13d 8bb8 9c3d e3bd 493e
00000050: d31e 5dbc 7172 42bd 7778 9fbd 086c 6e3e
00000060: 628c e13d 3d1d 953e 9dba ecbd 33c8 043e
00000070: 216b 25be 50bc b53d 0013 1dbd 1da4 083e
00000080: 5043 453c e40f 5d3c d76d 89be 2de5 ddbd
00000090: b481 7ebe 2b11 023e cde2 26be e2cf 12bd
000000a0: f9da fcbd 29ce dc3c 7345 19be 0883 fabd
000000b0: f8b4 a73d 2c1e ac3c 5fc7 f2bd f307 e2bd
000000c0: e1e2 cd3d 2c5d 1abc 239e 7e3c e70d dabd
000000d0: f6e2 133d b233 f03d 6604 5fbe 9bab d03d
000000e0: 99ef 5b3e fa63 803e 117f 1c3e fee0 e83d
000000f0: 9ad1 d5be 6770 613c 94e7 863e 47e9 eebc
00000100: 8f4c 8a3d b62b 9bbe d8ce 4cbe c971 2d3e
00000110: a618 b1bc e4cb b73d 5cd5 21be e573 90bb
00000120: cf0a 183d 4216 92bd 0279 d33b 1f6e 49be
00000130: 9839 f23d 3e7f 01be ccff 09be eb0a bbbd
00000140: 5b15 3d3e e78b 26be a49d 7c3d 6af8 7abc
00000150: e10b 8b3e b543 3abd 0a54 1f3d 9ff6 65be
00000160: 6a3f 4bbd 5054 32bb ab18 f23d 9afc 533e
00000170: 6346 df3e d909 7fbd 7ed5 ac3e 7334 823e
00000180: fc0f 12be f83f 193d 586d 2dbe e47f 94be
00000190: 7356 6cbc a6d8 0c3c 6109 673e 483f 0c3e
000001a0: 6266 163e b31a acbb 6a42 83be b56a fbbd
000001b0: 2656 8b3d 9824 753d f94f 9a3d b2ec 7dbc
000001c0: a107 833c 2326 99bd fdee 853d 620e 9d3d
000001d0: 78ce ac3d bb19 0f3d 567c be3d 1917 aebd
000001e0: e519 d83d 7af0 8f3d 3dca 883d a76b 83bd
000001f0: d53c be3d 0a50 dd3d 2f51 593e bc5f 1cbe
00000200: 22ce 8b3c d088 ea3d ad9a a33d 84bb c13c
00000210: 877c 2ebc d8ff 4b3c 3b0d 123e c716 d23d
00000220: 462b 6dbd ba6f fcbd 927c 473d 87ab 4ebd
00000230: e4b7 44bc 78d8 b13d cf04 023e fda3 913d
00000240: 66b0 1b3e 218d 22bd 858d d8bd b160 373e
00000250: d85a 273d 39ba b9bc 1814 8dbc 098a 433d
00000260: 04a0 963e 7d2e fa3d 24d3 b3bd e5b3 43be
00000270: 367b 90bd d783 1d3e 943c 80be ffc9 d73d
00000280: 01a7 b6bc 371e a7bd 16fd 3c3e 2c5e 7ebd
00000290: 5ff8 8c3e 44f5 5b3e aeec bbbc 04b1 4c3d
000002a0: 1f20 21be ae18 c93d b50e 253e 2375 233e
000002b0: ca91 cbbd af02 5bbd 3f5b 9f3d 9fbb b03d
000002c0: 853d c73d b6c0 2fbd 3968 133e 3f15 393e
000002d0: d827 573e 5cfa 49bd b943 b23e da8a 16bd
000002e0: ac6b 3fbe 126b 01bd 9b99 d3bd be6b 15bd
000002f0: 15b9 a23e 8a88 a93d d550 c43d 8c4c 8ebd
00000300: 0899 abbd 343f a5bd 8e81 b7bd 7867 063e
00000310: f5bf cabd f82a c2bd 0163 ba3d f5d7 7e3d
00000320: 0d99 ae3d 0ee9 99bc cff0 c83d 5b2a 1f3e
00000330: d0a1 913d 7c74 983c 0639 fcbc 4073 09bd
00000340: ce35 8ebc 9a0c 1d3d 31fa 2d3d a083 26bd
00000350: 2ebf e83d 31f7 833d 7060 ff3d 736c 52bd
00000360: 396e a53d 1a78 75bc b5e2 91bd 9adc 3fbe
00000370: 80b3 963e b3a2 173e 51f7 8bbd 303d c03d
00000380: 1936 de3d 691d 1b3c da95 88bc b6da fcbd
00000390: 330e 1f3d a192 3f3e 63ad 063e 0684 28be
000003a0: 443c c9be 54e7 f83d ad61 a6bd 4be8 513e
000003b0: d574 16bd 0d0a 173e e9a0 183d 1872 52bd
000003c0: dae2 523d 51d1 a03d 270e f03d 00f9 a4bc
000003d0: 0008 fd3a 806d 453d 76ee ecbd f9ac c53d
000003e0: 189f 71be aca1 0dbe b54a 0bbd dc1c fa3d
000003f0: 4a6d 3bbe 9a62 03be d7be 883e 4a82 1ebe
0.1190243 0.009159972 0.18057427 -0.005644793 -0.13669173 0.16509923 -0.02685649 0.081917025
-0.020530153 0.15443538 -0.024987942 0.21131031 -0.031365998 0.013016362 0.062252894 0.024081286
0.0716963 0.09424387 0.07652386 0.19701342 -0.013496119 -0.04747242 -0.07786649 0.23283398
0.11013104 0.2912387 -0.11559031 0.12966995 -0.16154148 0.088738084 -0.038348198 0.13343854
0.012039974 0.013492558 -0.26841614 -0.108347274 -0.24854165 0.12701862 -0.16297455 -0.035842784
-0.12346453 0.026953774 -0.14967899 -0.122320235 0.08188814 0.02101048 -0.11854433 -0.110366724
0.10053039 -0.009421628 0.015540632 -0.10647183 0.03610512 0.1172861 -0.21779022 0.10188981
0.21478118 0.25076276 0.15282847 0.11371039 -0.41761476 0.013759709 0.26348555 -0.02916397
0.06752884 -0.30306786 -0.2000078 0.16937937 -0.021618199 0.08974436 -0.15804046 -0.004408347
0.037119683 -0.071331516 0.0064536342 -0.19670914 0.118273914 -0.12646195 -0.13476485 -0.09132942
0.18465178 -0.16264306 0.061673775 -0.015318016 0.271575 -0.045474727 0.038898505 -0.2245736
-0.049621023 -0.0027210899 0.11821111 0.20701829 0.43608388 -0.06226525 0.33756632 0.2543064
-0.1426391 0.03741452 -0.16936243 -0.29003823 -0.014424908 0.008596575 0.22562172 0.13696015
0.14687493 -0.005252206 -0.25636607 -0.12276212 0.06803541 0.05984935 0.07534785 -0.015498327
0.015994849 -0.07477977 0.06539724 0.07668759 0.08437818 0.034936648 0.09301059 -0.08500499
0.10551814 0.07028289 0.06679199 -0.064170174 0.092889465 0.10806282 0.21222375 -0.15270895
0.017066065 0.11451876 0.079884864 0.023648985 -0.010649807 0.012451135 0.1426286 0.10258251
-0.057902597 -0.12325998 0.048702784 -0.05045655 -0.012006734 0.08683866 0.12697147 0.071113564
0.1520401 -0.039685372 -0.10573868 0.17907979 0.04085812 -0.022671806 -0.017221496 0.047739062
0.29418957 0.12215898 -0.08780506 -0.19111593 -0.070547506 0.15382324 -0.25046217 0.105365746
-0.02229643 -0.0816006 0.1845592 -0.062101528 0.27533242 0.2148028 -0.022940006 0.049973503
-0.1573491 0.098191604 0.16118892 0.15962653 -0.099399164 -0.053469356 0.07781076 0.08629536
0.09728531 -0.042908393 0.14395227 0.18074511 0.21011293 -0.049311027 0.34817293 -0.036753513
-0.18693417 -0.03159625 -0.10332032 -0.036479704 0.3178183 0.08277996 0.0958573 -0.06948194
-0.08378798 -0.08068696 -0.089602575 0.13125408 -0.09899894 -0.09480852 0.09100915 0.06221767
0.08525286 -0.018787887 0.098115556 0.15543501 0.071109414 0.018610232 -0.03078891 -0.033557177
-0.01735964 0.038342096 0.04247493 -0.04065287 0.1136459 0.064436324 0.12469566 -0.051372956
0.08077664 -0.014982248 -0.07123319 -0.18736497 0.29433823 0.14808159 -0.06834281 0.093866706
0.10850162 0.009467461 -0.016673017 -0.12346403 0.0388319 0.18708278 0.1315208 -0.16456613
-0.39303792 0.12153497 -0.08124099 0.20498769 -0.036732513 0.14749928 0.03726283 -0.05137834
0.051485874 0.07852424 0.11721449 -0.020138264 0.0019304752 0.04820013 -0.1156892 0.096521325
-0.23595846 -0.13831204 -0.034006793 0.12212536 -0.18303409 -0.12830582 0.267081 -0.15479389

bias f4 [64]
00000000: d93e 1b3e ae92 e43c 081c 16bd e0cf 033d
00000010: 9cac 86bc 94ba 403d c61d 993d 3184 52bd
00000020: 3087 833d 3a87 e63c c71c 8fbd e711 243d
00000030: 0c30 a23d 3337 80bd ffa7 ab3c 1d08 553d
00000040: d9b0 0d3e 0f62 7d3d f4f7 9abd d2c8 58bd
00000050: 23b0 e3bc 9519 a03d 3aec 8f3d ec09 103a
00000060: 0a81 8fbd f8b1 0abe 6149 77bd 432a 843d
00000070: d432 6ebd 5f03 30bc eb23 003d f539 1ebd
00000080: a4ff 24bd 6b79 0b3e d644 87bd c2e0 8c3c
00000090: f187 ed3d 8994 ce3d bd72 c1bd be50 a6bc
000000a0: af9e f6b6 f6f3 eabd fac3 903d 9fae 9d3d
000000b0: 9177 49bd b701 5dbd 693f 7fbd 6e05 763d
000000c0: 1713 3f3b e0fa 03be 81be 78bd ee05 433d
000000d0: 9e6c 9cbd 6567 9ebd 4167 b0bd 793d b4bd
000000e0: 24f9 873d 12a4 5c3d f1bb fc3d e8a0 6ebc
000000f0: 1dac 453d a734 d2bd e9a9 17be f3a4 fe3d
0.15160693 0.027901974 -0.036647826 0.032180667 -0.016439728 0.047052935 0.07476382 -0.0513956
0.06422269 0.028140653 -0.06987911 0.040056136 0.079193205 -0.062605284 0.02095413 0.05200969
0.13836993 0.061861094 -0.075668246 -0.052925892 -0.02779395 0.078173794 0.070274785 0.00054946425
-0.07007034 -0.13544452 -0.060372714 0.06453373 -0.058153942 -0.010742991 0.031284254 -0.03862949
-0.04028286 0.13620536 -0.06604926 0.017197017 0.115981944 0.100869246 -0.09445713 -0.020302173
-7.3498445e-06 -0.11472313 0.070686296 0.07699322 -0.049186293 -0.053956714 -0.062316332 0.060063772
0.0029155666 -0.1288867 -0.060728554 0.047613077 -0.076379046 -0.07734565 -0.08613444 -0.088007875
0.06639317 0.053867407 0.123405345 -0.01456473 0.048259843 -0.10263949 -0.1481091 0.12433805

weight_ih_l0 f4 [256, 64]
00000000: 131e 403e bb9d cd3e 5bfb 1fbd f753 073e
00000010: b1cb 033d 5409 2e3d 1a3c b33d bce3 d93e
00000020: a753 1bba a594 afbc 77a5 ec3d f5ca a6bd
00000030: 1d5b f33d 9b82 91bd 6b96 8abd 5425 ff3c
00000040: d59f f43c 6156 113e 78e3 233d 48cb 9c3e
00000050: c6a0 87bd f2d5 9e3c c0aa 1a3e 73dc 92bd
00000060: e119 1dbd 6f91 133e 201a 153d 3bc9 283c
00000070: 27b8 543e 58a7 f0bd e502 ea3d 63a6 05bd
00000080: f034 02bb 7c71 8a3e 6cf7 1c3d a5d4 1f3e
00000090: 6183 0abc 64ee 0abd 9051 1c3d ef30 62bc
000000a0: 1887 e4bd b9f0 8cbc ef77 c83d 5a15 91bd
000000b0: 6b1b 7e3d f81f c03c 0011 b13e c26c 213e
000000c0: 9224 5e3f 577f 17be 0a6c 373d 8625 6ebd
000000d0: a371 893d dc38 79bd 1a1d 25be ae0a 943d
000000e0: 0bc4 b9bc 8b4a 2abe da71 333d 6a5d f53d
000000f0: 0e26 ff3d 2770 1c3c 65aa bbbd dc28 a63b
00000100: f205 eb3d 10c6 513e d6a3 25bd a4e5 113e
00000110: a092 18bd e0e5 c53d a3e0 8ebd 9114 dfbd
00000120: 2724 fcbc c0d7 acbd 05d4 103d cfa6 303d
00000130: afc0 83bc 43b5 403d 02e5 0c3e 531b 9f3b
00000140: 0aaa 09bd 7b67 9c3c 49de 4bbe f120 d03e
00000150: e24f c23d a29f e53d 61e1 1e3d 96f6 c83d
00000160: edeb 32bb 1099 c93c 2240 5f3d 5673 bbbd
00000170: d8b8 09be 4a19 003e d3b8 0d3e c3cc 363d
00000180: 20c8 1dbe 88c5 03bd 4255 63bd 1f20 e83d
00000190: 6102 9a3d d3aa e6bc e909 f3bd c095 483d
000001a0: 6dc9 613d d649 c33d 20e2 213e 1265 b1bc
000001b0: 678a e53d 502c b13d fa01 63bd fd4d 993d
000001c0: a98e 9dbe b7a0 41bd e49e 9cbd 134a 95bd
000001d0: 8a74 11be 1540 86bd 94e9 0b3d 4678 4a3d
000001e0: cac8 67be ae26 1ebd e21f 48bd 87ee 103e
000001f0: 6398 5abb c749 2dbe 4146 02bd 4234 b13d
00000200: 001c 1c3e 7a5b afbe 4fd1 2b3e efd6 71bd
00000210: 7227 b13d 40ac de3d f1ff 733d 43a5 36be
00000220: 39f7 99bd 9490 e5bd 340a 93bc 4bca 013e
00000230: f9dc 033e 242f 5c3c d2d6 babc fc22 4bbd
00000240: 0a66 d43d d4c9 403d bd23 a5bc 0d75 b5be
00000250: eac0 b3bd a506 eabc 7a94 e33c 13c6 df3d
00000260: cbd3 99bd 3671 3fbd 9788 fd3d c177 103e
00000270: 60b5 9f3d 288b 0c3e e913 063e cb51 c73d
00000280: 79c8 3c3d a8be 0e3d f480 fc3d 9a99 233e
00000290: 6a73 903c 6f12 2dbd 0dc5 0cbe 18e2 113e
000002a0: 14eb 873d 22d1 a3bc 3d9b c7bd d596 7f3c
000002b0: 0fce afbc 9290 213e 40c8 293e 0cca df3c
000002c0: b2eb b73e fa2b c23b bce3 00be b625 41bd
000002d0: ead7 f8bb f89b c93c 6b96 5d3d 6e48 983d
000002e0: 29da c2bd d544 513d d95e 413c 0288 5ebd
000002f0: c3ec 243e 3993 80bd 65dc 58bd 0bc6 38bd
00000300: bf2e b33d 2b5e dc3e 2072 583e 83f7 863c
00000310: 35ba db3c 9a6b 2dbd 04cf 6c3d 6d3a f13e
00000320: 7781 58bd b168 e9bd c712 993e cece d53d
00000330: 4389 173e 4058 18bd 30b4 42bd b1f9 79bc
00000340: cb43 433e af7f 4b3e 6c01 0cbe c9fd 1abe
00000350: c042 32be 9794 583d 906d 793d a320 d23d
00000360: d3f6 2b3d 003e 37bd 3a22 273d 95d5 093e
00000370: d48a 2a3d 5d05 4d3d ca98 fa3c 03f1 323d
00000380: 75ad 2fbe 1def 4f3f ac09 833c 1651 babc
00000390: 950a efbc c01c 9e3c 3174 09bc 8237 0a3e
000003a0: 04f3 293d f6af d83d b266 363d 303c 35bd
000003b0: cc74 0b3d bbb9 0e3e 578e ed3e 6df2 5cbd
000003c0: af50 a53e 679b acbc c4a5 b8bd e5b8 893c
000003d0: 39a9 85bd 63cb 9a3c 2869 30bd 7d10 003e
000003e0: 53e4 ae3d 1f8f 0bbe 9e5b 243e d6c9 01bd
000003f0: e7c1 ef3d 31ca 19be 91f8 15bd 159c 933e
0.18761472 0.401594 -0.03905807 0.13215624 0.032176677 0.042489365 0.08751698 0.4255656
-0.0005925246 -0.021433184 0.115549974 -0.0814418 0.11882613 -0.07104989 -0.06766971 0.03114573
0.02986137 0.14193107 0.040011853 0.3062384 -0.06622462 0.019389126 0.15104198 -0.071709536
-0.03835476 0.14410947 0.036401868 0.010301883 0.20773374 -0.11750668 0.11426333 -0.032629382
-0.001986798 0.27039707 0.038321897 0.15608461 -0.008454175 -0.033918753 0.03816372 -0.013805612
-0.111585796 -0.01720463 0.097885005 -0.070841506 0.062037867 0.023452744 0.34583282 0.15764144
0.8677455 -0.1479467 0.04478077 -0.058141254 0.067111276 -0.06084524 -0.16124383 0.072285995
-0.022676488 -0.16629998 0.04380975 0.11980708 0.1245843 0.009548224 -0.091633596 0.005070789
0.11475743 0.20485711 -0.04043945 0.14247757 -0.037249207 0.09662986 -0.0697644 -0.108925946
-0.030778958 -0.084395885 0.035358448 0.04312783 -0.01608309 0.047047865 0.13759235 0.004855552
-0.033609428 0.019092312 -0.19909014 0.40650132 0.09487893 0.11212088 0.038789157 0.098126575
-0.0027301267 0.024609119 0.05450452 -0.09152858 -0.13449419 0.12509647 0.13840036 0.04462887
-0.15408373 -0.032170802 -0.05550123 0.113342516 0.07519985 -0.028157627 -0.118671246 0.048970938
0.055123735 0.095355675 0.15808916 -0.02165464 0.11208039 0.0865103 -0.055421807 0.07485578
-0.30772904 -0.04727241 -0.076474935 -0.07289519 -0.14204612 -0.065551914 0.034158304 0.049431108
-0.22635189 -0.038611107 -0.04885853 0.14153491 -0.003335499 -0.16922675 -0.03180528 0.086525455
0.15245056 -0.3424948 0.16779064 -0.059042867 0.08650102 0.10872698 0.059570257 -0.1783648
-0.07517857 -0.11209217 -0.017949201 0.12674825 0.12877263 0.013438974 -0.022807512 -0.04959391
0.10371025 0.04706748 -0.020158643 -0.35440865 -0.0877703 -0.028567621 0.02778076 0.109264515
-0.075110994 -0.046738826 0.12379568 0.14108182 0.077982664 0.13724959 0.13093533 0.09732398
0.046089623 0.034849793 0.12329283 0.15976563 0.017633159 -0.042253908 -0.13747044 0.14246404
0.066366345 -0.019997183 -0.09746406 0.015599926 -0.021460561 0.15777805 0.16580296 0.027318023
0.3592201 0.0059256526 -0.12586874 -0.047155105 -0.0075940983 0.024610505 0.054098528 0.0743569
-0.09514267 0.051091034 0.011802399 -0.054328926 0.16105942 -0.062780805 -0.05294456 -0.045110743
0.087491505 0.43040594 0.21137285 0.016475445 0.026822189 -0.042338945 0.057814613 0.47114888
-0.052857842 -0.113969214 0.29897138 0.104398355 0.14798455 -0.037193537 -0.04753512 -0.015257285
0.1906883 0.19872926 -0.13672417 -0.15135874 -0.17408276 0.05287608 0.060895503 0.10260131
0.041983437 -0.044736862 0.040804125 0.13460381 0.041636303 0.050053943 0.030590434 0.043686878
-0.17156012 0.8122423 0.015995823 -0.022743743 -0.02917985 0.019300818 -0.008389519 0.13497737
0.041491523 0.10580437 0.04453153 -0.044246852 0.034046933 0.13938038 0.4639766 -0.053942133
0.3228812 -0.021070195 -0.09015992 0.016811797 -0.06526417 0.01889581 -0.043069035 0.1250629
0.08539643 -0.13628815 0.16050574 -0.031686626 0.11706906 -0.15018536 -0.036614005 0.2883002

weight_hh_l0 f4 [256, 64]
00000000: f55b 243d 7502 0f3e 71c7 b53c f3ea fdbd
00000010: 43e6 d63d 9ae5 63bc c3c6 413d eac9 c6bd
00000020: e44d 2ebd 8d0f bd3d fb44 dfbd fce7 b73d
00000030: f48e 083e 373d 08bd 4fb0 a8bd 9d24 1ebc
00000040: 9cb0 c9bd a98a fe3d bb61 babd c560 573c
00000050: 40a0 eabd eab4 10bd d662 e9bd d55e 223d
00000060: f2b5 893d 0967 a1bd 586d dabd f8d8 d43d
00000070: 76e2 44bd 6583 47bd d113 95bd 806a 283d
00000080: cb48 343d 28ab 9c3d bcbd 053e 9997 6bbc
00000090: 75fd c9bd 54c3 06be dae2 bfbd 2ffa 7d3d
000000a0: c948 c13d 76b4 1d3d 8c2f c1bd 891f 053b
000000b0: bea5 c73d 8cf5 97bd 6819 e23d eb98 ccbd
000000c0: 1b4c 10bc fcd9 0dbd 7772 1c3e 17cc ecbd
000000d0: 9e72 b8bc 494c 153d 6ba6 c23c 7822 153c
000000e0: 8bf5 b2bd 8545 8bbd 5736 073d 30aa 91bd
000000f0: a8f4 babd 609e fc3d 3ee9 a33d c894 4e3d
00000100: 6ef7 4dbc 24ce 063c a4bf bebd 8c54 abbd
00000110: 08bd 7b3e c81a 83bd 26a5 6fbd ccd7 33be
00000120: 6d20 86bb 86a9 df3c bf78 80be 859a 7dbd
00000130: 5d71 863c 03d9 ea3c d2e3 cebd b88d a0bd
00000140: 97e1 42bd 1aa0 9f3d f41b 79bd c6d1 96bc
00000150: 273e 83bc 3499 9d3d f682 19bb 9ea5 68b8
00000160: 97fd 60bd 0158 f4b9 f77e e9bc 1b56 9b3d
00000170: 15f4 91bd c1fd a7bd f9f6 8bbd 5e62 923d
00000180: acf8 52bd 9995 b1bd 2913 bc3d 23cd fd3d
00000190: 44e9 b83d daf4 65bd d724 83bd c71c 543d
000001a0: a5af 6a3d 4ecd 7e3d 5fbb c63d 1987 be3c
000001b0: 7ac1 6fba 7440 26bd 3867 59bc 1ebf adbc
000001c0: a311 b03c 63a5 ac3d cced da3d 9136 723e
000001d0: 0bb0 b4bc 24e3 94bc 5d7d 373d 32f5 353e
000001e0: 5f2e b1bd e162 82bd 6f56 e73c 3b45 e63c
000001f0: 60c2 5e3d a033 8b3d 410e d9bd 62ea dd3c
00000200: 65a0 c4bd b36a 883d af68 903d 68d8 c0bd
00000210: 7ab1 e9bc 5241 bd3d 99e5 af3d 7087 cc3c
00000220: 9416 f73c bb51 0bbe 1a7c c0bd 0cb7 0f3e
00000230: 2c0e 6ebc 25f2 c3bd 11a9 06be 434b da3b
00000240: 5e37 adbc e3be 0b3e 5ec0 d83d 3eaa 8b3d
00000250: 9428 ebbd 4b6a af3b 8ef8 83bd 89ae c53c
00000260: 97fb 7ebd c7c7 9f3d 9c59 2f3d dbd7 b13d
00000270: 549d 053e 4452 a73d bb99 033e 8db3 8abd
00000280: d860 b1bc 98cb 8e3d dc88 af3c c2ab 16be
00000290: e1d3 c1bd 4167 5bbc d57b 013e 9b86 c63d
000002a0: 173c 5a3d 2e55 b93d 5520 7c3d 7de2 5e3c
000002b0: dfb7 9d3d 9d70 d8bd 61fb bc3d 4e1c 28bd
000002c0: ba30 0f3e fc28 5d3d 40df 39bd be33 6f3d
000002d0: ed03 92bd 2289 37bc 80f0 c4bc dba1 463d
000002e0: 7377 c43c a706 2a3d 975b 21bd d8a2 123e
000002f0: af22 a03c 3e42 b4bd e9e2 8dbd 7540 12be
00000300: e2ba 7b3d dc4e 96bc 222b d7bd 36ed 00be
00000310: f619 80bd 7927 643d 898f 9abd e67c 213e
00000320: 6763 a7bd cc6f f43c 91b5 a0bc 2aa5 87bd
00000330: 91cd 0f3e 8517 ca3d 6216 7e3d 7461 a9bc
00000340: 9fc4 81bc 7e2d 173e c92e 153e 7433 8d3b
00000350: 51bf fabd 9755 abbd e592 2abd 605b 863d
00000360: 2775 a23d f525 8b3d 20fb 1abe 8c57 8ebb
00000370: b2a1 7e3d 1089 063d a807 e3bc 34d0 ab3d
00000380: 0bf6 9d3d 601a adbd 97e9 c03d dae1 883d
00000390: decc babd e4ad e8bd 5efa 203e 2216 b5bd
000003a0: 403a 893d 1211 5c3d 94b3 563d 59df adbd
000003b0: 5518 203e 8fbe c7bd bdbe 303d 61dd 113e
000003c0: 5b1c 0d3e 9a55 a63d fad0 a4bd d18c d0bc
000003d0: ca3b bcbc 7c3d 133e ea68 bc3a fb53 6c3c
000003e0: f8fd a83d 78df 94bd baa2 0e3e 2aec 203e
000003f0: 5e19 1d3e 02d4 313d e131 5cbd dc2b 2dbc
0.04012676 0.13965781 0.022189828 -0.12398329 0.10493138 -0.013909722 0.047308695 -0.09706481
-0.04255475 0.09231482 -0.10901829 0.089797944 0.13335782 -0.033261504 -0.08236753 -0.009652284
-0.09848139 0.12428791 -0.09100672 0.01314563 -0.114563465 -0.035328783 -0.113958046 0.03964122
0.067241564 -0.078809805 -0.10665387 0.10392946 -0.048067532 -0.048709292 -0.0727917 0.04111719
0.044014733 0.07649833 0.13060659 -0.014379405 -0.09862796 -0.1316045 -0.093694404 0.06200617
0.09437711 0.03850218 -0.09432897 0.0020312986 0.0974841 -0.07419881 0.11040002 -0.09990104
-0.008807207 -0.034631714 0.1527804 -0.115623645 -0.022515591 0.036449704 0.023760995 0.009102456
-0.0873824 -0.06800369 0.033010807 -0.07112539 -0.09128696 0.12334895 0.08003472 0.050434858
-0.012571199 0.008227859 -0.09313896 -0.083657354 0.24583828 -0.064015925 -0.058507107 -0.17562789
-0.004093221 0.027302515 -0.25092122 -0.06191494 0.016411478 0.028667932 -0.10102047 -0.07839531
-0.04757842 0.07794209 -0.060817674 -0.018410575 -0.016020847 0.07695237 -0.0023424006 -5.5467353e-05
-0.054929342 -0.00046604875 -0.028502924 0.07584783 -0.07126633 -0.082026966 -0.06834216 0.07147668
-0.051506683 -0.086711116 0.09183342 0.12392642 0.09028867 -0.05614171 -0.06403511 0.051785257
0.057296414 0.062207513 0.09703707 0.023257779 -0.0009145957 -0.04058881 -0.013269238 -0.021209296
0.021492785 0.084299825 0.106898874 0.23653628 -0.0220566 -0.018174715 0.04479729 0.17769316
-0.08651423 -0.06366516 0.028239457 0.028109184 0.05438459 0.06796956 -0.10598422 0.027089301
-0.09600905 0.06660976 0.07051217 -0.09416276 -0.02852701 0.092409745 0.08588714 0.024966925
0.030162133 -0.13605396 -0.093986705 0.1403467 -0.014529746 -0.0956767 -0.13150431 0.006661804
-0.021144565 0.13647036 0.10583566 0.068195805 -0.11482349 0.0053532473 -0.064438924 0.024131076
-0.062251654 0.078017764 0.042810068 0.08683749 0.13048297 0.08169988 0.12851612 -0.06772528
-0.021652624 0.06972426 0.021427564 -0.14713958 -0.09464241 -0.013391317 0.12644894 0.09693643
0.053279962 0.0904945 0.06155427 0.013603804 0.07701086 -0.10568354 0.09227634 -0.04104262
0.13983431 0.053994164 -0.045378923 0.058398955 -0.07129655 -0.011202129 -0.02404046 0.0484942
0.02398274 0.04151025 -0.039393988 0.14319932 0.019547788 -0.08801697 -0.06928045 -0.14282401
0.061457522 -0.01834815 -0.10506274 -0.12590489 -0.06254952 0.055701707 -0.075469084 0.15770301
-0.08173256 0.029838465 -0.019617828 -0.066232994 0.14043261 0.09867767 0.062033065 -0.020676352
-0.015840827 0.14763448 0.14568628 0.004309112 -0.12243522 -0.08365934 -0.041643996 0.06560397
0.07932501 0.06794349 -0.15134859 -0.0043439325 0.062165923 0.032845557 -0.027713612 0.08389321
0.077129446 -0.08452296 0.09419554 0.06683703 -0.091211066 -0.11361292 0.15720508 -0.08842112
0.067005634 0.053727217 0.052417353 -0.08489866 0.15634282 -0.09753143 0.043150652 0.14244606
0.13780348 0.08121796 -0.080476716 -0.025457771 -0.022977728 0.14378923 0.0014374529 0.014424319
0.08251566 -0.07269186 0.13929263 0.1571509 0.15341708 0.043415077 -0.053758506 -0.010569539

bias_ih_l0 f4 [256]
00000000: 8847 263d f3d2 c43d 8eaa 87bd 4010 133d
00000010: 151b 2a3e f1cf c4bd 50ff 363c 5c0e 07bb
00000020: 66d1 583d c31d 40be 6927 d23d 7577 e53d
00000030: 373a 0d3d ef98 213d c1b2 893c 0206 153e
00000040: 4cc8 65bd 3966 b23c f98c 53bd 6fcd 0a3e
00000050: 2378 003e 6d19 0c3e 5772 c0bb f16e 4a3b
00000060: c4a6 7abd 7baf d93d a1d0 b4bd 5d2b ee3d
00000070: ef91 c13d ed44 0fbe cc3e 01bd d14b afbb
00000080: 4abb 103e b8d7 81bd 2f13 afbd 8ef3 0b3d
00000090: aeb0 8d3d 5e10 b83d 2bf0 0d3e 540d 9d3d
000000a0: 1022 da3d 8ee7 c03c cf05 11bd 1feb c63d
000000b0: 7b36 5f3d dc8b 8a3d fa8c 10bd 1dcc 073e
000000c0: 3af1 bbbd 94b6 7bbd 9928 013c bd3c 883d
000000d0: 8d02 103e eb7b 98bc aa10 4d3a 5407 dbba
000000e0: e6b2 c33d e7d1 2739 ed16 b43d e3b8 a83d
000000f0: ece9 0bbd ebd9 193e 4476 063e bf7d b63d
00000100: 0fb3 dcbc f711 0e3e 282e 1d3e ed01 f83d
00000110: 0f9e 6dbd 713c d53c a8d7 0f3e 4e1d c3bb
00000120: 10f7 d037 f87b 6dbc 8e33 793d be63 9b3d
00000130: 8789 9f3d 7845 91bc 7a87 21bd 57d6 8fbd
00000140: 2017 b5bd 1ba9 803d e1a7 fb3d 7d11 43bb
00000150: fe45 93bb 7115 f8bc 35ee 493d 1b41 963d
00000160: 20ca f33c 59a1 133e 0cce b23d 50f9 92bd
00000170: 96f5 0bbd a2eb b2bd 1c2e 7bbd a729 ce3c
00000180: 8afd de3d d12b 943a 9ccb 09be 2051 e83d
00000190: fdb4 bd3d ab91 c9bd b614 ffbb e8f0 86bd
000001a0: aed7 b93d ed13 c639 55a8 563d 9504 1abe
000001b0: 9a42 aabc a0de a4bd 4bfc c73d 8a72 e73d
000001c0: b3df 85bd 54e0 f73d 37f0 1c3d c918 163e
000001d0: 604f 193e 4b27 cf3c c48e aa3d e8e4 afbd
000001e0: 2b8c db3d ab5d 583d 0e10 0b3e 8f9f c73d
000001f0: 351c 0dbe 8d41 dbba 8394 48bd e1db 37bd
00000200: 5aa7 05be 3df0 a73d 49c3 70bc df9f 01bd
00000210: 0f42 e23d e52f 8ebc 8312 8abd 3ebf 50bc
00000220: 0e0e 77bd 7a3a ba3d 2a9b 3f3c 6872 ae3d
00000230: 6f7e e43d 294f bc3d f12a ffbd 6f58 57bd
00000240: 2d78 e33d 2232 06bd 71ca 9f3c cef3 f6bc
00000250: 6c2d 04be 2981 a3bd b4ce 0ebd d55e 9dbd
00000260: f006 eb3c 5c00 da3d b7e4 acbd 6c7d f9bd
00000270: 78fb 133d e84b aa3d a4c0 0e3e d658 e5bd
00000280: b8f6 f5bd 19e0 4abd 0e1a 393d d4cb b2bd
00000290: 2138 15be 9c4f 01bd 7554 9f3d e09a 78bc
000002a0: 1098 593d 4d8b 2bbd 256e 80bd c3ba 7f3d
000002b0: 24ec e53d 3956 f5bd bfea 85bd 6ae4 043b
000002c0: 1187 de3d 4949 b4bc 74fa b53d f846 d1bd
000002d0: 8700 983d a20b b73d a33f 18bc 7da1 883c
000002e0: f837 1e3e 0325 923d 97a1 003e 19f9 923d
000002f0: e33c b73d 7c33 a83c 82a7 143e 0144 0abe
00000300: 46bd b83d d8d2 b7bd 437f 963d dbb1 f33d
00000310: 752b a13c 5170 643d 4bbe a8bd 00ca b93d
00000320: 462b 21bc 67b1 a13d e215 383d 06b8 9a3d
00000330: 2a39 a3bd ba1f b93d 8ca7 fbbd 446b 563d
00000340: 0bc9 ec3d bb12 1b3e cd65 213d fa19 56bc
00000350: e3b2 bf3c ce08 4e3d ed5a a83c ce97 073e
00000360: 90b0 2bbe 5fd2 03bd d219 0a3e ec41 7c3d
00000370: 9bb6 283d 929c 0ebe 4a4c f9bc da25 be3c
00000380: ba24 d9bd 7ec3 9c3d 0b5a 9abd 3191 98bd
00000390: b4a0 543d f528 ea3d 0b79 38bd ddcc 8fbb
000003a0: ff73 983d 5e8d 953c 40b5 bc3d a373 34bb
000003b0: 782f bbbc 5ddb 093e 639f 30ba da69 1e3d
000003c0: 22c9 193d 4c95 1f3d 2148 633d 227b 49bc
000003d0: b57a 173e 682a c53d a2ea bf3d f63e f23c
000003e0: 8c4d 20bc 2827 87bd 2883 a93d 3212 76bd
000003f0: 2138 063d 041a 833d ae31 9c3d c489 533d
0.04059556 0.09610548 -0.066243276 0.03590417 0.16611893 -0.09609974 0.01116927 -0.0020607924
0.052934073 -0.18761353 0.10261423 0.11204425 0.034479346 0.03945249 0.01680887 0.14553073
-0.05609922 0.02177726 -0.051648114 0.13554929 0.12545829 0.13681574 -0.0058730054 0.003088888
-0.061194196 0.10629173 -0.08828855 0.11629365 0.09451663 -0.13991137 -0.03155403 -0.005349614
0.14133945 -0.06339973 -0.08548581 0.03416782 0.069184646 0.08987497 0.13861148 0.07668558
0.10651028 0.023547914 -0.03540593 0.097128145 0.054495316 0.06764957 -0.035290696 0.13261457
-0.0917687 -0.061453417 0.007883214 0.0665221 0.14063473 -0.018613776 0.00078226125 -0.0016710558
0.095556065 0.00016004556 0.08793435 0.08238389 -0.034158632 0.15024535 0.13131052 0.08910703
-0.02694085 0.1387404 0.15349638 0.12109742 -0.058012065 0.026029797 0.1404711 -0.005954421
2.491058e-05 -0.0144948885 0.060840182 0.07587384 0.07789903 -0.01773332 -0.03943584 -0.07023304
-0.08842301 0.06282254 0.1228788 -0.0029765062 -0.0044944277 -0.030283662 0.049299438 0.07336637
0.029759467 0.14417018 0.087307066 -0.07176459 -0.034169756 -0.0873635 -0.06132327 0.025166346
0.108882025 0.0011304562 -0.13456577 0.11343598 0.092630364 -0.09842237 -0.0077844514 -0.06588918
0.09074341 0.0003778035 0.052406628 -0.1504081 -0.020783711 -0.08050275 0.09764918 0.113011435
-0.06536808 0.12103334 0.038315024 0.14657892 0.14971685 0.025287291 0.08328012 -0.08588582
0.10720094 0.052823704 0.13580343 0.0974723 -0.13780291 -0.001672791 -0.048969757 -0.044887427
-0.13052121 0.08200119 -0.014694997 -0.031646606 0.11047756 -0.017356822 -0.06741812 -0.012740908
-0.060316138 0.09093185 0.011694709 0.08517915 0.11156928 0.09194786 -0.12459362 -0.05257457
0.11106906 -0.032762654 0.019505711 -0.030145552 -0.12907952 -0.0798362 -0.034865096 -0.076841034
0.028689831 0.106446 -0.084420614 -0.121821254 0.03612849 0.08315259 0.13940674 -0.11198585
-0.120099485 -0.049530122 0.045190863 -0.087302834 -0.14572193 -0.031570062 0.07779781 -0.015173644
0.053123534 -0.041880894 -0.062710084 0.06243397 0.11226681 -0.11979336 -0.06538915 0.0020277747
0.108656056 -0.022007601 0.08885661 -0.10218614 0.074219756 0.08937766 -0.009292516 0.016678566
0.15451038 0.07135966 0.12561642 0.07176418 0.0894716 0.020532362 0.14517024 -0.13502504
0.09020476 -0.08975762 0.07348492 0.118991576 0.019674042 0.055771176 -0.082394205 0.090717316
-0.009836977 0.07895165 0.044942744 0.07554631 -0.079698876 0.090392545 -0.122878164 0.05234839
0.115617834 0.15143864 0.039403725 -0.013067717 0.02340073 0.050301366 0.02055117 0.13241503
-0.16766572 -0.032183047 0.13486412 0.061586305 0.04118977 -0.13926914 -0.030431885 0.023211408
-0.10602708 0.07654475 -0.075367056 -0.07449568 0.05191107 0.11433593 -0.04503731 -0.0043884353
0.074439995 0.018255886 0.09214258 -0.0027534745 -0.022849783 0.13462587 -0.00067376177 0.038675167
0.03754533 0.03896074 0.05548871 -0.012297424 0.14792903 0.09627229 0.093709245 0.029571038
-0.009784114 -0.06599265 0.08276969 -0.060075946 0.032768372 0.064014465 0.07626663 0.051645055

bias_hh_l0 f4 [256]
00000000: 2c46 8a3c 87e5 05bd 83ee 233e 94ed 213e
00000010: 090c f9bc b621 02bd 62d2 e53d 14b6 e23d
00000020: a843 08be c0df afbd e01b 253e 4fd7 0e3e
00000030: acb7 13bd 8f44 ccbd 766a 83bd 5de4 98bd
00000040: 8f96 ed3d bc04 ec3b 9b31 86bd 2de8 cf3d
00000050: c0fd 85bd c226 75bc 1023 303d 61a9 bbbc
00000060: 424c 88bd 4010 323d f2a6 643c 5f01 d53d
00000070: 96bc ff3d 609f 40be 9baa 643d 461e fe3d
00000080: be14 9e3d c3ee 113e 24d2 473d dbe8 673d
00000090: 1a71 a8bc 9e91 e63d 01d8 053e 13da a23d
000000a0: 51ef 173e 51c1 b13d 5d01 0ebd 72cd e7bb
000000b0: 6153 8bbd 1f4e 84bc 93fc e23d 929b df3d
000000c0: a65e b73d b74e 2dbd 8bee e23d 3b48 d73d
000000d0: 8a2c d43d c539 303e b62a 073e a9f2 1fbb
000000e0: 597b 67bd a03d d73d 72dc 1f3e 4e14 abbd
000000f0: 4ed7 ad3d 1d8a 9a3d 67c5 9abb 1f15 be3d
00000100: 16e9 093e f2c4 bcbd 122d 003e bc6a 6abd
00000110: 7c07 a9bd 1fd4 d7bc 6db0 e83d 59ae a43d
00000120: 1cfb 25bb c0ed 8ebd bcf0 4ebd 8ce9 d23a
00000130: 7aa1 8bbb 9793 44bd c1d9 093e 9d7a b4bb
00000140: e8d9 f03d 5859 c2bd 07a0 fe3d 978a b73c
00000150: 7d1b 123e ac96 bfbd d1f5 a3bb 99cf c73d
00000160: f1d4 8a3d fc85 80bd 10cf 22bd 07f6 983d
00000170: 1cb6 6e3c 6fd3 08bd c1c2 123e de08 6f3d
00000180: f5a8 883c fe2f fb3d 055c 19be ccaf aa3d
00000190: 9947 913d 586c 793d ea6c 61bd 5591 9d3d
000001a0: 1aa8 4b3d 6ef5 a53d 20d7 b13c a8d5 c8bc
000001b0: 2217 e5bd f0b5 9fbd e5aa e3bd 41fa 943c
000001c0: 4207 983b bfb9 0e3e 1a41 9c3d 14cc ae3c
000001d0: bda4 993d ff1d 5dbd d57a 2b3d d146 3c3d
000001e0: dd9f 953d daa6 7f3d 765e a83d 5876 023e
000001f0: 9c50 8cb8 41cd 243e 3b4a 7b3d 3c2b f13d
00000200: a99c c9bd 3f3c a53d d53e dbbd 43d4 68bd
00000210: 17df 103e c0dc 893d c691 323d 33c7 e33d
00000220: b308 60bd 0846 5bbd 30b3 02bd 9633 52bd
00000230: 89e2 23bd 5751 12be bbb4 86bd 96ed 8ebd
00000240: 4764 2d3d 8026 033e fdc2 a73d 4259 8c3d
00000250: f0f7 1dbe 2ac4 3ebd 616c d23d f33c 1cbe
00000260: 1657 dfbd 53ac 163e 8855 a83d e03e 7ebd
00000270: 76cc ac3d 735f 18bd f864 fc3d 0034 e9bd
00000280: 496a 98ba e85e 4ebd 2329 da3d 6c98 d7bd
00000290: aefa 92bd a16d e33d f790 40bb cc2e 063e
000002a0: 838d 7a3d 30ef 5d3d 6dc4 043d e203 f93b
000002b0: b096 843d c012 1d3d df3a 82bd 1162 563d
000002c0: 1732 d1bd 594a 13be 923e 70bd 6e8a edbd
000002d0: bd85 c93d 8b21 a5bd 62ab b13d 6004 5a3d
000002e0: c424 073e 9010 773d da23 503d 43ad 1b3d
000002f0: e26f c63d 1409 73bd 5cd3 f93b 0109 513b
00000300: a5c8 c33c 1a35 9f3d c740 e1bb 35fd 1f3e
00000310: 381e 303d d440 d1bd cd69 0b3d 7efc 7ebd
00000320: 5b3c 873a 7dda 38bd dbf4 9c3d 01fb db3d
00000330: 1e12 763c b2e0 5dbd e9fd e83d d798 17bd
00000340: 0b4a 9f3d 2c93 a03d c432 fa3d aec0 6ebd
00000350: d3b6 5fbd 878e c73d 0b89 96bc ddb9 35bd
00000360: 8af1 38be 7e95 5fbd 5b0c 4f3c 4965 a73d
00000370: 74c2 7b3d 6385 6f3d fca2 d6bd e457 7c3d
00000380: 83ed 1a3b 347c 0fbd 0782 e63d f342 84bd
00000390: e775 ef3d c413 933d 5d21 983d 07a9 5a3d
000003a0: b110 f4bd 8900 653d 49bb 443d f6cb d0bd
000003b0: ec97 853d b7ea 113e c4e9 203e ca28 1b3e
000003c0: 34c6 163e 595e 2f3e d93f 843d 9bff f33d
000003d0: 07a6 0e3d 52c7 48bc 1a87 28bd 3c27 2e3d
000003e0: 2eba a43d b690 4bbc c6fd a83d a7d7 3a3c
000003f0: 55d0 19bd 94df 85bd d507 0b3e b6d7 9fbd
0.016879164 -0.032689597 0.16008954 0.15813285 -0.030401247 -0.03177043 0.11221768 0.11069885
-0.13307059 -0.08587599 0.16123915 0.13949321 -0.036063835 -0.09974014 -0.0641679 -0.07465432
0.116009824 0.007202713 -0.0655243 0.10151706 -0.065425396 -0.014962854 0.04300219 -0.022907915
-0.0665517 0.04347253 0.0139558185 0.10400652 0.12487142 -0.18810797 0.055826765 0.12408118
0.077188 0.14251237 0.04878439 0.056618553 -0.020561744 0.11258243 0.1307068 0.079517506
0.14837386 0.0867945 -0.03466927 -0.0070740515 -0.06803013 -0.016150532 0.11083331 0.109183446
0.089536 -0.042311396 0.11080655 0.10511824 0.10360058 0.17209537 0.13199887 -0.0024406111
-0.056514118 0.10509801 0.15611437 -0.08353482 0.08488332 0.07545874 -0.004723239 0.09281372
0.13467821 -0.09217252 0.12517193 -0.057230696 -0.08253381 -0.026346264 0.113617755 0.08041067
-0.0025326675 -0.06978941 -0.05052255 0.0016091331 -0.004261193 -0.047992315 0.13461973 -0.0055077807
0.11760312 -0.09489697 0.124328665 0.022404952 0.14268298 -0.0935491 -0.005003669 0.09756393
0.067788966 -0.062755555 -0.03974825 0.07468801 0.014569785 -0.033404764 0.14332105 0.058358066
0.016682127 0.12265013 -0.14976509 0.08334312 0.07093734 0.06089434 -0.05503551 0.076937355
0.04972086 0.081034526 0.021709025 -0.024515942 -0.11186053 -0.07798374 -0.1111658 0.018185737
0.004639537 0.13938044 0.07629605 0.021337546 0.075021245 -0.053983685 0.04186519 0.045965973
0.07305882 0.06241498 0.08221142 0.12740457 -6.690735e-05 0.16093923 0.06135009 0.117758244
-0.09844334 0.08068132 -0.10705344 -0.056843054 0.14147602 0.06731558 0.04359605 0.111219786
-0.054695796 -0.053533584 -0.031909168 -0.051318727 -0.040010963 -0.14288841 -0.0657744 -0.0697891
0.04233196 0.12807655 0.08191488 0.06852962 -0.15426612 -0.046573795 0.10274578 -0.15257625
-0.10905282 0.14714174 0.08219439 -0.06207168 0.08437435 -0.037200402 0.12323946 -0.11386871
-0.0011628355 -0.05038348 0.106523775 -0.10527119 -0.071767196 0.111048944 -0.002938328 0.13103789
0.061170112 0.054183185 0.03241389 0.00759934 0.06474054 0.03834796 -0.06358885 0.052339617
-0.10214632 -0.1438383 -0.05865342 -0.11598669 0.09839962 -0.080630384 0.08675267 0.05322683
0.13197619 0.06031853 0.05081544 0.038007032 0.09689309 -0.05933483 0.007624073 0.0031896236
0.023899386 0.077738 -0.006874177 0.15623935 0.04299757 -0.10217443 0.034036446 -0.062252514
0.001031767 -0.04513024 0.0766389 0.107412346 0.015018968 -0.054169364 0.113765545 -0.037010994
0.077777945 0.07840571 0.12216714 -0.058289222 -0.054617714 0.09743982 -0.018375894 -0.044366706
-0.1806089 -0.054585926 0.012637223 0.081736155 0.06146474 0.058476817 -0.104803056 0.061607257
0.0023640103 -0.03503056 0.112552695 -0.06458082 0.1169241 0.07181504 0.074282385 0.053383853
-0.11917246 0.055908713 0.04803017 -0.101951525 0.065231174 0.14249693 0.15714175 0.15152279
0.14724046 0.17125835 0.064574905 0.11913987 0.034826305 -0.012254553 -0.041144468 0.042517886
0.080433235 -0.0124246385 0.082515284 0.011403955 -0.037552197 -0.06536785 0.13577206 -0.078048155

weight f4 [60, 64]
00000000: cb7d b8bd ec41 cbbd 73a5 d83d a82b 133d
00000010: 41a6 1bbc 6f31 b63e ae32 2e3e fb5b bc3d
00000020: d96f 6dbe 5ccf 123e 469a 50be cd65 19be
00000030: 3e9c 69be afc1 4b3e 305f 8b3d 8575 9cbd
00000040: 8e9d 683d e09d 23be 78f0 563d 27ed 87be
00000050: 4ecc 313e 60b5 a6bc d0a7 94bd bff5 a4bd
00000060: e263 1abd f6da 5cbe 8b3b 413e 5e5f 3b3d
00000070: 9f4a ba3d bfbd 50be a64b 00be 2611 06be
00000080: 1703 893c ac05 bebd 4f6c 2cbd 75f7 d8bc
00000090: 76b7 f13c 9d3c 823e 5dc8 cbbd b33e 23bd
000000a0: 9e50 eabd 597c 98be aad8 78be cc95 82be
000000b0: c385 263c 71e2 c2bc 735b c5bc 282a 463e
000000c0: 1b97 b3bd a348 68be 3ec8 51be 23e2 153d
000000d0: 5ce4 883c de27 afbd 7be0 233e 6fd8 cf3e
000000e0: b3cb 653d f391 143d 5f45 2a3d 0664 01bc
000000f0: 2ce7 df3d a964 033e 098b 03be bfd2 193e
00000100: 2ec8 dabd e951 49be 421b 053e 6a08 223e
00000110: 5112 7a3e 3dbb 1ebe bfdd 04be 6fbf 9a3d
00000120: 365d 3cbd 16e6 00be 11d3 173e ab7a b7bd
00000130: 7cbe 98bc 5889 9d3d 8d96 3f3d 0b67 c63d
00000140: 4fe3 fd3c 1da5 b4bd 54a1 58bc f2ff 30be
00000150: d9c5 173e 97be 293e ecad 12be 42b9 213d
00000160: f002 03bd 638d 56be 2d6c c53d 36eb 7a3b
00000170: 4fb3 eb3b b091 0cbe f164 46bc d9dc b0bd
00000180: e898 b63d a82f 8d3c 441b 003d b514 8cbd
00000190: 234e 043e 7ca1 383e 8757 9ebd 8bed 0bbd
000001a0: 3c47 fabc efb5 053d e167 e73c c1f6 c9bd
000001b0: e2b3 80bd 04d8 79bc 3817 873d 23b0 d13a
000001c0: 14a1 313d c4f8 283e f3fb 47be 79d6 0a3d
000001d0: 7e9b 22be 280d 083e 3596 0c3e 042a 43be
000001e0: 8400 41be e9e6 81be 8aa5 49be 6e6e d63d
000001f0: c9d0 4bbe 8965 06be fc76 963d a513 a8bd
00000200: 72c6 0a3e c2b9 293e 4af7 bbbc 14a5 933d
00000210: 2447 5d3e ad59 63bd 63ff 07bd af1a 81be
00000220: fd8a 833e 8eee 37be e5dd 163d fad6 1d3e
00000230: 70e3 d43b e452 aa3d 9cd2 0e3d 2df8 c4bd
00000240: da60 003e a66e 293b 67dd a5bc 489f 89bd
00000250: cf07 f1bd 5bea 0cbe fc8e d93d 69a2 f2bd
00000260: 593c 313d df4b 7e3d d385 883d a2c2 13be
00000270: 589e 4f3d c640 403e fe56 383e 8d7a 6a3d
00000280: ca50 9ebd 2ae7 15be 7060 c8bb cf13 e43d
00000290: 6968 f6bd d252 3dbc 96bb b4bd 8814 133e
000002a0: 13f1 213e 026c 143d 1178 aabe bc5c 75be
000002b0: 392b 76be ddef 8b3d d610 99bb ad6c 4e3e
000002c0: 5161 b7bd 81c7 473d d7c2 933d ec72 11bd
000002d0: 0e4a e73d f4bc 093b cd31 ddbc 469d c5bd
000002e0: 2ff2 a53d 3afd f03d 2fca fb3d 8a57 a03a
000002f0: 679e 1ebd 86ae 0a3e 4e31 53bd 57e4 fb3d
00000300: 00c9 993e c1c0 93bd e9af 5e3d 5781 9fbd
00000310: 8bd8 16bd 3865 4a3e 2ff6 f9bd b197 c53b
00000320: 51cc ad3e ecb1 8c3c 9df5 b0bd 78d1 38be
00000330: 1a8d 10be 3c14 d53d b94f 3d3e 7f9b 6a3d
00000340: 7290 bfbc f253 9a3d bdc4 203d ba74 9b3d
00000350: cebd 003d f99e 003d 8565 4abe 1c22 f83d
00000360: 8c71 4b3e b52f af3d 6ce3 893d 1528 043e
00000370: b2c9 39bd e89a bebe 0313 cabd df89 473e
00000380: a4f8 593e 49d2 463e b8a7 4e3d 9222 0fbd
00000390: 512b b93d 73c6 293d de24 ac3d 3913 4fbd
000003a0: 21c5 2abe 79a5 49bd d6c0 533e a559 2e3e
000003b0: 2881 dfbd f6d4 24bc 253f 5dbe d25d 10bc
000003c0: de72 72be 845a b23d 8c68 fabd 6c56 72be
000003d0: da30 ddbd ca55 41bd 7764 ba3d 542a 88be
000003e0: ded2 3fbe 5e82 9f3d 8c2a febd b658 ad3c
000003f0: 68aa 8bbe 9bea 87bc 141a e3bc 3ba3 983d
-0.09008368 -0.09924683 0.10578432 0.035930306 -0.009500087 0.3558459 0.1701152 0.091972314
-0.23187198 0.14336914 -0.2037135 -0.1498024 -0.22813508 0.19898103 0.06805265 -0.076396026
0.05679088 -0.15978193 0.052475423 -0.2654812 0.17363092 -0.020350158 -0.0725857 -0.08054685
-0.037692912 -0.21567902 0.1887037 0.045745246 0.09096264 -0.20384882 -0.12528858 -0.13092479
0.016725106 -0.092784256 -0.04209548 -0.026485184 0.029506426 0.2543687 -0.09950326 -0.039854717
-0.11441158 -0.2978237 -0.24301401 -0.2550491 0.010163727 -0.023789616 -0.024091458 0.19352019
-0.087690555 -0.22683959 -0.20486543 0.036592614 0.016710453 -0.08552526 0.16003601 0.40594813
0.056102466 0.036272 0.041570064 -0.007897383 0.109327644 0.12831368 -0.12846006 0.150218
-0.106827125 -0.19660152 0.1299868 0.15823522 0.2442105 -0.15501113 -0.12975214 0.07556044
-0.04598733 -0.12587771 0.14826609 -0.08958944 -0.018645518 0.07692212 0.046774436 0.09687623
0.030992178 -0.08820555 -0.013222057 -0.17285135 0.14821567 0.1657661 -0.14324158 0.039483316
-0.031985223 -0.20952372 0.096397735 0.003828717 0.007193006 -0.1372745 -0.012109027 -0.08635873
0.08915883 0.017234638 0.031276003 -0.06839887 0.12920432 0.18030351 -0.07731538 -0.034162086
-0.030551545 0.03264421 0.028247776 -0.09861518 -0.0628431 -0.015249256 0.065962255 0.0015997927
0.043366507 0.16501147 -0.19529705 0.033895943 -0.15879628 0.13286269 0.13729174 -0.19058996
-0.18847853 -0.25371483 -0.19692054 0.104702815 -0.19903864 -0.1312467 0.07346913 -0.08206872
0.13552263 0.16574767 -0.022945065 0.072092205 0.21609169 -0.055505443 -0.03320254 -0.2521567
0.25691977 -0.17962095 0.03683271 0.15414038 0.006496839 0.083165914 0.03486882 -0.09617648
0.12536946 0.0025853305 -0.020247174 -0.067198336 -0.117690675 -0.13761275 0.10622975 -0.118473835
0.043270443 0.062084075 0.0666615 -0.14429715 0.050688118 0.18774709 0.18001935 0.05724578
-0.07730253 -0.14638963 -0.006115012 0.11136591 -0.120316334 -0.01155539 -0.08824842 0.14363301
0.15814619 0.036235817 -0.33294728 -0.23961157 -0.24039926 0.0683286 -0.0046711965 0.20158644
-0.089541085 0.048774246 0.07214897 -0.03550999 0.11293422 0.0021017166 -0.027001286 -0.09649138
0.081028335 0.11767049 0.12294423 0.001223312 -0.038725283 0.13543138 -0.051560692 0.12299412
0.30036163 -0.07214499 0.05436698 -0.077883415 -0.036827605 0.19765174 -0.12205159 0.006030046
0.33944944 0.017174684 -0.08640597 -0.18048656 -0.14116326 0.1040425 0.18487443 0.0572772
-0.023384307 0.075355425 0.039250124 0.07590623 0.03143101 0.03140161 -0.19765289 0.12115881
0.19867533 0.08554021 0.067328304 0.12905915 -0.045358367 -0.3722756 -0.098669074 0.19486187
0.21286255 0.19416155 0.050452918 -0.03494508 0.09041465 0.04144902 0.08405469 -0.05055544
-0.16676761 -0.049230073 0.2067903 0.17026384 -0.109133065 -0.0100605395 -0.21606119 -0.008811431
-0.23676631 0.08708671 -0.12226972 -0.2366578 -0.10800333 -0.047200955 0.091011934 -0.26594794
-0.18732783 0.077885374 -0.12410459 0.021160465 -0.27278447 -0.01659136 -0.027722396 0.07453009

bias f4 [60]
00000000: 2e4f a5bd af63 a0bd 6dfd 5c3d adef 2b39
00000010: d6f3 93bd 46d6 383d 1586 65bd 7064 84bd
00000020: bf03 54bd bf82 d8bd 3f98 bbbd 6a8f c8bd
00000030: a82c f2bc 1a90 a13d cee8 46bd 4982 95bd
00000040: 036e 743c 0902 fe3c dc82 d6bd 5d47 a0bc
00000050: cfe0 9ebd 8067 313c 99ef a23d 48e6 3ebd
00000060: dddd e3bc 1a33 013e b31f 11bd 6cd0 893d
00000070: 7290 453d 21a0 b7bc 8742 5a3d 5905 a83d
00000080: 82f7 cf3d 924b 8e3c 2c00 65ba 1b4c e73d
00000090: eea1 353c e485 ad3d 522a 82bc 266a bbbd
000000a0: e8d9 71bc 441c c9bd 3955 a7bd bafb 7cbc
000000b0: de34 b73d 6912 463d 3f32 d83d 377c 5fbd
000000c0: 06b1 80bc 79c3 9f3b 9b45 fdbc efbf 51bd
000000d0: ddff 7dbd 1fa9 cfbc 858b 34bc 7c5f 25bd
000000e0: 8405 613d 26bb 9c3d 57e2 9e3d 1423 82bd
-0.08071743 -0.07831513 0.053952623 0.00016397117 -0.072242424 0.045126222 -0.056036074 -0.064644694
-0.051761385 -0.10571813 -0.09159898 -0.09792979 -0.02956231 0.07888813 -0.048561864 -0.073002405
0.014918807 0.03100683 -0.10474178 -0.019565279 -0.077577226 0.010827899 0.07955856 -0.046606332
-0.027815754 0.1261715 -0.03543062 0.067292064 0.048233457 -0.022415223 0.0532861 0.08204145
0.1015463 0.01737002 -0.00087356823 0.11293813 0.01108597 0.08472803 -0.01588932 -0.091511056
-0.014761426 -0.09819844 -0.08170552 -0.015440876 0.089456305 0.0483574 0.10556459 -0.05456182
-0.015709411 0.004875597 -0.03091698 -0.051208433 -0.06201159 -0.025349198 -0.011019592 -0.040374264
0.0549369 0.07652883 0.07758015 -0.06354347
