data/example_dynamics_data/kitchen_MLP_qhat.pth (torch, 664463 bytes, 8 tensors)

weight f4 [256, 70]
00000000: c147 ce3d b479 383d 3ab6 cfbd 913b 85bd
00000010: 95b2 6d3d 9c0b 82bd 8c2b 833c 567f 143e
00000020: dbf1 243e 9197 2bbe bae1 eebc c434 363e
00000030: 8485 a53c 0364 3c3d 67dd 803d f576 2d3e
00000040: 2f18 0138 b9a4 22be e1d3 27be b5a5 aa3e
00000050: d41e 113d a127 a03c 4558 1cbd fe8e ab3c
00000060: 332b 7b3e bbf2 eebc cb73 8b3d 4931 68be
00000070: c0fc d83c f311 fd3d 7782 af3c 7518 d9bb
00000080: 8875 edbd c243 bc3d 2f91 b73d 266c 52bd
00000090: 43e4 6d3d 64fd 503d e988 763c b115 c73d
000000a0: a644 a9bd 25f1 0cbe e00e 813d e25a 463d
000000b0: e2dd 50bd 4e48 613d ec89 d43d daf9 8f3d
000000c0: 1b4d 10be 01ed 1bbd 103a d83d d47f ee3d
000000d0: 5eb2 17be 294e 02be f536 353d 0f15 d43d
000000e0: 4e5e 2c3d 32b4 ca3c dbe6 22bd ce25 cfbd
000000f0: 0f9c 89bc 0dd6 103d 425d 5fbd a712 07be
00000100: 4509 6dbd ca5d cc3c c56f a7bd f155 623d
00000110: cd23 05bb 1e7e cb3d a585 b7bc 5d3c 5cbc
00000120: 077e af3b 33ab b0bb b6d5 0d3e c326 633c
00000130: 2527 343d e053 133c a32d f9b8 b018 303e
00000140: 9dba 9e3d 991d ea3d e05f f4bb 0084 a83c
00000150: e804 86bc c5a4 493d 8f30 9ebd c783 a83d
00000160: 9ed6 793d abf3 e2bc 4f72 c93d e74c 10bd
00000170: ca1e 07bc 2984 5ebd d8c5 61bd be55 bdbd
00000180: fc36 8d3c ed77 8dbc 9929 293d 5816 27be
00000190: 86ef d23d b779 dd3d 6b62 b8bc de67 06bd
000001a0: d125 893d 5d6c ab3d b96f 8abb 2df9 28bc
000001b0: 7be6 903d 0afd 3e3d dd03 dc3d 3409 f03d
000001c0: 69ba f93c 1884 38bd 6eaf af3d e142 c73d
000001d0: f899 88bd 9bb5 d1bd f7f7 c3bc 8743 87bd
000001e0: 6bb5 953d b79f 1f3d d2bb c2bd e970 9b3d
000001f0: a17b 8abd dfd1 c93d 9119 f5bd 2f0f 8ebd
00000200: 3192 27b9 bccd f63d d0c6 ccbc dd53 2e3d
00000210: 72f1 f63d ceed eebd a143 da3c 523e b0bd
00000220: e284 06bc 11cb af3c 2e5a 8fba 9c32 f43d
00000230: fd08 0b3e 1eae f63d 96aa 703d cea8 12bc
00000240: e8f3 473e 150e 81bd d877 b33d fa5b be3d
00000250: 0b32 353d 204e 89bd 0b20 42bd a8df b2bd
00000260: 207c 4a3d 5e08 013e 053f 92bd 3e56 c43d
00000270: f404 133d 6370 de3c fa84 053d ca3f 643e
00000280: af41 153e 41af aabd ae1f 073e 5f77 bb3d
00000290: bcd2 03be d7c2 853d be8f b83a d534 f43d
000002a0: 56e4 b13d 4f07 13be 99a4 ecbd 8711 a4bb
000002b0: cf33 ba3c fda8 b13c 8369 d5bd 6e71 373c
000002c0: 75b9 6ebd 0e1f ebbc f53a e33d 4a06 7bbd
000002d0: 16d5 acbd 472f 20bd ff36 3fbd ecf1 963d
000002e0: 161d 9f3d 7a82 cd3d 57bc 833d d5c1 7f3d
000002f0: 242d 5c3b c5fc cdbb 843b edbd 2c75 57bc
00000300: 9225 56bd f02a 653d bd65 0bbd 3944 1fbd
00000310: b3dc bf3d 8048 da3d 022c e53d 9e82 d93d
00000320: 8a07 573c 7918 7dbc a1f0 523d b867 10bd
00000330: f290 f63b 9c75 813d 2ea8 d1bd e777 143c
00000340: 0160 82bd 3fad 4bbd e4be 1abe 35a1 d93d
00000350: f635 d63d 7fa1 7d3d f3c8 943d f2b7 41bd
00000360: 5ca3 5cbd 9612 8cbc 318f dc3d 5353 51be
00000370: 5169 8b3d a9a9 68bd 043a 163c d3a0 8cbd
00000380: 7480 afbd 0e30 d73c d1cf 41bd 2657 0bbe
00000390: e518 50be bf53 613e bb6a cb3d d732 143b
000003a0: dffa 18be 9316 a73d 3bc8 8dbd f860 b23d
000003b0: 4269 b4bd c6ec ffbd 316d 23be 6182 adbd
000003c0: 3204 da3d 11c3 1abd efe3 b33d e6ba df3d
000003d0: 80c7 b9bd ad51 eb3b 2e69 f4bd c194 a8bd
000003e0: b0ec 373d 1864 08bd 002b f4bd d9ab c6bc
000003f0: 5f87 9e3c 6e7d 42bd 9dc2 97bd 5788 f4bb
0.1007228 0.04503794 -0.10142179 -0.06505502 0.058031637 -0.063498706 0.016011976 0.145017
0.16107886 -0.16757037 -0.02916037 0.17793566 0.020205267 0.045993816 0.06292229 0.1693991
3.077852e-05 -0.15883149 -0.16389419 0.3332955 0.03542979 0.019550147 -0.038170118 0.020942207
0.24528198 -0.029168477 0.06809195 -0.22675051 0.026487708 0.12356939 0.021424515 -0.00662523
-0.11594683 0.09192611 0.089632384 -0.05137267 0.058079015 0.051022902 0.01504729 0.09720934
-0.08265047 -0.13763864 0.06301665 0.048426516 -0.050992854 0.055000596 0.10377869 0.07030077
-0.14091913 -0.03806782 0.105579495 0.11645475 -0.14814135 -0.12725128 0.044241864 0.10355579
0.042082123 0.024744127 -0.039770942 -0.101146325 -0.016798047 0.035360385 -0.054532297 -0.13190709
-0.05787017 0.024947066 -0.08175615 0.05525774 -0.0020315528 0.09936164 -0.022402594 -0.013442126
0.0053556 -0.0053915023 0.13851056 0.013864222 0.043982644 0.008992165 -0.00011881746 0.17196918
0.077504374 0.114314266 -0.0074577183 0.020570755 -0.016359761 0.049229402 -0.077241056 0.082282595
0.06099569 -0.02770408 0.09836256 -0.03522959 -0.008247087 -0.054325256 -0.05512032 -0.0924487
0.017238133 -0.0172691 0.041299436 -0.16317117 0.10299592 0.10814231 -0.022507867 -0.0328139
0.06696666 0.08370278 -0.004224744 -0.010313314 0.07075211 0.046628036 0.10742924 0.11720505
0.030484395 -0.04504785 0.085783824 0.09729553 -0.06669992 -0.102397166 -0.02392195 -0.06604677
0.07309993 0.038970675 -0.0950848 0.07589895 -0.067618616 0.09854483 -0.11967767 -0.0693649
-0.00015980822 0.120509595 -0.024997145 0.042560447 0.12057771 -0.116664514 0.026643576 -0.08605637
-0.008210393 0.021459134 -0.001093691 0.119237155 0.13577648 0.12044929 0.058756433 -0.008951379
0.19526637 -0.06301514 0.08763093 0.09294887 0.044237178 -0.06704354 -0.04739384 -0.08734065
0.04943478 0.12600848 -0.07140926 0.09586762 0.035893396 0.0271532 0.03259752 0.22289959
0.14575838 -0.08334208 0.13195679 0.091536276 -0.12873358 0.065313034 0.0014080924 0.119241394
0.0868613 -0.14358257 -0.11554832 -0.0050069722 0.022729782 0.021687025 -0.104205154 0.011196477
-0.058282334 -0.028701331 0.110952295 -0.061285295 -0.084390804 -0.039107587 -0.046683308 0.07370362
0.077692196 0.10034652 0.06432407 0.062440712 0.0033596242 -0.006286236 -0.11583617 -0.013150495
-0.052281924 0.05594915 -0.034032572 -0.03888342 0.09368267 0.106583595 0.111900344 0.106206164
0.013124356 -0.015447729 0.051499013 -0.035255164 0.007524603 0.0632126 -0.10237156 0.00906179
-0.063659675 -0.049725767 -0.15111881 0.10626451 0.10459511 0.061921593 0.072648905 -0.047294565
-0.05386673 -0.017098706 0.10769499 -0.20441942 0.06807197 -0.056802426 0.009169105 -0.06866612
-0.08569422 0.026268031 -0.04731733 -0.13607463 -0.20321997 0.22004603 0.099324666 0.002261331
-0.1493945 0.081586026 -0.069229566 0.087099016 -0.08809139 -0.12496333 -0.15959622 -0.084721334
0.106453314 -0.037783686 0.08783709 0.1092432 -0.09071255 0.0071813674 -0.11934124 -0.082314976
0.044903457 -0.03329858 -0.11922264 -0.024251865 0.01935166 -0.0474829 -0.074101664 -0.007462542

bias f4 [256]
00000000: 32cf ddbc 878e d23c fb92 a73d 363f 00bd
00000010: 08e9 c33d d346 97bc 1904 3a3d 9377 3f3d
00000020: 7367 5bbd cb0d 8fbd def1 a3bc 068b 7a3d
00000030: 68ae ddbd cc90 983c bb02 efbc f389 c23c
00000040: 56ff 7c3d ffea d0bd 1f2e f03c 7431 fa3d
00000050: b694 b63d 1b39 393d 4949 f4bd 9ad9 a5bd
00000060: 19f7 aebd 4f3b bcbc 7aec c33d d55a eaba
00000070: 0107 063b 7f77 cfbd aba4 0f3e 5bb5 88bc
00000080: 5f61 243c d0ce 5dbd a2d9 f43d f2a7 c3bb
00000090: 9df7 893d f154 813d 1930 3abd 9554 27bc
000000a0: 6035 8abd 1578 9cbd d5da 71bd d549 d43d
000000b0: 75a1 7f3c 45db 16bd 8e7e 69bd 9a9f f03d
000000c0: 8467 673d e321 a9bd 8802 46bd 8f36 913d
000000d0: ae8c e5bd abb4 0fbd 44aa 283c 58c0 89bc
000000e0: e15e 1a3d 4052 733c 4cd9 9dbd a629 cf3d
000000f0: bc6f fdbc d45b fc3d 286d d83a 7907 d83d
00000100: 2b9f b2bd 9394 a1bd 6f50 5d3d a8e9 0ebd
00000110: 2d5a afbd dae1 c13d 2e30 2e3d a7fc b0bd
00000120: e631 503d d2a3 b6bd 3f4f b4bd 4427 f83d
00000130: 61f5 9ebb b21c ddbd bfbf 52bd f21d 9ebd
00000140: 2d73 afbd 020c 10bd 2912 0e3d 5b29 a13d
00000150: e32a df3d 0256 823c b709 a7bd 43e6 a13d
00000160: e1cf 67bd 237d 953d 4355 ebbd 92c4 e73d
00000170: 6072 e8bd 8fad 9f3b 0388 64bc c39e a63a
00000180: f3da 6bbd 49ae 903d 9c62 0c3e e05f d2bc
00000190: 89e5 b03d 304c 48bc 1752 b23d d508 6e3d
000001a0: 086e 03bd 5044 d13d 27e0 683c 9dbe 88bd
000001b0: 8af3 b93d e478 a83d cd83 e43d b6d6 10bd
000001c0: 6279 083e 9f37 323d 1373 c43c e60e 903d
000001d0: dec4 60bd 3e5d 95bd a6a9 e53b d239 093d
000001e0: cd88 89bc 4ccb 6b3d c58d e43b 270e 16bc
000001f0: d098 0f3d 3c9a e63c bb8c f03d e503 72bd
00000200: 751c 653d 99f4 f7bd 41bd 7a3d 27b2 bb3d
00000210: 1e20 fe3d ff16 db3d 5eda 20bc 7a3a 80bc
00000220: 4f17 97bd dbde c4bd 6c1b f7bc a535 b53c
00000230: c0b5 9d3c 86e4 4fbd 5d0e 8ebd 109e cabd
00000240: 45e8 1b3e e91e 363d 81bc a1bd 830f 3abd
00000250: 8b66 403d 83b5 e43d 7704 c4bc 0979 e63b
00000260: f4e0 92bd eb85 03be f21d ef3d aed7 49bd
00000270: c281 883d 01d7 123d e3fb a03d 6212 b83c
00000280: 9452 b23d 01d3 e83c 95c4 ccbd 93bf c23d
00000290: 29ff b93c ff8d 94bc d857 e3bc ded7 173c
000002a0: cf9e 243b d7d0 11bd be0a 2a3d 77ac 81bb
000002b0: b9de b1bd 72cf f63c 3cd4 8bbc b744 ea3d
000002c0: 5615 1b3d ac49 95bd 9d5b cd3d 9701 b7bd
000002d0: 82d4 c3bd f8ab 2bbd aeb5 f23d d8c5 d9bc
000002e0: 1eab 253d 885e bf3d 9fe0 6f3d f156 ef3c
000002f0: 0d6b 50bd ef0d b5bc cefe 20bd 44fb 453d
00000300: a732 35bd 4d3b f33d 81e1 423d 49ae 9fbd
00000310: 5b43 403d 034e 4c3d a2b4 cfbd e62b c1bd
00000320: e4dd 333d 5cfd 16bd 4d08 aabd c35a c63c
00000330: 8826 85bb 0c17 4d3c f9b8 653d 901b babd
00000340: 42af 6b3c efbe 2ebd 1a1d 303d 5742 04be
00000350: 6f0f a0bd 2597 17bd d46d b73d 34e8 423d
00000360: 09b9 eabd 978c 1b3b 8ea5 ef3c 5fd9 ff3d
00000370: df16 e13d 847a bdbd 75fa 9e3d 7450 4bbc
00000380: d502 2cbd 2d90 993d d88a e73d 6086 a13d
00000390: ee75 e63d e891 663b 26f9 3e3d 848d 8cbd
000003a0: fba3 293c 7fa6 473b d6ef c63d a4e2 08bd
000003b0: 22dd 07bd bce6 cbbd 8a40 013d b18f 1a3d
000003c0: 45b1 e73c 241e 5e3c ace3 b3bc 1e75 acbd
000003d0: c96c 45bd e1e0 d53d e3b9 babc 67d5 f03d
000003e0: 21f0 a8bd d6e1 543d 26a7 e33d 5012 803d
000003f0: e798 c33d 7072 fa3c 5d34 9f3d 9983 e53b
-0.027076337 0.025702728 0.08182331 -0.031310283 0.095659316 -0.018466389 0.045414064 0.046744894
-0.053565454 -0.06985053 -0.020012792 0.06116774 -0.10824281 0.018623732 -0.029176107 0.02374742
0.061766945 -0.10201072 0.029318867 0.12216464 0.08915083 0.045220476 -0.119280405 -0.08098145
-0.08543224 -0.0229775 0.09566589 -0.0017879853 0.0020450952 -0.10130214 0.1402766 -0.01668804
0.010032981 -0.05415231 0.11955573 -0.0059709484 0.067366816 0.063150294 -0.045456026 -0.010213037
-0.06748462 -0.07640091 -0.059046585 0.10365645 0.015602459 -0.036830205 -0.057005458 0.117491916
0.056495205 -0.082584165 -0.048342258 0.07090484 -0.11208473 -0.035084408 0.010294501 -0.01681535
0.03768814 0.014851153 -0.07707462 0.10115366 -0.030937068 0.12322202 0.0016512023 0.105483
-0.08721765 -0.078896664 0.054031786 -0.0348908 -0.085621215 0.09466906 0.042526416 -0.086419396
0.050828837 -0.08917965 -0.088041775 0.12116864 -0.004851029 -0.10796489 -0.051452395 -0.07720555
-0.0856689 -0.0351677 0.034685288 0.07869216 0.10896852 0.015910152 -0.0815615 0.07905247
-0.056594733 0.072992586 -0.11490872 0.1131679 -0.1134994 0.0048729847 -0.013948443 0.001271211
-0.057581853 0.07064492 0.13709491 -0.025680482 0.0863753 -0.012225196 0.08707064 0.05811389
-0.032087356 0.10218108 0.014213598 -0.066769816 0.090796545 0.08226183 0.111579515 -0.035361014
0.13327554 0.043510076 0.023980653 0.07034092 -0.054875247 -0.07293175 0.007008749 0.033502407
-0.016788865 0.057566926 0.006974908 -0.009158648 0.035057843 0.028149717 0.11745592 -0.059085745
0.055935342 -0.121072 0.061215643 0.09164839 0.124084696 0.106977455 -0.009817688 -0.015652884
-0.07377493 -0.09612819 -0.030164443 0.022120306 0.019251704 -0.050755046 -0.06936333 -0.09893429
0.15225323 0.044463072 -0.078972824 -0.04542495 0.046972793 0.11167433 -0.02392791 0.0070334715
-0.07171813 -0.12844054 0.116756335 -0.049277954 0.06665374 0.035849575 0.078605436 0.022469703
0.08707157 0.028420927 -0.099984325 0.09509196 0.022704678 -0.018134115 -0.027751848 0.009267775
0.0025119071 -0.035599556 0.04151415 -0.003957327 -0.08685059 0.030128215 -0.017068975 0.114388876
0.037862144 -0.072894424 0.100272395 -0.0893585 -0.09562017 -0.04191205 0.11851059 -0.026583597
0.040446393 0.09344202 0.058563825 0.029216262 -0.05088334 -0.02210137 -0.0393055 0.04833533
-0.04423776 0.11876545 0.04757834 -0.07796914 0.046939235 0.049879085 -0.10141875 -0.09432201
0.043912783 -0.036862716 -0.083023645 0.0242132 -0.004063431 0.012517702 0.056084607 -0.090872884
0.014385046 -0.042662557 0.042996503 -0.12915932 -0.07815444 -0.037009377 0.08956495 0.047584727
-0.11461074 0.002373492 0.029253747 0.12492632 0.109906904 -0.092518836 0.07762615 -0.012409318
-0.04199489 0.074982025 0.11305779 0.07886958 0.11252962 0.0035182182 0.046624325 -0.068629295
0.010354037 0.003046423 0.09713714 -0.033419266 -0.033169873 -0.099561185 0.03155569 0.03773469
0.02828277 0.013556991 -0.021959148 -0.08420776 -0.04819945 0.10443283 -0.022793716 0.11759453
-0.08248926 0.051973186 0.111158654 0.06253493 0.09550648 0.030572146 0.077736594 0.007004213

weight f4 [256, 256]
00000000: 25f3 313d 9929 3a3d 1090 ffbc cdd8 66bd
00000010: f424 b3bd 58a2 61bd 8361 4dbd dee9 14bb
00000020: 5301 133d 9210 143d 1485 3cbc 0372 40bd
00000030: 96fd 1abd a9d4 99bd ca36 973c ec98 5f3c
00000040: 96d6 6cbd df10 6fbd 2984 233d 3168 2b3c
00000050: a973 553c 9277 4e3d 920a 893c 6d2a 81bd
00000060: 2b9a c43a 4707 953d 168e 4a3c 030e 223d
00000070: e6fa 36b9 d349 8abc caa0 f23c 3974 ce3a
00000080: 4504 84bd c413 d43c 0588 3ebc b50e a4bd
00000090: a618 86bd fef2 783d 3682 5a3d ee80 2dbd
000000a0: 5df2 8e3c 9e1d 39bd 37ce a7bb 38ef 1abc
000000b0: 052f 81bd a7be 5a3d d913 e7bc 6cc4 9a3a
000000c0: cbc9 f63c b24c 88bc 383d 2fbd 286a 113d
000000d0: d998 aabd 37ae c93b 2620 f4bb 2b92 1abd
000000e0: c829 6c3d b793 1d3d 237d 1fbd 334e 15bd
000000f0: 362f 0dbc 9b71 a43d 1b39 0a3c 9299 93bc
00000100: 27ad f0bb 73ac 1cbb accb e93c 8d19 5fbc
00000110: 5e64 193b 9f93 fabc 88ce d83c 5a74 0e3c
00000120: e8b2 d0bd 3faf 3f3d 5669 92bb 2015 69bc
00000130: e806 98bd a9fe 923d 84c8 f23c 50d6 d03d
00000140: fe85 a7bd ef28 a7bc cf9b 113c 3207 113d
00000150: 0d53 d5bc 1fd2 37bc 4b03 8dbc 7faf 223d
00000160: 528e 45bd 7515 0f3d dc68 ee3b dd95 59bc
00000170: 7a23 e93c 30ba 07bd fe75 883c abad 653c
00000180: dcc8 6fbd 1bd2 303b 1080 d0bd 9d5d 163e
00000190: 43c5 04bd 635d 9c3a c140 c4bb 55de 193d
000001a0: a6e0 5d3d 0040 87bd 75b8 913d bcae 173d
000001b0: 884f 653d 9a6e 3a3d f34c 9b3c c27c bbbd
000001c0: 4158 073c 4d5e 2f3d 570d afbc f800 06bc
000001d0: a718 343d 0ffd 3ebd 7cab 8ebb a43c 513d
000001e0: f51d 653c 134d 8dbd f1bb 30bd 4eac 3b3c
000001f0: eca3 85bd 7d71 c13c 3fa7 423d 5280 b23c
00000200: 9d35 033d 75c2 833b 913a 773d 13bb 15bb
00000210: 9bde d6bc b4bf 40bd 59fa 0bbe e720 953c
00000220: d7f2 ee3c 77ff 513d 3374 1c3c fe21 5bbc
00000230: 6c89 473b 028c 07bb 8ee3 5a3d 52d9 783d
00000240: 29c1 353c 2a11 8fbd 8325 a2bc 9a89 1a3d
00000250: e4e6 2abd 7642 fb3c 9cf9 52bd 4657 d43c
00000260: 0a3d 393c 54f4 8dbc a05f 453d 7400 2c3c
00000270: 5fc2 09bd d61b d8bc 68b0 e93c cd03 a23c
00000280: 3b77 a2bd 2381 68bc 123e 18bd 1cea c23d
00000290: 9c04 db3c 711c 813b 78b8 56bd de71 5fbd
000002a0: c829 89bd e5fe 4d3c 31da 96bc 7360 803a
000002b0: dabe 14ba 4216 2e3d 777c 053d 7523 c8bd
000002c0: e953 47bc d637 52bd e00b 213d 34f0 26bd
000002d0: 3638 90bd 80f0 9c3c 0462 a93c 0d6c 7abc
000002e0: 4d8d 6a3d 23bd 1e3d 22b1 57bd 26d5 3ebd
000002f0: d18d 42bd 8afd 87bc 1be3 1b3d 364e 583d
00000300: fbdb 903d 2dc6 9cbc a98d 2b3d 5d29 4abd
00000310: 626e 913c f64b 36bd f71c 513d 600c 46bb
00000320: 6e7c e6bc 22a1 87bd c2ba 57bd e6b1 e43b
00000330: a029 acbd 582e 2eba 59e5 d23c 9a90 513b
00000340: ea59 253d 5134 c83b 496a b53c 170b 97bd
00000350: b2d5 443c 01e9 1d3c bc90 9b3c a137 42bc
00000360: b0e1 873d 430c ff3c a05e cf3b 1fd7 03bd
00000370: df08 27bc 4749 283d 42c9 6a3d e8fa 423c
00000380: c568 483d d031 b4bd 39fd 8a3c 0e9a 12bc
00000390: 614d 7d3d 61fc 213c 75fa 34bd 0a8c b63d
000003a0: de6e 6ebd f523 243d df8e f33c 6ee5 34bc
000003b0: 9bfb e9bc 2285 303c a4b1 08bd f002 28bb
000003c0: cb0a 5b3d 720c 083d 9a78 b73d f500 86bd
000003d0: 2ec2 f13c abbe 913b 5207 77bd 641c a4bc
000003e0: 1717 97bd 283d 56bd 5e15 80bc 7730 553d
000003f0: 0188 a13c 90b0 f13d 1f73 6e3d a683 28bc
0.04344477 0.045449827 -0.031196624 -0.0563591 -0.087472826 -0.055086464 -0.050141823 -0.0022722404
0.035889935 0.036148615 -0.011506338 -0.04698373 -0.037839495 -0.07511265 0.018458743 0.013647299
-0.057821833 -0.0583657 0.03992096 0.010461853 0.013028064 0.050407 0.016728673 -0.0630692
0.0014999559 0.07276779 0.0123629775 0.039564144 -0.0001745034 -0.016880905 0.029617686 0.001575119
-0.06446127 0.025888331 -0.011629109 -0.08010618 -0.0654767 0.06077861 0.053346835 -0.042359285
0.017449552 -0.04519426 -0.0051210183 -0.009456448 -0.063077964 0.053404476 -0.028207706 0.0011807806
0.03012552 -0.016638134 -0.042782992 0.03550163 -0.083299346 0.006154801 -0.0074501215 -0.037737053
0.057657033 0.03847095 -0.0389377 -0.03645153 -0.008617213 0.08029481 0.008436467 -0.018017564
-0.00734486 -0.0023906499 0.028539501 -0.013616932 0.002340577 -0.03058797 0.02646567 0.008694733
-0.10190374 0.046797987 -0.0044681234 -0.014226228 -0.07423192 0.07177479 0.029636629 0.10197127
-0.08179854 -0.02040526 0.008887245 0.035407253 -0.026040578 -0.01121953 -0.017213484 0.039718147
-0.04823143 0.034932572 0.007275684 -0.013280359 0.0284593 -0.033136547 0.016657826 0.014018456
-0.058541164 0.0026980701 -0.10180676 0.14684148 -0.032414686 0.0011929687 -0.0059891646 0.037565548
0.05416932 -0.06604004 0.071152605 0.037031874 0.05598405 0.045515634 0.01895759 -0.09154655
0.008260787 0.04281454 -0.021368666 -0.008178942 0.043968823 -0.046628054 -0.0043539386 0.051083222
0.013984193 -0.06899466 -0.043147985 0.011454655 -0.06525406 0.023613686 0.04752278 0.021789704
0.03203355 0.004020984 0.060358588 -0.00228471 -0.026229193 -0.047057822 -0.13669719 0.018204166
0.02916853 0.05126902 0.009549188 -0.013374804 0.00304469 -0.0020682816 0.05343967 0.060754128
0.011093416 -0.06985696 -0.019793278 0.037728883 -0.0417241 0.03067134 -0.051507577 0.025920521
0.011306057 -0.017328419 0.0481869 0.010498155 -0.033632632 -0.02638046 0.0285265 0.019777203
-0.07932898 -0.014190945 -0.03716857 0.09517309 0.026735596 0.003940158 -0.052422017 -0.05455195
-0.06697422 0.012572979 -0.018414589 0.0009794369 -0.0005674191 0.042501695 0.032589402 -0.09772388
-0.012166002 -0.05132278 0.039317966 -0.04075642 -0.070419714 0.019157648 0.02067662 -0.01528455
0.05726366 0.038754594 -0.05265916 -0.046589993 -0.047498528 -0.016600389 0.03805838 0.052808963
0.07073208 -0.019137466 0.041883145 -0.049355853 0.01775283 -0.044506036 0.051053014 -0.0030219778
-0.028135505 -0.066225305 -0.05266834 0.006979215 -0.08406377 -0.0006644479 0.025744127 0.0031977058
0.04036895 0.006109752 0.022145407 -0.07375162 0.01201384 0.009638072 0.018989913 -0.011854083
0.06634843 0.031133777 0.006328419 -0.032187577 -0.010194986 0.041085508 0.05732084 0.011900641
0.04892804 -0.087985635 0.01696645 -0.008947862 0.061841372 0.009886832 -0.044184167 0.08913429
-0.0582112 0.040073354 0.029731212 -0.011041028 -0.028562358 0.010773929 -0.033372536 -0.0025636517
0.05347709 0.033214994 0.0895855 -0.06543151 0.029511537 0.004447778 -0.060309716 -0.020033069
-0.07377451 -0.052304417 -0.015635189 0.052048173 0.019718172 0.11801255 0.058215257 -0.010285294

bias f4 [256]
00000000: 1922 4bbc 5b9d f73c c043 38bd 74f9 ac3c
00000010: 66da 6abd 08f5 2b3d 7991 cd3c 659b d9bc
00000020: 2e0c 7b3c 7431 d0bc 3d99 32bd dfa7 98bd
00000030: 5555 ebbc d03d 823d 7bfd 363d d476 03bd
00000040: 7323 463d 3c45 28bd 9f8a 3c3d 25fe 643c
00000050: 4413 3fbd d296 0dbc b816 933c 12d0 f63c
00000060: 1bf1 373c 99ed 07bd 577c b53c 1a89 26bd
00000070: 0eff bc3c 89f0 313d 9a68 12bd 900b 3ebd
00000080: 9ed1 a23c b659 083d eaea 0cbd 86d0 0fbd
00000090: 3f9d 293d b9c8 923d 85df df3c 234f 593d
000000a0: 1c7c 803d 7d7b c73c 9504 2ebd 38bd 403d
000000b0: 115b 1b3d 14b1 973c b268 f03c 811b 873d
000000c0: 99c1 7b3c 5174 8b3d 68c7 0b3d 5b38 f63c
000000d0: b5b2 943d 973b a13c e96c 363d 0c55 ac3d
000000e0: a457 523d 479d 20bc d543 243d 2771 45bd
000000f0: fb00 b23c eaa4 efbb 4acf 9ebc b395 63bd
00000100: a1ca 6f3d ceba 35bd 59c4 c6bc 9f39 ebbc
00000110: 681f 57bd 2dca 6a3d 1cc7 013d 2639 dabc
00000120: 06f6 2dbd df6e 983c a44b 60bd eb5e 9d3c
00000130: 9147 21bb af7e 5e3b 2e44 813c b5c6 6c3c
00000140: 11a1 95bc d641 c6bc fb16 b8bc 2af0 333c
00000150: 8973 aebc 107a 34bd 7383 2c3d cdd4 373d
00000160: 8c98 d1bc 554a 3dbc 7dd4 4cbd afdf d33b
00000170: afe1 a7bc 290e 0b3d 3b8a 073d 07eb 813d
00000180: 6d3a 1c3d 6891 1b3d 8722 ee3b fb61 273d
00000190: 3fc9 8c3d 3c7c 283d 363c 2e3d c6cf 51bd
000001a0: ba4a 3bbd d5dd 193d d0b3 4c3d a966 41bd
000001b0: a671 473d f5aa 36bb a303 db3c c092 cc3c
000001c0: e0f6 37bd 63ad cb3c 207f ecbc 1030 053d
000001d0: f67c 14bd 3554 7db7 7a21 b7bc ec47 9c3c
000001e0: 4522 2cbc 9e50 293c b44e f9bc 6d79 a13c
000001f0: c044 72bc a6e9 803a b7e3 303d 5cd5 393d
00000200: 37b8 8b3d 24be 223d b6c0 de3c 6c91 f9bc
00000210: 5ee9 1dbd 7e30 723c 36fb 423c ab80 253c
00000220: 5cf9 5bbd 33e2 5dbd 6019 1ebc 87e0 3ebd
00000230: 52f3 7f3d 0f74 20bd c666 8d3d 7113 4d3d
00000240: b7b5 303d f7f7 80bb 888e 783d a62b 79bc
00000250: e042 243d ed0f a63c d7d2 aebc 1dfe 1fbd
00000260: bc20 e4bc c9ba 5e3c 0f90 cdbc 5dbd 423d
00000270: 2518 aebc 4ac2 343d 1be7 6a3c 2b1c 9abc
00000280: 6523 1b3d ac45 e03c 2298 00bd 172b 0d3d
00000290: c97b 4d3d 9c1c 443b 28fe 843c 1c32 c33c
000002a0: 624d c63c f0cf 033d 0a41 d9bc 7000 693d
000002b0: 3e1f 83bc bbb2 f13b efc6 743c d21d 8c3d
000002c0: 7fd1 fb3c 5811 bfbc 6571 813c 4068 553d
000002d0: c4e9 cd3b 6eb7 7f3d aa74 083a 46c7 1cbd
000002e0: b30d 53bd 55d2 47bd 79c6 df3c eebb d93c
000002f0: 2472 2bbd 3637 2b3d cc95 2ebd 8b56 823d
00000300: 7599 c83c c129 0cbb 47d4 1a3d 57e9 22bd
00000310: f80f 643c 2d04 713d 514d 173c 078b a9bc
00000320: 0275 f93b d64a 103d 6853 6cba d085 193d
00000330: 3643 da3c f887 2cbd e101 a83c 744f 563d
00000340: 63e6 58bc 39d9 e6bb 3227 8c3d 44f5 343d
00000350: db70 51bd 3174 2f3d 9e5d 88bb 879c 043d
00000360: 8efd 7b3c 8fb5 5a3d 60a2 913c e6b6 8b3d
00000370: 3bfe 65bd d8cc aebc d2e0 e7bb d02e 193d
00000380: 4cb7 7dbc e3ca 71bd 2085 2dbd 16c2 0dbc
00000390: e2d5 ab3c 549f 1f3d 03cb 703b 7dae 2f3b
000003a0: 9c0a e33b c675 573d 717b 513a 0fdd 20bd
000003b0: c457 57bd 2336 e43c 3a30 0f3d 5cd5 193d
000003c0: a31d 2dbd 2244 52bd 25db 703d 9b0c aa3c
000003d0: 3aca 42bc ff0a 773d e52d ae3c d048 10bc
000003e0: 83bc 7f3d 306a 44bc 85ba 3f3c 5af3 f43b
000003f0: a5e5 b53c 23f3 78bd e4c7 22bb 1870 173d
-0.012398266 0.0302264 -0.044986486 0.021115042 -0.057337187 0.041981727 0.02509378 -0.026563356
0.015322728 -0.025414206 -0.04360317 -0.07453894 -0.028727213 0.06359446 0.04467533 -0.032095745
0.04837365 -0.041081652 0.046030637 0.013976608 -0.046649233 -0.008641915 0.01795517 0.030128513
0.011226918 -0.033185575 0.022154016 -0.040658094 0.023070838 0.043442283 -0.035744287 -0.046397746
0.019875344 0.03328868 -0.03440372 -0.035110973 0.041409727 0.07167191 0.027328262 0.053053986
0.06273672 0.024350876 -0.04248484 0.047055453 0.037928645 0.018517055 0.029346798 0.06597043
0.0153659815 0.06809295 0.034125715 0.03005617 0.07260648 0.019681735 0.04453746 0.08414659
0.051353112 -0.009803123 0.040103752 -0.048203614 0.021728983 -0.0073133605 -0.019385953 -0.055562686
0.05854285 -0.044367604 -0.024263548 -0.028714 -0.052520186 0.057321716 0.031684026 -0.026638579
-0.042470954 0.018607555 -0.054759637 0.0192103 -0.0024609307 0.003395002 0.01577958 0.014451672
-0.018265279 -0.024201315 -0.022471895 0.010982553 -0.021295326 -0.04406172 0.042117547 0.044880677
-0.025585435 -0.011553367 -0.050007332 0.006465874 -0.020493357 0.03394905 0.03309081 0.06343656
0.038141657 0.037980467 0.0072672996 0.040864926 0.06874322 0.041134104 0.04253789 -0.05122354
-0.04572556 0.03756507 0.04997617 -0.047217045 0.048692368 -0.0027872894 0.026735133 0.02497232
-0.044913173 0.02486295 -0.028869212 0.03251654 -0.036251985 -1.5099581e-05 -0.02235483 0.019077264
-0.010506217 0.010334162 -0.030433036 0.01971122 -0.014786899 0.0009835258 0.043185916 0.04536949
0.068222456 0.039732113 0.027191501 -0.03046485 -0.038552634 0.014782069 0.011900714 0.010101478
-0.053704605 -0.0541708 -0.009649605 -0.046600845 0.062487908 -0.039173182 0.06904368 0.05006737
0.043142047 -0.0039358097 0.060682803 -0.0152081605 0.04010284 0.020271266 -0.02134077 -0.0390607
-0.02784764 0.013594338 -0.025093107 0.047543872 -0.021251747 0.0441306 0.014337326 -0.01881226
0.03787555 0.027376972 -0.031395085 0.03446492 0.05016688 0.002992428 0.016234472 0.023827605
0.02420682 0.032180727 -0.02652027 0.056885183 -0.016006108 0.0073760427 0.014940008 0.06841625
0.030739544 -0.0233237 0.015801141 0.052101374 0.0062839705 0.06243079 0.00052053726 -0.03827598
-0.051526736 -0.048784573 0.027316319 0.02657887 -0.0418569 0.0418007 -0.042623326 0.06364163
0.024487237 -0.0021387192 0.0378001 -0.03977331 0.013919823 0.058841873 0.009234742 -0.020696176
0.0076128254 0.03522762 -0.0009015114 0.03748113 0.026643377 -0.042121857 0.020508708 0.052321866
-0.013238522 -0.007044938 0.068434134 0.044179216 -0.051133018 0.042835418 -0.0041615507 0.03237584
0.015380276 0.053395804 0.017777622 0.068219945 -0.056150656 -0.021337911 -0.007076361 0.03739816
-0.015485596 -0.05903138 -0.042363286 -0.008652231 0.02097601 0.038970307 0.0036742098 0.0026806884
0.006928755 0.052602552 0.00079911115 -0.039273318 -0.052573934 0.027857846 0.0349581 0.03755699
-0.042264592 -0.051334508 0.058802743 0.020757964 -0.011889035 0.06031322 0.021262119 -0.008806422
0.06243564 -0.011988208 0.011702185 0.007475299 0.02220423 -0.06077875 -0.0024838382 0.036972135

weight f4 [256, 256]
00000000: eb9b 8fbc e52e dd3c 3881 b7bc 4f88 693c
00000010: f9d2 a3bc 18a7 4abd 6cf7 91bc 7963 1fbd
00000020: 9baf 9f3b f1ed 073c cf23 963c 6324 233c
00000030: 3f67 42bb 1f27 713c fcaa 86ba 9b86 543d
00000040: 3998 623d c731 f1bb e08d 86bd a242 a5bc
00000050: f1c1 d93c 89af 79bd 6673 0a3c 7f79 06bd
00000060: 05af 9b3b 0493 c6bc f626 8fbd 1520 85bd
00000070: f127 86bd 51de 4b3d 35b8 3bbd e570 4a3b
00000080: 64cb 6ebd 38ee 25bd 863f 723c 8ea0 84bc
00000090: 92c8 613d 432d 2c3c 0e68 b43d d321 8dbd
000000a0: 6ed2 12bd 3b48 f73b 2cfc 773c 1ff8 7cbc
000000b0: d564 1b3d 26a7 1cbd a34f 66bd e870 74bd
000000c0: f9d3 92bc 83a7 88bc 17e6 23bc 7009 2cbd
000000d0: 5ef8 a2bc 6ab2 543c 231a 6ebd 8a89 cb3a
000000e0: 4a5f 9f3c f5ff 8bbc 7e16 98bc e65a a23c
000000f0: 204f 0dbd 9bce a6bc 488f 81bc 482d 2abd
00000100: 4887 4ebc f40e 383d e63b 92bb a87f 7dbc
00000110: 7bcd 953c 6b34 0f3d 1308 a5bc cd76 d7bb
00000120: 5df6 103c 14fd 42bd 84d0 dd3c 0d6d 163d
00000130: a362 693d e659 1ebd 267f 5cbd c7bb 143d
00000140: bcf6 8cbc 56c8 0c3d 75cd 17bd 03f8 de3c
00000150: bf84 833c 0da6 17bd 909c 65bd 5f60 8ebc
00000160: 4b43 8fbd 33d9 86bd 376b 1dbd ff3a 87bd
00000170: aa18 a93c 23c5 47bd 706a bebc 378c 563d
00000180: 4f6c 87bd 13fa 943b e2e8 05bd 99e0 11bd
00000190: f7ce 0cbd ede7 833c 0077 b8bd ea7f 413d
000001a0: a889 b13c 40ce 67bc 139c bcbc eb0c 5fbd
000001b0: eb2a 0a3d 52d6 febc 6840 38bd b1c9 6d3d
000001c0: 7b9d 3cbc c8bf 3d3b 3e8e 0bbd 8058 d9bc
000001d0: 117f 58bd fa8e 403c fc19 acbc fef5 3bbd
000001e0: e6e6 feb8 bef9 063d 863e 323d bc71 83bd
000001f0: 0aea c2bb c5f5 8a3c cc4d 8cbd 0a49 593d
00000200: 4f36 77bd 19ed 193d 43c0 10bc a8aa 90bd
00000210: 8a1c 1a3d 99ac 993c f4a1 c23c 3e43 8dbb
00000220: 5a66 093d 8f8b 63bd 64b5 493d 9161 133d
00000230: 7321 e83c a9f7 3bbd c53e 72bd d70e 4ebd
00000240: 1fda 64bc 86be a13d d5bc 6ebd 0b6c a1bc
00000250: a2bf 20bd 47b6 80bd 672b 993b 87a2 c0bc
00000260: 8749 6bbd 8e49 ee3c 992a fe3b 0913 06bd
00000270: 8348 21bd 2569 d8bc 94c6 77bc bbbb 403d
00000280: 1cb7 993d 8a00 a0bc 9b6f 49bd 7753 4a3d
00000290: 805e a9bc 066c 1cbd 5bf0 6c3d 9c5e 6a3d
000002a0: 8f05 5dbc f527 4abc aa77 673d bb19 f1bb
000002b0: 2db8 55bb 42c3 253c 4c2a be3c 304f 3abb
000002c0: ad2a 333d ea17 b2bc d6c6 0a3d e052 613d
000002d0: a94a 213d 69a2 bdbc fd10 cabc 2fe3 e7bc
000002e0: d723 be3c 2e56 ee3d 7336 dc3c 9583 593d
000002f0: b083 4abd 866d 163d 457a 333d b5ae 79bd
00000300: 48f1 6c3c 34f2 d03b 4ba9 343c 36e3 89bd
00000310: 3e18 f93c ced1 e93c 56dd d8bc e2c2 42bd
00000320: 90f1 5fbd 03bc 013d c5b5 333c df26 233d
00000330: db52 503d f9b2 4bbd c6c7 90bc a0da 54bd
00000340: 7c95 173c e2c2 53bd 4b00 45bd c314 44bd
00000350: 2853 4c3d 74bc dcbc 0c22 233d 8cd8 e2bc
00000360: cbfa 923b 8faa 233d 5e83 53bd 02c3 5f3c
00000370: 8627 1c3d 330f 4abd bc02 0d3d e888 bc3c
00000380: e1e6 b03c d88d 2f3d eff4 77bd c0b4 8a3b
00000390: 756e 1dbd d319 0b3d 642f 9dbb 0597 c1ba
000003a0: fad1 3c3d eb20 06bd 1d76 233d ffca 4d3d
000003b0: c4ba f73b 9827 5d3d 90e8 c63c 3841 adbc
000003c0: f748 f6bc c784 84bd 1f48 6abb 7583 223d
000003d0: b83c 163d 9714 093d 0c97 213d e947 9abb
000003e0: 4c35 b13b fac7 453d a2c9 063d f92f 5a3c
000003f0: 7714 06bd 8151 3b3d 98f2 773d 13d1 c03c
-0.017530402 0.0269999 -0.022400483 0.01425369 -0.01999806 -0.04947576 -0.017818175 -0.038913224
0.0048732287 0.008296476 0.018327622 0.009957406 -0.002966359 0.0147188 -0.0010274346 0.051886182
0.055320952 -0.0073606702 -0.06570029 -0.020173375 0.026581736 -0.06095842 0.008450365 -0.03283071
0.0047510886 -0.024240024 -0.06989853 -0.0650026 -0.06550587 0.049772564 -0.04582997 0.0030890044
-0.058299437 -0.040510386 0.014785653 -0.01618984 0.05512292 0.010508838 0.08808909 -0.06891217
-0.035845213 0.0075464523 0.015135806 -0.015440016 0.037937958 -0.038245343 -0.05622829 -0.05967799
-0.017923342 -0.016681438 -0.010003588 -0.042001188 -0.019893821 0.01298199 -0.058130395 0.0015528661
0.019454617 -0.017089823 -0.018565413 0.019818734 -0.034499288 -0.020362189 -0.015815392 -0.04154709
-0.012605496 0.044936135 -0.004462707 -0.01547233 0.018286457 0.0349621 -0.020145452 -0.0065754415
0.0088478 -0.047604635 0.027076967 0.036725093 0.056978833 -0.038659953 -0.053832196 0.03631189
-0.017207496 0.034370743 -0.037061173 0.02721787 0.01605451 -0.037023593 -0.056057513 -0.017379938
-0.06995257 -0.06584396 -0.038432326 -0.066030495 0.020641644 -0.04877199 -0.023244113 0.052379813
-0.06612455 0.0045464127 -0.032692797 -0.035614584 -0.034377065 0.016101802 -0.090070724 0.04724113
0.021672085 -0.014148295 -0.02302364 -0.05445568 0.033732336 -0.031108055 -0.044983298 0.058053676
-0.011512156 0.0028953422 -0.0340712 -0.026531458 -0.052855555 0.011752838 -0.021008484 -0.045888893
-0.00012154672 0.032953016 0.04351666 -0.064181775 -0.00594831 0.016962895 -0.06850776 0.05304817
-0.060354527 0.03757963 -0.008834901 -0.070638 0.037624873 0.018759059 0.023758866 -0.0043109944
0.033544876 -0.055553015 0.049245253 0.03598172 0.028336262 -0.045890484 -0.059141893 -0.05030712
-0.01396802 0.078976676 -0.058285553 -0.01970484 -0.039245255 -0.06284767 0.0046743634 -0.023515
-0.057443168 0.029087808 0.007756543 -0.032732997 -0.039375793 -0.026417324 -0.015123028 0.047054034
0.075056285 -0.019531507 -0.0491787 0.049396005 -0.020674944 -0.038188957 0.05784641 0.057219133
-0.013490095 -0.012338628 0.056510605 -0.0073578036 -0.0032610998 0.010117354 0.023213528 -0.0028428547
0.04374187 -0.021739919 0.03388103 0.055010676 0.039377842 -0.023148732 -0.024666304 -0.028306572
0.02321045 0.11637531 0.026881432 0.053104002 -0.049441993 0.036725543 0.043817777 -0.06095763
0.014461823 0.006376529 0.011026691 -0.0673279 0.030407067 0.028542425 -0.026472729 -0.047549136
-0.05467373 0.031673443 0.01096863 0.039831992 0.050860267 -0.04973123 -0.017673384 -0.05196631
0.009251948 -0.051699527 -0.048095983 -0.047871362 0.04988399 -0.02694533 0.03982739 -0.027691148
0.0044854633 0.03995758 -0.051638953 0.013657333 0.03812363 -0.0493309 0.034426436 0.0230145
0.021594467 0.042859882 -0.06053632 0.004232973 -0.03843542 0.033960175 -0.004796909 -0.0014769739
0.046098687 -0.032746237 0.039907563 0.05024242 0.007560106 0.053992838 0.024280816 -0.021149263
-0.03006409 -0.06470638 -0.0035748554 0.03967615 0.036679 0.0334669 0.03945069 -0.0047082794
0.005407965 0.048286416 0.032907136 0.013317102 -0.03273436 0.045732025 0.06053409 0.023537194

bias f4 [256]
00000000: 5ab8 873a 923d 39bd 0094 09bc 4f25 53bd
00000010: dd9b 863d 340c 7cbd db2e 55bc 684e b1bc
00000020: 7969 e13c 3153 c13c b8e7 41bd 8309 f7bc
00000030: 6074 8bbc 39d6 95bd 7db6 fc3c 776b d6bc
00000040: dd41 93bc 2e94 e73c 9c74 43bd 27e9 59bc
00000050: 6dfe 9f3c ac09 aa3c 4d74 2a3d 0443 99bd
00000060: 640f 00bd 772c 8d3d 03f2 0d3d 493e 483d
00000070: c89a 81bd 966a 593d 2c52 013c 74e9 a4bc
00000080: 7235 0abd 690e 923d 4eca a4bd ec20 8cbc
00000090: 1317 17bd c53f 7e3d 8a97 b33c 1cd6 bbbb
000000a0: 63d2 883b c390 053c 57ee 573b ab04 8ebd
000000b0: 62e0 663d e9b5 4cbc c08c 48bc 3dca ee3c
000000c0: aafc d43b 1af9 a4bc 88dc 8e3d e9bd 3f3d
000000d0: e4db 673d ea5f 0dbd e682 ad3c 39c0 f13c
000000e0: fd65 2fbd a979 8cbc d8ec 96bc cd4e 8ebb
000000f0: d7b8 eabc 1f0f 44bc 6502 513d 9343 a6bc
00000100: 0483 a7bc b7e8 533d ccde bebc 7f9c c9bc
00000110: 460d 373d 6cbf ccbc 5b9a 983d aee2 15bd
00000120: 8c78 84bb f241 b3bc 23f6 683b f807 983a
00000130: 2b14 9ebb 43ab 02bd f101 f43c adbf 4d3c
00000140: ad51 ee3c 8550 413d ce9a 29bd aacb 0e3d
00000150: 3013 ffbc 37a6 54bb b6be ca3c f723 c03c
00000160: bb20 24bd 6be5 9b3d 9706 e93c 3e72 15bd
00000170: 4234 f2ba 4a3c 053c ccbe 253d a4fa 573c
00000180: e267 b33c c33a b43c 327f df3c 38f8 a83c
00000190: 082d 92bd 6e74 613d 3edc 59bc 1668 5dbd
000001a0: b76f 95bd 547c 243c 5c5c 0ebd a9ea 1dbd
000001b0: 9a76 703d 55a6 25bc f79a b4bb ec8e 23bd
000001c0: 6cb2 b53c f562 03bd f65d 493d 9be7 c73c
000001d0: 7f12 7b3c 38ff f23a 06eb 883d a949 04bd
000001e0: 348d 613c 5a3b 773d 809b 903d 73bb 73bc
000001f0: e49e 593d b9b8 9abd 14d5 af3c b51e bcbc
00000200: 2d53 8bbb 413a 743d 20a4 313d 7f80 0ebd
00000210: 4b14 a43d 8203 973c 89b3 133d 0236 61bd
00000220: 7fcf 143c 91a0 f5bc 5bd8 4e3c d1d2 9dbb
00000230: ddbe 383d 8409 39bd 5c5f 8f3a 6dfd 4a3c
00000240: 2cdd 22bd 795e acbd c7e8 77bd 44d5 e9bc
00000250: 5e81 77bc 9f58 2a3d 6a79 7b3d 7927 35bd
00000260: ae21 c5bc 5c79 3ebd c9fa 893c c9de f03c
00000270: e57c 09bd 4e45 573c 0152 063d 083f 203d
00000280: dd52 ad3c 9e41 75bd fa8d 623b 1e07 45bb
00000290: 579e 113d 5748 5cbd 03c7 763d 4daf 34bd
000002a0: a5d3 05bd d841 47bd cdc2 6ebd 2184 973d
000002b0: 465e 1bbc 7c5b 6dbd 7427 823c f81c e639
000002c0: 181f b03d 2edd b7bc 5c79 9a3c bcb8 b23b
000002d0: 4421 873d db71 203d f6ce 8c3d 1f21 16bc
000002e0: fb4d e33c 2412 6fbd f740 353d 1be0 80bc
000002f0: 8115 283d 0d95 82bc e0ad 8f3d 3376 403d
00000300: 5ffc 9a3b ace8 933d 8a9a 42bd be2f 74bd
00000310: 3529 a83b 55bc 91bc 0e9e d43b dd71 6dbd
00000320: d612 9c3b 009c eb3c 88e2 bdbc afe6 3a3d
00000330: 9e5b 2bbd 96ef 16bd c508 38bd 99a1 8bb8
00000340: ae7a 2fbd 85a4 3d3d ea9f 1a3b 8b1c 02bd
00000350: fbad f13c eb66 b03c 9d1b a0bc 2ec5 993d
00000360: 7963 c0bc c652 e9bc 4de2 a3bc 38d3 aa3c
00000370: 03c8 5f3d d31f 60bd 0837 d53b dd8c 4e3d
00000380: 577a 1bbc 281f 4b3d 6c26 4ebd 84f0 22bd
00000390: e2f8 51bd eba4 b23b 9031 da3c f749 9cbd
000003a0: ed70 7d3d 4a8a 163d 410e 47bd 43f8 c13c
000003b0: 4ce1 6dbb 15c0 933d 8b37 ef3c 2f70 bcbc
000003c0: 3086 8f3d 16d7 2cba b627 de3c 7777 21bd
000003d0: 9ec7 3dbd 3592 ccbc 5588 cdbc 54fa 153d
000003e0: b90b d6bb bcd2 763d de12 a1bc 3e1d b2bc
000003f0: 4f6e 8c3d 200f 0c3d 7028 1e3b d8ea e43c
0.0010354624 -0.045224734 -0.008397102 -0.051549252 0.06572697 -0.061535075 -0.0130116595 -0.021643832
0.027516114 0.023599239 -0.047340125 -0.030155903 -0.017023265 -0.0731625 0.030848736 -0.02617429
-0.017975742 0.0282689 -0.04771863 -0.013300217 0.0195305 0.020756565 0.04161482 -0.07483485
-0.031264678 0.068932466 0.03465463 0.048887525 -0.0632835 0.053080164 0.007893126 -0.02013085
-0.033742376 0.07131655 -0.08046399 -0.017105542 -0.03688724 0.062072534 0.021922845 -0.005732311
0.0041754707 0.00815219 0.0032948458 -0.06934484 0.056366332 -0.012494543 -0.012240589 0.02914917
0.0064998465 -0.020138312 0.06975657 0.04681197 0.05660619 -0.0345153 0.021180581 0.029510604
-0.042821873 -0.017147856 -0.018423483 -0.00434289 -0.028652592 -0.011966496 0.051027674 -0.020295894
-0.020448215 0.051735606 -0.023299597 -0.024610756 0.044690393 -0.02499362 0.07451316 -0.03659313
-0.0040426906 -0.021882031 0.00355471 0.0011599055 -0.0048241816 -0.03190161 0.029786082 0.012557906
0.02909168 0.04719593 -0.0414074 0.034862198 -0.031137079 -0.0032447705 0.024749141 0.02345465
-0.040070277 0.076121174 0.028445525 -0.036485903 -0.0018478709 0.00813205 0.04046516 0.013182316
0.021900121 0.022000676 0.027282331 0.020626172 -0.07137495 0.055042677 -0.013297139 -0.054054342
-0.072966985 0.010039408 -0.03475605 -0.038553867 0.058706857 -0.010110457 -0.0055116373 -0.039931223
0.022179805 -0.032076795 0.049161874 0.02440243 0.015324234 0.0018539196 0.06685452 -0.03229681
0.013766576 0.060359336 0.07060909 -0.014876234 0.053130046 -0.07554764 0.021463908 -0.022963861
-0.0042518587 0.059625868 0.043369412 -0.034790512 0.08011683 0.01843429 0.03605989 -0.054983146
0.009082674 -0.02998379 0.012624825 -0.004816391 0.045103896 -0.04517509 0.0010938453 0.012389523
-0.039761707 -0.08416457 -0.06052473 -0.028544076 -0.015106527 0.041588422 0.061395086 -0.044227097
-0.024063911 -0.046502456 0.016843216 0.029403107 -0.033566374 0.013139082 0.03279305 0.03912261
0.021157676 -0.05987703 0.0034569488 -0.0030064057 0.035551395 -0.053779926 0.060248386 -0.044112492
-0.032672543 -0.048646778 -0.058291245 0.073982485 -0.009482926 -0.057948574 0.015887953 0.00043890602
0.08599681 -0.022444334 0.018856697 0.005454151 0.06598142 0.03917108 0.06875412 -0.00916317
0.027747145 -0.05836691 0.04425141 -0.015731862 0.041036133 -0.015940214 0.07015586 0.046987724
0.004729792 0.07222113 -0.04751066 -0.059615843 0.0051318654 -0.017789999 0.006488568 -0.057969917
0.0047629876 0.02876091 -0.023179308 0.045630153 -0.04183542 -0.03684958 -0.04493024 -6.6581364e-05
-0.042841606 0.046299476 0.0023593851 -0.031765502 0.029501906 0.02153345 -0.019544417 0.07508312
-0.023484932 -0.028481852 -0.02000537 0.02085267 0.054634105 -0.05471785 0.0065068044 0.050427306
-0.009489617 0.04959026 -0.05032961 -0.039780155 -0.051262744 0.0054517887 0.026634961 -0.07631295
0.061875273 0.036752976 -0.048597578 0.02367795 -0.0036297617 0.07214371 0.02920129 -0.023002712
0.07008016 -0.00065933296 0.027118545 -0.03942057 -0.046332948 -0.02497206 -0.025089422 0.036615685
-0.006532159 0.060259566 -0.019662317 -0.02174246 0.06856977 0.03419411 0.002413299 0.027944013

weight f4 [60, 256]
00000000: da73 83bd 9b83 983c bdf9 9f3d 8262 87bc
00000010: 3c15 1e3d 3d95 37bc d866 b8bd d1f7 033c
00000020: 4d09 803c ffce c63c cdf9 203c 6082 973d
00000030: 35ff a53a bcdf f43c 3bdb 5c3c 8a52 333d
00000040: 3942 79bc c9fe 113d 37f8 543d 9c26 23bd
00000050: c127 06bd e8c7 ecbc bef5 4a3c 47b7 8bbc
00000060: 181e 84bb dc1f a93c 7267 3bbd 9c48 fabc
00000070: 70d2 2a3d 57cd 463d b87a 2abd d590 debc
00000080: b38c 0ebd 6e39 083c 8f05 7e3d c3dc 18bd
00000090: 22b9 93bd 7c82 5cbd b2ea 983c 25cf 3c3d
000000a0: 79ca f6bb b903 36bc f5ea e13b 7922 883d
000000b0: 2c7b 9abd 881d 82bd 7330 f23a 8ab3 42bd
000000c0: c3e2 60bd bd82 2cbc ba6c 7bbd 8cca 2abe
000000d0: 3bf8 a7bd 0927 2b3d dd77 5cbc 28a3 2ebd
000000e0: 267e 1a3c 653e 883c a364 13bb f19f 7fbd
000000f0: f2b5 9e3d fe08 a9bd d7c4 2bbd dd09 c23d
00000100: ba0f 4b3d c2f4 3ebb ed9d 2d3d da1e b03c
00000110: fbba 81bd c0a4 8c3a 742e 813c 9fcf 6abd
00000120: b685 9ebd 3026 6c3d 215a 063d 2b68 bd3c
00000130: 325c ebba b0fe 85bc 640a 553d 9985 453d
00000140: b6e5 72bd 8b75 bbba 2b8c 74bc e0f6 45bd
00000150: 4540 ffbc c418 5f3d 39f2 98bd 9f98 5a3d
00000160: 32b0 2abc 527f 9dbc d13a 99bd 167c 97bd
00000170: 7da7 973c 6cb9 e4bc 023c 163d a198 463d
00000180: 4842 473d abb1 013c 16b4 253d b430 1ebc
00000190: 0cef 933d afe9 fb3c 88c6 b93c 4aed b0bc
000001a0: 87cd 7b3d 3903 90bd 6da8 cabc c9de 4fbd
000001b0: b7ec 43bc 1b46 503d 43f9 9b3c 42a2 a73d
000001c0: 63cb 0cbc dabe 61bc 04f1 283c c0c7 e4bc
000001d0: 9a47 81bd 7bd9 b5bd c80a c8bd 8e5d a1bb
000001e0: dbf9 1ebd 8aba 91bd bdc2 cebc 7d5a 433d
000001f0: d0fe fdbc 52fc dd3c bb37 84bd dce9 143d
00000200: 837e 313d bd4b 303d 3f84 b73c 997e bbbc
00000210: 4b61 58bd 9b1b 003d f67e 5dbd 8ae6 2b3d
00000220: 1f35 80bc 6c47 2c3d cc69 68bb 0968 b43c
00000230: c664 a3bd e459 853c b635 56bd 8925 e6bb
00000240: c9c9 873d 1176 27bd 0f7d 853c 1b85 793c
00000250: 2c44 59bd c13e 2f3d fb7c 84bd 7ccd 01bd
00000260: c87f 343d 2bbf abbc c1ad 5abd daae 2d3c
00000270: df25 df3d d2d5 f73c 70a1 1b3d 94dd 0e3d
00000280: 1321 91bd 75ce b73b 47cc 2a3d de0e b7bc
00000290: 1ec5 81bb 1b8b 603d 6726 21bc b43a 51bc
000002a0: e03c 963b bc30 05bc fe6a 4fbd bdaf 37bd
000002b0: a7d1 82bd 9e7f 163d 53c8 66bd 4e09 453b
000002c0: 32c6 523d 2f5c 66bd d42d aa3c 7949 393d
000002d0: b6df 833c c5d4 81ba 58a1 2f3d 7ff1 ac3b
000002e0: 566c c3bc 892f 43bd c6af 87bd ac3d c63b
000002f0: 1796 c8bc 5302 80bc 0f36 903b bc78 9a3c
00000300: e2c8 51bd 75ec 903d cfb9 cfbc 0cfd 833d
00000310: 19b4 4e3d acac f2bc 3910 44bd 5948 283d
00000320: 25cb 35bd 1ada 3ebd ceda 23bd d6a9 2dba
00000330: c652 423d c0b0 5dbc bb8b 4a3e cdaf 58bd
00000340: d8d3 f3bc 1b9f 5fbd 6b40 adbc 9ee4 68bd
00000350: c33b eabc b3ad a4bc a53a 3fbd 393b 01bd
00000360: 9f75 92bc a46c 69bd caeb 273d a258 083d
00000370: 1d5c 98bd 4a38 0a3d c2fa d63c 1925 8ebd
00000380: e1b2 073d c401 5ebd 84b5 6b3c bc2f 8dbc
00000390: 3dad ddbc 7753 553d 1607 06bd 62ee ba3b
000003a0: 1457 52bc b24a 163d bde3 7fbd 5fb3 3e3d
000003b0: a784 1c3d 3ad8 023d d23c c83c a3f6 17bd
000003c0: d5c7 fd3b a577 653d 1997 35bd 4664 12bd
000003d0: e9a9 d03b 03a1 54bd 1cb9 203d b0a9 d0bc
000003e0: 3c07 083d aa51 8b3d 94a8 9ebc e5df 453d
000003f0: 11d4 8cbd 8d08 e9bc cf11 9d3d 1839 b9bd
-0.06418581 0.018617442 0.07811306 -0.016526464 0.03859447 -0.011205015 -0.09003991 0.0080546895
0.015629435 0.024268625 0.009825182 0.07397914 0.0012664559 0.029891841 0.013480003 0.043779887
-0.015213543 0.035643373 0.05199453 -0.039831743 -0.032752756 -0.028903916 0.012387691 -0.017055167
-0.0040319078 0.020645075 -0.04575295 -0.030552201 0.041704595 0.04853567 -0.04162094 -0.02716867
-0.03480215 0.008314474 0.06201702 -0.03731991 -0.07213046 -0.053835377 0.018666599 0.046095986
-0.007531461 -0.011109286 0.006894464 0.066472 -0.075430244 -0.06353289 0.0018477574 -0.047534503
-0.054903757 -0.010529217 -0.061382987 -0.16678828 -0.08201643 0.041785274 -0.013456312 -0.042636067
0.00942949 0.016631315 -0.0022490404 -0.06240839 0.07749547 -0.08253668 -0.041935768 0.094745375
0.049575545 -0.0029137586 0.042386938 0.021499086 -0.06334492 0.0010730252 0.01576922 -0.05732691
-0.07740347 0.057653606 0.032800797 0.02312096 -0.0017956553 -0.016356796 0.052011862 0.04822311
-0.0593011 -0.0014301998 -0.014925997 -0.04833114 -0.031158576 0.054466978 -0.07468075 0.053368207
-0.010417985 -0.01922575 -0.074819215 -0.073967144 0.018512482 -0.027920447 0.03667832 0.048485402
0.048647195 0.0079158945 0.040454946 -0.009655166 0.07223329 0.030751077 0.022677675 -0.021597523
0.061475303 -0.07031865 -0.024738515 -0.050749574 -0.011958293 0.050848108 0.019039756 0.08185245
-0.008593413 -0.013778413 0.010311369 -0.02792728 -0.06312485 -0.08879372 -0.09767681 -0.0049244827
-0.0388125 -0.07115658 -0.025239343 0.04769372 -0.031005293 0.027097855 -0.06455942 0.03635584
0.04333354 0.04304098 0.022401927 -0.022887515 -0.05282716 0.031276327 -0.054076158 0.041967906
-0.01565033 0.0420603 -0.003546345 0.022022264 -0.079782054 0.016278215 -0.052297316 -0.0070235175
0.06630284 -0.04088408 0.016294984 0.015229489 -0.05304353 0.042784456 -0.06469151 -0.031690106
0.044067174 -0.02096518 -0.05338836 0.01060077 0.10895895 0.030253325 0.037995756 0.034879282
-0.070863865 0.0056093284 0.04169872 -0.022345956 -0.003960266 0.05482016 -0.009835816 -0.012770344
0.0045848936 -0.008129295 -0.050639145 -0.04484533 -0.06387644 0.0367428 -0.056343388 0.003006536
0.051458545 -0.056240257 0.020773806 0.045236085 0.016097885 -0.0009905329 0.04287848 0.005277812
-0.02385537 -0.047652755 -0.06625323 0.0060498323 -0.02448563 -0.015626108 0.0044009755 0.018856399
-0.051216967 0.070763506 -0.025357155 0.06444749 0.050464723 -0.029623352 -0.047867034 0.04108462
-0.044383187 -0.046594717 -0.04000359 -0.0006624734 0.04744222 -0.01353091 0.19779865 -0.05290203
-0.0297641 -0.054595094 -0.021148881 -0.05685865 -0.02859295 -0.020102357 -0.046686787 -0.03155062
-0.017878352 -0.056988373 0.04099635 0.03328765 -0.07439444 0.033745088 0.026242618 -0.069406696
0.033129577 -0.054200903 0.014386538 -0.017234676 -0.027060146 0.05208155 -0.0327216 0.005704687
-0.012838144 0.03669233 -0.062473048 0.04655778 0.038212445 0.03194449 0.024443064 -0.037100445
0.007744769 0.056022305 -0.04433355 -0.03574016 0.006367911 -0.051911365 0.039239034 -0.025471538
0.033210024 0.068026856 -0.019367494 0.048309226 -0.06876386 -0.02844646 0.07669412 -0.09044093

bias f4 [60]
00000000: d9dd 75bd 2a6d 94bd 513b 3c3d f3ad 553b
00000010: ab80 913d 80c2 8c3d 31a2 283d 07ce 753d
00000020: 4c35 0cbd 6adc fabc feb1 683d be45 02bd
00000030: 31cc 7b3d 48ce c3bc 103d 073d a2b2 ed3c
00000040: cfdf 703d 2ff7 b73c df2a 7c3c 99f8 a33b
00000050: 2b0d 72bc 9271 71bc 5801 18bd 61df 423b
00000060: ec14 a6bc 10ff ce3c d308 773d fe26 cabc
00000070: 87d1 6bbd 7e2d 8bbb b959 acbc 6664 a93a
00000080: 5860 1bbb 8a64 f33c 4568 5c3c f235 8d3c
00000090: acce ddbc 3c30 3f3c 2ff0 223d 6de0 c93c
000000a0: 0e5e 2e3c d69f 9abd e991 263d 9d6b 5bbc
000000b0: 0a05 79bd 95e7 3e3b 80d0 9cbc 6bc3 39bd
000000c0: 945e af3c 2502 a83b 2068 843d facc 053d
000000d0: 6b3e b23a b535 4539 f6b3 a63d 6edc 1b3c
000000e0: 60ac a03d 524f 09bd 2475 5e3c 9cf7 d6bc
-0.060026024 -0.07247384 0.045955006 0.0032604903 0.071046196 0.068730354 0.041170303 0.060010936
-0.034230515 -0.03062268 0.05681037 -0.031804793 0.06147403 -0.023902074 0.033017218 0.029015843
0.05880719 0.022456734 0.015391081 0.0050040004 -0.014773647 -0.01473655 -0.037110656 0.0029735195
-0.020273648 0.025268108 0.06031115 -0.024676796 -0.057572868 -0.0042473665 -0.021038877 0.0012923598
-0.0023708548 0.029711027 0.013452594 0.017237637 -0.027076088 0.011669215 0.03977984 0.024643147
0.010642542 -0.075500175 0.040666495 -0.013392356 -0.06079582 0.0029129733 -0.01914239 -0.04535238
0.021407403 0.005127209 0.06465173 0.032666184 0.0013598924 0.00018807391 0.081397936 0.009513004
0.07845378 -0.03352291 0.013577733 -0.026241116
