data/example_dynamics_data/kitchen_LSTM.pth (torch, 187027 bytes, 10 tensors)

weight f4 [64, 70]
-0.02666288 -0.08716515 0.19511662 -0.10048089 -0.019026414 -0.12830634 0.025117012 0.0733566
-0.17255424 -0.10084195 -0.30198354 -0.16030635 -0.13579446 0.058571447 -0.11454629 0.07380983
-0.12618595 -0.716921 -0.5433703 -0.21692765 0.049033348 -0.6489663 0.018471826 0.007983592
-0.22565345 0.10139305 0.051768664 0.9928435 0.040599 -0.01475998 -0.11053663 0.08023724
-0.038915593 0.0529909 -0.049107213 0.077797405 0.072701566 -0.077172235 0.05761281 -0.042427983
-0.111381605 -0.06068692 0.052678302 -0.030395731 -0.057301104 0.040483326 0.039335772 0.06693263
0.08893998 -0.00060372625 0.0060810186 -0.1061422 -0.040233906 -0.12412341 0.12241182 0.035174266
-0.005186552 0.08494414 0.008629273 0.055897593 0.029703274 0.03464669 -0.044572476 0.047045883
0.04527929 -0.0050087334 -0.03205863 -0.011758336 0.06909539 -0.005318186 -0.14377052 -0.038185764
0.14180611 0.041943822 0.12294646 -0.07418023 0.115876846 -0.33093888 -0.1411756 -0.24408083
-0.36132744 -0.10511645 0.027146144 0.14443304 -0.034999818 -0.23844312 -0.023933254 0.11154599
-0.06022486 -0.17159434 -0.054131486 -0.36055547 0.03976863 -0.103623405 0.06922483 0.10728353
0.058828365 0.42337433 -0.06574696 -0.23128004 -0.0064470987 0.04741991 0.050347764 0.015273197
-0.028691558 0.057221867 0.040123656 0.09732544 -0.048589446 -0.09407832 -0.032346357 -0.019771725
-0.0031555842 0.08255204 -0.018800233 0.033232257 -0.021269225 0.038730077 0.0560291 -0.11477172
0.08157441 0.091016345 0.051694218 -0.05041264 -0.03983493 -0.018136706 -0.048209332 -0.08771951
0.08118263 0.0548175 0.047080804 0.013289066 -0.11093845 0.096831664 0.08971708 0.042736102
0.032798816 0.006869554 0.05151908 -3.2218395e-05 -0.043314498 0.059863653 0.066564925 0.020764949
0.30836782 0.113061614 0.13209967 -0.36800542 -0.35314795 0.005002131 0.008842026 -0.07129512
-0.09493668 -0.022928094 -0.09583941 0.1187986 0.21975616 0.2539406 0.33932284 -0.45898432
0.1491882 0.023761488 -0.19028796 0.1354233 0.34725827 0.037515208 -0.06961362 -0.1760174
0.28095406 -0.13771579 -0.033117145 -0.019199241 0.09508524 -0.11362593 0.012233863 0.0013979656
0.058217607 0.033430792 0.025610263 -0.019661553 -0.08177026 -0.055820826 0.0785296 0.052230798
-0.055441752 0.0530778 -0.08443339 0.092278875 0.12813981 0.06885852 -0.10074919 -0.11311515
-0.073320106 0.053619545 -0.06377453 -0.018817632 0.0371603 -0.08412338 -0.022301538 0.027269132
0.0075703673 0.054912 0.023863941 -0.0049145897 0.019683199 0.055641755 0.054371558 0.039055243
-0.07676778 0.05910777 0.114354245 -0.09090955 0.04729795 0.11785522 -0.11138456 0.08040324
-0.038464893 -0.0015137123 -0.25846806 0.17065008 0.0087787565 0.074279435 0.16341038 0.07105574
0.032062728 -0.07850109 -0.07814019 -0.2033068 -0.20283309 -0.443781 0.21661042 0.010167426
-0.0031204107 -0.025816502 0.11238565 -0.120239556 -0.06200576 -0.018479198 0.4289582 -0.073788315
0.09864931 -0.012234518 0.053868003 -0.10925472 -0.04671439 0.108154535 -0.065538004 0.0019883697
-0.05621986 0.008716315 0.06760142 0.07586561 0.13030156 0.10715317 -0.019746544 -0.08869628
00000000: 1d6c dabc a483 b2bd a7cc 473e edc8 cdbd
00000010: 48dd 9bbc bd62 03be 31c2 cd3c fc3b 963d
00000020: 0fb2 30be 3986 cebd 969d 9abe 5927 24be
00000030: b40d 0bbe 9de8 6f3d 3f97 eabd 9c29 973d
00000040: e436 01be 2288 37bf 511a 0bbf 4822 5ebe
00000050: 31d7 483d a822 26bf 3a52 973c 9dcd 023c
00000060: b311 67be 29a7 cf3d 610b 543d fe2a 7e3f
00000070: 234b 263d d8d3 71bc 0761 e2bd 6c53 a43d
00000080: f565 1fbd fc0c 593d a524 49bd 3f54 9f3d
00000090: 8fe4 943d 7a0c 9ebd 69fb 6b3d f7c8 2dbd
000000a0: 0a1c e4bd d992 78bd 34c5 573d 7800 f9bc
000000b0: 90b4 6abd d8d1 253d 8c1e 213d fa13 893d
000000c0: 2a26 b63d 6243 1eba 4843 c73b 1561 d9bd
000000d0: 4fcc 24bd 6a34 febd 0cb3 fa3d e412 103d
000000e0: f4f3 a9bb 31f7 ad3d cb61 0d3c e0f4 643d
000000f0: 4854 f33c b0e9 0d3d a191 36bd 2fb3 403d
00000100: c776 393d 4d20 a4bb e94f 03bd 09a6 40bc
00000110: e281 8d3d 2d44 aebb 9438 13be ad68 1cbd
00000120: 9f35 113e 49cd 2b3d 5bcb fb3d ceeb 97bd
00000130: d750 ed3d d270 a9be 5690 10be 53f0 79be
00000140: e9ff b8be 4b47 d7bd 9761 de3c 41e6 133e
00000150: f85b 0fbd 6f2a 74be ac0f c4bc 3972 e43d
00000160: 58ae 76bd 6db6 2fbe fab8 5dbd ba9a b8be
00000170: 6ee4 223d 8238 d4bd bfc5 8d3d 78b7 db3d
00000180: 03f6 703d 85c4 d83e 58a6 86bd add4 6cbe
00000190: 2f42 d3bb 613b 423d 7539 4e3d 6e3c 7a3c
000001a0: 8f0a ebbc 7a61 6a3d b458 243d 8f52 c73d
000001b0: ba05 47bd 22ac c0bd 9d7d 04bd 50f8 a1bc
000001c0: ebcd 4ebb 0b11 a93d f202 9abc 8c1e 083d
000001d0: cc3c aebc 6ea3 1e3d c57e 653d 6f0d ebbd
000001e0: 7c10 a73d c766 ba3d 51bd 533d 7c7d 4ebd
000001f0: f429 23bd 6e93 94bc 2677 45bd 49a6 b3bd
00000200: 1443 a63d 5188 603d cdd7 403d 62ba 593c
00000210: b333 e3bd ae4f c63d 97bd b73d 0d0c 2f3d
00000220: 0d58 063d ff19 e13b ac05 533d 3d22 07b8
00000230: 8b6a 31bd 9733 753d 3153 883d 411b aa3c
00000240: 63e2 9d3e d98c e73d 2345 073e 356b bcbe
00000250: cfcf b4be ebe8 a33b 25de 103c 2d03 92bd
00000260: 296e c2bd b3d3 bbbc 7447 c4bd ae4c f33d
00000270: c207 613e 8104 823e b9bb ad3e feff eabe
00000280: cbc4 183e 74a7 c23c d9da 42be 68ac 0a3e
00000290: d6cb b13e 8ca9 193d 9691 8ebd e83d 34be
000002a0: 36d9 8f3e 5e05 0dbe d8a5 07bd ba47 9dbc
000002b0: 0dbc c23d b6b4 e8bd 8a70 483c f13b b73a
000002c0: 9675 6e3d baee 083d 9dcc d13c 4411 a1bc
000002d0: 2b77 a7bd 61a4 64bd 20d4 a03d f6ef 553d
000002e0: e416 63bd 1b68 593d 6aeb acbd b5fc bc3d
000002f0: 1537 033e b205 8d3d 9755 cebd eaa8 e7bd
00000300: da28 96bd 2ba0 5b3d 399c 82bd 6f27 9abc
00000310: 6635 183d e148 acbd b7b1 b6bc 8463 df3c
00000320: d810 f83b 68eb 603d 507e c33c 910a a1bb
00000330: a93e a13c 9ce8 633d b6b4 5e3d 64f8 1f3d
00000340: 6d38 9dbd fd1a 723d 8f32 ea3d c92e babd
00000350: 7fbb 413d 145e f13d 971d e4bd 74aa a43d
00000360: 5d8d 1dbd c267 c6ba ed55 84be e5be 2e3e
00000370: c6d4 0f3c d11f 983d 0d55 273e ac85 913d
00000380: 3554 033d 2ec5 a0bd f707 a0bd a82f 50be
00000390: 7ab3 4fbe 4337 e3be 1fcf 5d3e 4795 263c
000003a0: ce7f 4cbb 217d d3bc 732a e63d 2840 f6bd
000003b0: c0f9 7dbd b061 97bc 69a0 db3e 541e 97bd
000003c0: a608 ca3d 4a73 48bc b2a4 5c3d f0c0 dfbd
000003d0: 9757 3fbd 2080 dd3d ca38 86bd 4f4f 023b
000003e0: cc46 66bd e0ce 0e3c 9d72 8a3d 6e5f 9b3d
000003f0: c66d 053e 1f73 db3d 81c3 a1bc 65a6 b5bd

bias f4 [64]
-0.043088127 0.050283525 -0.10049862 -0.029199913 0.050423954 0.02901525 -0.060736235 -0.009787714
0.0027112905 -0.09746122 0.09413654 0.122854866 0.045465868 0.033499252 -0.13662995 -0.030501172
-0.0011678837 -0.019185353 0.063302726 0.083711706 0.091158785 0.09729447 -0.053919792 0.12222678
-0.123682894 0.17696927 0.14577015 0.033927448 0.09787373 0.17958233 -0.006045943 0.12261756
0.08728036 -0.04165058 -0.047759034 0.00715288 -0.040652025 -0.045767315 -0.12662877 0.008776783
0.030245561 -0.04420162 -0.064165935 0.19945945 0.15616664 -0.03850815 0.057285126 -0.12728508
-0.049183313 0.015418086 0.03197612 -0.05883891 0.091471724 0.09047173 0.08446936 -0.0912502
0.08847601 0.051816627 0.039243866 0.12552105 0.07499397 -0.020950187 0.12612343 0.030741824
00000000: 2d7d 30bd 19f6 4d3d 38d2 cdbd a834 efbc
00000010: 5989 4e3d 64b1 ed3c 8fc6 78bd a65c 20bc
00000020: e8af 313b c099 c7bd a9ca c03d 559b fb3d
00000030: 6b3a 3a3d 8336 093d b9e8 0bbe 98dd f9bc
00000040: ad13 99ba 9a2a 9dbc dca4 813d 0b71 ab3d
00000050: 75b1 ba3d 5342 c73d 00db 5cbd 0952 fa3d
00000060: 754d fdbd 6f37 353e c544 153e 82f7 0a3d
00000070: 0672 c83d 6ee4 373e 0c1d c6bb ea1e fb3d
00000080: 0cc0 b23d cc99 2abd fa9e 43bd b562 ea3b
00000090: bd82 26bd 8276 3bbd f9aa 01be 7fcc 0f3c
000000a0: 8ac5 f73c c20c 35bd 6e69 83bd 193f 4c3e
000000b0: 26ea 1f3e b9ba 1dbd cfa3 6a3d 0557 02be
000000c0: 7174 49bd 249c 7c3c 64f9 023d 1201 71bd
000000d0: 8755 bb3d 3e49 b93d 46fe ac3d 63e1 babd
000000e0: e932 b53d ac3d 543d 2dbe 203d 9788 003e
000000f0: 7096 993d ba9f abbc 8026 013e 47d6 fb3c

weight f4 [64, 64]
-0.015055498 -0.070846185 0.1738089 0.031056866 0.11510085 -0.086655505 0.06949623 0.15115677
0.12163033 -0.09779719 -0.12941213 -0.12689555 -0.12023826 -0.0013600228 0.083998375 -0.07691554
0.049575325 -0.27152607 0.31568918 0.07129305 -0.048487928 0.013098656 0.06826171 -0.13551836
-0.07475388 0.055520777 -0.056211356 -0.15723626 -0.18525653 0.13576964 0.15443656 0.08296328
-0.21984446 -0.037439108 -0.030490447 -0.3265135 -0.048380148 -0.09243912 -0.0072013154 -0.11999643
-0.014087645 -0.34185442 -0.15580297 -0.10884543 0.15095998 0.011545446 -0.08694632 0.08868271
-0.014218637 -0.030394353 0.16157667 0.061780922 -0.14254603 -0.18990532 -0.05544512 0.015635902
-0.11009471 -0.16252038 -0.012311351 -0.17587747 0.12462098 -0.017938344 0.048840646 0.0074385535
0.1893857 -0.026810432 -0.14737882 0.079458535 -0.13058887 -0.039326485 0.014798328 0.14467263
0.08628274 -0.07471524 -0.07456643 0.18706028 0.06944617 -0.0628042 0.07062691 -0.013608059
-0.01967929 -0.12437057 -0.29844975 0.08108038 -0.0165566 -0.13127117 0.02527732 0.1995316
-0.040437017 0.16013362 -0.29050666 0.16651897 0.0028300185 -0.09633096 0.027348995 0.06010639
0.110655636 -0.037378754 0.00686992 -0.016053842 -0.025416002 0.22047843 -0.045761187 0.028942378
0.052114222 -0.06183736 0.15742221 0.034728955 -0.1630252 0.12415483 -0.02443446 0.013778908
-0.037940938 -0.0063101975 0.07908662 -0.071452975 0.15996587 0.12165822 -0.093832195 0.036871202
0.18883008 -0.003549026 0.14958836 0.19639225 0.06905892 -0.074282475 0.17928074 0.039609868
0.13237168 0.1355238 0.078933075 0.0049402667 0.07368655 -0.033327844 -0.056416582 -0.07387235
-0.11115824 0.01792623 -0.0109055 0.051290605 -0.0462349 -0.047768727 -0.07200462 0.20137013
-0.04876512 0.09034875 0.3122624 -0.0106495125 0.056574844 0.001817199 0.05970098 -0.042167746
-0.27076504 -0.03555925 0.13663104 0.18017904 0.03771308 -0.29539567 0.083032385 0.062419776
0.048779815 0.032942414 0.08776431 0.0019906755 0.0400003 0.011713816 -0.09839816 -0.018491177
0.11355162 -0.042716347 0.079442404 0.15104951 0.025736293 0.18946804 -0.13559319 -0.049975112
0.05782056 0.14524266 0.15540467 0.06550801 -0.09867846 0.13624333 0.0007769419 -0.031714387
0.09159281 -0.0149542475 0.0685056 0.28972074 -0.02100323 -0.066328 -0.09098782 -0.024733739
-0.05973998 -0.009236675 0.116503574 -0.030307481 0.13932277 -0.055519816 -0.10611997 0.020865526
0.07948561 0.15747045 0.17798771 0.09666024 0.050987467 0.301046 -0.36799476 0.18996564
-0.114479996 0.19781482 -0.09722634 -0.011347176 0.024126919 0.031324238 -0.12909976 0.011216779
-0.15559335 -0.17506044 0.2690418 0.3861336 -0.19914478 -0.13178547 0.09364961 0.10433646
0.19687061 0.20123412 -0.35729358 0.0067473208 0.23241247 -0.26943156 -0.007995046 -0.15939008
-0.075757064 0.36439922 0.043744788 0.41132745 0.19868249 -0.105967365 -0.12496738 -0.14349501
-0.007751554 0.04199669 -0.16599476 0.092107765 0.0076695154 -0.05696408 -0.098563425 0.19659534
0.043121412 0.028208083 -0.019793384 0.032511044 0.11579151 0.086266465 0.13215119 0.18218806
00000000: 56ab 76bc ce17 91bd f6fa 313e f86a fe3c
00000010: ffb9 eb3d 7178 b1bd 0a54 8e3d d7c8 1a3e
00000020: 5319 f93d e549 c8bd 9d84 04be e8f0 01be
00000030: 7a3f f6bd cb42 b2ba 5707 ac3d e585 9dbd
00000040: 7f0f 4b3d 7705 8bbe 03a2 a13e 1702 923d
00000050: 479b 46bd bf9b 563c cccc 8b3d 53c5 0abe
00000060: 9018 99bd c169 633d e13d 66bd 8b02 21be
00000070: e3b3 3dbe 3207 0b3e 9e24 1e3e a7e8 a93d
00000080: e81e 61be c059 19bd 1ac7 f9bc c72c a7be
00000090: 432a 46bd b950 bdbd 03f9 ebbb b0c0 f5bd
000000a0: decf 66bc 8b07 afbe d08a 1fbe 5aea debd
000000b0: 4195 1a3e 1c29 3d3c ea10 b2bd 489f b53d
000000c0: 49f5 68bc 94fd f8bc 5b74 253e fe0d 7d3d
000000d0: 96f7 11be 8a76 42be 6c1a 63bd dd16 803c
000000e0: 5679 e1bd be6b 26be 8cb5 49bc 3919 34be
000000f0: 4939 ff3d 6ff3 92bc 210d 483d 1cbf f33b
00000100: 53ee 413e 8da1 dbbc 79ea 16be 28bb a23d
00000110: 17b9 05be cf14 21bd b074 723c 1025 143e
00000120: 01b5 b03d 4e04 99bd 49b6 98bd bb8c 3f3e
00000130: cb39 8e3d 7d9f 80bd d7a4 903d 56f4 5ebc
00000140: 7636 a1bc ffb5 febd 68ce 98be 780d a63d
00000150: b5a1 87bc f36b 06be 6212 cf3c 0352 4c3e
00000160: 49a1 25bd 11fa 233e 4abd 94be f383 2a3e
00000170: d577 393b 2b49 c5bd 000b e03c 1e32 763d
00000180: 6c9f e23d 771a 19bd 111d e13b 5983 83bc
00000190: 3835 d0bc 19c5 613e 1570 3bbd 9118 ed3c
000001a0: b975 553d 2c49 7dbd 4a33 213e f33f 0e3d
000001b0: 14f0 26be e344 fe3d c72a c8bc eec0 613c
000001c0: f567 1bbd c6c5 cebb 2af8 a13d f055 92bd
000001d0: 18ce 233e f227 f93d 182b c0bd 4206 173d
000001e0: ac5c 413e c796 68bb b12d 193e 0d1b 493e
000001f0: c36e 8d3d 6921 98bd 5f95 373e f53d 223d
00000200: 718c 073e c0c6 0a3e aaa7 a13d f6e1 a13b
00000210: f9e8 963d c782 08bd 1315 67bd 634a 97bd
00000220: eea6 e3bd 07da 923c fbac 32bc 1916 523d
00000230: ce60 3dbd 24a9 43bd 2977 93bd f933 4e3e
00000240: efbd 47bd c408 b93d dbe0 9f3e 4b7b 2ebc
00000250: 06bb 673d 152f ee3a 0489 743d 16b8 2cbd
00000260: b7a1 8abe 93a6 11bd 02e9 0b3e db80 383e
00000270: 0879 1a3d 1a3e 97be e20c aa3d e1ab 7f3d
00000280: 58cd 473d a0ee 063d c6bd b33d fe75 023b
00000290: 5bd7 233d 4eeb 3f3c f984 c9bd cf7a 97bc
000002a0: c08d e83d 56f7 2ebd b3b2 a23d b9ac 1a3e
000002b0: ebd4 d23c e903 423e f1d8 0abe b4b2 4cbd
000002c0: 40d5 6c3d 7eba 143e 6722 1f3e 1029 863d
000002d0: ef17 cabd 5f83 0b3e b0ab 4b3a f2e6 01bd
000002e0: 0395 bb3d a902 75bc aa4c 8c3d 4756 943e
000002f0: f70e acbc f9d6 87bd d257 babd 699e cabc
00000300: e9b1 74bd 6c55 17bc 6d99 ee3d 6547 f8bc
00000310: a1aa 0e3e bf68 63bd 6d55 d9bd 2eee aa3c
00000320: 5ac9 a23d ef3f 213e 6942 363e cef5 c53d
00000330: 3cd8 503d b422 9a3e cf69 bcbe 5a86 423e
00000340: 7d74 eabd f88f 4a3e 9a1e c7bd 81e9 39bc
00000350: d1a5 c53c d84d 003d ba32 04be 95c6 373c
00000360: dd53 1fbe 0b43 33be d9bf 893e 4eb3 c53e
00000370: 9cec 4bbe c5f2 06be 5ecb bf3d 5bae d53d
00000380: 7398 493e 5110 4e3e 2fef b6be a118 dd3b
00000390: 89fd 6d3e eff2 89be a7fd 02bc 2737 23be
000003a0: 8526 9bbd 8992 ba3e bc2d 333d 8399 d23e
000003b0: 6c73 4b3e 6b05 d9bd e6ee ffbd 5bf0 12be
000003c0: bf00 febb b904 2c3d 88fa 29be ffa2 bc3d
000003d0: 8f50 fb3b 2b53 69bd 9fdb c9bd 4a50 493e
000003e0: 14a0 303d a314 e73c bc25 a2bc 4d2a 053d
000003f0: 1924 ed3d 79ac b03d a452 073e 828f 3a3e

bias f4 [64]
-0.10122278 0.09983634 -0.060297884 0.13317358 -0.044430792 -0.07631073 -0.054246996 0.045204625
0.05998441 0.020542921 0.082052894 0.12529053 0.042014472 0.090287216 -0.1025918 0.06359011
0.090549484 -0.040792685 0.12217999 0.13685097 -0.12666549 0.05332508 -0.09555834 0.05764914
-0.027116077 0.09027074 0.007886899 0.09704841 0.023569897 -0.0916534 0.12184105 -0.039069846
-0.079239234 0.09426579 -0.058785234 -0.043639213 0.052533317 0.008448304 -0.11265042 0.08213241
-0.10480564 -0.062209904 -0.023831915 0.12648122 0.010364778 0.040391278 0.07634125 -0.036945857
-0.08498727 0.11305119 0.12714317 -0.09754577 0.013284013 -0.04688364 0.1796607 -0.052775647
-0.0059646294 -0.023688305 -0.046231665 0.14704913 -0.11093324 0.12506615 -0.009856979 0.12486124
00000000: e44d cfbd ff76 cc3d eafa 76bd a85e 083e
00000010: 10fd 35bd cd48 9cbd 1932 5ebd 7c28 393d
00000020: 36b2 753d a149 a83c 590b a83d 294c 003e
00000030: 5e17 2c3d 81e8 b83d a61b d2bd 883b 823d
00000040: 0272 b93d 3b16 27bd 8139 fa3d a922 0c3e
00000050: 99b4 01be 666b 5a3d 17b4 c3bd 8121 6c3d
00000060: 8922 debc dedf b83d 0d38 013c 51c1 c63d
00000070: a815 c13c c7b4 bbbd cd87 f93d b407 20bd
00000080: 2e48 a2bd 6c0e c13d c9c8 70bd 08bf 32bd
00000090: 2d2d 573d c16a 0a3c 43b5 e6bd 0935 a83d
000000a0: 57a4 d6bd d0cf 7ebd 263b c3bc 4b84 013e
000000b0: 08d1 293c 5371 253d cd58 9c3d 8a54 17bd
000000c0: ce0d aebd 6287 e73d d231 023e 14c6 c7bd
000000d0: 30a5 593c 0f09 40bd f9f8 373e 472b 58bd
000000e0: f072 c3bb fa0d c2bc 6a5d 3dbd 0c94 163e
000000f0: f730 e3bd 5711 003e 2b7f 21bc 40b7 ff3d

weight_ih_l0 f4 [256, 64]
0.031081889 0.058946315 0.042909887 0.013984007 -0.06347757 0.07313373 0.005726682 0.01365602
0.018893933 0.159329 0.033752993 0.03594455 0.033194773 0.14321494 0.13312283 -0.030713418
0.15489526 -0.0041902238 0.0754433 0.12958091 0.004994849 -0.07264349 0.11081767 0.06560224
0.083131365 0.11618574 -0.025665572 -0.0018678413 -0.13786139 0.022133632 0.13215001 0.07641686
0.020324828 0.06534924 0.17634164 0.084975354 -0.0552427 -0.060390454 0.060217235 0.03611908
0.08440921 0.014075028 0.07968077 0.15940568 0.103318915 0.052599087 0.036722597 0.15762635
-0.14011087 -0.12534401 -0.05466587 -0.029293135 -0.032802027 0.17017826 0.037981022 0.23353954
-0.0045299716 0.127404 0.0601812 0.13436392 0.07372702 0.09422295 0.058781546 0.17724998
-0.10371694 0.020140203 0.15105557 0.22494814 0.15144987 0.105182916 0.1339284 0.18275443
0.12914856 0.10661867 0.08553155 -0.05560751 0.073953755 0.2292962 -0.04863283 0.09889808
0.12216227 0.15679209 -0.018997401 0.051521573 0.056090306 0.016957637 0.08426493 0.11937384
-0.005305191 0.09445414 0.07039044 0.007882204 -0.029384403 0.3621756 0.090824604 -0.0034752197
-0.12337922 -0.02856478 0.1513117 0.13357785 0.04781063 -0.020043958 -0.009142516 0.1015483
0.0151598165 0.07222499 -0.020437347 0.16327326 0.10740856 -0.15052715 -0.019504344 0.10925215
-0.011113717 -0.07985845 -0.057435498 -0.12606972 -0.164021 -0.060047414 -0.016075676 0.15592696
0.16762075 -0.047654737 0.0004965933 0.029153682 0.004962817 0.079019114 0.030730031 0.14869922
0.0966378 0.05277755 0.19887313 0.4269214 -0.06795419 0.14108387 0.22799823 -0.11345136
-0.019522797 -0.0052212095 -0.13698947 0.24457261 -0.012036525 -0.15330315 0.019455211 -0.039797742
-0.016204655 -0.16884843 -0.42373812 0.028172119 0.054288577 0.047113452 0.11129049 0.0065937033
0.14688754 0.037541434 -0.044881955 -0.024050692 0.07840315 -0.09427578 -0.011389967 0.19257423
-0.100604415 -0.44827467 -0.07605934 -0.22864565 -0.11217762 0.119549334 0.105447285 -0.03222525
0.41929054 -0.030085841 -0.026517082 -0.13661525 0.061216783 -0.04949588 -0.23869349 -0.029935187
-0.07387777 0.0048123174 0.051949907 -0.14793186 -0.044116754 -0.030168004 0.16707939 -0.16449822
0.002472571 -0.16014609 -0.4058865 0.33971515 0.13903907 -0.007429141 -0.015059876 -0.09711251
0.030783877 0.1270136 0.087628715 -0.36235416 0.016902603 0.056985002 0.35163954 -0.014650464
0.16722204 0.056688532 0.06581552 0.13308477 0.073226795 0.038419973 -0.041281242 0.026414523
0.0050906735 0.039934583 0.03533056 0.11807609 0.051183835 -0.07661687 0.17349751 -0.07155754
0.10047016 0.16518241 -0.037100166 0.067366734 -0.045905706 0.28290248 -0.022854624 -0.033687238
-0.029198382 -0.011991864 0.050347243 -0.024507076 0.12081902 -0.11866191 -0.084318995 -0.053893376
-0.30525187 0.023130525 0.14002286 0.057806447 -0.1987208 0.108244605 0.034174517 0.098000735
0.04572575 -0.09103808 -0.045765772 -0.046888597 -0.14606981 -0.005661695 0.004603806 -0.029214704
0.012122205 0.07599026 -0.29069653 0.41937724 0.061006796 0.117106795 0.007970136 0.030912625
00000000: 729f fe3c b171 713d 47c2 2f3d 2d1d 653c
00000010: 8700 82bd 23c7 953d e4a6 bb3b 80bd 5f3c
00000020: 73c7 9a3c 2427 233e 9440 0a3d 983a 133d
00000030: 3ef7 073d f0a6 123e 5a51 083e b59a fbbc
00000040: dd9c 1e3e 254e 89bb 0482 9a3d dcb0 043e
00000050: d5ab a33b 1cc6 94bd 60f4 e23d 785a 863d
00000060: c740 aa3d caf2 ed3d 9b40 d2bc 5bd2 f4ba
00000070: 892b 0dbe 9751 b53c 5552 073e 7180 9c3d
00000080: 4180 a63c d3d5 853d e792 343e 8f07 ae3d
00000090: 2b46 62bd fb5b 77bd 59a6 763d 9af1 133d
000000a0: bcde ac3d f29a 663c ac2f a33d 3e3b 233e
000000b0: de98 d33d 2472 573d 6f6a 163d cd68 213e
000000c0: 3979 0fbe 2e5a 00be 52e9 5fbd 28f8 efbc
000000d0: 6b5b 06bd 3643 2e3e fd91 1b3d fd24 6f3e
000000e0: 2870 94bb 3276 023e 9080 763d b296 093e
000000f0: 31fe 963d f6f7 c03d ebc4 703d 0581 353e
00000100: 8c69 d4bd 11fd a43c 50ae 1a3e ce58 663e
00000110: ad15 1b3e 246a d73d 8724 093e fa23 3b3e
00000120: 853f 043e e45a da3d 2a2b af3d b3c4 63bd
00000130: 1175 973d a0cc 6a3e 3833 47bd 148b ca3d
00000140: 3630 fa3d 1b8e 203e 70a0 9bbc 4908 533d
00000150: f3be 653d beea 8a3c 1793 ac3d 467a f43d
00000160: 2bd7 adbb 2c71 c13d dd28 903d 5c24 013c
00000170: 8fb7 f0bc 156f b93e 4002 ba3d 83c0 63bb
00000180: 3fae fcbd af00 eabc 74f1 1a3e a2c8 083e
00000190: 14d5 433d 3a33 a4bc 7eca 15bc 8ef8 cf3d
000001a0: e160 783c b2ea 933d 396c a7bc 1b31 273e
000001b0: 05f9 db3d ca23 1abe 93c7 9fbc 97bf df3d
000001c0: 4f16 36bc d48c a3bd 7c41 6bbd 6c18 01be
000001d0: 1ff5 27be 47f4 75bd 23b1 83bc 51ab 1f3e
000001e0: c6a4 2b3e 9d31 43bd d02d 023a b4d3 ee3c
000001f0: 209f a23b c6d4 a13d 8cbd fb3c 9c44 183e
00000200: 0aea c53d 462d 583d 66a5 4b3e 7195 da3e
00000210: 912b 8bbd 4a78 103e 5e78 693e 3059 e8bd
00000220: 46ee 9fbc ae16 abbb f846 0cbe 3e71 7a3e
00000230: d834 45bc 80fb 1cbe 8960 9f3c f502 23bd
00000240: a0bf 84bc 9ae6 2cbe 34f4 d8be 37c9 e63c
00000250: b35d 5e3d 09fa 403d 45ec e33d fe0f d83b
00000260: b069 163e 0cc5 193d 24d6 37bd f505 c5bc
00000270: d591 a03d a913 c1bd fc9c 3abc 2e32 453e
00000280: b009 cebd 4284 e5be 00c5 9bbd 1622 6abe
00000290: 61bd e5bd 48d6 f43d bff4 d73d a0fe 03bd
000002a0: 40ad d63e 9576 f6bc 5a3a d9bc dee4 0bbe
000002b0: 73be 7a3d 31bc 4abd 116c 74be a33a f5bc
000002c0: 3a4d 97bd a5b0 9d3b 6dc9 543d 737b 17be
000002d0: c5b3 34bd e422 f7bc dc16 2b3e 3972 28be
000002e0: dc0a 223b 56fd 23be 5bd0 cfbe 25ef ad3e
000002f0: 4260 0e3e 2770 f3bb b3bd 76bc ece2 c6bd
00000300: 782e fc3c da0f 023e af76 b33d 7c86 b9be
00000310: 5477 8a3c 1b69 693d 190a b43e 8008 70bc
00000320: 413c 2b3e 3c32 683d 4aca 863d 6047 083e
00000330: eef7 953d 435e 1d3d 8516 29bd 4563 d83c
00000340: aacf a63b 7292 233d c7b6 103d e1d1 f13d
00000350: 24a6 513d 4ee9 9cbd 55a9 313e c28c 92bd
00000360: 4dc3 cd3d 9425 293e 58f6 17bd 92f7 893d
00000370: 9f07 3cbd 98d8 903e 9f39 bbbc a1fb 09bd
00000380: 7231 efbc 8679 44bc e938 4e3d 10c3 c8bc
00000390: f66f f73d 0405 f3bd 70af acbd 4dbf 5cbd
000003a0: f949 9cbe 3a7c bd3c 2762 0f3e 74c6 6c3d
000003b0: 777d 4bbe 59af dd3d 94fa 0b3d 9cb4 c83d
000003c0: ed4a 3b3d 2c72 babd e474 3bbd 420e 40bd
000003d0: 5393 15be bd85 b9bb 86db 963b ad53 efbc
000003e0: 379c 463c c8a0 9b3d 2dd6 94be 9db8 d63e
000003f0: 43e2 793d b0d5 ef3d 2c95 023c 793c fd3c

weight_hh_l0 f4 [256, 64]
0.0010244413 -0.07994113 -0.010888824 -0.047592234 -0.053663902 -0.124084406 0.06376464 0.10283573
-0.0040189726 -0.030450927 0.04567967 -0.02070396 -0.019136392 -0.13942046 -0.02971529 -0.0706992
0.09586654 -0.052028745 -0.088980325 -0.05800685 0.029470067 -0.08537345 0.09584852 0.04147644
-0.098002456 -0.031949893 -0.0068737026 -0.05135289 0.06933685 0.00038661034 0.047389787 -0.01684311
-0.09287371 -0.042902496 0.012306281 0.076533616 -0.017003015 -0.023840478 0.00082927773 -0.03398217
0.06895614 -0.09495306 0.06808166 -0.10329136 0.11657077 -0.058569424 -0.036132306 -0.032577816
0.0002744158 -0.038544472 0.14691842 0.052350458 0.15270649 -0.09149697 0.122086115 0.049689688
-0.008204802 -0.009722211 -0.12875317 0.098842785 0.1493044 -0.15123862 -0.003459585 0.053034317
-0.119941674 0.037096277 -0.076619156 -0.114100784 -0.076011814 0.072617926 0.10499254 -0.1079609
0.09395061 -0.11383028 -0.14966038 -0.0027707708 -0.021387976 0.0010682512 -0.08388747 0.11433029
-0.08995 0.009044097 0.08111621 -0.115398735 -0.07353073 0.00011421164 0.07637787 -0.018565403
-0.009657853 0.0507996 -0.0048308903 -0.06349412 0.0040030316 0.011388776 0.00759395 0.097908676
-0.012526008 -0.05088984 0.015536489 -0.10395234 -0.060554653 -0.09351268 0.005700858 -0.006315008
-0.11649273 -0.13575883 0.13111593 0.08346961 0.0579149 0.013913437 -0.0069584395 0.13858351
0.10995064 -0.029818533 0.044242218 0.030294081 -0.06388844 -0.14967583 -0.0680022 0.0012655187
0.016389707 0.09777154 0.025471086 -0.047513608 -0.100728266 -0.09911049 0.055293605 -0.120339155
0.030288406 0.118910976 0.08033031 -0.052042644 0.0016215327 0.16582832 0.086613424 -0.15658529
0.05342379 0.10073074 -0.01007803 0.018573256 0.022669354 -0.073434524 -0.12054404 -0.0839312
-0.072018616 -0.047487047 -0.06271934 -0.008051665 0.015304532 -0.12297122 -0.100178905 -0.055612944
0.07876377 -0.23379585 0.04914345 -0.1361605 -0.05033138 -0.0020379664 0.110749 -0.07340944
-0.09489373 -0.42757958 -0.07864625 -0.15576719 0.10922084 0.099659406 0.117157765 -0.019457482
0.07941958 0.07397229 0.08108056 -0.054885887 -0.122133315 0.00034207944 0.06754894 -0.12972829
0.026347501 -0.010365577 0.06652712 0.032760717 -0.12687476 -0.009674479 -0.06620013 0.051972438
0.0050033336 0.0672541 -0.07051939 -0.09631373 0.08155363 0.19183034 0.105017275 -0.34615266
-0.07997914 0.11872512 0.0077008046 0.09421949 0.056146532 -0.113986105 0.08257894 0.09712004
-0.11742456 -0.13223876 -0.13425304 0.037720237 -0.08779067 -0.09189535 0.06598198 0.11384155
-0.06097949 -0.095387824 0.13564572 -0.10201363 0.07101882 0.12691422 0.020579385 -0.06936754
-0.082722135 -0.005902994 0.07697208 -0.0733767 0.04882357 0.016652737 -0.07698169 -0.031420354
0.07608986 -0.1257159 0.0010616981 -0.09817354 0.03385286 0.033368126 -0.008613789 0.058851097
0.04204844 -0.046295334 0.1337018 -0.09695213 0.06119036 0.07026566 -0.08574332 0.012048182
0.008615936 0.07490032 -0.05834571 0.06138087 -0.048030134 -0.059553124 -0.0977566 -0.061124716
-0.04551267 -0.007015662 0.037206847 -0.0689879 0.017594595 0.0417023 0.11465534 -0.07461858
00000000: 8c46 863a 2db8 a3bd 0a67 32bc 13f0 42bd
00000010: aece 5bbd f71f febd 0997 823d 8a9b d23d
00000020: 96b1 83bb 3974 f9bc 9b1a 3b3d 5a9b a9bc
00000030: ecc3 9cbc 3dc4 0ebe 7b6d f3bc beca 90bd
00000040: ad55 c43d 181c 55bd 513b b6bd 9798 6dbd
00000050: 366b f13c 46d8 aebd 3b4c c43d 33e3 293d
00000060: 83b5 c8bd e4dd 02bd cc3c e1bb 6857 52bd
00000070: 7a00 8e3d f6b1 ca39 cb1b 423d 90fa 89bc
00000080: 9234 bebd 87ba 2fbd 49a0 493c a8bd 9c3d
00000090: e849 8bbc 1b4d c3bc e363 593a e330 0bbd
000000a0: e038 8d3d c076 c2bd 666e 8b3d 6c8a d3bd
000000b0: a8bc ee3d 7ee6 6fbd 78ff 13bd 5170 05bd
000000c0: 77df 8f39 cfe0 1dbd c871 163e 6f6d 563d
000000d0: 175f 1c3e c362 bbbd 4908 fa3d 6a87 4b3d
000000e0: 6f6d 06bc e949 1fbc dfd7 03be 166e ca3d
000000f0: 41e3 183e 4cde 1abe 34ba 62bb 833a 593d
00000100: fba3 f5bd 44f2 173d 81ea 9cbd acad e9bd
00000110: 15ac 9bbd b5b8 943d 5406 d73d 9b1a ddbd
00000120: 2d69 c03d da1f e9bd 9240 19be d295 35bb
00000130: d635 afbc 9004 8c3a 32cd abbd 0026 ea3d
00000140: b537 b8bd b12d 143c 4120 a63d 2c56 ecbd
00000150: 4897 96bd e884 ef38 006c 9c3d 7916 98bc
00000160: f93b 1ebc 3e13 503d 724c 9ebb 3509 82bd
00000170: dd2b 833b fd97 3a3c abd6 f83b 5884 c83d
00000180: e339 4dbc dd71 50bd c28c 7e3c f7e4 d4bd
00000190: 2808 78bd 9383 bfbd 43ce ba3b 20ee cebb
000001a0: be93 eebd 5d04 0bbe 4143 063e 1df2 aa3d
000001b0: 2d38 6d3d 2ff5 633c 9f03 e4bb d6e8 0d3e
000001c0: cd2d e13d ff45 f4bc 5437 353d 4b2b f83c
000001d0: f1d7 82bd 9f44 19be bd44 8bbd c3df a53a
000001e0: b543 863c 723c c83d bda8 d03c a19d 42bd
000001f0: 9f4a cebd 71fa cabd 8c7b 623d 6074 f6bd
00000200: 641f f83c 9987 f33d 3884 a43d ab2a 55bd
00000210: 9c89 d43a e6ce 293e 6162 b13d e557 20be
00000220: e7d2 5a3d eb4b ce3d 521e 25bc f126 983c
00000230: 15b5 b93c d764 96bd cbdf f6bd 1fe4 abbd
00000240: 7f7e 93bd c781 42bd ff72 80bd 21eb 03bc
00000250: dcbf 7a3c 56d8 fbbd 992a cdbd 66ca 63bd
00000260: e64e a13d 2e68 6fbe a44a 493d a86d 0bbe
00000270: 4728 4ebd 678f 05bb 5fd0 e23d b057 96bd
00000280: a557 c2bd b6eb dabe 4911 a1bd 6f81 1fbe
00000290: 2daf df3d 3b1a cc3d 69f0 ef3d 4c65 9fbc
000002a0: bca6 a23d c97e 973d 910d a63d 06d0 60bd
000002b0: 0821 fabd 2059 b339 1957 8a3d 7ed7 04be
000002c0: b7d6 d73c 62d4 29bc 5f3f 883d 1a30 063d
000002d0: 75eb 01be b581 1ebc ef93 87bd 0de1 543d
000002e0: 01f3 a33b 85bc 893d 786c 90bd 2240 c5bd
000002f0: 9705 a73d 2c6f 443e 4c13 d73d ec3a b1be
00000300: 1acc a3bd 2826 f33d 0857 fc3b 26f6 c03d
00000310: e8f9 653d 8c71 e9bd 261f a93d dfe6 c63d
00000320: 4a7c f0bd 9969 07be a179 09be 8980 1a3d
00000330: 98cb b3bd a133 bcbd 8f21 873d c225 e93d
00000340: a1c5 79bd b15a c3bd b6e6 0a3e 86ec d0bd
00000350: 5172 913d cdf5 013e 1996 a83c 9210 8ebd
00000360: 396a a9bd e76d c1bb 8aa3 9d3d 8646 96bd
00000370: 39fb 473d 526b 883c 94a8 9dbd a1b2 00bd
00000380: 00d5 9b3d abbb 00be ad28 8b3a 350f c9bd
00000390: 4ca9 0a3d 04ad 083d da20 0dbc d90d 713d
000003a0: fc3a 2c3d 2da0 3dbd 20e9 083e d78e c6bd
000003b0: bea2 7a3d 71e7 8f3d 329a afbd bd65 453c
000003c0: db29 0d3c 5765 993d e9fb 6ebd 826a 7b3d
000003d0: 3fbb 44bd faed 73bd 9d34 c8bd e95d 7abd
000003e0: 7e6b 3abd a3e3 e5bb 3566 183d 8749 8dbd
000003f0: 8a22 903c 08d0 2a3d 6bd0 ea3d a0d1 98bd

bias_ih_l0 f4 [256]
0.11050951 0.14793964 0.1383888 0.13639991 -0.07065045 0.14306433 0.029144343 -0.023472143
0.15005676 0.12853923 0.12864885 -0.019685593 0.053460006 0.021798734 0.09590597 -0.05033644
0.123373605 0.08962083 -0.00216552 0.14310622 -0.08856501 0.1362114 0.10329155 -0.02100246
0.06684216 0.10611338 -0.01882263 -0.06814452 0.06574186 0.0041325884 -0.009728851 0.06056691
0.114381306 0.065100655 -0.09400474 -0.07031722 0.09844291 0.13864666 0.07763428 0.15501042
0.049820136 -0.104786076 -0.060091294 -0.09302642 -0.07503684 0.07152688 -0.043966383 -0.13552801
-0.014016777 -0.0854689 -0.06816185 0.043385547 -0.060421288 -0.07062009 0.03674016 -0.00801634
0.15865515 -0.06833592 -0.05463424 0.055797063 -0.031641822 0.059524328 -0.028980942 -0.050727766
0.07800574 -0.028026273 -0.14139843 0.07943058 0.11724567 -0.042133033 -0.06186745 -0.08163175
0.01644712 0.026227955 -0.03286893 -0.050443772 0.14386848 -0.079306856 0.0226038 -0.043590523
-0.037816767 -0.10225399 0.10325877 -0.065535665 0.044667482 -0.088845335 -0.007309135 0.12074159
-0.06897681 0.110439084 0.039180756 0.101435386 0.023104772 -0.03181514 0.017578555 -0.10810469
-0.053608026 0.0148443375 0.08069686 -0.07247832 -0.11378908 0.1229138 -0.00020191219 0.07634033
-0.010430868 -0.08053357 0.0630659 0.013220463 0.1313017 -0.008748405 0.056703046 -0.12221816
-0.09829215 0.060154546 0.08404421 0.07262911 -0.05494465 -0.07377179 0.020263644 -0.02562481
-0.026452059 -0.118008874 -0.09546923 0.07979538 -0.08118044 -0.031043578 0.011366669 -0.03346917
-0.13476972 0.028769627 0.011704365 -0.050499156 -0.13245231 -0.046882205 -0.028374681 0.054777138
-0.0838681 0.019868298 -0.08130088 0.0009812524 0.095348924 0.009815106 0.062210698 0.05711457
0.118108906 -0.120929025 0.09340967 0.09062614 -0.039828572 0.12821227 0.08155204 0.044534605
-0.059929084 0.019333007 0.0886256 -0.09466508 0.03926672 0.034896344 -0.006019204 0.083964735
0.1542983 0.065832555 -0.099574335 0.011721603 -0.076457426 -0.03515805 0.050121915 0.0017267773
-0.104957 -0.1462449 0.0056937356 -0.114880994 0.10054313 0.0730207 -0.068280086 0.116068065
0.07684149 0.053574853 0.009119048 -0.15829778 0.10891492 -0.08684669 -0.038480293 0.028783644
0.098729566 -0.12395997 -0.05324888 0.03278847 0.04212134 -0.0077484874 0.02323225 -0.09670002
-0.05077411 -0.020024206 -0.06271968 -0.008467492 -0.02687874 0.008909537 -0.1345401 0.12417736
-0.06910858 0.07040169 0.13102353 0.1291139 -0.08659032 -0.10478875 0.006465616 0.0347048
0.09250672 -0.055639263 0.035820015 0.035698 0.12397075 0.06830608 0.10972344 0.025494713
0.1309447 -0.093231805 0.19808058 -0.080829605 0.071965724 0.109190404 -0.07299785 -0.021564867
-0.041414082 -0.08794899 0.09489798 0.22201017 -0.06859462 -0.047590267 0.1093815 0.033235464
0.0094503015 -0.041696254 -0.052248243 0.05117008 -0.06316303 -0.07725162 0.038923237 0.08569856
0.009948808 0.036862697 -0.053745914 -0.040228594 -0.059936613 -0.073206775 0.042366475 0.07958679
-0.014622994 -0.032556318 0.01469778 0.077534646 -0.012316765 -0.058800552 -0.020096155 0.073751345
00000000: cf52 e23d 7d7d 173e cbb5 0d3e 6bac 0b3e
00000010: 2fb1 90bd 757f 123e 1ec0 ee3c a748 c0bc
00000020: 7ba8 193e ca9f 033e 86bc 033e ae43 a1bc
00000030: e1f8 5a3d 4293 b23c 596a c43d 952d 4ebd
00000040: 4dab fc3d 208b b73d 66eb 0dbb 708a 123e
00000050: 9261 b5bd 007b 0b3e 858a d33d 5a0d acbc
00000060: 8be4 883d f951 d93d eb31 9abc 5b8f 8bbd
00000070: aba3 863d aa6a 873b c265 1fbc 0215 783d
00000080: bf40 ea3d 7e53 853d 8f85 c0bd 7a02 90bd
00000090: 709c c93d 64f9 0d3e b9fe 9e3d 0dbb 1e3e
000000a0: 3310 4c3d 159a d6bd 4a22 76bd a384 bebd
000000b0: eaac 99bd af7c 923d 1816 34bd dbc7 0abe
000000c0: a0a6 65bc 520a afbd 7198 8bbd 0bb5 313d
000000d0: 507c 77bd 44a1 90bd da7c 163d f856 03bc
000000e0: 7f76 223e b4f3 8bbd 27c8 5fbd 768b 643d
000000f0: db9a 01bd c8cf 733d 7169 edbc ebc7 4fbd
00000100: 79c1 9f3d 5b97 e5bc c0ca 10be 80ac a23d
00000110: 7f1e f03d b093 2cbd b968 7dbd 8c2e a7bd
00000120: 1cbc 863c 02dc d63c 92a1 06bd 219e 4ebd
00000130: 4252 133e a26b a2bd 9b2b b93c fa8b 32bd
00000140: c1e5 1abd 8a6a d1bd 5679 d33d 9037 86bd
00000150: 40f5 363d 8bf4 b5bd 7881 efbb 5e47 f73d
00000160: b743 8dbd e32d e23d 007c 203d 5bbd cf3d
00000170: 3846 bd3c 9850 02bd e700 903c fe65 ddbd
00000180: 1794 5bbd aa35 733c 6544 a53d 836f 94bd
00000190: 400a e9bd 3bba fb3d 64b8 53b9 5258 9c3d
000001a0: 3be6 2abc c9ee a4bd b228 813d a49a 583c
000001b0: f473 063e 7855 0fbc 7441 683d 844d fabd
000001c0: 654d c9bd 9d64 763d 5f1f ac3d 92be 943d
000001d0: a40d 61bd aa15 97bd f1ff a53c 1feb d1bc
000001e0: fdb1 d8bc a3ae f1bd 5f85 c3bd c36b a33d
000001f0: ee41 a6bd 1a4f febc 443b 3a3c f816 09bd
00000200: 1301 0abe 48ae eb3c aac3 3f3c 34d8 4ebd
00000210: 94a1 07be 8e07 40bd 0572 e8bc fe5d 603d
00000220: 0ac3 abbd d7c2 a23c 1381 a6bd 5e9d 803a
00000230: 4c46 c33d 8acf 203c a5d0 7e3d f8f0 693d
00000240: 15e3 f13d a3a9 f7bd 924d bf3d 339a b93d
00000250: 4923 23bd 144a 033e c204 a73d eb69 363d
00000260: 3378 75bd 4160 9e3c 5781 b53d c4df c1bd
00000270: 24d6 203d 78ef 0e3d be3c c5bb b4f5 ab3d
00000280: 6000 1e3e 38d3 863d a1ed cbbd f70b 403c
00000290: b695 9cbd e301 10bd a34c 4d3d 0855 e23a
000002a0: b2f3 d6bd 39c1 15be 8492 ba3b ba46 ebbd
000002b0: 8ee9 cd3d e08b 953d 6ed6 8bbd 18b5 ed3d
000002c0: 125f 9d3d 4e71 5b3d 0f68 153c d018 22be
000002d0: c90e df3d addc b1bd 839d 1dbd adcb eb3c
000002e0: ba32 ca3d bade fdbd 7f1b 5abd 344d 063d
000002f0: 6d87 2c3d 06e7 fdbb 8f51 be3c a90a c6bd
00000300: 83f8 4fbd ce09 a4bc 2d73 80bd 3cbb 0abc
00000310: ce30 dcbc 4ff9 113c e1c4 09be b350 fe3d
00000320: cd88 8dbd c32e 903d 082b 063e 6f36 043e
00000330: 4456 b1bd 7c9b d6bd 85dd d33b 9f26 0e3d
00000340: 2a74 bd3d ffe5 63bd 02b8 123d 1138 123d
00000350: 60e4 fd3d 0fe4 8b3d afb6 e03d 4ada d03c
00000360: 5e16 063e 51f0 bebd a3d5 4a3e fe89 a5bd
00000370: c462 933d 389f df3d e67f 95bd cea8 b0bc
00000380: d0a1 29bd 9a1e b4bd df59 c23d a256 633e
00000390: 567b 8cbd 03ee 42bd 6803 e03d e921 083d
000003a0: 70d5 1a3c b1c9 2abd 4102 56bd b897 513d
000003b0: 9e5b 81bd 1936 9ebd f96d 1f3d ba82 af3d
000003c0: 5300 233c 57fd 163d ad24 5cbd bdc6 24bd
000003d0: 1880 75bd 6fed 95bd 7888 2d3d 66fe a23d
000003e0: 4895 6fbc c659 05bd f5ce 703c 7cca 9e3d
000003f0: 42cc 49bc d9d8 70bd b1a0 a4bc f20a 973d

bias_hh_l0 f4 [256]
0.05780721 0.14739263 0.10133577 0.14357531 -0.040673 0.14994344 -0.0146116605 0.010481343
-0.025205756 -0.04418828 0.08709252 0.022255315 -0.07918025 0.0768481 0.09584401 0.14508145
-0.07612986 0.04699407 0.13877934 0.07585109 -0.015202841 0.12424083 0.010713974 -0.08595685
-0.0606447 -0.051983505 -0.038783673 0.106869124 -0.054576956 -0.06635414 0.14263228 0.012368585
0.07487776 -0.095403574 -0.130515 -0.09230776 -0.03088969 0.15190093 -0.07238971 0.16065086
0.15798716 0.108640514 0.0060239793 0.09076507 0.124771655 0.08741256 0.057504278 -0.023852877
0.03851216 -0.07065053 0.015396634 -0.100304015 0.0060796235 0.06439925 0.10147692 0.09526023
0.0027042758 -0.14431651 0.0433198 0.0020495409 -0.05493355 -0.082322784 0.046315696 -0.006284311
-0.02477866 0.07300963 -0.0027109182 -0.08075617 0.12010866 0.112090796 0.06610097 -0.09383835
-0.10628899 -0.082915604 -0.10134128 -0.010985176 -0.004386572 0.056853298 0.14187805 0.06041335
-0.03149737 -0.13011314 0.10790445 -0.03004888 0.09809472 0.12044702 0.12353459 -0.07524511
0.06668396 -0.027123677 0.10639674 0.021944735 0.114935234 -0.18459357 0.05409853 -0.025299262
0.04400571 -0.03162675 -0.006118725 0.116156526 0.03549232 -0.02155792 0.08990715 0.0028460508
-0.034854457 0.08301129 0.13472539 -0.0990752 -0.07034608 0.065002404 0.06558073 -0.12736897
-0.025729753 0.118820764 -0.006451768 -0.030253414 -0.04781771 0.059436712 0.09340613 -0.08530216
0.047423165 -0.11123268 0.013252285 0.059230223 -0.026833184 -0.008112429 -0.053891156 0.08733313
0.011293705 0.050362606 0.04500087 -0.09669218 0.061707534 -0.08107213 0.04494507 -0.05076899
-0.06052667 -0.13735385 -0.043932337 0.061447002 0.01973939 -0.14518283 0.070597075 0.08694798
0.07900771 -0.026110854 -0.066098094 0.011983802 0.0048127114 0.13285051 0.028821446 -0.07815398
-0.036754332 0.046767198 0.14202595 0.09182535 0.1206098 -0.10093143 -0.08124405 -0.055193428
-0.012622901 0.07807517 0.053194422 0.04496236 -0.03314207 -0.09987801 -0.061664306 -0.07505618
0.0030396518 0.047555517 0.14913428 -0.04957144 0.053243242 -0.011840098 -0.12105041 0.047331803
-0.02195854 0.05509392 0.08402413 -0.09869277 -0.015624412 -0.041627627 -0.046262674 -0.008290815
0.07383706 -0.11845882 0.015277539 0.12348699 0.0019444153 0.03953844 -0.07690549 -0.10521118
0.13319059 -0.02376361 -0.00086457457 -0.0327296 0.019343011 0.09085367 -0.13094816 -0.0033906219
-0.039282236 -0.041692562 0.0157299 -0.06283965 -0.06087593 -0.0594801 0.093982264 -0.023496607
0.002708921 0.023431526 -0.06616129 -0.04511406 0.010843831 -0.04068713 0.022641404 -0.06257742
0.11044203 -0.095789425 0.19342154 -0.053522203 -0.024798565 0.0056107575 0.08407942 0.13181008
-0.054976687 -0.07420298 -0.049850594 0.061696302 0.130076 0.046887252 0.12820761 0.07994164
0.06948483 -0.12836663 -0.00012648838 -0.016021002 -0.029839635 0.12636282 0.10401496 -0.13722229
0.083273456 -0.084387936 -0.08046107 0.10024643 0.06928615 -0.043341428 -0.11246059 0.102740556
-0.046133816 -0.026141293 0.00023372877 0.039698582 -0.003353157 -0.0022302119 0.037410337 -0.048049934
00000000: 41c7 6c3d 18ee 163e 2189 cf3d 6805 133e
00000010: bb98 26bd c68a 193e bf65 6fbc f0b9 2b3c
00000020: 4d7c cebc c5fe 34bd 905d b23d c750 b63c
00000030: 4129 a2bd 8962 9d3d dd49 c43d 3b90 143e
00000040: f9e9 9bbd db7c 403d 2c1c 0e3e d157 9b3d
00000050: 5615 79bc fa71 fe3d aa89 2f3c 250a b0bd
00000060: 9466 78bd a8ec 54bd a1db 1ebd 33de da3d
00000070: 168c 5fbd aee4 87bd 320e 123e 9ba5 4a3c
00000080: 8359 993d f362 c3bd b9a5 05be da0b bdbd
00000090: 600c fdbc eb8b 1b3e 0e41 94bd a981 243e
000000a0: 63c7 213e eb7e de3d cd64 c53b 09e3 b93d
000000b0: 4888 ff3d 5b05 b33d 9b89 6b3d 1c67 c3bc
000000c0: edbe 1d3d 3ab1 90bd 2a42 7c3c 316c cdbd
000000d0: 9437 c73b c1e3 833d 22d3 cf3d cc17 c33d
000000e0: 383a 313b b5c7 13be 1a70 313d 9751 063b
000000f0: 0102 61bd d998 a8bd 87b5 3d3d 9fec cdbb
00000100: 9efc cabc 1386 953d a9a9 31bb 7e63 a5bd
00000110: 87fb f53d dc8f e53d f25f 873d 522e c0bd
00000120: 0bae d9bd a8cf a9bd 048c cfbd 2bfb 33bc
00000130: 3cbd 8fbb 01df 683d 7b48 113e fd73 773d
00000140: 6303 01bd 613c 05be 02fd dc3d 1229 f6bc
00000150: e2e5 c83d edac f63d b4ff fc3d 1c1a 9abd
00000160: 9a91 883d 7932 debc 89e6 d93d 72c5 b33c
00000170: 2a63 eb3d 1906 3dbe 6c96 5d3d 6640 cfbc
00000180: 553f 343d 0d8b 01bd 967f c8bb 79e3 ed3d
00000190: 6560 113d 3c9a b0bc 3d21 b83d cf84 3a3b
000001a0: 8cc3 0ebd d301 aa3d 74f5 093e f0e7 cabd
000001b0: 9b11 90bd fb1f 853d 314f 863d 036d 02be
000001c0: 34c7 d2bc 4d58 f33d 5a69 d3bb 02d6 f7bc
000001d0: 81dc 43bd e973 733d b74b bf3d e6b2 aebd
000001e0: cb3e 423d f6cd e3bd 1d20 593c 649b 723d
000001f0: 44d1 dbbc fee9 04bc f9bc 5cbd b6db b23d
00000200: 3b09 393c 0549 4e3d d552 383d 8d06 c6bd
00000210: 0ac1 7c3d 2509 a6bd 5218 383d 25f3 4fbd
00000220: d0ea 77bd 7da6 0cbe 65f2 33bd daaf 7b3d
00000230: 80b4 a13c cfaa 14be 3395 903d c811 b23d
00000240: cbce a13d 6ee6 d5bc 705e 87bd b557 443c
00000250: f3b3 9d3b f709 083e f41a ec3c 320f a0bd
00000260: b68b 16bd f68e 3f3d 406f 113e ee0e bc3d
00000270: 4502 f73d 23b5 cebd 4863 a6bd 8112 62bd
00000280: 49d0 4ebc e0e5 9f3d 65e2 593d 742a 383d
00000290: fbbf 07bd d88c ccbd b693 7cbd 0eb7 99bd
000002a0: e534 473b 93c9 423d a8b6 183e 6c0b 4bbd
000002b0: 9615 5a3d f8fc 41bc 47e9 f7bd fede 413d
000002c0: 65e2 b3bc 2aaa 613d d814 ac3d 6f1f cabd
000002d0: 89fd 7fbc bb81 2abd ee7d 3dbd 33d6 07bc
000002e0: e237 973d 8a9a f2bd a54e 7a3c bfe6 fc3d
000002f0: c0db fe3a 0ff3 213d a080 9dbd f678 d7bd
00000300: 1d63 083e e7ab c2bc 9ea4 62ba 790f 06bd
00000310: 3c75 9e3c 7d11 ba3d 4617 06be 3235 5ebb
00000320: 69e6 20bd d2c5 2abd fedb 803c 13b2 80bd
00000330: 0a59 79bd 68a1 73bd c679 c03d f57b c0bc
00000340: 2788 313b 79f3 bf3c 927f 87bd 85c9 38bd
00000350: 53aa 313c 8ca7 26bd 777a b93c 9728 80bd
00000360: 6e2f e23d 3f2d c4bd 4c10 463e 193a 5bbd
00000370: 5c26 cbbc 72da b73b d531 ac3d 39f9 063e
00000380: 3c2f 61bd bbf7 97bd 2330 4cbd 43b5 7c3d
00000390: a532 053e d90c 403d db48 033e 71b8 a33d
000003a0: 104e 8e3d 8b72 03be f7a1 04b9 7a3e 83bc
000003b0: 4072 f4bc 4165 013e cc05 d53d 0084 0cbe
000003c0: 468b aa3d 95d3 acbd c6c8 a4bd 004e cd3d
000003d0: e6e5 8d3d c886 31bd bd51 e6bd a469 d23d
000003e0: d0f6 3cbd 4426 d6bc 1715 7539 fb9a 223d
000003f0: a4c0 5bbb bf28 12bb 953b 193d 02d0 44bd

weight f4 [60, 64]
0.072799765 -0.15936534 -0.20748556 0.009954507 0.113348536 0.0057941233 -0.049614683 -0.03239536
-0.08776092 0.102100834 -0.22215907 0.12842707 -0.12852925 0.0030822633 0.027295232 -0.006797595
0.15357475 -0.16812326 -0.005364437 0.025780639 -0.12728119 0.062256087 -0.02493899 -0.18053845
-0.16426997 0.16009164 -0.037172228 -0.11830233 -0.07175059 0.08867915 0.002896046 -0.09893665
-0.14028819 0.5177723 0.17192614 0.0075647864 -0.2871965 0.043665342 0.012035627 -0.058100034
-0.06361985 0.19123928 0.07033041 0.37270787 -0.10411745 -0.03930553 0.18248397 -0.09601729
0.116857074 -0.055296168 -0.21285038 0.12618792 -0.24453627 0.0024639054 -0.010925395 -0.18142857
-0.1802861 -0.085437804 -0.019143764 -0.1445569 0.07092452 0.14003919 -0.11944502 -0.19435117
-0.0070665223 -0.10923342 -0.443733 0.039105464 0.13826987 0.10408687 0.14112951 0.21942152
0.00014855426 0.14655252 0.46584356 -0.089291275 0.0447908 -0.017839696 0.033253096 -0.0041743033
-0.19930929 0.18202259 -0.15843584 0.02930937 -0.055928536 0.020586073 -0.012442434 0.11947745
-0.067188986 0.22326782 -0.010952503 0.06534526 0.040574007 0.012732974 0.030980524 -0.04604559
-0.032793492 0.0077774613 0.12665148 0.02977091 0.1435617 0.1211045 -0.23200959 0.0991847
0.06341512 -0.0002964415 0.040095024 0.08229501 0.07904657 -0.1446961 0.13077171 -0.017266938
-0.19157484 -0.14882757 0.042650316 -0.07222873 0.07151563 0.15354079 -0.118216984 -0.14389776
-0.077778056 0.12690349 -0.05374838 -0.04201724 -0.054820273 -0.014160513 0.12588255 -0.017482737
-0.14559157 -0.0020288858 0.35928163 -0.17840223 -0.08278825 -0.1006364 -0.1037508 -0.043607302
0.015726537 -0.08984695 0.06238832 0.19682203 0.13931985 0.007603428 0.10982926 0.33751896
-0.041245375 0.12458481 -0.09426375 -0.04693338 0.12685874 0.19205561 -0.010701969 0.25014234
-0.28264672 -0.07785731 0.12507077 -0.17160028 0.020114033 -0.043352086 -0.02560191 0.098620504
0.04528715 -0.0046975305 0.06116505 -0.09701545 -0.10209332 -0.07698794 -0.054929487 -0.06352795
-0.030897362 0.070817545 0.10546876 -0.13827401 0.099585935 -0.10981322 0.08483807 0.15973489
-0.2601172 0.051197242 -0.06364725 0.1015095 -0.04953485 0.07085705 0.07216542 0.033619363
0.039133403 0.123233005 -0.004363675 0.12990846 0.15104003 -0.10882349 0.2419884 -0.31481066
0.112355225 -0.11408074 0.13444385 0.15905163 0.16221404 0.024201049 0.2780598 0.047162596
0.008088486 0.14848307 -0.057130594 -0.20606019 -0.06097572 0.16437961 -0.13937242 -0.15664828
0.22300677 0.11064963 -0.16826536 0.04497131 -0.09400504 -0.23241352 0.10174976 0.01648545
0.053461295 0.17155899 0.08456732 0.16845787 0.014001503 -0.2926033 -0.048758704 -0.10150789
0.06490063 -0.45247623 -0.21469823 -0.09699346 0.14192948 0.17910297 -0.07994571 -0.12539925
0.06291137 0.105898954 -0.13584757 -0.06553726 -0.06899267 -0.0042499867 0.12507868 -0.043539945
0.16001776 0.010325825 -0.12681143 0.09738962 0.16241032 0.20517302 0.069580786 -0.0048196977
0.004591572 0.06367426 0.19328573 -0.0009512681 -0.08252256 0.1418128 -0.16117528 -0.41988266
00000000: 0b18 953d ab30 23be 1877 54be 3b18 233c
00000010: 4723 e83d a1dc bd3b c438 4bbd ffb0 04bd
00000020: ffbb b3bd 3e1a d13d ab7d 63be 6382 033e
00000030: 2c9d 03be ccff 493b 409a df3c 5cbe debb
00000040: b342 1d3e 8128 2cbe 29c8 afbb eb31 d33c
00000050: 0056 02be 3d00 7f3d da4c ccbc 12df 38be
00000060: 6336 28be 10ef 233e e841 18bd 7e48 f2bd
00000070: f9f1 92bd 6a9d b53d 97cb 3d3b 4c9f cabd
00000080: b5a7 0fbe ba8c 043f 680d 303e 07e2 f73b
00000090: 6b0b 93be 6eda 323d 1431 453c 4dfa 6dbd
000000a0: 204b 82bd 3bd4 433e 6409 903d 91d3 be3e
000000b0: 883b d5bd d6fe 20bd 14dd 3a3e b7a4 c4bd
000000c0: c352 ef3d 3c7e 62bd 73f5 59be 6837 013e
000000d0: b767 7abe 7979 213b 6e00 33bc 69c8 39be
000000e0: eb9c 38be 04fa aebd 62d3 9cbc b906 14be
000000f0: e040 913d 6f66 0f3e 979f f4bd fe03 47be
00000100: 498e e7bb c5b5 dfbd f930 e3be 0d2d 203d
00000110: 9e96 0d3e 7f2b d53d 4184 103e 09b0 603e
00000120: 3bc5 1b39 dd11 163e 0c83 ee3e 58de b6bd
00000130: 8f76 373d 8e24 92bc 6634 083d 98c8 88bb
00000140: bc17 4cbe 2164 3a3e 013d 22be 341a f03c
00000150: 5215 65bd 20a4 a83c 5adb 4bbc 98b0 f43d
00000160: 619a 89bd 52a0 643e 2172 33bc bcd3 853d
00000170: ee30 263d f79d 503c deca fd3c 4d9a 3cbd
00000180: 7852 06bd 13da fe3b edb0 013e 20e2 f33c
00000190: d701 133e a305 f83d ec93 6dbe 5921 cb3d
000001a0: c9df 813d b46b 9bb9 ae3a 243d 498a a83d
000001b0: 2be3 a13d 372b 14be 05e9 053e 6573 8dbc
000001c0: 322c 44be 4166 18be 19b2 2e3d a8ec 93bd
000001d0: c976 923d cc39 1d3e bf1b f2bd ef59 13be
000001e0: 1a4a 9fbd fdf2 013e 4327 5cbd 451a 2cbd
000001f0: 398b 60bd 7f01 68bc 5be7 003e f537 8fbc
00000200: f515 15be 0ef7 04bb c3f3 b73e 13af 36be
00000210: e38c a9bd 751a cebd 4d7b d4bd 929d 32bd
00000220: f0d4 803c ad01 b8bd e58a 7f3d b78b 493e
00000230: dda9 0e3e 2d26 f93b 2aee e03d 49cf ac3e
00000240: e9f0 28bd 5226 ff3d 5a0d c1bd 373d 40bd
00000250: 42e7 013e 3aaa 443e 5057 2fbc a812 803e
00000260: 12b7 90be a773 9fbd 8d12 003e fcb7 2fbe
00000270: 2fc6 a43c f591 31bd 19bb d1bc 8cf9 c93d
00000280: 057f 393d beed 99bb 3488 7a3d 09b0 c6bd
00000290: 4d16 d1bd daab 9dbd befd 60bd f11a 82bd
000002a0: 771c fdbc ca08 913d 0100 d83d b497 0dbe
000002b0: b6f3 cb3d c1e5 e0bd 95bf ad3d 8b91 233e
000002c0: 152e 85be 33b4 513d 7d59 82bd 36e4 cf3d
000002d0: 0ee5 4abd 801d 913d 77cb 933d 75b4 093d
000002e0: 594a 203d 9661 fc3d 29fd 8ebb b906 053e
000002f0: 3daa 1a3e dade debd cfcb 773e dd2e a1be
00000300: 7f1a e63d 2aa3 e9bd a6ab 093e 6ede 223e
00000310: 701b 263e 4741 c63c db5d 8e3e 912d 413d
00000320: 9285 043c f20b 183e c501 6abd 7101 53be
00000330: adc1 79bd 2153 283e a5b7 0ebe 6868 20be
00000340: e35b 643e 469c e23d c14d 2cbe d633 383d
00000350: b785 c0bd cffd 6dbe 2e62 d03d 7f0c 873c
00000360: 3bfa 5a3d 29ad 2f3e a231 ad3d 3880 2c3e
00000370: 8f66 653c 1ad0 95be 35b7 47bd 5ee3 cfbd
00000380: 9fea 843d f7aa e7be dad9 5bbe 82a4 c6bd
00000390: f655 113e c566 373e 94ba a3bd a968 00be
000003a0: add7 803d 8de1 d83d a01b 0bbe 6638 86bd
000003b0: 074c 8dbd 7943 8bbb a014 003e f156 32bd
000003c0: b2db 233e a62d 293c dbda 01be 3674 c73d
000003d0: e44e 263e e018 523e 5f80 8e3d 8eee 9dbb
000003e0: e674 963b a767 823d b2ec 453e 865e 79ba
000003f0: 9701 a9bd 6037 113e 220b 25be dcfa d6be

bias f4 [60]
0.013112454 -0.15238442 -0.0762721 -0.11836783 -0.021856954 0.12895879 0.10525013 -0.015374716
-0.087908015 -0.037378896 0.07055558 0.07998045 -0.098339625 -0.029671075 -0.01231963 -0.019036274
0.10048224 0.0022266235 -0.045197595 -0.051968798 -0.071447946 -4.490965e-05 0.07292895 0.075465135
-0.02880892 0.15730734 0.07661085 -0.08436513 -0.102040015 0.0404437 -0.08544542 0.03465647
-0.023225963 0.099647164 -0.07139253 -0.11423184 0.014371081 -0.017594572 -0.004234604 -0.018057715
-0.06373129 -0.03807012 0.050670832 -0.021311982 0.09362664 0.09323882 0.078004204 0.048213497
-0.041576188 -0.007308898 0.058581945 -0.054295313 0.057830386 -0.095510095 0.10803143 -0.063443884
0.0798099 -0.072012074 0.08886644 -0.00010125024
00000000: 9ed5 563c a90a 1cbe 8c34 9cbd d56a f2bd
00000010: 5b0d b3bc c60d 043e 618d d73d 3ce6 7bbc
00000020: 1e09 b4bd 9d1a 19bd 727f 903d cacc a33d
00000030: 4966 c9bd c110 f3bc 46d8 49bc f6f1 9bbc
00000040: a2c9 cd3d 8bec 113b 1d21 39bd 3cdd 54bd
00000050: 4d53 92bd 5f5d 3cb8 c65b 953d 778d 9a3d
00000060: af00 ecbc 2d15 213e 26e6 9c3d a0c7 acbd
00000070: 5bfa d0bd 4ba8 253d 02fe aebd f1f3 0d3d
00000080: 6044 bebc d013 cc3d 3f36 92bd 62f2 e9bd
00000090: af74 6b3c 7e22 90bc 6fc2 8abb c6ed 93bc
000000a0: 8d85 82bd 6aef 1bbd 388c 4f3d 7796 aebc
000000b0: 53bf bf3d fff3 be3d abc0 9f3d 847b 453d
000000c0: cb4b 2abd 7b7f efbb 9ff3 6f3d c364 5ebd
000000d0: 8edf 6c3d cc9a c3bd 953f dd3d deee 81bd
000000e0: 5f73 a33d 117b 93bd 9cff b53d 4f56 d4b8
