data/example_dynamics_data/kitchen_MLP_q.pth (torch, 664463 bytes, 8 tensors)

weight f4 [256, 70]
0	0x3e1189a8	0.14212668
1	0x3cc0f0a0	0.023552239
2	0xbdf0a4ef	-0.117502086
3	0xbd7a523b	-0.061113577
4	0x3d2bb4d5	0.0419205
5	0xbdb690d6	-0.08914344
6	0x3c1a1da0	0.009406477
7	0x3dceb839	0.100937314
8	0x3dc4a40a	0.096016005
9	0xbece125a	-0.40248376
10	0x3df84ded	0.12124238
11	0x3dc83886	0.09776406
12	0xbd72078c	-0.05908923
13	0xbd209a47	-0.03920963
14	0x3bf5ff88	0.0075072683
15	0xbc87a3a9	-0.016557531
16	0xbe399647	-0.18123733
17	0xbe132176	-0.14368233
18	0xbe1be8c3	-0.1522551
19	0x3e5c1e53	0.21495943
20	0xbe125117	-0.14288746
21	0x3dfb05b3	0.122569464
22	0xbe0c6f2a	-0.1371428
23	0x3bfd6461	0.0077329134
24	0x3e7dfe50	0.24804044
25	0xbc88a603	-0.016680723
26	0x3d9e967e	0.07743548
27	0xbe2382e4	-0.159679
28	0x3db8ec12	0.09029402
29	0xbead0c13	-0.33798274
30	0x3caf8277	0.021424515
31	0xbbd91875	-0.00662523
32	0xbded7588	-0.11594683
33	0x3dbc43c2	0.09192611
34	0x3db7912f	0.089632384
35	0xbd526c26	-0.05137267
36	0x3d6de443	0.058079015
37	0x3d50fd64	0.051022902
38	0x3c7688e9	0.01504729
39	0x3dc715b1	0.09720934
40	0xbda944a6	-0.08265047
41	0xbe191498	-0.14949262
42	0x3d518ff5	0.05116268
43	0x3d465ae2	0.048426516
44	0xbd50dde2	-0.050992854
45	0x3d61484e	0.055000596
46	0x3dd489ec	0.10377869
47	0x3d6f660e	0.058446936
48	0xbe1c7090	-0.15277314
49	0xbd1bed01	-0.03806782
50	0x3dd83a10	0.105579495
51	0x3dee7fd4	0.11645475
52	0xbe23d5d2	-0.15999535
53	0xbe0e719a	-0.13910523
54	0x3d65c4b7	0.056095805
55	0x3dec5bcb	0.115409456
56	0x3d5cec13	0.053936075
57	0x3ccab432	0.024744127
58	0xbd22e6db	-0.039770942
59	0xbde76c92	-0.11300005
60	0xbd86df88	-0.06585604
61	0xbcb9cb9d	-0.022680098
62	0xbd2b06fc	-0.041754708
63	0xbe3a1f28	-0.18175948
64	0xbd341133	-0.043961715
65	0x3d61d6db	0.055136543
66	0xbc5d6339	-0.013512426
67	0x3d8f2efc	0.069913834
68	0xbc89f104	-0.016838558
69	0xbc44d86f	-0.012014492
70	0xbcca4f4a	-0.024696011
71	0xbc25577b	-0.010091658
72	0xba3fb3bc	-0.0007312854
73	0xbcbc659a	-0.022997666
74	0x3e0307c1	0.12795927
75	0x3c73d00b	0.014881144
76	0x3d4192f0	0.04725927
77	0x3d84c190	0.064822316
78	0x3d4d1196	0.0500656
79	0x3ee481e7	0.44630358
80	0xbda666a7	-0.08125048
81	0x3d28bcb8	0.0411956
82	0xbda3c955	-0.079973854
83	0xbd0bc4a4	-0.034123078
84	0xbde1125a	-0.109898284
85	0x3caa1cb0	0.020765632
86	0xbdd49a6f	-0.10381018
87	0x3da3c64d	0.07996807
88	0x3d707d52	0.058713265
89	0x3dcbe9fe	0.0995674
90	0x3d10b8b2	0.03533239
91	0x3c073473	0.008252251
92	0xbbe180f5	-0.006881828
93	0xbd5609a4	-0.052255288
94	0xbd346976	-0.044045888
95	0xbdbc862f	-0.09205281
96	0x3c9906ea	0.018680055
97	0xbd756d85	-0.0599189
98	0x3da9cdb2	0.082911864
99	0xbb93918d	-0.004503435
100	0x3dd2ef86	0.10299592
101	0x3ddd79b7	0.10814231
102	0xbcb8626b	-0.022507867
103	0xbd0667de	-0.0328139
104	0x3d8925d1	0.06696666
105	0x3dab6c5d	0.08370278
106	0xbb8a6fb9	-0.004224744
107	0xbc28f92d	-0.010313314
108	0x3d90e67b	0.07075211
109	0x3d3efd0a	0.046628036
110	0x3ddc03dd	0.10742924
111	0x3def1392	0.116736546
112	0x3cf5e378	0.030015692
113	0xbd388418	-0.04504785
114	0x3dafaf6e	0.085783824
115	0x3dc742e1	0.09729553
116	0xbd8899f8	-0.06669992
117	0xbdd2ab3c	-0.102865666
118	0xbcc7ced8	-0.024390623
119	0xbd874387	-0.06604677
120	0x3d95b56b	0.07309993
121	0x3d1f9fb7	0.038970675
122	0xbdc3b171	-0.09555329
123	0x3d9a7b47	0.075430445
124	0xbd898601	-0.06715012
125	0x3dcac782	0.09901334
126	0xbdf423ef	-0.11920916
127	0xbd8e0f2f	-0.0693649
128	0xb9279231	-0.00015980822
129	0x3df5d81b	0.120041095
130	0xbb776884	-0.0037751505
131	0x3d7d38b4	0.061821654
132	0x3e37beed	0.17943926
133	0xbde5e7d5	-0.11225859
134	0xbb4f464f	-0.00316276
135	0xbdb59d33	-0.08867874
136	0xbcecbb6e	-0.028897967
137	0xbd3570bc	-0.044296965
138	0xbc8c22a1	-0.017106356
139	0x3d30bc8a	0.043148555
140	0x3e1b878b	0.15188424
141	0x3df6dcb8	0.120538175
142	0x3d403f6f	0.046935495
143	0xbc6174d6	-0.013760766
144	0x3e396c06	0.18107614
145	0xbd77fbf4	-0.060543016
146	0x3daf6345	0.08563856
147	0x3dd543b9	0.10413308
148	0x3d84b604	0.06480029
149	0x3ec578bb	0.38568673
150	0xbddd667f	-0.10810565
151	0xbdcffdf7	-0.10155862
152	0x3d0d84a5	0.034550328
153	0x3e0ade0b	0.13561265
154	0xbd84121f	-0.06448769
155	0x3dfb4414	0.12268844
156	0x3d820053	0.06347718
157	0x3b0c0932	0.0021367786
158	0x3bc634f9	0.0060487953
159	0x3e73791b	0.23776667
160	0xbe0c548a	-0.13704124
161	0xbd578a1d	-0.05262195
162	0x3d9ebbd5	0.0775067
163	0x3dbcf9d3	0.09227338
164	0xbe043f58	-0.12914789
165	0x3d870a23	0.0659373
166	0x3b16ce36	0.0023011095
167	0x3d9d83ab	0.07691129
168	0x3de8fe37	0.11376613
169	0xbb4647ab	-0.003025512
170	0xbdeca499	-0.11554832
171	0xbba41187	-0.0050069722
172	0x3cba33cf	0.022729782
173	0x3cb1a8fd	0.021687025
174	0xbdd56983	-0.104205154
175	0x3c37716e	0.011196477
176	0xbd6eb975	-0.058282334
177	0xbceb1f0e	-0.028701331
178	0x3de33af5	0.110952295
179	0xbd7b064a	-0.061285295
180	0xbdacd516	-0.084390804
181	0xbd234cc1	-0.03986812
182	0xbd425471	-0.04744381
183	0x3d96f1ec	0.07370362
184	0x3d9f1d16	0.077692196
185	0x3dcd827a	0.10034652
186	0x3d83bc57	0.06432407
187	0x3d7ca458	0.061680168
188	0x3b2a564c	0.0025991378
189	0xbbcdfcc5	-0.006286236
190	0xbded3b84	-0.11583617
191	0xbc57752c	-0.013150495
192	0xbd594308	-0.05304244
193	0x3d620d80	0.055188656
194	0xbd084849	-0.03327206
195	0xbd1c26c6	-0.038122915
196	0x3dc16b6d	0.09444318
197	0x3dda4880	0.106583595
198	0x3de52c02	0.111900344
199	0x3dd7f3e4	0.10544565
200	0x3ca24caf	0.019811956
201	0xbd44dd62	-0.04806269
202	0x3d683dd9	0.056699608
203	0xbd85ca34	-0.06532708
204	0x3c3ca86c	0.011514764
205	0x3d155137	0.036454406
206	0xbd855997	-0.065112285
207	0x3b664028	0.0035133455
208	0xbccf3141	-0.02529204
209	0xbcd6acfc	-0.026205532
210	0xbe204594	-0.15651542
211	0x3dbef9b3	0.0932497
212	0x3df738a8	0.12071353
213	0x3d2c365d	0.042044032
214	0x3dc66ae8	0.096883595
215	0xbca50dc5	-0.020148167
216	0xbd14a0ac	-0.03628604
217	0xbd745e14	-0.059660032
218	0x3d82f7cb	0.06394919
219	0x3ea62b41	0.32454875
220	0xbe049cd8	-0.12950456
221	0xbd62f754	-0.05541165
222	0x3c2cca5c	0.010546293
223	0xbe2aa440	-0.16664219
224	0x3ed47bbe	0.41500658
225	0x3e19c97a	0.15018263
226	0x3d9e9c30	0.07744634
227	0xbd2cbf5c	-0.042174682
228	0xbddc63ab	-0.10761198
229	0x3e1a7ee3	0.15087466
230	0xbe30f77f	-0.17281912
231	0x3cc2632f	0.023728935
232	0xbdaba6be	-0.08381413
233	0x3d8efcef	0.06981837
234	0xbde31962	-0.11088826
235	0x3dc1c661	0.09461666
236	0xbda13405	-0.0787125
237	0xbddeca2f	-0.10878407
238	0xbd25c62a	-0.040472187
239	0x3e25243e	0.16127107
240	0x3dda0432	0.106453314
241	0xbd1ac311	-0.037783686
242	0x3db3e3ef	0.08783709
243	0x3ddfbae6	0.1092432
244	0xbdb9c780	-0.09071255
245	0x3beb51ad	0.0071813674
246	0xbdf4692e	-0.11934124
247	0xbda894c1	-0.082314976
248	0x3d37ecb0	0.044903457
249	0xbd086418	-0.03329858
250	0xbdf42b00	-0.11922264
251	0xbd009e7d	-0.031401146
252	0x3c47f042	0.012203278
253	0xbd427d6e	-0.0474829
254	0xbd97c29d	-0.074101664
255	0xbbf48857	-0.007462542

bias f4 [256]
0	0xbc7967ed	-0.015222532
1	0x3cd66576	0.026171427
2	0x3da921b1	0.08258379
3	0xbcc5ed51	-0.024161013
4	0x3df50332	0.119635
5	0xbc98dc6e	-0.018659797
6	0x3d4c799c	0.049920663
7	0x3d548182	0.05188132
8	0xbd62c6f8	-0.055365533
9	0xbd9a733d	-0.07541511
10	0xbc2e85aa	-0.010651985
11	0x3d5d7606	0.054067634
12	0xbde18103	-0.11010935
13	0x3c6f59dd	0.014608827
14	0xbcfee5e4	-0.03111548
15	0x3cc1f25f	0.023675142
16	0x3d3f001c	0.046630964
17	0xbdf47721	-0.119367845
18	0x3cecd115	0.028908292
19	0x3df8c740	0.12147379
20	0x3db849a8	0.08998424
21	0x3d309a5b	0.043115955
22	0xbdfb4111	-0.1226827
23	0xbdbb59cb	-0.09147986
24	0xbdb18036	-0.086670324
25	0xbcbfca42	-0.023411874
26	0x3dc5297b	0.096270524
27	0xbb9ef892	-0.0048514092
28	0x3bb8a384	0.005634727
29	0xbdcf51c7	-0.1012302
30	0x3e1c1295	0.15241463
31	0xbd0712de	-0.032976978
32	0x3c564f70	0.013080463
33	0xbd6a255f	-0.057164546
34	0x3dfc9690	0.12333405
35	0xbc80b1d1	-0.01570979
36	0x3d90cbad	0.07070098
37	0x3d8360f8	0.0641498
38	0xbd319691	-0.043356482
39	0xbb8356f8	-0.00400817
40	0xbd694e3c	-0.056959376
41	0xbda32dc9	-0.07967717
42	0xbd6ff5a9	-0.05858389
43	0x3dece692	0.11567415
44	0x3c536ea8	0.0129048005
45	0xbd20ebbc	-0.039287314
46	0xbd644e7b	-0.055738907
47	0x3e01f797	0.12692104
48	0x3d4f577c	0.05062054
49	0xbdaa03fc	-0.08301541
50	0xbd7b3921	-0.06133378
51	0x3d973c06	0.073844954
52	0xbddbb0bc	-0.10727069
53	0xbd14258b	-0.036168616
54	0x3c15247e	0.009102939
55	0xbcd11eab	-0.025527319
56	0x3d174375	0.036929566
57	0x3ca31277	0.019906266
58	0xbd9ccc0f	-0.076561086
59	0x3dd08295	0.101811565
60	0xbd102fa4	-0.035201684
61	0x3df201ed	0.118167736
62	0xbc63c141	-0.013901056
63	0x3dc80424	0.09766415
64	0xbcf15f9a	-0.029464532
65	0xbd990c1e	-0.07473014
66	0x3d565618	0.0523282
67	0xbd07b7d3	-0.033134293
68	0xbdb2606d	-0.08709798
69	0x3dc4b73b	0.09605261
70	0x3d294070	0.041321218
71	0xbdb413a5	-0.087928094
72	0x3d5bde35	0.05367871
73	0xbdba48f7	-0.09095948
74	0xbdae0226	-0.084965035
75	0x3df2ff1e	0.11865066
76	0x3d38f0e7	0.045151617
77	0xbde487c0	-0.11158705
78	0xbd5941a3	-0.05304111
79	0xbddfaa65	-0.10921172
80	0xbda4ccd2	-0.08046879
81	0xbd13c758	-0.03607878
82	0x3d33dd56	0.043912254
83	0x3d7cea8a	0.06174711
84	0x3dd3d9f4	0.10344306
85	0x3cb79eb3	0.02241454
86	0xbda71cfd	-0.08159826
87	0x3d9dbefd	0.07702444
88	0xbd5bbafb	-0.053645115
89	0x3d9123bc	0.07086894
90	0xbdc40a21	-0.095722444
91	0x3def3e55	0.11681811
92	0xbdc19467	-0.094521336
93	0x3b5ad175	0.0033389006
94	0xbc8276bd	-0.01592576
95	0xbacf0a47	-0.001579591
96	0xbd6a1a32	-0.057153888
97	0x3d8b6ad4	0.06807485
98	0x3e10cd60	0.14140844
99	0xbd24d033	-0.040237617
100	0x3da7ac49	0.08187158
101	0xbc651eb8	-0.013984375
102	0x3dbee79f	0.09321522
103	0x3d507d01	0.050900463
104	0xbcdd16a8	-0.026988342
105	0x3dd21344	0.10257581
106	0xbb0ea4d6	-0.002176573
107	0xbd851ede	-0.06500028
108	0x3dc0bff2	0.09411611
109	0x3da7f21f	0.08200478
110	0x3def366d	0.11680303
111	0xbcdfbbcf	-0.027311234
112	0x3e13ae4b	0.14421956
113	0x3d35d178	0.044389218
114	0x3caeef45	0.021354327
115	0x3d8c5286	0.068516776
116	0xbd5f7479	-0.054554436
117	0xbd974d84	-0.07387832
118	0x3c096445	0.0083857225
119	0x3d3ba4f3	0.045811605
120	0xbcedd7e7	-0.029033614
121	0x3d809201	0.06277848
122	0x3c65f433	0.014035272
123	0xbc09e9b2	-0.008417534
124	0x3cfca854	0.030841984
125	0x3cbad75b	0.022807768
126	0x3de05351	0.10953391
127	0xbd6830dd	-0.056687225
128	0x3d677678	0.056509465
129	0xbdfba0b7	-0.12286513
130	0x3d80c179	0.06286902
131	0x3dbc70bd	0.092011906
132	0x3e00ab7b	0.12565415
133	0x3dc5109b	0.09622308
134	0xbb822ff0	-0.0039729998
135	0xbc9388af	-0.018009512
136	0xbd921627	-0.071331315
137	0xbdce0bf2	-0.10060872
138	0xbcecff76	-0.028930407
139	0x3cb61cbf	0.022230504
140	0x3c9a0dfd	0.018805498
141	0xbd805482	-0.062661186
142	0xbd9e42c6	-0.0772758
143	0xbdcd40e2	-0.10022141
144	0x3e1e2242	0.15442756
145	0x3d3ee7a7	0.04660764
146	0xbdaa8462	-0.08326031
147	0xbd33d1e1	-0.043901328
148	0x3dd3e3d2	0.10346188
149	0x3de39c3d	0.111137845
150	0xbca3e201	-0.020005228
151	0x3c479f46	0.01218397
152	0xbd8b9627	-0.06815749
153	0xbe0a26ec	-0.1349141
154	0x3dee912e	0.116487846
155	0xbd26f080	-0.040756702
156	0x3d8bb678	0.068219125
157	0x3d16c305	0.03680708
158	0x3d9eb10e	0.07748614
159	0x3cb86164	0.022507377
160	0x3db82f80	0.08993435
161	0x3ce675a3	0.028132265
162	0xbdd56b7c	-0.10420892
163	0x3dcf308d	0.10116682
164	0x3c999e77	0.01875232
165	0xbc40f0a1	-0.01177612
166	0xbce55ab3	-0.02799735
167	0x3c06095e	0.008180944
168	0xbb65949a	-0.00350312
169	0xbd1d9a83	-0.038477432
170	0x3d1a7511	0.0377093
171	0xbb8659e1	-0.00410007
172	0xbdb57ce9	-0.08861715
173	0x3cdde0a3	0.027084654
174	0xbc709329	-0.014683523
175	0x3db55093	0.08853259
176	0x3d3164ed	0.04330914
177	0xbd93ac87	-0.07210641
178	0x3dcdd96a	0.10051234
179	0xbdb5a337	-0.088690214
180	0xbdd62da4	-0.10457924
181	0xbd279093	-0.04090936
182	0x3df54552	0.119761124
183	0xbd13ac9c	-0.036053285
184	0x3d207b59	0.039180133
185	0x3dc54a04	0.09633258
186	0x3d71401c	0.05889903
187	0x3cf20a15	0.029545823
188	0xbd6e5ad8	-0.058192104
189	0xbcb73d41	-0.022368075
190	0xbd20a0e8	-0.039215952
191	0x3d53881a	0.05164347
192	0xbd51b310	-0.051196158
193	0x3de4cccf	0.11171877
194	0x3d43599c	0.04769288
195	0xbdb3cc96	-0.08779256
196	0x3d39eb18	0.04539022
197	0x3d3eeb96	0.04661139
198	0xbdd612b2	-0.104527846
199	0xbdc1193c	-0.09428641
200	0x3d2bc5f5	0.041936833
201	0xbcff81cb	-0.03118982
202	0xbd71d342	-0.05903936
203	0x3c9befdf	0.019035278
204	0x3af58c42	0.0018733817
205	0x3c658a30	0.014009997
206	0x3d6528c1	0.05594707
207	0xbdb6fc36	-0.08934824
208	0x3cc81159	0.024422335
209	0xbd6d17ac	-0.057883903
210	0x3d17b89d	0.037041295
211	0xbddd6e5d	-0.10812066
212	0xbd9bff97	-0.07617109
213	0xbd20a249	-0.039217267
214	0x3dae7cbf	0.08519887
215	0x3d312fbf	0.043258425
216	0xbdebe720	-0.11518693
217	0x3b044b0f	0.002018634
218	0x3c8aca24	0.016942091
219	0x3e042ec2	0.12908462
220	0x3dd64c16	0.10463731
221	0xbdbd2be4	-0.09236887
222	0x3d9ebdac	0.07751021
223	0xbc4e8580	-0.012605071
224	0xbd2f8d0d	-0.042859126
225	0x3d7d6992	0.061868258
226	0x3de808eb	0.11329826
227	0x3d9e1834	0.0771946
228	0x3de3b5bd	0.11118648
229	0x3b08bc88	0.0020864327
230	0x3d45b3d5	0.048267204
231	0xbd901e77	-0.07037061
232	0x3c26615a	0.010155046
233	0xbc3b018a	-0.011413941
234	0x3dbe61ec	0.09296021
235	0xbcd64969	-0.026158052
236	0xbd0b9777	-0.034079995
237	0xbdd83ba7	-0.10558253
238	0x3d058e41	0.032606367
239	0x3d3d197b	0.04616688
240	0x3cc3fee6	0.023925256
241	0x3980e203	0.00024582454
242	0xbc50954f	-0.01273091
243	0xbda353a2	-0.07974936
244	0xbd44fb89	-0.048091445
245	0x3dd1d465	0.10245589
246	0xbcd85996	-0.026409905
247	0x3dec4f63	0.11538579
248	0xbd9f65e8	-0.07783109
249	0x3de90959	0.11378736
250	0x3dd08eb2	0.10183467
251	0x3d7f9a6c	0.062403128
252	0x3dcaacb5	0.098962225
253	0x3ccf385e	0.025295433
254	0x3d9c23bc	0.07624003
255	0x3c274bbd	0.0102109285

weight f4 [256, 256]
0	0x3e0343aa	0.1281878
1	0x3d487799	0.048942182
2	0xbd217eba	-0.039427496
3	0xbcdbe386	-0.02684189
4	0x3be321c1	0.006931514
5	0xbd6fa42c	-0.058506176
6	0xbd7bb9de	-0.061456554
7	0x3c7329da	0.014841521
8	0x3b83b9ed	0.004019967
9	0x3d1380cd	0.036011506
10	0xbc414ede	-0.011798589
11	0xbd462859	-0.048378322
12	0xbccd7486	-0.025079977
13	0xbd78639c	-0.06064187
14	0x3ca5ed16	0.020254653
15	0x3c7e58b4	0.015524078
16	0x3b0360cf	0.0020046716
17	0xbcda75f9	-0.026667582
18	0x3d2c3b24	0.04204859
19	0x3af0e811	0.0018379708
20	0x3bf4acb5	0.0074668773
21	0x3d84c937	0.06483691
22	0x3d11c977	0.035592522
23	0xbd930ed3	-0.07180562
24	0x3b8f3cec	0.004371276
25	0x3d000588	0.031255275
26	0x3c33c73c	0.010972794
27	0x3d3d4036	0.046203814
28	0x3ca4ae64	0.020102687
29	0xbc6d8556	-0.014497122
30	0x3d10607e	0.035248272
31	0xbc90ba9c	-0.017667107
32	0xbd71d8e1	-0.059044722
33	0x3cf3860d	0.029727006
34	0x3cc30b7a	0.023809183
35	0xbd9214e3	-0.0713289
36	0xbd7dcf51	-0.06196529
37	0x3d85b9c8	0.065295756
38	0x3d73de8b	0.059538405
39	0xbd23547f	-0.039875504
40	0x3d39ac6b	0.045330446
41	0xbd326608	-0.043554336
42	0xbc3a8dae	-0.011386318
43	0xbd43e378	-0.047824353
44	0xbd742aff	-0.059611317
45	0x3d47a3fb	0.04874037
46	0xbcf1ff67	-0.02954073
47	0x3c92113a	0.01783048
48	0x3d95c068	0.07312089
49	0xbc52f0da	-0.012874806
50	0xbd596f59	-0.053084705
51	0x3cc73179	0.024315583
52	0xbd8152b1	-0.063146
53	0x3abf09f4	0.001457511
54	0xbc46cf7c	-0.012134429
55	0xbcfe3d30	-0.031035036
56	0x3d8630bc	0.06552264
57	0x3d1bc79d	0.038032163
58	0xbd183782	-0.03716231
59	0xbd13b422	-0.03606046
60	0x3d7413b1	0.05958909
61	0x3d27a3aa	0.040927567
62	0xbd75ee47	-0.060041692
63	0xbab0cd4f	-0.0013488921
64	0xbd0e8b3f	-0.034800764
65	0xbc73e59c	-0.014886286
66	0x3cfe6053	0.03105179
67	0xbc268f0b	-0.01016594
68	0xba56b4fd	-0.00081904215
69	0xbcf66cac	-0.030081116
70	0x3cc0ab31	0.02351913
71	0x3c853a1d	0.016263062
72	0xbdeaf431	-0.11472357
73	0x3d3b39f7	0.045709576
74	0x3d0120c8	0.031525403
75	0xbc6eea3a	-0.014582211
76	0xbdcc5111	-0.099764
77	0x3dac5151	0.084139474
78	0x3cfe23a6	0.031022858
79	0xbc46a237	-0.012123636
80	0xbd9153c8	-0.07096058
81	0xbc9fc862	-0.01950473
82	0x3cec16a8	0.028819397
83	0x3d6811a6	0.056657456
84	0xbce356eb	-0.027751407
85	0xbc02d0e7	-0.0079843765
86	0xbc88630f	-0.016648797
87	0x3d21bb74	0.03948541
88	0xbd0078f9	-0.03136537
89	0x3d1aa955	0.037759144
90	0x3d88cfd3	0.06680264
91	0x3c187e68	0.009307481
92	0x3e14ad2b	0.14519183
93	0xbd2305fc	-0.03980063
94	0x3c58f76e	0.013242586
95	0x3d2f127b	0.042742234
96	0xbd6e07c2	-0.058112867
97	0x3a51baec	0.0008000571
98	0xbd8c6e9e	-0.06857036
99	0x3de480ea	0.11157401
100	0xbd8591a2	-0.06521918
101	0x3a4e88da	0.0007878669
102	0x3b51595c	0.0031944131
103	0x3d575b28	0.052577168
104	0x3d0f9a8d	0.0350595
105	0xbd8bf267	-0.06833344
106	0xbd1a8df1	-0.037733022
107	0x3d33a85b	0.04386173
108	0x3d7faa3e	0.062418215
109	0x3d3d4e23	0.046217095
110	0xbade53d8	-0.0016962243
111	0xbd8a5f84	-0.067564994
112	0x3c8c6363	0.017137235
113	0x3d10972b	0.035300415
114	0xbc4d51a0	-0.012531668
115	0xbc0033d2	-0.007824855
116	0x3d2f2698	0.042761415
117	0xbd3cbe53	-0.046079945
118	0xba803ea7	-0.0009784297
119	0x3d994fcb	0.074859224
120	0x3c97527e	0.018471953
121	0xbd4cf1a6	-0.05003514
122	0xbd1c1eb8	-0.038115233
123	0x3c1ed15a	0.009693468
124	0xbd6961e4	-0.05697812
125	0x3cfe4bd0	0.03104201
126	0x3d1a22ba	0.037630774
127	0x3cd01bb7	0.02540384
128	0x3d059c7c	0.03261994
129	0x3c1129d3	0.008860069
130	0x3d85a59c	0.06525728
131	0x3aa70f4b	0.0012745647
132	0xbcd35572	-0.02579758
133	0xbd488e76	-0.048963986
134	0xbe002c09	-0.12516798
135	0x3cd09a5b	0.025464227
136	0x3cc9acad	0.024618471
137	0x3d531cdd	0.051541198
138	0xb9fb8dcc	-0.00047980098
139	0xbc53993e	-0.012914954
140	0x3ba485cc	0.0050208326
141	0x3d2662ec	0.040621683
142	0x3d2dba76	0.04241415
143	0x3d6a4771	0.057197038
144	0x3d527577	0.051381554
145	0xbd859621	-0.065227754
146	0xbcd5a8e4	-0.02608151
147	0x3d1a70e5	0.03770532
148	0xbdd11fc8	-0.1021114
149	0x3cff7fca	0.031188864
150	0xbd6052d6	-0.0547665
151	0x3c667641	0.01406628
152	0x3c459dc9	0.012061545
153	0x3c776405	0.01509953
154	0x3d4682ec	0.0484647
155	0x3d0594c4	0.032612577
156	0xbd11ae39	-0.035566542
157	0xbc7d21a3	-0.015449914
158	0x3ce82939	0.028339969
159	0x3c853803	0.01626206
160	0xbd8fd301	-0.07022668
161	0xbc6da03d	-0.014503536
162	0xbd0fd8ec	-0.035118982
163	0x3dbaf379	0.0912847
164	0x3c92a960	0.01790303
165	0x3c3378b4	0.010954071
166	0xbd339592	-0.043843813
167	0xbd44cdfb	-0.048048
168	0xbd90fa6c	-0.07079014
169	0x3c6ffca7	0.014647639
170	0xbc6c33de	-0.014416663
171	0x3b79a383	0.0038091845
172	0x3b8e2792	0.0043382132
173	0x3d358fac	0.04432647
174	0x3d0851e3	0.03328122
175	0xbdf423bd	-0.11920879
176	0xbcad320e	-0.021142032
177	0xbd4a484e	-0.04938536
178	0x3d16af13	0.036788058
179	0xbd2cb0e3	-0.04216088
180	0xbd91dc5d	-0.07122109
181	0x3ca8af56	0.02059142
182	0x3c2e22ad	0.010628385
183	0xbce7a391	-0.028276237
184	0x3d817808	0.06321722
185	0x3cfaa514	0.030596294
186	0xbd39f3e8	-0.045398623
187	0xbd28157b	-0.04103611
188	0xbd02bc0d	-0.03191762
189	0xbc5ec636	-0.013597062
190	0x3d25846d	0.040409494
191	0x3cb510db	0.022102764
192	0x3db44ab7	0.08803313
193	0xbc20c467	-0.009812451
194	0x3cdc895e	0.02692097
195	0xbd2e295b	-0.04251991
196	0x3ca5235d	0.020158464
197	0xbd30f039	-0.043197844
198	0x3d5b4907	0.05353644
199	0xb98c33b9	-0.00026741417
200	0xbd056754	-0.032569245
201	0xbd814b53	-0.06313195
202	0xbd2e3420	-0.04253018
203	0x3ae4ac0d	0.0017446295
204	0xbda9ffa1	-0.083007105
205	0x3b0c8ff5	0.002144811
206	0x3cbc2ec5	0.02297152
207	0x3b8dd5db	0.004328472
208	0xbd308f43	-0.043105375
209	0xbca6c517	-0.020357652
210	0x3ccd8132	0.02508602
211	0xbce656e9	-0.028117614
212	0x3c21dd8a	0.009879479
213	0x3c4a8b23	0.012362274
214	0x3c8ba133	0.01704464
215	0xbc9b2855	-0.01894013
216	0x3d3a22a2	0.045443185
217	0x3d1a3351	0.037646595
218	0x3d714197	0.058900442
219	0xbcd0b3f1	-0.025476428
220	0x3c852f88	0.016258016
221	0x3cfb27dd	0.030658657
222	0x3d718a45	0.058969755
223	0x3cb78733	0.022403335
224	0x3d44d685	0.048056144
225	0xbd74353b	-0.059621077
226	0x3cb9bbc0	0.022672534
227	0xbc064ddb	-0.008197273
228	0x3d820504	0.06348613
229	0x3b9fbd29	0.0048748446
230	0xbd553cc0	-0.05205989
231	0x3d80342c	0.06259951
232	0xbd6624e1	-0.056187514
233	0x3db9cf2f	0.0907272
234	0x3d021475	0.03175779
235	0xbcafc388	-0.021455541
236	0xbcfae6c3	-0.030627614
237	0x3cb5e90d	0.022205854
238	0xbcb37ec2	-0.021911029
239	0xbc8c1af0	-0.017102689
240	0x3d88d7c6	0.066817805
241	0x3cf83cb7	0.030302389
242	0x3df2d220	0.118564844
243	0xbd6660b2	-0.05624456
244	0x3d1dde79	0.038542245
245	0x3b44dcc2	0.0030038808
246	0xbd5d39a0	-0.054010034
247	0xbc88a135	-0.016678432
248	0xbd7e5df6	-0.062101327
249	0x3cd3fb1c	0.025876574
250	0x3b1a97f3	0.0023589104
251	0x3cece905	0.028919706
252	0x3ccdb518	0.025110766
253	0xbc08780a	-0.008329401
254	0x3d638119	0.05554304
255	0xbc1ad5af	-0.00945036

bias f4 [256]
0	0xbc2e4b7b	-0.010638113
1	0x3d02667f	0.03183603
2	0xbd41e7e6	-0.047340296
3	0x3ce5c8b2	0.0280498
4	0xbd4de3df	-0.050266143
5	0x3d3af3d1	0.045642678
6	0x3cdd8769	0.027042108
7	0xbcd7c505	-0.026339063
8	0x3c817927	0.01580484
9	0xbcbeb930	-0.023281664
10	0xbd42714b	-0.047471326
11	0xbd8d4643	-0.06898167
12	0xbcb27091	-0.021782191
13	0x3d8805dc	0.066417426
14	0x3d3a708f	0.0455175
15	0xbd09e0cd	-0.033661652
16	0x3d45965c	0.048239097
17	0xbd2a8451	-0.041630093
18	0x3cee85d6	0.029116552
19	0x3c90e5e2	0.017687742
20	0xbd3ecc52	-0.046581574
21	0xbc0c57d6	-0.008565864
22	0x3c9e65b6	0.019335609
23	0x3cef5404	0.029214866
24	0x3c376578	0.011193626
25	0xbcb246db	-0.021762302
26	0x3cc4ab67	0.024007512
27	0xbd2df130	-0.042466342
28	0x3cc5ed05	0.024160871
29	0x3d32cdee	0.04365342
30	0xbd0ba673	-0.034094285
31	0xbd387e9e	-0.045042627
32	0x3ca6066d	0.020266736
33	0x3d0a9976	0.033837758
34	0xbcb64436	-0.022249322
35	0xbd0c761f	-0.034292337
36	0x3d739355	0.05946668
37	0x3d93a19c	0.07208559
38	0x3cbafc6f	0.022825448
39	0x3d20db36	0.039271556
40	0x3d6d68cd	0.057961274
41	0x3ce1c87f	0.027561424
42	0xbd0c96a2	-0.034323342
43	0x3d4cc4e2	0.04999245
44	0x3d20f257	0.039293613
45	0x3c98cdff	0.018652914
46	0x3cebb460	0.028772533
47	0x3d85f235	0.06540338
48	0x3c6e8cbe	0.014559923
49	0x3d949f93	0.07256999
50	0x3d0dfa48	0.034662515
51	0x3cf6d18d	0.030129218
52	0x3d95bc42	0.07311298
53	0x3c9851c8	0.018593684
54	0x3d41df01	0.047331814
55	0x3da24722	0.07923724
56	0x3d832e02	0.0640526
57	0xbc23e2c5	-0.010002797
58	0x3d2c690e	0.042092375
59	0xbd492418	-0.049106687
60	0x3cb17009	0.021659868
61	0xbbe62782	-0.0070237527
62	0xbc0189c1	-0.007906378
63	0xbd487679	-0.04894111
64	0x3d824d61	0.06362415
65	0xbd3489b8	-0.04407665
66	0xbcd4eebb	-0.025992742
67	0xbcee8c55	-0.02911965
68	0xbd58273c	-0.05277179
69	0x3d7cae6a	0.06168977
70	0x3d03528d	0.03206115
71	0xbcc1a1a3	-0.023636645
72	0xbd29e377	-0.041476693
73	0x3c624de0	0.013812512
74	0xbd5edc3d	-0.054409254
75	0x3ca6b702	0.020350937
76	0xbcbb73a2	-0.022882286
77	0x3b8e9cc1	0.0043521826
78	0x3c899cb9	0.016798364
79	0x3c7900bf	0.015197932
80	0xbc6d8f17	-0.014499447
81	0xbc87f2bc	-0.016595237
82	0xbcaabaf3	-0.020841097
83	0x3c6795e5	0.014134859
84	0xbcaa947e	-0.02082276
85	0xbd3037f4	-0.04302211
86	0x3d3a2a98	0.045450777
87	0x3d3d822c	0.04626672
88	0xbcd34313	-0.02578882
89	0xbc479fe8	-0.012184121
90	0xbd4b16c6	-0.049582265
91	0x3c00d8dd	0.007864204
92	0xbce20708	-0.027591243
93	0x3d09e4ee	0.03366559
94	0x3d568e6d	0.05238192
95	0x3d8b2b29	0.067953415
96	0x3c711eb2	0.014716791
97	0x3d14a705	0.036292095
98	0x3b8933ae	0.004187069
99	0x3d2afed9	0.041746948
100	0x3d8cbda5	0.06872109
101	0x3d280284	0.041018024
102	0x3d3f4694	0.046698168
103	0xbd3fdee8	-0.04684344
104	0xbd3b6750	-0.045752823
105	0x3d1c2a91	0.038126532
106	0x3d54fc0b	0.05199818
107	0xbd3fc796	-0.0468212
108	0x3d533ca9	0.051571522
109	0xbc83342c	-0.016016088
110	0x3cd9350a	0.026514549
111	0x3cda9eae	0.026686992
112	0xbd39e004	-0.045379654
113	0x3cd1bd1f	0.025602875
114	0xbcef42f6	-0.029206734
115	0x3ce82873	0.0283396
116	0xbd14d100	-0.03633213
117	0xba3709fa	-0.00069823826
118	0xbcbe6649	-0.023242133
119	0x3c9247d3	0.017856514
120	0xbbf4eba6	-0.0074743805
121	0x3c39115e	0.011295645
122	0xbcfd0c8f	-0.030889777
123	0x3c78b899	0.01518073
124	0xbca04cac	-0.01956781
125	0xbb793cca	-0.0038030618
126	0x3d48e5c9	0.049047265
127	0x3d00d930	0.031457126
128	0x3d8d199f	0.068896525
129	0x3d32c969	0.04364911
130	0x3cd2a728	0.025714472
131	0xbcc8e7ee	-0.024524655
132	0xbd17ea57	-0.03708872
133	0x3c776bc7	0.01510138
134	0x3c423c34	0.011855174
135	0x3c4506c0	0.012025535
136	0xbd62815e	-0.055299155
137	0xbd5d7a8c	-0.054071948
138	0xbc0e495b	-0.0086844815
139	0xbd3c1157	-0.045914974
140	0x3d85ccc9	0.065332
141	0xbd220345	-0.0395539
142	0x3d8ee46f	0.06977164
143	0x3d9416ea	0.07230933
144	0x3d3a27a5	0.045447964
145	0x3a0b7556	0.00053199136
146	0x3d7ac9e5	0.061227698
147	0xbc820e94	-0.015876092
148	0x3d2193a4	0.03944744
149	0x3c4825ca	0.012216041
150	0xbc677af3	-0.0141284345
151	0xbd19909c	-0.037491426
152	0xbcfe3fb1	-0.03103623
153	0x3c3a301a	0.011364007
154	0xbcd494e4	-0.025949903
155	0x3d407d82	0.046994694
156	0xbcacb6fd	-0.02108335
157	0x3d3440b8	0.044007033
158	0x3c69c7be	0.014268814
159	0xbc9f94f7	-0.019480212
160	0x3d10b842	0.035331972
161	0x3ce57a48	0.02801241
162	0xbd00408a	-0.03131155
163	0x3d116af7	0.0355024
164	0x3d4f66cd	0.050635148
165	0x3b8d9398	0.004320573
166	0x3c8fe47c	0.017565005
167	0x3cd9afdb	0.026573112
168	0x3cc80787	0.024417652
169	0x3d0b33d3	0.03398497
170	0xbcbd358d	-0.023096824
171	0x3d5b070c	0.053473517
172	0xbc74e76d	-0.014947754
173	0x3c215e4f	0.009849145
174	0x3c646105	0.013939147
175	0x3d8ff564	0.070292264
176	0x3d04638e	0.032321505
177	0xbcdf8649	-0.027285712
178	0x3c9e80ea	0.01934858
179	0x3d5e7bd9	0.05431733
180	0x3beb1190	0.0071737245
181	0x3d80ae70	0.06283271
182	0x3be4d460	0.006983325
183	0xbcffa93f	-0.031208633
184	0xbd81dd49	-0.06341035
185	0xbd2481c8	-0.04016283
186	0x3cde6856	0.02714936
187	0x3ce476b2	0.02788863
188	0xbd2ca382	-0.04214812
189	0x3d1a4771	0.037665788
190	0xbd2ec1a8	-0.042665154
191	0x3d801cd8	0.062555015
192	0x3cb5b9ee	0.022183385
193	0xbb9af3a0	-0.0047287494
194	0x3d198490	0.037479937
195	0xbd3591b8	-0.04432842
196	0x3d131c51	0.035915677
197	0x3d5f9af5	0.054591138
198	0x3c1b32ae	0.009472532
199	0xbd19b754	-0.03752835
200	0x3bf0057f	0.007324874
201	0x3cc815b9	0.02442442
202	0xbab721e4	-0.0013971892
203	0x3d0d4b0a	0.03449539
204	0x3ccc83f3	0.024965262
205	0xbd13cba0	-0.036082864
206	0x3c8b4b94	0.017003812
207	0x3d5d6c01	0.05405808
208	0xbc54b72a	-0.012983123
209	0xbbed03e3	-0.0072331293
210	0x3d8bd351	0.06827415
211	0x3d46a617	0.04849824
212	0xbd52bce5	-0.051449675
213	0x3d3148db	0.04328237
214	0xbab63f7a	-0.0013904416
215	0x3d040a55	0.032236416
216	0x3c79a9c8	0.015238233
217	0x3d6f40ae	0.058411293
218	0x3c884454	0.016634144
219	0x3d8ea803	0.069656394
220	0xbd7b848a	-0.061405696
221	0xbcb24531	-0.021761509
222	0xbbe05525	-0.0068460875
223	0x3d1e49db	0.038644653
224	0xbcc648b7	-0.024204595
225	0xbd6e4930	-0.058175266
226	0xbd29d845	-0.041466016
227	0xbbebc25d	-0.007194801
228	0x3cee17df	0.029064117
229	0x3d21e42f	0.039524253
230	0x3b5a51df	0.003331296
231	0xbc1d8710	-0.009614721
232	0x3c002f25	0.00782374
233	0x3d5c5142	0.05378843
234	0xbb835e71	-0.004009061
235	0xbd1afc59	-0.037838314
236	0xbd5460ef	-0.051850256
237	0x3ce640cb	0.028107068
238	0x3d0e880f	0.034797724
239	0x3d13128c	0.03590636
240	0xbd2b74c1	-0.041859392
241	0xbcf07507	-0.029352678
242	0x3d71abba	0.05900166
243	0x3d077fec	0.03308098
244	0xbc92616e	-0.017868724
245	0x3d7f242f	0.062290367
246	0x3cb11c6b	0.021619996
247	0xbbdf28ea	-0.0068102973
248	0x3d7a57bb	0.061118823
249	0xbc901c02	-0.01759148
250	0x3ca8ca9c	0.020604424
251	0x3c024197	0.007950208
252	0x3cbf1f1f	0.02333027
253	0xbd86e16b	-0.06585964
254	0xbb2d8229	-0.0026475287
255	0x3cf9e4d7	0.030504627

weight f4 [256, 256]
0	0xbc9b2765	-0.018939683
1	0x3ce35cc2	0.027754191
2	0xbcbfd1ef	-0.023415534
3	0x3d0b377b	0.033988457
4	0xbcb7fa2f	-0.022458164
5	0xbd4891b9	-0.048967097
6	0xbc97a05c	-0.018509082
7	0xbd2024ad	-0.039097477
8	0x3bd373d7	0.006453018
9	0x3c066d7c	0.008204814
10	0x3cb06c9d	0.021536166
11	0xbca9f62f	-0.020747272
12	0xbc6dcaf2	-0.014513718
13	0x3c7901a5	0.015198146
14	0xbae4e849	-0.0017464246
15	0x3defb986	0.11705308
16	0x3d5f6128	0.054536015
17	0xbb4a84c1	-0.0030901881
18	0x3bdfb05e	0.0068264445
19	0xbc32dd05	-0.010916953
20	0x3cdae05b	0.02671831
21	0xbd7e0145	-0.06201293
22	0x3c1a636a	0.009423116
23	0xbd079bad	-0.03310745
24	0x3b8d4bc7	0.004312012
25	0x3d16f6e2	0.03685654
26	0xbd84d95d	-0.06486771
27	0xbd814444	-0.06311849
28	0xbd866aac	-0.06563315
29	0x3d301f88	0.04299882
30	0xbd3c3c68	-0.045956045
31	0x3b56c781	0.0032772722
32	0xbd6f9cee	-0.05849927
33	0xbd20ecac	-0.039288208
34	0x3c8b578f	0.017009525
35	0xbc5d6cbb	-0.013514693
36	0x3d6b1b9a	0.05739937
37	0x3c217c7d	0.0098563405
38	0x3d0a9fae	0.03384369
39	0xbd0f8f3a	-0.0350487
40	0xbd5f2a28	-0.054483563
41	0x3c03b80d	0.008039487
42	0x3d288c43	0.04114939
43	0xbc82e3c2	-0.015977744
44	0x3d15cc7f	0.036571976
45	0xbd1d24cd	-0.038365174
46	0xbba5e7f5	-0.005063052
47	0xbd760d79	-0.060071442
48	0xbce365bf	-0.027758477
49	0xbc8c9c5a	-0.017164398
50	0xbc27be23	-0.010238203
51	0xbd2e6ac3	-0.042582285
52	0xbcad3a99	-0.021146106
53	0x3c563094	0.013073105
54	0xbd6c4f09	-0.05769256
55	0x3c376662	0.011193844
56	0x3c96af65	0.018394182
57	0xbc893b92	-0.016752038
58	0xbc89fea7	-0.01684506
59	0x3c9c4519	0.019075917
60	0xbd0994f9	-0.033589337
61	0xbca9553d	-0.020670528
62	0xbdb19db6	-0.08672659
63	0xbd470456	-0.04858812
64	0xbc495e05	-0.012290482
65	0x3d37b910	0.044854224
66	0x3bdc4964	0.006722616
67	0xbc82aca9	-0.015951471
68	0x3c9aa309	0.01887657
69	0x3d0603e2	0.032718547
70	0xbccc5856	-0.024944466
71	0xbc1b0342	-0.009461226
72	0x3be1e888	0.006894175
73	0xbd399a10	-0.04531294
74	0x3cd8b7ff	0.026454924
75	0x3d138b51	0.036021534
76	0x3d38e494	0.045139864
77	0xbd168ae0	-0.036753535
78	0xbd558848	-0.05213192
79	0x3d0e5d29	0.034756813
80	0xbc3497fb	-0.011022563
81	0x3c3e33de	0.011609046
82	0xbd1bc1f2	-0.038026758
83	0x3ce448b3	0.027866697
84	0x3c7ee133	0.015556621
85	0xbd17747f	-0.036976334
86	0xbd6bac38	-0.057537287
87	0xbc742a76	-0.014902702
88	0xbd8e8a07	-0.069599204
89	0xbd81afd1	-0.063323624
90	0xbd0b41a6	-0.033998154
91	0xbd8c6d06	-0.06856732
92	0x3c44565d	0.011983481
93	0xbd482267	-0.048860934
94	0xbc8eb713	-0.017421281
95	0x3d55297f	0.052041527
96	0xbd253ea7	-0.040342953
97	0x3b809dd8	0.0039250664
98	0xbd09c00c	-0.033630416
99	0xbd20034d	-0.039065648
100	0xbd0d4696	-0.034491144
101	0x3c7f0362	0.015564771
102	0xbe01f1c0	-0.12689877
103	0x3d408579	0.04700229
104	0x3cba86c3	0.022769338
105	0xbc6248e4	-0.013811324
106	0xbc9ad19d	-0.01889878
107	0xbd5e684d	-0.054298688
108	0x3d1a3b65	0.0376543
109	0xbc837a5e	-0.01604956
110	0xbd415b01	-0.04720593
111	0x3cabdec5	0.020980248
112	0xbc342991	-0.010996238
113	0x3b4a1a0b	0.0030838277
114	0xbd15e9e0	-0.036599994
115	0xbcbad43a	-0.022806276
116	0xbd61cb5a	-0.05512557
117	0x3d0dda74	0.03463216
118	0xbcbed1ab	-0.023293337
119	0xbd3e5907	-0.04647162
120	0xb9cdd832	-0.00039261725
121	0x3d0310a5	0.031998295
122	0x3d37c318	0.04486379
123	0x3c4939b9	0.012281829
124	0xbc1c2f8b	-0.0095328195
125	0x3b5cf80c	0.0033717183
126	0xbd82cf1c	-0.06387159
127	0xbd4e09e7	-0.050302412
128	0xbd798d84	-0.060925975
129	0x3d1a134c	0.03761606
130	0xbc1ea6a1	-0.009683282
131	0xbd09ac59	-0.03361163
132	0x3d2224cb	0.03958587
133	0x3ca95c47	0.020673884
134	0x3c99d0a6	0.01877625
135	0xbb965cfc	-0.0045887213
136	0x3d0a78d0	0.033806622
137	0xbd7589d1	-0.059945885
138	0x3d342039	0.043976042
139	0x3ce35fc5	0.027755627
140	0x3c6a3691	0.014295236
141	0xbd3a6407	-0.04550555
142	0xbd6e98e7	-0.058251288
143	0xbd54469c	-0.05182515
144	0xbc0e591c	-0.0086882375
145	0x3d5d2637	0.053991523
146	0xbd74eaeb	-0.059794348
147	0xbc67758a	-0.014127145
148	0xbd23b6f6	-0.039969407
149	0xbd93b341	-0.07211924
150	0x3d7918ce	0.06081467
151	0xbca31fac	-0.019912563
152	0xbd692370	-0.05691856
153	0x3ce91280	0.028451204
154	0x3b65c8cd	0.0035062314
155	0xbd078045	-0.03308131
156	0xbcbcd555	-0.023050943
157	0xbcde3112	-0.027123008
158	0xbc617331	-0.013760374
159	0x3d31f4b6	0.043446265
160	0x3d981c0c	0.074272245
161	0xbcad216b	-0.021134099
162	0xbd488a05	-0.04895975
163	0x3d4a2795	0.049354155
164	0xbcab2d47	-0.020895613
165	0xbd1aab7c	-0.037761196
166	0x3d6ad6b0	0.05733365
167	0x3d778db3	0.06043787
168	0xbc5cf3ea	-0.013485888
169	0xbc0de9c5	-0.008661692
170	0x3d68368c	0.056692645
171	0xbc007194	-0.007839579
172	0xba1b1178	-0.0005915384
173	0xbb5e91cf	-0.003396142
174	0x3cb56074	0.022140719
175	0xbb4c8bbe	-0.0031211223
176	0x3d2e28e9	0.042519484
177	0xbcdffcb7	-0.027342184
178	0x3cfecb0b	0.031102678
179	0x3d61cf8a	0.055129565
180	0x3d1bb9d1	0.038019005
181	0xbcb7c16d	-0.0224311
182	0xbd0c65e6	-0.034276865
183	0xbb6859a1	-0.0035453814
184	0x3d150af1	0.036387388
185	0x3d39581e	0.04525005
186	0x3cd6ff46	0.02624477
187	0x3d5a25ca	0.053258695
188	0xbd51eed4	-0.051253155
189	0x3c3c3473	0.011487114
190	0x3d2b6483	0.041843902
191	0xbd79af4d	-0.060958195
192	0x3cb399fe	0.021924015
193	0x3c03a385	0.008034592
194	0x3c35c00d	0.011093152
195	0xbd86cca3	-0.06582
196	0x3d026435	0.031833846
197	0x3ca05365	0.019571016
198	0xbce6a5eb	-0.028155288
199	0xbad5bdcf	-0.0016307178
200	0xbd616002	-0.0550232
201	0x3d00219b	0.03128205
202	0x3c2baa69	0.010477641
203	0x3cd81c7d	0.026380772
204	0x3d4674d3	0.048451256
205	0xbd7f30ec	-0.062302515
206	0xbcba53ec	-0.022745095
207	0xbd55808d	-0.05212455
208	0x3c299f1e	0.010352878
209	0xbd58f300	-0.052966118
210	0xbd4a651a	-0.049412824
211	0xbd47d367	-0.048785593
212	0x3d4b504b	0.04963712
213	0xbcd215e3	-0.025645202
214	0x3d169a71	0.03676838
215	0xbce37f93	-0.027770793
216	0x3b839ad4	0.0040162597
217	0x3d22671d	0.039649118
218	0xbd5acceb	-0.05341808
219	0x3c6a2aba	0.014292413
220	0x3d1dd054	0.038528755
221	0xbd5357f2	-0.051597543
222	0x3d03abcc	0.03214626
223	0x3cb87a12	0.022519145
224	0x3cc36eca	0.02385654
225	0x3d308c03	0.043102276
226	0xbd7744df	-0.060368415
227	0x3c38ea80	0.011286378
228	0xbd31458c	-0.043279216
229	0x3d10c450	0.03534347
230	0xbbac9445	-0.0052666985
231	0xbc0e1f96	-0.008674523
232	0x3d608c0e	0.054821067
233	0xbd052030	-0.0325014
234	0x3d681fb4	0.05667086
235	0x3d446795	0.047950346
236	0x3bea027c	0.0071414094
237	0x3d6e28ac	0.058144256
238	0x3cc615ba	0.024180282
239	0xbcb8f6bd	-0.022578591
240	0xbcfd189f	-0.03089553
241	0xbd17d5eb	-0.037069242
242	0xbc0c9714	-0.008580942
243	0xbd119cf7	-0.035550084
244	0xba9760f7	-0.0011549284
245	0x3d069c3b	0.032863837
246	0x3d225eb3	0.039641093
247	0xbbacc2e5	-0.0052722567
248	0x3b92b207	0.004476789
249	0x3d457d2f	0.048215088
250	0x3d28c243	0.041200887
251	0x3c4b8192	0.012421029
252	0xbd0e8da8	-0.034803063
253	0x3d3f2913	0.04667003
254	0x3d67ef4d	0.0566247
255	0xbc4cc48a	-0.01249803

bias f4 [256]
0	0x3a3800b9	0.00070191507
1	0xbd3e1e1a	-0.046415426
2	0xbc09c28c	-0.0084082
3	0xbd468679	-0.048468087
4	0x3d83ed65	0.06441764
5	0xbd8133a4	-0.06308678
6	0xbbbe5b03	-0.0058091893
7	0xbcb2247a	-0.021745909
8	0x3ced86ef	0.028995005
9	0x3cd0546b	0.025430879
10	0xbd43c5b0	-0.04779595
11	0xbcfb455a	-0.030672718
12	0xbc951e25	-0.01820285
13	0xbd96663b	-0.07343718
14	0x3d029145	0.03187682
15	0xbcdca4c7	-0.02693404
16	0xbc5a9cf4	-0.013343085
17	0x3cf8462a	0.030306894
18	0xbd44209f	-0.047882672
19	0xbc0d9125	-0.008640562
20	0x3c9f4d25	0.019445965
21	0x3cb8e057	0.022567911
22	0x3d1c0626	0.0380918
23	0xbdb014f0	-0.085977435
24	0xbcde72e7	-0.0271544
25	0x3d90cf36	0.07070772
26	0x3d1ae948	0.03782013
27	0x3d451f34	0.04812546
28	0xbd8130fb	-0.063081704
29	0x3d59ae61	0.053144816
30	0x3c227905	0.009916549
31	0xbcbfe56c	-0.023424827
32	0xbd098e15	-0.033582766
33	0x3d944cd5	0.07241217
34	0xbd8c3733	-0.06846466
35	0xbc68aa9d	-0.014200834
36	0xbd0f2e12	-0.034956045
37	0x3d780dea	0.060560144
38	0x3cb47ce7	0.022032214
39	0xbbaef876	-0.0053396774
40	0x3bbbfe2c	0.0057370868
41	0x3c305df0	0.010764584
42	0xba428191	-0.00074198196
43	0xbd93064b	-0.07178935
44	0x3d7fcfde	0.062454097
45	0xbc2df87d	-0.010618326
46	0xbc43c6ff	-0.0119493
47	0x3d03b2bb	0.032152873
48	0x3bdadfcf	0.006679512
49	0xbca727a5	-0.020404646
50	0x3d946ae8	0.07246953
51	0x3d5ea249	0.054353986
52	0x3d7bdf9a	0.06149254
53	0xbd0a92f8	-0.033831567
54	0x3cb41154	0.021980919
55	0x3cf797de	0.030223783
56	0xbd263e51	-0.040586773
57	0xbc8ca4ca	-0.017168421
58	0xbc97bfaf	-0.018524019
59	0xbb108b4e	-0.0022055688
60	0xbcb5976d	-0.022166932
61	0xbc7196d2	-0.014745431
62	0x3d5e29b9	0.05423901
63	0xbd517afe	-0.051142685
64	0xbc9c7927	-0.019100739
65	0x3d531078	0.051529378
66	0xbccbe07e	-0.02488732
67	0xbcd9cac5	-0.026585946
68	0x3d3b3882	0.045708187
69	0xbcd17d1c	-0.025572352
70	0x3d9f180a	0.07768257
71	0xbd0f4072	-0.03497357
72	0xbb1deacb	-0.0024096246
73	0xbcb27ac1	-0.02178705
74	0xbb39fc58	-0.0028379168
75	0x3b18ee2a	0.0023335316
76	0xbc203b38	-0.009779744
77	0xbd02e7a2	-0.031959184
78	0x3cfe2eee	0.031028237
79	0x3cbac7b8	0.022800311
80	0x3d00cdf6	0.03144642
81	0x3d49281b	0.049110513
82	0xbd271560	-0.04079187
83	0x3d08e3a1	0.03342021
84	0xbcfbdba5	-0.030744383
85	0xbb646c0d	-0.0034854442
86	0x3cd044f9	0.025423514
87	0x3cdddd4f	0.027083067
88	0xbd3b3078	-0.04570052
89	0x3d9e0b78	0.07717031
90	0x3d000858	0.031257957
91	0xbcf64883	-0.030063873
92	0xbafb5b0b	-0.0019176913
93	0x3c066a80	0.0082041025
94	0x3d275b4f	0.040858563
95	0x3c58c4ae	0.013230486
96	0x3cc3f486	0.023920309
97	0x3cba80bc	0.022766463
98	0x3ce01793	0.027354991
99	0x3cad0472	0.021120284
100	0xbd930b78	-0.07179922
101	0x3d5a1414	0.053241804
102	0xbc5fe857	-0.013666234
103	0xbd4875ce	-0.048940472
104	0xbd944c55	-0.07241122
105	0x3c52c50c	0.012864362
106	0xbd0a19bd	-0.033715952
107	0xbd1f1ba3	-0.038844716
108	0x3d63b14f	0.055589017
109	0xbc04c04d	-0.008102489
110	0xbb805c34	-0.0039172415
111	0xbd439839	-0.047752593
112	0x3cb65669	0.022258
113	0xbd01c449	-0.031681333
114	0x3d4a5b39	0.049403403
115	0x3ceaedf1	0.028677912
116	0x3c809955	0.015698114
117	0xbbe4f1cb	-0.006986832
118	0x3d18df1c	0.03732215
119	0xbcffe229	-0.031235771
120	0x3c92c869	0.017917829
121	0x3d8407e9	0.06446821
122	0x3d9209b7	0.07130759
123	0xbc4f372a	-0.0126474295
124	0x3d6cfcc5	0.057858247
125	0xbd835d0a	-0.0641423
126	0x3c9d67f0	0.0192146
127	0xbcbd1f23	-0.023086136
128	0xbc0f2854	-0.008737642
129	0x3d77d32c	0.060504124
130	0x3d2eca99	0.04267368
131	0xbcfd868f	-0.030947952
132	0x3da79fc5	0.081847705
133	0x3c973338	0.01845704
134	0x3d118a6b	0.035532396
135	0xbc629c8a	-0.013831267
136	0x3c122a59	0.008921229
137	0xbcf48561	-0.029848756
138	0x3c1b3a24	0.009474311
139	0xbb9cc290	-0.004783936
140	0x3d464a0f	0.04841047
141	0xbd38a711	-0.045081202
142	0x3a3854cd	0.0007031679
143	0x3c6ca216	0.014442941
144	0xbd2765a5	-0.04086842
145	0xbdb2d2d6	-0.0873162
146	0xbd816804	-0.063186675
147	0xbcde6241	-0.02714646
148	0xbadf82f6	-0.0017052579
149	0x3d28f48d	0.041248847
150	0x3d84c44f	0.064827554
151	0xbd2cb283	-0.04216243
152	0xbccd3560	-0.025049865
153	0xbd2d5edb	-0.04232679
154	0x3c9a4da6	0.018835854
155	0x3d02a618	0.03189668
156	0xbd0e5e04	-0.03475763
157	0x3c5a8090	0.013336316
158	0x3d056090	0.032562792
159	0x3c998714	0.018741168
160	0x3cae1fd4	0.021255411
161	0xbd7cf582	-0.061757572
162	0x3b5608bf	0.0032659022
163	0xbb28c41f	-0.0025751663
164	0x3d1bd7a3	0.038047444
165	0xbd5f4179	-0.0545058
166	0x3d76f571	0.060292665
167	0xbd04bbb7	-0.03240558
168	0xbcf0dbd3	-0.029401695
169	0xbd46c1be	-0.04852461
170	0xbd8d1c07	-0.068901114
171	0x3d9e948e	0.07743178
172	0xbc124fcd	-0.008930159
173	0xbd71c713	-0.059027743
174	0x3c98edb2	0.01866803
175	0x39df12e0	0.00042547937
176	0x3dbbb13b	0.091646634
177	0x3c48e0f2	0.012260662
178	0x3c9b9359	0.01899116
179	0x3baf6849	0.005353008
180	0x3d8cf861	0.06883312
181	0x3d2280e9	0.03967372
182	0x3d900554	0.07032266
183	0xbc8063a2	-0.015672509
184	0x3ce37638	0.027766332
185	0xbd5cc352	-0.05389721
186	0x3d3c078d	0.04590564
187	0xbc757a25	-0.014982735
188	0x3d31208b	0.043243926
189	0xbc973424	-0.01845748
190	0x3d9435bd	0.07236812
191	0x3d4068bd	0.046974886
192	0x3b9eaa17	0.0048420536
193	0x3d93d3da	0.07218142
194	0xbd39ae58	-0.045332283
195	0xbd785ce0	-0.060635448
196	0x3bc0d631	0.0058849086
197	0xbc915208	-0.01773931
198	0x3c1c1cb0	0.009528324
199	0xbd354f9b	-0.04426537
200	0x3c1291c7	0.008945889
201	0x3d0c0d9b	0.034192663
202	0xbcc1c005	-0.023651132
203	0x3d37a876	0.04483839
204	0xbd2254fd	-0.039631832
205	0xbd24a0d0	-0.040192425
206	0xbd68d4c0	-0.05684352
207	0x3a672913	0.0008818071
208	0xbd2e437c	-0.042544827
209	0x3d4551fa	0.048173882
210	0x3b285455	0.0025685031
211	0xbcf278fe	-0.02959871
212	0x3cf01d48	0.029310837
213	0x3cc07c21	0.02349669
214	0x3c01e236	0.007927468
215	0x3d9d5213	0.0768167
216	0xbcc031cf	-0.02346125
217	0xbc8ff893	-0.017574584
218	0xbc8f8c47	-0.017522944
219	0x3ca78cb3	0.020452833
220	0x3d6a12ac	0.057146713
221	0xbd5b81b4	-0.05359049
222	0x3c0c4618	0.0085616335
223	0x3d5d9bc4	0.054103628
224	0xbc1b4d81	-0.009478928
225	0x3d425105	0.047440547
226	0xbd4d4782	-0.050117023
227	0xbd1dd893	-0.03853662
228	0xbd4c52b2	-0.049883552
229	0x3ba63fca	0.005073522
230	0x3d06c417	0.03290185
231	0xbd905bed	-0.070487835
232	0x3d86ad9e	0.065760836
233	0x3d162a1a	0.036661245
234	0xbd411dc0	-0.047147512
235	0x3cea8b06	0.028630745
236	0xb9a3804e	-0.00031185377
237	0x3d95bfeb	0.07311996
238	0x3cf19e94	0.029494561
239	0xbcb22938	-0.02174817
240	0x3d915eb8	0.07098144
241	0xbae70030	-0.0017623957
242	0x3ceb485b	0.028721025
243	0xbd156e03	-0.03648187
244	0xbd34f0b1	-0.044174854
245	0xbcb24729	-0.021762447
246	0xbcce1289	-0.025155323
247	0x3d1a29f0	0.03763765
248	0xbbc8feed	-0.006133905
249	0x3d42625a	0.047457077
250	0xbca2a7a8	-0.019855335
251	0xbcb6ad72	-0.022299502
252	0x3d90d918	0.07072657
253	0x3d0c75cb	0.034292024
254	0xb8599f87	-5.1885403e-05
255	0x3d22368d	0.039602805

weight f4 [60, 256]
0	0xbd7e6d2c	-0.062115833
1	0x3c971d7d	0.018446678
2	0x3d93be4d	0.07214031
3	0xbc9c79fd	-0.019101137
4	0x3d31b11c	0.043381795
5	0xbc885e8c	-0.016646646
6	0xbdaed18a	-0.0853606
7	0x3c036e79	0.008021944
8	0x3cb1c306	0.02169944
9	0x3cdae038	0.026718244
10	0x3c097307	0.008389241
11	0x3da88e1d	0.08230231
12	0xbb7b3222	-0.0038329442
13	0x3c1c969a	0.009557391
14	0x3c6cad68	0.01444564
15	0x3d4e9c28	0.05044189
16	0xbc742e10	-0.01490356
17	0x3d0d7282	0.03453303
18	0x3d5b6008	0.05355838
19	0xbd362081	-0.044464592
20	0xbd00430e	-0.03131395
21	0xbcda8584	-0.026674993
22	0x3c152ffd	0.00910568
23	0x3b87ace8	0.004140485
24	0xbc1d5e50	-0.009605005
25	0x3cbf9abf	0.023389218
26	0xbd7c812c	-0.061646625
27	0xbcf32f5c	-0.029685669
28	0x3d2b0343	0.041751157
29	0x3d47761c	0.048696622
30	0xbd2609b8	-0.040536612
31	0xbd00f21a	-0.031480886
32	0xbd0fe31b	-0.035128694
33	0x3cbe8ce1	0.023260536
34	0x3dc91770	0.098189235
35	0xbd33bdce	-0.043882184
36	0xbd9681c8	-0.073489726
37	0xbd082ef5	-0.033247907
38	0x3c93cd51	0.018042238
39	0x3d3ab44c	0.0455821
40	0xbbf27dd7	-0.007400255
41	0xbbc4ec41	-0.006009609
42	0x3bc0c4ec	0.00588285
43	0x3d8d0003	0.06884768
44	0xbda63a17	-0.081165485
45	0xbd8502ef	-0.064947
46	0x3a9f7ff9	0.0012168876
47	0xbd5106f0	-0.051032007
48	0xbd5f3851	-0.054497067
49	0xbd4d5cdb	-0.050137382
50	0xbd79958c	-0.060933635
51	0xbd751ecc	-0.059843823
52	0xbdae52aa	-0.08511861
53	0x3d1d6147	0.03842285
54	0xbc654975	-0.013994564
55	0xbd905dbc	-0.070491284
56	0x3c3b5301	0.011433364
57	0x3c40acc0	0.011759937
58	0xbad54652	-0.0016271567
59	0xbd83a4f2	-0.06427945
60	0xbd229e05	-0.03970148
61	0xbdabfb86	-0.08397584
62	0xbd426270	-0.04745716
63	0xbcb899a3	-0.022534197
64	0x3d6b7105	0.05748083
65	0xbb24a421	-0.0025122243
66	0x3c67f164	0.014156673
67	0xbd485ce9	-0.04891673
68	0xbd7b1b0d	-0.061305095
69	0x3b104562	0.0022014012
70	0x3c8351c3	0.016030198
71	0xbd749a62	-0.059717543
72	0xbda38294	-0.0798389
73	0x3d71fc6a	0.05907861
74	0x3d046712	0.032324858
75	0x3cf12e33	0.029440975
76	0xbbbd5510	-0.0057779625
77	0xbc957213	-0.018242871
78	0x3d51a813	0.05118568
79	0x3d55a61c	0.052160367
80	0xbd763e18	-0.06011781
81	0x3b6fb0e7	0.0036573948
82	0xbbc5b5ec	-0.0060336497
83	0xbcef4eba	-0.029212344
84	0xbd012c88	-0.03153661
85	0x3d5d6548	0.054051667
86	0xbd9ff759	-0.0781085
87	0x3d5dd8c1	0.05416179
88	0xbbbb77fb	-0.00572109
89	0xbcc334f1	-0.023828955
90	0xbd9b5d80	-0.07586193
91	0xbdafdafd	-0.085866906
92	0x3c950384	0.018190153
93	0xbce592eb	-0.028024158
94	0x3d155daa	0.036466278
95	0x3ba0c7db	0.004906637
96	0x3d409cfe	0.04702472
97	0x3c03dd85	0.00804842
98	0x3d263c29	0.040584717
99	0xbbaab3be	-0.005209415
100	0x3d92a733	0.07160797
101	0x3d0a6d2a	0.033795513
102	0x3cb6c343	0.022309905
103	0x3b9cac9c	0.004781319
104	0xbb48bfa7	-0.0030631812
105	0xbd86105b	-0.06546088
106	0xbcb63419	-0.022241639
107	0xbd5e43c6	-0.054263853
108	0xbbac4819	-0.005257618
109	0x3d6151f1	0.055009786
110	0x3ce5bbe3	0.028043693
111	0x3d55d957	0.052209225
112	0xbc127c77	-0.008940808
113	0xbc0269d9	-0.007959806
114	0x3c1b4ce1	0.009478779
115	0xbcf5bfb1	-0.029998632
116	0xbd80de07	-0.06292348
117	0xbde204dc	-0.11036083
118	0xbd8f560e	-0.069988355
119	0xbb910ac8	-0.004426334
120	0xbd549326	-0.051898144
121	0xbd9a9245	-0.0754743
122	0xbcb296ef	-0.021800486
123	0x3d9d798a	0.07689197
124	0xbceb4f8a	-0.02872445
125	0xbd968b91	-0.07350839
126	0xbc77e5aa	-0.01513044
127	0x3d13a5bf	0.03604674
128	0x3d5632f3	0.052294683
129	0x3d19cbb7	0.037547793
130	0x3cc29db7	0.023756845
131	0xbc35b9d5	-0.011091669
132	0xbd522465	-0.05130424
133	0x3cfeb940	0.031094193
134	0x3b37c1d6	0.002803912
135	0x3e1c70c6	0.15277395
136	0xbc7ff550	-0.015622452
137	0x3d37de1b	0.04488955
138	0xbbba5f59	-0.005687636
139	0x3cb7d685	0.022441158
140	0xbdb7b778	-0.08970541
141	0x3c773155	0.015087445
142	0xbd47bf04	-0.04876615
143	0xbbcc9ecf	-0.0062445174
144	0x3d86b8a7	0.065781884
145	0xbba796a9	-0.0051143956
146	0x3c8bda35	0.017071823
147	0x3d07eba5	0.033183713
148	0x3d4ebf2e	0.050475292
149	0x3d31fdf1	0.043455068
150	0xbd6d150a	-0.057881393
151	0xbd0a3d3b	-0.0337498
152	0x3d524ceb	0.051342886
153	0xbca83f5d	-0.020538026
154	0xbd5dc6c3	-0.054144632
155	0x3c452f93	0.012035268
156	0x3ddedbe5	0.10881785
157	0x3cf243bb	0.029573312
158	0x3d1a43b3	0.03766222
159	0x3d0e967d	0.034811486
160	0xbd8d0196	-0.06885068
161	0xba8375b9	-0.0010029591
162	0x3d27d5dc	0.040975437
163	0xbcb8eb59	-0.02257316
164	0xbbf575d1	-0.0074908515
165	0x3d5dd72f	0.054160293
166	0xbc683f63	-0.014175269
167	0x3d2c2c19	0.042034242
168	0xbb576e2b	-0.0032872062
169	0xbb145c93	-0.0022638186
170	0xbc9c2613	-0.019061124
171	0xbd3f3c78	-0.046688527
172	0xbd5ba337	-0.05362245
173	0x3d1a5bc8	0.037685186
174	0xbe2c999d	-0.16855474
175	0x3b52a26b	0.0032140266
176	0x3d661f1a	0.056182005
177	0xbdd206df	-0.10255217
178	0x3cf32883	0.029682403
179	0x3d2712e3	0.040789496
180	0x3ca832ea	0.02053209
181	0x3b2862c0	0.0025693625
182	0x3d45c6e0	0.048285365
183	0x3c226283	0.009911182
184	0xbcc0af8d	-0.02352121
185	0xbd504c44	-0.050853983
186	0xbd83db49	-0.0643831
187	0x3bf1203f	0.0073585804
188	0xbca692c0	-0.020333648
189	0xbb85ff12	-0.0040892446
190	0x3bfbd05a	0.0076847496
191	0x3cd36327	0.025804115
192	0xbd54ab25	-0.05192103
193	0x3d977ae3	0.07396486
194	0xbda3591d	-0.079759814
195	0x3d839918	0.06425685
196	0x3d616a3d	0.055032957
197	0xbce9abf5	-0.028524378
198	0xbd30de38	-0.043180674
199	0xbe08490b	-0.13309114
200	0xbdc67b44	-0.0969148
201	0xbd34352c	-0.04399602
202	0xbd2be5ad	-0.041967083
203	0x3aa91545	0.0012900016
204	0x3d53dd02	0.05172444
205	0xbc8b755a	-0.017023731
206	0x3da1c041	0.07897998
207	0xbd57a6bb	-0.05264924
208	0xbcf674fa	-0.030085076
209	0xbd99f1fb	-0.07516857
210	0xbcab4ff9	-0.020912157
211	0xbdab1596	-0.083537266
212	0xbcd6f878	-0.026241526
213	0xbcad0f8b	-0.021125576
214	0x3d78238c	0.060580775
215	0xbd07a647	-0.03311756
216	0xbc91374b	-0.017726561
217	0xbd8d347b	-0.068947755
218	0x3d1820fe	0.03714084
219	0x3d0509d5	0.03248008
220	0xbda3401c	-0.07971212
221	0x3d019286	0.031633876
222	0x3cfad6ee	0.030620065
223	0xbd9684e2	-0.07349564
224	0x3d087d3a	0.03332255
225	0xbdaa3142	-0.083101764
226	0x3c6c8cd3	0.014437872
227	0xbc34a00e	-0.011024488
228	0xbc51d98c	-0.012808215
229	0x3d53e6c2	0.05173374
230	0xbd047a29	-0.032343064
231	0xbd001ce4	-0.031277552
232	0xbc6fc676	-0.014634719
233	0x3d163b71	0.03667778
234	0xbd899f0d	-0.0671979
235	0x3d2f0a4b	0.042734426
236	0x3d355895	0.04427393
237	0x3cef82c6	0.029237162
238	0x3cc8b495	0.02450017
239	0xbd1bf908	-0.03807929
240	0x3bda8f62	0.0066699246
241	0xbdc8f601	-0.098125465
242	0xbd2181f0	-0.03943056
243	0xbd0f55a6	-0.03499379
244	0x3bd8deb9	0.0066183475
245	0xbd6bf26e	-0.057604246
246	0x3d22be7b	0.039732438
247	0xbcb460f9	-0.022018896
248	0x3d184a5f	0.0371803
249	0x3d236ca2	0.039898522
250	0xbc8b2a9a	-0.016988087
251	0x3d3faeff	0.04679775
252	0xbd974400	-0.07386017
253	0xbce8c515	-0.028414289
254	0x3d957fa4	0.07299736
255	0xbdb40ac6	-0.08791117

bias f4 [60]
0	0xbd80f7b7	-0.06297248
1	0xbd949c9d	-0.07256434
2	0x3d3e84df	0.046513434
3	0x3a9b9c5b	0.0011872159
4	0x3d8c25c7	0.06843143
5	0x3d8ec051	0.06970275
6	0x3d2f4799	0.04279289
7	0x3d5dcd80	0.05415106
8	0xbd0f71d1	-0.035020653
9	0xbcefe347	-0.029283179
10	0x3d67554f	0.05647784
11	0xbd0c64d0	-0.03427583
12	0x3d81e784	0.06342986
13	0xbcd4048d	-0.025881076
14	0x3d0882d9	0.03332791
15	0x3cf0aeaa	0.029380161
16	0x3d6741eb	0.05645935
17	0x3cb9fd91	0.022703918
18	0x3c9183eb	0.017763099
19	0xbab3486d	-0.0013678201
20	0xbc6e675e	-0.014551012
21	0xbc6bfb44	-0.014403168
22	0xbd235482	-0.039875515
23	0xb90d6330	-0.00013483758
24	0xbca5d9ae	-0.0202454
25	0x3ce59404	0.02802468
26	0x3d7fd567	0.062459376
27	0xbcadc7dd	-0.021213466
28	0xbd6eea5f	-0.058328982
29	0xbc92dfff	-0.017929075
30	0xbcaecf02	-0.021338943
31	0xba446ef8	-0.0007493342
32	0xb9e25f6c	-0.00043177174
33	0x3cf05f75	0.029342392
34	0x3c62659d	0.013818172
35	0x3c8b5826	0.017009806
36	0xbcc44f43	-0.023963576
37	0x3c536a31	0.012903736
38	0x3d07bf80	0.033141613
39	0x3ccca3c0	0.024980426
40	0x3c2608f2	0.010133969
41	0xbd9e6557	-0.07734173
42	0x3d1baaf8	0.038004845
43	0xbc58fce6	-0.013243889
44	0xbd74b9eb	-0.059747618
45	0x3b5a1092	0.0033274037
46	0xbc73d454	-0.014882166
47	0xbd441cb8	-0.04787895
48	0x3c96335d	0.018335039
49	0x3bcc9e1d	0.0062444345
50	0x3d7e3017	0.06205758
51	0x3cff6e03	0.031180387
52	0xba2a92bc	-0.00065068505
53	0xba961cd3	-0.0011452682
54	0x3dac2060	0.084046125
55	0x3c4a943a	0.0123644415
56	0x3da629c9	0.08113439
57	0xbd0d4881	-0.034492973
58	0x3c3f583c	0.011678752
59	0xbcdcb672	-0.026942465
