data/example_dynamics_data/kitchen_MLP_qhat_both.pth (torch, 664463 bytes, 8 tensors)

weight f4 [256, 70]
000000 b6 51 98 3e e4 96 e6 3d 71 49 35 bd 96 ab 63 3c
       0.2974984 0.11259249 -0.044259492 0.01389589
000010 9f ff 2b 3e 72 f2 64 be 1b 0c c7 bc f4 9d 9a bd
       0.1679673 -0.2235811 -0.024297765 -0.075496584
000020 ff 24 c4 3e 0b e3 5d be 80 6a 06 3f 36 3e d7 bd
       0.38309476 -0.21668641 0.52506256 -0.10509913
000030 52 f7 b2 bd 66 0a 38 bc b3 a6 9e bf 78 72 62 3d
       -0.08738579 -0.011232948 -1.2394623 0.055284947
000040 bf 9e ef 3d 35 ad c4 3c 87 8b a8 be 58 dd 53 3e
       0.117002 0.024008373 -0.3291895 0.20689905
000050 ca 3a 60 3e 8f c2 41 be a6 2b 96 3e fb c4 5f 3d
       0.21897426 -0.18921874 0.29330176 0.054631215
000060 3c c6 35 3d 12 94 fe bd ab 7d 0e 3b 6c 3d db 3d
       0.044378504 -0.12430586 0.0021742384 0.10705075
000070 91 51 d4 be 3f 46 d4 bc 77 82 af 3c 75 18 d9 bb
       -0.4146848 -0.025912402 0.021424515 -0.00662523
000080 88 75 ed bd c2 43 bc 3d 2f 91 b7 3d 26 6c 52 bd
       -0.11594683 0.09192611 0.089632384 -0.05137267
000090 43 e4 6d 3d 64 fd 50 3d e9 88 76 3c b1 15 c7 3d
       0.058079015 0.051022902 0.01504729 0.09720934
0000a0 a6 44 a9 bd dd 05 97 bd 34 f3 01 3e e2 5a 46 3d
       -0.08265047 -0.07374165 0.12690431 0.048426516
0000b0 e2 dd 50 bd 4e 48 61 3d ec 89 d4 3d f5 6a 09 3e
       -0.050992854 0.055000596 0.10377869 0.13419707
0000c0 e9 be 9d bd 01 ed 1b bd 10 3a d8 3d d4 7f ee 3d
       -0.07702429 -0.03806782 0.105579495 0.11645475
0000d0 4b 88 ac bd d8 bf 81 bd c9 03 a1 bc 05 71 22 3d
       -0.08424433 -0.063354194 -0.019655125 0.039658565
0000e0 19 b5 b2 bc 32 b4 ca 3c db e6 22 bd 20 94 18 bd
       -0.02181487 0.024744127 -0.039770942 -0.037250638
0000f0 62 93 3d bc 39 81 aa bb 20 f8 35 bd f1 73 be bd
       -0.011570783 -0.005203393 -0.044426084 -0.09299458
000100 67 70 96 bc 2c 50 db 3d 94 6e b7 bd 1d 02 0c 3d
       -0.018364144 0.10708651 -0.08956638 0.034181703
000110 ae be 44 bc eb 51 25 bd 4d 15 cc 3d a5 1b eb 3d
       -0.012008352 -0.040361326 0.09965 0.11479882
000120 fb 6d 50 3d 3b 20 11 3c 4b 26 f4 3d 54 cd ff 3b
       0.050886136 0.008857782 0.11921366 0.0078064594
000130 a6 5b 26 3e 42 3e 8a be f0 bc 29 bf e2 56 a9 bf
       0.16245899 -0.27000624 -0.6630392 -1.322964
000140 f7 f6 00 40 44 ef fd bc 8d 4c 37 be a2 45 3e 3f
       2.0150735 -0.03099788 -0.17900296 0.74325
000150 e0 62 39 3f 3c d3 1f 3e 59 71 7a 3d d9 c0 83 3f
       0.72416496 0.15607923 0.061143253 1.0293227
000160 d4 32 84 3f 33 a0 a1 bf dd 27 bd 3e 5d c3 fb 3e
       1.0328012 -1.2627014 0.36944476 0.49172488
000170 c6 80 c4 3c 1d 97 b4 bd 96 21 fd bc 2f ff df bd
       0.023987185 -0.08817885 -0.030899804 -0.10937344
000180 54 04 99 3c e7 46 ba bf 65 c9 a5 bb dc 40 37 bc
       0.018678822 -1.4552888 -0.0050594085 -0.011184897
000190 86 ef d2 3d b7 79 dd 3d 6b 62 b8 bc de 67 06 bd
       0.10299592 0.10814231 -0.022507867 -0.0328139
0001a0 d1 25 89 3d 5d 6c ab 3d b9 6f 8a bb 2d f9 28 bc
       0.06696666 0.08370278 -0.004224744 -0.010313314
0001b0 7b e6 90 3d 0a fd 3e 3d dd 03 dc 3d b6 25 f0 3d
       0.07075211 0.046628036 0.10742924 0.11725943
0001c0 f0 27 fa 3c 18 84 38 bd 6e af af 3d e1 42 c7 3d
       0.030536622 -0.04504785 0.085783824 0.09729553
0001d0 f8 99 88 bd 0d 99 d1 bd 54 88 c3 bc 87 43 87 bd
       -0.06669992 -0.1023427 -0.023868717 -0.06604677
0001e0 6b b5 95 3d b7 9f 1f 3d 4c 9f c2 bd 24 8d 9b 3d
       0.07309993 0.038970675 -0.0950304 0.0759528
0001f0 fe 97 8a bd 70 b5 c9 3d 0d 36 f5 bd 2f 0f 8e bd
       -0.067672715 0.098490596 -0.119732 -0.0693649
000200 31 92 27 b9 ee e9 f6 3d fd 96 e3 bb df e8 c5 3c
       -0.00015980822 0.12056337 -0.0069454894 0.024158893
000210 f2 4b ca 3d 08 7d f2 bd 41 de 4c 3d 08 8d a1 bd
       0.09877767 -0.11840254 0.050016645 -0.07888228
000220 d3 9e 57 bd c4 12 52 bd 6c 09 af 3c f3 ec 63 3e
       -0.0526417 -0.051287428 0.021366797 0.22258358
000230 69 f6 bf 3d a3 68 4f 3d 07 91 f3 3c 50 69 14 bd
       0.09373171 0.0506369 0.02973224 -0.036233246
000240 c0 b2 70 3e 5d aa 57 be 7a 93 98 3d 54 ad 9f 3e
       0.23505688 -0.21061082 0.07450004 0.31186926
000250 f5 7d 8b 3e 0e 73 22 3d 58 fa 6b 3e a7 0b 8b bd
       0.27244535 0.039660506 0.23044717 -0.06789332
000260 bf 85 95 3d 92 2c 31 3f 05 bc 91 be ef 75 91 3e
       0.07300901 0.69208634 -0.2846376 0.2841029
000270 e6 71 5b 3e 1c 42 16 be af 54 1b be 2f 64 93 3e
       0.21430168 -0.14673656 -0.15169023 0.28787372
000280 4e 34 2d 3e 42 c1 f4 bd df 9f 65 3e a4 34 7e 3d
       0.16914484 -0.119509235 0.22424267 0.06206192
000290 a7 cf 24 be 63 91 db 3d 0a 00 6f 3d 2c 8a 5a 3e
       -0.16094838 0.1072109 0.058349647 0.21341771
0002a0 66 bb 93 be 8c 7e 13 be 99 a4 ec bd 87 11 a4 bb
       -0.2885391 -0.14403743 -0.11554832 -0.0050069722
0002b0 cf 33 ba 3c fd a8 b1 3c 83 69 d5 bd 6e 71 37 3c
       0.022729782 0.021687025 -0.104205154 0.011196477
0002c0 75 b9 6e bd 0e 1f eb bc f5 3a e3 3d 4a 06 7b bd
       -0.058282334 -0.028701331 0.110952295 -0.061285295
0002d0 16 d5 ac bd 81 81 53 bd 81 92 72 bd ec f1 96 3d
       -0.084390804 -0.051637176 -0.05922175 0.07370362
0002e0 16 1d 9f 3d 7a 82 cd 3d 57 bc 83 3d 9e 6f 4c 3d
       0.077692196 0.10034652 0.06432407 0.049911134
0002f0 97 45 16 bc c5 fc cd bb 84 3b ed bd 2c 75 57 bc
       -0.009171865 -0.006286236 -0.11583617 -0.013150495
000300 e5 bb 84 bd 4c d8 31 3d c2 26 b0 bc ae e3 d7 bc
       -0.064811505 0.043419167 -0.021502856 -0.026353683
000310 c3 85 d9 3d 80 48 da 3d 02 2c e5 3d ba d8 bf 3d
       0.10621216 0.106583595 0.111900344 0.09367509
000320 da de da 3b 05 ef 1d bd b0 30 e4 3d d0 79 a1 3d
       0.006679398 -0.038558025 0.11142099 0.07884562
000330 f7 50 8d 3d 93 50 a4 3d 43 3a 8e bc 17 9d bd 3d
       0.069002084 0.08023181 -0.017361766 0.09258478
000340 d4 62 30 bc d3 24 87 3c 1b 0b 9c be e5 14 76 3e
       -0.01076575 0.016497051 -0.30477223 0.24031408
000350 26 ac 0f 3e 44 07 7a 3d 9d 0f ec 3d 79 7b 05 bc
       0.14030513 0.061042085 0.115264155 -0.008147114
000360 74 42 7d bd 6a 14 a8 3e 1f f9 04 bf c6 e0 22 bf
       -0.061830953 0.32828075 -0.5194263 -0.6362423
000370 cc f5 1b be 54 f5 02 be 58 fb 82 bd cc 23 8d be
       -0.15230483 -0.12788898 -0.06395596 -0.27566373
000380 6d f0 85 bf 25 f3 7c 3c 86 b6 65 bd a5 68 34 bc
       -1.0463997 0.01543883 -0.05608227 -0.011011277
000390 f7 c0 90 bd fe cb 73 3f 3b cc a9 bd 0e be 04 3d
       -0.07068055 0.9523314 -0.08290907 0.032407813
0003a0 08 60 a1 bd 68 4e 15 3e b4 2e 63 3d 8d 63 9b 3d
       -0.07879645 0.14580691 0.05546446 0.07587347
0003b0 0f 6d 93 bd 44 ee 9f bf ef a5 58 3f ff 1f dd 3c
       -0.07198536 -1.2494588 0.84628195 0.026992796
0003c0 32 04 da 3d 11 c3 1a bd ef e3 b3 3d e6 ba df 3d
       0.106453314 -0.037783686 0.08783709 0.1092432
0003d0 80 c7 b9 bd ad 51 eb 3b 2e 69 f4 bd c1 94 a8 bd
       -0.09071255 0.0071813674 -0.11934124 -0.082314976
0003e0 b0 ec 37 3d 18 64 08 bd 00 2b f4 bd 02 10 29 3c
       0.044903457 -0.03329858 -0.11922264 0.010318758
0003f0 85 d8 5c 3d 6e 7d 42 bd 9d c2 97 bd 57 88 f4 bb
       0.053917427 -0.0474829 -0.074101664 -0.007462542

bias f4 [256]
000000 4d 50 ba bd f2 1d d2 3c 0b 3c c1 3d 86 ec 86 bd
       -0.090973474 0.025649045 0.094352804 -0.06588082
000010 da a5 c4 3d e6 11 2a 3d 1f 2a ba 3d 22 11 55 3d
       0.09601946 0.041520976 0.09090065 0.052018292
000020 5e 3d b8 bd 92 97 d8 bd 4a 93 48 3d c9 a1 32 3d
       -0.0899608 -0.10575785 0.04896859 0.04361132
000030 c8 f4 1f be 53 7f 32 3d 01 1b b3 bd fb 01 d0 bc
       -0.1562072 0.043578457 -0.08745385 -0.02539157
000040 99 dc 97 3d 2e 60 22 be 04 49 1a bc b4 af 55 3e
       0.074151225 -0.15857002 -0.009416822 0.20867807
000050 4c ae d5 3d 4f e0 03 3d 69 6a 48 be 34 f0 fe bd
       0.10433635 0.03219634 -0.19571842 -0.12448159
000060 13 4c e2 bd fa eb 04 bd db df c0 3d 74 59 2d bd
       -0.11049666 -0.032451607 0.09417697 -0.042321637
000070 24 cc ca bc 08 36 20 be 2e c3 35 3d d5 f3 6c bd
       -0.024755545 -0.15645611 0.04437559 -0.057849724
000080 5a 13 d2 3c 7f 9a d2 bd 19 98 0e 3d 88 4c 92 bd
       0.025643993 -0.10283374 0.03481302 -0.071435034
000090 ba ff 9f 3d e1 15 9d 3d ce bc 10 bd a5 70 90 3d
       0.07812448 0.07670189 -0.03533631 0.07052735
0000a0 34 07 02 bd 93 1e 26 be e9 a2 0c be c7 ad 0d 3e
       -0.03174515 -0.162226 -0.1373402 0.13835822
0000b0 13 e6 c9 3d 10 d7 10 be 4b 37 18 bd 41 12 f2 3d
       0.09858336 -0.1414454 -0.037162106 0.11819888
0000c0 35 ab 0f 3d d6 d3 bc bc 13 cb c1 bd 02 6f 62 3d
       0.035075385 -0.02305023 -0.094625615 0.055281647
0000d0 37 ce b2 bd eb bf 83 bd e3 06 f8 bb 2a b8 b9 bc
       -0.087307386 -0.0643309 -0.0075691803 -0.022670824
0000e0 73 3c bb 3c df e4 1a 3c 58 b9 d7 bd 9e 5d e4 3d
       0.022855973 0.009453981 -0.105333984 0.111506686
0000f0 39 ea 99 bc fd d9 94 3c ec 25 35 bd b3 d2 98 3d
       -0.018788444 0.018170351 -0.04422562 0.07462063
000100 d1 0d 92 bd 4a bf 2b bd 33 32 83 bc 28 50 0c bd
       -0.071315415 -0.041930474 -0.016015148 -0.03425613
000110 4f 6a ac bd 3b ee 7b 3d 82 16 ba 3c ae 0b ea bd
       -0.08418714 0.06150649 0.02271581 -0.11428009
000120 83 3c 61 3a 30 ae 57 bd 8a 96 4f be 8b a9 e0 3d
       0.0008592086 -0.052656353 -0.2027227 0.10969838
000130 13 19 83 3d 9b ce ec bd d0 97 a2 bd c8 55 aa bd
       0.06401267 -0.11562844 -0.07939112 -0.08317143
000140 d4 4a 58 bd ce 44 4b bd de 4e a2 3d 3e c5 7a 3d
       -0.052805737 -0.049626164 0.07925199 0.06122326
000150 89 da ae 3d 92 74 9c 3b 5e d7 a0 bd b6 e7 81 3d
       0.08537776 0.0047746385 -0.07853578 0.063430235
000160 31 ee 17 bd d5 b6 d4 3d 8b d9 45 be c1 20 4a 3d
       -0.03709239 0.10386435 -0.19321267 0.049347643
000170 ee 01 39 be b3 b7 0a bd 4c af d7 3c f3 37 5d 3d
       -0.18067142 -0.033866595 0.026328705 0.054008435
000180 e2 2a 8d bd bd c0 2e 3d 7d 1b fe 3d ae 02 5d be
       -0.06892945 0.04266428 0.12407587 -0.21583053
000190 6c e3 3c 3e 1e 5a a1 3c 02 cb c0 3d 47 79 62 3d
       0.1844613 0.019696292 0.09413721 0.05529144
0001a0 99 47 7b bb 4f eb 1a 3d ec 4a e9 bc fe 78 d7 bd
       -0.0038342236 0.037822064 -0.028478108 -0.10521124
0001b0 fe 0a fa 3d 48 07 64 3d 4b 7d 65 3d 03 0c be bc
       0.12209128 0.055671006 0.05602769 -0.023199087
0001c0 d8 15 b5 3d a1 46 22 3d 32 13 01 3e a4 28 15 3d
       0.08842057 0.03961814 0.12604979 0.03641571
0001d0 1a 0b 88 bd 1b 11 07 be 7c 07 ad 3b 5a a4 ac 3b
       -0.066427425 -0.13190119 0.005280433 0.0052686157
0001e0 7a 6c 53 3d 2b ae cb 3d ea 9c 22 3d 5b e6 55 3d
       0.051617123 0.09945329 0.039700426 0.052221637
0001f0 16 f6 a5 3d 34 ac 2c bb 00 42 f2 3d e7 22 be bd
       0.08103578 -0.0026347758 0.11828995 -0.09284001
000200 21 de 0a 3d bf ac 1b be 9a e4 02 3c 91 a6 8e 3d
       0.033903245 -0.15202616 0.007989073 0.06965364
000210 d6 53 0f 3e fd bb 1e 3e 31 cd 33 bd 63 4f ef bc
       0.13996825 0.155014 -0.043896858 -0.02921266
000220 87 da 1a bc 7b 31 e8 bd 59 4d 8e bc 95 30 cb bc
       -0.009451515 -0.11337563 -0.017370867 -0.02480344
000230 ea bb ac bb 0b 92 3f bb 95 46 26 be 64 da 77 bd
       -0.0052714245 -0.0029231336 -0.16237862 -0.060511008
000240 8b e8 d7 3d c6 8c c2 3b 83 2f 9b bd 3b ac d9 bd
       0.10542401 0.0059371917 -0.075774215 -0.106285535
000250 cc d1 0f 3e 13 66 0c 3e 00 b5 e0 ba bc cc cf ba
       0.14044875 0.13710813 -0.0017143786 -0.0015853862
000260 dc f2 1b bd 8f 12 54 be 0a da ba 3d aa 8c 96 be
       -0.038073406 -0.20710205 0.09123619 -0.29404193
000270 46 71 5f 3d ca 77 0a ba d9 cb a4 3d 48 b0 44 bc
       0.054551385 -0.0005282132 0.08046693 -0.012004919
000280 4e df 7f 3d 3f 1b 66 bd 39 c6 a9 bd 4c a7 3d 3d
       0.06246882 -0.056178328 -0.08289761 0.046302125
000290 6b c6 f1 bc 01 2b 4b 3a 9a 75 12 3d d7 fb 3d 3b
       -0.029513558 0.00077502435 0.035756685 0.002898922
0002a0 aa 37 81 bb 39 49 da bd 15 c5 a5 3d 3f a6 b7 bc
       -0.0039434033 -0.10658497 0.08094231 -0.02241814
0002b0 bb c6 fd bd eb f4 1a 3e 4c b6 8f 3c 8c 06 f7 3d
       -0.123914205 0.15132491 0.01754298 0.120617956
0002c0 7c 3a ca 3d f4 68 8e bd 32 d6 95 3d ab 87 dc bd
       0.09874436 -0.06953612 0.07316245 -0.10768064
0002d0 6a ae df bd 98 77 06 bd 70 cc ee 3d 6f f1 39 bd
       -0.10921939 -0.032828897 0.11660087 -0.045396265
0002e0 5f 33 2b 3d 3e af 99 3d 92 ac 4d 3e 39 de 88 3c
       0.04179704 0.07504128 0.20085362 0.016707527
0002f0 c6 1c 65 be 50 ce 9d bd 3d 75 03 bd 3b 4c 26 3d
       -0.22374257 -0.077053666 -0.03209423 0.040600043
000300 35 92 a4 bd 4c 36 12 3e 49 9f 49 3d aa ef 01 be
       -0.08035699 0.14278525 0.04922417 -0.12689081
000310 a6 82 1b 3d a5 89 92 3c 86 0c 12 be cd b9 ec bd
       0.037966393 0.0178879 -0.1426259 -0.11558876
000320 3e fe 1c bc a8 84 28 bd f6 69 06 bd 3e 42 8f 3c
       -0.0095821 -0.041142136 -0.032815896 0.017487641
000330 0a ed 38 bd ab 0b 8b bc 5d cd 8d 3c 34 34 b6 bd
       -0.045147933 -0.016973337 0.017309839 -0.08896676
000340 0f 6a 86 bd 09 26 17 be d2 36 c3 bc bf c8 0f be
       -0.06563198 -0.14760603 -0.023829851 -0.14041422
000350 c9 56 d2 bd 72 5d 84 bd e5 29 e1 3d 46 52 47 3d
       -0.10270459 -0.06463136 0.10994319 0.048662446
000360 ac 10 dc bd 0c f9 ff 3b a7 80 93 bc 2a 78 13 3e
       -0.107453674 0.007811671 -0.018005682 0.14401308
000370 e0 99 01 3e 5b d0 76 bb 1c b6 67 3d d0 26 7b 3d
       0.12656355 -0.003766081 0.056570157 0.06131631
000380 53 f1 c3 bd 3b 43 90 3d 2b 3a 10 3e a3 d6 5a 3d
       -0.09567513 0.07044073 0.1408469 0.05342735
000390 ac 3b cf 3d 9e 2e a7 3a f6 78 68 3d d0 40 90 bd
       0.101188034 0.0012754982 0.056755982 -0.07043612
0003a0 e4 8d ab bc 86 c9 18 bd d6 72 ba 3d 46 84 1c bd
       -0.020941682 -0.037301563 0.091039345 -0.038212083
0003b0 d0 0a 42 bd 7a 96 17 be 5f 23 8c bd 88 f1 69 3d
       -0.047373593 -0.14803496 -0.06842684 0.057115108
0003c0 57 2b 02 bd e5 da 6d bd 50 15 04 3c dc e7 c2 bd
       -0.031779613 -0.058070082 0.008061722 -0.0951688
0003d0 c9 64 a6 bd fe 0e 30 3e a1 3f 1d bd b7 61 9c 3d
       -0.08124692 0.17193219 -0.03839076 0.07635825
0003e0 45 f8 20 be 0e d9 6d 3e e6 b5 9e 3e 71 7e 02 3e
       -0.15719707 0.23227331 0.30998152 0.12743546
0003f0 27 c7 af 3d cc 74 9e bc 9e 5d 97 3d 53 b2 15 3a
       0.08582907 -0.019342802 0.07390903 0.00057104713

weight f4 [256, 256]
000000 87 1a cd bb e3 c3 d4 3c 9d d1 1b be 5b f4 32 3e
       -0.006259266 0.025972312 -0.1521668 0.17476027
000010 a2 f4 32 bd 16 74 78 bd 05 73 77 bd f6 fb a0 3d
       -0.04369033 -0.060657583 -0.060412426 0.07860558
000020 c0 c8 68 bd 7f a5 4c bd 0a c9 11 3c e1 38 b3 3d
       -0.056832075 -0.049962517 0.008898029 0.08751083
000030 3d c0 bb bd 40 62 10 be b8 d6 18 3c 55 5c c9 3c
       -0.09167526 -0.1409998 0.009328537 0.02458016
000040 ce f2 9c bd cd dd 3c 3c 74 96 b3 3d 29 27 c4 3d
       -0.07663499 0.011527491 0.08768931 0.09577782
000050 4a d3 da bd 72 2a 4d 3d 2c f8 0a 3e 5e 46 2e bc
       -0.106848314 0.050089307 0.13571233 -0.010636894
000060 91 b5 d0 bc db 01 41 3e 74 0a b4 3d b0 6c 49 3d
       -0.025477203 0.18848364 0.08791056 0.049175918
000070 5c 98 98 bd d5 d0 55 bd 28 80 61 bd eb b0 88 bd
       -0.07450935 -0.05220111 -0.05505386 -0.066743694
000080 69 7d 02 3e c1 42 35 bc d8 35 0b bf 0b 98 8b be
       0.12743153 -0.011063279 -0.54379034 -0.27264437
000090 f5 5f 3c bd 0c d0 72 3d ab ef 07 3e 9d b1 04 3e
       -0.04598995 0.05928044 0.1327502 0.12958379
0000a0 fe 67 18 be 97 a9 9d 3d 10 35 42 3d f0 81 b3 be
       -0.1488342 0.07698362 0.047413886 -0.35060072
0000b0 a4 45 36 be a1 be 77 bd 41 29 ac bd 18 cd 01 3d
       -0.17800003 -0.060484532 -0.08406306 0.031689733
0000c0 51 d2 ee bd 14 3d f0 3b 5d 1f 72 3c a3 e1 bd 3d
       -0.116612084 0.0073315 0.014777985 0.092715524
0000d0 3e 87 83 be 6f 8f 59 3d d9 72 ab bc dc 65 12 be
       -0.2568912 0.053115305 -0.020928787 -0.14296669
0000e0 f4 a6 23 3c ca e8 9c 3d dc 54 a8 bd 32 95 78 bd
       0.009988535 0.076615885 -0.08219311 -0.06068916
0000f0 23 c4 84 bc 5e e8 f9 bd 55 03 00 3d 4a 4d 04 3d
       -0.016206807 -0.12202524 0.031253178 0.03230027
000100 08 d2 2c 3d 46 33 4e 3e 52 47 a8 bc 6b a6 cd 3d
       0.04219249 0.20136747 -0.02054182 0.10041507
000110 31 43 24 3c 5d 3f 21 bb 90 c3 62 bc 11 87 fa 3d
       0.010025785 -0.0024604418 -0.013840571 0.12232793
000120 d7 7f 83 be ba 3f ea 3d 73 25 d3 be 57 94 8a 3c
       -0.25683472 0.11437936 -0.4123951 0.016916437
000130 81 aa 41 bd 49 eb bd 3c 10 18 f4 3b 22 ef 36 be
       -0.047281746 0.023183482 0.0074491575 -0.1786466
000140 30 04 bf bd 6f 75 8b 3d 43 1f ff 3d 07 1e 57 3d
       -0.093269706 0.06809508 0.124571346 0.05251887
000150 46 e5 d3 3c 9a 17 b5 be ea fd 07 bd 6d b2 a0 3d
       0.025866162 -0.3536957 -0.033201136 0.07846532
000160 1f 33 0f 3d 4f e1 60 3d fe 58 0c bd f9 0a 4d bf
       0.034960862 0.05490237 -0.034264557 -0.8009487
000170 99 df 95 3c 49 1a d0 bc d0 de 98 3c 83 57 de bd
       0.018295096 -0.025403159 0.018660933 -0.10856535
000180 90 90 05 be 62 d2 6f 3c 48 f8 82 bc 40 99 9c bc
       -0.13043427 0.0146375615 -0.01598753 -0.019116044
000190 76 6f 37 be 28 83 0d 3e 3a 85 77 bd c7 d6 9b 3e
       -0.17913613 0.13819563 -0.06042979 0.304373
0001a0 6f a4 b5 bd 70 69 a3 bb 23 28 a9 3d 1b b5 3a 3e
       -0.08869254 -0.0049869344 0.082596086 0.18233149
0001b0 a1 f4 aa bd 3e 5a 2c 3d ce 38 87 be 2a ec 04 be
       -0.083474405 0.04207825 -0.26410526 -0.12980714
0001c0 c3 75 13 3e c2 3b 53 3e e7 63 65 bd 36 c0 07 bd
       0.14400391 0.20628265 -0.056003477 -0.03314229
0001d0 2f cd aa 3d eb ee d0 bd bf 82 d4 bc 09 53 f5 be
       0.08339917 -0.1020182 -0.02594125 -0.47914913
0001e0 43 eb b3 bd 9c 1a 5b 3d 90 f3 f7 bd b9 df 8a bd
       -0.08785107 0.053492174 -0.12107003 -0.06780953
0001f0 15 d3 80 3c 89 1c a1 bd 7a a1 5b be 00 47 19 3e
       0.015725652 -0.07866771 -0.21448317 0.1496849
000200 4a cf 54 3d 71 1f 24 3c 75 05 9c 3b ca 5b 87 bb
       0.0519555 0.010017262 0.0047613927 -0.004130815
000210 0f 7c 45 bd 82 9e 09 bd 1c 79 ef bd 41 9c 7d be
       -0.048214015 -0.03359843 -0.11693022 -0.24766637
000220 0a 6f cb 3d 1d e7 52 3e 59 bb 78 bb 39 ac 3b be
       0.099332884 0.20595975 -0.0037953465 -0.18327416
000230 dc 12 57 3c f9 93 9d bc 5b f8 09 3d b9 29 0a 3d
       0.013127055 -0.019235598 0.033684116 0.033731196
000240 d9 fe 28 bb 63 e2 c2 bd 90 7c 1c be cb e9 66 3c
       -0.0025786667 -0.09515836 -0.15281892 0.0140938265
000250 dc f1 9b be a6 26 53 3d 25 f3 1b bc 42 eb 63 3d
       -0.30457962 0.05155053 -0.009518419 0.05564428
000260 78 33 55 3d af bf 58 bd 20 3a a7 3d 67 af 37 bd
       0.052051038 -0.05291718 0.08165383 -0.04484501
000270 66 af 18 bd 56 1c e0 3d 17 9f 25 be 92 a8 1c be
       -0.037276648 0.10942905 -0.16173969 -0.1529868
000280 ad dd 42 3c f3 fd 20 bd aa 5b 24 3d c6 0d 5f bd
       0.011893672 -0.039304685 0.04012648 -0.054456495
000290 c5 a8 3e bd 06 33 be 3d 92 e3 46 bd 46 e6 09 be
       -0.04654767 0.09287076 -0.04855687 -0.13466749
0002a0 8f b4 25 be 80 19 41 3d 33 ba 14 bc c5 5d 7c 3d
       -0.16182159 0.04714346 -0.0090775965 0.061612863
0002b0 09 e0 9f bd fb 71 e3 3d fa b9 e3 3c 3f cf a4 be
       -0.07806403 0.111057244 0.027798641 -0.32189366
0002c0 a0 a3 21 bb 43 f9 c2 3c 0e 0c 15 bd cb 93 99 3b
       -0.0024664178 0.023800498 -0.03638845 0.0046868077
0002d0 eb a9 e0 bd 0b 23 7e 3c 8b 46 3c bd 50 a8 e1 bd
       -0.10969909 0.015511285 -0.045965713 -0.11018431
0002e0 a8 c5 d7 bd cf 82 a4 bc 37 e7 dd bd 97 ee 9d bd
       -0.10535747 -0.020081906 -0.10835116 -0.07711523
0002f0 3d 9d 10 be 9a ac 2d 3b dd d4 f2 bd 92 5b 9c 3c
       -0.14122482 0.0026500584 -0.11857007 0.019086633
000300 8d a6 02 3e 4f 07 96 3a 8b ac 49 3d 6b 2c cd bd
       0.12758847 0.001144627 0.049236815 -0.10018238
000310 22 b8 cb 3c 76 18 a7 bd 31 17 68 3d be 90 de bd
       0.024868075 -0.081589624 0.056662742 -0.10867451
000320 38 00 b2 bd 09 1d e4 bd 68 ed 39 3e 3a df 48 bc
       -0.08691448 -0.111383505 0.1815697 -0.012260253
000330 f2 49 28 3d e9 6b 98 3d bb 4e 33 3b ad 54 ce bc
       0.041086145 0.07442457 0.002736016 -0.025186861
000340 7e 35 a6 3c 94 5f ae 3d 91 07 a7 bc c4 5d 6e be
       0.020289179 0.08514324 -0.02038935 -0.23277956
000350 ce 0a 53 bc ba cd a3 bb 40 ea d4 bd 01 97 7b 3d
       -0.012880994 -0.0049988898 -0.10396242 0.061423305
000360 e3 fa 29 3d 1b ae 3d bd dd 1e db 3d 11 f9 06 bd
       0.04149903 -0.046308618 0.10699246 -0.032952372
000370 b2 fc 91 3c 18 c5 00 3e 31 b1 21 3e e5 74 9b bd
       0.01782069 0.12575185 0.1579025 -0.07590655
000380 1c ad 44 3e f3 6b ca bd b5 99 2a bc 85 37 a3 bd
       0.19206661 -0.09883871 -0.010412623 -0.07969574
000390 1c ed 02 3e 36 83 79 3c 12 83 0f bd 77 c9 93 3e
       0.12785763 0.015229037 -0.035037108 0.28864643
0003a0 49 f4 43 bd fd 46 9e bd 2f 81 f7 bd 29 6c 63 bd
       -0.04784039 -0.07728384 -0.12085187 -0.05552307
0003b0 82 91 cf bc 02 6e 77 bc 1b 6d be bd ab 83 3c be
       -0.025337938 -0.0151019115 -0.09298154 -0.18409602
0003c0 e1 78 c1 3d 9c 5d 48 be 3e 35 96 3d c9 8f 40 3e
       0.09446884 -0.19566959 0.07334374 0.1880485
0003d0 f6 42 f5 bc 30 69 95 bc 32 a2 b5 bd 81 26 80 bd
       -0.029939156 -0.018238634 -0.08868827 -0.06257344
0003e0 ef 07 bb bd c7 dd 9e bd 3b cc a8 bd 26 f6 36 3d
       -0.091323726 -0.077571444 -0.08242079 0.04466834
0003f0 c4 9c b2 3c 98 4c 11 be a9 79 db 3d a9 3c 18 bc
       0.021803267 -0.14189374 0.10716564 -0.009291806

bias f4 [256]
000000 2e 7d 96 3c 24 49 4d 3d 63 d6 66 bd ac 67 dd 3b
       0.018370237 0.05011858 -0.0563568 0.0067567434
000010 3b c3 5c bc 4e 64 b2 3d c2 99 87 3d 4d 90 44 bd
       -0.013474281 0.08710538 0.06621124 -0.04798918
000020 dc 81 7c 3d e2 72 a2 3d 52 85 2b bd 30 1e 27 be
       0.06164728 0.079320684 -0.04187519 -0.1632011
000030 77 df 30 bd 26 6e f3 3d 00 ec d4 3d 50 74 23 be
       -0.043181863 0.118862435 0.10396576 -0.15962338
000040 aa 1e 8e 3d 7c 86 3e bd 7a a4 09 3d 6f 7e a7 3d
       0.069394425 -0.046514973 0.033604123 0.08178412
000050 05 53 8d 3b 2c 4b 4f 3d 68 e5 90 3d d7 9b 60 3d
       0.004312875 0.0506088 0.07075006 0.05483612
000060 db 4a 25 3d a9 cf 3f bd 9e 66 e4 3d 02 a7 00 3c
       0.04035459 -0.0468289 0.11152385 0.007852318
000070 42 9a 39 3d 0d a0 65 3d 91 b7 2e 3d fa ec 7e bd
       0.045313127 0.05606084 0.04265553 -0.062237717
000080 f0 f1 27 3d 1e 6a df 3d 89 5d 57 ba f8 be 01 bd
       0.041002214 0.10908912 -0.0008215537 -0.031676263
000090 37 71 19 3e 7f 60 0e 3e b5 da 5b 3d 87 62 1a bd
       0.14984594 0.13903998 0.053675372 -0.03769162
0000a0 84 e6 d3 3d 5c cd 95 bd 60 bb a5 3c 9e 4e d7 3d
       0.10346702 -0.0731456 0.020230949 0.10513042
0000b0 87 77 9a 3d 5d 6e 3d 3d fa e8 e7 3d b8 c0 36 3e
       0.07542329 0.04624783 0.11323734 0.17846954
0000c0 a5 77 f6 3c de a2 b5 3d f5 ca 10 3e 47 8d 4f bc
       0.030086348 0.08868955 0.14139922 -0.0126679605
0000d0 e3 37 1c 3e 9f a6 c7 3d 02 2e c9 3d e2 a8 85 3d
       0.15255694 0.09748577 0.098232284 0.065263525
0000e0 51 19 24 3e ca 4b bc bd 2f 37 bc 3d ff da 4c 3c
       0.16025282 -0.09194143 0.09190213 0.012503385
0000f0 c1 d0 5f 3d ae 7d 60 3d 40 21 6d 3d 1e f0 c3 bc
       0.054642443 0.054807357 0.057893038 -0.023918208
000100 44 fa ca 3c d5 cc 96 bd 34 73 bc bd e8 f6 d9 bc
       0.02477754 -0.07363287 -0.09201661 -0.026606992
000110 be fd b8 bd fd 96 cc 3d 9c 12 11 3e e1 59 99 bd
       -0.090327725 0.09989736 0.14167255 -0.07487846
000120 3d a3 d3 bd 5b 16 3f bd 38 03 41 bb f9 0c d4 bc
       -0.103338696 -0.04665218 -0.0029451381 -0.025885092
000130 1c eb 8d bd ad 5c 66 3d 58 cf 25 bc 84 a8 de 3d
       -0.06929609 0.056240726 -0.010120235 0.108719856
000140 c7 f9 b9 bc 37 47 ba bd 62 58 fe 3c 68 7f 9e 3c
       -0.02270211 -0.090956144 0.031048004 0.019347861
000150 8f 68 08 3d 66 5a 88 bc b1 d8 fc 3d 04 99 84 3d
       0.03330284 -0.016644668 0.12346018 0.06474498
000160 88 24 c8 3b 65 6c 0c be f2 8b 27 bd 3b 28 9a 3d
       0.0061078705 -0.13713224 -0.040904947 0.075272046
000170 58 6b c5 bc 9a 72 08 3d 3c dd d4 bb a5 6c 96 3d
       -0.024099037 0.033312418 -0.0064960998 0.07344941
000180 e7 c9 05 3e 08 23 82 3a e5 99 c9 3b 93 d0 88 bb
       0.13065301 0.0009928653 0.006152379 -0.0041752546
000190 3c ab 12 3e f7 4d 01 3e b6 58 fd bc ed 23 0e 3c
       0.14323133 0.12627397 -0.03092609 0.008675558
0001a0 3b 59 93 bd 88 d3 93 3d 5b eb 95 3d 14 90 b2 bc
       -0.07194754 0.07218081 0.07320281 -0.021797217
0001b0 d5 c5 bb 3d ea c2 84 3d 8d 8f 48 3d 39 f4 af bd
       0.09168593 0.064824894 0.048965026 -0.08591504
0001c0 c3 cd b4 bc 79 24 9b 3d 4b a3 57 bd b5 77 1f 3e
       -0.022070771 0.07575316 -0.052645963 0.15573008
0001d0 b5 d9 50 3c ec 3c 94 3d 20 b8 c4 bc 6c 65 2c 3c
       0.012747218 0.072381824 -0.024013579 0.010522228
0001e0 89 98 67 3d d3 a2 42 3d ee 89 70 3d 3c c0 27 bd
       0.056541953 0.047518563 0.05872529 -0.040954813
0001f0 dc bc 82 bd 74 88 1e 3d aa 78 11 3e 41 4d 82 3d
       -0.06383678 0.03870435 0.14206186 0.06362391
000200 65 d4 18 3e 59 05 0d 3e cd 76 00 3d 08 b4 2b bd
       0.14924772 0.13771571 0.031363297 -0.041919738
000210 c1 fb fa bd d1 65 e8 3c f1 e7 83 3d 03 5f 5e 3d
       -0.122550495 0.028368862 0.06440724 0.05428983
000220 c0 68 13 3d 3d 96 e0 3b 13 ad 62 3c d0 e8 92 bd
       0.03598857 0.0068538473 0.013835209 -0.07173312
000230 2e 20 be 3d dc 6a 90 bc 17 27 12 3e 78 5a 98 3c
       0.092834815 -0.01762908 0.14272724 0.018597826
000240 2f 1f d7 3d 02 2a 23 bd 9f 1b da 3d 24 ff b8 bd
       0.10503995 -0.039834984 0.106497996 -0.09033039
000250 23 bc b8 bc 5f 71 16 3c 7f af 9e 3d 08 56 01 3d
       -0.022550648 0.009182303 0.07748317 0.031576186
000260 3d 21 1a 3d ab 07 9d bb 6e be e6 bc 45 b3 04 3e
       0.037629355 -0.004792174 -0.028166976 0.12959011
000270 d3 2f 9d bd 74 e1 3a bc 46 08 37 bd b7 9c d0 bc
       -0.07675137 -0.011406291 -0.044685625 -0.025465352
000280 bc ee e7 3d 9a 94 e7 3d 76 4a e7 bd c6 9f 13 3e
       0.11324832 0.113076404 -0.11293499 0.14416417
000290 46 a2 ec 3d 8d 9d 94 3d 63 80 42 3d 38 1c 4c 3d
       0.11554389 0.07256613 0.04748572 0.0498316
0002a0 76 f2 50 3d 35 7e 60 bd a6 80 d0 bc 0e 92 f7 3c
       0.05101248 -0.05480786 -0.02545197 0.030221011
0002b0 00 86 9c bc 0c 2c 98 3c b8 50 9a 3c 1d 4c b8 3d
       -0.019106865 0.01857569 0.018837318 0.089988925
0002c0 9d 78 c5 3c b7 71 13 3d 89 06 60 3d 48 aa 7a 3d
       0.024105364 0.03599712 0.054693732 0.06119755
0002d0 ca e3 6c bd 1a a1 c9 3d f0 c3 f4 3c 9f c7 82 bd
       -0.057834424 0.09845181 0.029878587 -0.06385731
0002e0 43 d8 fc bd 02 32 61 bd 7e ee e2 3d f2 d9 8c 3d
       -0.12345936 -0.05497933 0.11080645 0.06877507
0002f0 19 2f 3f bc aa ee 7e 3b 08 5d d6 b9 66 63 ac 3d
       -0.011668944 0.003889958 -0.00040886574 0.08417396
000300 55 31 6a bd e3 77 20 bd 6c 5d 45 3d b6 4e 6c bb
       -0.057175953 -0.039176833 0.048184797 -0.0036057658
000310 02 26 bf 3c eb bb a8 3c 74 7b 54 3d d0 70 54 3d
       0.023333553 0.020597419 0.051875547 0.0518654
000320 cf b1 82 bc 57 f8 a0 3b 67 40 2d 3d c1 29 9b b9
       -0.015953926 0.004912417 0.042297747 -0.00029595013
000330 cf 09 10 3d 4d 68 5b 3b 53 38 dd 39 86 f3 9e 3d
       0.035165604 0.0033478916 0.0004219437 0.07761292
000340 ed 48 04 bc 00 ed 57 3b 07 aa 05 3e 52 94 22 3e
       -0.0080740275 0.003294766 0.13053142 0.15876892
000350 04 d7 ed bc 2c 4f 91 3d cd eb 48 3d 6d 17 d2 3d
       -0.029033192 0.07095179 0.049053002 0.10258374
000360 c4 0a 85 bc 6f c0 b5 3d 43 15 d7 39 13 67 c4 3d
       -0.016240485 0.088745944 0.00041023837 0.09589972
000370 17 80 ae 3c 28 5c a7 3c 03 ea 38 3d a6 0f 85 3d
       0.021301312 0.020429686 0.045145046 0.06497125
000380 c0 a5 80 bc 7d 53 01 bd cc aa d5 3c 81 39 bf 3d
       -0.015704036 -0.03157376 0.026082419 0.0933714
000390 83 c7 ff bc 0e 58 e7 3d e2 57 b7 3c f3 97 a5 3d
       -0.031223064 0.11296092 0.022380773 0.08085623
0003a0 e8 8e 90 bd 52 63 d7 3d a7 55 39 bd 93 33 31 bd
       -0.07058507 0.10516991 -0.0452477 -0.043262076
0003b0 0b 37 93 bd 4a 34 04 3d ef 4e 9d 3d 7c 49 49 3c
       -0.07188233 0.03227643 0.07681071 0.012285586
0003c0 1d 37 59 bc 74 fc 9b 3b 11 b9 ba 3d 36 2c 70 3d
       -0.013257769 0.0047603194 0.0911733 0.058635913
0003d0 9d ee 70 3d 20 e2 57 3d fb bc f7 3d 83 3e 9c 3d
       0.05882131 0.052705884 0.12096592 0.07629111
0003e0 a1 06 0c 3e 8d 18 9f bd 7f 63 94 3d c4 27 7c 3c
       0.13674404 -0.077683546 0.0724554 0.01539034
0003f0 5d f8 e3 3c 46 9b 09 bd 6f b5 49 bc 4e 8d 27 bc
       0.02782839 -0.033595346 -0.012311324 -0.010226561

weight f4 [256, 256]
000000 97 57 89 3d 14 e8 18 bd 77 2d 9f bd 5c ef a1 3c
       0.067061596 -0.037330702 -0.077723436 0.019767456
000010 d3 63 a4 3d b5 68 3e be 4b 77 c0 bd 3f 39 1e bd
       0.080268525 -0.1859463 -0.09397753 -0.038628813
000020 a5 fe ac bd eb f9 d1 bd 91 c6 a1 bb b1 b4 1b 3d
       -0.08447007 -0.10252746 -0.004937001 0.038014118
000030 9f 17 b5 3d 0b 22 9a bb a4 11 98 bd 05 26 46 3e
       0.08842396 -0.0047037653 -0.0742524 0.19350441
000040 d8 a9 3b 3d 57 f6 a6 3d 07 68 f4 3c 6b 82 b6 be
       0.045816272 0.08152454 0.02983476 -0.35646376
000050 18 88 d5 3c 07 82 e3 bc ab ad 1b bd 77 6d 4e be
       0.026065871 -0.027771963 -0.03800742 -0.20158945
000060 9a 4b 04 3d b2 b4 28 bd 63 ab 08 be 28 0c 9e bd
       0.03229866 -0.04118795 -0.13346629 -0.07717162
000070 32 4b ba be 26 4b 8b 3d 7e 5a 8d 3d 34 90 16 3c
       -0.36385494 0.06801443 0.06902026 0.009189654
000080 96 f4 a5 3d ad 73 c2 bd 90 59 87 bd f8 c4 ab bd
       0.08103292 -0.0949472 -0.066088796 -0.08387178
000090 19 45 b9 3d 41 d5 9a 3b 59 b6 85 3d 3e 7a 03 3d
       0.090463825 0.004725129 0.06528921 0.032099
0000a0 3f af 53 be 27 15 0f 3d c7 80 53 be 85 75 9c bd
       -0.2067232 0.03493228 -0.20654593 -0.076396026
0000b0 40 af de bc 6f 46 70 be f8 c3 0f be 51 f1 37 bd
       -0.027183175 -0.23464368 -0.140396 -0.04490787
0000c0 f7 c4 58 bd d0 40 8d bc 09 7d 0a ba 47 b0 63 bd
       -0.052922215 -0.01724282 -0.0005282914 -0.055588033
0000d0 c9 47 bb 3d 11 cc 04 3b b7 37 4e be f9 c2 1a be
       0.09144551 0.0020263235 -0.20138441 -0.15113439
0000e0 87 c6 2b 3d 97 73 ea 3b 38 0e c9 bd 7f 2e 92 3d
       0.041937377 0.0071548927 -0.09817165 0.07137775
0000f0 16 db 63 3d 9b ee da 3b 14 63 16 be 5a 03 7c be
       0.05562886 0.006681276 -0.14686233 -0.24610654
000100 be b2 f0 3b 78 bd 83 bd 45 b3 53 3d 35 53 11 be
       0.0073455265 -0.06432623 0.051684637 -0.14191897
000110 21 6f 2f 3d 7a f5 4d 3e 32 99 54 be f0 37 01 be
       0.04283059 0.20113173 -0.20761564 -0.12618995
000120 2a b1 13 bd 31 ab 0a 3d ff c4 88 3c 89 69 9c 3d
       -0.03605763 0.033854667 0.016695498 0.07637317
000130 0d a7 b2 3d f6 9f 62 bd 47 c7 6f bd 34 dd b9 3b
       0.08723269 -0.055328332 -0.058539655 0.0056721214
000140 d9 37 af 3b b3 9a 79 3d f1 e5 a4 bd b0 be 33 3d
       0.0053472337 0.06093855 -0.0805167 0.043883026
000150 46 23 5f be 9d cc 00 be c9 b4 60 bc 7f e1 6a b9
       -0.217908 -0.12578054 -0.013714978 -0.00022399983
000160 4d f0 b2 bc 83 2b 30 be 0d c0 83 bd fd 86 83 be
       -0.0218431 -0.17204098 -0.06433115 -0.25688925
000170 d1 1b 41 bc 97 ca 0e be 60 fc 45 3d 54 d3 a9 3d
       -0.011786417 -0.1394447 0.048336387 0.08292261
000180 f4 ee ae bd 96 f4 25 bd bb 40 36 be 69 63 12 bc
       -0.085416704 -0.04051646 -0.1779813 -0.008934834
000190 b7 aa b5 bc 28 1f 16 be 22 d8 20 be f2 7c 08 bd
       -0.02217613 -0.14660323 -0.15707448 -0.033322282
0001a0 8a 9b 3a 3d ad 7b 90 3d 6d 59 9f bc e9 d5 af be
       0.04555849 0.07054839 -0.019451821 -0.34342888
0001b0 18 40 19 3d 5e f9 c6 3d e0 bc 55 be 74 32 c2 bd
       0.03741464 0.09715532 -0.20872831 -0.094822794
0001c0 8b 6d 3e 3e 02 25 3b bd e3 67 87 bd 5d c6 85 bd
       0.18596475 -0.04568959 -0.06611612 -0.065319754
0001d0 96 1c f2 bd 78 59 d1 3d 34 54 47 be 9a 00 dd 3d
       -0.118218586 0.10222143 -0.19465715 0.1079113
0001e0 06 8d a4 bd f6 8e da 3e 02 06 a5 3c 1b 11 8d 3d
       -0.080347106 0.42687196 0.020144466 0.06888028
0001f0 e5 20 d9 bc 76 4a f2 3d 5d e3 99 bd 39 b9 05 3b
       -0.026504943 0.118306085 -0.07514069 0.002040459
000200 80 bc 8d be 2d 41 d4 bd 5f c9 c1 3c f7 47 13 be
       -0.27682877 -0.10363994 0.023655592 -0.14382921
000210 9b 22 5a 3d 58 46 2e be 3c 16 16 3d 86 0d 11 bd
       0.05325566 -0.17019022 0.036642298 -0.035413288
000220 38 5c ec bc 26 b8 c3 b6 bc 93 4b bd 87 46 98 bc
       -0.028852567 -5.8328906e-06 -0.049701437 -0.018588318
000230 23 7f 50 bd 93 c7 33 be bd e3 04 be aa 32 04 3e
       -0.050902497 -0.175566 -0.129775 0.12909952
000240 c2 9a 72 3d 7d 15 1f bd 0f 0a 3a be 3e bb 4e bd
       0.05922962 -0.038838852 -0.181679 -0.050471537
000250 8c 6b b7 3b 21 36 01 be 0f d1 49 3d c2 66 a4 bd
       0.0055975374 -0.12618305 0.04927164 -0.08027412
000260 fa 22 ae bd 63 ea 80 3d 8f a7 7f bd ab 58 70 bc
       -0.08502765 0.06294706 -0.062415656 -0.014669578
000270 34 8c 5f 3c f8 22 58 bb 24 02 ae 3c 66 09 f4 3c
       0.013644267 -0.0032979827 0.021241255 0.029789638
000280 b7 72 f6 bb e6 59 0a be 42 2e 81 be 5e 8a 0a 3c
       -0.0075209993 -0.13510856 -0.25230604 0.008455841
000290 8b eb 44 3c 6b 71 8d bc ac 54 f0 3d 0c 06 86 3d
       0.012019048 -0.017265996 0.117349 0.06544122
0002a0 81 d6 b9 3c 38 99 d2 3d b0 bd 28 bd c0 7c 92 bd
       0.022685291 0.102831304 -0.041196525 -0.071527004
0002b0 89 0f e8 3d 6e 8f 45 be e3 5b 5d bd ed 14 04 bd
       0.11331088 -0.19292995 -0.054042708 -0.03224652
0002c0 f3 e8 f5 bc 7e ef 03 3d 19 4b 0b be 8e ae b1 3c
       -0.030018305 0.03221082 -0.13602866 0.02168968
0002d0 dd 5f d3 3d 28 06 98 bd a6 19 6a be e6 4b 0c bd
       0.10321019 -0.07423049 -0.22861347 -0.03425207
0002e0 7d 69 55 3d 83 63 ca bd b2 03 09 3d 08 f1 31 bd
       0.052102555 -0.098822616 0.03345079 -0.043442756
0002f0 2b 08 d8 bd f2 47 ac 3d b4 4c 9a 3c a6 fb cb bd
       -0.10548433 0.0841216 0.018835403 -0.099601075
000300 bc cc df 3d 37 9b 1c 3e 94 dc 19 3e e4 91 86 be
       0.10927722 0.15293585 0.1502555 -0.2628318
000310 db 0d b8 3d 38 c2 2f 3d 37 84 2c 3d 2e 85 79 bd
       0.08987018 0.04290983 0.042118277 -0.060918026
000320 da e3 b1 3c 89 84 81 3d c6 0d a3 3e d7 71 0b 3d
       0.021715093 0.06324107 0.31846446 0.034044113
000330 e0 53 26 3d be 16 43 bd 14 38 18 be 78 2a 5e be
       0.040607333 -0.04762911 -0.14865142 -0.21695888
000340 52 d0 ab 3d b9 a5 1a be 28 bd b2 bd 6c 57 13 3d
       0.08389343 -0.1510228 -0.08727485 0.035972044
000350 43 7f 0f 3d c2 d4 90 bd ae 3c 85 bd 22 ac 7d bd
       0.035033476 -0.0707183 -0.06505714 -0.061931737
000360 4e ac 25 3d 50 b4 25 bd 26 12 f0 bd 76 35 f3 bd
       0.040447526 -0.040455163 -0.117222115 -0.11875431
000370 7d 60 32 3d be e5 7e bc e6 e5 47 3d 9e 13 f0 3d
       0.04354905 -0.0155577045 0.048803233 0.11722492
000380 d4 7d 46 3c 77 9d af 3d 53 b7 cd 3c 06 96 28 3c
       0.012114961 0.08574956 0.02511183 0.010289675
000390 6f bb a1 3d 2f a4 0b bc f3 0b 28 3e 05 e4 46 bd
       0.07897078 -0.008523031 0.16410808 -0.0485573
0003a0 b5 81 3f 3d 21 de 87 bc f4 d8 26 be a3 01 07 bd
       0.046754558 -0.016585412 -0.16293699 -0.032960545
0003b0 a4 af e1 3d 22 ae 61 be 11 59 ef bc fe d9 20 bd
       0.11019829 -0.22039083 -0.029217275 -0.039270394
0003c0 18 ef 34 be 2c fa 81 3d d0 e6 0c be e0 a7 38 3b
       -0.17669332 0.063465446 -0.13759923 0.0028176233
0003d0 c2 23 9d bd a1 a8 2c bd 6c 7b 46 3e 47 90 9c 3b
       -0.07672836 -0.042153005 0.19383019 0.0047779414
0003e0 11 f6 ec bc f3 5b 34 bd 93 70 71 bd ff b2 ed 3c
       -0.028925927 -0.044033002 -0.05894525 0.029016016
0003f0 6f 55 80 be 37 19 b4 bd 61 09 7d 3d 84 fc 06 bd
       -0.2506518 -0.08793872 0.061776523 -0.03295566

bias f4 [256]
000000 df dd f6 bd a4 29 87 bd 30 39 e7 bd 9e 1b 0c 3d
       -0.12054037 -0.06599739 -0.112902045 0.034206025
000010 4d 6c 2c 3e 8a d6 03 be 4d 40 2e bd 3a af 8f bd
       0.16838188 -0.12874809 -0.04254179 -0.07015844
000020 93 82 2f bd 24 6a 04 3e 62 58 2a 3d c0 06 f5 3d
       -0.042849135 0.12931114 0.041588195 0.11964178
000030 8a 67 7d bd 9c 08 1e be 19 15 d2 3d 17 0e 23 3d
       -0.06186632 -0.15432972 0.1025793 0.03980836
000040 fa 0b c1 3c 70 60 9d 3d 11 df 21 3e 8e 22 85 bd
       0.023565281 0.076844096 0.1580775 -0.065007314
000050 0e a0 ee 3d c1 98 2c 3e e2 7f 91 3d 66 73 3c be
       0.11651622 0.16855146 0.0710447 -0.18403396
000060 34 68 c5 bd 6e 1d 29 3e 32 57 de 3d d0 07 05 3d
       -0.09639016 0.16515133 0.10856475 0.032478154
000070 b3 51 0d 3e d7 68 be 3c 96 c3 c8 3d d9 e0 ae bd
       0.13800697 0.02324335 0.0980293 -0.0853898
000080 08 23 63 bd 9d b6 9f 3d 34 cd 18 3d 89 7d 2c 3c
       -0.05545333 0.077985026 0.037305072 0.010527977
000090 1e f2 f5 3c 4a 5c d9 3d 93 ee 37 bd 99 6f 6d bd
       0.030022677 0.10613306 -0.044905256 -0.057967756
0000a0 bb 66 ec 3d 32 71 c2 3d 8e 05 1d 3e 0a 05 8d bd
       0.11543032 0.094942465 0.1533415 -0.06885727
0000b0 b8 04 6e 3e ab 1c b3 3d 69 f6 20 3e f5 f3 29 3e
       0.23243988 0.08745702 0.15718998 0.16596968
0000c0 1d af 1e 3c dc c0 22 be ba e4 46 3e f0 6d a0 3d
       0.009685305 -0.15893883 0.1942319 0.07833469
0000d0 6d 93 34 3e 6b 37 b7 bd 1d e8 88 3d de dd d4 3b
       0.17634363 -0.08946117 0.06684897 0.006496175
0000e0 4c f1 64 3d 5b 56 ed 3d b2 4a ee 3a c7 5c 67 3d
       0.05589418 0.115887366 0.001818022 0.056484964
0000f0 10 1c 2b 3e b5 31 38 bd ae 5a 1d 3e aa 5e 57 3d
       0.16709924 -0.04496928 0.15366623 0.052580513
000100 e2 18 d4 3d 07 8f 4e 3b 70 01 6d 3e 53 01 28 3b
       0.103563085 0.0031518356 0.2314508 0.0025635555
000110 51 7b dd 3b 53 5a b4 bd bf e6 68 3e d6 87 fc bc
       0.006759085 -0.088062905 0.22744273 -0.03082649
000120 48 b5 f8 3d bf bc 41 3e 18 b7 09 3d 54 94 88 bd
       0.12143952 0.18919657 0.033621877 -0.06668916
000130 46 e2 39 be 89 ff 42 3d b7 20 b8 3d 30 5a c3 3d
       -0.18152723 0.04760698 0.08990615 0.09538686
000140 24 cf e5 3d 3f ca 07 3e 14 65 47 bc 2b c0 8a 3d
       0.112211496 0.13260745 -0.012170095 0.067749344
000150 16 97 a8 bd cb 43 59 3e 84 1f ab 3d 8c 73 0f 3e
       -0.08231942 0.21217267 0.083556205 0.14008921
000160 db 8e 8c bd 45 86 3c 3e 59 c7 e0 3a d7 4c a2 3d
       -0.06863185 0.18410595 0.0017149254 0.07924812
000170 2a 5e 32 bd c3 13 c1 bc 24 ee 06 3e 2f 36 84 bd
       -0.043546833 -0.023568993 0.13176781 -0.06455647
000180 4a 9d eb 3d a9 c9 0a bd 5b 0f 7f 3e de 77 1a 3d
       0.1150461 -0.033883724 0.24908201 0.03771197
000190 3d 1f 0d be 4f 39 5a ba 72 c6 15 be 45 98 47 be
       -0.13781448 -0.00083245797 -0.14626482 -0.1949168
0001a0 58 df 9d 3d 01 7e 1e 3d 99 c4 ad 3c 53 c4 e5 bd
       0.07708615 0.038694385 0.02121191 -0.112190865
0001b0 3b fa 0b 3e 9c 8f 04 3e 40 b5 1f 3e ea a6 da 3d
       0.13669674 0.12945408 0.15596485 0.106763676
0001c0 19 45 1b bd a2 4a 41 bd 4e f7 03 3d b2 6b b5 3d
       -0.037907694 -0.047190316 0.03221827 0.08858432
0001d0 64 6a 45 bd 54 d9 0d bd 8d 94 d7 bc f3 86 8b 3d
       -0.048197165 -0.03463109 -0.026315952 0.06812849
0001e0 dc 92 0e 3e 1c 8e 2f 3e 87 28 12 3e fa 1f e8 bc
       0.1392321 0.17144054 0.14273272 -0.02833556
0001f0 16 f5 33 3e 69 66 87 bd d8 67 d3 3d 52 58 51 bd
       0.17573962 -0.0661133 0.10322541 -0.05110962
000200 c9 99 7c 3d fb 69 68 3e 99 be f4 3c ee 5a 11 3d
       0.0616701 0.22696678 0.02987604 0.035487108
000210 04 0a 5f 3e 31 42 0d bc 45 04 f1 3d b0 6f eb 3d
       0.21781164 -0.008621738 0.117683925 0.11495912
000220 6e 28 1f 3e 3d fc e3 bd 53 f0 6a bd fc 8a c7 bd
       0.15542766 -0.11132095 -0.057358097 -0.09743306
000230 7f d5 f0 3d 9f 08 a0 bd 10 a4 6e bd 5d 66 0a 3e
       0.11759471 -0.07814144 -0.05826193 0.13515611
000240 58 56 24 3e 2b c8 f3 bc 40 2d 47 3d 44 24 98 ba
       0.16048563 -0.029758533 0.04862714 -0.0011607488
000250 fe 0a d9 bd 88 ff 58 bb eb 52 21 3e 9b c8 2c 3c
       -0.105978 -0.0033111293 0.15754287 0.010545875
000260 d4 57 c5 bc 88 b3 1a be 8c 96 de 3c 4b 85 44 3e
       -0.024089731 -0.15107548 0.027171396 0.19191472
000270 ae dd 1c be e8 62 51 3e cd a2 40 3e 1c 4e a9 3c
       -0.15318939 0.20447886 0.18812104 0.020667128
000280 d9 e9 58 bc 71 64 58 be 17 de b8 bc 36 25 bd bd
       -0.013239347 -0.21132065 -0.022566838 -0.09235613
000290 bc d8 fc 3d 5d ca 0c be b4 8d cd 3d a4 4b b7 3d
       0.12346026 -0.1374907 0.10036793 0.08949974
0002a0 4e e7 80 3d 93 62 01 3d 9b 70 76 bd 7e f7 7d 3e
       0.06294118 0.03158815 -0.060165983 0.24801442
0002b0 46 57 1b be 91 dc c3 bd 0f f3 67 bc f0 ee 34 bd
       -0.15170011 -0.09563554 -0.014157071 -0.04417318
0002c0 9c b9 7e 3e f2 26 e7 bc 79 14 81 3d d7 42 a7 3d
       0.24875492 -0.028216813 0.06302733 0.081670456
0002d0 80 04 45 3e 72 33 0a 3e 32 2e 4f 3e 77 27 b0 bd
       0.19239998 0.13496187 0.20232466 -0.08601277
0002e0 a1 b4 a2 bc 1b 2c 0c 3d 19 ea db 3d aa 7d 48 3d
       -0.019861521 0.03422175 0.1073801 0.048947968
0002f0 15 bf 11 3e 9f 47 25 3d 5f a5 6d 3e e9 51 67 bc
       0.14233048 0.040351506 0.23207615 -0.01411865
000300 7b 57 3d 3c bc dd 29 3e c9 56 a4 3c 1d 1c 32 3c
       0.0115565015 0.16588491 0.020060914 0.010870961
000310 25 4a ae 3d 1b c1 ba bd ee cf 5f bd e0 df 08 be
       0.08510236 -0.09118863 -0.054641657 -0.13366652
000320 50 2d 69 bd 08 fc 8c 3d e3 5d 96 3c 16 d5 d9 bd
       -0.05692798 0.06884009 0.018355316 -0.10636346
000330 1a c8 08 ba 5d 47 a3 bd 7e ef f2 3d e1 ff b4 3c
       -0.0005217806 -0.07972596 0.11862086 0.022094669
000340 10 2c f4 bd bd 1a 0d 3e e2 93 7a 3d b1 42 f3 3c
       -0.11922467 0.13779731 0.06117619 0.029694887
000350 04 a9 06 3e 23 b7 e7 3d 63 34 06 3c f3 5b 78 3e
       0.13150412 0.113142274 0.008191201 0.24253826
000360 27 ca af bd c6 ab a5 bd a0 14 90 3d 2c 55 18 bd
       -0.085834794 -0.08089404 0.07035184 -0.0371906
000370 93 bb 0e 3e 0b cb 6b 3d d9 7d 25 3e da c9 0a 3e
       0.13938741 0.057566684 0.16161288 0.13553563
000380 ca 42 01 3e bf a6 3a 3d e3 c3 8d 3d c0 c0 93 3d
       0.12623134 0.045569178 0.06922128 0.072144985
000390 9d 36 90 bd d6 75 1d 3e 74 ee 26 3e bd 84 6c be
       -0.07041667 0.15376982 0.163019 -0.2309751
0003a0 a8 bb 3f 3e 08 35 34 3c 45 3b 1c be 10 12 18 3e
       0.18723929 0.010998972 -0.15256985 0.1485064
0003b0 9d a4 08 3e 5b 56 53 3e 62 65 35 bb 09 2d dd 3d
       0.13344045 0.20638411 -0.0027678837 0.107996054
0003c0 76 55 42 3e aa c5 34 3e c5 d6 bc bd 68 a4 c2 3d
       0.18977913 0.17653528 -0.092206515 0.09504014
0003d0 0a b5 c5 3d be b0 e7 bd 63 85 c2 bd 87 b5 26 3e
       0.09653671 -0.11313008 -0.09498098 0.16280185
0003e0 90 55 c5 bd d5 f8 44 3e ac d4 02 be d6 7a b4 bd
       -0.096354604 0.19235547 -0.1277644 -0.088124916
0003f0 1e d9 37 3e 34 d3 07 bd ed 11 a3 bd 06 4a 58 bd
       0.17953917 -0.033160403 -0.079624034 -0.05280497

weight f4 [60, 256]
000000 00 00 6e be 3f 36 41 3c 59 35 51 3d 84 a4 a5 b9
       -0.23242188 0.011792718 0.051076267 -0.00031593826
000010 b7 90 a8 bc 03 1e 55 bc 9c 27 c3 bd bc 3f b3 3b
       -0.020576818 -0.013007644 -0.09529039 0.005470244
000020 d1 2c d6 3c 23 24 14 3d 20 6f 06 bd 52 84 ee 3c
       0.026144417 0.036167275 -0.03282082 0.02911583
000030 bc c3 07 3d dc 21 69 ba d1 a5 10 3c e3 30 2a 3d
       0.03314565 -0.000889329 0.008828596 0.04155053
000040 be 9d 25 3c 95 66 2c 3c 42 0f e4 3d d5 13 05 bc
       0.010108409 0.010522504 0.11135723 -0.008122404
000050 a4 c1 65 3a 1a 37 1f bc fe ac 9e bd 4b 51 6a bc
       0.00087645114 -0.009717727 -0.077478394 -0.014301608
000060 92 8e 4b bc 52 09 f9 3b 93 43 b2 bc bc 37 1d bc
       -0.012424128 0.007599988 -0.021760738 -0.009595808
000070 82 26 bd 3d 96 84 6e bc 96 ad 8f bd 5b 75 55 bc
       0.092358604 -0.014557978 -0.07015531 -0.013028468
000080 fc 31 1c bc 62 ba f4 3d 45 8d 14 3d ea 91 a1 bc
       -0.009533402 0.11949612 0.036267538 -0.019722898
000090 54 86 a3 bc e9 5a 3e 3b ea 7b 09 3c 92 a7 eb 3c
       -0.019961514 0.0029045886 0.00839136 0.028766427
0000a0 38 80 51 bd 35 a0 20 bc b9 20 1a 3d 23 c7 e9 3d
       -0.05114767 -0.009803821 0.037628863 0.114149354
0000b0 3a 39 dc bc 9e 31 9b bd e1 2a e9 3b eb 0b 44 bb
       -0.026882757 -0.07577823 0.0071157073 -0.002991433
0000c0 10 81 00 be 4d d3 29 bc a0 7e d0 bd c9 f5 d3 bd
       -0.12549233 -0.010365319 -0.10180402 -0.10349614
0000d0 fd 5b 28 bd 78 c5 03 bc 69 75 1a 3d c9 7d b8 bc
       -0.04110335 -0.008042686 0.037709627 -0.022520917
0000e0 6e 07 22 3b d8 a9 f6 3b 15 6d 43 3d 7a c6 7f bc
       0.0024723667 0.007527571 0.04771145 -0.015611285
0000f0 b5 55 b5 3d e9 f2 bd bb 05 5d 8e bc 10 52 2f 3d
       0.08854238 -0.0057967794 -0.01737834 0.04280287
000100 80 04 30 3d 4f c1 64 3c fe 4e c0 3d 16 29 af 3b
       0.04297304 0.013962104 0.093900666 0.005345474
000110 99 7c 0f bd db 29 2d bc f7 07 f1 3c fc 19 6b bc
       -0.035030935 -0.010569061 0.029422743 -0.014349457
000120 35 09 09 be f1 e4 7b 3d 36 7c 6d 3d e5 be d8 3c
       -0.13382418 0.061497632 0.057979785 0.026458213
000130 73 16 b0 bc eb 3b fc bd 83 b8 f1 3b 35 f8 8c 3d
       -0.02149508 -0.12316116 0.007376732 0.06883279
000140 2f 3d 03 bd 53 f5 87 bb 5b b9 4d 3c 7e a6 ff bb
       -0.03204077 -0.004149118 0.012556399 -0.00780183
000150 08 12 73 bb ff cb 05 3e fb e4 18 bd bf 3f 9e 3d
       -0.0037089605 0.130661 -0.037327748 0.07727002
000160 fa 52 43 bc 54 be 94 bd 65 15 e2 bb f0 a1 16 bd
       -0.011921639 -0.07262865 -0.006899523 -0.03677553
000170 65 e4 75 3c c2 a5 b1 bb 0e 67 b3 3d 54 5b 5d 3c
       0.015008067 -0.005421371 0.087598905 0.013510544
000180 d9 23 50 3d 47 b4 17 3a a3 6b c6 3d 3e b2 26 bc
       0.050815437 0.0005787056 0.09688499 -0.010174332
000190 a8 40 27 3d a6 2d 45 3d c9 d2 42 bb fa 58 94 bc
       0.040833145 0.048139237 -0.0029727689 -0.018108834
0001a0 99 ad 8e 3d b6 a4 93 bd 70 bf b7 bc 51 e3 03 bd
       0.06966705 -0.072091505 -0.022430152 -0.032199208
0001b0 3a e5 76 bc ad a3 c6 bc 7f 8c bb bb c4 f2 80 3d
       -0.0150693 -0.024247969 -0.0057235355 0.06296304
0001c0 a7 72 10 bd 9f 25 e1 3b 9f 68 ca bb 0d 2d e4 39
       -0.03526559 0.00687094 -0.0061770226 0.00043521114
0001d0 97 fd 97 bc 5d 3b 30 bd ed 56 78 bd 75 d6 2b bd
       -0.018553538 -0.043025363 -0.060629774 -0.04195257
0001e0 55 eb a8 bd b7 53 9b bc f2 b1 ac bc 95 65 8d bc
       -0.08248011 -0.018960817 -0.021080945 -0.017260352
0001f0 d3 1e ac 3b e9 9e 9b 3d d5 98 1b bd 12 f5 07 3d
       0.005252698 0.07598669 -0.03798755 0.0331927
000200 68 5b 0c 3d 24 65 8b 3d 5a 9d 09 3c 4e 41 20 3d
       0.03426686 0.068064004 0.008399332 0.03912478
000210 43 63 c0 bd b8 4b 97 3c 90 0a 87 bd 5d dd f0 3c
       -0.09393933 0.018468723 -0.065938115 0.02940243
000220 a2 06 2d 3b 94 f0 68 3b 98 8f 45 bb 0f 54 6a bb
       0.0026401659 0.0035543786 -0.0030145403 -0.003575567
000230 bf e1 44 bd 58 7e 8c bd a6 23 a9 bd 6c 89 a7 3c
       -0.04806685 -0.06860036 -0.082587525 0.02045127
000240 57 a6 cd 3d 41 a5 49 bc 05 72 15 3a 97 ce ee 3c
       0.100414924 -0.012307466 0.0005700889 0.029151244
000250 39 c0 2a bc c2 e8 38 3c 9c e9 0a bd 3a f7 d1 ba
       -0.010421806 0.011285963 -0.033914194 -0.0016019114
000260 f7 14 8d 3c 0e 81 28 bd 48 50 51 be 5d e4 f9 3c
       0.01722191 -0.0411387 -0.20440781 0.0305044
000270 f9 59 a4 3c 52 c4 97 3d eb 5e af 3d ad 6c cb 3b
       0.020062434 0.07410492 0.08563026 0.0062080235
000280 46 18 8e bd f0 a8 d3 bc e3 46 43 3c a0 ce 78 bc
       -0.069382235 -0.025837392 0.011918756 -0.015185982
000290 3a 37 23 bc b8 c2 c7 3c 8f 86 39 bc 27 98 11 3d
       -0.0099618975 0.024384841 -0.011323585 0.035545494
0002a0 f8 6f c4 bc d6 3a 61 3c 66 f5 11 be fd bc 7d 39
       -0.023979172 0.013746938 -0.14253768 0.00024198364
0002b0 5b 71 21 bd 62 29 88 3c 2b a1 9c bd f8 f1 4d 3c
       -0.039414745 0.016621295 -0.07647928 0.012569897
0002c0 d9 30 4f 3d 92 7c 65 bc 00 d3 fa 3b cb 78 0e 3d
       0.050583694 -0.014006751 0.0076545477 0.034783166
0002d0 02 0d 21 3c 04 43 ac 3c 3c 24 66 3d 74 39 7b bd
       0.009829761 0.02102805 0.0561869 -0.06133409
0002e0 33 a0 fd bc 97 07 80 bc c1 af 08 bd da 35 0f 3b
       -0.030960178 -0.01562862 -0.033370737 0.0021852166
0002f0 5a 77 3e ba 7a 1e 03 bd ff 4f 9b 3c 6b 19 98 3c
       -0.00072657096 -0.032011487 0.018959044 0.018566808
000300 2a af 4d be 27 25 41 3d 73 0e 01 bd 01 5f 97 3b
       -0.20086351 0.04715457 -0.03150792 0.0046194796
000310 88 5e 1c 3d 3b 87 87 bc 31 fe 48 3d 28 c8 29 3d
       0.03817609 -0.016543975 0.04907054 0.04145065
000320 65 85 ad bc 14 d4 b6 3c f1 f8 0a be 8c ca bb bb
       -0.021181772 0.022317924 -0.13571526 -0.0057309326
000330 c2 f1 a6 3c b1 72 13 bd 5d 45 a6 3d b5 7b c7 bc
       0.020378951 -0.03599805 0.08118699 -0.02435098
000340 37 2f c1 bb d7 86 c8 bc 27 1c 37 bc 46 b9 eb bd
       -0.005895521 -0.02447836 -0.011176146 -0.115099475
000350 52 a3 55 3b 4b 84 4e bd 3b 3c 2d 3c 5d e5 17 b8
       0.0032598567 -0.050419133 0.010573442 -3.6214817e-05
000360 a2 b4 70 3c 0a aa eb bc 38 65 7d 3b e9 2b 97 be
       0.014691504 -0.028767604 0.0038665067 -0.29525688
000370 bf 95 35 bd 66 f0 59 3d 6e ad 86 3d b3 9d 9f be
       -0.044332262 0.053207777 0.06576048 -0.31175002
000380 ce 9b 67 3d 34 a8 16 be 5b c5 91 3c ba 31 83 bc
       0.05654507 -0.14712602 0.017794302 -0.016014922
000390 b4 a5 2c be 07 d3 11 3e 0c f2 84 3a ee fd eb bb
       -0.16860086 0.14240657 0.0010142936 -0.0072019016
0003a0 0b 83 18 bc 68 27 fa 3c 42 81 bc bc 64 f5 5e 3d
       -0.009308587 0.030536368 -0.023010854 0.05443324
0003b0 e7 41 a0 3d 67 7e 66 3d d5 37 ed 3b 11 b7 c6 bd
       0.0782507 0.05627289 0.0072393217 -0.09702886
0003c0 f3 1e 98 3c f3 55 f4 3c ff 8b e6 bc 7d 95 9c bd
       0.018569445 0.02982614 -0.028142927 -0.076457
0003d0 f6 c3 0f 3d bc ef 0a bc 21 05 b3 3c b1 79 44 bd
       0.035098992 -0.008480009 0.021853032 -0.047967616
0003e0 2d d8 82 3d a1 c0 72 3d c5 ad 15 bc 96 b7 81 3c
       0.063888885 0.059265736 -0.009135668 0.01583461
0003f0 97 c7 28 bd 49 6b 6a bc de 6e 99 3c be 54 de bd
       -0.04120597 -0.014307805 0.018729623 -0.10856007
