data/example_dynamics_data/kitchen_MLP_prior.pth (torch, 664463 bytes, 8 tensors)

weight f4 [256, 70]
000000 87 0b a9 3e 54 5b 36 3e 8c 19 72 bc df d3 93 3d
       0.33016607 0.17808276 -0.014776599 0.072181456
000010 96 b7 a0 3d ef c1 64 be f4 c4 cf bd ef ad ea 3e
       0.07847516 -0.22339605 -0.10144988 0.45835826
000020 4d a5 86 be 96 4a 47 3e be 03 82 3f 5d c0 fd 3d
       -0.2629799 0.19462046 1.0157392 0.12390206
000030 f2 50 a1 be ce fa dc 3e ca b9 7a bf ab e0 06 40
       -0.3150707 0.431601 -0.9793974 2.1074626
000040 e6 e6 20 40 5f 84 2e bf 44 dd 59 c0 ae 1a 9f 3f
       2.514093 -0.6817073 -3.40413 1.2430017
000050 0f 0c 8a 3e 55 de b4 3e 01 bb a6 bf 89 b9 ec 3c
       0.26962325 0.35325876 -1.3025819 0.028897064
000060 0b ac 7a 3d 6b b6 e2 bd d9 80 af 3c a3 9e 8e 3f
       0.06119923 -0.1106995 0.021423744 1.1142162
000070 8f b5 3f 3f 1c fb 90 bc 77 82 af 3c 75 18 d9 bb
       0.7488641 -0.017697863 0.021424515 -0.00662523
000080 88 75 ed bd c2 43 bc 3d 2f 91 b7 3d 26 6c 52 bd
       -0.11594683 0.09192611 0.089632384 -0.05137267
000090 43 e4 6d 3d 64 fd 50 3d e9 88 76 3c b1 15 c7 3d
       0.058079015 0.051022902 0.01504729 0.09720934
0000a0 a6 44 a9 bd bf 38 c4 bd b6 b6 d6 3d e2 5a 46 3d
       -0.08265047 -0.09581136 0.10484068 0.048426516
0000b0 e2 dd 50 bd 4e 48 61 3d ec 89 d4 3d 96 a3 e5 3d
       -0.050992854 0.055000596 0.10377869 0.11212842
0000c0 c4 f0 ca bd 01 ed 1b bd 10 3a d8 3d d4 7f ee 3d
       -0.09909204 -0.03806782 0.105579495 0.11645475
0000d0 19 bb d9 bd ab f2 ae bd 55 31 1e 3b 29 d6 7c 3d
       -0.10631389 -0.08542379 0.002413829 0.061727677
0000e0 39 31 85 39 32 b4 ca 3c db e6 22 bd 6a f8 72 bd
       0.0002540441 0.024744127 -0.039770942 -0.059318937
0000f0 eb 49 b2 3c 1f 21 6c bc 1e 60 f6 bc 59 f8 63 bd
       0.021763762 -0.014412194 -0.03007513 -0.055656765
000100 99 74 92 bc b3 ab b8 3d 49 6c ad bd 90 d0 0a 3d
       -0.017877864 0.09017124 -0.084679194 0.033890307
000110 01 e5 03 bc e4 c1 c0 3b 98 50 d4 3c 07 5f 67 be
       -0.008050204 0.0058824886 0.025917336 -0.22594844
000120 26 d9 2f bf 59 07 65 be 77 3c 7e bd 3a 60 57 3d
       -0.6869072 -0.22366084 -0.062069383 0.052582003
000130 33 38 30 3d 02 e9 8a 3f 55 cd 29 bf 2a 39 45 3f
       0.043022346 1.0852358 -0.66328937 0.7704035
000140 1f 4b be bf 3e 48 93 3f 50 d4 bd 3f 7a f0 9e be
       -1.4866675 1.1506422 1.4830418 -0.31042844
000150 01 a9 81 bd 24 46 71 be 99 ce 8e 3f dd 75 9a 3f
       -0.06331063 -0.23561913 1.1156799 1.2067219
000160 c2 6a 5c 40 2a d3 1e 3f 75 7d 7d bf 8e 04 45 c0
       3.444016 0.6204096 -0.9901956 -3.078403
000170 15 cd 23 bf 95 2b 41 3d 89 c1 72 3c 25 fc fd be
       -0.63984805 0.047160704 0.01481665 -0.49606434
000180 57 21 31 3d 34 6e 27 3f b3 fd 25 3f 4f 11 81 bd
       0.043244686 0.6540253 0.6484024 -0.063021295
000190 86 ef d2 3d b7 79 dd 3d 6b 62 b8 bc de 67 06 bd
       0.10299592 0.10814231 -0.022507867 -0.0328139
0001a0 d1 25 89 3d 5d 6c ab 3d b9 6f 8a bb 2d f9 28 bc
       0.06696666 0.08370278 -0.004224744 -0.010313314
0001b0 7b e6 90 3d 0a fd 3e 3d dd 03 dc 3d b3 f2 54 3e
       0.07075211 0.046628036 0.10742924 0.20795707
0001c0 2a 09 f8 3d 18 84 38 bd 6e af af 3d e1 42 c7 3d
       0.12111123 -0.04504785 0.085783824 0.09729553
0001d0 f8 99 88 bd e6 d1 3e bc 2e d1 88 3d 87 43 87 bd
       -0.06669992 -0.011646723 0.06680523 -0.06604677
0001e0 6b b5 95 3d b7 9f 1f 3d e9 04 8e bb 34 a5 2a 3e
       0.07309993 0.038970675 -0.0043340814 0.16664582
0001f0 ed 2b 22 be 37 61 ff 3b dd 7a 57 be 2f 0f 8e bd
       -0.15837069 0.0077935713 -0.21042962 -0.0693649
000200 31 92 27 b9 88 4f 58 3e 27 27 97 3c 67 6a b7 3d
       -0.00015980822 0.21124089 0.018451286 0.089558415
000210 dd a2 b4 3e 0d a7 17 be e9 cb c8 bd 57 b5 2e be
       0.35280505 -0.14809819 -0.09804518 -0.17061363
000220 bd b2 de 3d 4e 87 5b 3c fe d6 5f 3d 34 36 9e 3d
       0.10873935 0.013398958 0.054648392 0.07725182
000230 22 df 04 3e ff db 42 3e 41 fd 87 3d da 3e 08 be
       0.12975743 0.19029234 0.06640101 -0.13305226
000240 54 2b 87 3d e6 24 03 bf 45 35 21 be 34 b1 e5 3e
       0.06600061 -0.5122818 -0.15742977 0.44861758
000250 75 1a 48 be f4 95 99 3e d5 1b 33 40 de f6 85 3e
       -0.19541343 0.29997218 2.7985737 0.26164907
000260 77 4f d4 3f 86 31 88 be b2 9c ff bf 2c b5 bf be
       1.6586751 -0.26600283 -1.9969695 -0.3744291
000270 cf b4 76 bf fd e5 b4 bf 71 c2 49 3f df 64 1f 3f
       -0.9636964 -1.4132687 0.7881232 0.6226329
000280 e4 35 d7 be cd 34 a1 bf 3e 43 57 3e e7 88 76 bd
       -0.42033303 -1.2594239 0.21021745 -0.060189154
000290 36 2f 85 be 56 aa 51 3e 39 cd 05 be a5 f9 d8 bf
       -0.26012582 0.20475134 -0.13066567 -1.6951185
0002a0 62 e0 01 bf 83 16 53 be 99 a4 ec bd 87 11 a4 bb
       -0.50733006 -0.20614056 -0.11554832 -0.0050069722
0002b0 cf 33 ba 3c fd a8 b1 3c 83 69 d5 bd 6e 71 37 3c
       0.022729782 0.021687025 -0.104205154 0.011196477
0002c0 75 b9 6e bd 0e 1f eb bc f5 3a e3 3d 4a 06 7b bd
       -0.058282334 -0.028701331 0.110952295 -0.061285295
0002d0 16 d5 ac bd 48 84 47 be 51 2c 4f be ec f1 96 3d
       -0.084390804 -0.19484055 -0.20231749 0.07370362
0002e0 16 1d 9f 3d 7a 82 cd 3d 57 bc 83 3d 10 10 bf bd
       0.077692196 0.10034652 0.06432407 -0.093292356
0002f0 c8 02 1c be c5 fc cd bb 84 3b ed bd 2c 75 57 bc
       -0.15235436 -0.006286236 -0.11583617 -0.013150495
000300 e0 01 55 be 15 5a cc bd 78 3e f9 3d 7a 4f ef 3d
       -0.20801497 -0.09978119 0.12170118 0.11685081
000310 d3 66 7f 3e 80 48 da 3d 02 2c e5 3d 46 cc 4a bd
       0.24941568 0.106583595 0.111900344 -0.049511217
000320 a8 c2 d4 bb 11 c1 9f 3c 58 40 12 3e 25 d4 a0 bd
       -0.0064929314 0.01950124 0.14282358 -0.07852963
000330 f9 c5 f1 3c a3 a8 e0 3d a7 32 23 be c9 fa a9 3c
       0.029513346 0.10969665 -0.15937291 0.020749466
000340 ec a1 0e bd 45 93 4e bd 61 22 85 3d 73 d9 98 3d
       -0.03482239 -0.050433416 0.06500698 0.0746335
000350 e7 9f 27 3d 9b db d9 bd fa 0d a5 3e 46 2c 00 be
       0.04092398 -0.106375895 0.32237226 -0.12516889
000360 f1 2b 41 bc 01 cc 65 3e 57 02 10 3f 12 1e 7c be
       -0.011790262 0.22441103 0.5625357 -0.24620846
000370 91 22 94 bf f2 51 4c be 94 74 93 be 3e f7 01 bd
       -1.1573049 -0.19953135 -0.2879988 -0.03172993
000380 24 5f 65 3f 55 9c 5b 3d df d4 08 bf 92 d9 1c bf
       0.895983 0.053615887 -0.53449816 -0.61269486
000390 27 15 52 40 66 23 8d be 35 be 34 3e d8 84 8c 3f
       3.282541 -0.2756607 0.17650683 1.0978041
0003a0 2d b6 36 3f 91 25 04 3e e3 01 e0 bc 54 34 81 3e
       0.7137173 0.12904955 -0.02734465 0.25235236
0003b0 e1 90 42 bd bc 25 62 3e 29 65 ec 3e b0 d7 20 bd
       -0.04750145 0.22084707 0.4617093 -0.039268196
0003c0 32 04 da 3d 11 c3 1a bd ef e3 b3 3d e6 ba df 3d
       0.106453314 -0.037783686 0.08783709 0.1092432
0003d0 80 c7 b9 bd ad 51 eb 3b 2e 69 f4 bd c1 94 a8 bd
       -0.09071255 0.0071813674 -0.11934124 -0.082314976
0003e0 b0 ec 37 3d 18 64 08 bd 00 2b f4 bd e1 94 08 3d
       0.044903457 -0.03329858 -0.11922264 0.033345107
0003f0 fe 87 9d 3d 6e 7d 42 bd 9d c2 97 bd 57 88 f4 bb
       0.07691954 -0.0474829 -0.074101664 -0.007462542

bias f4 [256]
000000 a0 1d 8d bd fd 37 85 bd d7 41 73 3e 6d 15 b6 bd
       -0.06890416 -0.065048195 0.23755585 -0.088908054
000010 38 93 20 3d d6 fb 62 3d c6 b0 a7 bc ed 29 49 3d
       0.0392029 0.05541595 -0.020470034 0.04911225
000020 ea 96 69 bd 12 c0 00 3b 94 1b ad 3d d0 10 81 3d
       -0.05702869 0.0019645733 0.08452526 0.06302035
000030 b5 19 60 be b1 f8 db bc 8c ec f7 3b 3c 23 b0 3d
       -0.21884806 -0.026851984 0.0075660404 0.086004704
000040 db 5e 7c 3d 18 99 25 bd cb 40 4b ba 59 c3 82 3e
       0.0616139 -0.040429205 -0.00077534904 0.25539663
000050 d7 72 48 3e 79 49 d5 3d 18 09 8e be 13 68 18 3d
       0.19575058 0.104144044 -0.27741313 0.037208628
000060 ed fb 5f be d7 7d 08 bd c9 5e 3a 3e b7 e3 3f bd
       -0.21873446 -0.033323135 0.1820022 -0.046848025
000070 a6 d7 27 be 2c 86 b5 bd bc 53 43 3d 4a 40 8b bb
       -0.16390857 -0.08863482 0.047687277 -0.004249607
000080 e4 92 09 3d b6 82 09 be ef 45 16 bd be 0f f3 bd
       0.03358735 -0.13428769 -0.036687788 -0.11868237
000090 ac 53 9f 3d 22 f4 19 3d f1 9c 0f 3e 90 5f 37 3b
       0.07779631 0.03758634 0.14024712 0.0027980544
0000a0 4a 15 2f bd 7b 74 02 be da 03 cc bd 60 2c 37 bd
       -0.042744912 -0.12739746 -0.09961672 -0.044720054
0000b0 2d 91 c9 3d c4 ca 83 be dc 52 6a bd f9 f8 41 3e
       0.09842143 -0.25740635 -0.057207927 0.18942632
0000c0 21 77 75 3c ee b6 85 bd 79 69 14 be 99 9a fd 3c
       0.014982016 -0.06529032 -0.1449336 0.030957507
0000d0 93 91 10 be 9f f0 06 bc 72 f5 3f 3d 22 37 0f be
       -0.14118032 -0.0082360795 0.046864934 -0.13985875
0000e0 21 3a 0e 3d 8b f6 54 3b 3e 48 0c be ff 66 7d 3e
       0.034723405 0.0032495584 -0.13699433 0.24746321
0000f0 4c f4 4d bc 21 03 0a bc 92 d2 07 be 62 e4 d7 bd
       -0.012570452 -0.008423598 -0.1326392 -0.105416074
000100 0d 48 dd bd b1 b2 66 bd ca c0 df ba de 4e d1 3c
       -0.10804758 -0.056322757 -0.0017071005 0.025550302
000110 2e 72 be bd e6 72 02 3e 8c 42 60 bd 55 86 5f be
       -0.09299122 0.12739143 -0.054750964 -0.21828587
000120 a4 05 e8 bc e3 d1 5e 3b 89 2d 84 be 64 13 23 3e
       -0.028323002 0.0033999614 -0.2581599 0.15925366
000130 5d 10 04 3d 93 58 da bd 67 69 68 bb 43 68 cf bd
       0.032242168 -0.106614254 -0.0035463215 -0.10127308
000140 6e f7 a2 bd c6 67 1a bd 33 50 3e 3e ef 14 c2 3d
       -0.0795735 -0.037696622 0.18585281 0.09476649
000150 ca 10 5b 3d 66 8a fd 3c 8d 7c 58 3d b8 de 07 3e
       0.05348281 0.030949783 0.052853156 0.13268554
000160 a7 29 0c be eb f9 57 3e bf c5 ba bd 87 4b b5 3d
       -0.13687764 0.2109143 -0.09119748 0.08852296
000170 a1 fa 58 bd e3 f7 b8 3c 15 8e 32 3d f2 b5 29 3d
       -0.052973393 0.02257914 0.04359253 0.041433282
000180 1e d6 34 bd 95 fb c0 bc ec c7 22 3e 5f 51 f0 bd
       -0.04414951 -0.023557464 0.15896577 -0.1173427
000190 62 09 4e 3e 27 fc d8 3c 7f 4e 3b 3e 7c c1 06 3e
       0.20120767 0.026487423 0.18291663 0.13159746
0001a0 d0 91 7d bb a9 0b 9f 3d 58 f2 53 bd f2 68 38 be
       -0.0038691647 0.07765896 -0.05174479 -0.18008783
0001b0 bb ab 40 3e 4f 8e 6b 3e dd 75 c0 3d 44 5b 83 3b
       0.1881551 0.23003505 0.09397481 0.0040086824
0001c0 71 3b 45 3e eb 05 56 bd 36 32 cc 3c 6d 10 0d 3d
       0.19260956 -0.052251738 0.024926286 0.034439493
0001d0 bf f9 48 bd 01 b1 0a be 8d ec 8e bd a1 c5 3f 3c
       -0.0490663 -0.13544084 -0.06978712 0.011704833
0001e0 8f 8a aa 3d 82 c1 02 3e b8 eb 81 bd fd 02 f3 bd
       0.08327209 0.1276913 -0.06343788 -0.11865804
0001f0 35 c4 e2 bd ea 03 77 3c 34 40 02 be 91 76 f0 bd
       -0.1107258 0.015076617 -0.12719804 -0.11741365
000200 d3 c9 7e 3d cb 20 80 bd 90 91 fd bc 1e fb 16 3e
       0.062204193 -0.06256255 -0.030953199 0.14744231
000210 7d 1a cb 3d ea 7e 1e 3e d6 bc be bc d3 6d a6 bd
       0.099171616 0.15478101 -0.023283403 -0.08126416
000220 ed e7 99 3d b9 40 e2 bd 5c bf 53 bd b1 45 10 be
       0.075149395 -0.11047501 -0.051696166 -0.14089085
000230 a5 61 11 3e af 51 05 3d 2b bc 35 be d1 3f b2 bd
       0.14197405 0.032548603 -0.17747562 -0.08703578
000240 d6 ee ce 3d 90 76 27 bd ac 5d 38 be 03 3b 77 be
       0.10104148 -0.040884554 -0.18004483 -0.24143605
000250 c5 7d dd 3d b9 18 1d 3e bd 79 9f bd 6d 97 8b 3c
       0.10815004 0.15341462 -0.077868916 0.017039979
000260 ea 16 07 be 3f a2 17 be 75 f8 92 3c 03 c7 93 bd
       -0.13192335 -0.14807986 0.01794074 -0.07215693
000270 22 03 2b 3e 60 4e de bd 8a 40 92 bc 00 80 2c bd
       0.16700414 -0.108547926 -0.01785304 -0.042114258
000280 43 91 f0 3d 49 06 8e bd 2e 97 3f bd 89 13 12 3e
       0.117464565 -0.069347925 -0.046775036 0.14265265
000290 d6 3f bc 3c 53 cf a9 3d a7 12 56 be 3e e1 da bd
       0.022979658 0.08291497 -0.20905553 -0.10687493
0002a0 e9 bc 8e 3d 3f 28 1b be fd 9a 60 3d 25 99 58 bd
       0.069696255 -0.15152071 0.05483531 -0.052880425
0002b0 06 fb 0f be c1 7f 3a 3e d9 95 ec 3d 0d 6f b8 3d
       -0.14060602 0.18212797 0.11552019 0.09005556
0002c0 02 14 20 3d d0 76 b0 bd bc a7 6d 3c bc 99 f2 bd
       0.03908158 -0.08616412 0.014505323 -0.11845729
0002d0 88 73 8d bd bb d9 10 bd 68 94 13 3e f9 fe 1a be
       -0.069068015 -0.035363894 0.14412081 -0.15136327
0002e0 27 98 8a 3e 2a d1 08 3b 25 a9 b1 3e fd b7 12 3c
       0.27069208 0.0020876625 0.3469936 0.008954999
0002f0 2a 7b 09 be 76 6e 2f bd eb 4c 24 bc 29 fa 39 3e
       -0.1342589 -0.042829953 -0.010028104 0.18161835
000300 d4 41 be bb a1 42 37 3e 87 f0 5d 3c 39 3d 39 be
       -0.005806187 0.1789651 0.013546116 -0.18089761
000310 a1 a0 b8 3d 33 dc 1f 3e 00 cc 00 be 92 cd 04 be
       0.090150125 0.15611343 -0.1257782 -0.12969044
000320 92 6c 09 3c 3f c0 62 bd ff 58 f8 bd d7 c5 89 3d
       0.008387702 -0.05535912 -0.1212635 0.06727188
000330 8a f4 ec bd f5 5b 8c bd 8a e8 25 3d 48 fe 77 bd
       -0.115700796 -0.06853477 0.04050497 -0.060545236
000340 94 36 cd bd 38 db cb bd 7f bd 14 bd 4e 59 25 be
       -0.100201756 -0.09953922 -0.03631353 -0.16147348
000350 48 1f 13 be 19 56 32 be 6a 31 0f 3e 2e fd 52 3e
       -0.14367402 -0.17415656 0.13983694 0.20604393
000360 a2 47 88 bd 4e 7d 81 bd 2a 73 a5 bc 82 11 85 3d
       -0.06654288 -0.06322728 -0.020196516 0.0649748
000370 8a 4a 87 3e a8 9b 0c bd ce e1 67 3c d0 62 bc bc
       0.26424056 -0.034328133 0.014152957 -0.022996336
000380 9d 78 c9 bd aa 76 10 3d 24 50 57 3e 4d ba 46 3d
       -0.09837458 0.035269417 0.21026665 0.048517514
000390 da ba 5a 3e 30 34 28 3d 83 35 a1 3d a4 e8 24 be
       0.2136034 0.041065395 0.07871535 -0.1610437
0003a0 57 6c c7 bc 58 90 0b bd 3e 49 ad 3d 55 c9 64 3d
       -0.024343653 -0.034073204 0.084612355 0.055856068
0003b0 28 ec 97 bc 37 35 4e be 4d 2d d9 bd 08 f9 9c 3d
       -0.018545225 -0.20137487 -0.106043436 0.076646864
0003c0 58 db e4 3b 8c ea 19 bd 0a fc a4 bd 38 4c 91 be
       0.0069841556 -0.037577197 -0.08055885 -0.28378463
0003d0 0d 93 f8 bd 3c 26 18 3d 5c 80 b2 bd 6e 22 73 3d
       -0.12137423 0.03714584 -0.08715889 0.059359007
0003e0 e4 5d e9 bd f9 11 3f 3e 38 d5 a9 3e d7 28 c4 3c
       -0.11394861 0.186592 0.33170485 0.023945255
0003f0 f8 8b 0f 3d 99 a6 0c bd 3d 56 73 3d 99 52 ee 3a
       0.035045594 -0.034338567 0.059408415 0.0018182575

weight f4 [256, 256]
000000 06 49 6b 3d 02 f6 f1 3d 2b fb 7f 3d b9 9f 06 be
       0.057442687 0.118145004 0.06249539 -0.13146867
000010 2e 3a b1 3d 71 0b aa 3c 36 a9 83 bd cf 46 70 3d
       0.08653675 0.020757409 -0.06428759 0.05866128
000020 bd 9e e3 3d 70 85 bf bd 45 fb e0 ba 14 8b 56 bd
       0.11114261 -0.09351623 -0.0017164728 -0.05237873
000030 e2 2e df 3d 3f 04 35 bd 3f e9 28 bb 9f 02 46 bc
       0.10897614 -0.044193503 -0.002577379 -0.012085586
000040 07 74 3c bd 9c 69 2f bd 8a 1a 6a bd 8c c2 71 bd
       -0.04600909 -0.042825326 -0.057154216 -0.059023425
000050 ba 12 bf 3c 0f 79 82 3d f8 4c ec 3b b2 81 dd 3d
       0.02332436 0.06370746 0.007211324 0.10815753
000060 40 df 0b bc b7 56 66 3d c0 fd 09 3d 8a 61 cf 3b
       -0.008537114 0.05623504 0.03368926 0.0063287662
000070 b1 25 4c bc c3 4a dd bb f0 5d 2c 3d 3e 19 0d 3e
       -0.012460158 -0.006753297 0.042081773 0.1377916
000080 a8 d7 71 bd 18 21 6a 3d 50 e9 ad 3c 84 c8 0e be
       -0.059043556 0.057160467 0.021229416 -0.13943678
000090 d3 94 dc 3d 4a 2a 60 3e d9 e9 c0 3d 98 a7 38 bd
       0.107705735 0.21891132 0.09419603 -0.045081705
0000a0 0a d3 d1 bb 45 4a 96 bc 30 9c 97 bc 8c 21 bd 3c
       -0.0064033316 -0.018345961 -0.018507093 0.023087285
0000b0 6c 26 17 3e e7 c2 21 3d 63 45 6b bd cc a8 03 be
       0.1476075 0.039492514 -0.05743922 -0.1285736
0000c0 32 b1 73 bd 7d 41 95 bd 94 46 32 be 90 0a 17 3d
       -0.05949516 -0.072878815 -0.17409736 0.036875308
0000d0 c9 11 4f bd 60 31 3f 3d 41 42 fe 3c 88 23 ce 3d
       -0.05055407 0.046677947 0.031037452 0.10065371
0000e0 59 35 55 3c 55 48 15 bd 97 b0 30 be e8 a1 e7 bd
       0.013013207 -0.036445934 -0.17254864 -0.11310178
0000f0 c5 13 c7 bd cd 08 11 be 70 b9 d5 bc 51 f4 ec 3d
       -0.097205676 -0.14163513 -0.0260894 0.11570037
000100 07 fb 0b bd 45 9f 2b bd ed 31 db 3b 33 53 0e bc
       -0.034174945 -0.041899938 0.006689301 -0.008686828
000110 13 6d 31 bc 1c 97 be bc 8c b3 15 3c 4e 77 f2 3d
       -0.010829228 -0.023265414 0.009137046 0.11839162
000120 ad 85 56 3a ae 16 a9 3d 3a d1 99 3d d4 ad 8b 3d
       0.00081833714 0.08256279 0.0751061 0.068202645
000130 07 70 4a bc 08 cd 78 bc cf b4 40 3b 5c 49 72 bd
       -0.012355811 -0.015185602 0.0029404645 -0.059151992
000140 25 cb 29 be ea 22 48 3c 98 7f 30 3d a1 6b af 3c
       -0.165814 0.012215355 0.043090433 0.021413626
000150 c7 3d 65 3d 2d 8a d7 bd ee 66 4d 3d 64 cf bc 3d
       0.05596712 -0.10524402 0.05014699 0.09219244
000160 b1 7f c6 3b f6 d8 4c bc d3 d0 62 3c 22 69 77 3d
       0.0060577025 -0.012502899 0.013843733 0.060402997
000170 81 0b 91 3d 95 f7 62 bc 09 46 fe 3c 6a d7 0c 3e
       0.07082272 -0.0138529735 0.031039255 0.13754049
000180 cc 65 5c bd f5 f7 67 3c 89 4d af bd 41 72 d4 bc
       -0.05380802 0.014158239 -0.085597105 -0.025933387
000190 dd 05 b3 bd 74 e8 5c 3b 68 fa cf 3d 9e e8 db 3d
       -0.08741353 0.0033707889 0.10155183 0.107377276
0001a0 ca 2c fa 3d 4e 15 70 bd 1c bc ca bd 42 1d bd bd
       0.12215574 -0.058614068 -0.0989916 -0.09234096
0001b0 a6 ca 80 bd e3 09 25 be b5 a7 25 be 87 3d 57 bc
       -0.06288652 -0.16117053 -0.16177256 -0.013137228
0001c0 9b f1 c3 39 70 24 3e 3d 93 65 88 3c 8f 49 17 3e
       0.00037373308 0.04642147 0.016649997 0.14774154
0001d0 cc c1 83 3d 32 39 0f bd f1 fd f7 bc ba a8 c4 bc
       0.06433448 -0.034966655 -0.030272456 -0.024006236
0001e0 73 aa 7d bd ec 5a 2a 3d 61 95 ba bd 67 4e 45 3d
       -0.06193013 0.041590616 -0.09110523 0.048170473
0001f0 06 9f f0 3b 84 1f 9b 3d b0 c0 b9 3d b3 c7 9c bd
       0.007343176 0.075743705 0.09069955 -0.07655277
000200 d5 67 9e 3c 3f 77 c2 bc 80 c0 11 bc 22 2b f8 3b
       0.01933662 -0.023738502 -0.008895993 0.007573501
000210 38 58 52 3c c5 e1 26 bd 75 8a 3e bc 9c 08 bb 3d
       0.012838416 -0.040742654 -0.01162969 0.091325015
000220 98 3c 2d 3e e5 a1 0f 3d 9e 0a 85 3c c9 20 f5 bb
       0.16917646 0.035066504 0.016240414 -0.007480715
000230 f3 57 df 3b 27 22 57 3d 09 cd 7b 3b a0 df 39 3e
       0.0068159043 0.052522805 0.003842177 0.18151712
000240 d6 1e cc bd 7a 04 5b bc 93 bb 13 be 5c 14 72 3d
       -0.09966819 -0.0133677665 -0.14427023 0.059101447
000250 9c cb 3f 3d 6d 8e 49 bd c7 bc 9e bc 22 53 0d bd
       0.046825036 -0.049208093 -0.019377125 -0.03450311
000260 88 48 66 3d a4 4c a5 bc df bd 1e 3c df 83 60 3d
       0.056221515 -0.020178147 0.0096888235 0.054813262
000270 15 c3 76 bd d2 f8 cc 3d e5 af 12 3d a8 52 56 3c
       -0.06024464 0.10008396 0.035812277 0.01308123
000280 5d c7 a4 bd 49 cc ea 3c c3 17 cf 3b d0 47 86 3d
       -0.08045838 0.028661864 0.0063199713 0.06556666
000290 b5 7b 64 3d aa 1f b7 bd 8a af 9c 3d e6 00 90 bd
       0.05578204 -0.08941586 0.07650669 -0.07031421
0002a0 9d cf 18 3e ec c5 ac 3d 20 8a c2 3d 13 d6 d9 3a
       0.14922948 0.08436188 0.094990015 0.0016619585
0002b0 79 43 24 3d d8 d1 18 bd bb c4 4a bd a3 ee 9c bd
       0.04010341 -0.037309498 -0.049504023 -0.07662704
0002c0 30 ec 4a bc bc f6 14 be da 33 2e 3d 73 df b0 bd
       -0.012385413 -0.14547247 0.04252992 -0.086363696
0002d0 0e d7 04 bc a2 ef e7 3d f8 74 ce bd 4e 63 e8 bb
       -0.008107914 0.11325003 -0.10080904 -0.007091916
0002e0 5a 72 8b be b1 ef bf 3d 48 aa a7 3c 82 6a 27 bc
       -0.2723568 0.093718894 0.020466939 -0.010218265
0002f0 cb f2 70 3d d1 73 96 3d a4 5c 0c 3e a6 47 e7 3d
       0.058825295 0.07346309 0.13707215 0.11292963
000300 2b 25 76 3d a6 5e d2 3d b1 e1 ba 3d ec 91 6b bb
       0.06009404 0.10271959 0.091250785 -0.003594513
000310 67 e0 05 3e 67 23 68 3c 6f d0 77 bc 15 22 06 bc
       0.13073884 0.014168597 -0.015125378 -0.008186837
000320 b8 55 f6 3c 69 3e a1 3c ad 81 d2 bd 65 bb 4d 3c
       0.03007017 0.01968308 -0.1027864 0.012556885
000330 b1 27 c2 bb e2 d9 93 3d f6 81 4a 3d 23 a4 06 3d
       -0.0059251417 0.07219292 0.049440347 0.032871377
000340 55 b5 8d bd c2 80 39 bd fd b1 41 3d 1e 75 72 bd
       -0.06919352 -0.04528881 0.047288883 -0.059193723
000350 28 12 a5 bd 5c 36 03 bd 36 54 cc 3d 72 a0 d7 bd
       -0.08060104 -0.032034263 0.099769995 -0.105286494
000360 3a aa 3b bc e4 9b 10 bd ea 67 87 bc 2b 43 1d bc
       -0.011454159 -0.03530492 -0.016529042 -0.009598534
000370 55 e4 60 3d 1c 55 6c 3d a2 b3 c9 3c a5 8a 5c bd
       0.054905254 0.057698354 0.024621788 -0.05384316
000380 49 9f 36 bd 24 fd 07 bd 82 f5 1c 3d 70 29 35 bc
       -0.0445855 -0.033200398 0.038320072 -0.011057243
000390 98 57 df 3d c3 6e b5 bd 0e 2b 96 bd 75 72 f4 3c
       0.10905379 -0.08859017 -0.07332431 0.029839734
0003a0 46 1f 97 bc 7c 32 46 3c be 13 0e 3d 81 b5 88 bc
       -0.01844753 0.012096997 0.034686796 -0.01668811
0003b0 27 98 54 3d 72 27 77 3c d4 40 8b bd be 6f 27 3e
       0.051902916 0.015085088 -0.06799474 0.1635122
0003c0 73 2c 61 3e 04 c7 e9 bd db bd 3d 3d ef d0 a6 bd
       0.21989612 -0.11414912 0.04632364 -0.0814532
0003d0 f9 93 c7 bd ac 2c 62 3d d9 c4 3d bd 3e bc 98 bd
       -0.097450204 0.055218384 -0.046330307 -0.07457779
0003e0 e5 75 92 bc be 7b ac bd 71 d4 1f bd d0 8c 1c 3c
       -0.017878482 -0.084220394 -0.03902096 0.009555057
0003f0 e9 10 95 3c 1d c6 f9 3a a9 0a 47 bd 0d 59 ab 3d
       0.01819654 0.0019056235 -0.04859415 0.083665945

bias f4 [256]
000000 63 b9 44 3d 99 94 c2 3c 8d e2 b5 bc 9f c2 2e 3c
       0.04802836 0.023752498 -0.022202754 0.0106665185
000010 ff f7 29 3a 8b 82 61 3e 8e 55 02 3e 95 23 ce bd
       0.00064837927 0.22022454 0.12727949 -0.100653805
000020 0c 75 5c bd 4f 35 06 3e 82 f7 18 be 9d ce 8a bd
       -0.053822562 0.13106273 -0.14938167 -0.067776896
000030 9a 30 92 bd fd 7c b6 3d 25 d4 7b bd bb 8c 31 be
       -0.07138176 0.089105584 -0.061481614 -0.1733884
000040 af aa 2c 3e a0 d2 5d 3d ef 7b 2d 3c 46 d5 d4 3c
       0.16861986 0.054155946 0.01058863 0.025980603
000050 49 77 18 bd f6 a4 cb 3d cd 8a 84 3d 3b 62 30 3d
       -0.037223134 0.09943573 0.06471787 0.04306243
000060 d0 77 3f bc 66 51 49 bd 53 d4 01 3e 0a b3 b8 bd
       -0.01168628 -0.049149893 0.12678652 -0.09018524
000070 cc 64 10 bd a9 ee 3d bc f9 01 b5 3c df 75 2e bd
       -0.035252377 -0.011592546 0.022095667 -0.04259288
000080 f2 39 b1 3d bb 5e 9c 3d 34 7a 6c bd 60 17 06 bd
       0.0865363 0.07635256 -0.05773373 -0.032737136
000090 ff d2 5a 3e 0e 13 34 3b 4c 8b d6 bd 06 08 1f be
       0.21369551 0.0027477178 -0.104757875 -0.15530404
0000a0 5f c9 16 be a8 9d 75 3c 73 be 44 be 3c 41 0f 3d
       -0.14725254 0.014991201 -0.19213276 0.03497432
0000b0 10 64 53 3e 02 02 b0 bc cd a7 c6 bd ab 5e 6c 3d
       0.2064364 -0.021485332 -0.09699974 0.05770747
0000c0 5a 23 d1 ba 06 83 89 3d e2 0f 8c 3e bf 22 b2 3d
       -0.001595597 0.06714444 0.27355868 0.086980335
0000d0 68 cd cd 3d 2c 59 3c 3d 12 dc 68 3d c1 8f 1f 3d
       0.10048944 0.04598348 0.0568505 0.038955454
0000e0 4d 5c 4b 3e 28 92 d8 bd 4a f3 aa 3d be 89 d7 3c
       0.19859429 -0.10574752 0.08347185 0.026310798
0000f0 fb 60 fd 3b b7 3a 9e 3d 84 b2 aa 3c e2 1c 9c bd
       0.0077325082 0.07726043 0.020837076 -0.076226965
000100 a7 7f 9b 3d b6 75 28 bd 4a 13 3f be 68 53 67 bc
       0.07592707 -0.041127883 -0.18659702 -0.014119007
000110 4d f1 55 bd 95 63 02 3e 3e 3a 59 3e 1d a0 82 bd
       -0.052232075 0.127333 0.21213624 -0.063781954
000120 00 f7 a1 bd 2a 53 60 bd 53 4e c4 bd f9 ca 96 bc
       -0.0790844 -0.05476681 -0.09585252 -0.018407332
000130 76 4e 8d bd 73 b3 13 3d 09 c5 c2 bd 4b c8 4c 3e
       -0.06899731 0.036059808 -0.09510238 0.1999828
000140 10 23 2f be c3 62 ea bd b5 7f 6f 3d 18 db 85 3d
       -0.17103219 -0.114446186 0.0584714 0.065359294
000150 09 d3 41 bd 8b ce 96 bd b4 c0 a7 3d f2 4e 22 3d
       -0.0473204 -0.07363614 0.08191052 0.03962607
000160 33 a8 4e 3d 78 8c e7 bd 0a cd d0 bc 32 1e c7 3c
       0.050453376 -0.11306089 -0.025488395 0.02430639
000170 e5 3f 87 bd a0 43 45 bc 4c af 88 bb 55 f2 f7 3d
       -0.06603984 -0.012040049 -0.0041712876 0.12106768
000180 a1 7d dc 3d 19 40 fe bd fe fa 5c be 24 b0 89 3c
       0.10766149 -0.124145694 -0.21580121 0.016807623
000190 0a 7b 12 3e 79 d1 ac 3d f2 a4 10 bd fa 7c 1d 3d
       0.14304748 0.08438391 -0.035313554 0.038449265
0001a0 ff f2 53 3c b6 d3 04 bd 81 b9 22 3c f9 75 80 3c
       0.012936353 -0.032428466 0.009931923 0.015681254
0001b0 80 d4 63 3d b6 ef 24 3c aa 67 54 3d d8 ac 84 3e
       0.055622578 0.010066917 0.051856674 0.2591312
0001c0 75 5c 2f be 26 90 5d 3e 40 9e 36 bd c5 64 bf 3d
       -0.17125113 0.2163702 -0.044584513 0.09345392
0001d0 0b 72 0b bb d1 c2 01 3d 69 bb fd bc 95 99 05 be
       -0.0021277692 0.031679932 -0.030973153 -0.13046868
0001e0 9c 58 60 bd 4c 05 70 3d 96 c1 94 3c 2f d1 be bc
       -0.054772004 0.0585988 0.018158715 -0.023293106
0001f0 5d 28 89 3c ad 1c 47 3d 31 da 63 3e db 43 5e bd
       0.01674288 0.04861133 0.22251202 -0.05426393
000200 10 0b 19 3e 49 a6 aa bd bf 63 0b 3e 4d 53 be bd
       0.14945626 -0.083324976 0.13612269 -0.09293232
000210 bc 22 d4 bd 0f 5f 86 3d a8 7c 65 be b5 e9 78 3b
       -0.103581876 0.065611 -0.22410834 0.0037981097
000220 35 69 5f 3c c8 8b bc bd ff 76 ad 3d 11 fd 13 be
       0.013635923 -0.09206349 0.08469962 -0.14452006
000230 a5 d6 8d 3d b3 03 9f bc c1 ef f6 3d 80 51 4e 3d
       0.06925706 -0.019410944 0.12057448 0.050370693
000240 58 a1 85 3e 00 93 d2 bd aa d8 80 3d 07 53 d8 bb
       0.26099658 -0.10281944 0.062913254 -0.0066016945
000250 b2 f5 f6 bd f7 27 af bc 0a dc 8c 3d a7 50 7d 3d
       -0.120585814 -0.021381361 0.068779066 0.061844494
000260 d3 23 40 bd 43 ef 84 bd eb e1 0a 3d c3 7d 44 3e
       -0.046909165 -0.06490948 0.03390686 0.191886
000270 e6 21 3d bd 43 cf a3 bd 79 bd 7a bd 11 31 d8 bd
       -0.046174906 -0.079985164 -0.06121585 -0.10556234
000280 2b 2c be 3d 18 09 3b 3e 97 cd ba bd ab b0 2f 3e
       0.09285768 0.18265188 -0.091212444 0.17157237
000290 9e 6d ca bc 8c 68 72 3d 16 0b 83 3c c8 98 ba 3d
       -0.024710473 0.059181735 0.015996497 0.09111172
0002a0 39 85 d4 bc 51 53 cf bd 64 5c c7 3c 91 d5 a7 3d
       -0.025942432 -0.10123313 0.024336047 0.081950314
0002b0 8d d7 a8 bd fd d9 43 bd c4 77 ae bc d3 c9 d8 3d
       -0.08244238 -0.04781531 -0.021297343 0.1058537
0002c0 37 31 ff 3b df dc 49 3d 46 0f 20 3e 75 08 36 3e
       0.0077878493 0.049282905 0.15630826 0.17776664
0002d0 af 04 8b bd 30 9c 22 3c ec 6d cc bd bd 7b 38 be
       -0.06788003 0.009924933 -0.099819034 -0.18015952
0002e0 1b a4 3e bd 45 fe e6 bd 4d fd bc 3d ae 18 a7 3c
       -0.046543222 -0.11278967 0.09228001 0.02039751
0002f0 1f a4 4a 3d 24 c1 bc bb fc 45 13 3d ec a5 09 3e
       0.049472924 -0.005760329 0.035955414 0.134422
000300 45 78 1c be 6d ed 92 3c c2 d0 b5 3d 59 f6 ac bd
       -0.15280254 0.017935479 0.08877708 -0.084454246
000310 27 20 2f bc 41 75 2b 3d 95 b6 43 bd 44 bd 62 bd
       -0.010688818 0.04185987 -0.047781546 -0.05535628
000320 59 32 b1 3c b8 51 35 3d 2e 51 09 3d bb d8 8f 3d
       0.021630453 0.044267386 0.033524685 0.0702376
000330 64 9a 9a 3d b8 54 bf 3d 7a e3 d3 3d a7 af 00 3d
       0.07548979 0.09342331 0.10346122 0.031417515
000340 2f 1b b6 3c e9 ff 8c bd 47 04 c0 3d d9 df 8c 3c
       0.022229759 -0.068847485 0.09375816 0.017196583
000350 29 fc ec bc f8 47 fe 3d 94 3f 11 bc 64 58 1d 3e
       -0.028928833 0.12416071 -0.008865256 0.1536575
000360 cd 28 a4 3d 94 23 5a bc 3a d5 43 3d db 46 90 3e
       0.08015595 -0.013314147 0.04781077 0.28179058
000370 57 0e b8 3c 60 03 a6 bd fc 02 7c 3d aa 21 62 3d
       0.022467775 -0.081061125 0.061526284 0.055207886
000380 58 3a 6d bd dd ca e3 bd 0c b9 8b bc e2 eb f7 3d
       -0.05791697 -0.111226775 -0.01705601 0.12105538
000390 d4 74 76 3c 3f 8c aa 3d 11 df 85 3d 16 a2 b8 3d
       0.015042502 0.08327531 0.06536687 0.090152904
0003a0 a5 68 28 bd 2c 60 22 3d 46 21 e1 bd c7 4e 91 bb
       -0.04111542 0.039642498 -0.109926745 -0.00443444
0003b0 47 20 d0 bc a1 e1 a3 3d ee 96 0f 3d 46 a9 2a bd
       -0.025406016 0.0800202 0.035056047 -0.041665338
0003c0 73 0d d9 bc da 47 5f bd a4 5a 23 3e 19 4f ed 3d
       -0.02649567 -0.054511882 0.15952545 0.11587352
0003d0 cc fc 91 bd ae 72 88 3d db e9 aa 3d fe 08 aa 3d
       -0.07128295 0.066624984 0.08345386 0.083024964
0003e0 47 12 84 bd 8c e2 9f bd 07 7d ef 3d 9d e3 68 3d
       -0.064487986 -0.07806882 0.11693769 0.056857694
0003f0 f9 99 2e 3d d3 3a 1c bd 77 95 c1 bd b3 f4 98 3d
       0.04262731 -0.038142037 -0.09452336 0.07468548

weight f4 [256, 256]
000000 dd 1a d0 bb 4c 14 c9 3b 93 9d 04 bd 4d 92 80 3c
       -0.0063508586 0.006136453 -0.032376837 0.015694762
000010 b7 55 c8 bd bf 54 65 bd 27 16 31 3c e5 79 4e 3d
       -0.09781974 -0.055989023 0.010808504 0.050409216
000020 9f 39 dd 3c bd 94 5f bd c0 b8 02 bd f0 05 bc 3c
       0.027005015 -0.054585207 -0.031914473 0.02295205
000030 fc 07 8a 3b 87 e6 2f bd 79 8b f3 bb 22 fe a3 3c
       0.0042123776 -0.042944457 -0.007432398 0.02001864
000040 c2 66 61 3e a7 aa e4 bc 1f 35 23 bc 13 f9 4b 3c
       0.22011855 -0.027913405 -0.0099613955 0.012449521
000050 48 4c dd 3d e8 77 0a be d4 5d de bc 27 a6 dc bc
       0.10805565 -0.13522303 -0.02714435 -0.026934696
000060 6e 37 77 bb 33 87 43 3d 95 3d 7e 3d 78 bb 13 bc
       -0.0037722248 0.047736358 0.062070448 -0.009016864
000070 f2 e9 6f bd 27 91 82 3d b6 54 b3 bc 03 05 40 bd
       -0.058572717 0.06375342 -0.02189098 -0.04687978
000080 70 8c 40 3d fb 25 05 bd 42 7c 55 bd c4 60 af 3c
       0.04700893 -0.032506924 -0.052120455 0.021408446
000090 8b 20 20 bd cb f0 81 bd d5 8c 27 bd 04 44 39 bd
       -0.039093535 -0.06344756 -0.040905792 -0.04523088
0000a0 f7 d9 2a 3c 22 23 ac 3c 8c 32 d7 3b c2 3e 7f 3d
       0.010427943 0.021012846 0.006567305 0.06231571
0000b0 85 29 34 bd f0 63 0c bd df 2f ad bc 5f 4b 4d bc
       -0.04398491 -0.034274995 -0.02114099 -0.012530177
0000c0 12 c7 37 3c 06 6a 09 3c 8e c8 1d bb 9f 82 9b 3d
       0.011216896 0.008387094 -0.0024075839 0.07593273
0000d0 26 2f 58 ba 71 bd bd bb a2 cd 87 3c 76 7b 31 3d
       -0.0008246772 -0.0057904054 0.016577546 0.043330632
0000e0 7d 5c b3 3c 8c da ce 3c 39 e2 1c bd 57 b2 f1 3d
       0.021894688 0.025250696 -0.03830168 0.11801594
0000f0 af 8f 87 bc 44 da 72 3c b9 79 60 bc f1 63 42 bd
       -0.016548006 0.014822546 -0.013700896 -0.047458593
000100 36 ce 0c bc d7 ae 22 3d f1 f3 40 3d 68 2f 29 3c
       -0.008594086 0.03971752 0.04710764 0.010326244
000110 21 87 ad 3c d1 84 d5 3c 95 00 79 bd cd 9e 34 3c
       0.021182599 0.026064308 -0.06079157 0.011024189
000120 a7 33 6a 3c 7a 3c 02 be b7 a6 17 3d 5b 59 23 3d
       0.014294541 -0.12718382 0.037024226 0.039880138
000130 8e 4d e3 bd 1d 72 ae bd 83 e2 34 bd 47 8b 86 3d
       -0.11098777 -0.08517859 -0.04416133 0.06569534
000140 6d 78 67 bd db 18 5b 3b 93 bc 80 3c 82 e2 a5 3b
       -0.05651133 0.0033431563 0.01571492 0.005062402
000150 90 fc 53 3d 13 e0 8d 3d 74 be 8c 3d 38 93 87 bd
       0.051754534 0.069275044 0.068722636 -0.066198766
000160 6c 42 d5 bb 70 a4 31 bd fb cd 0c bd 66 55 b3 3d
       -0.0065081622 -0.04336971 -0.034376126 0.08756523
000170 b5 0b 0f bd e8 c2 50 bd 64 7e 4d bd 98 5e 4d 3d
       -0.034923274 -0.050967127 -0.050169364 0.05013904
000180 f6 38 ea bd 31 9b 08 bc 5e 8f ba 3c 83 07 aa 3d
       -0.11436646 -0.008337782 0.02277344 0.08302214
000190 7f 42 c4 3c e6 9f 6f bb b8 3d 1f be bb 07 5d bc
       0.023957489 -0.0036563813 -0.15550888 -0.013490613
0001a0 06 0d 78 bd b0 e7 34 bd b6 99 4e bc f3 d7 00 3d
       -0.060559295 -0.044166267 -0.01260989 0.031455945
0001b0 cc 84 6f 3d 19 c6 ca 3c e2 19 05 bd 95 47 09 ba
       0.058476254 0.024752663 -0.032495387 -0.0005236802
0001c0 2f 22 63 bd 46 a0 d2 39 4e 9b 53 3d 83 75 7c 3c
       -0.055452522 0.00040173734 0.051661782 0.015408876
0001d0 57 85 43 3d 60 a2 a6 3d 9a 7f a3 ba 37 94 ca bd
       0.047734585 0.08136439 -0.0012473941 -0.09891551
0001e0 a5 ab 2b 3c 0b c7 ac bd 66 56 23 bd 46 be 93 3d
       0.010477935 -0.08436402 -0.039877318 0.07214026
0001f0 4c 00 de 3c f5 8a 9c 3d 6f 1f 66 bd 84 f9 30 bd
       0.027099751 0.076436915 -0.05618232 -0.043206707
000200 b4 a5 a1 3d 2b f8 ae bd e1 1f e6 bd 59 d7 23 bd
       0.078929335 -0.08543428 -0.11236549 -0.040000293
000210 39 4e 0f 3d 50 b8 94 3d 7f 42 f3 3c 7f 9a fb bb
       0.03498671 0.07261717 0.029694794 -0.0076783295
000220 df e5 d4 3c 9e 8d 63 bd 6a e8 4e 3d 38 45 45 bc
       0.025988517 -0.05555498 0.050514616 -0.012040429
000230 5e 94 2d 3d 6f 25 2c bd 0c e1 f6 bc 08 21 7d 3c
       0.042377822 -0.042027887 -0.030136608 0.01544977
000240 3e 1c fc bc 20 a4 c7 3d 3b 84 bb bd ec 34 ae bc
       -0.030775186 0.09748101 -0.0915608 -0.02126547
000250 02 25 07 bd 3a 2a ab bc 73 1c 34 3c cf 2c a5 bd
       -0.032994278 -0.020894159 0.010993111 -0.08065187
000260 12 88 5a bd 7e 52 10 3d 95 7a 8c bc 4c 41 c7 3c
       -0.053352423 0.03523492 -0.017148295 0.024323128
000270 ff af cc 3d 74 40 a2 3d 1f 3a 5a 3d 01 37 22 3d
       0.09994506 0.0792245 0.053278085 0.039603237
000280 c0 a5 6a bb 3e 4d c5 bc f5 69 02 bd cb f2 8c ba
       -0.003580436 -0.024084684 -0.03183933 -0.001075351
000290 11 7e 18 3d 5f 59 3c bc 01 af b8 3c 7b 47 0a bd
       0.0372296 -0.011495917 0.022544386 -0.033759575
0002a0 73 ec 4f 3d 86 af 2f 3e fa e0 ac 3d d9 52 ae bc
       0.050762605 0.171568 0.084413484 -0.02127974
0002b0 7f 54 cd bd 9d 7f a2 3c f4 58 56 bd 90 20 cb bc
       -0.10025882 0.019836241 -0.052330926 -0.0247958
0002c0 cc db a4 bd 1e 9a d0 3c b7 49 22 3c 4e c5 54 3c
       -0.080497354 0.025464114 0.00990527 0.012986494
0002d0 47 98 09 3e b3 e6 57 bc c6 1a 47 3d f3 e2 8a bc
       0.13436995 -0.013177562 0.048609518 -0.016953921
0002e0 53 14 3f 3a 9d 1c 52 be 95 ac be bc aa b5 41 3d
       0.00072891003 -0.20518728 -0.023275653 0.04729239
0002f0 6b 30 b1 bd 25 a3 09 3c 89 e8 ed 3c a4 bf d6 bd
       -0.08651813 0.008400713 0.029041545 -0.10485771
000300 93 4d 9b be 72 46 d1 3d 7b 16 99 bc 5e fc c2 bd
       -0.30332622 0.102185145 -0.018687477 -0.095207915
000310 c7 56 c4 3d 1d 4d ca 3d 3e e7 0d bd e6 84 9e bd
       0.09586864 0.098779894 -0.034644358 -0.07740192
000320 4f 88 1f 3e c7 e1 d4 3c 75 bb 7c 3d 51 73 43 bd
       0.15579341 0.025986565 0.06170221 -0.047717396
000330 3f 78 14 bc 9d a3 16 bd 67 54 77 3d ca 49 28 3c
       -0.009061872 -0.036777128 0.060383227 0.010271499
000340 f3 d4 3c bd 18 c1 8d bc 87 db 3d bd 85 b8 76 bc
       -0.04610152 -0.017303988 -0.046351936 -0.015058641
000350 6c 21 27 3c 95 c9 17 bd 98 09 29 3d 33 7a 7f bc
       0.0102008395 -0.037057478 0.041268915 -0.015593099
000360 80 8a 88 3d 1b 16 cf 3c 93 d8 7f bd 7d f9 9e bc
       0.06667042 0.025279095 -0.0624624 -0.019406075
000370 32 50 59 bc 8f a0 ec bd 67 de 59 bc 96 44 cf bc
       -0.013263749 -0.115540616 -0.013297654 -0.025301259
000380 b2 f2 0a 3d 3e db 47 bc 33 41 2f 3d 21 8e 33 3d
       0.03392286 -0.0121982675 0.04278679 0.043836717
000390 d8 c1 5a 3d e3 74 82 3d bb 05 02 be 6f 01 f6 3c
       0.05340752 0.063699506 -0.12697499 0.03002998
0003a0 2b 3f 02 bd ff 99 73 bc b5 6a 17 3d 20 3a e8 3d
       -0.031798523 -0.0148682585 0.036966998 0.113392115
0003b0 a2 da 38 3e 55 a5 bc 3c 38 82 20 3d e9 ed 93 3e
       0.18052152 0.023028055 0.039186686 0.2889245
0003c0 7a 73 f8 3b 9a 7d a3 3d ea 30 a2 bc 6b 05 10 bc
       0.0075821253 0.07982941 -0.019798715 -0.008790354
0003d0 a5 ca a0 bd 96 ec 65 3c 3b 7b 88 bc c4 c5 c9 bd
       -0.078511514 0.014033457 -0.016660323 -0.09852174
0003e0 bc c2 89 3d 12 71 1e bc 96 bb 13 3c 91 75 39 bd
       0.06726596 -0.009670513 0.009016892 -0.045278136
0003f0 7d 78 3d bd 90 d7 d5 3d 99 25 dd 3d a4 ac 05 3d
       -0.046257485 0.10441506 0.10798187 0.032635346

bias f4 [256]
000000 12 33 1b be a5 f5 f0 bd 83 5d 3e be d7 d0 d6 3d
       -0.151562 -0.11765603 -0.1859036 0.10489052
000010 f2 d8 c8 3d 2f 47 55 be 0f e1 44 bc fc 74 19 be
       0.09807004 -0.20827936 -0.012016549 -0.14986032
000020 11 92 1b be 23 ec 44 3e e5 dc 34 be 21 1a 23 3e
       -0.15192439 0.19230704 -0.1766239 0.15927936
000030 a0 e2 2e be c0 f1 80 be 63 69 67 3e 90 2f 01 3d
       -0.17078638 -0.2518444 0.22598796 0.0315395
000040 04 6e c1 bd 56 46 95 bd 84 8a 0a 3e 2c c0 16 be
       -0.09444812 -0.07288806 0.13529402 -0.14721745
000050 ed d3 e2 3d 1a 5c 95 3e 49 1c 93 bd b4 de 87 be
       0.11075578 0.2917183 -0.07183129 -0.26537097
000060 75 cb 37 be e7 8e b6 bd ba bf 44 3e a6 e3 85 3e
       -0.17948706 -0.08913975 0.19213763 0.26150244
000070 9f 00 35 3e d6 22 b2 bd 30 41 0b be b5 a1 42 be
       0.17676018 -0.08698051 -0.13599086 -0.19006999
000080 a5 37 21 be c4 4c 74 3b 0f 4f ad bd af 76 7b 3e
       -0.15743883 0.0037277201 -0.08462345 0.24556993
000090 1b 0b 95 3c aa 10 ab bc a8 fd b0 bd 3a 8a 07 be
       0.018193772 -0.02088197 -0.08642131 -0.13236323
0000a0 23 be 36 3d 1a 94 23 3e c3 7b e1 bc a6 7f 2f bd
       0.044614922 0.15974465 -0.027524834 -0.042846344
0000b0 19 77 9c 3e 88 50 82 bd e0 2a 09 3e 96 af 17 bd
       0.30559614 -0.06363016 0.13395262 -0.037032686
0000c0 b5 f8 c6 bd 80 f4 7e be fc 13 96 bd f8 f9 85 bd
       -0.09715406 -0.24897957 -0.073280305 -0.065418184
0000d0 f1 d9 62 3e 40 a6 4d be aa 83 c7 3d 38 22 71 bd
       0.2215345 -0.2008295 0.0974191 -0.058870524
0000e0 5d f5 74 be 6e bd 49 3d aa 3a 25 bd ab 23 ab 3d
       -0.23921724 0.04925292 -0.04033915 0.083564125
0000f0 92 88 2c 3e b6 db a6 bd 7d b6 b7 3d 14 b5 4a be
       0.16848972 -0.08147375 0.08970354 -0.19795638
000100 e9 1b 0d 3e e7 0b 43 bd 7c 3a 7b 3e 05 0c 97 3d
       0.13780178 -0.047618773 0.24534029 0.073753394
000110 78 c7 8e bd ca 31 1d be ec c0 b3 3e 64 2a 0b bb
       -0.069716394 -0.15351024 0.35108125 -0.0021234984
000120 10 a7 c3 bd 89 79 0c 3e 16 be c2 bd 09 13 3a be
       -0.09553349 0.13718237 -0.09508912 -0.18171324
000130 6c 3e 8f be 7d f7 a2 be 01 6e ad bd 0c f3 1d 3e
       -0.27977312 -0.31829444 -0.08468247 0.15424746
000140 98 a7 5a bd e5 96 47 3e 3d 1a b1 bc 2f e5 74 3e
       -0.053382486 0.19491155 -0.021618957 0.23915552
000150 7c a7 c2 bd c4 b8 60 3e 4c 7a dd bd 39 96 81 3e
       -0.09504601 0.21945482 -0.10814342 0.25309923
000160 2b a7 b0 bd d1 f2 c1 3e 96 96 74 bd 3f 47 e7 3d
       -0.08625635 0.37880567 -0.059713922 0.11292886
000170 ae df 13 3e 5f 80 dc bd a3 fb 0d 3e a0 de 16 be
       0.14440796 -0.10766672 0.13865523 -0.14733362
000180 54 1e 34 3e 72 56 8c bd 69 66 ad 3e ef f2 fd bb
       0.17589694 -0.06852426 0.33867195 -0.007749907
000190 36 b6 71 be f4 42 8c bd c4 67 9b be 5a 2a 6c be
       -0.23604664 -0.06848708 -0.30352604 -0.23063031
0001a0 4a c5 b7 3d 66 c6 ef bd f8 70 fb 3c 8a 58 3c be
       0.08973177 -0.117077634 0.030693516 -0.1839315
0001b0 5d 8a 92 3d 67 2b 0c be d9 67 ef bd 30 bc 7d 3e
       0.07155297 -0.13688432 -0.11689729 0.24778819
0001c0 a5 51 3f bd 80 e3 2c be 55 5d 45 bd cb ce 37 3e
       -0.04670872 -0.1688366 -0.04818471 0.17949979
0001d0 ea fb fc bd 41 09 4a bd d7 e7 01 3d 1a dc 8f bd
       -0.12352736 -0.04932523 0.03171524 -0.07024403
0001e0 7a e7 37 be 86 60 5e 3e 3e 5e 5b 3e 83 b2 d2 bd
       -0.17959395 0.21716508 0.2142267 -0.10287955
0001f0 b3 8f 6b 3e fb 3f 59 bd d3 5a d8 bd 2c 24 d7 bd
       0.23004036 -0.053039532 -0.10564198 -0.10504946
000200 08 ff f7 3d 38 45 a7 3e c7 91 31 bd dd 22 05 3e
       0.1210919 0.32669997 -0.043351915 0.1300158
000210 2d a4 28 bd 8c f6 c0 bd 0a c9 23 bc 96 17 5d 3d
       -0.041172195 -0.09422025 -0.009996662 0.05397757
000220 54 da ee 3d eb 9b 3d be 91 a1 17 be 4d 62 74 3e
       0.116627365 -0.18516509 -0.14807726 0.23865624
000230 74 b6 70 3d b9 fb 4a be c1 ee 63 be 70 8d 71 3e
       0.05876775 -0.19822587 -0.22259046 0.2358911
000240 d2 85 2c 3e 97 5f 58 bc c9 2d b2 bd f6 4e 94 be
       0.16847923 -0.013206384 -0.08700139 -0.28966492
000250 ce dc 9e bd 38 07 f5 3d 0f b2 d6 bd de 8f 55 bd
       -0.07756959 0.119642675 -0.10483181 -0.052139156
000260 a2 eb 0e be a4 4e 39 be 71 c8 26 be 17 c0 6d 3e
       -0.13957074 -0.18096405 -0.162874 0.23217808
000270 ad a6 78 be 52 26 04 3e c3 df 9f 3e 70 7b 12 bb
       -0.24282332 0.12905243 0.31225404 -0.0022351407
000280 fb 29 dc bd 47 0a 6b be 05 d7 b8 bd e8 ec 1a be
       -0.10750195 -0.22953139 -0.09025387 -0.15129435
000290 19 eb 40 3e 55 5e 52 be 8a 05 88 3d 16 b1 8d 3d
       0.18839683 -0.20543797 0.066416815 0.06918542
0002a0 a6 9f b0 be 37 f8 74 3d 3b 01 7b bd 23 10 95 3e
       -0.34496802 0.05980703 -0.06128047 0.29113874
0002b0 21 13 b5 bc e9 6d 26 be 46 23 86 bd b4 52 1f 3e
       -0.022103848 -0.16252865 -0.065496966 0.15558892
0002c0 f6 9a 93 3e 1a a9 44 bd 00 52 01 be 79 4e 2a 3e
       0.28829163 -0.04801283 -0.12628937 0.16631497
0002d0 cf 97 8f 3e 8b 84 5a 3e be 7b 96 3e d6 af 20 be
       0.28045508 0.21339624 0.29391283 -0.15692076
0002e0 48 0d e4 bd 5d c4 81 3d e9 3e f6 3d 1d 32 92 be
       -0.11135346 0.063362814 0.12023718 -0.28553858
0002f0 31 8f ca 3d b6 77 2d be f8 cf 6a 3e 2a 26 91 bd
       0.09890593 -0.16940197 0.22930896 -0.07087357
000300 2d 5b 39 be e1 9b 9a 3e 20 70 40 3d 9d fd d2 3c
       -0.18101187 0.3019705 0.04698193 0.025755698
000310 3d 39 00 3e c2 29 78 be be 5b 39 be c5 9b 41 be
       0.12521835 -0.2423468 -0.18101403 -0.18907078
000320 3b d0 0d be 06 65 8d 3d f8 85 88 be b9 0b 7d be
       -0.13848965 0.06904034 -0.2666471 -0.24711503
000330 fb c2 ad bb 7c 98 53 bb 23 5c 7a 3e fe 6d a9 3d
       -0.0053027845 -0.0032286933 0.2444921 0.082729325
000340 26 36 4f be 1b 77 2a 3d d4 bd 04 3e 15 55 d7 3c
       -0.202355 0.041617494 0.12963039 0.026285687
000350 49 a2 82 3e 2c 75 80 bd 7d c8 54 be bc 44 8e 3e
       0.2551444 -0.06272349 -0.20779605 0.27786815
000360 39 fa 1e be 35 7c f1 bd 17 64 2c 3e 7c 57 83 be
       -0.1552514 -0.11791269 0.16835056 -0.25652683
000370 54 05 31 3e c9 65 11 bd 19 ad 91 3e 4b f3 0f 3e
       0.17287189 -0.03549746 0.28452376 0.14057653
000380 b7 ca 86 3e 8a 88 de 3a 09 0a 08 3e 8d c5 b0 be
       0.26326534 0.0016977948 0.13285078 -0.3452572
000390 62 c2 90 be 58 d1 8e bd 87 29 3f 3e 24 97 a9 be
       -0.28273302 -0.06973523 0.18668185 -0.33123124
0003a0 46 7b 57 3e 23 56 2f bd d1 a8 90 3a 47 da 7c 3e
       0.21043119 -0.042806756 0.0011036639 0.24692641
0003b0 3d f5 78 3e 2e 8f aa 3e 7f 69 7d bd 37 21 08 be
       0.24312301 0.33312362 -0.061868187 -0.1329392
0003c0 ac b0 80 3e 26 01 57 3e 00 3d 10 be 51 69 91 be
       0.2513479 0.20996532 -0.1408577 -0.28400663
0003d0 d0 1f 55 3e 4f 63 42 be 26 79 a7 3d 59 0b 19 3e
       0.20812917 -0.18983196 0.08177404 0.14945735
0003e0 ce b6 44 be a7 cb 9b 3e 4b 82 aa 3c 33 48 45 be
       -0.1921036 0.30428812 0.020814082 -0.19265823
0003f0 ad b6 5f 3e be a0 0c be c2 38 9d 3b 87 66 65 be
       0.21847029 -0.13733193 0.004798026 -0.22402392

weight f4 [60, 256]
000000 15 49 d1 bc df b2 23 bc 33 05 26 3c fa 7d 52 bc
       -0.025547544 -0.009991377 0.0101330755 -0.012847418
000010 01 44 3c 3c ba 1b b0 bc 69 b8 9e bb 38 92 46 bb
       0.011490823 -0.021497596 -0.0048437607 -0.0030299556
000020 a1 cc cd 3c 38 6e 2b 3d 53 61 06 3d 63 d4 ed b9
       0.025121989 0.04185316 0.03280766 -0.00045362403
000030 59 eb d9 bb f8 1e cd 39 58 b6 cc 3c 9a 36 23 3c
       -0.00665037 0.0003912372 0.024989292 0.0099617485
000040 f3 dd 59 3c 09 f3 bd bc ac 85 13 3d fc 6b 4a bc
       0.013297546 -0.023187177 0.03601615 -0.012354847
000050 70 a5 4d 3c f5 37 1b 3d 22 75 a2 3b c5 c6 8a bc
       0.01255165 0.03789516 0.004957811 -0.016940484
000060 1b 9f 20 3c 94 09 ac bb 11 ce 5f 3c 0d 7a a7 bc
       0.009803559 -0.0052501652 0.01365997 -0.02044394
000070 6d 2b 85 3c 2b b2 bd bc c9 ab 8f bc 62 a2 08 bd
       0.016256059 -0.023156246 -0.017537968 -0.033357985
000080 76 db b8 bb 97 e7 1e 3c 25 ab 36 3b b8 f0 8a 3c
       -0.005641396 0.00969877 0.0027873006 0.016960487
000090 ae 44 2c ba 3b a7 41 bb 4f c0 c6 b9 51 14 14 3b
       -0.00065715134 -0.002954914 -0.00037908784 0.0022595117
0000a0 3a a9 02 bc c7 cd 28 3c f0 9a 63 bb 6a 4c 8c 3d
       -0.007974917 0.010302967 -0.00347298 0.06850512
0000b0 51 f6 3a bc af 4e 12 bc bd a7 32 3c e2 a5 a9 bd
       -0.0114112655 -0.008929892 0.01090425 -0.08283593
0000c0 c3 f4 a0 bc d2 4b 29 bc a7 3b b1 bc d1 21 02 3c
       -0.019647961 -0.010333018 -0.02163489 0.007942633
0000d0 66 66 8d bd 4a 76 cd 3b 21 48 64 3b 20 56 94 bc
       -0.069042966 0.0062702047 0.0034833031 -0.018107474
0000e0 0d 85 50 bb 28 5d 80 3a 2f 03 fb 3b a2 38 b5 3c
       -0.0031817586 0.0009793388 0.0076602916 0.022121731
0000f0 31 ce 3a 3d 58 70 c0 3c 97 04 f0 bc 4d 78 0c bc
       0.045606796 0.02349107 -0.029299064 -0.008573604
000100 87 62 23 3d 1d b9 40 3c c7 21 e7 3c 5c a6 ef 3c
       0.039888885 0.011762884 0.028214348 0.029254131
000110 3d 01 bb bc d5 49 cd bb 8e fa a3 3d d9 b4 9e 3b
       -0.022827739 -0.006264905 0.08006774 0.004843336
000120 09 fe 9d bc 99 d0 c0 bb d7 fa f1 bb ec 49 92 3c
       -0.019286172 -0.005884242 -0.007384639 0.017857514
000130 d2 85 8a ba 3b ac 28 bd d3 ae 73 3d c6 a4 04 3d
       -0.0010568446 -0.041179877 0.059492897 0.032383703
000140 09 3f 28 bb 2f 90 41 ba df ab 75 39 23 ce 0d be
       -0.0025672338 -0.0007383851 0.00023429048 -0.13848166
000150 3a f1 7a bd 3a 61 64 3c 40 78 a6 bc 6d 15 b9 3d
       -0.061265208 0.013939196 -0.020321012 0.0903729
000160 47 f1 af bb ff a1 0a 3d c8 e1 50 bb d7 87 9d bd
       -0.0053693387 0.033845898 -0.0031872857 -0.07691925
000170 de d9 89 3c 05 ee 9a bd ca e1 17 bd 0f ad b7 3b
       0.01682752 -0.0756493 -0.037080564 0.005605347
000180 96 9b 97 3d eb 11 44 bb 88 78 bd 3d 7b ba 29 3d
       0.074027225 -0.0029917907 0.09251505 0.041437607
000190 ec 09 6f 3d 78 c1 07 bd 4c b5 a4 bc c5 9f 99 3d
       0.05835907 -0.03314349 -0.02010598 0.07501177
0001a0 ac 0e 4a 3c 00 6a d3 bc 8f 26 ef 3b 30 af 8c bc
       0.0123326 -0.02580738 0.0072982977 -0.01717338
0001b0 77 23 d3 3c 1f ea af 3b 8c bb 69 bb 4d 6a bf 3d
       0.025773747 0.0053684856 -0.0035664765 0.09346447
0001c0 9e 07 57 bd 0a e9 da ba cb 0a 45 3b e6 8a 0b bb
       -0.0524975 -0.0016701531 0.0030066248 -0.0021292507
0001d0 1f 72 d3 bc 90 a7 83 bc 83 55 aa be 50 66 87 bc
       -0.025811253 -0.016071111 -0.33268365 -0.016528279
0001e0 ab da ea bc 36 70 10 3b 60 1a c0 bb 9b f3 dd bb
       -0.028668722 0.002203954 -0.005862519 -0.006773425
0001f0 9e 05 a5 bc 7d e6 fc 3b d4 45 44 bc 16 0d 3a ba
       -0.02014428 0.007717906 -0.011979539 -0.0007097287
000200 30 7d 18 3b 16 98 ae 3d 99 9c cc bb 2d 59 68 bc
       0.0023267977 0.08525102 -0.006244254 -0.014181417
000210 63 f2 07 bc 73 78 46 3a 13 09 83 bb 6c 8d 6d bb
       -0.008297536 0.0007571049 -0.0039988845 -0.0036247624
000220 37 fa 68 3d 64 1b 6a bb 4b cb 83 bc e1 6a 55 3d
       0.05687925 -0.0035721892 -0.016088149 0.05210388
000230 41 36 8b bd 2e 70 4f bc ab d9 77 bd b0 71 13 3c
       -0.067974575 -0.012661023 -0.06051032 0.008999273
000240 28 eb 94 3d fc 7b 42 bc 2c fa 17 3c 3b 10 10 3c
       0.07271415 -0.0118703805 0.009275954 0.008792932
000250 ae 6d ad bb 71 6b 0b bb 1b 2f db bc 65 8e 89 bc
       -0.005292616 -0.0021273757 -0.02675586 -0.016791532
000260 a8 91 3e 3c f7 74 b1 bc 80 16 8d bc 5a ea bd bc
       0.011631407 -0.021662218 -0.017222643 -0.023183037
000270 6a be 5e 3c a8 49 9d bb 82 ea a6 3d c7 1f 20 b9
       0.013595203 -0.0048000403 0.081501976 -0.00015270627
000280 26 c9 9f bb 10 8d 06 bc 59 44 c6 3a da 90 b3 bc
       -0.0048762737 -0.008212343 0.001512657 -0.021919657
000290 0f b9 2b bc 5b 0f be 3c 8c 84 a0 bc c8 d5 16 3c
       -0.010481133 0.023200681 -0.019594453 0.009206243
0002a0 2c 71 96 bc 50 62 38 3c aa 59 4d bc 31 11 44 bb
       -0.018364511 0.011253908 -0.012533585 -0.0029917473
0002b0 3b 04 8f bb 12 02 a4 3c 4c 89 cc bd 82 43 ac 3c
       -0.004364518 0.020020518 -0.09987125 0.021028284
0002c0 5a 34 62 3d ba 34 c3 bc a2 85 98 b9 77 bd bb 3c
       0.055225708 -0.023828853 -0.00029091263 0.022917492
0002d0 b2 03 0e 3d ef 11 25 b9 81 41 4b 3d 36 de 01 bc
       0.034671493 -0.00015742307 0.049623016 -0.007926514
0002e0 7d e2 33 bc 8a cb 0a 3c 0a ae e8 ba 58 95 18 bd
       -0.010979292 0.008471379 -0.0017752063 -0.0372518
0002f0 40 84 ad bc f0 15 21 bc 30 60 cd 3c 83 1f 8c 3b
       -0.021181226 -0.00983189 0.02507028 0.0042762174
000300 7b 71 72 bc 8a c4 d4 3d fb b9 21 bc ea 42 78 bc
       -0.014797564 0.10389049 -0.009871001 -0.015152672
000310 db c4 38 3d 6f 49 94 bd 13 f5 0b bd e5 d8 7e b9
       0.04510961 -0.07240569 -0.034169268 -0.00024304127
000320 89 e5 8b bc 49 1b bb bb 32 7d f9 bc 9c 85 22 bd
       -0.017077224 -0.0057100398 -0.030455206 -0.0396782
000330 92 b3 33 3c 53 6c e9 bb 0a 34 e2 3d b3 09 ed 3c
       0.010968106 -0.007123509 0.11045082 0.028935289
000340 5c 29 92 3c ee 95 2c 3b 8f 21 a4 3a 61 24 e5 bd
       0.017841987 0.0026334482 0.0012522208 -0.11188579
000350 b3 6b 04 3d 7d a2 cf bc f4 4b 17 bc d8 c9 92 bb
       0.032329272 -0.025346035 -0.009234417 -0.004479628
000360 84 29 0f 39 19 61 d0 bc bf 5a ec 3c cd c8 10 3d
       0.00013653009 -0.025436925 0.028851865 0.03534775
000370 39 39 15 bd 9c fb 64 3b b5 b8 bb 3d 8c 00 62 be
       -0.036431525 0.003494001 0.091660894 -0.22070521
000380 75 8d dc 3c 69 1a ad 3b a5 56 19 3c 67 0d 44 bc
       0.02692292 0.0052826894 0.009359037 -0.011966086
000390 a2 88 bb bc 9a b3 91 3c fd 04 11 3d 2c 5f 34 bd
       -0.0228923 0.017785836 0.035405148 -0.044036075
0003a0 dd 92 08 bc c3 85 eb 3b 16 14 1f 3b 03 5e 96 3d
       -0.008335796 0.0071875765 0.0024273447 0.0734215
0003b0 de 40 93 3d 94 42 ab 3d df 00 18 3c ad 15 08 be
       0.07190107 0.08362308 0.009277551 -0.13289519
0003c0 ef 20 a7 3c 53 d5 85 3b c3 a1 ed bc 64 78 bb bc
       0.020401446 0.004084268 -0.029007798 -0.022884555
0003d0 40 a4 7b 3d 76 d8 45 bd 19 41 b9 3c 80 fe a7 3b
       0.061435938 -0.048302136 0.022614049 0.0051267743
0003e0 ff 69 b3 3c 46 20 96 3d f0 25 16 bc b9 79 d3 3c
       0.021901129 0.073303744 -0.009164318 0.025814878
0003f0 e3 14 8e bc e6 99 88 bc a4 b3 9b 3c b1 3e 00 bd
       -0.017343944 -0.016674947 0.019006558 -0.031309787
