data/example_dynamics_data/office_MLP.pth (torch, 740431 bytes, 8 tensors)

weight f4 [256, 107]
-0.06505561 0.21229441 -0.10307585 0.004784684 -0.14742972 0.014496661 -0.18858454 0.07568026
0.011677313 0.03809053 0.09130773 -0.14429025 -0.07985299 0.12578784 0.115210116 -0.0202918
-0.06803362 -0.01817022 -0.061938584 0.10536691 0.034822796 0.06566379 0.04307118 0.0020361838
-0.0011454286 -0.014525615 0.031828932 0.18017118 0.016481422 0.06396739 -0.031948313 -0.21387127
-0.1648531 -0.07014224 -0.15745427 -0.058261 -0.10325085 -0.00163354 0.021922307 -0.031000832
0.02902246 -0.03388031 0.07566997 0.039462574 0.0213091 0.06933711 -0.083169036 0.03501569
0.038716745 0.061699487 0.038773365 0.046407826 0.077168636 0.07531866 -0.041264113 -0.051621124
-0.024759352 -0.09927357 0.056942265 0.024621725 0.02523873 0.005580201 0.07007868 0.045241985
-0.05260474 -0.036524225 0.070161626 0.066638686 0.056650084 -0.02251683 0.090802334 0.04651346
0.01805508 0.023529084 -0.005712871 -0.104335405 -0.03563528 0.07623555 -0.021425087 -0.012913362
0.0012687047 0.065355726 0.022149373 -0.0741754 -0.008260224 0.037251916 -0.073069 0.015237835
0.08072726 0.0058746305 -0.06299222 0.06886006 0.009082048 0.069674455 -0.028747575 0.040823843
-0.01722791 -0.02085287 0.03514665 -0.014162541 0.060570054 0.013470628 -0.0683159 -0.030765323
0.0474763 0.005049787 0.08165793 -0.07612011 0.12182852 -0.04438839 -0.06592806 -0.026203465
0.05807317 0.026244553 0.08904346 -0.087192215 -0.082472414 0.12864695 -0.03618928 0.0341833
-0.07891513 0.080427125 0.0013815028 -0.103512324 0.05348458 -0.02529542 -0.07523559 0.015985154
-0.051168665 -0.013123884 -0.0035695452 0.0037014603 -0.08158563 -0.024625856 -0.06036688 0.022671675
0.08636953 0.02178273 -0.09598666 -0.1252389 0.057965923 -0.023813553 -0.022307599 -0.013246106
-0.07813783 0.088333145 0.040804375 0.047665365 -0.11217048 -0.076945744 0.021217503 -0.020258944
-0.012386687 0.065275535 -0.08394826 0.1577421 -0.067032404 -0.042581763 -0.10221123 -0.019705372
0.017437462 -0.084444456 -0.050564215 0.09145452 0.004997078 -0.08899993 0.093180954 -0.07713597
-0.024367351 0.049515393 -0.08322692 0.06741235 0.07845187 -0.028923137 0.08797861 -0.05705299
-0.010208468 0.028322695 0.045014884 -0.038615745 0.09307248 -0.12626077 -0.12620725 0.004825765
0.024667064 -0.04085913 0.07423977 -0.020070435 -0.048179485 -0.07210542 -0.08409144 0.055858072
-0.09436316 -0.06590969 0.07430648 -0.024301825 -0.05174511 0.06371392 -0.050315943 0.045135118
0.006678619 -0.06412541 -0.034566596 0.062319223 0.051098567 0.048845083 -0.0924327 0.018992217
0.034841847 0.09400128 -0.029400533 -0.06089319 -0.035661355 -0.0038202815 0.0068108123 -0.12148044
0.045943603 -0.16169652 0.15085429 0.09841643 0.00033462915 0.07156787 0.059628293 0.0048182793
-0.16650216 -0.08566873 0.067150444 0.07448981 0.03732838 -0.06029797 0.0743886 -0.20688269
0.008497898 0.0213354 -0.110351205 0.106657 0.0033005436 -0.089570984 0.11320619 0.10490515
0.087465614 0.013202931 -0.10952814 -0.05831929 0.009802204 0.009216752 0.07849404 0.06943622
-0.12886728 0.098953396 -0.0042002215 0.033341777 -0.067817144 0.10928694 -0.05827275 0.092267044
00000000: e03b 85bd b563 593e 6e19 d3bd d7c8 9c3b
00000010: d1f7 16be 6783 6d3c 4e1c 41be 41fe 9a3d
00000020: 3352 3f3c d104 1c3d 8cff ba3d d3c0 13be
00000030: f789 a3bd 87ce 003e 48f3 eb3d fd3a a6bc
00000040: 3655 8bbd b7d9 94bc 50b3 7dbd 9bca d73d
00000050: 59a2 0e3d bd7a 863d 686b 303d 7f71 053b
00000060: 3522 96ba d8fc 6dbc 0e5f 023d cb7e 383e
00000070: 0c04 873c 5601 833d 3cdc 02bd 1201 5bbe
00000080: 40cf 28be bca6 8fbd b13b 21be 16a3 6ebd
00000090: 2f75 d3bd 821c d6ba 6996 b33c 75f5 fdbc
000000a0: 83c0 ed3c 14c6 0abd dbf8 9a3d 82a3 213d
000000b0: 6c90 ae3c 9d00 8e3d 8754 aabd 9d6c 0f3d
000000c0: 7395 1e3d 9ab8 7c3d d2d0 1e3d 2216 3e3d
000000d0: 970a 9e3d ab40 9a3d 8f04 29bd ac70 53bd
000000e0: 20d4 cabc f14f cbbd 4b3c 693d 80b3 c93c
000000f0: 74c1 ce3c 1eda b63b 6985 8f3d a94f 393d
00000100: 1178 57bd 6d9a 15bd e6b0 8f3d dd79 883d
00000110: eb09 683d 3775 b8bc 93f6 b93d e684 3e3d
00000120: 3fe8 933c 11c0 c03c 0933 bbbb cdad d5bd
00000130: 4df6 11bd 6221 9c3d aa83 afbc 9192 53bc
00000140: aa4a a63a 39d9 853d 9a72 b53c 46e9 97bd
00000150: e455 07bc 7795 183d 33a5 95bd 1da8 793c
00000160: 5554 a53d f97f c03b 1102 81bd 8106 8d3d
00000170: dfcc 143c 7bb1 8e3d 0980 ebbc e736 273d
00000180: 8c21 8dbc a3d3 aabc eff5 0f3d 010a 68bc
00000190: 4e18 783d e9b3 5c3c 35e9 8bbd 8f07 fcbc
000001a0: 8276 423d af78 a53b 463c a73d dce4 9bbd
000001b0: 3b81 f93d 9ad0 35bd 4a05 87bd a6a8 d6bc
000001c0: 22de 6d3d d1fe d63c 6b5c b63d d591 b2bd
000001d0: 4ce7 a8bd 07bc 033e 363b 14bd ca03 0c3d
000001e0: 419e a1bd fab6 a43d 8b13 b53a 45fe d3bd
000001f0: a612 5b3d 5738 cfbc 1e15 9abd 4cf3 823c
00000200: 3c96 51bd 8f05 57bc 08ef 69bb 3394 723b
00000210: 5e16 a7bd 2abc c9bc 4343 77bd f3b9 b93c
00000220: 82e2 b03d b271 b23c a794 c4bd a03e 00be
00000230: ad6d 6d3d a414 c3bc 6dbe b6bc 3206 59bc
00000240: ba06 a0bd 02e8 b43d 7d22 273d c23c 433d
00000250: a3b9 e5bd bb95 9dbd 54d0 ad3c 16f6 a5bc
00000260: 88f1 4abc 2eaf 853d 11ed abbd 2587 213e
00000270: 4948 89bd 376a 2ebd 1f54 d1bd 296d a1bc
00000280: 02d9 8e3c 37f1 acbd 6c1c 4fbd 824c bb3d
00000290: 87be a33b 9845 b6bd a8d5 be3d 77f9 9dbd
000002a0: 0a9e c7bc a7d0 4a3d e072 aabd 7c0f 8a3d
000002b0: 60ab a03d 37f0 ecbc 212e b43d 65b0 69bd
000002c0: 6b41 27bc ff04 e83c 8761 383d 8b2b 1ebd
000002d0: c99c be3d 814a 01be 793c 01be 7321 9e3b
000002e0: 9512 ca3c e75b 27bd 050b 983d c16a a4bc
000002f0: da57 45bd 02ac 93bd 2238 acbd 6fcb 643d
00000300: 7941 c1bd a9fb 86bd ff2d 983d 9f14 c7bc
00000310: aef2 53bd 727c 823d 1718 4ebd 9adf 383d
00000320: 51d8 da3b 2f54 83bd b495 0dbd 7142 7f3d
00000330: bb4c 513d c811 483d 5b4d bdbd 9195 9b3c
00000340: 53b6 0e3d be83 c03d 63d9 f0bc 236b 79bd
00000350: a411 12bd b05d 7abb 3c2d df3b bdca f8bd
00000360: 5c2f 3c3d c693 25be 8c79 1a3e 8e8e c93d
00000370: 2a71 af39 2d92 923d cc3c 743d a8e2 9d3b
00000380: 8b7f 2abe 1673 afbd 2c86 893d 1d8e 983d
00000390: a5e5 183d 01fb 76bd 0d59 983d 0ed9 53be
000003a0: c43a 0b3c 94c7 ae3c d0ff e1bd fc6e da3d
000003b0: ef4d 583b fe70 b7bd a6d8 e73d 83d8 d63d
000003c0: 2c21 b33d 1b51 583c 4a50 e0bd 35e0 6ebd
000003d0: 6c99 203c dc01 173c 7cc1 a03d 9434 8e3d
000003e0: c9f5 03be 14a8 ca3d 03a2 89bb 6391 083d
000003f0: b7e3 8abd d5d1 df3d 68af 6ebd 81f6 bc3d

bias f4 [256]
-0.024205998 0.05517067 0.081726074 -0.043422487 -0.008353547 0.05278109 0.006895773 0.060037874
0.016602403 0.04624999 0.020791527 0.07627207 0.097518176 0.07968827 -0.063680425 -0.05232708
0.045541644 -0.045635443 0.08989596 0.048970863 -0.0814704 -0.03861257 -0.011475629 -0.07689528
-0.082491264 0.07956926 0.033005707 0.015029604 -0.08509434 -0.041859087 0.022370655 -0.013570639
0.05928385 -0.034722786 -0.05133014 0.008482373 -0.012073851 -0.082498915 -0.060477074 0.08936944
-0.024822209 0.04432548 -0.008080227 -0.08906189 0.005268035 -0.054818965 -0.004037216 -0.011186587
-0.048575766 -0.08614092 -0.010535746 -0.04726547 0.013311062 0.089143455 -0.0305875 -0.067002244
-0.056958765 -0.032916766 0.08070345 -0.07339507 -0.08376941 0.09533271 -0.082380034 0.08614144
0.049527287 0.07581449 0.090031505 -0.0145590035 0.09924965 -0.051027287 0.022093985 -0.016622465
0.07857586 -0.010297403 0.06721561 -0.0656179 -0.017547615 -0.032357644 -0.010208064 -0.06940377
-0.05320325 0.0059753885 0.020401485 0.035563607 0.09896822 0.0980277 -0.0422675 -0.0949081
-0.04531763 -0.031540584 0.0469113 0.08800446 0.016057322 -0.011111326 -0.0757573 -0.07629211
-0.0611823 0.08750378 0.029636746 0.057363436 0.0465855 -0.060796052 -0.07176742 0.034563135
0.020899942 -0.047277417 0.027416887 -0.045317 -0.021356195 0.09018298 -0.08262283 0.07472948
0.06701827 0.0671404 0.099478275 -0.057270456 -0.087273546 -0.03612913 9.782467e-05 -0.076944046
0.029053774 0.04695219 -0.044444982 0.08868631 -0.05253237 -0.017728727 -0.062088877 0.0009080324
0.0049002464 -0.05215703 -0.065873094 0.08580219 0.031723328 0.0999267 -0.019918798 -0.033723094
0.027335271 0.06967169 -0.029478727 -0.075218305 -0.07401922 -0.0609272 0.055981945 -0.07553765
-0.022305844 0.031129131 -0.039625973 -0.042677864 0.062399827 -0.04425859 -0.10005489 0.09335212
-0.0871739 -0.044298097 -0.030951416 0.00575287 -0.057110563 0.033064548 -0.083732545 0.093377195
-0.040579535 0.04930992 0.06698417 0.048667755 -0.07649065 0.004302021 0.042478617 0.0734875
-0.10632674 0.028489785 0.019966882 0.02316031 -0.10324206 0.092981644 0.0076917135 -0.06620493
-0.08851381 0.012249468 -0.032995425 0.084875 0.097327545 -0.021149686 -0.0804771 0.095072165
0.044062685 -0.06406739 -0.031887818 0.06499042 0.030700635 0.07308153 0.09253817 0.04023641
0.0343436 0.1016292 0.07515521 -0.0601971 0.049478892 -0.00019906409 -0.06181185 0.010622818
-0.10156482 -0.06969849 -0.08703264 -0.019646069 0.009063391 -0.025500977 0.09631446 0.034187254
-0.08512162 0.028257456 0.06771612 -0.09707378 -0.061474845 -0.07852303 -0.027817804 -0.07403754
0.011993634 -0.033501063 -0.07331196 -0.09902069 0.08714079 0.07183703 0.0523566 -0.002544341
-0.051041197 -0.08338993 0.080948465 0.042434953 -0.07794733 0.09164888 0.038497984 -0.046403427
0.06553294 0.09892895 0.034243993 -0.017646411 -0.02074937 0.020290636 0.08729596 -0.033455722
-0.05768974 -0.027499212 -0.015830565 0.055926856 -0.023520073 -0.07907555 0.043106727 0.03621166
0.03124858 0.08065617 -0.043765236 -0.05865396 0.062129766 0.07323198 0.074991964 -0.0126005905
00000000: a84b c6bc a4fa 613d 0060 a73d c7db 31bd
00000010: 51dd 08bc fc30 583d f0f5 e13b 46ea 753d
00000020: c301 883c a170 3d3d fe52 aa3c 8834 9c3d
00000030: 9cb7 c73d 9b33 a33d e26a 82bd ec54 56bd
00000040: e089 3a3d 3bec 3abd 601b b83d ac95 483d
00000050: f4d9 a6bd 3728 1ebd 4704 3cbc 467b 9dbd
00000060: 2ef1 a8bd 35f5 a23d fe30 073d ba3e 763c
00000070: f145 aebd 6f74 2bbd aa42 b73c 6357 5ebc
00000080: 9fd3 723d 7b39 0ebd 8e3f 52bd a7f9 0a3c
00000090: 67d1 45bc 31f5 a8bd cfb6 77bd 5307 b73d
000000a0: f257 cbbc a28e 353d ee62 04bc 1566 b6bd
000000b0: 7b9f ac3b da89 60bd 9f4a 84bb f247 37bc
000000c0: 62f7 46bd a76a b0bd 1f9e 2cbc 7099 41bd
000000d0: a416 5a3c d890 b63d a392 fabc 7938 89bd
000000e0: 984d 69bd bbd3 06bd da47 a53d 2850 96bd
000000f0: 4c8f abbd cc3d c33d ddb6 a8bd ec6a b03d
00000100: 20dd 4a3d a144 9b3d 7062 b83d e388 6ebc
00000110: 6743 cb3d fd01 51bd 72fe b43c d62b 88bc
00000120: 61ec a03d 70b6 28bc 56a8 893d ad62 86bd
00000130: 04c0 8fbc 7389 04bd b93f 27bc 9023 8ebd
00000140: a7eb 59bd 31cd c33b 0421 a73c 25ab 113d
00000150: daaf ca3d bfc2 c83d b020 2dbd 2e5f c2bd
00000160: fb9e 39bd b330 01bd 1026 403d af3b b43d
00000170: a58a 833c 470c 36bc a526 9bbd 0a3f 9cbd
00000180: 4b9a 7abd 2f35 b33d c3c8 f23c ecf5 6a3d
00000190: 70d0 3e3d 4805 79bd ccfa 92bd 1392 0d3d
000001a0: 5b36 ab3c f7a5 41bd 6199 e03c 529e 39bd
000001b0: 30f3 aebc dbb1 b83d 2936 a9bd c50b 993d
000001c0: e040 893d e880 893d 44bb cb3d 6d94 6abd
000001d0: 79bc b2bd 23fc 13bd 3827 cd38 d794 9dbd
000001e0: 2e02 ee3c f150 403d f10b 36bd 2ba1 b53d
000001f0: 2f2c 57bd d63b 91bc e850 7ebd 0609 6e3a
00000200: 3f92 a03b 9ca2 55bd 79e8 86bd 0fb9 af3d
00000210: 52f0 013d 5fa6 cc3d bf2c a3bc 3a21 0abd
00000220: 38ee df3c 08b0 8e3d 5f7d f1bc 0e0c 9abd
00000230: 6497 97bd cd8e 79bd 534d 653d 7cb3 9abd
00000240: bfba b6bc 8502 ff3c d84e 22bd fcce 2ebd
00000250: f696 7f3d 7f48 35bd 94e9 ccbd 652f bf3d
00000260: 3b88 b2bd ec71 35bd d38d fdbc 9282 bc3b
00000270: c4ec 69bd b16e 073d f87b abbd 8b3c bf3d
00000280: ba36 26bd 33f9 493d ff2e 893d d757 473d
00000290: 21a7 9cbd f8f7 8c3b 0ffe 2d3d 9d80 963d
000002a0: d5c1 d9bd 6963 e93c 9691 a33c b1ba bd3c
000002b0: 9370 d3bd 296d be3d c50a fc3b 7396 87bd
000002c0: ba46 b5bd feb1 483c 3626 07bd f2d2 ad3d
000002d0: aa53 c73d 1b42 adbc 2ed1 a4bd 32b5 c23d
000002e0: 137b 343d c435 83bd cd9c 02bd b319 853d
000002f0: e67f fb3c c5ab 953d a784 bd3d efce 243d
00000300: e0ab 0c3d f822 d03d faea 993d 3c91 76bd
00000310: 61aa 4a3d dcbb 50b9 6c2e 7dbd 540b 2e3c
00000320: 3701 d0bd 15be 8ebd 2b3e b2bd cbf0 a0bc
00000330: 9e7e 143c 6de7 d0bc 8440 c53d ef07 0c3d
00000340: 3e54 aebd 2e7c e73c c0ae 8a3d 9ece c6bd
00000350: 0ccd 7bbd afd0 a0bd 2ae2 e3bc fea0 97bd
00000360: f280 443c 6938 09bd 9524 96bd 5ccb cabd
00000370: df76 b23d 4b1f 933d e073 563d f5be 26bb
00000380: 9310 51bd 57c8 aabd 4fc8 a53d 46d0 2d3d
00000390: daa2 9fbd 68b2 bb3d 10b0 1d3d 8511 3ebd
000003a0: 2236 863d 439b ca3d 6e43 0c3d 358f 90bc
000003b0: 95fa a9bc 8c38 a63c 39c8 b23d de08 09bd
000003c0: 144c 6cbd 0746 e1bc 1aaf 81bc 8f13 653d
000003d0: 2bad c0bc 5df2 a1bd ae90 303d ad52 143d
000003e0: 06fd ff3c 102f a53d 2d43 33bd 223f 70bd
000003f0: c87b 7e3d a6fa 953d 6395 993d b572 4ebc

weight f4 [256, 256]
0.00051682506 0.054330137 -0.06302891 -0.042660557 0.053465422 -0.031580783 -0.05250852 -0.012677476
0.047510065 -0.03795574 0.027074976 0.035677213 -0.06577915 -0.00906625 0.022449313 -0.0036070186
-0.065048076 0.02519277 0.012739499 0.010974981 -0.041235037 0.0021202248 -0.05137883 -0.0024236417
-0.011984532 0.05250049 -0.035062134 -0.018028399 -0.0659553 0.021713093 0.049774077 -0.04959082
0.019973498 0.047398206 -5.580837e-05 -0.008950044 -0.035966814 0.017165666 0.044159204 -0.014300815
0.020731712 -0.022336595 -0.0050563077 -0.039047264 0.00082310225 -0.06768918 -0.022441832 0.05204792
-0.013810365 -0.035589237 0.0050111213 0.039374318 -0.023213904 0.009579563 0.021304745 0.03871946
-0.043092802 -0.0027266599 -0.0273346 0.039815072 0.053258955 -0.050322555 0.02322967 0.032682955
-0.028740186 0.04217532 -0.051556997 0.056682482 0.0329529 -0.045162648 -0.06341391 -0.04551133
-0.0038163578 -0.016914224 -0.046579108 0.047185626 0.0059786816 0.0068114838 -0.065203846 -0.015622139
-0.03820221 0.045201015 0.013977137 -0.02523376 0.030806275 -0.056987684 0.043531965 0.02544543
-0.00928947 0.009624561 -0.017965427 -0.04207253 -0.026451245 -0.04366791 -0.04818122 -0.0022723405
0.011113848 -0.017189661 -0.0027052623 -0.00523146 -0.05683042 0.028656859 0.0044229017 -0.011320396
-0.035098735 -0.032112435 -0.012310741 -0.028434658 0.027899258 -0.04894229 0.00971205 -0.062177807
0.017888121 0.036464628 0.019094774 0.005332756 -0.058985595 -0.004941223 0.0005322179 -0.035521716
0.059065554 0.009561238 -0.019851306 0.02127915 0.03600768 -0.044880077 -0.029367674 -0.026320312
0.0076907063 0.001529291 -0.0045823157 -0.06211005 -0.027805397 -0.003092356 0.005573755 0.041505888
-0.026282184 0.0013365357 -0.024608871 0.054075457 0.012229859 -0.06685714 0.05089477 -0.054925352
-0.050105505 -0.0069032107 0.0324213 -0.016625235 0.012402798 -0.016097449 -0.0039476827 0.04195338
-0.03351916 -0.023993805 0.049185265 0.008716787 -0.039500207 0.029527655 -0.042093623 0.025222823
0.04757943 -0.053698283 0.010391113 -0.049082015 0.048040416 -0.01913173 0.053181846 0.021106908
0.034713168 0.053599253 -0.03511444 -0.0040824907 -0.06383665 -0.034711536 -0.035307206 -0.05487278
-0.02149662 0.023642974 0.0068546743 0.0022322417 -0.045846708 0.0126803005 -0.030545603 0.031433087
0.012038908 -0.016701516 0.03496814 -0.032180943 -0.018259736 0.020062435 -0.06456494 -0.052988626
0.020923726 -0.02278859 -0.046858203 0.006326307 -0.02791714 0.067353174 -0.05012144 -0.049964834
0.0246885 -0.0448784 -0.0031616483 0.03960032 -0.007845903 0.004211181 -0.008068724 -0.00014017662
-0.059471745 -0.028616853 -0.026762696 -0.04934107 -0.03646422 -0.025704639 -0.018549543 -0.06517129
0.048377074 -0.02470687 -0.037720114 -0.06089743 0.017889183 -0.00034942353 -0.021700192 -0.032211736
0.0077439314 0.026689945 -0.052431054 0.010797952 -0.018236415 0.016407667 0.049144544 -0.039621487
0.04314085 0.030822871 0.012977344 -0.055818647 0.00921484 -0.009210067 0.0050728973 -0.056928877
-0.033758447 0.052144226 0.05565168 -0.017364778 0.04491855 0.047775194 0.0044937776 -0.05582889
0.008394606 0.02585085 -0.014009577 -0.062334154 0.022468956 0.029158778 0.044427697 -0.042625215
00000000: 8b7b 073a 4789 5e3d 4d15 81bd d6bc 2ebd
00000010: 8ffe 5a3d da5a 01bd 2d13 57bd 30b5 4fbc
00000020: ea99 423d 7a77 1bbd 57cc dd3c 4522 123d
00000030: 38b7 86bd 9c8a 14bc 9fe7 b73c bb63 6cbb
00000040: ed37 85bd 1161 ce3c 55b9 503c 68d0 333c
00000050: 12e6 28bd 78f3 0a3b 9c72 52bd f6d5 1ebb
00000060: c55a 44bc c10a 573d 509d 0fbd 4bb0 93bc
00000070: 9313 87bd a8df b13c e7df 4b3d be1f 4bbd
00000080: 769f a33c 9f24 423d c813 6ab8 35a3 12bc
00000090: f051 13bd 039f 8c3c 48e0 343d f74d 6abc
000000a0: 8dd5 a93c 3cfb b6bc 62af a5bb 06f0 1fbd
000000b0: 75c5 573a a0a0 8abd efd7 b7bc 3330 553d
000000c0: df44 62bc 05c6 11bd 5534 a43b f746 213d
000000d0: 162b bebc 99f3 1c3c 4a87 ae3c 4c98 1e3d
000000e0: 1482 30bd c3b1 32bb d0ec dfbc 2115 233d
000000f0: 1026 5a3d 061f 4ebd 264c be3c 90de 053d
00000100: 8a70 ebbc 07c0 2c3d 6e2d 53bd e42b 683d
00000110: 9ff9 063d 78fc 38bd 27df 81bd 176a 3abd
00000120: dc1b 7abb b38f 8abc bcc9 3ebd b745 413d
00000130: d1e8 c33b de32 df3b 9889 85bd 00f4 7fbc
00000140: ec79 1cbd b324 393d 5d00 653c 08b7 cebc
00000150: 715d fc3c eb6b 69bd 934e 323d ef72 d03c
00000160: dc32 18bc 56b0 1d3c 3b2c 93bc 3f54 2cbd
00000170: 48b0 d8bc 1fdd 32bd ac59 45bd 8ceb 14bb
00000180: db16 363c 55d1 8cbc c54a 31bb ab6c abbb
00000190: 04c7 68bd cac1 ea3c fded 903b 2f79 39bc
000001a0: b1c3 0fbd 5488 03bd fdb2 49bc cdef e8bc
000001b0: fc8c e43c b677 48bd 4a1f 1f3c 28ae 7ebd
000001c0: 1c8a 923c ef5b 153d a56c 9c3c 66be ae3b
000001d0: e19a 71bd fce9 a1bb 8a84 0b3a 387f 11bd
000001e0: b9ee 713d bda6 1c3c 359f a2bc 9d51 ae3c
000001f0: ca7c 133d 2cd4 37bd 7a94 f0bc b29d d7bc
00000200: 5202 fc3b 7e72 c83a 4027 96bb 1c67 7ebd
00000210: 25c8 e3bc 20a9 4abb 0ca4 b63b 1402 2a3d
00000220: bc4d d7bc b22e af3a 8b98 c9bc 3a7e 5d3d
00000230: bf5f 483c 65ec 88bd 0977 503d 68f9 60bd
00000240: 6e3b 4dbd 5434 e2bb 32cc 043d a531 88bc
00000250: 1b35 4b3c ccde 83bc 905b 81bb 4fd7 2b3d
00000260: 634b 09bd a88e c4bc 7d76 493d dbd0 0e3c
00000270: f8ca 21bd fbe3 f13c 5d6a 2cbd 18a0 ce3c
00000280: a6e2 423d bbf2 5bbd 7d3f 2a3c 390a 49bd
00000290: 07c6 443d 25ba 9cbc 35d5 593d 65e8 ac3c
000002a0: 652f 0e3d e48a 5b3d 29d4 0fbd 6ac6 85bb
000002b0: cabc 82bd af2d 0ebd 4a9e 10bd 48c2 60bd
000002c0: ae19 b0bc e9ae c13c 2d9d e03b cd4a 123b
000002d0: c2c9 3bbd 09c1 4f3c c63a fabc fbbf 003d
000002e0: d73e 453c 9ed1 88bc c13a 0f3d 2ad0 03bd
000002f0: 7195 95bc fa59 a43c a03a 84bd 9a0a 59bd
00000300: 3c68 ab3c 23af babc 63ee 3fbd e94c cf3b
00000310: 7cb2 e4bc 76f0 893d 244c 4dbd eda7 4cbd
00000320: 8a3f ca3c 6ad2 37bd a833 4fbb f233 223d
00000330: 1a8c 00bc f2fd 893b ae32 04bc 60fc 12b9
00000340: a598 73bd e46d eabc 713d dbbc dd19 4abd
00000350: 825b 15bd 8992 d2bc 36f5 97bc 8678 85bd
00000360: 0a27 463d 1066 cabc 6880 1abd 956f 79bd
00000370: 568c 923c d532 b7b9 9ac4 b1bc 74f0 03bd
00000380: cec0 fd3b dfa4 da3c f2c1 56bd e5e9 303c
00000390: 8964 95bc 5f69 863c ca4b 493d 244a 22bd
000003a0: 76b4 303d 3f80 fc3c ed9e 543c 18a2 64bd
000003b0: d7f9 163c d2e5 16bc 8c3a a63b 412e 69bd
000003c0: 4c46 0abd 2f95 553d 04f3 633d 9440 8ebc
000003d0: 83fc 373d ecaf 433d 8a40 933b d6ac 64bd
000003e0: 8889 093c 29c5 d33c 6d88 65bc 1952 7fbd
000003f0: d110 b83c 64de ee3c d1f9 353d c797 2ebd

bias f4 [256]
-0.0586882 0.045138374 -0.013018109 -0.035983082 -0.006102 0.018904509 0.01802094 0.08600908
0.06418948 0.023764377 -0.005708585 0.036321767 0.05670045 0.062259197 -0.009310836 -0.06093095
0.049151562 -0.03740567 -0.04600921 0.01363294 -0.05340577 0.038781203 -0.04144926 -0.044968624
0.005012366 0.05756655 0.03878661 0.02007125 -0.0120077515 0.024986299 -0.060179885 -0.04987636
0.0014265599 -0.011115545 0.06923881 0.031154467 -0.0097533 -0.05125035 0.010560126 0.009650487
0.057299655 0.055871017 0.021567196 0.056070555 -0.0058856984 -0.062208403 -0.047695562 0.016013036
0.044242863 0.030414347 0.033187773 -0.061896678 0.032351088 -0.03842472 0.04180586 0.060262334
0.03167612 -0.05030471 0.04300851 -0.017224 0.029677162 -0.013146051 0.011905713 -0.030508662
-0.0070847366 0.026021434 0.026844658 -0.05590244 -0.049519144 0.04612631 -0.02706877 -0.05946064
-0.009877208 0.007966643 0.02517104 -0.056159247 -0.001951182 0.06365623 -0.046911653 0.034941483
-0.04043314 -0.04788993 0.02027686 -0.03393781 -0.023990901 0.04648098 -0.061341688 0.04176435
0.0614415 -0.020887883 -0.041757695 0.0021845032 -0.05253229 0.057811406 -0.0032892423 -0.042802732
0.037530527 0.018978704 0.051386617 -0.053379465 0.04920948 -0.051316954 0.042531446 -0.060208887
-0.06296304 -0.058985006 -0.049309753 0.06189699 -0.012099714 -0.027443849 0.040899795 0.009605215
0.014876471 0.040742032 -0.04692178 0.040738594 0.033761486 0.007344859 0.049318522 0.05219404
0.035676114 -0.022087097 0.028403344 -0.043607883 0.023568075 0.045000076 0.041294716 -0.0021828215
0.01948853 -0.021946037 -0.02116086 -0.021666033 0.04010801 -0.0038142437 -0.01976791 0.03927873
0.059849694 -0.03668948 -0.019165035 0.028380264 0.01868907 -0.0017504483 -0.009516925 0.051504076
-0.008483694 0.06267477 -0.059780132 0.03751974 0.04030882 0.021431545 0.008025699 -0.0009892448
-0.042500522 -0.059555292 -0.043357205 0.007752082 0.029075047 -0.030609237 0.035811868 0.008046862
0.01097875 0.050946273 0.051893063 0.06671704 0.02479937 -0.0013380949 0.030682076 0.0620546
0.04804546 -0.017192878 0.0066752327 0.03473996 -0.016804846 0.05932746 0.062475268 0.04815242
0.029164825 -0.0036486639 -0.025335679 -0.035411093 0.022232091 0.036632072 0.03195956 -0.009755331
0.058677856 0.0036800262 -0.050619908 0.015345764 -0.016545057 -0.038781494 0.012653956 0.018312737
-0.045270663 0.05632205 -0.06823815 -0.032231417 0.050398346 -0.022482239 0.04791681 0.023243299
0.06751579 -0.044507783 -0.019262379 0.061742257 -0.05231531 0.057647888 -0.007764454 -0.0588613
-0.02058821 0.005348582 -0.0019914112 -0.0019622312 -0.055262484 0.07153511 0.028622238 0.0319265
-0.061651994 -0.022144707 0.04995496 0.057020377 -0.0509183 -0.020997208 -0.039705593 0.020703457
-0.004932525 0.007823639 -0.0597631 0.043596882 -0.00538818 -0.03036604 0.035760682 0.0066696764
-0.021184396 0.0628967 -0.05122635 0.05350192 0.004302193 -0.05826883 -0.022914194 -0.0086728325
0.01730846 -0.0597168 -0.053135335 0.0095701795 -0.042455625 -0.020712698 -0.01256594 0.029157324
-0.049204785 -0.056892578 -0.03283413 -0.05197541 -0.014569344 0.05971545 -0.021607922 -0.014093973
00000000: 0a63 70bd 04e3 383d e849 55bc ff62 13bd
00000010: 49f3 c7bb a1dd 9a3c a6a0 933c 8725 b03d
00000020: c675 833d 83ad c23c 150f bbbb 22c6 143d
00000030: bb3e 683d 8003 7f3d 7a8c 18bc bb92 79bd
00000040: 2653 493d b036 19bd 2774 3cbd b25c 5f3c
00000050: 02c0 5abd 0ad9 1e3d b3c6 29bd 0531 38bd
00000060: c63e a43b e7ca 6b3d b5de 1e3d 766c a43c
00000070: 29bc 44bc 11b0 cc3c 2f7f 76bd 274b 4cbd
00000080: 68fb ba3a fa1d 36bc 14cd 8d3d a737 ff3c
00000090: 4ecc 1fbc e3eb 51bd 6104 2d3c 141d 1e3c
000000a0: 0bb3 6a3d 02d9 643d b0ad b03c 3daa 653d
000000b0: d1dc c0bb 3dce 7ebd 6c5c 43bd c52d 833c
000000c0: 0138 353d 8227 f93c e7ef 073d 5f87 7dbd
000000d0: 9382 043d 3d63 1dbd 9f3c 2b3d a3d5 763d
000000e0: d2be 013d 500c 4ebd b129 303d 5919 8dbc
000000f0: 851d f33c 8962 57bc 2e10 433c 4ded f9bc
00000100: 1427 e8bb e72a d53c 54e9 db3c f5f9 64bd
00000110: 96d4 4abd f1ee 3c3d 53bf ddbc 008d 73bd
00000120: 03d4 21bc 8686 023c 7f33 ce3c 3d07 66bd
00000130: cebe ffba 335e 823d 6f26 40bd cd1e 0f3d
00000140: 389d 25bd 3b28 44bd a81b a63c 6002 0bbd
00000150: 9188 c4bc d762 3e3d 6c41 7bbd 1811 2b3d
00000160: 15aa 7b3d 111d abbc 1e0a 2bbd e229 0f3b
00000170: 192c 57bd a7cb 6c3d 5490 57bb eb51 2fbd
00000180: 9cb9 193d 3a79 9b3c c67a 523d 6da4 5abd
00000190: e18f 493d ba31 52bd 7435 2e3d 989d 76bd
000001a0: c4f2 80bd 439a 71bd 06f9 49bd b387 7d3d
000001b0: e13d 46bc ecd1 e0bc 8b86 273d 315f 1d3c
000001c0: 71bc 733c 1ee1 263d 0d31 40bd 83dd 263d
000001d0: 7c49 0a3d 25ad f03b 3802 4a3d 6bc9 553d
000001e0: 1e21 123d 00f0 b4bc 21ae e83c 2e9e 32bd
000001f0: d611 c13c 0052 383d a624 293d ab0d 0fbb
00000200: 69a6 9f3c 2dc8 b3bc 8a59 adbc f77c b1bc
00000210: 4c48 243d 64f8 79bb 50f0 a1bc bce2 203d
00000220: f424 753d b547 16bd feff 9cbc ba7d e83c
00000230: d219 993c 4c6f e5ba e0ec 1bbc f0f5 523d
00000240: 31ff 0abc a15b 803d 03dc 74bd 4dae 193d
00000250: dc1a 253d 3591 af3c 397e 033c 8ca9 81ba
00000260: 0715 2ebd 40f0 73bd 5397 31bd 2d05 fe3b
00000270: cb2e ee3c 39c0 fabc 77af 123d fcd6 033c
00000280: 37e0 333c 0aad 503d d28d 543d f2a2 883d
00000290: 0c28 cb3c 0463 afba fa58 fb3c f72c 7e3d
000002a0: 51cb 443d 14d8 8cbc e9bb da3b 7d4b 0e3d
000002b0: 51aa 89bc 5a01 733d 11e6 7f3d 793b 453d
000002c0: 12eb ee3c 6c1e 6fbb c58c cfbc 390b 11bd
000002d0: 1320 b63c 830b 163d 07e8 023d d3d4 1fbc
000002e0: 3158 703d 982c 713b d256 4fbd cd6c 7b3c
000002f0: 8089 87bc 58d9 1ebd 8a52 4f3c 9804 963c
00000300: bb6d 39bd f3b1 663d 71c0 8bbd 1705 04bd
00000310: 7f6e 4e3d ac2c b8bc 6b44 443d bb68 be3c
00000320: b845 8a3d cb4d 36bd 23cc 9dbc 73e5 7c3d
00000330: 9448 56bd 3120 6c3d f66c febb 8c18 71bd
00000340: 9ba8 a8bc 2843 af3b 5682 02bb c798 00bb
00000350: ea5a 62bd 0081 923d 2f79 ea3c 5dc5 023d
00000360: cd86 7cbd d168 b5bc 929d 4c3d 338e 693d
00000370: b58f 50bd 5602 acbc 55a2 22bd 4c9a a93c
00000380: 05a1 a1bb b82e 003c 27ca 74bd a592 323d
00000390: 548f b0bb 34c2 f8bc cb79 123d 4d8d da3b
000003a0: e68a adbc fccf 803d b9d2 51bd d424 5b3d
000003b0: 69f9 8c3b 4cab 6ebd 8cb6 bbbc 7f18 0ebc
000003c0: 79ca 8d3c 9a99 74bd 70a4 59bd 3ecc 1c3c
000003d0: f3e5 2dbd adad a9bc 5fe1 4dbc 57db ee3c
000003e0: f58a 49bd 3108 69bd 157d 06bd 2be4 54bd
000003f0: 42b4 6ebc 3098 743d 1903 b1bc 68ea 66bc

weight f4 [256, 256]
0.020809742 -0.05707346 -0.024909625 0.016027106 0.003937463 -0.033202585 -0.055285156 0.066999815
-0.011340219 -0.0024463106 0.16629943 -0.057789616 0.0013189022 0.057471804 -0.009395393 -0.0077503985
0.039291494 0.064629935 0.012691652 -0.0015952331 -0.03191539 -0.02047306 -0.031971373 0.060065042
0.0076447995 0.04360507 0.05598976 0.013889729 0.03679873 -0.028787384 -0.013310363 0.031170161
0.06612704 0.076752275 -0.025837582 0.047540765 -0.0269071 -0.0022532314 -0.012698575 0.041534927
-0.046401188 -0.0135224275 0.03777178 0.05811932 -0.033679146 0.02036001 -0.015211984 0.05061645
-0.010360044 0.047418542 0.029125836 0.06194819 -0.006372163 0.017165326 -0.051110696 0.037553407
-0.015243958 0.044115867 0.021208927 -0.08393217 0.017679827 0.017164506 0.07103929 -0.028698187
-0.0099282665 -0.0019598862 -0.02657157 0.05254466 0.023199996 0.045781422 0.026959302 -0.10097755
0.014769556 0.22613442 -0.0367299 -0.036697607 -0.035952542 0.05961494 0.060076196 -0.020038828
-0.0016275536 0.009329051 0.032748196 -0.037772965 0.0067093545 0.058263585 0.07169184 0.046965964
-0.040889435 0.0152222905 0.04956287 0.07052663 0.0759518 0.042519413 0.17272581 -0.037854683
-0.11322589 0.035275854 0.0054095523 0.015470152 -0.021641186 -0.023957182 0.016985202 -0.04186894
-0.029377513 -0.04339284 0.06422204 -0.07294173 -0.03748044 0.030603113 0.008561938 -0.06843201
-0.019315453 0.06587505 -0.082812324 0.043471444 0.0003847789 -0.004282147 -0.0070785284 -0.0023732032
-0.028735254 0.022530554 0.067937925 -0.021299327 0.038257025 -0.03536064 -0.027624693 0.04608395
-0.016030924 -0.17177258 -0.027718239 0.039135017 0.0578819 0.13794963 0.011419455 -0.013378937
0.0132493805 -0.013472438 0.0631396 0.05432062 -0.038753998 -0.019735847 -0.0034534778 0.055104982
-0.0720397 0.01424233 0.06496265 0.073422536 -0.032837216 0.03508498 -0.036919665 0.0399114
0.014107087 0.027923834 0.044317506 -0.029634075 0.054630823 -0.0382788 0.045339037 0.03704886
0.06375117 -0.03100479 0.02434543 -0.037723847 -0.048247147 0.064967744 0.015074422 -0.02367474
-0.011175791 -0.04274726 0.02515019 0.050194774 -0.034568492 0.04410417 0.01961983 0.069809064
-0.02876824 0.065339305 0.047834434 -0.027805854 -0.038045183 0.022124818 0.01623333 -0.035472237
-0.0534895 -0.011171683 -0.040400475 0.022126606 0.020436263 0.012550344 -0.038591977 -0.041223668
-0.041112553 -0.041646447 0.07042254 -0.01730114 0.02072587 0.019859003 0.001943674 0.007025458
-0.053520776 0.067357965 0.043627575 -0.039736677 0.0308583 0.0411786 -0.05377373 -0.062139716
-0.040213116 -0.04702576 0.043056943 0.07497405 -0.06168122 0.0100552365 0.023119435 0.04951261
0.020882484 -0.06502219 -0.054964066 -0.05700335 -0.05972178 -0.0596973 0.06375066 -0.04181902
-0.014576179 -0.011877141 0.035005737 -0.019871967 0.011846824 -0.008728881 -0.003976168 -0.06419929
0.050502386 0.0010377591 0.018439181 0.023105618 -0.061223418 0.01703587 -0.06811327 0.041964054
-0.051749963 0.07990556 -0.021137327 0.040523786 -0.03192319 0.019509912 0.07124621 0.012855305
-0.020270474 -0.056880705 0.048902154 0.016387776 0.013983875 0.04977786 0.01756884 -0.04111483
00000000: 3179 aa3c dcc5 69bd 450f ccbc 474b 833c
00000010: d505 813b 6fff 07bd b072 62bd 3337 893d
00000020: 53cc 39bc 4852 20bb 664a 2a3e ceb4 6cbd
00000030: 04df ac3a 8e67 6b3d 22ef 19bc 0ef7 fdbb
00000040: 1ef0 203d b35c 843d a6f0 4f3c 2417 d1ba
00000050: b6b9 02bd 1eb7 a7bc 6af4 02bd c306 763d
00000060: 3a81 fa3b 3b9b 323d 8555 653d bf91 633c
00000070: 44ba 163d 85d3 ebbc b513 5abc 9158 ff3c
00000080: 9d6d 873d 4c30 9d3d 56a9 d3bc 1bba 423d
00000090: 476c dcbc f3aa 13bb af0d 50bc 8720 2a3d
000000a0: 2c0f 3ebd 2c8d 5dbc 95b6 1a3d 860e 6e3d
000000b0: 25f3 09bd 09ca a63c af3b 79bc 3253 4f3d
000000c0: 2dbd 29bc f239 423d 4e99 ee3c 63bd 7d3d
000000d0: 94cd d0bb 4c9e 8c3c 7359 51bd 9ad1 193d
000000e0: cbc1 79bc d7b2 343d 58be ad3c a1e4 abbd
000000f0: 49d5 903c 949c 8c3c 0c7d 913d 7618 ebbc
00000100: 2baa 22bc 6f71 00bb 9fac d9bc 1239 573d
00000110: eb0d be3c 4d85 3b3d c1d9 dc3c 51cd cebd
00000120: 02fc 713c c88f 673e 1772 16bd 3b50 16bd
00000130: f942 13bd cc2e 743d 7512 763d 7828 a4bc
00000140: a353 d5ba e0d8 183c f922 063d d3b7 1abd
00000150: 25da db3b cca5 6e3d 2cd3 923d 625f 403d
00000160: ae7b 27bd ea66 793c 7002 4b3d 4470 903d
00000170: 9e8c 9b3d d628 2e3d 09df 303e 830d 1bbd
00000180: fae2 e7bd 6a7d 103d 9d42 b13b 8576 7d3c
00000190: db48 b1bc da41 c4bc 8d24 8b3c c47e 2bbd
000001a0: 1ca9 f0bc b1bc 31bd d886 833d 7962 95bd
000001b0: 1785 19bd 61b3 fa3c 5f47 0c3c 1526 8cbd
000001c0: 713b 9ebc 80e9 863d 8299 a9bd 1d0f 323d
000001d0: 26bc c939 4151 8cbb 00f3 e7bb be87 1bbb
000001e0: 3266 ebbc ff91 b83c 0a23 8b3d ed7b aebc
000001f0: 66b3 1c3d 52d6 10bd 2e4d e2bc 86c2 3c3d
00000200: 4953 83bc 27e5 2fbe 5c11 e3bc 0a4c 203d
00000210: 9215 6d3d ab42 0d3e aa18 3b3c 5433 5bbc
00000220: ee13 593c 80bb 5cbc 564f 813d 4c7f 5e3d
00000230: 83bc 1ebd 12ad a1bc be53 62bb c3b5 613d
00000240: 8d89 93bd a958 693c 230b 853d 8e5e 963d
00000250: 5180 06bd 45b5 0f3d 1339 17bd 237a 233d
00000260: 6921 673c 86c0 e43c 4686 353d 29c3 f2bc
00000270: 92c4 5f3d 3bca 1cbd 6db5 393d 8cc0 173d
00000280: f98f 823d c2fd fdbc 1170 c73c 5284 1abd
00000290: cd9e 45bd cf0d 853d b5fa 763c 87f1 c1bc
000002a0: aa1a 37bc c017 2fbd c507 ce3c 0999 4d3d
000002b0: b197 0dbd 93a6 343d c4b9 a03c 0ef8 8e3d
000002c0: 5fab ebbc 9dd0 853d 0aee 433d 1ac9 e3bc
000002d0: 44d5 1bbd 1b3f b53c c3fb 843c 564b 11bd
000002e0: ce17 5bbd 6f09 37bc f87a 25bd db42 b53c
000002f0: f369 a73c f59f 4d3c 9f12 1ebd 26da 28bd
00000300: a365 28bd 7795 2abd b139 903d 1fbb 8dbc
00000310: 4dc9 a93c 59af a23c e1c2 fe3a d035 e63b
00000320: 9a38 5bbd f9f2 893d d4b2 323d edc2 22bd
00000330: 8cca fc3c e4aa 283d d841 5cbd 3786 7ebd
00000340: 82b6 24bd 159e 40bd 7a5c 303d ff8b 993d
00000350: 72a5 7cbd b8be 243c f864 bd3c bccd 4a3d
00000360: be11 ab3c 5b2a 85bd 0022 61bd 587c 69bd
00000370: d39e 74bd 2885 74bd b58f 823d 6c4a 2bbd
00000380: edd0 6ebc 5798 42bc 2d62 0f3d 89ca a2bc
00000390: 2e19 423c 9503 0fbc 844a 82bb eb7a 83bd
000003a0: 97db 4e3d 6b05 883a c40d 973c fe47 bd3c
000003b0: 68c5 7abd cf8e 8b3c f87e 8bbd 80e2 2b3d
000003c0: c5f7 53bd 87a5 a33d 3028 adbc 45fc 253d
000003d0: e4c1 02bd 40d3 9f3c 88e9 913d 0f9f 523c
000003e0: 440e a6bc befb 68bd a04d 483d a83f 863c
000003f0: 9f1c 653c dfe3 4b3d 87ec 8f3c 0668 28bd

bias f4 [256]
-0.010587403 -0.0002423862 0.029939208 -0.01958616 -0.07508945 -0.013974054 -0.022426479 -0.038689874
-0.038418427 -0.041747514 -0.04140909 -0.050481383 -0.030001761 0.05898871 -0.047873758 0.0013513527
0.06658398 0.021047533 -0.062571354 -0.065553166 0.0011761134 0.03850265 -0.013094986 -0.00902893
-0.02506817 -0.0005307298 0.007966901 0.0022138283 0.0037386157 -0.026228294 -0.010141477 0.052764874
0.0055764993 -0.014118209 -0.06719998 -0.04247293 -0.022610571 0.07727233 0.0038088153 -0.006233082
-0.04443407 0.04824863 -0.050459705 -0.040224068 -0.027002033 -0.02370625 -0.0152565325 -0.04879271
-0.0437289 -0.055066656 0.016001958 0.046075344 0.059557594 0.017346937 0.0013644551 0.019770894
0.057095274 -0.012939231 -0.054315813 -0.016691871 -0.050721098 0.042087704 0.012617985 0.00012573131
-0.053164728 0.034458723 0.00596527 0.06854225 0.009167689 0.051923722 0.016491687 -0.07436913
-0.06486739 0.056958184 0.073032536 0.023605188 0.05302318 -0.025802338 0.046955083 -0.02511972
-0.032414366 -0.054493133 0.047643065 -0.02647081 -0.03864986 0.022767374 -0.022531943 0.012085558
-0.029919172 0.016522672 -0.04980902 -0.024991043 -0.040352628 0.011558603 -0.03295509 0.04684107
0.037275154 0.004164315 -0.010894172 -0.020353561 -0.0076449956 0.04518444 0.0038103133 -0.022830924
0.04078502 0.032799095 -0.032516282 -0.016020928 0.02397163 -0.005597671 -0.005627931 0.024329497
-0.0015440445 0.015442665 -0.029932108 -0.042481955 -0.047157153 -0.011886285 -0.0071583423 0.04525832
0.028916918 -0.003979668 0.029787868 -0.0070535545 0.05094054 0.05097267 -0.00016875299 0.04023432
0.014966052 -0.057661876 0.062273204 0.0064700576 -0.06534703 0.038594414 0.045529436 -0.06184506
-0.03784664 -0.046336424 0.023616256 0.041097835 0.055266198 -0.011747314 0.02625414 0.036804754
-0.034163687 0.049349952 0.03152853 0.06021326 0.05462117 0.032812882 -0.049632944 0.042060077
-0.019508613 0.023410136 -0.022592237 0.011147211 0.026376033 -0.022412166 0.059346687 -0.04031434
-0.05532871 0.017472332 -0.04888156 -0.011004067 0.0591983 -0.04864393 0.050402056 -0.026159845
-0.012752606 0.023948139 0.062153697 0.07526325 0.048778184 0.05372067 0.030273315 0.054311566
-0.022491423 -0.012903085 0.054126672 -0.009700701 -0.026061961 0.02323637 -0.036738746 -0.044686835
-0.010557767 0.023874436 -0.07748959 0.009794987 0.06254881 -0.04258825 -0.05897842 -0.017945124
0.008531517 -0.032441065 -0.06811478 -0.0035839747 -0.02303826 0.054079205 -0.027595334 0.047037512
-0.041090295 -0.010353204 0.0026037055 0.0071720853 -0.010253617 0.010716006 0.0072469516 0.021385945
-0.017263724 -0.025038602 0.06352465 0.043321233 0.04429328 0.005885416 0.021735994 0.014793118
-0.06939463 0.06827414 0.034188244 -0.0019459936 -0.031147549 -0.06307635 0.008015619 -0.043724068
0.009581287 -0.013075904 0.037655182 -0.028261343 0.023841778 0.028285475 -0.050978895 0.02175365
0.062424798 0.002217616 -0.0016390375 0.022301057 -0.030379357 -0.027908433 0.03513493 0.06896685
-0.06078269 0.012026842 0.027536703 0.012450276 -0.023950506 -0.00020695568 -0.04679072 -0.02218321
-0.034949694 -0.066751875 0.034438573 0.059476953 0.0061215777 -0.008626631 0.008664611 -0.013501471
00000000: c976 2dbc 0d29 7eb9 1243 f53c 2873 a0bc
00000010: 7fc8 99bd 6ef3 64bc bcb7 b7bc 4679 1ebd
00000020: a45c 1dbd 71ff 2abd 949c 29bd 91c5 4ebd
00000030: 41c6 f5bc 259e 713d 4617 44bd df1f b13a
00000040: 2f5d 883d e06b ac3c 6925 80bd bd40 86bd
00000050: d127 9a3a f4b4 1d3d 5a8c 56bc 14ee 13bc
00000060: c35b cdbc ad20 0bba 9b87 023c e015 113b
00000070: 9003 753b b8dc d6bc 7028 26bc fb1f 583d
00000080: 11bb b63b 0f50 67bc 25a0 89bd 18f8 2dbd
00000090: ce39 b9bc f540 9e3d 519d 793b e23e ccbb
000000a0: 8000 36bd 5ba0 453d d6ae 4ebd fec1 24bd
000000b0: 5e33 ddbc 9c33 c2bc 89f6 79bc ddda 47bd
000000c0: 131d 33bd 938d 61bd 8a16 833c 80b9 3c3d
000000d0: aaf2 733d 2a1b 8e3c 84d7 b23a 92f6 a13c
000000e0: bcdc 693d 11ff 53bc 427a 5ebd 64bd 88bc
000000f0: edc0 4fbd 2864 2c3d aabb 4e3c bed6 0339
00000100: 42c3 59bd 9724 0d3d 5078 c33b e15f 8c3d
00000110: 1334 163c f8ad 543d 9319 873c d84e 98bd
00000120: 32d9 84bd fc4c 693d 1592 953d ab5f c13c
00000130: d62e 593d 6d5f d3bc f953 403d dfc7 cdbc
00000140: edc4 04bd 3134 5fbd 6025 433d 50d9 d8bc
00000150: 514f 1ebd a582 ba3c e994 b8bc 8102 463c
00000160: 0d19 f5bc 8e5a 873c 8b04 4cbd 04ba ccbc
00000170: cc48 25bd 4b60 3d3c ebfb 06bd 6cdc 3f3d
00000180: d5ad 183d ce74 883b 787d 32bc 83bc a6bc
00000190: df82 fabb 5213 393d 73b6 793b eb07 bbbc
000001a0: 310e 273d 5858 063d cb2f 05bd 523e 83bc
000001b0: 2760 c43c ab6c b7bb 826a b8bb a74e c73c
000001c0: 8961 caba 3b03 7d3c 2e34 f5bc 8f01 2ebd
000001d0: dc27 41bd b1be 42bc 8790 eabb ca60 393d
000001e0: 2ce3 ec3c e067 82bb b005 f43c 8121 e7bb
000001f0: 07a7 503d b8c8 503d 49f3 30b9 becc 243d
00000200: 2c34 753c dc2e 6cbd 3012 7f3d c702 d43b
00000210: aad4 85bd 2d15 1e3d 137d 3a3d 3f51 7dbd
00000220: 1405 1bbd 43cb 3dbd e176 c13c 3456 283d
00000230: cf5e 623d ce77 40bc ec12 d73c 95c0 163d
00000240: 39ef 0bbd 2d23 4a3d 0f24 013d 2ea2 763d
00000250: 73ba 5f3d cd66 063d ea4b 4bbd 3047 2c3d
00000260: 87d0 9fbc 9dc6 bf3c 5b13 b9bc cba2 363c
00000270: 8d12 d83c b899 b7bc 8315 733d a620 25bd
00000280: 5ba0 62bd 2322 8f3c 0838 48bd 674a 34bc
00000290: eb79 723d dc3e 47bd 6372 4e3d 2c4d d6bc
000002a0: 4ef0 50bc e32e c43c e094 7e3d 9e23 9a3d
000002b0: a2cb 473d 350a 5c3d beff f73c ce75 5e3d
000002c0: ef3f b8bc 7667 53bc eeb3 5d3d b0ef 1ebc
000002d0: e57f d5bc 335a be3c 5e7b 16bd 8b09 37bd
000002e0: 7cfa 2cbc 5294 c33c ddb2 9ebd 277b 203c
000002f0: 9719 803d 0471 2ebd 5b93 71bd a701 93bc
00000300: c7c7 0b3c ece0 04bd c37f 8bbd 1ee1 6abb
00000310: bcba bcbc 2882 5d3d 9c0f e2bc 68aa 403d
00000320: 4c4e 28bd 7ca0 29bc eea2 2a3b d003 eb3b
00000330: c9fe 27bc 3092 2f3c d677 ed3b 9431 af3c
00000340: a76c 8dbc c11d cdbc 3619 823d 9b71 313d
00000350: df6c 353d 73da c03b af0f b23c d65e 723c
00000360: c61e 8ebd 50d3 8b3d f908 0c3d b610 ffba
00000370: 2529 ffbc 2c2e 81bd f153 033c 0218 33bd
00000380: d5fa 1c3c 513c 56bc 523c 1a3d 5584 e7bc
00000390: d54f c33c f1b6 e73c 3fcf 50bd b634 b23c
000003a0: 25b1 7f3d 6c55 113b f9d4 d6ba b5b0 b63c
000003b0: 21de f8bc 3aa0 e4bc a5e9 0f3d 7e3e 8d3d
000003c0: 45f7 78bd 3b0c 453c a794 e13c 3efc 4b3c
000003d0: da33 c4bc 3e02 59b9 a0a7 3fbd 90b9 b5bc
000003e0: 6927 0fbd 35b5 88bd 760f 0d3d 1b9e 733d
000003f0: 8497 c83b b756 0dbc 03f6 0d3c 4635 5dbc

weight f4 [97, 256]
-0.019733611 0.005584106 -0.0075815516 -0.0020533178 0.04152011 0.001096505 -0.011587272 -0.044387158
0.046648238 0.025055682 -0.0059186467 -0.012062455 0.048413604 0.040679097 -0.02145924 0.03607064
-0.052968323 -0.031380344 0.023815023 0.057718303 0.009251847 0.01847485 0.039722476 -0.04130338
0.024912603 0.024411527 0.015023286 -0.055528924 -0.020129334 0.019575244 0.042365514 -0.0051839626
0.005300687 -0.027067527 -0.012678495 -0.058636073 0.0031932027 0.04211041 0.052295458 -0.008740488
-0.06692446 -0.042795762 0.026704196 0.061725162 -0.05529525 0.04764332 0.030709475 0.04556887
-0.0023059524 -0.030388033 -0.023823258 -0.024616428 0.04183561 -0.04802165 0.0048839417 0.0016326898
-0.04171333 0.039806165 0.0425046 -0.019512435 0.022567539 -0.012357158 0.011039668 0.023779223
-0.030254388 -0.00820206 -0.053832967 0.05362583 -0.04707131 0.028599516 -0.036915816 -0.01642614
0.036521055 0.074304566 0.0071048765 -0.021730036 -0.009867163 0.00705719 -0.043352198 0.049001645
-0.03162886 -0.025601799 0.052786496 0.0018231425 0.024761992 0.026953302 0.027603166 0.011890869
0.009638367 0.029493444 0.039860193 0.0024057697 -0.021622987 -0.058516964 -0.0024006981 0.059679724
0.07012974 -0.051245485 -0.02883613 -0.012510658 0.013468399 -0.013031422 0.051202312 -0.05276011
0.011371436 -0.03866635 -0.04565405 -0.011931126 -0.017871032 -0.0054299687 0.04737371 0.043022938
0.029928442 -0.009538076 0.010045826 -0.0040104715 -0.020041516 0.034141257 0.05980321 0.02387606
0.04698499 0.013788702 0.0047842963 0.051586796 -0.022031685 0.04968528 -0.062818274 0.063641794
0.0073588155 -0.02530544 0.075916804 0.04766893 0.014564518 0.048064068 -0.035793368 -0.14270818
0.10177118 0.04295725 0.003145523 0.05340697 0.05783989 0.058886994 -0.0021059518 0.048586838
0.012470235 0.013475125 0.058340438 0.027806615 0.009232587 0.10909101 0.06502711 0.022829473
0.033137064 0.02326255 -0.0023590673 0.016207451 0.010351409 -0.058389142 -0.01968516 0.3402855
0.011268719 -0.0828898 -0.039796382 -0.03590717 -0.062124085 0.014692238 -0.041473232 -0.06685959
-0.021623002 0.034590602 -0.034437303 0.044519797 -0.024493575 0.03130358 -0.026698595 -0.0498441
-0.07310439 0.07590272 -0.039947394 0.027384074 0.06826232 -0.010609885 0.0055630053 0.054502077
-0.10753063 -0.030522322 -0.047816597 -0.000624937 -0.007322217 -0.03311567 0.011520568 0.027613414
0.021335473 -0.03459188 -0.036323868 0.031166455 -0.049933545 0.044026393 0.06840796 -0.04935403
-0.025646402 0.010178098 0.02008727 0.06681957 0.01214589 -0.051575508 -0.030262534 0.016156733
-0.028686507 0.016338289 -0.04801371 0.03494008 0.07503489 0.07015462 -0.018341277 -0.0045269
0.037245627 0.0007712045 -0.02774568 -0.02149836 -0.04259643 0.0542773 -0.052015528 -0.009701535
-0.048173286 0.039564755 -0.014703878 0.00923663 0.056176137 0.0038644243 -0.04088701 0.071332075
-0.008927767 0.012924893 0.10387503 0.027752705 0.006836805 -0.036364518 -0.0066187214 -0.049272686
-0.013308988 0.02805223 -0.032557968 -0.021548152 0.029074853 0.061070923 0.033036366 0.024503112
-0.042082336 -0.06800527 0.09758652 0.038500316 0.011374726 0.05799633 -0.0035933203 -0.1007341
00000000: 62a8 a1bc e0fa b63b aa6e f8bb f590 06bb
00000010: fe10 2a3d 9ab8 8f3a 8bd8 3dbc 4fcf 35bd
00000020: 3912 3f3d 9341 cd3c 35f1 c1bb 9aa1 45bc
00000030: 584d 463d 209f 263d 4acb afbc cfbe 133d
00000040: 50f5 58bd ad88 00bd b917 c33c 076a 6c3d
00000050: 0f95 173c 9258 973c 09b4 223d bc2d 29bd
00000060: 8415 cc3c affa c73c 3b24 763c 4c72 63bd
00000070: 46e6 a4bc 435c a03c 7687 2d3d 3bde a9bb
00000080: 63b1 ad3b b8bc ddbc 76b9 4fbc 612c 70bd
00000090: 0d45 513b f77b 2c3d c333 563d 4434 0fbc
000000a0: b10f 89bd 9c4a 2fbd c2c2 da3c 86d3 7c3d
000000b0: 467d 62bd a425 433d 7092 fb3c 6ca6 3a3d
000000c0: 761f 17bb 53f0 f8bc fe28 c3bc 64a8 c9bc
000000d0: d15b 2b3d 5ab2 44bd 7909 a03b fbff d53a
000000e0: 99db 2abd ca0b 233d 4e19 2e3d 8bd8 9fbc
000000f0: 8fdf b83c ad75 4abc b9df 343c a5cc c23c
00000100: 0dd8 f7bc ef61 06bc f57f 5cbd c2a6 5b3d
00000110: d9cd 40bd 8849 ea3c 0a35 17bd 1d90 86bc
00000120: 1a97 153d fe2c 983d 06d0 e83b 3003 b2bc
00000130: e2a9 21bc 0040 e73b 1392 31bd f3b5 483d
00000140: 438d 01bd ddba d1bc a736 583d 83f6 ee3a
00000150: a9d9 ca3c 2ccd dc3c 0920 e23c ebd1 423c
00000160: 3eea 1d3c 3c9c f13c 7144 233d 1eaa 1d3b
00000170: b122 b1bc 7caf 6fbd 0855 1dbb ba72 743d
00000180: 2ea0 8f3d c9e6 51bd bf39 ecbc 81f9 4cbc
00000190: 8faa 5c3c bf81 55bc 84b9 513d fc1a 58bd
000001a0: 424f 3a3c 9b60 1ebd beff 3abd c57a 43bc
000001b0: 4566 92bc e1ed b1bb ef0a 423d d238 303d
000001c0: 7e2c f53c 9745 1cbc 4097 243c 466a 83bb
000001d0: 1b2e a4bc b4d7 0b3d 36f4 743d ba97 c33c
000001e0: 5573 403d 02ea 613c 96c5 9c3b ad4c 533d
000001f0: cb7b b4bc cb82 4b3d dea6 80bd a156 823d
00000200: 3822 f13b 5b4d cfbc 457a 9b3d 7f40 433d
00000210: 04a0 6e3c d4de 443d 119c 12bd 1822 12be
00000220: 696d d03d f1f3 2f3d 1e25 4e3b 44c1 5a3d
00000230: 85e9 6c3d 7d33 713d 0204 0abb fe02 473d
00000240: f54f 4c3c c5c6 5c3c 62f6 6e3d b3ca e33c
00000250: 4744 173c 1c6b df3d ef2c 853d e004 bb3c
00000260: bbba 073d 1a91 be3c 959a 1abb 7dc5 843c
00000270: f598 293c 7429 6fbd c642 a1bc e739 ae3e
00000280: 6fa0 383c 21c2 a9bd 8801 23bd 6613 13bd
00000290: d375 7ebd b6b7 703c d6df 29bd aeed 88bd
000002a0: b922 b1bc e0ae 0d3d 210e 0dbd 645a 363d
000002b0: c0a6 c8bc 2f38 003d 03b7 dabc 5429 4cbd
000002c0: c1b7 95bd e372 9b3d e19f 23bd 9154 e03c
000002d0: 1dcd 8b3d 15d5 2dbc df49 b63b 923d 5f3d
000002e0: 0539 dcbd f309 fabc 56db 43bd d0d2 23ba
000002f0: 35ef efbb 4ca4 07bd c4c0 3c3c 8735 e23c
00000300: bbc7 ae3c 37b0 0dbd 56c8 14bd cb50 ff3c
00000310: 1e87 4cbd 0555 343d 7919 8c3d 7427 4abd
00000320: 6718 d2bc 0ac2 263c 0f8e a43c b3d8 883d
00000330: 8eff 463c d740 53bd 22e9 f7bc 205b 843c
00000340: f7ff eabc e0d7 853c 06aa 44bd 541d 0f3d
00000350: e4ab 993d 3aad 8f3d 7240 96bc 6456 94bb
00000360: df8e 183d a82a 4a3a e94a e3bc 541d b0bc
00000370: 9879 2ebd e051 5e3d 3c0e 55bd 30f3 1ebc
00000380: 5a51 45bd a70e 223d 89e8 70bc 3c55 173c
00000390: f318 663d 4842 7d3b 2379 27bd 8d16 923d
000003a0: c545 12bc eec2 533c 6fbc d43d a459 e33c
000003b0: 4707 e03b f6f2 14bd dce1 d8bb 28d2 49bd
000003c0: f10d 5abc cacd e53c 815b 05bd c085 b0bc
000003d0: 632e ee3c 8125 7a3d 2451 073d c0ba c83c
000003e0: 875e 2cbd 5946 8bbd 71db c73d 82b2 1d3d
000003f0: 0f5d 3a3c 8f8d 6d3d e97d 6bbb ae4d cebd

bias f4 [97]
-0.032952555 -0.013226665 0.038889185 -0.026812116 -0.058616236 0.016323682 0.025294872 0.013775686
0.0019223103 0.015301753 0.023184463 -0.0047070193 -0.033536114 0.015461367 0.0103780655 -0.06964503
-0.0571364 0.033994712 0.006662351 0.06889349 0.010215337 0.029883627 -0.04945736 0.017560644
0.0599526 0.00473856 -0.029258931 -0.043042824 0.006404373 0.002130357 -0.0032321191 0.02743982
-0.010404627 0.051641114 -0.034727823 -0.018277086 0.052773625 -0.045819916 0.014489906 0.03518267
-0.013675439 0.00827679 0.0724085 -0.030591486 -0.07673147 -0.036304027 0.045735244 -0.028527448
-0.048449498 -0.02000832 -0.0059999144 -0.046750695 -0.023089597 -0.011491098 0.040668264 0.0631656
-0.049899526 0.01353013 -0.040329028 -0.051657423 0.010096584 0.049535424 -0.03646297 -0.025065936
-0.05672445 -0.010873858 -0.05263359 -0.032310918 0.055505957 0.04709483 -0.03252486 -0.0028614115
0.039751053 0.020182185 -0.030130673 0.014547602 -0.013037433 -0.04196561 -0.048438627 0.046883497
0.057408877 -0.030211281 0.023649568 0.029066918 -0.030829791 -0.013247042 -0.026076704 0.016166037
-0.022114547 -0.019292776 -0.041756205 -0.042053215 -0.057501543 0.0142754465 0.040044557 0.00293788
0.03451796
00000000: 42f9 06bd a7b4 58bc 444a 1f3d 15a5 dbbc
00000010: 9417 70bd 3eb9 853c 3137 cf3c 6ab3 613c
00000020: 08f6 fb3a 34b4 7a3c 58ed bd3c 573d 9abb
00000030: 2a5d 09bd ac51 7d3c c308 2a3c 0ea2 8ebd
00000040: dc07 6abd 0a3e 0b3d da4f da3b 0818 8d3d
00000050: 3b5e 273c 82ce f43c cd93 4abd 57db 8f3c
00000060: dc90 753d ec45 9b3b 6db0 efbc ac4d 30bd
00000070: c6db d13b 769d 0b3b f6d1 53bb 79c9 e03c
00000080: 2b78 2abc a285 533d c33e 0ebd d4b9 95bc
00000090: 2829 583d aaad 3bbd 1267 6d3c b41b 103d
000000a0: f30e 60bc 609b 073c e84a 943d ff9a fabc
000000b0: 6425 9dbd 88b3 14bd e154 3b3d 65b2 e9bc
000000c0: fb72 46bd 7de8 a3bc ee9a c4bb a87d 3fbd
000000d0: 6526 bdbc 2945 3cbc c493 263d f75c 813d
000000e0: 7263 4cbd 7aad 5d3c 0d30 25bd bc96 53bd
000000f0: 256c 253c a8e5 4a3d 325a 15bd 1457 cdbc
00000100: e657 68bd 4428 32bc 5296 57bd 7458 04bd
00000110: 375a 633d 82e6 403d ca38 05bd 8586 3bbb
00000120: 00d2 223d 1c55 a53c 9ad4 f6bc 1159 6e3c
00000130: f59a 55bc 22e4 2bbd 9567 46bd e908 403d
00000140: 9225 6b3d a67d f7bc bdbc c13c bf1d ee3c
00000150: c28e fcbc 1f0a 59bc d09e d5bc a36e 843c
00000160: 9129 b5bc e20b 9ebc 8e08 2bbd fe3f 2cbd
00000170: bd86 6bbd 90e3 693c c305 243d 7389 403b
00000180: b462 0d3d
