data/example_dynamics_data/office_LSTM.pth (torch, 206163 bytes, 10 tensors)

weight f4 [64, 107]
000000 db d9 1e 3d 4d c2 87 bd a3 93 fa 3c b2 ea a1 3d
       0.038781982 -0.06628857 0.030587977 0.07906093
000010 99 2a 1a bd f8 33 a5 3a 35 e9 a4 bc 63 12 a8 bd
       -0.03763828 0.0012603989 -0.020130733 -0.08206632
000020 a7 9b 41 3c b5 9b 81 bd 2c 34 b6 3d 07 ef c3 3c
       0.011816896 -0.06328527 0.0889667 0.023917688
000030 fb 63 81 38 31 2c 55 bd bf 0f 60 3c 14 f3 49 3d
       6.169822e-05 -0.052044097 0.013675629 0.049304083
000040 29 73 f3 3a 16 03 6f 3d 5c 05 ad 3d ea 64 ce 3b
       0.0018573749 0.058352552 0.08448288 0.006298651
000050 0a 29 e4 bc 8f 7e 22 bd d2 1f c4 3d 7c bd 61 3c
       -0.0278516 -0.039671477 0.09576382 0.013778087
000060 b7 d5 36 bd e0 af 98 3d 58 57 8f bd b2 25 9d 3c
       -0.044637408 0.074554205 -0.069990814 0.019183014
000070 b1 aa 48 bc c2 30 9f 3d d3 79 cf 3d ec 8f 91 bc
       -0.012247727 0.07772972 0.10130658 -0.017768823
000080 3a ec eb 3b a8 1d a0 bd 8c cf aa bd 84 55 31 3b
       0.0071997913 -0.078181565 -0.08340368 0.0027059028
000090 90 a0 db bd 53 37 83 3c c5 68 39 bd e9 38 19 bc
       -0.10723984 0.016017592 -0.04526593 -0.009351947
0000a0 ea fb 2f 3d 4d a8 86 3d c8 48 89 bd 92 80 37 3d
       0.042964853 0.065750696 -0.06703335 0.04480035
0000b0 fc a3 38 3d e4 9d 84 3d a1 e7 12 bc 0f 41 70 3d
       0.045078263 0.06475428 -0.008966357 0.058655795
0000c0 3a 9a e3 3b 0a e0 30 3d 63 92 98 bd f6 5d 0c bd
       0.0069458755 0.04318241 -0.07449796 -0.034269296
0000d0 d0 01 08 bd 35 55 9b 3d 95 c4 b9 bd b4 8a 85 bd
       -0.033204854 0.07584611 -0.09070698 -0.06520596
0000e0 fd a1 32 3c b8 7d 3f bc de a4 8b bd f8 3b 10 bd
       0.010902879 -0.0116876885 -0.06818555 -0.03521344
0000f0 90 6d 22 bd 7a 20 8f bd c0 b1 63 bd ac 12 89 3d
       -0.03965527 -0.06988616 -0.055589437 0.066930145
000100 ea be 84 3c 24 48 b5 3d dd eb f2 3c 96 db 8c bc
       0.016204316 0.0885165 0.029653484 -0.01719455
000110 66 db 1c 3c 65 bc 1d 3d ef 54 84 bd 19 2f 75 bd
       0.009573793 0.038509745 -0.06461512 -0.05985937
000120 9c a7 c1 3d e0 32 bf bd f3 c5 96 bd 84 bc 05 3e
       0.09455797 -0.093358755 -0.073619746 0.13060194
000130 59 2d 64 3d 11 05 9a ba 59 95 e8 3d 59 c6 53 bc
       0.05570731 -0.0011750777 0.11356611 -0.012925708
000140 45 32 c7 bd b4 09 85 3d f4 83 41 3b 5e 26 92 3d
       -0.09726385 0.06495991 0.0029528113 0.07136224
000150 5f e5 bf 3d 3d 7e 8f bd 91 65 7d bb 6a cb 36 bd
       0.09369921 -0.070065 -0.0038665275 -0.044627585
000160 7c 31 a3 bd 1a 74 a3 bc 65 8e 83 3d 33 54 cd bc
       -0.07968423 -0.019952822 0.06423644 -0.025064563
000170 40 ae 64 3d c9 6c 46 bd 5d 29 11 bd 18 2e 1a 3b
       0.05583024 -0.04844359 -0.035439838 0.002352601
000180 c1 a3 6a 3d c1 d0 b0 3c 47 9b 31 3d 5b c1 cb bb
       0.057285074 0.021583917 0.043360975 -0.006218118
000190 1e 8a 21 3d 05 19 7c bc aa 66 19 bd 02 d2 37 bd
       0.03943836 -0.0153868245 -0.037451424 -0.044878013
0001a0 4e cd 1c 3d 04 b3 51 bd d5 e2 91 3d 54 43 28 bc
       0.03828173 -0.051196113 0.07123343 -0.0102699585
0001b0 6e 06 b9 3d ca 2f 5e bd ae 9f c6 bd d4 91 e1 3b
       0.090344295 -0.054244794 -0.09698425 0.006883839
0001c0 de 81 38 3a 05 85 8a be b3 f4 0f bd 0a b8 8d bd
       0.00070383947 -0.2705461 -0.035145473 -0.06919868
0001d0 8c 12 c9 3b ac ee 93 3d 15 ad ac 3d a2 ab 6f 3e
       0.006136244 0.072232574 0.0843145 0.23405316
0001e0 0e 77 71 bd 2b 11 73 3d 07 91 87 3d 86 8f f2 3c
       -0.05895143 0.059342545 0.06619459 0.029609453
0001f0 ac 8d fd 3d be eb 58 bd 64 df cb bb 96 28 84 3e
       0.123805374 -0.052959196 -0.0062216986 0.25812215
000200 b0 54 36 3d f0 66 1f be b6 58 bd 3c b8 a7 1b be
       0.044514358 -0.15566611 0.02311359 -0.15200698
000210 6d 6d 7c 3e 6f 02 33 be 28 5b e1 bd 8d 6a 0f bd
       0.24651118 -0.17481397 -0.11003715 -0.035013724
000220 58 77 dd bd 77 0f a6 3d b7 ec 86 3e a1 e1 2c be
       -0.10813779 0.081084184 0.26352474 -0.16882946
000230 da e3 e4 bc 35 0a 8f bd 00 29 24 bd cd e4 25 3c
       -0.02794068 -0.06984369 -0.040078163 0.010125351
000240 ca 0f a8 bd 97 6f 3a be 4d 3a 05 3e 4b a7 b5 3d
       -0.082061365 -0.1820663 0.13010521 0.08869799
000250 56 37 80 3e b5 7c c3 bd 79 fc a5 3d c0 f6 8f 3d
       0.25042218 -0.0954527 0.08104796 0.07029486
000260 39 52 92 be 4d 35 9e 3e 44 0d 8f 3d ac 1f 08 be
       -0.28578356 0.3090004 0.06984952 -0.13293332
000270 c3 a6 a2 3c 29 fb 3e bd 89 9f 6e bd 9e 0f 91 bd
       0.019854909 -0.046626244 -0.058257613 -0.07083057
000280 d7 df b1 3d 6a 00 cb 3c 66 19 20 3d 6b 88 0f 3d
       0.08685272 0.02478047 0.03908672 0.035042208
000290 d2 37 7b 3b a8 d9 77 bc 48 c8 45 bd 2e 14 d2 bc
       0.0038332832 -0.015127577 -0.048286706 -0.025644388
0002a0 b9 f5 ad bd 65 dd 94 3d ca 59 96 3d 12 6e 07 bd
       -0.084941335 0.0726879 0.07341345 -0.033063956
0002b0 5b a6 b4 bd 37 54 b0 3b e1 da 51 3d db 19 c8 3d
       -0.08820792 0.005381133 0.05123413 0.097705565
0002c0 fa c4 cf 3d 01 68 18 be 2b ca b4 3d cf 6b 68 bd
       0.10144992 -0.14883424 0.08827623 -0.05674344
0002d0 cd 6a eb 3d d2 27 1a be 38 e8 12 3e e7 45 1c 3d
       0.1149498 -0.15054253 0.14346397 0.0381526
0002e0 5e 5c d2 ba 9e 4f c6 3b 2c 05 c7 bc d9 ce 6e bc
       -0.0016049256 0.0060519716 -0.024294458 -0.0145756835
0002f0 06 20 d1 3b 6a a9 73 3d af c3 44 3d b6 b4 66 bd
       0.0063819913 0.059487738 0.04803818 -0.056324683
000300 2f e7 94 bb af 91 a6 bd a9 9c cc bc a6 c1 ca 3d
       -0.004544161 -0.08133256 -0.024977045 0.09900217
000310 2a 61 0d bc 25 b5 97 bd d7 7d bb 3b 51 56 15 bd
       -0.008629123 -0.074075975 0.0057217884 -0.03645927
000320 66 2b 47 3d 03 75 21 3d b9 af 99 39 29 d9 9f bd
       0.048625372 0.03941823 0.00029313358 -0.07805092
000330 d5 bd 81 bd 17 69 b5 bc d0 12 aa bd c1 53 ad 3c
       -0.06335036 -0.022144837 -0.083043694 0.021158101
000340 64 ab 5b 3d 36 fb 91 3c a0 5a 4f bd 66 75 e1 3c
       0.053630248 0.017819982 -0.050623536 0.0275218
000350 92 f3 34 bc 54 43 b8 bd a3 cd a8 3d 63 25 46 bd
       -0.0110444 -0.08997217 0.08242347 -0.0483755
000360 78 12 0b 3d 02 32 45 3d 26 0f 19 3d d7 42 98 bd
       0.03395316 0.048143394 0.037367962 -0.07434624
000370 32 d9 b3 3d 39 77 5c 3d a1 0c 52 bc 92 87 55 bc
       0.08781661 0.053824637 -0.012820394 -0.013032811
000380 f1 d0 0f 3c 24 92 05 3d 7a 28 6d bc 5f 28 a7 bd
       0.008777843 0.032610074 -0.014474982 -0.08161997
000390 79 a8 b8 3d f8 03 f8 3c d1 3e 1d bc 1f 9b 2c bd
       0.090165086 0.03027533 -0.009597496 -0.042140123
0003a0 1f 5e 9f 3d 47 f0 99 3c e5 92 6a bd 53 9d 30 3d
       0.07781624 0.018791331 -0.057268996 0.043118786
0003b0 36 1e 86 bd 6f e8 ab 3d fe 54 88 3d 54 d8 7a bd
       -0.06548731 0.083939426 0.06656836 -0.061241463
0003c0 ad 60 b3 bd b8 24 9b 3c 8c 13 e5 bd 4f dd 81 3d
       -0.08758674 0.018938407 -0.11185369 0.063410394
0003d0 12 a0 51 bd 9b c2 19 3d 93 13 4e 3d c7 bb bb bd
       -0.051178046 0.037539106 0.050311636 -0.09166675
0003e0 52 77 3f 3d 6f bb 9f bd 36 02 e4 bd 2b c4 a3 ba
       0.046744652 -0.07799422 -0.11133234 -0.0012494376
0003f0 58 1e 87 3c e0 de 58 bd c3 5f a5 bd 8b 34 9e 3d
       0.016493961 -0.052946925 -0.08074906 0.077248655

bias f4 [64]
000000 ac 31 3d bd e9 5b 91 bd 45 b5 96 bd 64 e0 9b bd
       -0.04618995 -0.070976086 -0.07358793 -0.076111585
000010 8b 05 ac 3d 56 b6 8b bd 62 16 96 3d b4 d7 1c bc
       0.08399495 -0.06821887 0.07328488 -0.009572912
000020 b0 d1 f4 bb 50 9f a8 3c c6 cb 60 3d ad 2d ab 3d
       -0.0074712858 0.020583779 0.054881833 0.08358321
000030 83 f1 95 3d a7 d2 85 bc 6f 3f 0c 3c e0 15 16 bd
       0.07321455 -0.016335798 0.008560046 -0.036641955
000040 b6 39 a2 bd 9f 55 db bd 7a f5 dd 3c e4 93 90 bd
       -0.07921164 -0.1070969 0.027094591 -0.07059458
000050 b1 31 be bc bf fd 39 bd 65 b4 d1 bd e6 52 0d bd
       -0.023217054 -0.045408007 -0.10239486 -0.034502886
000060 74 11 41 3d 46 97 8e 3d 5e 3a 25 bd b7 a0 18 3d
       0.047135785 0.06962447 -0.040338866 0.037262645
000070 1b e5 d3 bc 9f 47 3a bd f9 56 83 bd 9c 87 a8 bd
       -0.025866082 -0.04547846 -0.06413073 -0.082289904
000080 f0 d1 52 3d c2 95 38 bd 47 e5 b5 3d 2b c0 32 bd
       0.051469743 -0.045064695 0.08881622 -0.043640297
000090 7a 3d d8 3d 22 ec de 3d 86 ab 48 bd d6 ed fd 3d
       0.10558601 0.108848825 -0.048991702 0.12398879
0000a0 ae c4 f3 bd 23 04 a7 bd 7d 78 40 bc 32 fe c5 3d
       -0.11902748 -0.08155086 -0.011747477 0.096676245
0000b0 7e db 9b 3d 30 67 73 3d 66 ea 21 bd 9c 59 b4 3c
       0.07610224 0.05942458 -0.03953018 0.022015385
0000c0 0b 98 95 bc 2d f8 f2 3c c0 af a3 3d ba 48 93 3d
       -0.018260976 0.029659355 0.07992506 0.07191606
0000d0 5c 89 65 3d cf ce 25 bc 0a 45 62 3d d8 92 11 bd
       0.0560392 -0.010120108 0.055241622 -0.03554043
0000e0 23 b3 6d 3c a7 f2 73 3d 96 f6 27 3d 4b 50 42 3d
       0.014508042 0.059557583 0.041006647 0.047439855
0000f0 60 7f ef 3d f9 db ba 3d fa f8 64 bd c2 cf 86 3c
       0.11694217 0.09123988 -0.055901505 0.016456489

weight f4 [64, 64]
000000 59 4f 68 3d 7f 3a 56 3c 99 1b ce 3d 42 d1 8e bc
       0.056716297 0.01307547 0.100638576 -0.017433766
000010 a9 dc 29 3d 3c 5b 8a 3d 71 18 45 bd d2 d7 ad bc
       0.041470204 0.06755683 -0.048119012 -0.021221075
000020 9f ff 26 bd 90 ae 4a 3d 12 13 8e bc d8 d4 0a bd
       -0.040771123 0.049482882 -0.017343078 -0.03389439
000030 8a bf 8e 3d 50 26 21 bd 7c 25 c6 bd 22 b7 ca 3b
       0.06970127 -0.03934318 -0.09675118 0.006186382
000040 8b 1a 12 3d 94 14 ae 3c ab 43 d3 bd 75 4f 8b be
       0.035669845 0.021250047 -0.10315641 -0.27209058
000050 c7 ac 39 be 58 8f 3f bd e9 d2 3e bd ac 72 03 be
       -0.18132316 -0.046767563 -0.04658786 -0.12836713
000060 7c e6 34 bd 40 52 f9 bc 22 9e 18 be 93 30 6f bd
       -0.04416512 -0.030434728 -0.14904073 -0.058395933
000070 46 8f 2e 3d 0c b7 65 3d cc c7 0c 3e b9 72 81 3d
       0.042617105 0.05608277 0.13748091 0.0632071
000080 2f ab 8b bd 56 8d e0 bd b2 54 14 be 99 c1 d3 3d
       -0.0681976 -0.10964458 -0.14485434 0.1033966
000090 5e 9c 79 38 2e 7c 66 3d 3c 6f 92 3d 84 c8 09 be
       5.9511854e-05 0.05627077 0.071501225 -0.13455397
0000a0 d1 1e 49 bd 76 0b ee bd fe 73 45 3d 47 c8 fb 3d
       -0.049101654 -0.1162328 0.048206322 0.12294059
0000b0 e2 cf 81 bc fa f5 92 3d 3c 8e 82 bd b5 e4 f1 bd
       -0.015846197 0.071758226 -0.06374785 -0.118112005
0000c0 80 3e 00 3e 5c c0 9e 3c 06 e1 12 3d ec b3 56 3c
       0.12523842 0.019378833 0.03585913 0.01310442
0000d0 51 e2 ff bd dc 08 0c bd 16 ad b3 3d 14 e0 85 3d
       -0.12494338 -0.034188136 0.08773248 0.0653688
0000e0 77 7c 06 be 94 9c 0e be e7 fe 8b 3d 9c 16 37 be
       -0.13133417 -0.13926917 0.06835728 -0.17879719
0000f0 ed a7 8c bd 69 9d 43 3c 01 68 10 be 95 dd ff bd
       -0.06867967 0.011939385 -0.14102174 -0.12493435
000100 fa 09 a7 bd 10 8d ce 3d 16 2b ab 3d b5 5f e2 3d
       -0.081562 0.10085499 0.08357827 0.11053411
000110 19 e7 39 be 5d 91 2e 3c b6 44 83 bd 2e e1 cc 3d
       -0.18154563 0.0106547745 -0.0640959 0.10003887
000120 c2 e7 00 be 7f ba b8 bc 82 68 b1 bb f3 01 71 3e
       -0.12588409 -0.022549866 -0.0054140696 0.235359
000130 67 52 14 3e f3 fc f3 3c 1d ed 55 3d 96 81 ce bd
       0.14484559 0.029783702 0.052228082 -0.1008331
000140 d9 4f 42 be 97 96 51 3c 17 9c be 3d 1b e5 12 3e
       -0.18975772 0.012792251 0.093071155 0.1434521
000150 59 7f 84 bd fa cf 99 3d 01 be bd bd 28 12 a1 3d
       -0.06469602 0.075103715 -0.09264756 0.07864791
000160 a0 7d b0 bc 92 9c e4 bc ed 2b 28 3e 92 e1 b2 bd
       -0.021544278 -0.02790669 0.16423006 -0.087344304
000170 0d 7e 43 3e d1 04 0b bd 79 85 f9 bd f4 a1 53 3d
       0.19091053 -0.03394014 -0.12183661 0.051668122
000180 d5 e9 40 bd da 96 f5 bd 26 81 7b 3d 8a 56 1c 3e
       -0.047098 -0.11991663 0.061402462 0.15267387
000190 8e 71 fe 3a a9 c9 4b be 02 e1 a7 3c 63 fd 9a bd
       0.0019412504 -0.19901146 0.020493034 -0.07567861
0001a0 17 a4 e2 bd 69 8c a7 3d fa 47 bb 3d 7d 22 c8 bc
       -0.11066454 0.08181078 0.09144588 -0.024430508
0001b0 9e f0 e8 3d 61 bd 99 bd 37 b2 1b 3c b8 70 79 3c
       0.11374019 -0.07506824 0.009502939 0.015224628
0001c0 fd b6 8d 3e fe d1 c0 3d 0c f8 78 3d 0c 4e 99 bd
       0.2767867 0.09415053 0.06078343 -0.074855894
0001d0 f5 83 1d 3e d1 78 cf 3d 4a 87 11 bd 24 89 c7 bc
       0.15382369 0.10130466 -0.035529412 -0.024357386
0001e0 e3 14 1d be d0 be 92 3d d3 e0 eb 3d 76 6c b2 be
       -0.15339999 0.07165301 0.11517491 -0.34848374
0001f0 54 33 1a 3e 78 80 3e 3e 31 3f ec 3d 92 3f 22 3c
       0.15058643 0.18603694 0.1153549 0.009902852
000200 fb 73 26 bd 49 4d a0 bd 85 cc 3a 3d fb ef b3 3d
       -0.04063795 -0.07827241 0.0456052 0.08786007
000210 12 e1 c1 3d 3f 50 91 be 71 16 c2 bd b4 53 58 3c
       0.09466757 -0.28381535 -0.094769366 0.01320355
000220 fd 1a 11 3d be b0 48 be 31 8a 28 bc 35 95 ad 3d
       0.03542613 -0.19598672 -0.010286854 0.084757246
000230 8a 6e 27 3d 1a 6f a7 bd 78 33 60 bd 75 06 a3 bd
       0.040876903 -0.08175488 -0.054736584 -0.07960216
000240 f7 f1 8b 3d f3 46 4a bc 18 16 45 3d dc 2b ad 3e
       0.068332605 -0.012346017 0.048116773 0.33822525
000250 93 21 cb 3e b6 0e 30 be 5c 7b d3 bd c7 53 be 3c
       0.39674053 -0.17193112 -0.10326263 0.023233308
000260 ca ca a9 3d b2 98 e3 3d df 2d 02 3e 61 28 bd 3d
       0.08290632 0.11113109 0.12712811 0.09236217
000270 93 50 40 3c 0b 19 42 bd 98 69 57 3c ee 9b 75 3d
       0.01173796 -0.047387164 0.013147734 0.05996316
000280 d1 46 8c bd 6f 76 05 be 2a 2c d7 bd fb fe 7f 3d
       -0.06849445 -0.1303346 -0.105064705 0.062499028
000290 fa 7b 53 3d 27 de 04 3e fd 62 cd 3d 46 fb 8d bd
       0.051631905 0.1297537 0.10028646 -0.06932692
0002a0 1c 6d b1 3d 1f 30 16 bc 1f 40 c4 bd e2 5f 1c be
       0.08663389 -0.009166746 -0.09582543 -0.15270951
0002b0 02 bb 2f 3c ab 30 78 3d 4f 3e 93 3d f1 b0 39 3d
       0.0107257385 0.06059329 0.07189619 0.04533476
0002c0 aa e4 b7 3d 86 04 14 3b de 8c 2a bd 30 2f 41 bd
       0.08979161 0.0022585704 -0.041638248 -0.047164142
0002d0 c5 bd a5 3c 35 18 40 3b 76 13 24 bd e8 81 15 be
       0.02023209 0.0029311304 -0.040057622 -0.14600337
0002e0 ca b7 0d bd 78 99 14 bd 91 4c f0 bd 72 79 1b 3d
       -0.034599103 -0.03627917 -0.11733354 0.037957616
0002f0 25 2f 1b be 43 89 0d 3e bf 7b 17 3e 80 dd b0 bd
       -0.15154703 0.13821892 0.14793299 -0.08635998
000300 e9 16 36 bb d9 79 4e bd e8 1e 31 be b3 79 1f 3e
       -0.0027784652 -0.05040917 -0.17296946 0.15573768
000310 35 7d e0 bd 69 b1 7e 3e e8 f0 a3 3d 7b 68 be 3c
       -0.10961381 0.24872364 0.080049336 0.02324318
000320 2f 55 92 bd 9f c4 24 bd e8 08 c2 3d 0e 02 1e 3e
       -0.07145154 -0.040226575 0.09474355 0.15430471
000330 dd 53 19 3e d9 68 d7 3c 74 1f e3 bc fc 63 90 3d
       0.14973398 0.026295112 -0.027724959 0.070503205
000340 c3 13 bd 3d d1 73 ac 3d 35 93 ca bc 40 f8 80 be
       0.09232285 0.08420528 -0.024728397 -0.251894
000350 2c b3 ac bc 86 bb 5c bd 40 53 04 bd 75 4e 8e bc
       -0.02108153 -0.053889774 -0.032305956 -0.017371396
000360 61 00 34 bd 76 6b f8 bd 46 70 24 be c8 02 0e be
       -0.043945674 -0.121298715 -0.16058454 -0.13868248
000370 c6 23 1a be 1b ce c2 bd 1f 46 1d be cf 77 17 be
       -0.15052709 -0.09511968 -0.1535878 -0.14791797
000380 f0 a1 44 bd a1 80 e2 3d 34 26 cc bc 9e 3b f1 bc
       -0.048005998 0.1105969 -0.02492056 -0.029447373
000390 9a 77 4b 3d 5d a6 2a 3e f9 8b f1 bd 61 4f 69 3d
       0.049674608 0.16665025 -0.11794276 0.056960467
0003a0 b5 d3 d7 bd cc 5f c2 bd 9f 31 11 3e 38 f3 7c 3e
       -0.10538427 -0.09490928 0.14179085 0.24702156
0003b0 99 29 19 3e c1 87 00 3e 15 d0 f0 be 75 d9 4b bd
       0.14957274 0.12551786 -0.47033754 -0.04976793
0003c0 e8 0e 6f be b4 88 35 3d c9 8d c3 3b fa 82 a7 3b
       -0.2334553 0.044319823 0.00596783 0.005112049
0003d0 cf 93 91 3d 27 0c 24 3d 34 c2 a8 bb dc d1 94 3d
       0.071082704 0.040050652 -0.005150104 0.0726659
0003e0 90 9b 01 3e 84 26 6f 3e 1a 23 8b bd 88 bb aa 3c
       0.12656999 0.23354536 -0.067938045 0.020841375
0003f0 4c b6 c0 bd 73 1c 5a 3e 56 3d 31 be 9f 40 8a bd
       -0.0940977 0.21299915 -0.17308554 -0.06750607

bias f4 [64]
000000 d5 fa db bd e8 d1 22 bd bc 95 bb 3d b4 b8 99 bc
       -0.10741202 -0.039750963 0.09159419 -0.018764831
000010 07 92 cd bc f0 31 be 3d c4 06 db 3d 7e 13 04 bd
       -0.025094045 0.092868686 0.1069465 -0.03224515
000020 4f 04 db 3d 72 d5 4a 3c a9 32 34 3d 70 8b bf bd
       0.10694181 0.012379991 0.043993626 -0.093527675
000030 c9 a8 01 be 1a e8 65 3d cb df e1 3d 81 2d 5f b9
       -0.12662043 0.056129552 0.11029013 -0.00021283889
000040 03 bd 3a bd 21 0d c2 bc 75 ce b2 3d af df b6 bd
       -0.045590412 -0.023687901 0.08730785 -0.08929383
000050 fc e5 ef 3d 91 85 fd 3d e9 1c cf 3d e0 b5 11 3e
       0.11713788 0.123789914 0.10112936 0.14229536
000060 97 a6 ca bc 60 32 a9 bc 84 c7 66 bd e7 14 2a bd
       -0.02473764 -0.020653903 -0.056342617 -0.04152384
000070 28 14 0a 3d 19 d1 ab bd 4e fa 0e 3e b3 29 9b 3c
       0.03371063 -0.083894916 0.13962671 0.018940782
000080 34 bd 9c 3c c3 6e 6b 3d 67 a1 0d 3c 7f 28 62 bd
       0.019133188 0.057478677 0.008644438 -0.0552144
000090 96 9d 60 bd 74 c9 7e bd 66 4a fb 3d c0 c9 c3 bd
       -0.054837786 -0.06220384 0.1227005 -0.09559965
0000a0 cc 6d c8 bc 52 81 54 3b b9 07 3c 3d 63 27 e2 3d
       -0.024466418 0.0032425714 0.045905802 0.11042669
0000b0 f9 0a eb 3d 54 4d 8c 3d 37 32 b5 3d 9a 06 eb bd
       0.11476702 0.06850687 0.08847468 -0.114758685
0000c0 53 2f 26 3d 22 7b 0d 3e a2 f3 2a 3d 45 40 b6 3d
       0.040572476 0.13816503 0.041736253 0.08898977
0000d0 64 56 f3 bc 77 38 28 3c a0 9e a1 3d 99 44 bd 3d
       -0.02970428 0.0102673685 0.078915834 0.092415996
0000e0 78 29 06 be 1a 7c a0 bc ec 34 11 3e 7a 13 85 3d
       -0.13101757 -0.019590426 0.14180344 0.064978555
0000f0 02 9a 7e 3d ef 4d c1 3d 55 1a d2 3d bc 60 07 3e
       0.062158592 0.09438693 0.10258929 0.13220495

weight_ih_l0 f4 [256, 64]
000000 62 86 1c 3c 3d c0 d3 3d 5b 7b fe 3d bc 15 94 be
       0.009553524 0.10339401 0.12425872 -0.28922832
000010 d0 46 53 bd 0f 87 be bd a9 e0 80 bd 3b 55 6c bd
       -0.051581204 -0.09303104 -0.062928505 -0.05769847
000020 b6 74 e5 3d af b6 27 bd 1c 54 7c bd fc 0e 03 3e
       0.112039015 -0.040945705 -0.06160365 0.12798685
000030 14 79 cd bc e5 79 ba 3c 46 6a e5 bd 8d b6 b1 3c
       -0.025082149 0.022763202 -0.11201911 0.021693492
000040 6e 2e 57 3a b2 3d f5 bd 3d d1 b9 bd 72 7b f4 bd
       0.00082085177 -0.11974658 -0.09073112 -0.11937608
000050 32 ef 57 bd 04 d2 55 3c c0 54 12 bd f8 a9 4c 3d
       -0.05271835 0.01305056 -0.035725355 0.049966782
000060 84 c4 43 3d af c4 dc bd f5 dd f5 bd ef 2c 8a 3e
       0.047794834 -0.10779702 -0.120052256 0.26987407
000070 e5 17 15 3d 02 f6 85 3c 00 fb b6 3d 07 c3 48 3e
       0.03639974 0.016352657 0.08934593 0.19605647
000080 c4 bd 0b 3d 53 aa 99 bd 39 b5 aa 3d c9 34 6e 3b
       0.03411652 -0.0750319 0.08335347 0.003634738
000090 10 ac 2a 3d 8b c6 0c bd 5a 43 fd 3d 45 66 b0 bd
       0.041667998 -0.034369033 0.12366362 -0.08613256
0000a0 37 ae 9d 3d 61 2a a0 3d c5 5c a2 3d 30 b4 c6 3d
       0.076992445 0.07820583 0.07927851 0.09702337
0000b0 0e aa cd 3d 60 76 eb 3c 2f ef 02 be f2 70 d2 bd
       0.10042201 0.028742969 -0.12786554 -0.10275449
0000c0 c0 7c 68 3e a0 2a ff bd 6a 54 28 3e 6c e7 d7 bd
       0.22703838 -0.12459302 0.16438451 -0.10542187
0000d0 45 7a 52 bd 27 a7 9f bc 19 a2 9f 3d 68 34 88 3d
       -0.051386137 -0.019488884 0.077945895 0.06650621
0000e0 b3 d6 33 bc 24 5b cc 3d 33 61 a0 3d 9f ab 05 3d
       -0.010976481 0.09978321 0.07831039 0.032634374
0000f0 39 79 5a 3c ea de b8 3d 6c 51 33 3d 61 c7 21 3e
       0.013334566 0.090268925 0.04377882 0.15798713
000100 ed c7 4f bd a4 39 78 3c 6c c9 92 be 10 db 2e 3e
       -0.050727773 0.015150461 -0.28669298 0.17075753
000110 89 56 84 bd cf 10 d8 bd 04 d3 c9 3d 45 78 24 be
       -0.06461818 -0.10550081 0.09854701 -0.16061504
000120 77 d9 a2 3c 99 f1 00 3e 5f 38 74 3c e6 b6 55 3c
       0.019879086 0.12592162 0.014906018 0.013044095
000130 ca e5 83 bc a8 7f 88 3d 05 e1 2b 3d ed e8 33 bb
       -0.016100783 0.066649735 0.041962642 -0.0027452067
000140 74 26 9c 3d 5e 4e f9 3a 91 74 62 3d b1 19 d4 3d
       0.07624522 0.0019020548 0.055286948 0.10356463
000150 62 34 aa bc 1c 2b b5 bd dc 4d b0 bd 56 25 ba bc
       -0.020776931 -0.08846113 -0.086086005 -0.022722881
000160 9b fd 3c 3d 70 42 00 bd 9e 0e a9 bb 68 99 96 3e
       0.046140295 -0.03131336 -0.005159213 0.29413915
000170 8b b8 22 3e 5d 75 5e 3d 86 f2 ae bd 61 39 fc 3d
       0.1589071 0.054311145 -0.085423514 0.12315632
000180 4e 97 a9 3d 92 58 5f bd 47 e1 b3 bd ed 0f 84 bd
       0.08280812 -0.054527827 -0.087832026 -0.0644835
000190 ad 2a c7 3d 5a 60 14 be af 3b cf bd 66 95 fb 3e
       0.09724937 -0.1448988 -0.101188056 0.4913742
0001a0 9f 8e 03 be 2f f1 70 bd da 68 3c bd 93 78 85 3d
       -0.12847374 -0.05882376 -0.04599843 0.06517138
0001b0 b5 7f b9 bd 54 d3 1e 3d b8 15 dd bc 6e c7 98 3d
       -0.09057561 0.038775757 -0.026987895 0.07459913
0001c0 23 6c f9 3d 1d a7 6b 3d 4d f9 22 be 94 c7 5d 3d
       0.121788286 0.05753242 -0.15915413 0.05414541
0001d0 d9 0c 90 bc 4c 07 85 bd 78 b0 37 3d 3c 12 65 3d
       -0.017584251 -0.064955324 0.044846028 0.055925593
0001e0 e3 44 ed 3d 25 20 7e 3d 4d 65 aa 3d fd 67 4c 3d
       0.11585405 0.062042374 0.08320103 0.04990386
0001f0 67 d7 c3 3c a6 f5 3b 3e ff 8e be 3d 52 35 d6 bc
       0.023906423 0.18355426 0.09304618 -0.026148472
000200 cc 57 57 bd dd 6b d9 3e ce 50 88 be 6e 6d b6 3d
       -0.052573964 0.42465106 -0.2662415 0.08907591
000210 08 17 89 3d bb b5 59 bb d9 e3 fe bd 37 82 93 bd
       0.06693846 -0.0033219892 -0.12445802 -0.07202571
000220 7a 6f 5d bc 89 78 c7 3d 84 92 dd bd ae 97 59 bb
       -0.013515348 0.09739787 -0.10818961 -0.003320198
000230 6f f1 87 3d 8c e4 ca 3d 92 3e 66 bd 89 be a8 3d
       0.06637847 0.09906873 -0.056212015 0.08239467
000240 e5 75 6a 3d c9 aa 9e 3d 66 b1 bf 3a ae aa 8f bd
       0.05724134 0.077474184 0.0014625012 -0.070149764
000250 d0 85 fe bb 73 f1 61 3c 32 ec 96 3d 6a dd 2a 3d
       -0.0077674165 0.013790476 0.073692694 0.041715063
000260 8c 65 49 bd b4 1e 21 3e ba 91 cc bd f9 af 9e 3e
       -0.04916911 0.15734369 -0.09988733 0.3099363
000270 ca 72 d8 bd a2 fb 71 be b6 42 2d 3d 41 39 0e 3e
       -0.10568769 -0.23631147 0.04229995 0.13889028
000280 7e b7 93 bd 29 2f 3c bc f6 9e eb ba fb 8f f7 3c
       -0.07212733 -0.011485853 -0.0017976451 0.030220022
000290 54 b4 df 3c ea 5e 50 bd b6 6f 21 3d 8e 82 a2 be
       0.027307667 -0.050871767 0.039413176 -0.3174023
0002a0 8b 8c d8 bc d2 5b c5 bd 73 d8 f7 3d 03 20 d6 3c
       -0.026434204 -0.09636654 0.12101831 0.026138311
0002b0 b1 69 ef ba 5f c4 21 3e f8 02 fd 3d 9e 47 e3 bd
       -0.0018265751 0.15797566 0.12354082 -0.11097644
0002c0 81 03 5d 3d fb f1 10 3e c5 3b f0 bd a9 8f 32 be
       0.05395842 0.14154808 -0.1173015 -0.17437615
0002d0 cb 31 29 3d 89 e6 74 3d a0 35 91 bd 52 6b e9 bd
       0.041307252 0.059790168 -0.07090306 -0.11397423
0002e0 e5 10 db bd 91 58 47 3e 57 d2 ec 3c 62 13 00 be
       -0.10696582 0.19467379 0.028908892 -0.12507394
0002f0 13 b0 0d 3e 10 d6 85 bd 27 fa 6f bd 7b 30 1a 3d
       0.13836698 -0.0653497 -0.058588173 0.03764389
000300 97 05 44 bd c0 0b 5b be d9 16 39 3e d1 15 22 bd
       -0.047856893 -0.21391201 0.18075122 -0.039571587
000310 ff c3 05 be 76 a2 e6 bc 47 bc 8e 3c 0d 50 13 bd
       -0.13063048 -0.02815364 0.017423762 -0.035965014
000320 c1 1f ca bd b8 ce 31 3e 46 53 2b 3e 49 22 81 bd
       -0.09869338 0.17364013 0.16730985 -0.063053675
000330 21 e6 d0 3d 64 11 0a 3e f3 64 34 3d dd 6a 96 3d
       0.102001436 0.13483196 0.044041585 0.07344601
000340 fa 3f 1e 3e 7f ec a8 3c ae b1 aa 3c 07 32 5d bd
       0.15454093 0.020620583 0.020836677 -0.054002788
000350 25 6f 7f 3c 28 75 26 3c 21 41 20 3e b7 ec a7 3b
       0.015590464 0.010159768 0.15649845 0.005124654
000360 73 ce 95 3d 3f cf 03 bf 9b da 48 bd fa f2 19 bf
       0.07314768 -0.5148811 -0.049036603 -0.6013638
000370 51 7e fc bd 82 65 02 3b 7e 92 ff bb 92 32 40 bd
       -0.123287804 0.001989693 -0.0077994457 -0.046923228
000380 df be 56 3c 2e 63 c8 3d fc eb df 3c 68 4a 55 3b
       0.013107031 0.09784542 0.027334206 0.003254557
000390 2b 6f 29 bd 6e 63 2e bd 62 6a 21 be cf bb b9 bd
       -0.041365784 -0.042575292 -0.15763238 -0.09069025
0003a0 fd 24 58 be 9c 2a 29 bd 79 68 fa 3d 29 6e 06 3e
       -0.2110786 -0.0413004 0.12226958 0.1312796
0003b0 d2 52 b9 3b 1f 52 d5 bb 51 fa cf 3d ec fc 4f bd
       0.005655625 -0.0065100337 0.10155166 -0.050778314
0003c0 aa 45 c5 3d 1f 87 30 3e 0b 4b 9c 3c 24 ba 97 3e
       0.09632428 0.17239045 0.019078752 0.29634202
0003d0 1e b2 79 3d 63 b5 39 bd 87 33 8c bd df 0b 18 3e
       0.06096088 -0.045339 -0.068457656 0.14848278
0003e0 21 d7 29 3d 32 73 0a bd 52 f1 87 3e d1 99 df bb
       0.04146493 -0.033801265 0.265513 -0.0068237563
0003f0 8b 9e 25 3c 99 5b cb bd d8 fb fa 3d 3f 76 29 3d
       0.0101086 -0.0992958 0.12255067 0.041372534

weight_hh_l0 f4 [256, 64]
000000 ae 17 d9 3d 05 6b a0 3d d4 af f0 bc 54 79 80 3d
       0.1060022 0.07832912 -0.029380716 0.062731415
000010 53 5d 5f bd fa cb 33 3d 89 4a a7 3d 36 ca 76 3c
       -0.05453236 0.0438957 0.08168513 0.015062859
000020 02 13 89 3d 70 ca cb bc 1d e6 e0 3c 24 ef 1b bd
       0.066930786 -0.024876803 0.027453477 -0.03806986
000030 a0 f1 de bd dd 90 0d 3d 89 4a 87 bd a4 cb 61 3b
       -0.1088593 0.03456198 -0.06606013 0.0034453655
000040 10 34 0e 3d 02 f1 72 bd e2 b0 ec bc 56 c6 0f be
       0.03471762 -0.059311874 -0.028892938 -0.14040503
000050 c7 25 ee bb f1 f8 09 be 2a ec 02 be 9b 24 ef bd
       -0.007267687 -0.1347387 -0.12785402 -0.11676904
000060 4a 0f 68 bd db 61 31 bb 3c 38 0a be 33 98 02 3e
       -0.056655206 -0.0027066383 -0.13498014 0.12753372
000070 14 e7 94 bd 21 0b c2 bc 31 21 e0 3b 16 72 ae 3d
       -0.07270637 -0.023686947 0.006839894 0.08517854
000080 46 6b cc 3c 06 27 15 bd e3 f2 91 bd 9b 54 a7 bd
       0.024953496 -0.03641417 -0.07126405 -0.08170434
000090 9c 6c b5 bd 9b 59 93 3d d4 3e 5e 3d 92 69 bf bc
       -0.08858606 0.07194825 0.054259136 -0.02336577
0000a0 a6 b0 64 bd 87 c7 9c bd 22 eb 1c be 3a fe ba 3d
       -0.055832528 -0.07655244 -0.15324071 0.09130521
0000b0 cb 8c 68 3d 62 6a 45 bd 76 d8 7d bd 47 2b 78 3d
       0.056774896 -0.048197158 -0.06197401 0.060588147
0000c0 c8 84 c3 bd b7 62 7b 3d 6f 51 dd 3d 7e 48 9f bd
       -0.095468104 0.06137344 0.10806548 -0.07777499
0000d0 3c da 2f bc 86 a6 42 3d 60 ab b8 3c e9 e7 54 bc
       -0.0107331835 0.04752209 0.022542655 -0.012994745
0000e0 f2 a8 70 bc 1c 1d 6a 3e 71 50 ee bd 8d 5f f8 bc
       -0.014688717 0.22862667 -0.11636437 -0.030319
0000f0 6d 04 0d 3b c8 07 bf bd 24 3d 3b bd 80 df b3 bb
       0.002151753 -0.09327656 -0.045712605 -0.0054892898
000100 ac b8 b6 bd b1 1f 57 bc 18 76 e4 3d 86 86 a8 3d
       -0.08921942 -0.013130114 0.11155337 0.08228783
000110 7b b1 46 bc 06 a4 f1 3d 38 05 4c bd 84 f9 89 bd
       -0.012127276 0.11798863 -0.049809664 -0.067370445
000120 bd 11 24 3e b1 2a b1 bd 1e f1 99 3c 81 46 e7 bd
       0.16022392 -0.08650721 0.018791731 -0.112927444
000130 cf d6 a6 bd 55 29 53 bd d2 e1 c1 bd d6 00 c0 bd
       -0.0814644 -0.05155309 -0.094669 -0.093751594
000140 8f 4c 88 ba 19 47 b8 3d d3 4b b1 bd df 47 3f 3d
       -0.0010398793 0.08997936 -0.086570404 0.0466994
000150 26 f4 ee 3d 05 4c 87 bb c6 aa 00 3e 01 5d f9 bd
       0.11667661 -0.0041289353 0.12565145 -0.12175942
000160 87 ce a7 bd b9 8c 03 bd d9 ec e6 bd f4 a8 da 3b
       -0.08193689 -0.032116625 -0.11275644 0.006672973
000170 16 6e 8f 3d a4 74 0e be d3 53 af 3b 0e d6 97 3d
       0.07003419 -0.13911682 0.005350569 0.074138746
000180 c8 a3 75 bd 48 04 e2 3d 35 05 8d bc cc 5a 73 3d
       -0.059970647 0.11035973 -0.017214397 0.059412763
000190 4a 51 98 bb 16 4a f9 bd 12 75 a9 3c 49 46 42 3d
       -0.0046483623 -0.12172334 0.020685706 0.04743031
0001a0 aa 02 cf bd 30 de a3 bd 29 9c d9 bd aa 3a 47 3d
       -0.1010793 -0.08001363 -0.10625488 0.04863993
0001b0 a5 d2 c5 3d b9 3e 35 3c af 46 bf 3c 18 5a 84 bc
       0.09659318 0.0110623175 0.023349134 -0.016156241
0001c0 8b d1 c7 3d c4 6d a9 3c 2b 1a fb bd 3b 82 38 3d
       0.09756764 0.020682223 -0.122608505 0.045046072
0001d0 96 59 d8 3d 02 a0 8c bd 15 2f 0e bb 2a 40 cc 3c
       0.10563962 -0.068664566 -0.0021695544 0.02493294
0001e0 94 aa 88 3c 4d be eb bc 47 31 cb 3b 77 61 ef bc
       0.0166829 -0.028777266 0.0062009427 -0.02922128
0001f0 85 2d b3 bc dd c2 68 bd 42 fb b7 3d 99 20 05 be
       -0.021872291 -0.05682646 0.089834705 -0.13000716
000200 a4 20 e5 bd ea 20 9f bd 84 97 ce bd c2 d6 86 3d
       -0.11187866 -0.0776995 -0.10087493 0.065839306
000210 9d 64 1a bd 67 ad 49 bd e3 48 10 bc a3 df 79 3c
       -0.03769361 -0.049237635 -0.00880644 0.015251073
000220 35 c1 45 3d 71 4a d8 bd 98 04 09 be 42 a8 be bd
       0.04827996 -0.105610736 -0.13380659 -0.093094364
000230 a5 77 eb bc 79 44 96 3d 02 d7 70 bd 09 c1 3d bd
       -0.028743574 0.07337279 -0.058798797 -0.04632667
000240 67 5b a0 3d 8b 6a e8 bd d6 67 71 bd 7c e8 16 bd
       0.078299336 -0.113484465 -0.058936916 -0.036842808
000250 aa f6 20 3d 39 f6 0c be 77 49 c3 bd 5c f6 63 bd
       0.039297737 -0.13765801 -0.09535497 -0.05565487
000260 9b 59 f3 bd 88 2f 8f 3b 1a 15 84 3d 67 c6 85 3d
       -0.11882325 0.00436968 0.06449337 0.06531983
000270 7d 95 9e bd 8f 3b b2 3d 98 a2 95 bd a7 b3 c7 3c
       -0.077433564 0.08702766 -0.07306403 0.024377657
000280 43 f4 53 bc 93 43 ea bd 0c af 71 bd e4 31 d2 3d
       -0.0129366545 -0.1143867 -0.05900483 0.10263422
000290 40 e5 b0 bd a8 aa e7 bd 01 f5 a3 3c 7b c9 6d 3c
       -0.08637476 -0.11311847 0.020014288 0.014513369
0002a0 04 57 d5 3c 11 b8 00 3d 1b 94 77 bd 0c c6 c5 bd
       0.026042469 0.03142554 -0.06044398 -0.09656915
0002b0 79 8f e2 3c 43 ad b4 bc ac ff a4 3d 2a 88 d8 3d
       0.027656304 -0.022055274 0.08056578 0.10572846
0002c0 b9 c6 d3 bd 13 af ec bd d1 47 d7 bc 25 ac 22 3d
       -0.10340638 -0.1155683 -0.026279362 0.03971495
0002d0 52 6b 52 3d 41 87 ad bd 44 45 8f 3c 02 cd 60 3d
       0.05137188 -0.08473063 0.017489083 0.05488301
0002e0 58 f2 1d 3d d3 b9 d0 bd 5c ad 8e 3d 91 bf 55 bd
       0.038561195 -0.10191693 0.069666594 -0.052184645
0002f0 61 01 7f bc cf ee c2 bd a8 57 a3 bd c2 ac 51 3d
       -0.015564294 -0.095182054 -0.079757035 0.051190145
000300 d3 47 99 bd 77 73 80 3d e3 12 d6 3d fe 40 f2 bc
       -0.074844025 0.06272023 0.10452821 -0.029572006
000310 b7 10 7c 3d ad 73 ae bd 34 dc 8a bd ed c1 87 bd
       0.061539378 -0.08518157 -0.06780282 -0.06628785
000320 fb 21 d9 bc 8c f8 11 be 38 34 bc 3d f6 a1 d8 bc
       -0.026505461 -0.1425497 0.091896474 -0.026444416
000330 f8 24 d4 3d 9e 28 8b bd ca 68 cc 3d 64 0a b0 3c
       0.10358614 -0.067948565 0.099809244 0.02148933
000340 98 60 b2 3d 69 67 eb 3d a8 24 a9 39 3b 51 8b bd
       0.0870983 0.11494333 0.00032261503 -0.06802603
000350 df 4d f2 3d c1 90 1b be 7c 08 cb 3d bf f0 fa bb
       0.11831259 -0.15191938 0.09913728 -0.0076580937
000360 7b e9 c1 3d f0 12 96 3d 62 28 b3 3d c0 cb 4f bc
       0.09468361 0.07327831 0.08747937 -0.012682855
000370 24 dc 9b bd 35 f8 89 bd 4b 7a 6d bd 49 c5 be bb
       -0.07610348 -0.06736795 -0.057977956 -0.005821858
000380 52 7a bf 3c 0a 19 7e 3d c1 fd ff bc e6 41 07 bd
       0.023373757 0.062035598 -0.031248929 -0.03302183
000390 97 07 80 bd 88 ff b9 bc 00 6c 9b bd 80 a5 8a bc
       -0.06251448 -0.022704855 -0.07588959 -0.01692462
0003a0 28 9a 06 3e 20 7b c4 3d 72 d8 31 3d 35 96 e3 bd
       0.13144743 0.09593797 0.04341931 -0.11112634
0003b0 1b f8 0c 3e bc 3a a9 3c 1f b7 7d 3d e2 2a 0d bd
       0.1376652 0.02065789 0.061942216 -0.034464724
0003c0 f9 ea b5 bc 84 c0 b0 3d 73 67 a6 3d ee 97 49 bd
       -0.02220677 0.086304694 0.081252 -0.049217157
0003d0 55 c7 b4 bd 33 09 89 bd ae 79 ab bd 81 1d 3d bd
       -0.08827082 -0.06691208 -0.08372818 -0.046170715
0003e0 d0 27 a1 3d cb e5 2e bd 9c 3a b9 ba 7e 61 28 bd
       0.07868922 -0.042699616 -0.0014131847 -0.0411086
0003f0 b5 5c 11 be ec d7 45 3d ca 3e 22 3d 3e 59 d4 bc
       -0.14195521 0.048301622 0.03961066 -0.02592146

bias_ih_l0 f4 [256]
000000 94 f2 66 3d 65 cc ac bd c7 3b 49 bc 25 70 0b 3e
       0.056383684 -0.08437423 -0.012282318 0.13616998
000010 40 89 61 bd c2 5a 39 bc 04 32 8a bd 8c 8e 8e 3d
       -0.055062532 -0.011313142 -0.06747821 0.069607824
000020 5e 8a af 3d a5 8c 34 bc 41 54 48 bd b6 a2 97 bd
       0.08571313 -0.01101986 -0.048908476 -0.074040815
000030 86 5d ae bd 43 73 ac bd 71 7c 5b 3d 9f 69 e1 bd
       -0.08513932 -0.08420422 0.053585473 -0.11006474
000040 87 33 e6 3d 06 38 fb 3d db f5 61 bd 68 bd d6 3c
       0.11240297 0.12266545 -0.055166107 0.026213363
000050 c4 da ae 3d e6 79 bf bc bf 65 dd bc 8c 32 f5 bc
       0.0853782 -0.023373555 -0.027026055 -0.02993133
000060 16 84 c8 3d 3b 31 27 bd bb 53 55 3d 7e 59 af 3c
       0.097908184 -0.040818434 0.052081805 0.021404978
000070 6c 15 da 3d 70 60 83 bd 7e 1c df bd 26 72 81 3d
       0.10648617 -0.06414878 -0.10894106 0.063206
000080 7b 44 a8 3d c1 5d dd bd 61 3b e2 3d 53 82 4a 3c
       0.082161866 -0.10808898 0.11046482 0.012360173
000090 89 76 fc 3d c6 56 f2 bc da ba a6 3d 6e db 52 bd
       0.12327296 -0.029582392 0.08141108 -0.051478796
0000a0 e4 a6 82 3c 90 e9 a6 3c 34 a7 e4 bc f0 6a b7 bd
       0.01594872 0.020375043 -0.02791176 -0.089559436
0000b0 59 54 c3 3c 83 ed 3b bd 4e 01 5c 3d cc f6 cf 3d
       0.023843931 -0.045880806 0.05371218 0.10154495
0000c0 47 c5 0a 3c a3 98 11 3e 25 6a e7 3d d5 36 13 3e
       0.008469886 0.14218383 0.11299542 0.14376386
0000d0 50 36 a3 3d 54 a5 8d 3c 0a 6a 17 3d 1f ec a1 bc
       0.07969344 0.017290749 0.03696636 -0.019765912
0000e0 ed 06 d5 bc 7e ce 23 bd f2 3a a9 bd 48 be 5a bd
       -0.026004279 -0.03999185 -0.08263196 -0.053404123
0000f0 a3 d1 c3 3d 4a 63 4c bd e3 80 11 3c 8e 44 eb 3d
       0.095614694 -0.049899377 0.008880827 0.11487685
000100 26 c8 a0 3d 62 5d 95 bd 1e 39 1a 3d 81 8a 85 bd
       0.07850675 -0.07293202 0.037652127 -0.06520558
000110 87 f7 c3 bd ac 58 5a 3d 81 88 11 bc c5 29 aa bd
       -0.095686965 0.05330722 -0.008882643 -0.08308748
000120 04 92 0c be f1 e1 b3 3d 8d dc 18 be bc 47 37 bc
       -0.13727576 0.08783329 -0.14927883 -0.011186536
000130 9d 5d f5 bd f9 23 cf bd 74 df cc 3c 80 3f 03 3d
       -0.11980746 -0.10114283 0.025008895 0.03204298
000140 9b 78 2d bd ca 53 66 3d 54 45 be 3d 60 10 36 3d
       -0.042351346 0.05623225 0.09290567 0.04444921
000150 7a 1d d0 bd e9 1f 88 3d 8f 10 07 bd 73 b8 25 bd
       -0.10161872 0.066467114 -0.032974776 -0.040459108
000160 c4 79 5f 3d c9 fa a2 bd 0a 9a 7b 3d a1 a3 c8 3d
       0.054559484 -0.0795799 0.0614262 0.09796835
000170 e5 c7 b5 bd e3 2f b5 3c c5 36 88 3d 03 6c 42 3d
       -0.088760175 0.02211756 0.066510715 0.04746629
000180 46 18 c0 3d c2 ba 9f 3d 0b bc ab 3d 70 07 9e bc
       0.0937963 0.07799293 0.08385476 -0.019290656
000190 15 e7 1b bd 77 99 af bd 3a 53 a3 bd e9 d3 cc bd
       -0.038062174 -0.08574193 -0.079748586 -0.10001356
0001a0 da e6 7c bd 5f 29 6a bc b1 f9 ce 3b cc 03 5b bd
       -0.061743595 -0.01429209 0.0063163866 -0.053470418
0001b0 3a de 29 3d c7 97 97 bb 19 b1 4e 3d f6 2c d8 3c
       0.041471697 -0.0046262476 0.050461862 0.026388627
0001c0 89 f5 82 3d eb 12 c1 bd bf 6f 98 bd 41 71 1e bd
       0.06394488 -0.094274364 -0.07443189 -0.038682226
0001d0 8f 3b cf bc 81 1d 81 3d 93 3e 1e bc 04 3c 40 3d
       -0.025296954 0.063044555 -0.009658474 0.046932235
0001e0 85 bc f0 bd 9a ad a0 bd 63 d9 72 bd 64 99 4e bc
       -0.11754707 -0.07845612 -0.059289347 -0.012609813
0001f0 d8 7d 9c bd fa e3 58 bd 05 21 9a 3d c9 96 dd 3d
       -0.0764119 -0.05295179 0.07525829 0.108197756
000200 0f fb f5 3d 38 ee a1 bc 36 98 08 3e d7 e6 95 3d
       0.12010776 -0.019766912 0.13339314 0.0731942
000210 1e 65 03 bc 79 44 ef bc 8a 32 08 3e 2e 77 b7 3d
       -0.008019714 -0.029207455 0.13300529 0.089582786
000220 2d a4 1d bd cf 51 e5 bd ad 05 ad bd 33 86 a4 3d
       -0.03848665 -0.111972444 -0.08448348 0.08033409
000230 bf b8 0c 3e 7b 13 50 bd f6 8c f5 3d 28 a3 14 3e
       0.1374235 -0.050799828 0.11989777 0.14515364
000240 8d b9 13 be fc 84 92 bc 74 db 98 3d 0c fb b4 3d
       -0.14426251 -0.017885678 0.07463732 0.08836946
000250 c7 86 00 bd 68 c5 07 be a0 e3 e1 bd ce b4 36 3d
       -0.031378534 -0.13258898 -0.11029744 0.044606023
000260 b8 b1 2b bc 57 57 64 3d f6 1e b8 3d 2a 78 58 3d
       -0.010479383 0.055747356 0.0899028 0.052848972
000270 94 e6 5f 3d 37 03 4e 3d 6f 19 8d bd 06 df d6 bd
       0.054663256 0.050296035 -0.06889617 -0.10491757
000280 36 99 a3 bd 59 8d db 3d 93 a3 3f 3d 57 ff a6 bd
       -0.07988207 0.10720319 0.046786856 -0.08154171
000290 16 e5 cc 3d a3 4f 95 bd 5a 0a bd bd 56 dd e1 bd
       0.10004632 -0.0729058 -0.0923049 -0.110285446
0002a0 14 97 23 bd 79 03 3a 3d 87 12 51 3b 02 d3 0d bd
       -0.039939 0.045413468 0.0031901912 -0.03462506
0002b0 8f e3 5e 3d cc 37 aa 3d 01 ba 87 bd 2d 8c 3b 3d
       0.054416236 0.08311424 -0.06627274 0.04578798
0002c0 97 ab d9 bd 3e 72 1b 3c fc da 4f 3c af 2d 76 bd
       -0.10628431 0.009487687 0.012686487 -0.06010216
0002d0 fa c1 2a 3d b1 ad 07 bd 05 e5 91 3d 48 cb d4 3d
       0.041688897 -0.03312463 0.0712376 0.10390335
0002e0 c3 0e 23 bd d9 e0 af bd 32 33 06 bb 9e 37 f3 bc
       -0.039809 -0.08587808 -0.0020477292 -0.029689606
0002f0 0d 76 17 3c 46 ec 82 3d 48 09 f6 3d 1f 00 da bd
       0.009244454 0.06392722 0.12013489 -0.10644554
000300 1d 54 f3 3c 62 70 a9 3d ca 2b ac bd ff 80 9a bd
       0.029703194 0.082733884 -0.084067896 -0.07544135
000310 cc 68 fb bc 66 41 f9 bc 67 48 71 bd ce 2b c7 3d
       -0.03068962 -0.030426692 -0.05890694 0.09725152
000320 8a ae 08 bd df 5b 07 3e 2a 2b b7 3d 66 d2 a9 3d
       -0.03336958 0.1321864 0.0894378 0.082920834
000330 0d 86 e4 bc 8f 64 e2 3d 6c 27 86 bd 70 e9 dd 3d
       -0.027895952 0.11054336 -0.06550488 0.1083554
000340 95 5f c6 bd 32 51 a0 3d c8 2b 9d bd 68 ed d9 3d
       -0.096861996 0.07827987 -0.07674366 0.10640985
000350 69 d2 7a 3d b3 57 26 3d 81 e3 6d 3b b1 a1 9f bd
       0.06123582 0.04061098 0.0036298933 -0.07794512
000360 0d 56 01 bd e5 89 86 bc 71 f6 10 3e 3b b2 6b 3c
       -0.031576205 -0.016423175 0.1415651 0.014385755
000370 4d 69 c8 bd 8c 17 f6 3d 35 e3 43 bc ae f1 59 3d
       -0.097857095 0.1201621 -0.011956026 0.053209
000380 b1 0f c2 bd b3 62 eb bd 55 72 44 3d 25 e1 98 bd
       -0.09475649 -0.11493435 0.047960598 -0.07464818
000390 02 20 10 3e 87 14 ca bd fd 97 68 bd 10 19 a3 bd
       0.1407471 -0.098671965 -0.056785572 -0.07963765
0003a0 68 d5 b6 3d 42 30 61 3c 4f d0 c6 bc 75 8f 83 bd
       0.08927423 0.013744416 -0.024269251 -0.06423847
0003b0 e1 7b 8c 3c df 15 a0 3c ca 08 f3 3d e5 3b 70 3c
       0.017148914 0.019541679 0.11866911 0.0146627175
0003c0 d9 b9 02 3e af f1 ec bc 39 89 3c bd 98 34 85 bd
       0.12766208 -0.028923837 -0.046029303 -0.06504172
0003d0 52 71 9a bd 2b f9 3a bd a8 22 d8 3c 44 e6 79 bd
       -0.075411454 -0.04564778 0.026383713 -0.061010614
0003e0 6c d1 1a 3d f1 88 34 bc d5 f2 d7 3d ff 05 d3 3a
       0.037797377 -0.0110189775 0.105443634 0.001609981
0003f0 04 90 bc bd f7 ba b5 3d e0 08 aa 3d 8e 0d 27 3d
       -0.09207156 0.08873551 0.08302474 0.04078441

bias_hh_l0 f4 [256]
000000 1e 08 b8 bc 28 92 07 3e f2 29 99 bd 10 a5 74 3d
       -0.022464808 0.13239348 -0.074787036 0.05972773
000010 24 03 71 3b 5a 27 b6 3d 4f 2c 26 3d b4 6d e2 3d
       0.0036775554 0.088942245 0.0405696 0.110560805
000020 b1 81 9a 3d 0a 05 d0 3d bc 18 62 bd 8c 23 45 bd
       0.07544268 0.10157211 -0.05519937 -0.048129603
000030 ff 0a 1f bc 95 d4 16 3d 38 ea fe 3b a5 52 8b 3d
       -0.0097072115 0.036823828 0.007779386 0.068028726
000040 af 33 b4 3d 27 54 00 3e 20 1e cd bb 74 bb e1 bb
       0.0879892 0.12532102 -0.0062596947 -0.006888801
000050 98 8d da bd df aa df bb a3 df 8c bd 78 51 29 3e
       -0.10671538 -0.0068257893 -0.06878593 0.16534984
000060 fd 1e 0e 3e cb c0 e5 3d 81 e2 1f 3e 09 cd fb 3c
       0.13879009 0.11218413 0.15613748 0.030737417
000070 da bf 97 3d 58 a9 91 3d 10 81 d8 bd cf b0 ef 3d
       0.0740964 0.07112378 -0.10571492 0.117036454
000080 8a de 09 3d 9c 01 52 3d 8c 5f da bd 23 3b 5e 3d
       0.033659495 0.051271066 -0.10662755 0.054255616
000090 ff 92 c9 3d bb 93 5f bc e2 37 d8 3d c1 52 d3 3c
       0.098424904 -0.0136460615 0.10557534 0.025796296
0000a0 ea ed 81 3d a6 d3 5b 3d 6e 58 cb bd 76 ce 02 3e
       0.06344207 0.05366864 -0.09928976 0.12774071
0000b0 9d 5e ce 3b 3f fa cd 3d cf fc fa 3d 7c 94 10 3e
       0.0062979 0.10057496 0.12255251 0.14119142
0000c0 4a fc 50 bd 00 b8 04 bb 4b 73 a2 bd 55 e2 8e bd
       -0.05102185 -0.0020251274 -0.07932147 -0.06976763
0000d0 74 1c 02 3e 06 a8 9c bc 39 8e 6e bd a9 da 8d 3d
       0.12706167 -0.019123089 -0.058241103 0.06926472
0000e0 01 68 08 3d c2 73 c1 bd 05 50 07 3e 90 8e 68 bd
       0.03330231 -0.09445907 0.13214119 -0.056776583
0000f0 d5 b5 0d bd 29 b0 c7 bd da eb c1 bd 8f 54 25 3e
       -0.034597237 -0.09750397 -0.09468813 0.16145538
000100 b0 69 86 bd a1 89 45 3d 14 5f 94 3b 86 62 ec 3c
       -0.06563127 0.048226956 0.0045279358 0.028855573
000110 69 af d1 bd a1 f0 4c bc ec 53 b5 bd b9 16 dd 3d
       -0.10238535 -0.012508542 -0.088538975 0.1079535
000120 9c 9e 63 bd 81 44 ce bd 99 78 81 3b a3 cc 38 3d
       -0.055571184 -0.1007166 0.003951144 0.04511703
000130 bb 4d ac 3d 9f 95 b6 bd 0a 6a 64 3d 93 bd 99 bd
       0.084132634 -0.08915257 0.05576519 -0.075068615
000140 1b 86 1f bd 8e c1 90 3d 74 7d b0 bb 0a f2 af bd
       -0.038946252 0.070681676 -0.005386049 -0.08591087
000150 5e 08 5a bd 9d e2 c4 3d 65 82 e9 bc 5a 39 d8 3d
       -0.053230636 0.096135356 -0.02850456 0.10557814
000160 12 ed 98 bd 90 ca 19 3d a9 6e db 3d 4b b8 41 3d
       -0.074670926 0.037546694 0.10714466 0.047294896
000170 cf 02 33 3d 6e 32 83 3d df 8c 40 bd 7d d3 8e 3d
       0.04370385 0.06406103 -0.047009345 0.06973932
000180 f1 ea 33 3d 05 bf 2c bd 83 06 a3 3d 72 ed 91 3a
       0.04392523 -0.042174358 0.079602264 0.0011133386
000190 97 ac 0e 3d 46 54 92 bd ae 6b 13 be 63 bc b8 bd
       0.034832563 -0.0714498 -0.14396545 -0.09020307
0001a0 d3 cd 60 3d d6 74 ce bd b8 d6 9f 3d 02 80 05 be
       0.05488379 -0.100808784 0.07804626 -0.13037112
0001b0 3c c2 b3 bc 5c 0a 39 bc 0d 7c 96 3d 6d 80 87 bd
       -0.021943204 -0.011293974 0.073478796 -0.06616292
0001c0 27 90 e8 bd 9d ca 87 3c 64 a4 b4 3d 56 cd 0f 3d
       -0.1135562 0.016576106 0.088204175 0.035107933
0001d0 73 d2 f1 bd 39 56 96 3d 1d 84 c7 3d 0d c7 91 bd
       -0.11807718 0.073406644 0.097419955 -0.07118044
0001e0 73 20 0d 3c eb 66 8e 3c 25 c3 ff 3d f0 97 d0 3d
       0.0086136935 0.01738306 0.12488393 0.1018523
0001f0 9f d5 1e 3d c5 7e e4 3d 6b f2 11 bd 96 a7 8e bd
       0.038777944 0.11156992 -0.03563158 -0.06965558
000200 f6 92 11 3e 99 94 a0 3d 27 db b2 bc 1f 76 6e bd
       0.14216217 0.07840843 -0.021833016 -0.058218118
000210 26 b3 c5 bc 17 fb f1 bd e9 e6 94 bd d7 11 0b be
       -0.024133276 -0.1181547 -0.07270605 -0.13581024
000220 65 b8 8d bc 1f af 17 be a4 40 5e bd 19 2f 27 3d
       -0.01729984 -0.14812897 -0.054260865 0.0408164
000230 60 e8 af 3d aa 29 1e bd f8 9c 5f 3d dc 76 a8 bd
       0.08589244 -0.038613953 0.054593056 -0.082257956
000240 a5 28 a1 bd 1f 01 11 3d e8 3d 46 3d ee e7 10 3d
       -0.078690805 0.03540146 0.048398882 0.035377435
000250 a1 e1 94 3d c2 5a 9e bd ce 03 ed bd 9e 64 03 3e
       0.07269598 -0.077321544 -0.11572991 0.12831351
000260 2d 1d f3 3d 0f 58 0d 3e b3 9a ac 3d b8 c5 bf 3d
       0.11870799 0.13803123 0.08427944 0.09363884
000270 94 c8 a5 bd 13 e6 bc 3d 0e d6 65 3d e3 eb 11 bd
       -0.08094898 0.09223571 0.05611234 -0.03562535
000280 ad bd 08 be e9 45 2a 3c f3 4e 93 3c b1 62 07 3e
       -0.13353606 0.010392644 0.017981982 0.13221242
000290 e9 d3 ef 3c 83 6a b4 3d 9e bc 2b 3c 90 68 70 bc
       0.029275851 0.08809378 0.010481982 -0.014673367
0002a0 2e 5a e9 3c e5 12 19 3d ab ab 84 bd f3 30 6f bd
       0.028485384 0.037371535 -0.064780556 -0.05839629
0002b0 a3 d0 34 ba 6a ee 08 be 34 05 2e bc 03 ad 49 bc
       -0.00068975444 -0.13372198 -0.010621358 -0.012309316
0002c0 01 15 29 bd f7 9c b1 3d 0e e6 05 3c 10 ca 04 3e
       -0.041279797 0.08672517 0.008172525 0.12967706
0002d0 c1 5b 5e bc 35 f3 a7 bd ac 68 ec 3d 83 f2 1a 3e
       -0.0135716805 -0.08200685 0.11543402 0.15131573
0002e0 74 f6 05 3e 9f 7e 8f 3d c8 74 f4 3c ae 65 e6 bc
       0.13082296 0.07006573 0.029840842 -0.028124657
0002f0 50 79 a3 bd ac 1d 91 3d 66 c8 9b bd df b5 a1 3d
       -0.07982123 0.070857376 -0.07606582 0.07896017
000300 03 98 8f bd 77 1a 98 bd 65 eb 9b bc 06 f5 70 3d
       -0.07011416 -0.07426923 -0.019033143 0.058827423
000310 f2 99 79 bd 80 45 ac bd 8b c8 11 bd 7b 8d 66 bd
       -0.06093783 -0.084116936 -0.035591643 -0.05628727
000320 86 bf 95 3d 95 98 c2 bd ff 9b 13 bc fb 7b 80 bd
       0.07311921 -0.09501759 -0.00900936 -0.062736474
000330 53 b8 35 3d 33 cf 9e 3d 48 b3 00 3d ce 31 2c 3d
       0.04436524 0.07754364 0.031420976 0.042039685
000340 61 7f 5e bd cd 83 e4 3d d9 2a 15 3d 88 92 e5 3d
       -0.054320697 0.111579515 0.036417816 0.11209589
000350 15 e0 97 3c 62 03 83 bd a9 82 05 3e 7f d1 aa bd
       0.018539468 -0.063971296 0.13038124 -0.083407395
000360 7a 70 1f 3d 51 60 a3 3d 4b 26 d6 3d 94 a6 81 3d
       0.038925625 0.07977355 0.104565226 0.063306004
000370 06 9d 08 3e a6 3e 18 bd 2d 62 0c 3d 97 6b ac 3d
       0.1334115 -0.03716912 0.034273315 0.08418959
000380 c3 f2 c5 3d 72 9f c3 bc 60 17 9a bd 79 a4 71 3a
       0.09665444 -0.02387974 -0.0752399 0.0009217929
000390 2a 76 15 3e 4e b1 73 3d b0 42 d8 bc 3c 9f 8b 3d
       0.14595857 0.059495263 -0.026398987 0.06817481
0003a0 7c c9 ad 3d 76 fc e8 3c 7f 0c 4f bd b3 2a b7 3d
       0.08485696 0.028440695 -0.050549027 0.08943691
0003b0 ff 91 8a 3d 1d 08 30 bd 82 05 d0 3d dc 79 29 3d
       0.06766128 -0.042976487 0.101573005 0.04137598
0003c0 be d6 da 3d 71 e8 cf bd 32 75 6c 3c 72 a4 c3 3d
       0.1068549 -0.101517566 0.014432238 0.0955285
0003d0 a4 02 81 bd 71 b4 6b 3c dc b6 ad 3d 80 37 90 3d
       -0.06299332 0.014386282 0.08482143 0.07041836
0003e0 c6 d3 2a 3c bb 8b 96 3d 3f 99 8d 3b 74 b4 13 3c
       0.010426467 0.0735087 0.004321247 0.009015191
0003f0 86 43 91 3c 47 79 5d bd e3 15 7d 3d 88 5a 02 3e
       0.017732393 -0.054070737 0.06178845 0.12729847
