data/example_dynamics_data/office_MLP.pth (torch, 740431 bytes, 8 tensors)

weight f4 [256, 107]
-0.045966834 0.09133854 -0.013483727 0.036276627 -0.034083504 0.09393302 0.007439434 -0.006592131
0.08226798 -0.07340247 -0.03818035 -0.046014097 -0.0063590067 -0.015685674 0.006779545 -0.04948041
-0.06303226 0.0069158636 0.18065563 0.08425952 -0.023937048 -0.09593311 -0.025122106 0.0894888
-0.027534332 0.03393852 0.09510423 0.021693312 -0.07299106 -0.034345396 0.07021277 -0.008756792
-0.07956684 -0.0316084 -0.26972774 -0.02056172 0.1064654 -0.040108 0.04320635 -0.0976398
0.04069584 -0.14972736 0.01966066 0.034574974 0.05381587 0.1575897 0.009478002 0.040202923
0.08031375 0.04736682 -0.099364266 0.079814605 0.07455993 -0.03368297 -0.007951711 0.01130166
-0.0859232 -0.02018942 0.0306615 -0.031872887 0.014080129 0.07163704 0.08026337 -0.05280957
0.068883464 0.042058498 0.054537263 -0.0746216 0.088347994 -0.045409042 -0.07515604 -0.002804393
0.020525496 -0.002631367 0.03812447 -0.042312115 -0.06088475 -0.048323076 -0.11759803 0.053231347
0.030670958 -0.02105439 -0.047096815 0.08993363 -0.041777685 0.037724596 -0.0026173636 -0.025649367
-0.035756685 0.055940703 -0.05210434 0.04253667 0.08000896 0.044060294 0.014957066 0.09479621
-0.040987764 -0.04635444 0.005379058 0.0460179 0.048195694 -0.023003034 0.04971629 -0.025559194
0.017345795 0.040934253 -0.07097212 -0.066819035 0.071437694 0.053723536 0.042410806 -0.0044335863
-0.050487697 -0.01675961 0.09412175 -0.09436591 0.0059255497 0.2850062 0.08903947 -0.078883715
0.022747053 0.048946816 -0.07377725 -0.119117916 0.2130179 -0.045602344 0.11370784 0.059958354
-0.065473296 -0.029397331 0.042044796 0.18564722 0.022272566 -0.056059554 0.0397028 -0.07075927
0.06515652 -0.090344876 -0.22824864 -0.08455143 0.06837615 -0.18255325 0.032075413 0.05327828
-0.045942325 0.02161393 -0.1380572 0.10383302 -0.12005127 -0.078467496 0.032003716 0.04871942
0.22792365 -0.11975839 -0.12637559 0.1805345 0.049485277 0.07478025 -0.014662112 0.020067202
0.09429888 -0.066754356 -0.057628408 -0.045865443 0.04600592 -0.021692356 -0.02859384 0.078411676
0.02417037 -0.040328793 0.06976239 0.0006322169 -0.017335102 0.07274626 0.089659065 -0.023509888
0.0050803167 0.13460578 -0.07595252 0.074440315 0.08123221 -0.13761854 -0.22459476 -0.054909736
0.022215383 -0.09216779 0.07701009 -0.040132083 0.0061972686 0.062384825 -0.06892583 -0.06934356
0.016317505 0.050779294 -0.09584406 0.06639361 0.040079284 -0.054203853 -0.0062183873 -0.03087291
0.08967776 0.0064278133 -0.0035611552 -0.0502604 -0.04095317 -0.05693427 -0.043795645 0.030255564
0.03560962 -0.05334725 0.045199826 0.007304475 0.012201733 -0.040502053 -0.0766143 0.03403912
-0.016765894 0.028847674 -0.054468643 0.04799989 -0.0075545427 -0.00041106992 -0.0031793397 -0.027444785
0.01502877 -0.04310938 -0.00598537 0.015683148 0.031014131 0.09586156 0.07818068 0.042737126
-0.094276324 -0.0016190849 -0.06087116 0.053265862 0.046626236 -0.038983017 -0.10852608 -0.052849136
-0.07478473 -0.08191523 0.077507004 -0.0031859274 0.086337574 0.00072310335 0.055386905 0.04191632
0.047669563 -0.04678099 -0.023095053 -0.025792781 -0.038834438 0.00810416 0.001564052 -0.105298184
00000000: b847 3cbd b30f bb3d daea 5cbc cd96 143d
00000010: 259b 0bbd f55f c03d 7fc6 f33b ce02 d8bb
00000020: 1d7c a83d 0954 96bd 0063 1cbd 4779 3cbd
00000030: 375f d0bb 3e7f 80bc f226 de3b f8ab 4abd
00000040: 0f17 81bd 789e e23b cafd 383e 4190 ac3d
00000050: a117 c4bc 9478 c4bd e0cc cdbc e745 b73d
00000060: ae8f e1bc 1e03 0b3d 02c6 c23d 2cb6 b13c
00000070: 567c 95bd c2ad 0cbd b6cb 8f3d a678 0fbc
00000080: f0f3 a2bd cf77 01bd c119 8abe 0d71 a8bc
00000090: 880a da3d 4948 24bd 24f9 303d 60f7 c7bd
000000a0: aeb0 263d 2152 19be 640f a13c 7d9e 0d3d
000000b0: 086e 5c3d 325f 213e 9f49 1b3c d2ab 243d
000000c0: 897b a43d b603 423d 7e7f cbbd d775 a33d
000000d0: e0b2 983d 27f7 09bd e547 02bc 992a 393c
000000e0: 81f8 afbd 4864 a5bc d32d fb3c 258d 02bd
000000f0: 57b0 663c 71b6 923d 1f61 a43d d94e 58bd
00000100: c612 8d3d 8845 2c3d 7762 5f3d 36d3 98bd
00000110: cbef b43d d5fe 39bd 69eb 99bd e8c9 37bb
00000120: 1625 a83c 0373 2cbb 6728 1c3d 784f 2dbd
00000130: 4a62 79bd 6bee 45bd 3cd7 f0bd 1d09 5a3d
00000140: a941 fb3c 427a acbc 97e8 40bd 1f2f b83d
00000150: 141f 2bbd 1b85 1a3d 1388 2bbb 9f1e d2bc
00000160: 9a75 12bd 1422 653d 5c6b 55bd ee3a 2e3d
00000170: bddb a33d 9178 343d 7b0e 753c 8424 c23d
00000180: c9e2 27bd 27de 3dbd cf42 b03b 447d 3c3d
00000190: d968 453d dc70 bcbc 4fa3 4b3d 8461 d1bc
000001a0: c518 8e3c adaa 273d d559 91bd 6bd8 88bd
000001b0: ed4d 923d 360d 5c3d f4b6 2d3d 9e47 91bb
000001c0: 30cc 4ebd 734b 89bc e7c2 c03d ea42 c1bd
000001d0: 1d2b c23b 55ec 913e 535a b63d c98d a1bd
000001e0: 0758 ba3c 757c 483d 8718 97bd 18f4 f3bd
000001f0: 5d21 5a3e 86c9 3abd a8df e83d e496 753d
00000200: dd16 86bd acd2 f0bc 2a37 2c3d 4e1a 3e3e
00000210: f574 b63c b49e 65bd 679f 223d 3cea 90bd
00000220: c870 853d bc06 b9bd 03ba 69be 4d29 adbd
00000230: cc08 8c3d 3def 3abe 8261 033d 533a 5a3d
00000240: 052e 3cbd b20f b13c de5e 0dbe 68a6 d43d
00000250: 71dd f5bd 91b3 a0bd 5416 033d 048e 473d
00000260: d164 693e e343 f5bd 9a68 01be 09de 383e
00000270: 13b1 4a3d 6326 993d 5b39 70bc f963 a43c
00000280: c51f c13d 82b6 88bd c40b 6cbd 67dd 3bbd
00000290: b470 3c3d 2bb4 b1bc a13d eabc 4d96 a03d
000002a0: f100 c63c ce2f 25bd 95df 8e3d 5cbb 253a
000002b0: 5802 8ebc fefb 943d 2c9f b73d cf97 c0bc
000002c0: c978 a63b 19d6 093e ff8c 9bbd 2a74 983d
000002d0: 135d a63d e0eb 0cbe 2bfc 65be 08e9 60bd
000002e0: 09fd b53c 77c2 bcbd 77b7 9d3d 8a61 24bd
000002f0: 7512 cb3b 3b87 7f3d fc28 8dbd ff03 8ebd
00000300: 4aac 853c f3fd 4f3d e449 c4bd 5ff9 873d
00000310: 2d2a 243d dc04 5ebd 9dc3 cbbb 2fe9 fcbc
00000320: f9a8 b73d 68a0 d23b 4562 69bb d9dd 4dbd
00000330: 83be 27bd e933 69bd 1063 33bd 84da f73c
00000340: 65db 113d a582 5abd 7423 393d 615a ef3b
00000350: c7e9 473c 7be5 25bd f5e7 9cbd 9b6c 0b3d
00000360: a158 89bc f551 ec3c 831a 5fbd 889b 443d
00000370: 198c f7bb df84 d7b9 785c 50bb e3d3 e0bc
00000380: 3b3b 763c 7693 30bd ec20 c4bb f279 803c
00000390: 5911 fe3c 1153 c43d 311d a03d 200d 2f3d
000003a0: f213 c1bd 7937 d4ba 0a54 79bd 4e2d 5a3d
000003b0: 27fb 3e3d a8ac 1fbd ec42 debd 5678 58bd
000003c0: bd28 99bd 2cc3 a7bd febb 9e3d feca 50bb
000003d0: c1d1 b03d a58e 3d3a 61dd 623d 72b0 2b3d
000003e0: 2941 433d 6c9d 3fbd d631 bdbc 624b d3bc
000003f0: dc10 1fbd 50c7 043c e000 cd3a 93a6 d7bd

bias f4 [256]
-0.030048998 0.057399496 -0.07170773 0.003183228 0.0715562 0.0048398147 0.07588467 0.09827928
0.07551943 0.020278303 0.04762461 -0.041376542 -0.030143036 0.08557397 -0.04389239 -0.033724885
-0.088583045 0.05992721 0.019125324 0.096898355 0.06326118 0.08311459 -0.025958937 -0.07538633
0.059150364 0.08728035 -0.04096007 0.01798799 -0.0021123022 0.0056070723 -0.024913367 -0.0516966
0.08286939 0.027638668 0.09668714 0.0066335374 -0.053559557 0.08451054 0.077407844 0.03894685
0.037010543 0.027318345 -0.074123174 0.09998496 -0.033747725 0.037422184 0.029452575 0.09535132
-0.035581686 0.007400036 -0.030969324 -0.009036443 0.0029060321 -0.07759793 -0.0399534 -0.011072095
-0.008225453 -0.07443708 -0.07848992 -0.03190575 0.09891501 0.01103627 -0.02078941 -0.030374454
-0.109594375 0.04036201 0.07369737 -0.03821151 0.06223436 -0.044525 -0.06827871 0.079649806
-0.008254916 -0.04327787 -0.07118618 -0.077032976 0.01834695 -0.051519025 0.073051944 -0.058443513
-0.02319181 -0.01378739 -0.027410528 8.2983956e-05 0.034871895 0.09123526 0.082995 0.0184033
0.051259227 0.05801224 0.060691025 0.07302801 0.021842578 0.03176078 0.081892855 0.016324928
0.088346355 -0.08890527 0.082519755 -0.015810015 0.087263286 0.022138212 0.014503291 -0.055388417
0.07000126 -0.035547975 -0.012147965 -0.0008615524 0.016945874 0.09261879 0.089082405 -0.037550308
0.062618665 -0.10296991 0.044603545 0.064327165 -0.102288276 0.060360134 0.019423746 0.09175231
-0.01953495 0.087888256 0.05440985 0.059340004 -0.078267746 0.047503624 0.07250993 -0.061889492
-0.07311535 -0.029037839 0.09064735 -0.02105008 -0.03564968 0.03951925 0.001571322 -0.051334012
0.093375154 -0.024329493 -0.078068994 -0.032364763 -0.06643412 -0.047025487 -0.03310025 -0.028219378
0.040924113 -0.026993355 0.05154598 -0.0006187441 -0.009749751 -0.06680739 -0.100208186 0.10149185
-0.030386781 -0.049469996 0.09564988 -0.046327513 0.07453765 0.024494674 -0.035852756 -0.07352639
0.01696907 0.037498407 -0.04399017 0.05906397 -0.03310136 0.05350407 -0.00554933 -0.038211294
-0.063434266 0.019451242 0.0058620335 -0.025767775 0.03286629 -0.0011016303 -0.060755182 -0.01260831
0.07163324 0.04070711 0.09532775 0.06518038 0.04197841 -0.071804926 0.09744694 0.013019704
-0.083501436 0.022758003 0.021765148 -0.041687712 0.0027720241 0.00019761045 -0.08499176 -0.093435064
-0.06599773 -0.04162347 0.03177157 0.02861232 -0.058343634 -0.03280686 -0.07547898 -0.0925211
-0.038071122 -0.013483944 -0.03561142 -0.080377 0.023323225 0.095520236 0.07223608 0.07562154
-0.061169975 0.0730386 -0.014171488 -0.043711986 -0.023634043 0.11188954 0.098543055 -0.09953336
-0.006426217 -0.05890266 0.024298381 -0.039802834 -0.056899026 -0.035346996 -0.031371277 -0.04484232
-0.098116815 0.040753875 -0.098678626 0.0062845196 0.07579859 -0.0093469815 0.08277118 -0.09769104
-0.021372093 0.0334985 -0.034829468 -0.01604567 -0.0067356816 -0.08649315 0.06899051 0.0939965
-0.08682366 0.015264451 -0.082520045 -0.029782392 0.021176584 0.09350758 0.081905864 0.040761754
0.017352642 0.06717494 -0.054254036 0.074276075 -0.0071390346 0.048993144 0.04321721 -0.052055787
00000000: 5129 f6bc bc1b 6b3d 81db 92bd b49d 503b
00000010: 0f8c 923d 4f97 9e3b 6c69 9b3d a646 c93d
00000020: eea9 9a3d af1e a63c 0612 433d 737a 29bd
00000030: 87ee f6bc 6841 af3d 82c8 33bd 1b23 0abd
00000040: 076b b5bd 3c76 753d b6ac 9c3c a572 c63d
00000050: 148f 813d fb37 aa3d d6a7 d4bc 2664 9abd
00000060: a747 723d 0ac0 b23d bfc5 27bd 8d5b 933c
00000070: 8d6e 0abb 88bb b73b 1e17 ccbc d0bf 53bd
00000080: 6db7 a93d 7d6a e23c e803 c63d 255e d93b
00000090: 4461 5bbd dd13 ad3d 0188 9e3d bb86 1f3d
000000a0: 5e98 173d b9ca df3c e4cd 97bd eac4 cc3d
000000b0: 0e3b 0abd 0148 193d 8746 f13c 8e47 c33d
000000c0: 1abe 11bd 007c f23b 61b3 fdbc 970d 14bc
000000d0: 2173 3e3b aaeb 9ebd 2da6 23bd bb67 35bc
000000e0: 0dc4 06bc 7872 98bd 53bf a0bd 9baf 02bd
000000f0: f493 ca3d 79d1 343c 8e4e aabc d9d3 f8bc
00000100: 0473 e0bd a352 253d a6ee 963d ac83 1cbd
00000110: 75e9 7e3d d95f 36bd b5d5 8bbd 701f a33d
00000120: a13f 07bc 2344 31bd 0fca 91bd 77c3 9dbd
00000130: 584c 963c 9d05 53bd 429c 953d 7762 6fbd
00000140: c0fc bdbc 81e4 61bc 0b8c e0bc ac07 ae38
00000150: d5d5 0e3d 8dd9 ba3d 48f9 a93d 84c2 963c
00000160: 32f5 513d 3e9e 6d3d 2797 783d b68f 953d
00000170: 35ef b23c 9717 023d 71b7 a73d dbbb 853c
00000180: efee b43d f713 b6bd 1e00 a93d 0184 81bc
00000190: 18b7 b23d 325b b53c 369f 6d3c f7de 62bd
000001a0: d25c 8f3d c19a 11bd 4208 47bc ced9 61ba
000001b0: 13d2 8a3c ecae bd3d d670 b63d 5ace 19bd
000001c0: 373e 803d e3e1 d2bd 35b2 363d f6bd 833d
000001d0: 847c d1bd 303c 773d 8c1e 9f3c a3e8 bb3d
000001e0: c207 a0bc c2fe b33d dddc 5e3d 810e 733d
000001f0: d74a a0bd 2993 423d 1680 943d d67f 7dbd
00000200: 80bd 95bd c3e0 edbc 51a5 b93d 3871 acbc
00000210: 6605 12bd f0de 213d d1f4 cd3a 9d43 52bd
00000220: 793b bf3d a54e c7bc a3e2 9fbd ea90 04bd
00000230: 9d0e 88bd cc9d 40bd 2194 07bd 532c e7bc
00000240: 0ba0 273d 2b21 ddbc e121 533d 3733 22ba
00000250: 6bbd 1fbc 50d2 88bd f339 cdbd f6da cf3d
00000260: b3ed f8bc 0da1 4abd 16e4 c33d ebc1 3dbd
00000270: 32a7 983d 0ea9 c83c 57da 12bd 0195 96bd
00000280: b802 8b3c ee97 193d 092f 34bd 10ed 713d
00000290: 4b95 07bd 1527 5b3d 27d7 b5bb 7283 1cbd
000002a0: d3e9 81bd 3658 9f3c 4d16 c03b f116 d3bc
000002b0: ce9e 063d 9464 90ba 6dda 78bd 1693 4ebc
000002c0: 73b4 923d 80bc 263d 323b c33d 4b7d 853d
000002d0: 8ef1 2b3d 760e 93bd 4392 c73d 9950 553c
000002e0: cd02 abbd fe6e ba3c d34c b23c bcc0 2abd
000002f0: d9aa 353b a735 4f39 2910 aebd e25a bfbd
00000300: d129 87bd 5f7d 2abd e822 023d 6264 ea3c
00000310: bcf9 6ebd 7c60 06bd b994 9abd b47b bdbd
00000320: 77f0 1bbd c3eb 5cbc 48dd 11bd b29c a4bd
00000330: 5910 bf3c 1da0 c33d 83f0 933d 77df 9a3d
00000340: 5e8d 7abd 4395 953d 872f 68bc 570b 33bd
00000350: 2e9c c1bc 5826 e53d f1d0 c93d 25d8 cbbd
00000360: 0493 d2bb ea43 71bd 660d c73c 4c08 23bd
00000370: f40e 69bd 03c8 10bd 2b7f 00bd 95ac 37bd
00000380: 78f1 c8bd 89ed 263d 0518 cabd 5fee cd3b
00000390: 4b3c 9b3d 1524 19bc f083 a93d 3d12 c8bd
000003a0: 8714 afbc b935 093d 58a9 0ebd 3572 83bc
000003b0: feb6 dcbb 5223 b1bd e64a 8d3d 3d81 c03d
000003c0: 9ad0 b1bd bf17 7a3c 4500 a9bd 34fa f3bc
000003d0: 847a ad3c e780 bf3d 43be a73d ccf5 263d
000003e0: 2127 8e3c 0493 893d 7b39 5ebd 0e1e 983d
000003f0: 90ee e9bb 09ad 483d 8704 313d 7338 55bd

weight f4 [256, 256]
0.0154265845 -0.036403257 0.031738006 -0.013990519 -0.06278013 0.011436681 0.014246059 0.036518075
-0.021349315 0.038021535 -0.06979642 0.042192392 -0.02803266 0.054175213 -0.0062456895 0.0010884823
0.107033595 0.036972973 0.004589542 0.026020156 0.030484999 0.0045430483 0.013023349 -0.024850432
-0.081237674 0.03631103 0.08921905 0.002722848 0.057610616 -0.036408585 -0.01259641 8.598855e-05
0.06835581 -0.0049185865 0.010124207 0.05613151 -0.019019168 0.0047877203 0.055277564 0.04116002
0.058927327 -0.020123104 0.06446805 0.052500404 0.05315874 0.029003453 -0.050588403 0.04423599
0.0544615 0.055574313 -0.033373132 -0.011651749 -0.058762513 -0.033961155 -0.02015845 -0.056919746
-0.0890397 -0.032644276 0.05491028 0.014978172 -0.014557348 -0.053756677 -0.02279043 -0.018363956
-0.010811078 -0.04358314 -0.021768741 -0.061770238 0.049701255 0.035069738 0.015869366 0.02798249
-0.04142622 -0.016858064 0.08935476 0.043739192 0.0024407303 -0.021384014 0.0048409 -0.060369726
-0.038946148 0.006280756 -0.05735515 -0.008731328 -0.034757547 0.026833806 -0.00820501 0.012217884
-0.014186466 -0.005150263 -0.0036442063 -0.053353395 0.068898275 0.011562034 -0.04528129 0.061785705
0.06474185 0.0066495044 0.017836176 0.009003456 -0.04438324 0.009269216 0.04112741 0.017068993
0.05923513 0.05423657 0.041183673 0.03699305 -0.014256173 -0.00039226376 0.0090061 -0.057821903
0.038015917 -0.0046173823 0.042935416 0.00646735 -0.051714625 -0.003918235 -0.025268244 0.07458562
-0.047089607 -0.01686866 0.02637227 0.069324724 -0.003946769 0.045015693 -0.009293466 0.01338353
-0.026931938 -0.03793876 -0.020711511 0.022417895 0.026858272 0.019066375 -0.014949921 -0.010927262
0.055693626 0.046949502 0.059139933 0.07430336 0.02292261 -0.055957776 0.038625035 -0.023853898
0.04055866 -0.03927176 -0.027034307 0.0010525889 0.10741186 0.001996884 0.021622332 -0.053688284
0.012264029 -0.028883284 0.045371126 0.1272355 0.018482152 0.050340805 -0.041598663 -0.05009144
0.034856815 -0.03037028 -0.021406826 0.043922216 0.026085889 0.042109214 0.05556056 0.051686738
-0.04956063 -0.010104098 0.049846735 -0.008438092 -0.016878866 0.03301815 -0.040011637 0.04156411
0.018844146 -0.037430268 0.03307878 -0.029252093 0.049260024 -0.030212514 0.0010787527 0.052891206
-0.05896957 -0.01735072 -0.06553707 0.006788029 0.02032363 -0.0373466 0.07460606 -0.055483103
0.017360687 -0.044057142 -0.05326831 -0.060366362 -0.10350363 -0.039417285 0.102001436 0.044465214
0.029445382 0.040376488 -0.096128866 0.04301796 0.07642048 0.080686875 0.022284154 0.06583933
0.052356683 0.038539525 0.035220828 0.04221435 0.009501231 -0.062665224 -0.03006079 0.031920742
0.06551294 0.04956729 -0.022455664 -0.014618448 0.010032584 -0.039931178 -0.04101297 -0.0111492565
0.023064338 0.03595109 -0.010826068 0.015704239 0.022118255 0.017363213 0.047707498 0.012256993
0.044493638 -0.04021496 -0.062796734 -0.015486283 0.003086804 0.022946713 0.043219797 0.005810456
0.054434326 -0.04851958 0.05650916 -0.027173823 -0.027993929 0.008956341 0.0056108804 -0.09122509
-0.025272967 0.0068426123 -0.0509552 0.062366046 -0.03103969 0.054806255 0.07039467 -0.092411324
00000000: c9bf 7c3c 951b 15bd b6ff 013d 7d38 65bc
00000010: de92 80bd eb60 3b3c 4d68 693c fa93 153d
00000020: c2e4 aebc 78bc 1b3d 6df1 8ebd eed1 2c3d
00000030: c0a4 e5bc d4e6 5d3d a4a8 ccbb 68ab 8e3a
00000040: 6e34 db3d f970 173d de63 963b 3928 d53c
00000050: adbb f93c dadd 943b e35f 553c 2293 cbbc
00000060: f05f a6bd e0ba 143d 7ab8 b63d cf71 323b
00000070: 1cf9 6b3d 2b21 15bd 2c61 4ebc c054 b438
00000080: 22fe 8b3d 182c a1bb 00e0 253c 27ea 653d
00000090: 16ce 9bbc 4fe2 9c3b ba6a 623d 6997 283d
000000a0: c85d 713d 35d9 a4bc d307 843d aa0a 573d
000000b0: fbbc 593d a698 ed3c c935 4fbd cc30 353d
000000c0: 0613 5f3d e4a1 633d 44b2 08bd fae6 3ebc
000000d0: f6b0 70bd da1a 0bbd 5523 a5bc ae24 69bd
000000e0: 725a b6bd 01b6 05bd 9ae9 603d 0267 753c
000000f0: f181 6ebc f62f 5cbd ffb2 babc 0270 96bc
00000100: f320 31bc 3c84 32bd 5c54 b2bc ca02 7dbd
00000110: 8b93 4b3d 49a5 0f3d 7900 823c 893b e53c
00000120: 8aae 29bd ec19 8abc a1ff b63d de27 333d
00000130: a9f4 1f3b 872d afbc 6aa0 9e3b 3f46 77bd
00000140: ff85 1fbd cdce cd3b 3ced 6abd d80d 0fbc
00000150: ee5d 0ebd 92d2 db3c 4e6e 06bc 852d 483c
00000160: 5a6e 68bc 8ac3 a8bb a3d3 6ebb 1789 5abd
00000170: 8a1a 8d3d af6e 3d3c e078 39bd 0213 7d3d
00000180: 6097 843d 16e4 d93b 2c1d 923c 3b83 133c
00000190: 33cb 35bd e9dd 173c 3775 283d 46d4 8b3c
000001a0: 89a0 723d 2a27 5e3d 36b0 283d 0686 173d
000001b0: b992 69bc c0a8 cdb9 528e 133c a9d6 6cbd
000001c0: 94b6 1b3d 694d 97bb 0cdd 2f3d 10ec d33b
000001d0: b7d2 53bd 8a64 80bb 59ff cebc 58c0 983d
000001e0: 08e1 40bd 2530 8abc a90a d83c 1ffa 8d3d
000001f0: e653 81bb 6062 383d 9f43 18bc 9846 5b3c
00000200: 5ea0 dcbc ac65 1bbd 30ab a9bc bca5 b73c
00000210: e105 dc3c 1631 9c3c 83f0 74bc 4208 33bc
00000220: 001f 643d 1f4e 403d b73c 723d 5c2c 983d
00000230: 33c8 bb3c fb33 65bd 4935 1e3d 4069 c3bc
00000240: d620 263d 6ddb 20bd 0d77 ddbc 06f7 893a
00000250: c0fa db3d 27de 023b 5121 b13c 3fe8 5bbd
00000260: 11ef 483c a39c ecbc 13d7 393d 064a 023e
00000270: e267 973c 2932 4e3d 5c63 2abd af2c 4dbd
00000280: 05c6 0e3d 18cb f8bc 5e5d afbc c8e7 333d
00000290: 13b2 d53c b67a 2c3d 7893 633d 79b5 533d
000002a0: 1600 4bbd a98b 25bc 172c 4c3d ec3f 0abc
000002b0: 8c45 8abc 0a3e 073d 3ee3 23bd 213f 2a3d
000002c0: 0a5f 9a3c 7b50 19bd 9d7d 073d 16a2 efbc
000002d0: e1c4 493d 3c80 f7bc ef64 8d3a 73a4 583d
000002e0: 138a 71bd 1923 8ebc 4d38 86bd 1d6e de3b
000002f0: be7d a63c c0f8 18bd 10cb 983d 4042 63bd
00000300: 0038 8e3c 4375 34bd df2f 5abd b842 77bd
00000310: b6f9 d3bd 0574 21bd 21e6 d03d 2821 363d
00000320: 7137 f13c d161 253d 36df c4bd 9a33 303d
00000330: 5782 9c3d 293f a53d 428d b63c c5d6 863d
00000340: f673 563d 9fdb 1d3d b743 103d f4e8 2c3d
00000350: 0dab 1b3c a056 80bd 0c42 f6bc 53bf 023d
00000360: a62b 863d 1207 4b3d f1f4 b7bc 3782 6fbc
00000370: b55f 243c e08e 23bd 37fd 27bd 5fab 36bc
00000380: 6cf1 bc3c 7341 133d d25f 31bc 2da6 803c
00000390: 5831 b53c 4c3d 8e3c f068 433d 8ed1 483c
000003a0: f63e 363d 71b8 24bd 939b 80bd 2eba 7dbc
000003b0: fa4b 4a3b bffa bb3c 3e07 313d a365 be3b
000003c0: 87f6 5e3d 78bc 46bd 2676 673d a39b debc
000003d0: 8653 e5bc 9ebd 123c 7adb b73b 38d4 babd
000003e0: 4109 cfbc fe37 e03b 66b6 50bd 8a73 7f3d
000003f0: f346 febc 867c 603d 152b 903d 2642 bdbd

bias f4 [256]
0.0029144455 -0.04486389 0.03280393 0.008442127 0.022349313 0.008153459 0.03858921 -0.035605256
0.045537043 0.04532389 0.0010319372 -0.053945985 -0.059437368 -0.0060149343 -0.02762934 0.06380634
-0.050142992 -0.047558267 -0.06738938 0.0042782454 -0.051586945 -0.0578433 -0.013408054 0.050225116
0.034254383 0.024621956 0.055858765 0.07028544 0.05191313 0.0044891965 0.025075024 -0.02689758
0.032488845 0.021174194 0.027430357 -0.045517903 0.05447012 -0.027290026 -0.017602267 -0.023670664
0.050095316 0.015403103 -0.01789927 0.033233665 0.053022113 -0.051769987 0.032909118 -0.04449115
-0.042164385 -0.04106713 -0.0007455502 0.06337435 0.062317632 -0.018710187 -0.05137697 -0.053739857
-0.022085562 0.044604383 0.06333967 -0.02622485 0.011262514 0.047127593 0.029802091 0.009740866
-0.047383286 -0.03308422 -0.016333759 -0.021654837 -0.059508815 -0.00539835 -0.011688952 -0.011855373
0.0027244368 -0.013329778 0.009883036 0.023258256 0.053085774 0.010860755 -0.05901179 0.0073788892
-0.022271208 -0.046967376 -0.0030056613 -0.06205044 -0.00487166 0.016804032 0.038711596 -0.01297641
0.00063843164 0.06826292 -0.069026284 0.020815868 0.022405675 -0.04205222 0.05399457 0.013341629
-0.022929862 -0.052099258 -0.0043223547 -0.01948391 -0.06084979 -0.0081065735 0.0004023035 -0.030857602
-0.05616295 -0.027254492 0.02327868 -0.03848457 -0.026928052 -0.023131466 -0.053524222 0.041429173
0.055026818 0.02012651 0.047828436 0.06396133 -0.013248998 0.050908566 0.048411127 -0.022860684
0.044621255 -0.03797354 0.0026743687 -0.024403209 0.016911592 0.03576283 -0.0010202979 -0.0428081
-0.05570745 0.06281082 -0.019419996 0.0060807234 0.007386708 0.027826414 0.030854758 0.052064843
-0.060965594 0.06798172 -0.051736888 -0.0289964 0.002634428 0.016484667 -0.036170643 -0.02312326
-0.029064756 0.011096011 -0.041947108 0.056884035 -0.051452942 -0.020139651 -0.058835384 -0.04130847
0.03415026 -0.05429646 -0.018769884 -0.017583892 -0.053580973 -0.014223383 0.03878337 -0.004347128
-0.004779719 -0.008317769 0.00919646 -0.015111953 0.003995863 0.064958796 0.048546053 0.013449648
0.01109857 -0.048204497 -0.024742281 0.045152005 -0.028619554 0.033383057 0.03432569 0.03533408
-0.027489966 0.04792714 -0.014268473 0.0296388 0.024197191 -0.034724087 0.0012238217 -0.058711484
0.012674064 0.05540594 -0.03963321 0.030556504 0.0034918084 -0.057993352 -0.0055132513 0.036154278
-0.025342 0.033719756 -0.018484969 0.042060606 0.06169042 0.030671418 -0.0188718 -0.061003547
-0.003603139 0.04178637 0.005349634 -0.04964918 -0.013236117 -0.05256171 -0.0026164064 0.03505085
-0.037215453 0.04728847 -0.012726167 0.05142497 -0.009835771 0.049593367 0.042239934 -0.0051123276
0.025597366 -0.020986013 0.01406642 -0.030569892 -0.052919403 -0.0060169045 -0.052318744 -0.01389664
0.037159547 -0.038575523 0.049159724 0.06878854 0.024431111 -0.025270907 -0.04538373 0.050513886
0.02136914 0.048278414 -0.061848983 -0.02709662 0.06544253 0.019591141 0.02616134 0.058632106
-0.014236396 0.04475325 0.016320003 0.022539593 -0.014647859 0.025044575 0.042703126 -0.041148447
-0.046528522 -0.013552428 0.045309685 -0.042543102 -0.002333208 -0.010179523 -0.029927844 0.008346046
00000000: 4800 3f3b 33c3 37bd 6a5d 063d d950 0a3c
00000010: e815 b73c 1696 053c b80f 1e3d d1d6 11bd
00000020: 0d85 3a3d 8ba5 393d 1142 873a 77f6 5cbd
00000030: 9974 73bd ed18 c5bb ed56 e2bc e6ac 823d
00000040: bd62 4dbd 75cc 42bd 7103 8abd 8630 8c3b
00000050: d54c 53bd 19ed 6cbd 74ad 5bbc dab8 4d3d
00000060: 534e 0c3d fcb3 c93c 29cc 643d d0f1 8f3d
00000070: dda2 543d 1c1a 933b 236a cd3c 5058 dcbc
00000080: 0613 053d 8175 ad3c a1b5 e03c fb70 3abd
00000090: 101c 5f3d 558f dfbc a132 90bc fbe8 c1bc
000000a0: bf30 4d3d 4c5d 7c3c 7da1 92bc 0620 083d
000000b0: b72d 593d c40c 54bd b6cb 063d 5a3c 36bd
000000c0: 90b4 2cbd 0236 28bd 0771 43ba 69ca 813d
000000d0: c640 7f3d 1b46 99bc a870 52bd 531e 5cbd
000000e0: c8ec b4bc 16b3 363d 3bb8 813d 7fd5 d6bc
000000f0: 6886 383c dd08 413d 8423 f43c 2798 1f3c
00000100: fa14 42bd 5283 07bd 60ce 85bc 7c65 b1bc
00000110: 84bf 73bd a4e4 b0bb 0583 3fbc 0a3d 42bc
00000120: 778c 323b 2465 5abc 75ec 213c 1988 be3c
00000130: 7870 593d 4ff1 313c 59b6 71bd 9cca f13b
00000140: 1c72 b6bc dd60 40bd a1fa 44bb 9a28 7ebd
00000150: 72a2 9fbb 9ca8 893c 0d90 1e3d 029b 54bc
00000160: 6c5c 273a 6ecd 8b3d a75d 8dbd 0a86 aa3c
00000170: 1b8c b73c f33e 2cbd 6929 5d3d d996 5a3c
00000180: 68d7 bbbc 0866 55bd 8aa2 8dbb b99c 9fbc
00000190: a13d 79bd 6fd1 04bc 43ec d239 15c9 fcbc
000001a0: 1f0b 66bd d044 dfbc eeb2 be3c ffa1 1dbd
000001b0: 3898 dcbc 337e bdbc 373c 5bbd a3b1 293d
000001c0: cd63 613d 5ae0 a43c c0e7 433d 28fe 823d
000001d0: 5312 59bc 8085 503d bf4a 463d 5446 bbbc
000001e0: c7c4 363d 258a 1bbd 7644 2f3b 3de9 c7bc
000001f0: 2e8a 8a3c 0c7c 123d 84bb 85ba 8c57 2fbd
00000200: 7f2d 64bd f6a2 803d af16 9fbc ce40 c73b
00000210: 330c f23b 38f4 e33c 1ec3 fc3c f241 553d
00000220: 0fb7 79bd 003a 8b3d 0fea 53bd dc89 edbc
00000230: 5ea6 2c3b da0a 873c ab27 14bd fe6c bdbc
00000240: 3619 eebc 0bcc 353c bbd0 2bbd 3cff 683d
00000250: 52c0 52bd e9fb a4bc 5ffd 70bd 1233 29bd
00000260: 25e1 0b3d f765 5ebd 4dc3 99bc 180c 90bc
00000270: b977 5bbd 3109 69bc 50db 1e3d 5a72 8ebb
00000280: 309f 9cbb 4047 08bc c0ac 163c 2098 77bc
00000290: baef 823b 1e09 853d 3ad8 463d ea5b 5c3c
000002a0: c7d6 353c 1472 45bd 53b0 cabc 4ff1 383d
000002b0: 8e73 eabc acbc 083d 1899 0c3d 78ba 103d
000002c0: a332 e1bc 404f 443d 50c6 69bc 12cd f23c
000002d0: 3039 c63c d83a 0ebd a468 a03a 747b 70bd
000002e0: e1a6 4f3c 57f1 623d 6f56 22bd a251 fa3c
000002f0: d3d6 643b 708a 6dbd 81a8 b4bb 8216 143d
00000300: 079a cfbc ba1d 0a3d ca6d 97bc be47 2c3d
00000310: 18af 7c3d a042 fb3c 0899 9abc dbde 79bd
00000320: a422 6cbb 2f28 2b3d fc4b af3b f05c 4bbd
00000330: 4cdc 58bc f34a 57bd 0478 2bbb 7b91 0f3d
00000340: 3b6f 18bd 8eb1 413d 6a81 50bc fda2 523d
00000350: 3726 21bc 6a22 4b3d c803 2d3d 5085 a7bb
00000360: 91b1 d13c dcea abbc d776 663c b66d fabc
00000370: 04c2 58bd 7429 c5bb 2e4c 56bd bcae 63bc
00000380: 9c34 183d 5e01 1ebd b55b 493d 02e1 8c3d
00000390: c123 c83c ef04 cfbc 4ae4 39bd a6e7 4e3d
000003a0: 560e af3c 96bf 453d 5c55 7dbd bbf9 ddbc
000003b0: bc06 863d 9a7d a03c 4e50 d63c 3828 703d
000003c0: c63f 69bc 2f4f 373d 87b1 853c f4a4 b83c
000003d0: 93fd 6fbc 482a cd3c 79e9 2e3d 468b 28bd
000003e0: b194 3ebd 010b 5ebc a696 393d ad41 2ebd
000003f0: bce8 18bb 04c8 26bc 3d2b f5bc dbbd 083c

weight f4 [256, 256]
-0.012043778 -0.03851318 0.058524154 0.01627205 0.057343654 -0.01818007 0.0053681214 -0.055332243
-0.011544782 0.05310844 0.06316834 -0.023346707 -0.022781601 -0.04635504 -0.06992026 -0.0037156453
0.04365932 0.04567547 0.037675727 -0.059103396 0.01728438 -0.0013860464 0.05703798 -0.057720736
-0.015975874 0.01462479 -0.025650674 0.047331173 -0.039233927 0.045094106 0.02763939 -0.03593154
0.050813653 0.047210496 0.0634945 0.020074455 0.033150695 -0.0023227322 0.046992768 -0.050554723
0.01132662 -0.021571653 -0.020235466 0.04155202 0.039630108 0.06742694 0.08819737 0.058233052
-0.024080988 0.021469014 -0.037386306 -0.03231801 -0.037127376 -0.035830177 0.057868123 0.054813515
-0.03719207 -0.016700346 0.04198074 -9.1328904e-05 0.06824048 -0.0024450794 0.0025377471 0.037971698
0.014838186 0.00780858 0.037696753 -0.029346315 -0.008505218 0.00468191 0.008063734 -0.008716522
0.033143107 0.05040274 -0.032577366 0.013927441 -0.029329583 0.017509164 -0.02258073 0.0320656
0.028253967 -0.026182203 -0.054355502 -0.011511401 -0.041483436 -0.01686803 -0.00038142753 -0.007797234
-0.027751504 -0.027021497 -0.024709113 -0.05242984 -0.016646652 0.080945745 -0.010948633 0.009907076
0.04704883 0.060197424 0.052789778 -0.00682285 0.047588944 -0.057984322 0.05859398 0.035226375
-0.061391786 -0.021408841 0.008221734 0.034899034 0.042630136 -0.025839528 -0.055746574 0.00924201
0.03874 -0.002211062 0.063556135 0.011290753 0.045229547 0.017745834 0.025953682 0.005304623
-0.027354805 0.026078315 0.009455956 0.05207296 0.04710462 -0.044678595 -0.050894704 0.028929673
-0.028211536 -0.042682793 0.03198577 -0.044484865 0.027054118 0.039074812 -0.004384732 -0.046117593
0.0639626 -0.18012804 -0.016828788 -0.05222274 0.06910209 -0.07018954 -0.03615847 -0.011380834
-0.045385655 -0.058885615 -0.02781387 0.015423597 -0.01503962 0.026728585 0.061050385 -0.0316949
0.06354207 -0.021080574 -0.011696051 0.029818423 -0.0010465299 0.03158227 -0.010168574 -0.0635807
0.06691431 -0.016708994 -0.035322472 0.06667204 -0.009550091 0.011201558 0.037230227 0.03996844
0.019595264 -0.006234378 0.06364199 0.043999277 0.0651383 0.011069745 0.040081646 -0.0041616554
0.010719328 0.024315797 0.034014266 0.053201243 -0.06215396 0.00637218 -0.024337983 -0.009119294
-0.047485176 0.021983474 0.0030548987 0.01707401 -0.049751166 0.048884388 -0.029044695 -0.033725824
0.044076275 0.068859726 -0.003789872 0.019154994 0.058846246 -0.035814114 -0.032710504 0.029466601
-0.02018101 0.0033347653 0.063340604 0.010498303 -0.0547474 0.040934514 0.052307732 -0.013286041
-0.027777545 -0.027475053 0.0654328 0.06628527 -0.046216384 0.041974626 0.055466667 -0.0014183453
-0.026889477 -0.039609946 0.0853961 -0.0060484 -0.0050360006 -0.027767988 0.004639466 0.0362215
-0.04297491 -0.0065444238 -0.055910602 0.03629731 0.05474475 0.0587487 0.040646162 0.04743604
-0.018618394 0.019373456 -0.0019980327 0.031069517 0.032998722 -0.019077959 0.04503156 0.01722886
0.020243298 0.045549043 0.0013331907 -0.004337336 -0.026885286 0.05165544 0.020046465 0.061210286
0.014633446 0.013481519 -0.10538621 -0.008195187 -0.037993617 -0.050435424 -0.031067139 -0.04043781
00000000: 4453 45bc ffbf 1dbd 06b7 6f3d f64c 853c
00000010: 2ee1 6a3d 5fee 94bc 11e7 af3b 10a4 62bd
00000020: 5326 3dbc 3c88 593d 675e 813d 9841 bfbc
00000030: 7ba0 babc c8de 3dbd 5a32 8fbd 2f82 73bb
00000040: 1dd4 323d 3416 3b3d dd51 1a3d 6716 72bd
00000050: f997 8d3c 00ac b5ba a8a0 693d 946c 6cbd
00000060: d6df 82bc d19c 6f3c 5d21 d2bc 55de 413d
00000070: c1b3 20bd 99b4 383d 016c e23c f32c 13bd
00000080: fa21 503d cb5f 413d 6809 823d 2f73 a43c
00000090: 06c9 073d fb38 18bb 7d7b 403d 7812 4fbd
000000a0: 4a93 393c 09b7 b0bc d9c4 a5bc 7332 2a3d
000000b0: 2e53 223d 2317 8a3d d3a0 b43d c885 6e3d
000000c0: 7e45 c5bc c9df af3c 6222 19bd e45f 04bd
000000d0: e012 18bd aac2 12bd 2007 6d3d 2384 603d
000000e0: b656 18bd 2acf 88bc fff3 2b3d d587 bfb8
000000f0: aac1 8b3d a03d 20bb 5550 263b 3688 1b3d
00000100: dd1b 733c 1edf ff3b e967 1a3d af67 f0bc
00000110: 7859 0bbc b56a 993b c01d 043c becf 0ebc
00000120: 11c1 073d 1a73 4e3d d86f 05bd ec2f 643c
00000130: 9844 f0bc 616f 8f3c 39fb b8bc 3857 033d
00000140: dd74 e73c 0f7c d6bc e0a3 5ebd 519a 3cbc
00000150: 89ea 29bd d32e 8abc 56fa c7b9 f17f ffbb
00000160: 1f57 e3bc 305c ddbc c46a cabc acc0 56bd
00000170: 8f5e 88bc e2c6 a53d e561 33bc 4a51 223c
00000180: 46b6 403d 9391 763d 183a 583d 3792 dfbb
00000190: a0ec 423d f880 6dbd 3e00 703d 8849 103d
000001a0: f475 7bbd 9861 afbc 74b4 063c 4af2 0e3d
000001b0: f09c 2e3d 6bad d3bc 8556 64bd cd6b 173c
000001c0: d6ad 1e3d 77e7 10bb b829 823d dafc 383c
000001d0: 9e42 393d b65f 913c d19c d43c 67d2 ad3b
000001e0: 2f17 e0bc 31a2 d53c 27ed 1a3c 754a 553d
000001f0: c6f0 403d e700 37bd f776 50bd ecfd ec3c
00000200: e11b e7bc 27d4 2ebd 8303 033d c335 36bd
00000210: 99a0 dd3c e90c 203d ccad 8fbb cde5 3cbd
00000220: d3fe 823d 7c73 38be 87dc 89bc 83e7 55bd
00000230: 6685 8d3d 89bf 8fbd e71a 14bd ad76 3abc
00000240: 4fe6 39bd 0b32 71bd ead9 e3bc 41b3 7c3c
00000250: bd68 76bc e8f5 da3c f80f 7a3d 83d2 01bd
00000260: 5822 823d 2bb1 acbc cba0 3fbc c445 f43c
00000270: b72b 89ba 695c 013d 179a 26bc 9936 82bd
00000280: 5f0a 893d 4de1 88bc 4cae 10bd 5a8b 883d
00000290: fc77 1cbc bd86 373c b97e 183d f2b5 233d
000002a0: 3f86 a03c c149 ccbb bb56 823d 9638 343d
000002b0: 3b67 853d e05d 353c a72c 243d 7f5e 88bb
000002c0: 1fa0 2f3c ec31 c73c 8b52 0b3d 8ce9 593d
000002d0: 2795 7ebd b8cd d03b 7360 c7bc 1769 15bc
000002e0: d17f 42bd b016 b43c b234 483b cbde 8b3c
000002f0: e1c7 4bbd ff3a 483d 24ef edbc 1724 0abd
00000300: 5389 343d 5406 8d3d 805f 78bb efea 9c3c
00000310: c308 713d d2b1 12bd 73fb 05bd f163 f13c
00000320: a552 a5bc 148c 5a3b b8b8 813d 1301 2c3c
00000330: cf3e 60bd f3aa 273d a240 563d b2ad 59bc
00000340: bc8d e3bc 5d13 e1bc a201 863d 92c0 873d
00000350: 644d 3dbd 96ed 2b3d 0431 633d c5e7 b9ba
00000360: 5247 dcbc 0a3e 22bd 27e4 ae3d a831 c6bb
00000370: 0905 a5bb b179 e3bc a906 983b ff5c 143d
00000380: 7606 30bd 9b72 d6bb 8402 65bd 7dac 143d
00000390: 083c 603d 7aa2 703d 977c 263d 4b4c 423d
000003a0: 9a85 98bc 15b5 9e3c 6df1 02bb 8085 fe3c
000003b0: ab29 073d 6149 9cbc 0373 383d 8a23 8d3c
000003c0: 46d5 a53c a291 3a3d 75be ae3a 3620 8ebb
000003d0: 883e dcbc a894 533d 7c38 a43c a3b7 7a3d
000003e0: 1fc1 6f3c 97e1 5c3c bad4 d7bd 1b45 06bc
000003f0: 329f 1bbd 6095 4ebd 8380 febc 1ea2 25bd

bias f4 [256]
-0.03560209 -0.035589367 -0.002591122 0.051296983 0.013836446 -0.00708588 -0.014552212 0.07095521
-0.023450525 0.06281251 -0.04588441 -0.016515749 -0.023792095 -0.008656798 -0.003115047 0.017335275
0.04737408 -0.0067170965 0.047627054 0.032331407 0.045538895 0.027139442 0.016965618 0.015787689
-0.00014047869 -0.0632597 0.0016909307 -0.025779074 -0.0015016955 0.0135217495 -0.060098995 0.07043816
-0.016218444 0.074460246 0.06618124 0.050171778 0.040827125 0.037317023 0.034334436 0.005653835
0.0071410323 -0.06860754 -0.026251983 -0.040042516 0.03156177 -0.021571767 -0.039898206 0.0012630788
-0.052964836 -0.0102268765 0.057355806 -0.0056826146 -0.05590576 0.032503773 0.005538842 0.05974062
-0.020650312 0.047482863 0.055019975 0.063665755 0.00022992327 -0.0017349905 -0.034041703 -0.014426583
-0.0059418036 -0.05950793 -0.014292494 -0.008111736 0.043697488 0.0050246324 -0.039614633 0.032064393
-0.028479183 0.020638704 -0.0028875764 0.016563952 -0.06135388 -0.051705316 -0.043046717 -0.04917985
0.070022516 -0.052179553 -0.023300309 -0.04334502 -0.06715415 -0.060286656 0.037636038 -4.595396e-05
0.029198501 -0.021203594 0.002159316 0.01155459 0.010122929 -0.07000659 0.052673083 -0.023402644
0.04993126 0.030888157 -0.030032625 0.042940877 -0.04734588 0.07124224 -0.041495938 -0.0073690475
-0.040636957 -0.031863835 -0.045061316 0.04687493 0.046252705 -0.0042917486 0.010338602 -0.04197776
0.021074506 -0.03739179 0.025879586 0.043220393 -0.04453763 0.01565708 0.0430464 -0.07025461
0.031807885 0.058973566 -0.026471602 0.034523807 -0.021712229 -0.0055168634 0.051159877 -0.057873346
0.01090715 0.0467151 0.04129822 -0.0024703145 0.026539361 -0.0220198 -0.025167914 0.0009111931
0.04274316 -0.014669849 -0.011480043 -0.0044824244 -0.07653944 0.0082014855 0.0057369475 -0.0077089802
0.019086683 -0.037302013 0.031207893 0.0035207751 0.06446567 -0.03441059 0.039312296 0.062611766
-0.008416783 0.059983753 -0.042084772 -0.011722284 0.032933034 0.012477559 -0.030298539 -0.051252913
-0.062112827 -0.06378559 0.030881727 0.020829465 0.002803307 0.014371328 -0.018627286 -0.059714
-0.032126956 0.007183116 -0.046960812 -0.023148876 -0.055582125 0.028388482 0.051533904 -0.018753303
-0.0059382003 0.014241248 0.042940337 0.025742263 0.04047665 -0.03019849 -0.01535605 -0.013438441
-0.0658489 0.032272298 0.06863035 0.024862906 0.007571444 0.062034667 -0.035397176 -0.005402968
0.013244306 -0.06356019 -0.01999655 -0.04133798 -0.03210833 -0.0059577925 -0.03176933 -0.038369242
-0.040180814 0.06549275 0.007895424 0.029410623 -0.011262946 -0.0134123685 -0.051234484 0.04222908
-0.054012757 -0.03618019 -0.045588423 0.05354985 -0.020563822 -0.004152368 0.014570628 0.063508905
-0.033800106 -0.039388802 0.041286692 -0.06493989 -0.029749356 0.06918706 0.0060196808 0.053497225
0.048746992 -0.013240447 0.039236046 0.052920453 -0.036003023 -0.039052658 -0.017372008 -0.043924198
0.023226574 0.044355135 0.063242055 -0.03429094 0.0154409725 -0.01747241 -0.005790813 -0.040627003
-0.04050948 0.04754079 0.052887917 -0.046027027 -0.008854338 -0.0017915773 0.017321117 -0.01835216
0.07031227 0.00872041 -0.054659355 0.022955937 -0.02011178 0.06517453 0.002344779 -0.0068199
00000000: 7fd3 11bd 28c6 11bd d0cf 29bb c91c 523d
00000010: 43b2 623c ab30 e8bb 676c 6ebc f750 913d
00000020: 511b c0bc d8a3 803d 4bf1 3bbd 094c 87bc
00000030: a4e7 c2bc 3ed5 0dbc d125 4cbb b502 8e3c
00000040: 530b 423d 171b dcbb 9614 433d f06d 043d
00000050: fe86 3a3d 8953 de3c 7bfb 8a3c 2f55 813c
00000060: 764d 13b9 4d8e 81bd 38a2 dd3a a32e d3bc
00000070: 8ad4 c4ba 548a 5d3c 5d2a 76bd e241 903d
00000080: 8bdc 84bc 9d7e 983d 088a 873d ec80 4d3d
00000090: 583a 273d bcd9 183d 44a2 0c3d ce43 b93b
000000a0: 52ff e93b 1c82 8cbd 660e d7bc 9f03 24bd
000000b0: ea46 013d 46b7 b0bc 4d6c 23bd e48d a53a
000000c0: a8f1 58bd a18e 27bc eced 6a3d 3a35 babb
000000d0: 70fd 64bd ad22 053d 2d7f b53b 95b2 743d
000000e0: d82a a9bc 647d 423d a05c 613d 3163 823d
000000f0: 8f17 7139 9f68 e3ba 506f 0bbd 7a5d 6cbc
00000100: 76b3 c2bb 96be 73bd 112b 6abc 16e7 04bc
00000110: 23fc 323d aca5 a43b f442 22bd f455 033d
00000120: 2d4d e9bc 8012 a93c 7e3d 3dbb 20b1 873c
00000130: 354e 7bbd f4c8 53bd c151 30bd cf70 49bd
00000140: f767 8f3d 3aba 55bd 4ae0 bebc 8c8a 31bd
00000150: 1d88 89bd 24ef 76bd 3f28 1a3d b0be 40b8
00000160: b231 ef3c 29b3 adbc 5083 0d3b 774f 3d3c
00000170: a4da 253c 9d5f 8fbd bbbf 573d e7b6 bfbc
00000180: b984 4c3d 2909 fd3c fb06 f6bc c6e2 2f3d
00000190: c1ed 41bd 74e7 913d a5f7 29bd 0d78 f1bb
000001a0: f072 26bd a783 02bd 3792 38bd edff 3f3d
000001b0: 7a73 3d3d cca1 8cbb 3d63 293c dff0 2bbd
000001c0: 71a4 ac3c 2228 19bd 6d01 d43c de07 313d
000001d0: 176d 36bd 4743 803c 6c51 303d a6e1 8fbd
000001e0: fc48 023d 448e 713d f9da d8bc d668 0d3d
000001f0: d8dd b1bc cec6 b4bb 058d 513d 9a0c 6dbd
00000200: e7b3 323c 5558 3f3d 5328 293d 00e5 21bb
00000210: 1369 d93c de62 b4bc f12c cebc 22dd 6e3a
00000220: 7413 2f3d ce59 70bc ca16 3cbc 4de1 92bb
00000230: b6c0 9cbd 865f 063c 01fd bb3b 9d9b fcbb
00000240: ad5b 9c3c ffc9 18bd b2a7 ff3c cebc 663b
00000250: 9406 843d 1ef2 0cbd ee05 213d 993a 803d
00000260: 8ce6 09bc 86b1 753d 1561 2cbd d30e 40bc
00000270: cae4 063d ad6e 4c3c a434 f8bc 93ee 51bd
00000280: 056a 7ebd 05a2 82bd adfb fc3c 8ea2 aa3c
00000290: b0b7 373b b875 6b3c 4098 98bc ab96 74bd
000002a0: 8e97 03bd 5860 eb3b fb59 40bd b6a2 bdbc
000002b0: 15aa 63bd f68e e83c 3715 533d 87a0 99bc
000002c0: 3c95 c2bb 2054 693c 35e2 2f3d 70e1 d23c
000002d0: d8ca 253d d362 f7bc f197 7bbc e82c 5cbc
000002e0: cadb 86bd f52f 043d 128e 8c3d 4bad cb3c
000002f0: e019 f83b 1018 7e3d a1fc 10bd 610b b1bb
00000300: a5fe 583c d82b 82bd cecf a3bc 0452 29bd
00000310: 0684 03bd 9639 c3bb 8f20 02bd 1129 1dbd
00000320: a394 24bd 1021 863d cf5b 013c 8cee f03c
00000330: 3888 38bc 8dbf 5bbc 40db 51bd 66f8 2c3d
00000340: 7b3c 5dbd ae31 14bd edba 3abd 1657 5b3d
00000350: 7675 a8bc 9610 88bb a5b9 6e3c f510 823d
00000360: fb71 0abd 2756 21bd 3c1c 293d 34ff 84bd
00000370: ecb4 f3bc f2b1 8d3d be40 c53b e81f 5b3d
00000380: edaa 473d 76ee 58bc fab5 203d 1ec3 583d
00000390: e877 13bd aef5 1fbd be4f 8ebc dce9 33bd
000003a0: a845 be3c bbad 353d 0d85 813d a874 0cbd
000003b0: 22fc 7c3c 4d22 8fbc dcc0 bdbb 8068 26bd
000003c0: 45ed 25bd 22ba 423d 00a1 583d d686 3cbd
000003d0: c911 11bc 5cd3 eaba 04e5 8d3c 4557 96bc
000003e0: e1ff 8f3d 0de0 0e3c 7de2 5fbd 170e bc3c
000003f0: 76c1 a4bc 397a 853d ddaa 193b 7879 dfbb

weight f4 [97, 256]
-0.057044864 -0.0073249177 -0.032544754 0.039629575 -0.012923141 0.07721415 -0.031596024 -0.0015188447
0.054363426 0.0620736 -0.043759152 -0.03380672 -0.0031584431 0.04168561 -0.039896015 -0.03953296
-0.038957532 -0.011392978 -0.016327258 -0.017967477 -0.043979943 -0.18385276 -0.031961743 -0.03891225
-0.026530182 -0.071185976 -0.023756243 0.051498465 -0.013430423 0.06445972 0.06610898 0.051897667
0.026839439 0.0039545037 -0.02760945 -0.02046102 0.06727278 -0.0033319667 -0.040721197 0.032806963
-0.022601776 0.041199308 -0.010425227 -0.002129762 0.053063903 -0.016881391 0.06338985 0.019415652
-0.050259206 0.04587287 -0.04636757 0.052425034 0.0050560446 -0.041459173 0.012157902 0.050157864
0.017296905 -0.046746667 0.0137879215 -0.042349696 0.021334207 -0.03537826 -0.0001277543 -0.011698381
0.020364037 -0.04991609 0.03147575 0.095691875 -0.01760378 0.12304997 -0.01291314 0.027853575
0.023493387 0.013265678 -0.019310955 -0.033188272 -0.06780774 0.06916827 0.045627557 -0.0063578673
0.009693749 -0.005602438 -0.018398695 0.0340125 -0.018054403 -0.04225372 -0.045371428 -0.14871943
0.056658734 0.044796597 -0.026419519 -0.030470591 0.049696308 0.013837629 0.06673069 0.0001926465
-0.015610695 0.061375517 0.030765813 -0.038215064 -0.06313877 -0.044793457 -0.017572695 0.07307541
0.008746667 0.052218616 0.032290813 -0.0013616717 0.005035465 -0.06645535 -0.05905642 0.031640075
0.015316326 -0.05768129 0.036916576 0.052284714 -0.050526287 -0.01771176 0.043872565 0.03964219
-0.036503453 0.06650566 0.033206135 0.0658678 -0.05230617 -0.0037163782 0.055548687 0.020836772
0.04624651 -0.049547534 -0.038241457 0.04111214 -0.05291793 0.012081835 -0.022152934 -0.047362152
-0.021545447 -0.026565712 0.016762946 -0.022730542 -0.015374816 -0.031468984 0.07392308 0.055381946
0.02052351 0.036181662 0.06341257 0.04705237 0.059058663 -0.04046365 0.0052775587 -0.05277731
0.033560865 -0.036277406 -0.021032052 0.04472504 -0.024310512 -0.05985261 0.056548562 -0.0278515
-0.007887375 -0.015791107 0.06347884 0.03184747 0.07352992 0.022406988 -0.01111421 -0.021496829
-0.007487161 0.01438176 -0.022658078 0.04818309 -0.08971125 0.062090214 0.026628645 -0.017915033
-0.036248367 0.055595532 -0.02412843 -0.064794146 0.053561747 0.011659303 -0.012546743 -0.03964636
0.0047012535 0.061411403 -0.0076469146 -0.05432758 0.0050500655 -0.034061257 -0.09092284 0.058572598
0.049326062 -0.025479691 0.040650874 0.036544632 -0.02618212 0.054862678 0.01956431 -0.015398593
-0.028316267 -0.037383318 -0.011107919 -0.04459619 -0.025418833 -0.044901453 0.020747222 -0.020761885
-0.009786812 0.030026287 0.0019738285 -0.00495278 0.060294665 -0.0034664744 0.0115216365 0.005230383
-0.01006141 -0.0028176284 -0.011617207 -0.039106794 0.01814877 0.020380335 -0.07638236 0.058367226
0.0006175989 0.0049836757 0.019812038 -0.051171117 0.062160846 0.04130587 -0.018143583 0.019434394
0.008620869 0.027629683 -0.0015587449 0.10645314 0.075815156 0.017088873 -0.04430984 -0.05541886
0.08171573 0.00091733056 -0.031016078 7.723465e-05 0.02385003 0.02752492 -0.051009033 -0.004038169
-0.019965675 0.058445983 0.019767044 -0.04607163 -0.01632515 0.0407352 0.028948389 -0.014679865
00000000: e0a7 69bd dd05 f0bb a64d 05bd 9f52 223d
00000010: 95bb 53bc 7422 9e3d d56a 01bd f913 c7ba
00000020: 2fac 5e3d e340 7e3d cc3c 33bd ea78 0abd
00000030: e2fd 4ebb 88be 2a3d 016a 23bd 50ed 21bd
00000040: ef91 1fbd 9da9 3abc bec0 85bc 8830 93bc
00000050: 5024 34bd e643 3cbe 51ea 02bd 7462 1fbd
00000060: d355 d9bc f4c9 91bd 749c c2bc 0ef0 523d
00000070: 470b 5cbc 7503 843d 2564 873d a692 543d
00000080: 62de db3c c894 813b 372d e2bc de9d a7bc
00000090: 50c6 893d 205d 5abb 45cb 26bd 9860 063d
000000a0: 5c27 b9bc 9bc0 283d 92ce 2abc 7a93 0bbb
000000b0: 8959 593d d84a 8abc 8ad2 813d 930d 9f3c
000000c0: 99dc 4dbd 31e5 3b3d eceb 3dbd a2bb 563d
000000d0: 2dad a53b 18d1 29bd f031 473c 5572 4d3d
000000e0: 3db2 8d3c 6f79 3fbd bce6 613c e076 2dbd
000000f0: 13c5 ae3c cbe8 10bd c9f5 05b9 91aa 3fbc
00000100: 7bd2 a63c d074 4cbd b7ec 003d 1afa c33d
00000110: cd35 90bc 9f01 fc3d a291 53bc 2e2d e43c
00000120: 3475 c03c 4958 593c 0232 9ebc 6df0 07bd
00000130: c9de 8abd 18a8 8d3d f6e3 3a3d a855 d0bb
00000140: 88d2 1e3c a894 b7bb dcb8 96bc b150 0b3d
00000150: d4e6 93bc 3d12 2dbd 64d7 39bd e849 18be
00000160: fd12 683d a37c 373d bf6d d8bc 769d f9bc
00000170: 5b8e 4b3d 39b7 623c 1aaa 883d 2701 4a39
00000180: 00c4 7fbc e564 7b3d 9608 fc3c 6687 1cbd
00000190: e64e 81bd 5879 37bd 9df4 8fbc 90a8 953d
000001a0: 2e4e 0f3c 30e3 553d 5f43 043d 1f7a b2ba
000001b0: 8b00 a53b be19 88bd 25e5 71bd 0699 013d
000001c0: 54f1 7a3c 3743 6cbd d635 173d 7f28 563d
000001d0: a7f4 4ebd 4118 91bc b8b3 333d d95f 223d
000001e0: a584 15bd 1f34 883d 2803 083d b2e5 863d
000001f0: ff3e 56bd 7b8e 73bb 0587 633d e1b1 aa3c
00000200: fb6c 3d3d 5bf2 4abd 13a3 1cbd 3465 283d
00000210: 79c0 58bd e4f2 453c 127a b5bc d1fe 41bd
00000220: 1480 b0bc 56a0 d9bc 7252 893c 6735 babc
00000230: a7e6 7bbc 9fe5 00bd fc64 973d 2ed8 623d
00000240: ec20 a83c 3933 143d 73de 813d fcb9 403d
00000250: 7fe7 713d 36bd 25bd 5fef ac3b 052d 58bd
00000260: 1e77 093d 9e97 14bd 694b acbc 9b31 373d
00000270: d726 c7bc 0328 75bd 779f 673d d428 e4bc
00000280: 0c3a 01bc 5a5c 81bc 3201 823d 7e72 023d
00000290: db96 963d dc8e b73c 6018 36bc 1e1a b0bc
000002a0: dc56 f5bb 79a1 6b3c 6f9d b9bc a25b 453d
000002b0: 88ba b7bd 4f52 7e3d 5124 da3c 8cc2 92bc
000002c0: 2b79 14bd 24b8 633d fca8 c5bc cbb2 84bd
000002d0: 9063 5b3d a906 3f3c db90 4dbc 3964 22bd
000002e0: f90c 9a3b 868a 7b3d f892 fabb 9986 5ebd
000002f0: 057b a53b d183 0bbd c135 babd d2e9 6f3d
00000300: 200a 4a3d c9ba d0bc 8881 263d d3af 153d
00000310: e37b d6bc b0b7 603d 5545 a03c 614a 7cbc
00000320: 84f7 e7bc 401f 19bd fdfd 35bc 7faa 36bd
00000330: 283b d0bc 96ea 37bd 14f6 a93c d414 aabc
00000340: dd58 20bc b0f9 f53c 595b 013b ee4a a2bb
00000350: 8af7 763d ca2d 63bb 3fc5 3c3c a263 ab3b
00000360: 9dd8 24bc f6a7 38bb 1956 3ebc 722e 20bd
00000370: bbac 943c a9f4 a63c 5b6e 9cbd 7912 6f3d
00000380: 5ce6 213a 1a4e a33b db4c a23c ce98 51bd
00000390: 5f9c 7e3d 5830 293d daa1 94bc e134 9f3c
000003a0: 8c3e 0d3c a557 e23c cd4e ccba 1b04 da3d
000003b0: fa44 9b3d f7fd 8b3c 3c7e 35bd e3fe 62bd
000003c0: 945a a73d 0379 703a 6e15 febc 09f9 a138
000003d0: 2361 c33c f17b e13c d9ee 50bd 9e52 84bb
000003e0: 0e8f a3bc 0e65 6f3d 7fee a13c 9bb5 3cbd
000003f0: 52bc 85bc f4d9 263d 2c25 ed3c d183 70bc

bias f4 [97]
0.05286888 -0.024256736 -0.045203466 -0.04007566 0.026975237 0.033345055 0.037438 0.018836172
0.020005245 0.0022301832 0.014340896 0.04378951 0.0073013077 -0.039447583 -0.029184088 0.01191303
-0.047947682 0.043684416 0.04016019 0.07004994 0.029818859 0.022986693 0.00971706 -0.030839493
0.016388137 -0.012145992 -0.002500302 0.022197891 0.004081395 -0.0205182 0.009993961 -0.022523958
-0.0151388375 0.022560863 0.0069252546 -0.052806757 0.051711097 -0.040922236 -0.046536278 0.0072871004
0.015125691 0.051979236 0.012342875 0.008172272 -0.045374714 0.041911192 0.034217957 -0.033607323
-0.050722018 -0.014016821 -0.0142031 -0.066080794 -0.01690036 -0.02250274 -0.03351752 0.059488736
0.024382524 -0.0015792848 -0.040413365 0.022401934 0.035901528 0.06567717 0.074487634 0.04715738
0.00018319018 -0.07733696 0.039556444 -0.028258435 0.04087894 -0.03260933 0.071269155 -0.0021846844
-0.021470213 -0.016861968 0.0066978494 0.03735277 -0.010107098 0.042753715 0.026816547 -0.009106687
0.00097309443 0.0029638826 0.023475988 0.008736732 -0.060330402 -0.052134342 0.0007480294 0.04362531
0.072186485 0.023606453 0.028973272 -0.002784404 -0.04688779 -0.060483422 -0.020587545 -0.021280741
-0.04443864
00000000: 0a8d 583d 10b6 c6bc 4527 39bd 6026 24bd
00000010: 2cfb dc3c d394 083d 9758 193d 514e 9a3c
00000020: 0ae2 a33c 4428 123b 14f6 6a3c a15c 333d
00000030: cf3f ef3b ca93 21bd 7813 efbc df2e 433c
00000040: ca64 44bd 6eee 323d 037f 243d 5876 8f3d
00000050: ae46 f43c 974e bc3c 4e34 1f3c 1ba3 fcbc
00000060: 6a40 863c fcff 46bc 1bdc 23bb 5ad8 b53c
00000070: 39bd 853b c915 a8bc b6bd 233c 2a84 b8bc
00000080: e308 78bc 8fd1 b83c 3fed e23b e64b 58bd
00000090: 04cf 533d 139e 27bd d39c 3ebd a1c8 ee3b
000000a0: bfd1 773c 2ee8 543d c539 4a3c fee4 053c
000000b0: d6da 39bd 12ab 2b3d 2128 0c3d d5a7 09bd
000000c0: e4c1 4fbd cfa6 65bc 1fb4 68bc 5e55 87bd
000000d0: a072 8abc ab57 b8bc ab49 09bd 76aa 733d
000000e0: dcbd c73c 0100 cfba 7c88 25bd 4384 b73c
000000f0: 7b0d 133d c181 863d f98c 983d 1928 413d
00000100: bd16 4039 d762 9ebd f005 223d 3c7e e7bc
00000110: ad70 273d 5c91 05bd 90f5 913d ec2c 0fbb
00000120: 4de2 afbc 1c22 8abc a279 db3b 38ff 183d
00000130: 3e98 25bc 851e 2f3d 60ae db3c 3734 15bc
00000140: 4317 7f3a b33d 423b b750 c03c 8324 0f3c
00000150: 031d 77bd d28a 55bd 6717 443a 74b0 323d
00000160: 82d6 933d 5262 c13c 5b59 ed3c 8c7a 36bb
00000170: 690d 40bd 77bd 77bd 36a7 a8bc f354 aebc
00000180: 4b05 36bd
